…
      sampler {
        min_scale: 0.3
        max_scale: 1
        min_aspect_ratio: 0.5
        max_aspect_ratio: 2
      }
      sample_constraint {
        min_jaccard_overlap: 0.9
      }
      max_sample: 1
      max_trials: 50
    }
    batch_sampler {
      sampler {
        min_scale: 0.3
        max_scale: 1
        min_aspect_ratio: 0.5
        max_aspect_ratio: 2
      }
      sample_constraint {
        max_jaccard_overlap: 1
      }
      max_sample: 1
      max_trials: 50
    }
    label_map_file: "data/bdc2018/labelmap_bdc.prototxt"
  }
}
layer {
  name: "conv1_1"
  type: "Convolution"
  bottom: "data"
  top: "conv1_1"
  param {
    lr_mult: 1
    decay_mult: 1
  }
  param {
    lr_mult: 2
    decay_mult: 0
  }
  convolution_param {
    num_output: 64
    pad: 1
    kernel_size: 3
    weight_filler {
      type: "xavier"
    }
    bias_filler {
      type: "constant"
      value: 0
    }
  }
}
layer {
  name: "relu1_1"
  type: "ReLU"
  bottom: "conv1_1"
  top: "conv1_1"
}
layer {
  name: "conv1_2"
  type: "Convolution"
  bottom: "conv1_1"
  top: "conv1_2"
  param {
    lr_mult: 1
    decay_mult: 1
  }
  param {
    lr_mult: 2
    decay_mult: 0
  }
  convolution_param {
    num_output: 64
    pad: 1
    kernel_size: 3
    weight_filler {
      type: "xavier"
    }
    bias_filler {
      type: "constant"
      value: 0
    }
  }
}
layer {
  name: "relu1_2"
  type: "ReLU"
  bottom: "conv1_2"
  top: "conv1_2"
}
layer {
  name: "pool1"
  type: "Pooling"
  bottom: "conv1_2"
  top: "pool1"
  pooling_param {
    pool: MAX
    kernel_size: 2
    stride: 2
  }
}
layer {
  name: "conv2_1"
  type: "Convolution"
  bottom: "pool1"
  top: "conv2_1"
  param {
    lr_mult: 1
    decay_mult: 1
  }
  param {
    lr_mult: 2
    decay_mult: 0
  }
  convolution_param {
    num_output: 128
    pad: 1
    kernel_size: 3
    weight_filler {
      type: "xavier"
    }
    bias_filler {
      type: "constant"
      value: 0
    }
  }
}
layer {
  name: "relu2_1"
  type: "ReLU"
  bottom: "conv2_1"
  top: "conv2_1"
}
layer {
  name: "conv2_2"
  type: "Convolution"
  bottom: "conv2_1"
  top: "conv2_2"
  param {
    lr_mult: 1
    decay_mult: 1
  }
  param {
    lr_mult: 2
    decay_mult: 0
  }
  convolution_param {
    num_output: 128
    pad: 1
    kernel_size: 3
    weight_filler {
      type: "xavier"
    }
    bias_filler {
      type: "constant"
      value: 0
    }
  }
}
layer {
  name: "relu2_2"
  type: "ReLU"
  bottom: "conv2_2"
  top: "conv2_2"
}
layer {
  name: "pool2"
  type: "Pooling"
  bottom: "conv2_2"
  top: "pool2"
  pooling_param {
    pool: MAX
    kernel_size: 2
    stride: 2
  }
}
layer {
  name: "conv3_1"
  type: "Convolution"
  bottom: "pool2"
  top: "conv3_1"
  param {
    lr_mult: 1
    decay_mult: 1
  }
  param {
    lr_mult: 2
    decay_mult: 0
  }
  convolution_param {
    num_output: 256
    pad: 1
    kernel_size: 3
    weight_filler {
      type: "xavier"
    }
    bias_filler {
      type: "constant"
      value: 0
    }
  }
}
layer {
  name: "relu3_1"
  type: "ReLU"
  bottom: "conv3_1"
  top: "conv3_1"
}
layer {
  name: "conv3_2"
  type: "Convolution"
  bottom: "conv3_1"
  top: "conv3_2"
  param {
    lr_mult: 1
    decay_mult: 1
  }
  param {
    lr_mult: 2
    decay_mult: 0
  }
  convolution_param {
    num_output: 256
    pad: 1
    kernel_size: 3
    weight_filler {
      type: "xavier"
    }
    bias_filler {
      type: "constant"
      value: 0
    }
  }
}
layer {
  name: "relu3_2"
  type: "ReLU"
  bottom: "conv3_2"
  top: "conv3_2"
}
layer {
  name: "conv3_3"
  type: "Convolution"
  bottom: "conv3_2"
  top: "conv3_3"
  param {
    lr_mult: 1
    decay_mult: 1
  }
  param {
    lr_mult: 2
    decay_mult: 0
  }
  convolution_param {
    num_output: 256
    pad: 1
    kernel_size: 3
    weight_filler {
      type: "xavier"
    }
    bias_filler {
      type: "constant"
      value: 0
    }
  }
}
layer {
  name: "relu3_3"
  type: "ReLU"
  bottom: "conv3_3"
  top: "conv3_3"
}
layer {
  name: "pool3"
  type: "Pooling"
  bottom: "conv3_3"
  top: "pool3"
  pooling_param {
    pool: MAX
    kernel_size: 2
    stride: 2
  }
}
layer {
  name: "conv4_1"
  type: "Convolution"
  bottom: "pool3"
  top: "conv4_1"
  param {
    lr_mult: 1
    decay_mult: 1
  }
  param {
    lr_mult: 2
    decay_mult: 0
  }
  convolution_param {
    num_output: 512
    pad: 1
    kernel_size: 3
    weight_filler {
      type: "xavier"
    }
    bias_filler {
      type: "constant"
      value: 0
    }
  }
}
layer {
  name: "relu4_1"
  type: "ReLU"
  bottom: "conv4_1"
  top: "conv4_1"
}
layer {
  name: "conv4_2"
  type: "Convolution"
  bottom: "conv4_1"
  top: "conv4_2"
  param {
    lr_mult: 1
    decay_mult: 1
  }
  param {
    lr_mult: 2
    decay_mult: 0
  }
  convolution_param {
    num_output: 512
    pad: 1
    kernel_size: 3
    weight_filler {
      type: "xavier"
    }
    bias_filler {
      type: "constant"
      value: 0
    }
  }
}
layer {
  name: "relu4_2"
  type: "ReLU"
  bottom: "conv4_2"
  top: "conv4_2"
}
layer {
  name: "conv4_3"
  type: "Convolution"
  bottom: "conv4_2"
  top: "conv4_3"
  param {
    lr_mult: 1
    decay_mult: 1
  }
  param {
    lr_mult: 2
    decay_mult: 0
  }
  convolution_param {
    num_output: 512
    pad: 1
    kernel_size: 3
    weight_filler {
      type: "xavier"
    }
    bias_filler {
      type: "constant"
      value: 0
    }
  }
}
layer {
  name: "relu4_3"
  type: "ReLU"
  bottom: "conv4_3"
  top: "conv4_3"
}
layer {
  name: "pool4"
  type: "Pooling"
  bottom: "conv4_3"
  top: "pool4"
  pooling_param {
    pool: MAX
    kernel_size: 2
    stride: 2
  }
}
layer {
  name: "conv5_1"
  type: "Convolution"
  bottom: "pool4"
  top: "conv5_1"
  param {
    lr_mult: 1
    decay_mult: 1
  }
  param {
    lr_mult: 2
    decay_mult: 0
  }
  convolution_param {
    num_output: 512
    pad: 1
    kernel_size: 3
    weight_filler {
      type: "xavier"
    }
    bias_filler {
      type: "constant"
      value: 0
    }
    dilation: 1
  }
}
layer {
  name: "relu5_1"
  type: "ReLU"
  bottom: "conv5_1"
  top: "conv5_1"
}
layer {
  name: "conv5_2"
  type: "Convolution"
  bottom: "conv5_1"
  top: "conv5_2"
  param {
    lr_mult: 1
    decay_mult: 1
  }
  param {
    lr_mult: 2
    decay_mult: 0
  }
  convolution_param {
    num_output: 512
    pad: 1
    kernel_size: 3
    weight_filler {
      type: "xavier"
    }
    bias_filler {
      type: "constant"
      value: 0
    }
    dilation: 1
  }
}
layer {
  name: "relu5_2"
  type: "ReLU"
  bottom: "conv5_2"
  top: "conv5_2"
}
layer {
  name: "conv5_3"
  type: "Convolution"
  bottom: "conv5_2"
  top: "conv5_3"
  param {
    lr_mult: 1
    decay_mult: 1
  }
  param {
    lr_mult: 2
    decay_mult: 0
  }
  convolution_param {
    num_output: 512
    pad: 1
    kernel_size: 3
    weight_filler {
      type: "xavier"
    }
    bias_filler {
      type: "constant"
      value: 0
    }
    dilation: 1
  }
}
layer {
  name: "relu5_3"
  type: "ReLU"
  bottom: "conv5_3"
  top: "conv5_3"
}
layer {
  name: "pool5"
  type: "Pooling"
  bottom: "conv5_3"
  top: "pool5"
  pooling_param {
    pool: MAX
    kernel_size: 3
    stride: 1
    pad: 1
  }
}
layer {
  name: "fc6"
  type: "Convolution"
  bottom: "pool5"
  top: "fc6"
  param {
    lr_mult: 1
    decay_mult: 1
  }
  param {
    lr_mult: 2
    decay_mult: 0
  }
  convolution_param {
    num_output: 1024
    pad: 6
    kernel_size: 3
    weight_filler {
      type: "xavier"
    }
    bias_filler {
      type: "constant"
      value: 0
    }
    dilation: 6
  }
}
layer {
  name: "relu6"
  type: "ReLU"
  bottom: "fc6"
  top: "fc6"
}
layer {
  name: "fc7"
  type: "Convolution"
  bottom: "fc6"
  top: "fc7"
  param {
    lr_mult: 1
    decay_mult: 1
  }
  param {
    lr_mult: 2
    decay_mult: 0
  }
  convolution_param {
    num_output: 1024
    kernel_size: 1
    weight_filler {
      type: "xavier"
    }
    bias_filler {
      type: "constant"
      value: 0
    }
  }
}
layer {
  name: "relu7"
  type: "ReLU"
  bottom: "fc7"
  top: "fc7"
}
layer {
  name: "conv6_1"
  type: "Convolution"
  bottom: "fc7"
  top: "conv6_1"
  param {
    lr_mult: 1
    decay_mult: 1
  }
  param {
    lr_mult: 2
    decay_mult: 0
  }
  convolution_param {
    num_output: 256
    pad: 0
    kernel_size: 1
    stride: 1
    weight_filler {
      type: "xavier"
    }
    bias_filler {
      type: "constant"
      value: 0
    }
  }
}
layer {
  name: "conv6_1_relu"
  type: "ReLU"
  bottom: "conv6_1"
  top: "conv6_1"
}
layer {
  name: "conv6_2"
  type: "Convolution"
  bottom: "conv6_1"
  top: "conv6_2"
  param {
    lr_mult: 1
    decay_mult: 1
  }
  param {
    lr_mult: 2
    decay_mult: 0
  }
  convolution_param {
    num_output: 512
    pad: 1
    kernel_size: 3
    stride: 2
    weight_filler {
      type: "xavier"
    }
    bias_filler {
      type: "constant"
      value: 0
    }
  }
}
layer {
  name: "conv6_2_relu"
  type: "ReLU"
  bottom: "conv6_2"
  top: "conv6_2"
}
layer {
  name: "conv7_1"
  type: "Convolution"
  bottom: "conv6_2"
  top: "conv7_1"
  param {
    lr_mult: 1
    decay_mult: 1
  }
  param {
    lr_mult: 2
    decay_mult: 0
  }
  convolution_param {
    num_output: 128
    pad: 0
    kernel_size: 1
    stride: 1
    weight_filler {
      type: "xavier"
    }
    bias_filler {
      type: "constant"
      value: 0
    }
  }
}
layer {
  name: "conv7_1_relu"
  type: "ReLU"
  bottom: "conv7_1"
  top: "conv7_1"
}
layer {
  name: "conv7_2"
  type: "Convolution"
  bottom: "conv7_1"
  top: "conv7_2"
  param {
    lr_mult: 1
    decay_mult: 1
  }
  param {
    lr_mult: 2
    decay_mult: 0
  }
  convolution_param {
    num_output: 256
    pad: 1
    kernel_size: 3
    stride: 2
    weight_filler {
      type: "xavier"
    }
    bias_filler {
      type: "constant"
      value: 0
    }
  }
}
layer {
  name: "conv7_2_relu"
  type: "ReLU"
  bottom: "conv7_2"
  top: "conv7_2"
}
layer {
  name: "conv8_1"
  type: "Convolution"
  bottom: "conv7_2"
  top: "conv8_1"
  param {
    lr_mult: 1
    decay_mult: 1
  }
  param {
    lr_mult: 2
    decay_mult: 0
  }
  convolution_param {
    num_output: 128
    pad: 0
    kernel_size: 1
    stride: 1
    weight_filler {
      type: "xavier"
    }
    bias_filler {
      type: "constant"
      value: 0
    }
  }
}
layer {
  name: "conv8_1_relu"
  type: "ReLU"
  bottom: "conv8_1"
  top: "conv8_1"
}
layer {
  name: "conv8_2"
  type: "Convolution"
  bottom: "conv8_1"
  top: "conv8_2"
  param {
    lr_mult: 1
    decay_mult: 1
  }
  param {
    lr_mult: 2
    decay_mult: 0
  }
  convolution_param {
    num_output: 256
    pad: 0
    kernel_size: 3
    stride: 1
    weight_filler {
      type: "xavier"
    }
    bias_filler {
      type: "constant"
      value: 0
    }
  }
}
layer {
  name: "conv8_2_relu"
  type: "ReLU"
  bottom: "conv8_2"
  top: "conv8_2"
}
layer {
  name: "conv9_1"
  type: "Convolution"
  bottom: "conv8_2"
  top: "conv9_1"
  param {
    lr_mult: 1
    decay_mult: 1
  }
  param {
    lr_mult: 2
    decay_mult: 0
  }
  convolution_param {
    num_output: 128
    pad: 0
    kernel_size: 1
    stride: 1
    weight_filler {
      type: "xavier"
    }
    bias_filler {
      type: "constant"
      value: 0
    }
  }
}
layer {
  name: "conv9_1_relu"
  type: "ReLU"
  bottom: "conv9_1"
  top: "conv9_1"
}
layer {
  name: "conv9_2"
  type: "Convolution"
  bottom: "conv9_1"
  top: "conv9_2"
  param {
    lr_mult: 1
    decay_mult: 1
  }
  param {
    lr_mult: 2
    decay_mult: 0
  }
  convolution_param {
    num_output: 256
    pad: 0
    kernel_size: 3
    stride: 1
    weight_filler {
      type: "xavier"
    }
    bias_filler {
      type: "constant"
      value: 0
    }
  }
}
layer {
  name: "conv9_2_relu"
  type: "ReLU"
  bottom: "conv9_2"
  top: "conv9_2"
}
layer {
  name: "conv4_3_norm"
  type: "Normalize"
  bottom: "conv4_3"
  top: "conv4_3_norm"
  norm_param {
    across_spatial: false
    scale_filler {
      type: "constant"
      value: 20
    }
    channel_shared: false
  }
}
layer {
  name: "conv4_3_norm_mbox_loc_bdc2018"
  type: "Convolution"
  bottom: "conv4_3_norm"
  top: "conv4_3_norm_mbox_loc_bdc2018"
  param {
    lr_mult: 1
    decay_mult: 1
  }
  param {
    lr_mult: 2
    decay_mult: 0
  }
  convolution_param {
    num_output: 16
    pad: 1
    kernel_size: 3
    stride: 1
    weight_filler {
      type: "xavier"
    }
    bias_filler {
      type: "constant"
      value: 0
    }
  }
}
layer {
  name: "conv4_3_norm_mbox_loc_bdc2018_perm_bdc2018"
  type: "Permute"
  bottom: "conv4_3_norm_mbox_loc_bdc2018"
  top: "conv4_3_norm_mbox_loc_bdc2018_perm_bdc2018"
  permute_param {
    order: 0
    order: 2
    order: 3
    order: 1
  }
}
layer {
  name: "conv4_3_norm_mbox_loc_bdc2018_flat_bdc2018"
  type: "Flatten"
  bottom: "conv4_3_norm_mbox_loc_bdc2018_perm_bdc2018"
  top: "conv4_3_norm_mbox_loc_bdc2018_flat_bdc2018"
  flatten_param {
    axis: 1
  }
}
layer {
  name: "conv4_3_norm_mbox_conf_bdc2018_new"
  type: "Convolution"
  bottom: "conv4_3_norm"
  top: "conv4_3_norm_mbox_conf_bdc2018_new"
  param {
    lr_mult: 1
    decay_mult: 1
  }
  param {
    lr_mult: 2
    decay_mult: 0
  }
  convolution_param {
    num_output: 36
    pad: 1
    kernel_size: 3
    stride: 1
    weight_filler {
      type: "xavier"
    }
    bias_filler {
      type: "constant"
      value: 0
    }
  }
}
layer {
  name: "conv4_3_norm_mbox_conf_bdc2018_new_perm_bdc2018_new"
  type: "Permute"
  bottom: "conv4_3_norm_mbox_conf_bdc2018_new"
  top: "conv4_3_norm_mbox_conf_bdc2018_new_perm_bdc2018_new"
  permute_param {
    order: 0
    order: 2
    order: 3
    order: 1
  }
}
layer {
  name: "conv4_3_norm_mbox_conf_bdc2018_new_flat_bdc2018_new"
  type: "Flatten"
  bottom: "conv4_3_norm_mbox_conf_bdc2018_new_perm_bdc2018_new"
  top: "conv4_3_norm_mbox_conf_bdc2018_new_flat_bdc2018_new"
  flatten_param {
    axis: 1
  }
}
layer {
  name: "conv4_3_norm_mbox_priorbox"
  type: "PriorBox"
  bottom: "conv4_3_norm"
  bottom: "data"
  top: "conv4_3_norm_mbox_priorbox"
  prior_box_param {
    min_size: 102.4
    max_size: 204.8
    aspect_ratio: 2
    flip: true
    clip: false
    variance: 0.1
    variance: 0.1
    variance: 0.2
    variance: 0.2
    step: 8
    offset: 0.5
  }
}
layer {
  name: "fc7_mbox_loc_bdc2018"
  type: "Convolution"
  bottom: "fc7"
  top: "fc7_mbox_loc_bdc2018"
  param {
    lr_mult: 1
    decay_mult: 1
  }
  param {
    lr_mult: 2
    decay_mult: 0
  }
  convolution_param {
    num_output: 24
    pad: 1
    kernel_size: 3
    stride: 1
    weight_filler {
      type: "xavier"
    }
    bias_filler {
      type: "constant"
      value: 0
    }
  }
}
layer {
  name: "fc7_mbox_loc_bdc2018_perm_bdc2018"
  type: "Permute"
  bottom: "fc7_mbox_loc_bdc2018"
  top: "fc7_mbox_loc_bdc2018_perm_bdc2018"
  permute_param {
    order: 0
    order: 2
    order: 3
    order: 1
  }
}
layer {
  name: "fc7_mbox_loc_bdc2018_flat_bdc2018"
  type: "Flatten"
  bottom: "fc7_mbox_loc_bdc2018_perm_bdc2018"
  top: "fc7_mbox_loc_bdc2018_flat_bdc2018"
  flatten_param {
    axis: 1
  }
}
layer {
  name: "fc7_mbox_conf_bdc2018_new"
  type: "Convolution"
  bottom: "fc7"
  top: "fc7_mbox_conf_bdc2018_new"
  param {
    lr_mult: 1
    decay_mult: 1
  }
  param {
    lr_mult: 2
    decay_mult: 0
  }
  convolution_param {
    num_output: 54
    pad: 1
    kernel_size: 3
    stride: 1
    weight_filler {
      type: "xavier"
    }
    bias_filler {
      type: "constant"
      value: 0
    }
  }
}
layer {
  name: "fc7_mbox_conf_bdc2018_new_perm_bdc2018_new"
  type: "Permute"
  bottom: "fc7_mbox_conf_bdc2018_new"
  top: "fc7_mbox_conf_bdc2018_new_perm_bdc2018_new"
  permute_param {
    order: 0
    order: 2
    order: 3
    order: 1
  }
}
layer {
  name: "fc7_mbox_conf_bdc2018_new_flat_bdc2018_new"
  type: "Flatten"
  bottom: "fc7_mbox_conf_bdc2018_new_perm_bdc2018_new"
  top: "fc7_mbox_conf_bdc2018_new_flat_bdc2018_new"
  flatten_param {
    axis: 1
  }
}
layer {
  name: "fc7_mbox_priorbox"
  type: "PriorBox"
  bottom: "fc7"
  bottom: "data"
  top: "fc7_mbox_priorbox"
  prior_box_param {
    min_size: 204.8
    max_size: 378.88
    aspect_ratio: 2
    aspect_ratio: 3
    flip: true
    clip: false
    variance: 0.1
    variance: 0.1
    variance: 0.2
    variance: 0.2
    step: 16
    offset: 0.5
  }
}
layer {
  name: "conv6_2_mbox_loc_bdc2018"
  type: "Convolution"
  bottom: "conv6_2"
  top: "conv6_2_mbox_loc_bdc2018"
  param {
    lr_mult: 1
    decay_mult: 1
  }
  param {
    lr_mult: 2
    decay_mult: 0
  }
  convolution_param {
    num_output: 24
    pad: 1
    kernel_size: 3
    stride: 1
    weight_filler {
      type: "xavier"
    }
    bias_filler {
      type: "constant"
      value: 0
    }
  }
}
layer {
  name: "conv6_2_mbox_loc_bdc2018_perm_bdc2018"
  type: "Permute"
  bottom: "conv6_2_mbox_loc_bdc2018"
  top: "conv6_2_mbox_loc_bdc2018_perm_bdc2018"
  permute_param {
    order: 0
    order: 2
    order: 3
    order: 1
  }
}
layer {
  name: "conv6_2_mbox_loc_bdc2018_flat_bdc2018"
  type: "Flatten"
  bottom: "conv6_2_mbox_loc_bdc2018_perm_bdc2018"
  top: "conv6_2_mbox_loc_bdc2018_flat_bdc2018"
  flatten_param {
    axis: 1
  }
}
layer {
  name: "conv6_2_mbox_conf_bdc2018_new"
  type: "Convolution"
  bottom: "conv6_2"
  top: "conv6_2_mbox_conf_bdc2018_new"
  param {
    lr_mult: 1
    decay_mult: 1
  }
  param {
    lr_mult: 2
    decay_mult: 0
  }
  convolution_param {
    num_output: 54
    pad: 1
    kernel_size: 3
    stride: 1
    weight_filler {
      type: "xavier"
    }
    bias_filler {
      type: "constant"
      value: 0
    }
  }
}
layer {
  name: "conv6_2_mbox_conf_bdc2018_new_perm_bdc2018_new"
  type: "Permute"
  bottom: "conv6_2_mbox_conf_bdc2018_new"
  top: "conv6_2_mbox_conf_bdc2018_new_perm_bdc2018_new"
  permute_param {
    order: 0
    order: 2
    order: 3
    order: 1
  }
}
layer {
  name: "conv6_2_mbox_conf_bdc2018_new_flat_bdc2018_new"
  type: "Flatten"
  bottom: "conv6_2_mbox_conf_bdc2018_new_perm_bdc2018_new"
  top: "conv6_2_mbox_conf_bdc2018_new_flat_bdc2018_new"
  flatten_param {
    axis: 1
  }
}
layer {
  name: "conv6_2_mbox_priorbox"
  type: "PriorBox"
  bottom: "conv6_2"
  bottom: "data"
  top: "conv6_2_mbox_priorbox"
  prior_box_param {
    min_size: 378.88
    max_size: 552.96
    aspect_ratio: 2
    aspect_ratio: 3
    flip: true
    clip: false
    variance: 0.1
    variance: 0.1
    variance: 0.2
    variance: 0.2
    step: 32
    offset: 0.5
  }
}
layer {
  name: "conv7_2_mbox_loc_bdc2018"
  type: "Convolution"
  bottom: "conv7_2"
  top: "conv7_2_mbox_loc_bdc2018"
  param {
    lr_mult: 1
    decay_mult: 1
  }
  param {
    lr_mult: 2
    decay_mult: 0
  }
  convolution_param {
    num_output: 24
    pad: 1
    kernel_size: 3
    stride: 1
    weight_filler {
      type: "xavier"
    }
    bias_filler {
      type: "constant"
      value: 0
    }
  }
}
layer {
  name: "conv7_2_mbox_loc_bdc2018_perm_bdc2018"
  type: "Permute"
  bottom: "conv7_2_mbox_loc_bdc2018"
  top: "conv7_2_mbox_loc_bdc2018_perm_bdc2018"
  permute_param {
    order: 0
    order: 2
    order: 3
    order: 1
  }
}
layer {
  name: "conv7_2_mbox_loc_bdc2018_flat_bdc2018"
  type: "Flatten"
  bottom: "conv7_2_mbox_loc_bdc2018_perm_bdc2018"
  top: "conv7_2_mbox_loc_bdc2018_flat_bdc2018"
  flatten_param {
    axis: 1
  }
}
layer {
  name: "conv7_2_mbox_conf_bdc2018_new"
  type: "Convolution"
  bottom: "conv7_2"
  top: "conv7_2_mbox_conf_bdc2018_new"
  param {
    lr_mult: 1
    decay_mult: 1
  }
  param {
    lr_mult: 2
    decay_mult: 0
  }
  convolution_param {
    num_output: 54
    pad: 1
    kernel_size: 3
    stride: 1
    weight_filler {
      type: "xavier"
    }
    bias_filler {
      type: "constant"
      value: 0
    }
  }
}
layer {
  name: "conv7_2_mbox_conf_bdc2018_new_perm_bdc2018_new"
  type: "Permute"
  bottom: "conv7_2_mbox_conf_bdc2018_new"
  top: "conv7_2_mbox_conf_bdc2018_new_perm_bdc2018_new"
  permute_param {
    order: 0
    order: 2
    order: 3
    order: 1
  }
}
layer {
  name: "conv7_2_mbox_conf_bdc2018_new_flat_bdc2018_new"
  type: "Flatten"
  bottom: "conv7_2_mbox_conf_bdc2018_new_perm_bdc2018_new"
  top: "conv7_2_mbox_conf_bdc2018_new_flat_bdc2018_new"
  flatten_param {
    axis: 1
  }
}
layer {
  name: "conv7_2_mbox_priorbox"
  type: "PriorBox"
  bottom: "conv7_2"
  bottom: "data"
  top: "conv7_2_mbox_priorbox"
  prior_box_param {
    min_size: 552.96
    max_size: 727.04
    aspect_ratio: 2
    aspect_ratio: 3
    flip: true
    clip: false
    variance: 0.1
    variance: 0.1
    variance: 0.2
    variance: 0.2
    step: 64
    offset: 0.5
  }
}
layer {
  name: "conv8_2_mbox_loc_bdc2018"
  type: "Convolution"
  bottom: "conv8_2"
  top: "conv8_2_mbox_loc_bdc2018"
  param {
    lr_mult: 1
    decay_mult: 1
  }
  param {
    lr_mult: 2
    decay_mult: 0
  }
  convolution_param {
    num_output: 16
    pad: 1
    kernel_size: 3
    stride: 1
    weight_filler {
      type: "xavier"
    }
    bias_filler {
      type: "constant"
      value: 0
    }
  }
}
layer {
  name: "conv8_2_mbox_loc_bdc2018_perm_bdc2018"
  type: "Permute"
  bottom: "conv8_2_mbox_loc_bdc2018"
  top: "conv8_2_mbox_loc_bdc2018_perm_bdc2018"
  permute_param {
    order: 0
    order: 2
    order: 3
    order: 1
  }
}
layer {
  name: "conv8_2_mbox_loc_bdc2018_flat_bdc2018"
  type: "Flatten"
  bottom: "conv8_2_mbox_loc_bdc2018_perm_bdc2018"
  top: "conv8_2_mbox_loc_bdc2018_flat_bdc2018"
  flatten_param {
    axis: 1
  }
}
layer {
  name: "conv8_2_mbox_conf_bdc2018_new"
  type: "Convolution"
  bottom: "conv8_2"
  top: "conv8_2_mbox_conf_bdc2018_new"
  param {
    lr_mult: 1
    decay_mult: 1
  }
  param {
    lr_mult: 2
    decay_mult: 0
  }
  convolution_param {
    num_output: 36
    pad: 1
    kernel_size: 3
    stride: 1
    weight_filler {
      type: "xavier"
    }
    bias_filler {
      type: "constant"
      value: 0
    }
  }
}
layer {
  name: "conv8_2_mbox_conf_bdc2018_new_perm_bdc2018_new"
  type: "Permute"
  bottom: "conv8_2_mbox_conf_bdc2018_new"
  top: "conv8_2_mbox_conf_bdc2018_new_perm_bdc2018_new"
  permute_param {
    order: 0
    order: 2
    order: 3
    order: 1
  }
}
layer {
  name: "conv8_2_mbox_conf_bdc2018_new_flat_bdc2018_new"
  type: "Flatten"
  bottom: "conv8_2_mbox_conf_bdc2018_new_perm_bdc2018_new"
  top: "conv8_2_mbox_conf_bdc2018_new_flat_bdc2018_new"
  flatten_param {
    axis: 1
  }
}
layer {
  name: "conv8_2_mbox_priorbox"
  type: "PriorBox"
  bottom: "conv8_2"
  bottom: "data"
  top: "conv8_2_mbox_priorbox"
  prior_box_param {
    min_size: 727.04
    max_size: 901.12
    aspect_ratio: 2
    flip: true
    clip: false
    variance: 0.1
    variance: 0.1
    variance: 0.2
    variance: 0.2
    step: 100
    offset: 0.5
  }
}
layer {
  name: "conv9_2_mbox_loc_bdc2018"
  type: "Convolution"
  bottom: "conv9_2"
  top: "conv9_2_mbox_loc_bdc2018"
  param {
    lr_mult: 1
    decay_mult: 1
  }
  param {
    lr_mult: 2
    decay_mult: 0
  }
  convolution_param {
    num_output: 16
    pad: 1
    kernel_size: 3
    stride: 1
    weight_filler {
      type: "xavier"
    }
    bias_filler {
      type: "constant"
      value: 0
    }
  }
}
layer {
  name: "conv9_2_mbox_loc_bdc2018_perm_bdc2018"
  type: "Permute"
  bottom: "conv9_2_mbox_loc_bdc2018"
  top: "conv9_2_mbox_loc_bdc2018_perm_bdc2018"
  permute_param {
    order: 0
    order: 2
    order: 3
    order: 1
  }
}
layer {
  name: "conv9_2_mbox_loc_bdc2018_flat_bdc2018"
  type: "Flatten"
  bottom: "conv9_2_mbox_loc_bdc2018_perm_bdc2018"
  top: "conv9_2_mbox_loc_bdc2018_flat_bdc2018"
  flatten_param {
    axis: 1
  }
}
layer {
  name: "conv9_2_mbox_conf_bdc2018_new"
  type: "Convolution"
  bottom: "conv9_2"
  top: "conv9_2_mbox_conf_bdc2018_new"
  param {
    lr_mult: 1
    decay_mult: 1
  }
  param {
    lr_mult: 2
    decay_mult: 0
  }
  convolution_param {
    num_output: 36
    pad: 1
    kernel_size: 3
    stride: 1
    weight_filler {
      type: "xavier"
    }
    bias_filler {
      type: "constant"
      value: 0
    }
  }
}
layer {
  name: "conv9_2_mbox_conf_bdc2018_new_perm_bdc2018_new"
  type: "Permute"
  bottom: "conv9_2_mbox_conf_bdc2018_new"
  top: "conv9_2_mbox_conf_bdc2018_new_perm_bdc2018_new"
  permute_param {
    order: 0
    order: 2
    order: 3
    order: 1
  }
}
layer {
  name: "conv9_2_mbox_conf_bdc2018_new_flat_bdc2018_new"
  type: "Flatten"
  bottom: "conv9_2_mbox_conf_bdc2018_new_perm_bdc2018_new"
  top: "conv9_2_mbox_conf_bdc2018_new_flat_bdc2018_new"
  flatten_param {
    axis: 1
  }
}
layer {
  name: "conv9_2_mbox_priorbox"
  type: "PriorBox"
  bottom: "conv9_2"
  bottom: "data"
  top: "conv9_2_mbox_priorbox"
  prior_box_param {
    min_size: 901.12
    max_size: 1075.2
    aspect_ratio: 2
    flip: true
    clip: false
    variance: 0.1
    variance: 0.1
    variance: 0.2
    variance: 0.2
    step: 300
    offset: 0.5
  }
}
layer {
  name: "mbox_loc"
  type: "Concat"
  bottom: "conv4_3_norm_mbox_loc_bdc2018_flat_bdc2018"
  bottom: "fc7_mbox_loc_bdc2018_flat_bdc2018"
  bottom: "conv6_2_mbox_loc_bdc2018_flat_bdc2018"
  bottom: "conv7_2_mbox_loc_bdc2018_flat_bdc2018"
  bottom: "conv8_2_mbox_loc_bdc2018_flat_bdc2018"
  bottom: "conv9_2_mbox_loc_bdc2018_flat_bdc2018"
  top: "mbox_loc"
  concat_param {
    axis: 1
  }
}
layer {
  name: "mbox_conf"
  type: "Concat"
  bottom: "conv4_3_norm_mbox_conf_bdc2018_new_flat_bdc2018_new"
  bottom: "fc7_mbox_conf_bdc2018_new_flat_bdc2018_new"
  bottom: "conv6_2_mbox_conf_bdc2018_new_flat_bdc2018_new"
  bottom: "conv7_2_mbox_conf_bdc2018_new_flat_bdc2018_new"
  bottom: "conv8_2_mbox_conf_bdc2018_new_flat_bdc2018_new"
  bottom: "conv9_2_mbox_conf_bdc2018_new_flat_bdc2018_new"
  top: "mbox_conf"
  concat_param {
    axis: 1
  }
}
layer {
  name: "mbox_priorbox"
  type: "Concat"
  bottom: "conv4_3_norm_mbox_priorbox"
  bottom: "fc7_mbox_priorbox"
  bottom: "conv6_2_mbox_priorbox"
  bottom: "conv7_2_mbox_priorbox"
  bottom: "conv8_2_mbox_priorbox"
  bottom: "conv9_2_mbox_priorbox"
  top: "mbox_priorbox"
  concat_param {
    axis: 2
  }
}
layer {
  name: "mbox_loss"
  type: "MultiBoxLoss"
  bottom: "mbox_loc"
  bottom: "mbox_conf"
  bottom: "mbox_priorbox"
  bottom: "label"
  top: "mbox_loss"
  include {
    phase: TRAIN
  }
  propagate_down: true
  propagate_down: true
  propagate_down: false
  propagate_down: false
  loss_param {
    normalization: VALID
  }
  multibox_loss_param {
    loc_loss_type: SMOOTH_L1
    conf_loss_type: SOFTMAX
    loc_weight: 1
    num_classes: 9
    share_location: true
    match_type: PER_PREDICTION
    overlap_threshold: 0.5
    use_prior_for_matching: true
    background_label_id: 0
    use_difficult_gt: true
    neg_pos_ratio: 3
    neg_overlap: 0.5
    code_type: CENTER_SIZE
    ignore_cross_boundary_bbox: false
    mining_type: MAX_NEGATIVE
  }
}
I0722 00:57:08.706584 23230 layer_factory.hpp:77] Creating layer data
I0722 00:57:08.706810 23230 net.cpp:100] Creating Layer data
I0722 00:57:08.706841 23230 net.cpp:408] data -> data
I0722 00:57:08.706887 23230 net.cpp:408] data -> label
I0722 00:57:08.709138 23236 db_lmdb.cpp:35] Opened lmdb examples/bdc2018/bdc2018_train_name_lmdb
I0722 00:57:08.758469 23230 annotated_data_layer.cpp:62] output data size: 2,3,1024,1024
I0722 00:57:08.799270 23230 net.cpp:150] Setting up data
I0722 00:57:08.799321 23230 net.cpp:157] Top shape: 2 3 1024 1024 (6291456)
I0722 00:57:08.799329 23230 net.cpp:157] Top shape: 1 1 1 8 (8)
I0722 00:57:08.799331 23230 net.cpp:165] Memory required for data: 25165856
I0722 00:57:08.799345 23230 layer_factory.hpp:77] Creating layer data_data_0_split
I0722 00:57:08.799366 23230 net.cpp:100] Creating Layer data_data_0_split
I0722 00:57:08.799374 23230 net.cpp:434] data_data_0_split <- data
I0722 00:57:08.799392 23230 net.cpp:408] data_data_0_split -> data_data_0_split_0
I0722 00:57:08.799407 23230 net.cpp:408] data_data_0_split -> data_data_0_split_1
I0722 00:57:08.799414 23230 net.cpp:408] data_data_0_split -> data_data_0_split_2
I0722 00:57:08.799422 23230 net.cpp:408] data_data_0_split -> data_data_0_split_3
I0722 00:57:08.799428 23230 net.cpp:408] data_data_0_split -> data_data_0_split_4
I0722 00:57:08.799435 23230 net.cpp:408] data_data_0_split -> data_data_0_split_5
I0722 00:57:08.799441 23230 net.cpp:408] data_data_0_split -> data_data_0_split_6
I0722 00:57:08.799567 23230 net.cpp:150] Setting up data_data_0_split
I0722 00:57:08.799577 23230 net.cpp:157] Top shape: 2 3 1024 1024 (6291456)
I0722 00:57:08.799582 23230 net.cpp:157] Top shape: 2 3 1024 1024 (6291456)
I0722 00:57:08.799587 23230 net.cpp:157] Top shape: 2 3 1024 1024 (6291456)
I0722 00:57:08.799592 23230 net.cpp:157] Top shape: 2 3 1024 1024 (6291456)
I0722 00:57:08.799595 23230 net.cpp:157] Top shape: 2 3 1024 1024 (6291456)
I0722 00:57:08.799599 23230 net.cpp:157] Top shape: 2 3 1024 1024 (6291456)
I0722 00:57:08.799603 23230 net.cpp:157] Top shape: 2 3 1024 1024 (6291456)
I0722 00:57:08.799607 23230 net.cpp:165] Memory required for data: 201326624
I0722 00:57:08.799610 23230 layer_factory.hpp:77] Creating layer conv1_1
I0722 00:57:08.799630 23230 net.cpp:100] Creating Layer conv1_1
I0722 00:57:08.799636 23230 net.cpp:434] conv1_1 <- data_data_0_split_0
I0722 00:57:08.799644 23230 net.cpp:408] conv1_1 -> conv1_1
I0722 00:57:09.124239 23237 blocking_queue.cpp:50] Waiting for data
I0722 00:57:09.232801 23230 net.cpp:150] Setting up conv1_1
I0722 00:57:09.232853 23230 net.cpp:157] Top shape: 2 64 1024 1024 (134217728)
I0722 00:57:09.232859 23230 net.cpp:165] Memory required for data: 738197536
I0722 00:57:09.232970 23230 layer_factory.hpp:77] Creating layer relu1_1
I0722 00:57:09.233000 23230 net.cpp:100] Creating Layer relu1_1
I0722 00:57:09.233008 23230 net.cpp:434] relu1_1 <- conv1_1
I0722 00:57:09.233017 23230 net.cpp:395] relu1_1 -> conv1_1 (in-place)
I0722 00:57:09.233222 23230 net.cpp:150] Setting up relu1_1
I0722 00:57:09.233235 23230 net.cpp:157] Top shape: 2 64 1024 1024 (134217728)
I0722 00:57:09.233239 23230 net.cpp:165] Memory required for data: 1275068448
I0722 00:57:09.233243 23230 layer_factory.hpp:77] Creating layer conv1_2
I0722 00:57:09.233278 23230 net.cpp:100] Creating Layer conv1_2
I0722 00:57:09.233283 23230 net.cpp:434] conv1_2 <- conv1_1
I0722 00:57:09.233295 23230 net.cpp:408] conv1_2 -> conv1_2
I0722 00:57:09.241616 23230 net.cpp:150] Setting up conv1_2
I0722 00:57:09.241634 23230 net.cpp:157] Top shape: 2 64 1024 1024 (134217728)
I0722 00:57:09.241638 23230 net.cpp:165] Memory required for data: 1811939360
I0722 00:57:09.241649 23230 layer_factory.hpp:77] Creating layer relu1_2
I0722 00:57:09.241657 23230 net.cpp:100] Creating Layer relu1_2
I0722 00:57:09.241662 23230 net.cpp:434] relu1_2 <- conv1_2
I0722 00:57:09.241667 23230 net.cpp:395] relu1_2 -> conv1_2 (in-place)
I0722 00:57:09.241860 23230 net.cpp:150] Setting up relu1_2
I0722 00:57:09.241873 23230 net.cpp:157] Top shape: 2 64 1024 1024 (134217728)
I0722 00:57:09.241876 23230 net.cpp:165] Memory required for data: 2348810272
I0722 00:57:09.241892 23230 layer_factory.hpp:77] Creating layer pool1
I0722 00:57:09.241917 23230 net.cpp:100] Creating Layer pool1
I0722 00:57:09.241924 23230 net.cpp:434] pool1 <- conv1_2
I0722 00:57:09.241930 23230 net.cpp:408] pool1 -> pool1
I0722 00:57:09.241995 23230 net.cpp:150] Setting up pool1
I0722 00:57:09.242004 23230 net.cpp:157] Top shape: 2 64 512 512 (33554432)
I0722 00:57:09.242007 23230 net.cpp:165] Memory required for data: 2483028000
I0722 00:57:09.242012 23230 layer_factory.hpp:77] Creating layer conv2_1
I0722 00:57:09.242022 23230 net.cpp:100] Creating Layer conv2_1
I0722 00:57:09.242025 23230 net.cpp:434] conv2_1 <- pool1
I0722 00:57:09.242031 23230 net.cpp:408] conv2_1 -> conv2_1
I0722 00:57:09.248375 23230 net.cpp:150] Setting up conv2_1
I0722 00:57:09.248394 23230 net.cpp:157] Top shape: 2 128 512 512 (67108864)
I0722 00:57:09.248399 23230 net.cpp:165] Memory required for data: 2751463456
I0722 00:57:09.248412 23230 layer_factory.hpp:77] Creating layer relu2_1
I0722 00:57:09.248422 23230 net.cpp:100] Creating Layer relu2_1
I0722 00:57:09.248426 23230 net.cpp:434] relu2_1 <- conv2_1
I0722 00:57:09.248432 23230 net.cpp:395] relu2_1 -> conv2_1 (in-place)
I0722 00:57:09.250111 23230 net.cpp:150] Setting up relu2_1
I0722 00:57:09.250125 23230 net.cpp:157] Top shape: 2 128 512 512 (67108864)
I0722 00:57:09.250129 23230 net.cpp:165] Memory required for data: 3019898912
I0722 00:57:09.250141 23230 layer_factory.hpp:77] Creating layer conv2_2
I0722 00:57:09.250159 23230 net.cpp:100] Creating Layer conv2_2
I0722 00:57:09.250164 23230 net.cpp:434] conv2_2 <- conv2_1
I0722 00:57:09.250171 23230 net.cpp:408] conv2_2 -> conv2_2
I0722 00:57:09.260203 23230 net.cpp:150] Setting up conv2_2
I0722 00:57:09.260224 23230 net.cpp:157] Top shape: 2 128 512 512 (67108864)
I0722 00:57:09.260229 23230 net.cpp:165] Memory required for data: 3288334368
I0722 00:57:09.260237 23230 layer_factory.hpp:77] Creating layer relu2_2
I0722 00:57:09.260243 23230 net.cpp:100] Creating Layer relu2_2
I0722 00:57:09.260248 23230 net.cpp:434] relu2_2 <- conv2_2
I0722 00:57:09.260265 23230 net.cpp:395] relu2_2 -> conv2_2 (in-place)
I0722 00:57:09.260481 23230 net.cpp:150] Setting up relu2_2
I0722 00:57:09.260495 23230 net.cpp:157] Top shape: 2 128 512 512 (67108864)
I0722 00:57:09.260499 23230 net.cpp:165] Memory required for data: 3556769824
I0722 00:57:09.260504 23230 layer_factory.hpp:77] Creating layer pool2
I0722 00:57:09.260510 23230 net.cpp:100] Creating Layer pool2
I0722 00:57:09.260515 23230 net.cpp:434] pool2 <- conv2_2
I0722 00:57:09.260520 23230 net.cpp:408] pool2 -> pool2
I0722 00:57:09.260591 23230 net.cpp:150] Setting up pool2
I0722 00:57:09.260601 23230 net.cpp:157] Top shape: 2 128 256 256 (16777216)
I0722 00:57:09.260604 23230 net.cpp:165] Memory required for data: 3623878688
I0722 00:57:09.260620 23230 layer_factory.hpp:77] Creating layer conv3_1
I0722 00:57:09.260633 23230 net.cpp:100] Creating Layer conv3_1
I0722 00:57:09.260637 23230 net.cpp:434] conv3_1 <- pool2
I0722 00:57:09.260646 23230 net.cpp:408] conv3_1 -> conv3_1
I0722 00:57:09.268270 23230 net.cpp:150] Setting up conv3_1
I0722 00:57:09.268288 23230 net.cpp:157] Top shape: 2 256 256 256 (33554432)
I0722 00:57:09.268293 23230 net.cpp:165] Memory required for data: 3758096416
I0722 00:57:09.268303 23230 layer_factory.hpp:77] Creating layer relu3_1
I0722 00:57:09.268312 23230 net.cpp:100] Creating Layer relu3_1
I0722 00:57:09.268318 23230 net.cpp:434] relu3_1 <- conv3_1
I0722 00:57:09.268324 23230 net.cpp:395] relu3_1 -> conv3_1 (in-place)
I0722 00:57:09.270143 23230 net.cpp:150] Setting up relu3_1
I0722 00:57:09.270159 23230 net.cpp:157] Top shape: 2 256 256 256 (33554432)
I0722 00:57:09.270161 23230 net.cpp:165] Memory required for data: 3892314144
I0722 00:57:09.270165 23230 layer_factory.hpp:77] Creating layer conv3_2
I0722 00:57:09.270177 23230 net.cpp:100] Creating Layer conv3_2
I0722 00:57:09.270182 23230 net.cpp:434] conv3_2 <- conv3_1
I0722 00:57:09.270191 23230 net.cpp:408] conv3_2 -> conv3_2
I0722 00:57:09.278285 23230 net.cpp:150] Setting up conv3_2
I0722 00:57:09.278307 23230 net.cpp:157] Top shape: 2 256 256 256 (33554432)
I0722 00:57:09.278311 23230 net.cpp:165] Memory required for data: 4026531872
I0722 00:57:09.278319 23230 layer_factory.hpp:77] Creating layer relu3_2
I0722 00:57:09.278336 23230 net.cpp:100] Creating Layer relu3_2
I0722 00:57:09.278339 23230 net.cpp:434] relu3_2 <- conv3_2
I0722 00:57:09.278345 23230 net.cpp:395] relu3_2 -> conv3_2 (in-place)
I0722 00:57:09.278789 23230 net.cpp:150] Setting up relu3_2
I0722 00:57:09.278805 23230 net.cpp:157] Top shape: 2 256 256 256 (33554432)
I0722 00:57:09.278810 23230 net.cpp:165] Memory required for data: 4160749600
I0722 00:57:09.278813 23230 layer_factory.hpp:77] Creating layer conv3_3
I0722 00:57:09.278829 23230 net.cpp:100] Creating Layer conv3_3
I0722 00:57:09.278834 23230 net.cpp:434] conv3_3 <- conv3_2
I0722 00:57:09.278841 23230 net.cpp:408] conv3_3 -> conv3_3
I0722 00:57:09.286573 23230 net.cpp:150] Setting up conv3_3
I0722 00:57:09.286593 23230 net.cpp:157] Top shape: 2 256 256 256 (33554432)
I0722 00:57:09.286599 23230 net.cpp:165] Memory required for data: 4294967328
I0722 00:57:09.286607 23230 layer_factory.hpp:77] Creating layer relu3_3
I0722 00:57:09.286614 23230 net.cpp:100] Creating Layer relu3_3
I0722 00:57:09.286618 23230 net.cpp:434] relu3_3 <- conv3_3
I0722 00:57:09.286624 23230 net.cpp:395] relu3_3 -> conv3_3 (in-place)
I0722 00:57:09.286829 23230 net.cpp:150] Setting up relu3_3
I0722 00:57:09.286842 23230 net.cpp:157] Top shape: 2 256 256 256 (33554432)
I0722 00:57:09.286846 23230 net.cpp:165] Memory required for data: 4429185056
I0722 00:57:09.286849 23230 layer_factory.hpp:77] Creating layer pool3
I0722 00:57:09.286859 23230 net.cpp:100] Creating Layer pool3
I0722 00:57:09.286862 23230 net.cpp:434] pool3 <- conv3_3
I0722 00:57:09.286869 23230 net.cpp:408] pool3 -> pool3
I0722 00:57:09.286923 23230 net.cpp:150] Setting up pool3
I0722 00:57:09.286932 23230 net.cpp:157] Top shape: 2 256 128 128 (8388608)
I0722 00:57:09.286936 23230 net.cpp:165] Memory required for data: 4462739488
I0722 00:57:09.286947 23230 layer_factory.hpp:77] Creating layer conv4_1
I0722 00:57:09.286959 23230 net.cpp:100] Creating Layer conv4_1
I0722 00:57:09.286965 23230 net.cpp:434] conv4_1 <- pool3
I0722 00:57:09.286974 23230 net.cpp:408] conv4_1 -> conv4_1
I0722 00:57:09.299978 23230 net.cpp:150] Setting up conv4_1
I0722 00:57:09.299996 23230 net.cpp:157] Top shape: 2 512 128 128 (16777216)
I0722 00:57:09.300000 23230 net.cpp:165] Memory required for data: 4529848352
I0722 00:57:09.300009 23230 layer_factory.hpp:77] Creating layer relu4_1
I0722 00:57:09.300017 23230 net.cpp:100] Creating Layer relu4_1
I0722 00:57:09.300036 23230 net.cpp:434] relu4_1 <- conv4_1
I0722 00:57:09.300042 23230 net.cpp:395] relu4_1 -> conv4_1 (in-place)
I0722 00:57:09.300271 23230 net.cpp:150] Setting up relu4_1
I0722 00:57:09.300284 23230 net.cpp:157] Top shape: 2 512 128 128 (16777216)
I0722 00:57:09.300287 23230 net.cpp:165] Memory required for data: 4596957216
I0722 00:57:09.300292 23230 layer_factory.hpp:77] Creating layer conv4_2
I0722 00:57:09.300303 23230 net.cpp:100] Creating Layer conv4_2
I0722 00:57:09.300308 23230 net.cpp:434] conv4_2 <- conv4_1
I0722 00:57:09.300318 23230 net.cpp:408] conv4_2 -> conv4_2
I0722 00:57:09.339054 23230 net.cpp:150] Setting up conv4_2
I0722 00:57:09.339093 23230 net.cpp:157] Top shape: 2 512 128 128 (16777216)
I0722 00:57:09.339102 23230 net.cpp:165] Memory required for data: 4664066080
I0722 00:57:09.339141 23230 layer_factory.hpp:77] Creating layer relu4_2
I0722 00:57:09.339155 23230 net.cpp:100] Creating Layer relu4_2
I0722 00:57:09.339164 23230 net.cpp:434] relu4_2 <- conv4_2
I0722 00:57:09.339174 23230 net.cpp:395] relu4_2 -> conv4_2 (in-place)
I0722 00:57:09.341054 23230 net.cpp:150] Setting up relu4_2
I0722 00:57:09.341076 23230 net.cpp:157] Top shape: 2 512 128 128 (16777216)
I0722 00:57:09.341083 23230 net.cpp:165] Memory required for data: 4731174944
I0722 00:57:09.341089 23230 layer_factory.hpp:77] Creating layer conv4_3
I0722 00:57:09.341112 23230 net.cpp:100] Creating Layer conv4_3
I0722 00:57:09.341120 23230 net.cpp:434] conv4_3 <- conv4_2
I0722 00:57:09.341131 23230 net.cpp:408] conv4_3 -> conv4_3
I0722 00:57:09.375401 23230 net.cpp:150] Setting up conv4_3
I0722 00:57:09.375437 23230 net.cpp:157] Top shape: 2 512 128 128 (16777216)
I0722 00:57:09.375442 23230 net.cpp:165] Memory required for data: 4798283808
I0722 00:57:09.375454 23230 layer_factory.hpp:77] Creating layer relu4_3
I0722 00:57:09.375464 23230 net.cpp:100] Creating Layer relu4_3
I0722 00:57:09.375470 23230 net.cpp:434] relu4_3 <- conv4_3
I0722 00:57:09.375478 23230 net.cpp:395] relu4_3 -> conv4_3 (in-place)
I0722 00:57:09.377442 23230 net.cpp:150] Setting up relu4_3
I0722 00:57:09.377460 23230 net.cpp:157] Top shape: 2 512 128 128 (16777216)
I0722 00:57:09.377466 23230 net.cpp:165] Memory required for data: 4865392672
I0722 00:57:09.377483 23230 layer_factory.hpp:77] Creating layer conv4_3_relu4_3_0_split
I0722 00:57:09.377506 23230 net.cpp:100] Creating Layer conv4_3_relu4_3_0_split
I0722 00:57:09.377512 23230 net.cpp:434] conv4_3_relu4_3_0_split <- conv4_3
I0722 00:57:09.377521 23230 net.cpp:408] conv4_3_relu4_3_0_split -> conv4_3_relu4_3_0_split_0
I0722 00:57:09.377537 23230 net.cpp:408] conv4_3_relu4_3_0_split -> conv4_3_relu4_3_0_split_1
I0722 00:57:09.377616 23230 net.cpp:150] Setting up conv4_3_relu4_3_0_split
I0722 00:57:09.377629 23230 net.cpp:157] Top shape: 2 512 128 128 (16777216)
I0722 00:57:09.377635 23230 net.cpp:157] Top shape: 2 512 128 128 (16777216)
I0722 00:57:09.377640 23230 net.cpp:165] Memory required for data: 4999610400
I0722 00:57:09.377645 23230 layer_factory.hpp:77] Creating layer pool4
I0722 00:57:09.377658 23230 net.cpp:100] Creating Layer pool4
I0722 00:57:09.377663 23230 net.cpp:434] pool4 <- conv4_3_relu4_3_0_split_0
I0722 00:57:09.377672 23230 net.cpp:408] pool4 -> pool4
I0722 00:57:09.377738 23230 net.cpp:150] Setting up pool4
I0722 00:57:09.377750 23230 net.cpp:157] Top shape: 2 512 64 64 (4194304)
I0722 00:57:09.377754 23230 net.cpp:165] Memory required for data: 5016387616
I0722 00:57:09.377759 23230 layer_factory.hpp:77] Creating layer conv5_1
I0722 00:57:09.377775 23230 net.cpp:100] Creating Layer conv5_1
I0722 00:57:09.377784 23230 net.cpp:434] conv5_1 <- pool4
I0722 00:57:09.377795 23230 net.cpp:408] conv5_1 -> conv5_1
I0722 00:57:09.407939 23230 net.cpp:150] Setting up conv5_1
I0722 00:57:09.407965 23230 net.cpp:157] Top shape: 2 512 64 64 (4194304)
I0722 00:57:09.407970 23230 net.cpp:165] Memory required for data: 5033164832
I0722 00:57:09.407992 23230 layer_factory.hpp:77] Creating layer relu5_1
I0722 00:57:09.408005 23230 net.cpp:100] Creating Layer relu5_1
I0722 00:57:09.408033 23230 net.cpp:434] relu5_1 <- conv5_1
I0722 00:57:09.408042 23230 net.cpp:395] relu5_1 -> conv5_1 (in-place)
I0722 00:57:09.408617 23230 net.cpp:150] Setting up relu5_1
I0722 00:57:09.408638 23230 net.cpp:157] Top shape: 2 512 64 64 (4194304)
I0722 00:57:09.408643 23230 net.cpp:165] Memory required for data: 5049942048
I0722 00:57:09.408648 23230 layer_factory.hpp:77] Creating layer conv5_2
I0722 00:57:09.408665 23230 net.cpp:100] Creating Layer conv5_2
I0722 00:57:09.408673 23230 net.cpp:434] conv5_2 <- conv5_1
I0722 00:57:09.408681 23230 net.cpp:408] conv5_2 -> conv5_2
I0722 00:57:09.438285 23230 net.cpp:150] Setting up conv5_2
I0722 00:57:09.438310 23230 net.cpp:157] Top shape: 2 512 64 64 (4194304)
I0722 00:57:09.438315 23230 net.cpp:165] Memory required for data: 5066719264
I0722 00:57:09.438328 23230 layer_factory.hpp:77] Creating layer relu5_2
I0722 00:57:09.438341 23230 net.cpp:100] Creating Layer relu5_2
I0722 00:57:09.438347 23230 net.cpp:434] relu5_2 <- conv5_2
I0722 00:57:09.438354 23230 net.cpp:395] relu5_2 -> conv5_2 (in-place)
I0722 00:57:09.440347 23230 net.cpp:150] Setting up relu5_2
I0722 00:57:09.440367 23230 net.cpp:157] Top shape: 2 512 64 64 (4194304)
I0722 00:57:09.440371 23230 net.cpp:165] Memory required for data: 5083496480
I0722 00:57:09.440376 23230 layer_factory.hpp:77] Creating layer conv5_3
I0722 00:57:09.440400 23230 net.cpp:100] Creating Layer conv5_3
I0722 00:57:09.440408 23230 net.cpp:434] conv5_3 <- conv5_2
I0722 00:57:09.440416 23230 net.cpp:408] conv5_3 -> conv5_3
I0722 00:57:09.463030 23230 net.cpp:150] Setting up conv5_3
I0722 00:57:09.463083 23230 net.cpp:157] Top shape: 2 512 64 64 (4194304)
I0722 00:57:09.463096 23230 net.cpp:165] Memory required for data: 5100273696
I0722 00:57:09.463120 23230 layer_factory.hpp:77] Creating layer relu5_3
I0722 00:57:09.463209 23230 net.cpp:100] Creating Layer relu5_3
I0722 00:57:09.463227 23230 net.cpp:434] relu5_3 <- conv5_3
I0722 00:57:09.463241 23230 net.cpp:395] relu5_3 -> conv5_3 (in-place)
I0722 00:57:09.464812 23230 net.cpp:150] Setting up relu5_3
I0722 00:57:09.464838 23230 net.cpp:157] Top shape: 2 512 64 64 (4194304)
I0722 00:57:09.464844 23230 net.cpp:165] Memory required for data: 5117050912
I0722 00:57:09.464853 23230 layer_factory.hpp:77] Creating layer pool5
I0722 00:57:09.464869 23230 net.cpp:100] Creating Layer pool5
I0722 00:57:09.464877 23230 net.cpp:434] pool5 <- conv5_3
I0722 00:57:09.464907 23230 net.cpp:408] pool5 -> pool5
I0722 00:57:09.465023 23230 net.cpp:150] Setting up pool5
I0722 00:57:09.465040 23230 net.cpp:157] Top shape: 2 512 64 64 (4194304)
I0722 00:57:09.465047 23230 net.cpp:165] Memory required for data: 5133828128
I0722 00:57:09.465054 23230 layer_factory.hpp:77] Creating layer fc6
I0722 00:57:09.465082 23230 net.cpp:100] Creating Layer fc6
I0722 00:57:09.465091 23230 net.cpp:434] fc6 <- pool5
I0722 00:57:09.465107 23230 net.cpp:408] fc6 -> fc6
I0722 00:57:09.526669 23230 net.cpp:150] Setting up fc6
I0722 00:57:09.526702 23230 net.cpp:157] Top shape: 2 1024 64 64 (8388608)
I0722 00:57:09.526708 23230 net.cpp:165] Memory required for data: 5167382560
I0722 00:57:09.526722 23230 layer_factory.hpp:77] Creating layer relu6
I0722 00:57:09.526734 23230 net.cpp:100] Creating Layer relu6
I0722 00:57:09.526742 23230 net.cpp:434] relu6 <- fc6
I0722 00:57:09.526754 23230 net.cpp:395] relu6 -> fc6 (in-place)
I0722 00:57:09.527109 23230 net.cpp:150] Setting up relu6
I0722 00:57:09.527132 23230 net.cpp:157] Top shape: 2 1024 64 64 (8388608)
I0722 00:57:09.527137 23230 net.cpp:165] Memory required for data: 5200936992
I0722 00:57:09.527143 23230 layer_factory.hpp:77] Creating layer fc7
I0722 00:57:09.527163 23230 net.cpp:100] Creating Layer fc7
I0722 00:57:09.527170 23230 net.cpp:434] fc7 <- fc6
I0722 00:57:09.527179 23230 net.cpp:408] fc7 -> fc7
I0722 00:57:09.540642 23230 net.cpp:150] Setting up fc7
I0722 00:57:09.540668 23230 net.cpp:157] Top shape: 2 1024 64 64 (8388608)
I0722 00:57:09.540674 23230 net.cpp:165] Memory required for data: 5234491424
I0722 00:57:09.540685 23230 layer_factory.hpp:77] Creating layer relu7
I0722 00:57:09.540732 23230 net.cpp:100] Creating Layer relu7
I0722 00:57:09.540740 23230 net.cpp:434] relu7 <- fc7
I0722 00:57:09.540748 23230 net.cpp:395] relu7 -> fc7 (in-place)
I0722 00:57:09.541050 23230 net.cpp:150] Setting up relu7
I0722 00:57:09.541069 23230 net.cpp:157] Top shape: 2 1024 64 64 (8388608)
I0722 00:57:09.541074 23230 net.cpp:165] Memory required for data: 5268045856
I0722 00:57:09.541081 23230 layer_factory.hpp:77] Creating layer fc7_relu7_0_split
I0722 00:57:09.541095 23230 net.cpp:100] Creating Layer fc7_relu7_0_split
I0722 00:57:09.541101 23230 net.cpp:434] fc7_relu7_0_split <- fc7
I0722 00:57:09.541110 23230 net.cpp:408] fc7_relu7_0_split -> fc7_relu7_0_split_0
I0722 00:57:09.541123 23230 net.cpp:408] fc7_relu7_0_split -> fc7_relu7_0_split_1
I0722 00:57:09.541159 23230 net.cpp:408] fc7_relu7_0_split -> fc7_relu7_0_split_2
I0722 00:57:09.541173 23230 net.cpp:408] fc7_relu7_0_split -> fc7_relu7_0_split_3
I0722 00:57:09.541286 23230 net.cpp:150] Setting up fc7_relu7_0_split
I0722 00:57:09.541298 23230 net.cpp:157] Top shape: 2 1024 64 64 (8388608)
I0722 00:57:09.541307 23230 net.cpp:157] Top shape: 2 1024 64 64 (8388608)
I0722 00:57:09.541313 23230 net.cpp:157] Top shape: 2 1024 64 64 (8388608)
I0722 00:57:09.541319 23230 net.cpp:157] Top shape: 2 1024 64 64 (8388608)
I0722 00:57:09.541323 23230 net.cpp:165] Memory required for data: 5402263584
I0722 00:57:09.541332 23230 layer_factory.hpp:77] Creating layer conv6_1
I0722 00:57:09.541347 23230 net.cpp:100] Creating Layer conv6_1
I0722 00:57:09.541352 23230 net.cpp:434] conv6_1 <- fc7_relu7_0_split_0
I0722 00:57:09.541365 23230 net.cpp:408] conv6_1 -> conv6_1
I0722 00:57:09.545420 23230 net.cpp:150] Setting up conv6_1
I0722 00:57:09.545445 23230 net.cpp:157] Top shape: 2 256 64 64 (2097152)
I0722 00:57:09.545450 23230 net.cpp:165] Memory required for data: 5410652192
I0722 00:57:09.545461 23230 layer_factory.hpp:77] Creating layer conv6_1_relu
I0722 00:57:09.545470 23230 net.cpp:100] Creating Layer conv6_1_relu
I0722 00:57:09.545477 23230 net.cpp:434] conv6_1_relu <- conv6_1
I0722 00:57:09.545488 23230 net.cpp:395] conv6_1_relu -> conv6_1 (in-place)
I0722 00:57:09.546769 23230 net.cpp:150] Setting up conv6_1_relu
I0722 00:57:09.546797 23230 net.cpp:157] Top shape: 2 256 64 64 (2097152)
I0722 00:57:09.546802 23230 net.cpp:165] Memory required for data: 5419040800
I0722 00:57:09.546810 23230 layer_factory.hpp:77] Creating layer conv6_2
I0722 00:57:09.546829 23230 net.cpp:100] Creating Layer conv6_2
I0722 00:57:09.546836 23230 net.cpp:434] conv6_2 <- conv6_1
I0722 00:57:09.546846 23230 net.cpp:408] conv6_2 -> conv6_2
I0722 00:57:09.560880 23230 net.cpp:150] Setting up conv6_2
I0722 00:57:09.560914 23230 net.cpp:157] Top shape: 2 512 32 32 (1048576)
I0722 00:57:09.560920 23230 net.cpp:165] Memory required for data: 5423235104
I0722 00:57:09.560956 23230 layer_factory.hpp:77] Creating layer conv6_2_relu
I0722 00:57:09.560967 23230 net.cpp:100] Creating Layer conv6_2_relu
I0722 00:57:09.560974 23230 net.cpp:434] conv6_2_relu <- conv6_2
I0722 00:57:09.560986 23230 net.cpp:395] conv6_2_relu -> conv6_2 (in-place)
I0722 00:57:09.562551 23230 net.cpp:150] Setting up conv6_2_relu
I0722 00:57:09.562578 23230 net.cpp:157] Top shape: 2 512 32 32 (1048576)
I0722 00:57:09.562584 23230 net.cpp:165] Memory required for data: 5427429408
I0722 00:57:09.562590 23230 layer_factory.hpp:77] Creating layer conv6_2_conv6_2_relu_0_split
I0722 00:57:09.562602 23230 net.cpp:100] Creating Layer conv6_2_conv6_2_relu_0_split
I0722 00:57:09.562608 23230 net.cpp:434] conv6_2_conv6_2_relu_0_split <- conv6_2
I0722 00:57:09.562620 23230 net.cpp:408] conv6_2_conv6_2_relu_0_split -> conv6_2_conv6_2_relu_0_split_0
I0722 00:57:09.562633 23230 net.cpp:408] conv6_2_conv6_2_relu_0_split -> conv6_2_conv6_2_relu_0_split_1
I0722 00:57:09.562641 23230 net.cpp:408] conv6_2_conv6_2_relu_0_split -> conv6_2_conv6_2_relu_0_split_2
I0722 00:57:09.562651 23230 net.cpp:408] conv6_2_conv6_2_relu_0_split -> conv6_2_conv6_2_relu_0_split_3
I0722 00:57:09.562764 23230 net.cpp:150] Setting up conv6_2_conv6_2_relu_0_split
I0722 00:57:09.562799 23230 net.cpp:157] Top shape: 2 512 32 32 (1048576)
I0722 00:57:09.562805 23230 net.cpp:157] Top shape: 2 512 32 32 (1048576)
I0722 00:57:09.562813 23230 net.cpp:157] Top shape: 2 512 32 32 (1048576)
I0722 00:57:09.562817 23230 net.cpp:157] Top shape: 2 512 32 32 (1048576)
I0722 00:57:09.562821 23230 net.cpp:165] Memory required for data: 5444206624
I0722 00:57:09.562827 23230 layer_factory.hpp:77] Creating layer conv7_1
I0722 00:57:09.562845 23230 net.cpp:100] Creating Layer conv7_1
I0722 00:57:09.562855 23230 net.cpp:434] conv7_1 <- conv6_2_conv6_2_relu_0_split_0
I0722 00:57:09.562865 23230 net.cpp:408] conv7_1 -> conv7_1
I0722 00:57:09.567812 23230 net.cpp:150] Setting up conv7_1
I0722 00:57:09.567836 23230 net.cpp:157] Top shape: 2 128 32 32 (262144)
I0722 00:57:09.567840 23230 net.cpp:165] Memory required for data: 5445255200
I0722 00:57:09.567850 23230 layer_factory.hpp:77] Creating layer conv7_1_relu
I0722 00:57:09.567860 23230 net.cpp:100] Creating Layer conv7_1_relu
I0722 00:57:09.567867 23230 net.cpp:434] conv7_1_relu <- conv7_1
I0722 00:57:09.567876 23230 net.cpp:395] conv7_1_relu -> conv7_1 (in-place)
I0722 00:57:09.569967 23230 net.cpp:150] Setting up conv7_1_relu
I0722 00:57:09.569983 23230 net.cpp:157] Top shape: 2 128 32 32 (262144)
I0722 00:57:09.569988 23230 net.cpp:165] Memory required for data: 5446303776
I0722 00:57:09.569993 23230 layer_factory.hpp:77] Creating layer conv7_2
I0722 00:57:09.570008 23230 net.cpp:100] Creating Layer conv7_2
I0722 00:57:09.570014 23230 net.cpp:434] conv7_2 <- conv7_1
I0722 00:57:09.570026 23230 net.cpp:408] conv7_2 -> conv7_2
I0722 00:57:09.577325 23230 net.cpp:150] Setting up conv7_2
I0722 00:57:09.577349 23230 net.cpp:157] Top shape: 2 256 16 16 (131072)
I0722 00:57:09.577355 23230 net.cpp:165] Memory required for data: 5446828064
I0722 00:57:09.577368 23230 layer_factory.hpp:77] Creating layer conv7_2_relu
I0722 00:57:09.577378 23230 net.cpp:100] Creating Layer conv7_2_relu
I0722 00:57:09.577384 23230 net.cpp:434] conv7_2_relu <- conv7_2
I0722 00:57:09.577392 23230 net.cpp:395] conv7_2_relu -> conv7_2 (in-place)
I0722 00:57:09.579244 23230 net.cpp:150] Setting up conv7_2_relu
I0722 00:57:09.579262 23230 net.cpp:157] Top shape: 2 256 16 16 (131072)
I0722 00:57:09.579267 23230 net.cpp:165] Memory required for data: 5447352352
I0722 00:57:09.579272 23230 layer_factory.hpp:77] Creating layer conv7_2_conv7_2_relu_0_split
I0722 00:57:09.579283 23230 net.cpp:100] Creating Layer conv7_2_conv7_2_relu_0_split
I0722 00:57:09.579290 23230 net.cpp:434] conv7_2_conv7_2_relu_0_split <- conv7_2
I0722 00:57:09.579299 23230 net.cpp:408] conv7_2_conv7_2_relu_0_split -> conv7_2_conv7_2_relu_0_split_0
I0722 00:57:09.579313 23230 net.cpp:408] conv7_2_conv7_2_relu_0_split -> conv7_2_conv7_2_relu_0_split_1
I0722 00:57:09.579320 23230 net.cpp:408] conv7_2_conv7_2_relu_0_split -> conv7_2_conv7_2_relu_0_split_2
I0722 00:57:09.579329 23230 net.cpp:408] conv7_2_conv7_2_relu_0_split -> conv7_2_conv7_2_relu_0_split_3
I0722 00:57:09.579432 23230 net.cpp:150] Setting up conv7_2_conv7_2_relu_0_split
I0722 00:57:09.579442 23230 net.cpp:157] Top shape: 2 256 16 16 (131072)
I0722 00:57:09.579448 23230 net.cpp:157] Top shape: 2 256 16 16 (131072)
I0722 00:57:09.579453 23230 net.cpp:157] Top shape: 2 256 16 16 (131072)
I0722 00:57:09.579458 23230 net.cpp:157] Top shape: 2 256 16 16 (131072)
I0722 00:57:09.579463 23230 net.cpp:165] Memory required for data: 5449449504
I0722 00:57:09.579470 23230 layer_factory.hpp:77] Creating layer conv8_1
I0722 00:57:09.579485 23230 net.cpp:100] Creating Layer conv8_1
I0722 00:57:09.579491 23230 net.cpp:434] conv8_1 <- conv7_2_conv7_2_relu_0_split_0
I0722 00:57:09.579502 23230 net.cpp:408] conv8_1 -> conv8_1
I0722 00:57:09.586324 23230 net.cpp:150] Setting up conv8_1
I0722 00:57:09.586344 23230 net.cpp:157] Top shape: 2 128 16 16 (65536)
I0722 00:57:09.586350 23230 net.cpp:165] Memory required for data: 5449711648
I0722 00:57:09.586359 23230 layer_factory.hpp:77] Creating layer conv8_1_relu
I0722 00:57:09.586391 23230 net.cpp:100] Creating Layer conv8_1_relu
I0722 00:57:09.586398 23230 net.cpp:434] conv8_1_relu <- conv8_1
I0722 00:57:09.586406 23230 net.cpp:395] conv8_1_relu -> conv8_1 (in-place)
I0722 00:57:09.588407 23230 net.cpp:150] Setting up conv8_1_relu
I0722 00:57:09.588421 23230 net.cpp:157] Top shape: 2 128 16 16 (65536)
I0722 00:57:09.588426 23230 net.cpp:165] Memory required for data: 5449973792
I0722 00:57:09.588431 23230 layer_factory.hpp:77] Creating layer conv8_2
I0722 00:57:09.588448 23230 net.cpp:100] Creating Layer conv8_2
I0722 00:57:09.588455 23230 net.cpp:434] conv8_2 <- conv8_1
I0722 00:57:09.588466 23230 net.cpp:408] conv8_2 -> conv8_2
I0722 00:57:09.598309 23230 net.cpp:150] Setting up conv8_2
I0722 00:57:09.598333 23230 net.cpp:157] Top shape: 2 256 14 14 (100352)
I0722 00:57:09.598338 23230 net.cpp:165] Memory required for data: 5450375200
I0722 00:57:09.598350 23230 layer_factory.hpp:77] Creating layer conv8_2_relu
I0722 00:57:09.598362 23230 net.cpp:100] Creating Layer conv8_2_relu
I0722 00:57:09.598371 23230 net.cpp:434] conv8_2_relu <- conv8_2
I0722 00:57:09.598377 23230 net.cpp:395] conv8_2_relu -> conv8_2 (in-place)
I0722 00:57:09.600193 23230 net.cpp:150] Setting up conv8_2_relu
I0722 00:57:09.600209 23230 net.cpp:157] Top shape: 2 256 14 14 (100352)
I0722 00:57:09.600214 23230 net.cpp:165] Memory required for data: 5450776608
I0722 00:57:09.600219 23230 layer_factory.hpp:77] Creating layer conv8_2_conv8_2_relu_0_split
I0722 00:57:09.600232 23230 net.cpp:100] Creating Layer conv8_2_conv8_2_relu_0_split
I0722 00:57:09.600240 23230 net.cpp:434] conv8_2_conv8_2_relu_0_split <- conv8_2
I0722 00:57:09.600248 23230 net.cpp:408] conv8_2_conv8_2_relu_0_split -> conv8_2_conv8_2_relu_0_split_0
I0722 00:57:09.600263 23230 net.cpp:408] conv8_2_conv8_2_relu_0_split -> conv8_2_conv8_2_relu_0_split_1
I0722 00:57:09.600271 23230 net.cpp:408] conv8_2_conv8_2_relu_0_split -> conv8_2_conv8_2_relu_0_split_2
I0722 00:57:09.600280 23230 net.cpp:408] conv8_2_conv8_2_relu_0_split -> conv8_2_conv8_2_relu_0_split_3
I0722 00:57:09.600411 23230 net.cpp:150] Setting up conv8_2_conv8_2_relu_0_split
I0722 00:57:09.600428 23230 net.cpp:157] Top shape: 2 256 14 14 (100352)
I0722 00:57:09.600436 23230 net.cpp:157] Top shape: 2 256 14 14 (100352)
I0722 00:57:09.600441 23230 net.cpp:157] Top shape: 2 256 14 14 (100352)
I0722 00:57:09.600446 23230 net.cpp:157] Top shape: 2 256 14 14 (100352)
I0722 00:57:09.600450 23230 net.cpp:165] Memory required for data: 5452382240
I0722 00:57:09.600455 23230 layer_factory.hpp:77] Creating layer conv9_1
I0722 00:57:09.600471 23230 net.cpp:100] Creating Layer conv9_1
I0722 00:57:09.600477 23230 net.cpp:434] conv9_1 <- conv8_2_conv8_2_relu_0_split_0
I0722 00:57:09.600486 23230 net.cpp:408] conv9_1 -> conv9_1
I0722 00:57:09.606981 23230 net.cpp:150] Setting up conv9_1
I0722 00:57:09.607002 23230 net.cpp:157] Top shape: 2 128 14 14 (50176)
I0722 00:57:09.607007 23230 net.cpp:165] Memory required for data: 5452582944
I0722 00:57:09.607017 23230 layer_factory.hpp:77] Creating layer conv9_1_relu
I0722 00:57:09.607024 23230 net.cpp:100] Creating Layer conv9_1_relu
I0722 00:57:09.607030 23230 net.cpp:434] conv9_1_relu <- conv9_1
I0722 00:57:09.607039 23230 net.cpp:395] conv9_1_relu -> conv9_1 (in-place)
I0722 00:57:09.609071 23230 net.cpp:150] Setting up conv9_1_relu
I0722 00:57:09.609092 23230 net.cpp:157] Top shape: 2 128 14 14 (50176)
I0722 00:57:09.609099 23230 net.cpp:165] Memory required for data: 5452783648
I0722 00:57:09.609104 23230 layer_factory.hpp:77] Creating layer conv9_2
I0722 00:57:09.609122 23230 net.cpp:100] Creating Layer conv9_2
I0722 00:57:09.609128 23230 net.cpp:434] conv9_2 <- conv9_1
I0722 00:57:09.609138 23230 net.cpp:408] conv9_2 -> conv9_2
I0722 00:57:09.615970 23230 net.cpp:150] Setting up conv9_2
I0722 00:57:09.615991 23230 net.cpp:157] Top shape: 2 256 12 12 (73728)
I0722 00:57:09.615996 23230 net.cpp:165] Memory required for data: 5453078560
I0722 00:57:09.616005 23230 layer_factory.hpp:77] Creating layer conv9_2_relu
I0722 00:57:09.616016 23230 net.cpp:100] Creating Layer conv9_2_relu
I0722 00:57:09.616040 23230 net.cpp:434] conv9_2_relu <- conv9_2
I0722 00:57:09.616050 23230 net.cpp:395] conv9_2_relu -> conv9_2 (in-place)
I0722 00:57:09.618041 23230 net.cpp:150] Setting up conv9_2_relu
I0722 00:57:09.618070 23230 net.cpp:157] Top shape: 2 256 12 12 (73728)
I0722 00:57:09.618075 23230 net.cpp:165] Memory required for data: 5453373472
I0722 00:57:09.618080 23230 layer_factory.hpp:77] Creating layer conv9_2_conv9_2_relu_0_split
I0722 00:57:09.618089 23230 net.cpp:100] Creating Layer conv9_2_conv9_2_relu_0_split
I0722 00:57:09.618098 23230 net.cpp:434] conv9_2_conv9_2_relu_0_split <- conv9_2
I0722 00:57:09.618108 23230 net.cpp:408] conv9_2_conv9_2_relu_0_split -> conv9_2_conv9_2_relu_0_split_0
I0722 00:57:09.618129 23230 net.cpp:408] conv9_2_conv9_2_relu_0_split -> conv9_2_conv9_2_relu_0_split_1
I0722 00:57:09.618139 23230 net.cpp:408] conv9_2_conv9_2_relu_0_split -> conv9_2_conv9_2_relu_0_split_2
I0722 00:57:09.618223 23230 net.cpp:150] Setting up conv9_2_conv9_2_relu_0_split
I0722 00:57:09.618233 23230 net.cpp:157] Top shape: 2 256 12 12 (73728)
I0722 00:57:09.618238 23230 net.cpp:157] Top shape: 2 256 12 12 (73728)
I0722 00:57:09.618242 23230 net.cpp:157] Top shape: 2 256 12 12 (73728)
I0722 00:57:09.618247 23230 net.cpp:165] Memory required for data: 5454258208
I0722 00:57:09.618250 23230 layer_factory.hpp:77] Creating layer conv4_3_norm
I0722 00:57:09.618263 23230 net.cpp:100] Creating Layer conv4_3_norm
I0722 00:57:09.618268 23230 net.cpp:434] conv4_3_norm <- conv4_3_relu4_3_0_split_1
I0722 00:57:09.618278 23230 net.cpp:408] conv4_3_norm -> conv4_3_norm
I0722 00:57:09.618567 23230 net.cpp:150] Setting up conv4_3_norm
I0722 00:57:09.618579 23230 net.cpp:157] Top shape: 2 512 128 128 (16777216)
I0722 00:57:09.618583 23230 net.cpp:165] Memory required for data: 5521367072
I0722 00:57:09.618590 23230 layer_factory.hpp:77] Creating layer conv4_3_norm_conv4_3_norm_0_split
I0722 00:57:09.618598 23230 net.cpp:100] Creating Layer conv4_3_norm_conv4_3_norm_0_split
I0722 00:57:09.618602 23230 net.cpp:434] conv4_3_norm_conv4_3_norm_0_split <- conv4_3_norm
I0722 00:57:09.618611 23230 net.cpp:408] conv4_3_norm_conv4_3_norm_0_split -> conv4_3_norm_conv4_3_norm_0_split_0
I0722 00:57:09.618619 23230 net.cpp:408] conv4_3_norm_conv4_3_norm_0_split -> conv4_3_norm_conv4_3_norm_0_split_1
I0722 00:57:09.618628 23230 net.cpp:408] conv4_3_norm_conv4_3_norm_0_split -> conv4_3_norm_conv4_3_norm_0_split_2
I0722 00:57:09.618691 23230 net.cpp:150] Setting up conv4_3_norm_conv4_3_norm_0_split
I0722 00:57:09.618700 23230 net.cpp:157] Top shape: 2 512 128 128 (16777216)
I0722 00:57:09.618705 23230 net.cpp:157] Top shape: 2 512 128 128 (16777216)
I0722 00:57:09.618710 23230 net.cpp:157] Top shape: 2 512 128 128 (16777216)
I0722 00:57:09.618712 23230 net.cpp:165] Memory required for data: 5722693664
I0722 00:57:09.618716 23230 layer_factory.hpp:77] Creating layer conv4_3_norm_mbox_loc_bdc2018
I0722 00:57:09.618732 23230 net.cpp:100] Creating Layer conv4_3_norm_mbox_loc_bdc2018
I0722 00:57:09.618737 23230 net.cpp:434] conv4_3_norm_mbox_loc_bdc2018 <- conv4_3_norm_conv4_3_norm_0_split_0
I0722 00:57:09.618744 23230 net.cpp:408] conv4_3_norm_mbox_loc_bdc2018 -> conv4_3_norm_mbox_loc_bdc2018
I0722 00:57:09.625977 23230 net.cpp:150] Setting up conv4_3_norm_mbox_loc_bdc2018
I0722 00:57:09.625999 23230 net.cpp:157] Top shape: 2 16 128 128 (524288)
I0722 00:57:09.626004 23230 net.cpp:165] Memory required for data: 5724790816
I0722 00:57:09.626015 23230 layer_factory.hpp:77] Creating layer conv4_3_norm_mbox_loc_bdc2018_perm_bdc2018
I0722 00:57:09.626026 23230 net.cpp:100] Creating Layer conv4_3_norm_mbox_loc_bdc2018_perm_bdc2018
I0722 00:57:09.626032 23230 net.cpp:434] conv4_3_norm_mbox_loc_bdc2018_perm_bdc2018 <- conv4_3_norm_mbox_loc_bdc2018
I0722 00:57:09.626042 23230 net.cpp:408] conv4_3_norm_mbox_loc_bdc2018_perm_bdc2018 -> conv4_3_norm_mbox_loc_bdc2018_perm_bdc2018
I0722 00:57:09.626219 23230 net.cpp:150] Setting up conv4_3_norm_mbox_loc_bdc2018_perm_bdc2018
I0722 00:57:09.626232 23230 net.cpp:157] Top shape: 2 128 128 16 (524288)
I0722 00:57:09.626253 23230 net.cpp:165] Memory required for data: 5726887968
I0722 00:57:09.626258 23230 layer_factory.hpp:77] Creating layer conv4_3_norm_mbox_loc_bdc2018_flat_bdc2018
I0722 00:57:09.626271 23230 net.cpp:100] Creating Layer conv4_3_norm_mbox_loc_bdc2018_flat_bdc2018
I0722 00:57:09.626277 23230 net.cpp:434] conv4_3_norm_mbox_loc_bdc2018_flat_bdc2018 <- conv4_3_norm_mbox_loc_bdc2018_perm_bdc2018
I0722 00:57:09.626287 23230 net.cpp:408] conv4_3_norm_mbox_loc_bdc2018_flat_bdc2018 -> conv4_3_norm_mbox_loc_bdc2018_flat_bdc2018
I0722 00:57:09.626346 23230 net.cpp:150] Setting up conv4_3_norm_mbox_loc_bdc2018_flat_bdc2018
I0722 00:57:09.626356 23230 net.cpp:157] Top shape: 2 262144 (524288)
I0722 00:57:09.626360 23230 net.cpp:165] Memory required for data: 5728985120
I0722 00:57:09.626364 23230 layer_factory.hpp:77] Creating layer conv4_3_norm_mbox_conf_bdc2018_new
I0722 00:57:09.626399 23230 net.cpp:100] Creating Layer conv4_3_norm_mbox_conf_bdc2018_new
I0722 00:57:09.626406 23230 net.cpp:434] conv4_3_norm_mbox_conf_bdc2018_new <- conv4_3_norm_conv4_3_norm_0_split_1
I0722 00:57:09.626415 23230 net.cpp:408] conv4_3_norm_mbox_conf_bdc2018_new -> conv4_3_norm_mbox_conf_bdc2018_new
I0722 00:57:09.635994 23230 net.cpp:150] Setting up conv4_3_norm_mbox_conf_bdc2018_new
I0722 00:57:09.636030 23230 net.cpp:157] Top shape: 2 36 128 128 (1179648)
I0722 00:57:09.636041 23230 net.cpp:165] Memory required for data: 5733703712
I0722 00:57:09.636067 23230 layer_factory.hpp:77] Creating layer conv4_3_norm_mbox_conf_bdc2018_new_perm_bdc2018_new
I0722 00:57:09.636078 23230 net.cpp:100] Creating Layer conv4_3_norm_mbox_conf_bdc2018_new_perm_bdc2018_new
I0722 00:57:09.636085 23230 net.cpp:434] conv4_3_norm_mbox_conf_bdc2018_new_perm_bdc2018_new <- conv4_3_norm_mbox_conf_bdc2018_new
I0722 00:57:09.636095 23230 net.cpp:408] conv4_3_norm_mbox_conf_bdc2018_new_perm_bdc2018_new -> conv4_3_norm_mbox_conf_bdc2018_new_perm_bdc2018_new
I0722 00:57:09.636256 23230 net.cpp:150] Setting up conv4_3_norm_mbox_conf_bdc2018_new_perm_bdc2018_new
I0722 00:57:09.636266 23230 net.cpp:157] Top shape: 2 128 128 36 (1179648)
I0722 00:57:09.636270 23230 net.cpp:165] Memory required for data: 5738422304
I0722 00:57:09.636274 23230 layer_factory.hpp:77] Creating layer conv4_3_norm_mbox_conf_bdc2018_new_flat_bdc2018_new
I0722 00:57:09.636282 23230 net.cpp:100] Creating Layer conv4_3_norm_mbox_conf_bdc2018_new_flat_bdc2018_new
I0722 00:57:09.636287 23230 net.cpp:434] conv4_3_norm_mbox_conf_bdc2018_new_flat_bdc2018_new <- conv4_3_norm_mbox_conf_bdc2018_new_perm_bdc2018_new
I0722 00:57:09.636296 23230 net.cpp:408] conv4_3_norm_mbox_conf_bdc2018_new_flat_bdc2018_new -> conv4_3_norm_mbox_conf_bdc2018_new_flat_bdc2018_new
I0722 00:57:09.636332 23230 net.cpp:150] Setting up conv4_3_norm_mbox_conf_bdc2018_new_flat_bdc2018_new
I0722 00:57:09.636340 23230 net.cpp:157] Top shape: 2 589824 (1179648)
I0722 00:57:09.636344 23230 net.cpp:165] Memory required for data: 5743140896
I0722 00:57:09.636348 23230 layer_factory.hpp:77] Creating layer conv4_3_norm_mbox_priorbox
I0722 00:57:09.636358 23230 net.cpp:100] Creating Layer conv4_3_norm_mbox_priorbox
I0722 00:57:09.636361 23230 net.cpp:434] conv4_3_norm_mbox_priorbox <- conv4_3_norm_conv4_3_norm_0_split_2
I0722 00:57:09.636368 23230 net.cpp:434] conv4_3_norm_mbox_priorbox <- data_data_0_split_1
I0722 00:57:09.636378 23230 net.cpp:408] conv4_3_norm_mbox_priorbox -> conv4_3_norm_mbox_priorbox
I0722 00:57:09.636420 23230 net.cpp:150] Setting up conv4_3_norm_mbox_priorbox
I0722 00:57:09.636428 23230 net.cpp:157] Top shape: 1 2 262144 (524288)
I0722 00:57:09.636432 23230 net.cpp:165] Memory required for data: 5745238048
I0722 00:57:09.636438 23230 layer_factory.hpp:77] Creating layer fc7_mbox_loc_bdc2018
I0722 00:57:09.636453 23230 net.cpp:100] Creating Layer fc7_mbox_loc_bdc2018
I0722 00:57:09.636461 23230 net.cpp:434] fc7_mbox_loc_bdc2018 <- fc7_relu7_0_split_1
I0722 00:57:09.636472 23230 net.cpp:408] fc7_mbox_loc_bdc2018 -> fc7_mbox_loc_bdc2018
I0722 00:57:09.642771 23230 net.cpp:150] Setting up fc7_mbox_loc_bdc2018
I0722 00:57:09.642805 23230 net.cpp:157] Top shape: 2 24 64 64 (196608)
I0722 00:57:09.642810 23230 net.cpp:165] Memory required for data: 5746024480
I0722 00:57:09.642819 23230 layer_factory.hpp:77] Creating layer fc7_mbox_loc_bdc2018_perm_bdc2018
I0722 00:57:09.642828 23230 net.cpp:100] Creating Layer fc7_mbox_loc_bdc2018_perm_bdc2018
I0722 00:57:09.642837 23230 net.cpp:434] fc7_mbox_loc_bdc2018_perm_bdc2018 <- fc7_mbox_loc_bdc2018
I0722 00:57:09.642846 23230 net.cpp:408] fc7_mbox_loc_bdc2018_perm_bdc2018 -> fc7_mbox_loc_bdc2018_perm_bdc2018
I0722 00:57:09.643003 23230 net.cpp:150] Setting up fc7_mbox_loc_bdc2018_perm_bdc2018
I0722 00:57:09.643013 23230 net.cpp:157] Top shape: 2 64 64 24 (196608)
I0722 00:57:09.643018 23230 net.cpp:165] Memory required for data: 5746810912
I0722 00:57:09.643021 23230 layer_factory.hpp:77] Creating layer fc7_mbox_loc_bdc2018_flat_bdc2018
I0722 00:57:09.643029 23230 net.cpp:100] Creating Layer fc7_mbox_loc_bdc2018_flat_bdc2018
I0722 00:57:09.643033 23230 net.cpp:434] fc7_mbox_loc_bdc2018_flat_bdc2018 <- fc7_mbox_loc_bdc2018_perm_bdc2018
I0722 00:57:09.643043 23230 net.cpp:408] fc7_mbox_loc_bdc2018_flat_bdc2018 -> fc7_mbox_loc_bdc2018_flat_bdc2018
I0722 00:57:09.643077 23230 net.cpp:150] Setting up fc7_mbox_loc_bdc2018_flat_bdc2018
I0722 00:57:09.643086 23230 net.cpp:157] Top shape: 2 98304 (196608)
I0722 00:57:09.643090 23230 net.cpp:165] Memory required for data: 5747597344
I0722 00:57:09.643095 23230 layer_factory.hpp:77] Creating layer fc7_mbox_conf_bdc2018_new
I0722 00:57:09.643110 23230 net.cpp:100] Creating Layer fc7_mbox_conf_bdc2018_new
I0722 00:57:09.643117 23230 net.cpp:434] fc7_mbox_conf_bdc2018_new <- fc7_relu7_0_split_2
I0722 00:57:09.643127 23230 net.cpp:408] fc7_mbox_conf_bdc2018_new -> fc7_mbox_conf_bdc2018_new
I0722 00:57:09.658493 23230 net.cpp:150] Setting up fc7_mbox_conf_bdc2018_new
I0722 00:57:09.658514 23230 net.cpp:157] Top shape: 2 54 64 64 (442368)
I0722 00:57:09.658519 23230 net.cpp:165] Memory required for data: 5749366816
I0722 00:57:09.658529 23230 layer_factory.hpp:77] Creating layer fc7_mbox_conf_bdc2018_new_perm_bdc2018_new
I0722 00:57:09.658543 23230 net.cpp:100] Creating Layer fc7_mbox_conf_bdc2018_new_perm_bdc2018_new
I0722 00:57:09.658551 23230 net.cpp:434] fc7_mbox_conf_bdc2018_new_perm_bdc2018_new <- fc7_mbox_conf_bdc2018_new
I0722 00:57:09.658560 23230 net.cpp:408] fc7_mbox_conf_bdc2018_new_perm_bdc2018_new -> fc7_mbox_conf_bdc2018_new_perm_bdc2018_new
I0722 00:57:09.658725 23230 net.cpp:150] Setting up fc7_mbox_conf_bdc2018_new_perm_bdc2018_new
I0722 00:57:09.658735 23230 net.cpp:157] Top shape: 2 64 64 54 (442368)
I0722 00:57:09.658740 23230 net.cpp:165] Memory required for data: 5751136288
I0722 00:57:09.658743 23230 layer_factory.hpp:77] Creating layer fc7_mbox_conf_bdc2018_new_flat_bdc2018_new
I0722 00:57:09.658753 23230 net.cpp:100] Creating Layer fc7_mbox_conf_bdc2018_new_flat_bdc2018_new
I0722 00:57:09.658758 23230 net.cpp:434] fc7_mbox_conf_bdc2018_new_flat_bdc2018_new <- fc7_mbox_conf_bdc2018_new_perm_bdc2018_new
I0722 00:57:09.658766 23230 net.cpp:408] fc7_mbox_conf_bdc2018_new_flat_bdc2018_new -> fc7_mbox_conf_bdc2018_new_flat_bdc2018_new
I0722 00:57:09.658802 23230 net.cpp:150] Setting up fc7_mbox_conf_bdc2018_new_flat_bdc2018_new
I0722 00:57:09.658810 23230 net.cpp:157] Top shape: 2 221184 (442368)
I0722 00:57:09.658814 23230 net.cpp:165] Memory required for data: 5752905760
I0722 00:57:09.658820 23230 layer_factory.hpp:77] Creating layer fc7_mbox_priorbox
I0722 00:57:09.658831 23230 net.cpp:100] Creating Layer fc7_mbox_priorbox
I0722 00:57:09.658835 23230 net.cpp:434] fc7_mbox_priorbox <- fc7_relu7_0_split_3
I0722 00:57:09.658841 23230 net.cpp:434] fc7_mbox_priorbox <- data_data_0_split_2
I0722 00:57:09.658850 23230 net.cpp:408] fc7_mbox_priorbox -> fc7_mbox_priorbox
I0722 00:57:09.658885 23230 net.cpp:150] Setting up fc7_mbox_priorbox
I0722 00:57:09.658895 23230 net.cpp:157] Top shape: 1 2 98304 (196608)
I0722 00:57:09.658898 23230 net.cpp:165] Memory required for data: 5753692192
I0722 00:57:09.658902 23230 layer_factory.hpp:77] Creating layer conv6_2_mbox_loc_bdc2018
I0722 00:57:09.658937 23230 net.cpp:100] Creating Layer conv6_2_mbox_loc_bdc2018
I0722 00:57:09.658946 23230 net.cpp:434] conv6_2_mbox_loc_bdc2018 <- conv6_2_conv6_2_relu_0_split_1
I0722 00:57:09.658953 23230 net.cpp:408] conv6_2_mbox_loc_bdc2018 -> conv6_2_mbox_loc_bdc2018
I0722 00:57:09.664613 23230 net.cpp:150] Setting up conv6_2_mbox_loc_bdc2018
I0722 00:57:09.664634 23230 net.cpp:157] Top shape: 2 24 32 32 (49152)
I0722 00:57:09.664639 23230 net.cpp:165] Memory required for data: 5753888800
I0722 00:57:09.664649 23230 layer_factory.hpp:77] Creating layer conv6_2_mbox_loc_bdc2018_perm_bdc2018
I0722 00:57:09.664656 23230 net.cpp:100] Creating Layer conv6_2_mbox_loc_bdc2018_perm_bdc2018
I0722 00:57:09.664662 23230 net.cpp:434] conv6_2_mbox_loc_bdc2018_perm_bdc2018 <- conv6_2_mbox_loc_bdc2018
I0722 00:57:09.664672 23230 net.cpp:408] conv6_2_mbox_loc_bdc2018_perm_bdc2018 -> conv6_2_mbox_loc_bdc2018_perm_bdc2018
I0722 00:57:09.664834 23230 net.cpp:150] Setting up conv6_2_mbox_loc_bdc2018_perm_bdc2018
I0722 00:57:09.664846 23230 net.cpp:157] Top shape: 2 32 32 24 (49152)
I0722 00:57:09.664850 23230 net.cpp:165] Memory required for data: 5754085408
I0722 00:57:09.664857 23230 layer_factory.hpp:77] Creating layer conv6_2_mbox_loc_bdc2018_flat_bdc2018
I0722 00:57:09.664865 23230 net.cpp:100] Creating Layer conv6_2_mbox_loc_bdc2018_flat_bdc2018
I0722 00:57:09.664870 23230 net.cpp:434] conv6_2_mbox_loc_bdc2018_flat_bdc2018 <- conv6_2_mbox_loc_bdc2018_perm_bdc2018
I0722 00:57:09.664880 23230 net.cpp:408] conv6_2_mbox_loc_bdc2018_flat_bdc2018 -> conv6_2_mbox_loc_bdc2018_flat_bdc2018
I0722 00:57:09.664913 23230 net.cpp:150] Setting up conv6_2_mbox_loc_bdc2018_flat_bdc2018
I0722 00:57:09.664921 23230 net.cpp:157] Top shape: 2 24576 (49152)
I0722 00:57:09.664925 23230 net.cpp:165] Memory required for data: 5754282016
I0722 00:57:09.664929 23230 layer_factory.hpp:77] Creating layer conv6_2_mbox_conf_bdc2018_new
I0722 00:57:09.664945 23230 net.cpp:100] Creating Layer conv6_2_mbox_conf_bdc2018_new
I0722 00:57:09.664952 23230 net.cpp:434] conv6_2_mbox_conf_bdc2018_new <- conv6_2_conv6_2_relu_0_split_2
I0722 00:57:09.664959 23230 net.cpp:408] conv6_2_mbox_conf_bdc2018_new -> conv6_2_mbox_conf_bdc2018_new
I0722 00:57:09.673449 23230 net.cpp:150] Setting up conv6_2_mbox_conf_bdc2018_new
I0722 00:57:09.673472 23230 net.cpp:157] Top shape: 2 54 32 32 (110592)
I0722 00:57:09.673477 23230 net.cpp:165] Memory required for data: 5754724384
I0722 00:57:09.673486 23230 layer_factory.hpp:77] Creating layer conv6_2_mbox_conf_bdc2018_new_perm_bdc2018_new
I0722 00:57:09.673501 23230 net.cpp:100] Creating Layer conv6_2_mbox_conf_bdc2018_new_perm_bdc2018_new
I0722 00:57:09.673507 23230 net.cpp:434] conv6_2_mbox_conf_bdc2018_new_perm_bdc2018_new <- conv6_2_mbox_conf_bdc2018_new
I0722 00:57:09.673517 23230 net.cpp:408] conv6_2_mbox_conf_bdc2018_new_perm_bdc2018_new -> conv6_2_mbox_conf_bdc2018_new_perm_bdc2018_new
I0722 00:57:09.673671 23230 net.cpp:150] Setting up conv6_2_mbox_conf_bdc2018_new_perm_bdc2018_new
I0722 00:57:09.673681 23230 net.cpp:157] Top shape: 2 32 32 54 (110592)
I0722 00:57:09.673684 23230 net.cpp:165] Memory required for data: 5755166752
I0722 00:57:09.673689 23230 layer_factory.hpp:77] Creating layer conv6_2_mbox_conf_bdc2018_new_flat_bdc2018_new
I0722 00:57:09.673697 23230 net.cpp:100] Creating Layer conv6_2_mbox_conf_bdc2018_new_flat_bdc2018_new
I0722 00:57:09.673702 23230 net.cpp:434] conv6_2_mbox_conf_bdc2018_new_flat_bdc2018_new <- conv6_2_mbox_conf_bdc2018_new_perm_bdc2018_new
I0722 00:57:09.673710 23230 net.cpp:408] conv6_2_mbox_conf_bdc2018_new_flat_bdc2018_new -> conv6_2_mbox_conf_bdc2018_new_flat_bdc2018_new
I0722 00:57:09.673745 23230 net.cpp:150] Setting up conv6_2_mbox_conf_bdc2018_new_flat_bdc2018_new
I0722 00:57:09.673754 23230 net.cpp:157] Top shape: 2 55296 (110592)
I0722 00:57:09.673758 23230 net.cpp:165] Memory required for data: 5755609120
I0722 00:57:09.673761 23230 layer_factory.hpp:77] Creating layer conv6_2_mbox_priorbox
I0722 00:57:09.673769 23230 net.cpp:100] Creating Layer conv6_2_mbox_priorbox
I0722 00:57:09.673790 23230 net.cpp:434] conv6_2_mbox_priorbox <- conv6_2_conv6_2_relu_0_split_3
I0722 00:57:09.673797 23230 net.cpp:434] conv6_2_mbox_priorbox <- data_data_0_split_3
I0722 00:57:09.673806 23230 net.cpp:408] conv6_2_mbox_priorbox -> conv6_2_mbox_priorbox
I0722 00:57:09.673847 23230 net.cpp:150] Setting up conv6_2_mbox_priorbox
I0722 00:57:09.673857 23230 net.cpp:157] Top shape: 1 2 24576 (49152)
I0722 00:57:09.673861 23230 net.cpp:165] Memory required for data: 5755805728
I0722 00:57:09.673864 23230 layer_factory.hpp:77] Creating layer conv7_2_mbox_loc_bdc2018
I0722 00:57:09.673879 23230 net.cpp:100] Creating Layer conv7_2_mbox_loc_bdc2018
I0722 00:57:09.673887 23230 net.cpp:434] conv7_2_mbox_loc_bdc2018 <- conv7_2_conv7_2_relu_0_split_1
I0722 00:57:09.673894 23230 net.cpp:408] conv7_2_mbox_loc_bdc2018 -> conv7_2_mbox_loc_bdc2018
I0722 00:57:09.680235 23230 net.cpp:150] Setting up conv7_2_mbox_loc_bdc2018
I0722 00:57:09.680258 23230 net.cpp:157] Top shape: 2 24 16 16 (12288)
I0722 00:57:09.680263 23230 net.cpp:165] Memory required for data: 5755854880
I0722 00:57:09.680274 23230 layer_factory.hpp:77] Creating layer conv7_2_mbox_loc_bdc2018_perm_bdc2018
I0722 00:57:09.680282 23230 net.cpp:100] Creating Layer conv7_2_mbox_loc_bdc2018_perm_bdc2018
I0722 00:57:09.680287 23230 net.cpp:434] conv7_2_mbox_loc_bdc2018_perm_bdc2018 <- conv7_2_mbox_loc_bdc2018
I0722 00:57:09.680297 23230 net.cpp:408] conv7_2_mbox_loc_bdc2018_perm_bdc2018 -> conv7_2_mbox_loc_bdc2018_perm_bdc2018
I0722 00:57:09.680445 23230 net.cpp:150] Setting up conv7_2_mbox_loc_bdc2018_perm_bdc2018
I0722 00:57:09.680455 23230 net.cpp:157] Top shape: 2 16 16 24 (12288)
I0722 00:57:09.680459 23230 net.cpp:165] Memory required for data: 5755904032
I0722 00:57:09.680462 23230 layer_factory.hpp:77] Creating layer conv7_2_mbox_loc_bdc2018_flat_bdc2018
I0722 00:57:09.680472 23230 net.cpp:100] Creating Layer conv7_2_mbox_loc_bdc2018_flat_bdc2018
I0722 00:57:09.680476 23230 net.cpp:434] conv7_2_mbox_loc_bdc2018_flat_bdc2018 <- conv7_2_mbox_loc_bdc2018_perm_bdc2018
I0722 00:57:09.680482 23230 net.cpp:408] conv7_2_mbox_loc_bdc2018_flat_bdc2018 -> conv7_2_mbox_loc_bdc2018_flat_bdc2018
I0722 00:57:09.680516 23230 net.cpp:150] Setting up conv7_2_mbox_loc_bdc2018_flat_bdc2018
I0722 00:57:09.680523 23230 net.cpp:157] Top shape: 2 6144 (12288)
I0722 00:57:09.680527 23230 net.cpp:165] Memory required for data: 5755953184
I0722 00:57:09.680531 23230 layer_factory.hpp:77] Creating layer conv7_2_mbox_conf_bdc2018_new
I0722 00:57:09.680543 23230 net.cpp:100] Creating Layer conv7_2_mbox_conf_bdc2018_new
I0722 00:57:09.680552 23230 net.cpp:434] conv7_2_mbox_conf_bdc2018_new <- conv7_2_conv7_2_relu_0_split_2
I0722 00:57:09.680559 23230 net.cpp:408] conv7_2_mbox_conf_bdc2018_new -> conv7_2_mbox_conf_bdc2018_new
I0722 00:57:09.683831 23230 net.cpp:150] Setting up conv7_2_mbox_conf_bdc2018_new
I0722 00:57:09.683854 23230 net.cpp:157] Top shape: 2 54 16 16 (27648)
I0722 00:57:09.683859 23230 net.cpp:165] Memory required for data: 5756063776
I0722 00:57:09.683871 23230 layer_factory.hpp:77] Creating layer conv7_2_mbox_conf_bdc2018_new_perm_bdc2018_new
I0722 00:57:09.683881 23230 net.cpp:100] Creating Layer conv7_2_mbox_conf_bdc2018_new_perm_bdc2018_new
I0722 00:57:09.683887 23230 net.cpp:434] conv7_2_mbox_conf_bdc2018_new_perm_bdc2018_new <- conv7_2_mbox_conf_bdc2018_new
I0722 00:57:09.683895 23230 net.cpp:408] conv7_2_mbox_conf_bdc2018_new_perm_bdc2018_new -> conv7_2_mbox_conf_bdc2018_new_perm_bdc2018_new
I0722 00:57:09.684038 23230 net.cpp:150] Setting up conv7_2_mbox_conf_bdc2018_new_perm_bdc2018_new
I0722 00:57:09.684048 23230 net.cpp:157] Top shape: 2 16 16 54 (27648)
I0722 00:57:09.684051 23230 net.cpp:165] Memory required for data: 5756174368
I0722 00:57:09.684056 23230 layer_factory.hpp:77] Creating layer conv7_2_mbox_conf_bdc2018_new_flat_bdc2018_new
I0722 00:57:09.684065 23230 net.cpp:100] Creating Layer conv7_2_mbox_conf_bdc2018_new_flat_bdc2018_new
I0722 00:57:09.684070 23230 net.cpp:434] conv7_2_mbox_conf_bdc2018_new_flat_bdc2018_new <- conv7_2_mbox_conf_bdc2018_new_perm_bdc2018_new
I0722 00:57:09.684095 23230 net.cpp:408] conv7_2_mbox_conf_bdc2018_new_flat_bdc2018_new -> conv7_2_mbox_conf_bdc2018_new_flat_bdc2018_new
I0722 00:57:09.684132 23230 net.cpp:150] Setting up conv7_2_mbox_conf_bdc2018_new_flat_bdc2018_new
I0722 00:57:09.684140 23230 net.cpp:157] Top shape: 2 13824 (27648)
I0722 00:57:09.684144 23230 net.cpp:165] Memory required for data: 5756284960
I0722 00:57:09.684147 23230 layer_factory.hpp:77] Creating layer conv7_2_mbox_priorbox
I0722 00:57:09.684159 23230 net.cpp:100] Creating Layer conv7_2_mbox_priorbox
I0722 00:57:09.684166 23230 net.cpp:434] conv7_2_mbox_priorbox <- conv7_2_conv7_2_relu_0_split_3
I0722 00:57:09.684172 23230 net.cpp:434] conv7_2_mbox_priorbox <- data_data_0_split_4
I0722 00:57:09.684180 23230 net.cpp:408] conv7_2_mbox_priorbox -> conv7_2_mbox_priorbox
I0722 00:57:09.684213 23230 net.cpp:150] Setting up conv7_2_mbox_priorbox
I0722 00:57:09.684222 23230 net.cpp:157] Top shape: 1 2 6144 (12288)
I0722 00:57:09.684226 23230 net.cpp:165] Memory required for data: 5756334112
I0722 00:57:09.684231 23230 layer_factory.hpp:77] Creating layer conv8_2_mbox_loc_bdc2018
I0722 00:57:09.684247 23230 net.cpp:100] Creating Layer conv8_2_mbox_loc_bdc2018
I0722 00:57:09.684254 23230 net.cpp:434] conv8_2_mbox_loc_bdc2018 <- conv8_2_conv8_2_relu_0_split_1
I0722 00:57:09.684262 23230 net.cpp:408] conv8_2_mbox_loc_bdc2018 -> conv8_2_mbox_loc_bdc2018
I0722 00:57:09.686100 23230 net.cpp:150] Setting up conv8_2_mbox_loc_bdc2018
I0722 00:57:09.686117 23230 net.cpp:157] Top shape: 2 16 14 14 (6272)
I0722 00:57:09.686122 23230 net.cpp:165] Memory required for data: 5756359200
I0722 00:57:09.686144 23230 layer_factory.hpp:77] Creating layer conv8_2_mbox_loc_bdc2018_perm_bdc2018
I0722 00:57:09.686156 23230 net.cpp:100] Creating Layer conv8_2_mbox_loc_bdc2018_perm_bdc2018
I0722 00:57:09.686162 23230 net.cpp:434] conv8_2_mbox_loc_bdc2018_perm_bdc2018 <- conv8_2_mbox_loc_bdc2018
I0722 00:57:09.686169 23230 net.cpp:408] conv8_2_mbox_loc_bdc2018_perm_bdc2018 -> conv8_2_mbox_loc_bdc2018_perm_bdc2018
I0722 00:57:09.686319 23230 net.cpp:150] Setting up conv8_2_mbox_loc_bdc2018_perm_bdc2018
I0722 00:57:09.686329 23230 net.cpp:157] Top shape: 2 14 14 16 (6272)
I0722 00:57:09.686332 23230 net.cpp:165] Memory required for data: 5756384288
I0722 00:57:09.686336 23230 layer_factory.hpp:77] Creating layer conv8_2_mbox_loc_bdc2018_flat_bdc2018
I0722 00:57:09.686344 23230 net.cpp:100] Creating Layer conv8_2_mbox_loc_bdc2018_flat_bdc2018
I0722 00:57:09.686348 23230 net.cpp:434] conv8_2_mbox_loc_bdc2018_flat_bdc2018 <- conv8_2_mbox_loc_bdc2018_perm_bdc2018
I0722 00:57:09.686357 23230 net.cpp:408] conv8_2_mbox_loc_bdc2018_flat_bdc2018 -> conv8_2_mbox_loc_bdc2018_flat_bdc2018
I0722 00:57:09.686393 23230 net.cpp:150] Setting up conv8_2_mbox_loc_bdc2018_flat_bdc2018
I0722 00:57:09.686401 23230 net.cpp:157] Top shape: 2 3136 (6272)
I0722 00:57:09.686404 23230 net.cpp:165] Memory required for data: 5756409376
I0722 00:57:09.686409 23230 layer_factory.hpp:77] Creating layer conv8_2_mbox_conf_bdc2018_new
I0722 00:57:09.686422 23230 net.cpp:100] Creating Layer conv8_2_mbox_conf_bdc2018_new
I0722 00:57:09.686426 23230 net.cpp:434] conv8_2_mbox_conf_bdc2018_new <- conv8_2_conv8_2_relu_0_split_2
I0722 00:57:09.686434 23230 net.cpp:408] conv8_2_mbox_conf_bdc2018_new -> conv8_2_mbox_conf_bdc2018_new
I0722 00:57:09.688460 23230 net.cpp:150] Setting up conv8_2_mbox_conf_bdc2018_new
I0722 00:57:09.688478 23230 net.cpp:157] Top shape: 2 36 14 14 (14112)
I0722 00:57:09.688482 23230 net.cpp:165] Memory required for data: 5756465824
I0722 00:57:09.688490 23230 layer_factory.hpp:77] Creating layer conv8_2_mbox_conf_bdc2018_new_perm_bdc2018_new
I0722 00:57:09.688501 23230 net.cpp:100] Creating Layer conv8_2_mbox_conf_bdc2018_new_perm_bdc2018_new
I0722 00:57:09.688506 23230 net.cpp:434] conv8_2_mbox_conf_bdc2018_new_perm_bdc2018_new <- conv8_2_mbox_conf_bdc2018_new
I0722 00:57:09.688513 23230 net.cpp:408] conv8_2_mbox_conf_bdc2018_new_perm_bdc2018_new -> conv8_2_mbox_conf_bdc2018_new_perm_bdc2018_new
I0722 00:57:09.688684 23230 net.cpp:150] Setting up conv8_2_mbox_conf_bdc2018_new_perm_bdc2018_new
I0722 00:57:09.688694 23230 net.cpp:157] Top shape: 2 14 14 36 (14112)
I0722 00:57:09.688697 23230 net.cpp:165] Memory required for data: 5756522272
I0722 00:57:09.688701 23230 layer_factory.hpp:77] Creating layer conv8_2_mbox_conf_bdc2018_new_flat_bdc2018_new
I0722 00:57:09.688711 23230 net.cpp:100] Creating Layer conv8_2_mbox_conf_bdc2018_new_flat_bdc2018_new
I0722 00:57:09.688716 23230 net.cpp:434] conv8_2_mbox_conf_bdc2018_new_flat_bdc2018_new <- conv8_2_mbox_conf_bdc2018_new_perm_bdc2018_new
I0722 00:57:09.688722 23230 net.cpp:408] conv8_2_mbox_conf_bdc2018_new_flat_bdc2018_new -> conv8_2_mbox_conf_bdc2018_new_flat_bdc2018_new
I0722 00:57:09.688757 23230 net.cpp:150] Setting up conv8_2_mbox_conf_bdc2018_new_flat_bdc2018_new
I0722 00:57:09.688766 23230 net.cpp:157] Top shape: 2 7056 (14112)
I0722 00:57:09.688769 23230 net.cpp:165] Memory required for data: 5756578720
I0722 00:57:09.688774 23230 layer_factory.hpp:77] Creating layer conv8_2_mbox_priorbox
I0722 00:57:09.688784 23230 net.cpp:100] Creating Layer conv8_2_mbox_priorbox
I0722 00:57:09.688788 23230 net.cpp:434] conv8_2_mbox_priorbox <- conv8_2_conv8_2_relu_0_split_3
I0722 00:57:09.688794 23230 net.cpp:434] conv8_2_mbox_priorbox <- data_data_0_split_5
I0722 00:57:09.688802 23230 net.cpp:408] conv8_2_mbox_priorbox -> conv8_2_mbox_priorbox
I0722 00:57:09.688836 23230 net.cpp:150] Setting up conv8_2_mbox_priorbox
I0722 00:57:09.688844 23230 net.cpp:157] Top shape: 1 2 3136 (6272)
I0722 00:57:09.688848 23230 net.cpp:165] Memory required for data: 5756603808
I0722 00:57:09.688851 23230 layer_factory.hpp:77] Creating layer conv9_2_mbox_loc_bdc2018
I0722 00:57:09.688868 23230 net.cpp:100] Creating Layer conv9_2_mbox_loc_bdc2018
I0722 00:57:09.688874 23230 net.cpp:434] conv9_2_mbox_loc_bdc2018 <- conv9_2_conv9_2_relu_0_split_0
I0722 00:57:09.688880 23230 net.cpp:408] conv9_2_mbox_loc_bdc2018 -> conv9_2_mbox_loc_bdc2018
I0722 00:57:09.692164 23230 net.cpp:150] Setting up conv9_2_mbox_loc_bdc2018
I0722 00:57:09.692185 23230 net.cpp:157] Top shape: 2 16 12 12 (4608)
I0722 00:57:09.692190 23230 net.cpp:165] Memory required for data: 5756622240
I0722 00:57:09.692198 23230 layer_factory.hpp:77] Creating layer conv9_2_mbox_loc_bdc2018_perm_bdc2018
I0722 00:57:09.692209 23230 net.cpp:100] Creating Layer conv9_2_mbox_loc_bdc2018_perm_bdc2018
I0722 00:57:09.692215 23230 net.cpp:434] conv9_2_mbox_loc_bdc2018_perm_bdc2018 <- conv9_2_mbox_loc_bdc2018
I0722 00:57:09.692229 23230 net.cpp:408] conv9_2_mbox_loc_bdc2018_perm_bdc2018 -> conv9_2_mbox_loc_bdc2018_perm_bdc2018
I0722 00:57:09.692378 23230 net.cpp:150] Setting up conv9_2_mbox_loc_bdc2018_perm_bdc2018
I0722 00:57:09.692389 23230 net.cpp:157] Top shape: 2 12 12 16 (4608)
I0722 00:57:09.692392 23230 net.cpp:165] Memory required for data: 5756640672
I0722 00:57:09.692396 23230 layer_factory.hpp:77] Creating layer conv9_2_mbox_loc_bdc2018_flat_bdc2018
I0722 00:57:09.692404 23230 net.cpp:100] Creating Layer conv9_2_mbox_loc_bdc2018_flat_bdc2018
I0722 00:57:09.692409 23230 net.cpp:434] conv9_2_mbox_loc_bdc2018_flat_bdc2018 <- conv9_2_mbox_loc_bdc2018_perm_bdc2018
I0722 00:57:09.692417 23230 net.cpp:408] conv9_2_mbox_loc_bdc2018_flat_bdc2018 -> conv9_2_mbox_loc_bdc2018_flat_bdc2018
I0722 00:57:09.692452 23230 net.cpp:150] Setting up conv9_2_mbox_loc_bdc2018_flat_bdc2018
I0722 00:57:09.692461 23230 net.cpp:157] Top shape: 2 2304 (4608)
I0722 00:57:09.692464 23230 net.cpp:165] Memory required for data: 5756659104
I0722 00:57:09.692469 23230 layer_factory.hpp:77] Creating layer conv9_2_mbox_conf_bdc2018_new
I0722 00:57:09.692484 23230 net.cpp:100] Creating Layer conv9_2_mbox_conf_bdc2018_new
I0722 00:57:09.692489 23230 net.cpp:434] conv9_2_mbox_conf_bdc2018_new <- conv9_2_conv9_2_relu_0_split_1
I0722 00:57:09.692498 23230 net.cpp:408] conv9_2_mbox_conf_bdc2018_new -> conv9_2_mbox_conf_bdc2018_new
I0722 00:57:09.694639 23230 net.cpp:150] Setting up conv9_2_mbox_conf_bdc2018_new
I0722 00:57:09.694660 23230 net.cpp:157] Top shape: 2 36 12 12 (10368)
I0722 00:57:09.694680 23230 net.cpp:165] Memory required for data: 5756700576
I0722 00:57:09.694690 23230 layer_factory.hpp:77] Creating layer conv9_2_mbox_conf_bdc2018_new_perm_bdc2018_new
I0722 00:57:09.694699 23230 net.cpp:100] Creating Layer conv9_2_mbox_conf_bdc2018_new_perm_bdc2018_new
I0722 00:57:09.694705 23230 net.cpp:434] conv9_2_mbox_conf_bdc2018_new_perm_bdc2018_new <- conv9_2_mbox_conf_bdc2018_new
I0722 00:57:09.694715 23230 net.cpp:408] conv9_2_mbox_conf_bdc2018_new_perm_bdc2018_new -> conv9_2_mbox_conf_bdc2018_new_perm_bdc2018_new
I0722 00:57:09.694866 23230 net.cpp:150] Setting up conv9_2_mbox_conf_bdc2018_new_perm_bdc2018_new
I0722 00:57:09.694875 23230 net.cpp:157] Top shape: 2 12 12 36 (10368)
I0722 00:57:09.694880 23230 net.cpp:165] Memory required for data: 5756742048
I0722 00:57:09.694882 23230 layer_factory.hpp:77] Creating layer conv9_2_mbox_conf_bdc2018_new_flat_bdc2018_new
I0722 00:57:09.694890 23230 net.cpp:100] Creating Layer conv9_2_mbox_conf_bdc2018_new_flat_bdc2018_new
I0722 00:57:09.694895 23230 net.cpp:434] conv9_2_mbox_conf_bdc2018_new_flat_bdc2018_new <- conv9_2_mbox_conf_bdc2018_new_perm_bdc2018_new
I0722 00:57:09.694903 23230 net.cpp:408] conv9_2_mbox_conf_bdc2018_new_flat_bdc2018_new -> conv9_2_mbox_conf_bdc2018_new_flat_bdc2018_new
I0722 00:57:09.694938 23230 net.cpp:150] Setting up conv9_2_mbox_conf_bdc2018_new_flat_bdc2018_new
I0722 00:57:09.694947 23230 net.cpp:157] Top shape: 2 5184 (10368)
I0722 00:57:09.694950 23230 net.cpp:165] Memory required for data: 5756783520
I0722 00:57:09.694953 23230 layer_factory.hpp:77] Creating layer conv9_2_mbox_priorbox
I0722 00:57:09.694963 23230 net.cpp:100] Creating Layer conv9_2_mbox_priorbox
I0722 00:57:09.694967 23230 net.cpp:434] conv9_2_mbox_priorbox <- conv9_2_conv9_2_relu_0_split_2
I0722 00:57:09.694972 23230 net.cpp:434] conv9_2_mbox_priorbox <- data_data_0_split_6
I0722 00:57:09.694981 23230 net.cpp:408] conv9_2_mbox_priorbox -> conv9_2_mbox_priorbox
I0722 00:57:09.695019 23230 net.cpp:150] Setting up conv9_2_mbox_priorbox
I0722 00:57:09.695026 23230 net.cpp:157] Top shape: 1 2 2304 (4608)
I0722 00:57:09.695029 23230 net.cpp:165] Memory required for data: 5756801952
I0722 00:57:09.695034 23230 layer_factory.hpp:77] Creating layer mbox_loc
I0722 00:57:09.695041 23230 net.cpp:100] Creating Layer mbox_loc
I0722 00:57:09.695045 23230 net.cpp:434] mbox_loc <- conv4_3_norm_mbox_loc_bdc2018_flat_bdc2018
I0722 00:57:09.695051 23230 net.cpp:434] mbox_loc <- fc7_mbox_loc_bdc2018_flat_bdc2018
I0722 00:57:09.695056 23230 net.cpp:434] mbox_loc <- conv6_2_mbox_loc_bdc2018_flat_bdc2018
I0722 00:57:09.695061 23230 net.cpp:434] mbox_loc <- conv7_2_mbox_loc_bdc2018_flat_bdc2018
I0722 00:57:09.695065 23230 net.cpp:434] mbox_loc <- conv8_2_mbox_loc_bdc2018_flat_bdc2018
I0722 00:57:09.695070 23230 net.cpp:434] mbox_loc <- conv9_2_mbox_loc_bdc2018_flat_bdc2018
I0722 00:57:09.695080 23230 net.cpp:408] mbox_loc -> mbox_loc
I0722 00:57:09.695116 23230 net.cpp:150] Setting up mbox_loc
I0722 00:57:09.695125 23230 net.cpp:157] Top shape: 2 396608 (793216)
I0722 00:57:09.695129 23230 net.cpp:165] Memory required for data: 5759974816
I0722 00:57:09.695132 23230 layer_factory.hpp:77] Creating layer mbox_conf
I0722 00:57:09.695139 23230 net.cpp:100] Creating Layer mbox_conf
I0722 00:57:09.695143 23230 net.cpp:434] mbox_conf <- conv4_3_norm_mbox_conf_bdc2018_new_flat_bdc2018_new
I0722 00:57:09.695149 23230 net.cpp:434] mbox_conf <- fc7_mbox_conf_bdc2018_new_flat_bdc2018_new
I0722 00:57:09.695154 23230 net.cpp:434] mbox_conf <- conv6_2_mbox_conf_bdc2018_new_flat_bdc2018_new
I0722 00:57:09.695159 23230 net.cpp:434] mbox_conf <- conv7_2_mbox_conf_bdc2018_new_flat_bdc2018_new
I0722 00:57:09.695163 23230 net.cpp:434] mbox_conf <- conv8_2_mbox_conf_bdc2018_new_flat_bdc2018_new
I0722 00:57:09.695168 23230 net.cpp:434] mbox_conf <- conv9_2_mbox_conf_bdc2018_new_flat_bdc2018_new
I0722 00:57:09.695173 23230 net.cpp:408] mbox_conf -> mbox_conf
I0722 00:57:09.695207 23230 net.cpp:150] Setting up mbox_conf
I0722 00:57:09.695215 23230 net.cpp:157] Top shape: 2 892368 (1784736)
I0722 00:57:09.695230 23230 net.cpp:165] Memory required for data: 5767113760
I0722 00:57:09.695235 23230 layer_factory.hpp:77] Creating layer mbox_priorbox
I0722 00:57:09.695245 23230 net.cpp:100] Creating Layer mbox_priorbox
I0722 00:57:09.695250 23230 net.cpp:434] mbox_priorbox <- conv4_3_norm_mbox_priorbox
I0722 00:57:09.695255 23230 net.cpp:434] mbox_priorbox <- fc7_mbox_priorbox
I0722 00:57:09.695260 23230 net.cpp:434] mbox_priorbox <- conv6_2_mbox_priorbox
I0722 00:57:09.695264 23230 net.cpp:434] mbox_priorbox <- conv7_2_mbox_priorbox
I0722 00:57:09.695268 23230 net.cpp:434] mbox_priorbox <- conv8_2_mbox_priorbox
I0722 00:57:09.695272 23230 net.cpp:434] mbox_priorbox <- conv9_2_mbox_priorbox
I0722 00:57:09.695278 23230 net.cpp:408] mbox_priorbox -> mbox_priorbox
I0722 00:57:09.695314 23230 net.cpp:150] Setting up mbox_priorbox
I0722 00:57:09.695322 23230 net.cpp:157] Top shape: 1 2 396608 (793216)
I0722 00:57:09.695325 23230 net.cpp:165] Memory required for data: 5770286624
I0722 00:57:09.695329 23230 layer_factory.hpp:77] Creating layer mbox_loss
I0722 00:57:09.695343 23230 net.cpp:100] Creating Layer mbox_loss
I0722 00:57:09.695348 23230 net.cpp:434] mbox_loss <- mbox_loc
I0722 00:57:09.695353 23230 net.cpp:434] mbox_loss <- mbox_conf
I0722 00:57:09.695358 23230 net.cpp:434] mbox_loss <- mbox_priorbox
…
  phase: TEST
}
layer {
  name: "data"
  type: "AnnotatedData"
  top: "data"
  top: "label"
  include {
    phase: TEST
  }
  transform_param {
    mean_value: 104
    mean_value: 117
    mean_value: 123
    resize_param {
      prob: 1
      resize_mode: WARP
      height: 1024
      width: 1024
      interp_mode: LINEAR
    }
  }
  data_param {
    source: "examples/bdc2018/bdc2018_val_name_lmdb"
    batch_size: 2
    backend: LMDB
  }
  annotated_data_param {
    batch_sampler {
    }
    label_map_file: "data/bdc2018/labelmap_bdc.prototxt"
  }
}
layer {
  name: "conv1_1"
  type: "Convolution"
  bottom: "data"
  top: "conv1_1"
  param {
    lr_mult: 1
    decay_mult: 1
  }
  param {
    lr_mult: 2
    decay_mult: 0
  }
  convolution_param {
    num_output: 64
    pad: 1
    kernel_size: 3
    weight_filler {
      type: "xavier"
    }
    bias_filler {
      type: "constant"
      value: 0
    }
  }
}
layer {
  name: "relu1_1"
  type: "ReLU"
  bottom: "conv1_1"
  top: "conv1_1"
}
layer {
  name: "conv1_2"
  type: "Convolution"
  bottom: "conv1_1"
  top: "conv1_2"
  param {
    lr_mult: 1
    decay_mult: 1
  }
  param {
    lr_mult: 2
    decay_mult: 0
  }
  convolution_param {
    num_output: 64
    pad: 1
    kernel_size: 3
    weight_filler {
      type: "xavier"
    }
    bias_filler {
      type: "constant"
      value: 0
    }
  }
}
layer {
  name: "relu1_2"
  type: "ReLU"
  bottom: "conv1_2"
  top: "conv1_2"
}
layer {
  name: "pool1"
  type: "Pooling"
  bottom: "conv1_2"
  top: "pool1"
  pooling_param {
    pool: MAX
    kernel_size: 2
    stride: 2
  }
}
layer {
  name: "conv2_1"
  type: "Convolution"
  bottom: "pool1"
  top: "conv2_1"
  param {
    lr_mult: 1
    decay_mult: 1
  }
  param {
    lr_mult: 2
    decay_mult: 0
  }
  convolution_param {
    num_output: 128
    pad: 1
    kernel_size: 3
    weight_filler {
      type: "xavier"
    }
    bias_filler {
      type: "constant"
      value: 0
    }
  }
}
layer {
  name: "relu2_1"
  type: "ReLU"
  bottom: "conv2_1"
  top: "conv2_1"
}
layer {
  name: "conv2_2"
  type: "Convolution"
  bottom: "conv2_1"
  top: "conv2_2"
  param {
    lr_mult: 1
    decay_mult: 1
  }
  param {
    lr_mult: 2
    decay_mult: 0
  }
  convolution_param {
    num_output: 128
    pad: 1
    kernel_size: 3
    weight_filler {
      type: "xavier"
    }
    bias_filler {
      type: "constant"
      value: 0
    }
  }
}
layer {
  name: "relu2_2"
  type: "ReLU"
  bottom: "conv2_2"
  top: "conv2_2"
}
layer {
  name: "pool2"
  type: "Pooling"
  bottom: "conv2_2"
  top: "pool2"
  pooling_param {
    pool: MAX
    kernel_size: 2
    stride: 2
  }
}
layer {
  name: "conv3_1"
  type: "Convolution"
  bottom: "pool2"
  top: "conv3_1"
  param {
    lr_mult: 1
    decay_mult: 1
  }
  param {
    lr_mult: 2
    decay_mult: 0
  }
  convolution_param {
    num_output: 256
    pad: 1
    kernel_size: 3
    weight_filler {
      type: "xavier"
    }
    bias_filler {
      type: "constant"
      value: 0
    }
  }
}
layer {
  name: "relu3_1"
  type: "ReLU"
  bottom: "conv3_1"
  top: "conv3_1"
}
layer {
  name: "conv3_2"
  type: "Convolution"
  bottom: "conv3_1"
  top: "conv3_2"
  param {
    lr_mult: 1
    decay_mult: 1
  }
  param {
    lr_mult: 2
    decay_mult: 0
  }
  convolution_param {
    num_output: 256
    pad: 1
    kernel_size: 3
    weight_filler {
      type: "xavier"
    }
    bias_filler {
      type: "constant"
      value: 0
    }
  }
}
layer {
  name: "relu3_2"
  type: "ReLU"
  bottom: "conv3_2"
  top: "conv3_2"
}
layer {
  name: "conv3_3"
  type: "Convolution"
  bottom: "conv3_2"
  top: "conv3_3"
  param {
    lr_mult: 1
    decay_mult: 1
  }
  param {
    lr_mult: 2
    decay_mult: 0
  }
  convolution_param {
    num_output: 256
    pad: 1
    kernel_size: 3
    weight_filler {
      type: "xavier"
    }
    bias_filler {
      type: "constant"
      value: 0
    }
  }
}
layer {
  name: "relu3_3"
  type: "ReLU"
  bottom: "conv3_3"
  top: "conv3_3"
}
layer {
  name: "pool3"
  type: "Pooling"
  bottom: "conv3_3"
  top: "pool3"
  pooling_param {
    pool: MAX
    kernel_size: 2
    stride: 2
  }
}
layer {
  name: "conv4_1"
  type: "Convolution"
  bottom: "pool3"
  top: "conv4_1"
  param {
    lr_mult: 1
    decay_mult: 1
  }
  param {
    lr_mult: 2
    decay_mult: 0
  }
  convolution_param {
    num_output: 512
    pad: 1
    kernel_size: 3
    weight_filler {
      type: "xavier"
    }
    bias_filler {
      type: "constant"
      value: 0
    }
  }
}
layer {
  name: "relu4_1"
  type: "ReLU"
  bottom: "conv4_1"
  top: "conv4_1"
}
layer {
  name: "conv4_2"
  type: "Convolution"
  bottom: "conv4_1"
  top: "conv4_2"
  param {
    lr_mult: 1
    decay_mult: 1
  }
  param {
    lr_mult: 2
    decay_mult: 0
  }
  convolution_param {
    num_output: 512
    pad: 1
    kernel_size: 3
    weight_filler {
      type: "xavier"
    }
    bias_filler {
      type: "constant"
      value: 0
    }
  }
}
layer {
  name: "relu4_2"
  type: "ReLU"
  bottom: "conv4_2"
  top: "conv4_2"
}
layer {
  name: "conv4_3"
  type: "Convolution"
  bottom: "conv4_2"
  top: "conv4_3"
  param {
    lr_mult: 1
    decay_mult: 1
  }
  param {
    lr_mult: 2
    decay_mult: 0
  }
  convolution_param {
    num_output: 512
    pad: 1
    kernel_size: 3
    weight_filler {
      type: "xavier"
    }
    bias_filler {
      type: "constant"
      value: 0
    }
  }
}
layer {
  name: "relu4_3"
  type: "ReLU"
  bottom: "conv4_3"
  top: "conv4_3"
}
layer {
  name: "pool4"
  type: "Pooling"
  bottom: "conv4_3"
  top: "pool4"
  pooling_param {
    pool: MAX
    kernel_size: 2
    stride: 2
  }
}
layer {
  name: "conv5_1"
  type: "Convolution"
  bottom: "pool4"
  top: "conv5_1"
  param {
    lr_mult: 1
    decay_mult: 1
  }
  param {
    lr_mult: 2
    decay_mult: 0
  }
  convolution_param {
    num_output: 512
    pad: 1
    kernel_size: 3
    weight_filler {
      type: "xavier"
    }
    bias_filler {
      type: "constant"
      value: 0
    }
    dilation: 1
  }
}
layer {
  name: "relu5_1"
  type: "ReLU"
  bottom: "conv5_1"
  top: "conv5_1"
}
layer {
  name: "conv5_2"
  type: "Convolution"
  bottom: "conv5_1"
  top: "conv5_2"
  param {
    lr_mult: 1
    decay_mult: 1
  }
  param {
    lr_mult: 2
    decay_mult: 0
  }
  convolution_param {
    num_output: 512
    pad: 1
    kernel_size: 3
    weight_filler {
      type: "xavier"
    }
    bias_filler {
      type: "constant"
      value: 0
    }
    dilation: 1
  }
}
layer {
  name: "relu5_2"
  type: "ReLU"
  bottom: "conv5_2"
  top: "conv5_2"
}
layer {
  name: "conv5_3"
  type: "Convolution"
  bottom: "conv5_2"
  top: "conv5_3"
  param {
    lr_mult: 1
    decay_mult: 1
  }
  param {
    lr_mult: 2
    decay_mult: 0
  }
  convolution_param {
    num_output: 512
    pad: 1
    kernel_size: 3
    weight_filler {
      type: "xavier"
    }
    bias_filler {
      type: "constant"
      value: 0
    }
    dilation: 1
  }
}
layer {
  name: "relu5_3"
  type: "ReLU"
  bottom: "conv5_3"
  top: "conv5_3"
}
layer {
  name: "pool5"
  type: "Pooling"
  bottom: "conv5_3"
  top: "pool5"
  pooling_param {
    pool: MAX
    kernel_size: 3
    stride: 1
    pad: 1
  }
}
layer {
  name: "fc6"
  type: "Convolution"
  bottom: "pool5"
  top: "fc6"
  param {
    lr_mult: 1
    decay_mult: 1
  }
  param {
    lr_mult: 2
    decay_mult: 0
  }
  convolution_param {
    num_output: 1024
    pad: 6
    kernel_size: 3
    weight_filler {
      type: "xavier"
    }
    bias_filler {
      type: "constant"
      value: 0
    }
    dilation: 6
  }
}
layer {
  name: "relu6"
  type: "ReLU"
  bottom: "fc6"
  top: "fc6"
}
layer {
  name: "fc7"
  type: "Convolution"
  bottom: "fc6"
  top: "fc7"
  param {
    lr_mult: 1
    decay_mult: 1
  }
  param {
    lr_mult: 2
    decay_mult: 0
  }
  convolution_param {
    num_output: 1024
    kernel_size: 1
    weight_filler {
      type: "xavier"
    }
    bias_filler {
      type: "constant"
      value: 0
    }
  }
}
layer {
  name: "relu7"
  type: "ReLU"
  bottom: "fc7"
  top: "fc7"
}
layer {
  name: "conv6_1"
  type: "Convolution"
  bottom: "fc7"
  top: "conv6_1"
  param {
    lr_mult: 1
    decay_mult: 1
  }
  param {
    lr_mult: 2
    decay_mult: 0
  }
  convolution_param {
    num_output: 256
    pad: 0
    kernel_size: 1
    stride: 1
    weight_filler {
      type: "xavier"
    }
    bias_filler {
      type: "constant"
      value: 0
    }
  }
}
layer {
  name: "conv6_1_relu"
  type: "ReLU"
  bottom: "conv6_1"
  top: "conv6_1"
}
layer {
  name: "conv6_2"
  type: "Convolution"
  bottom: "conv6_1"
  top: "conv6_2"
  param {
    lr_mult: 1
    decay_mult: 1
  }
  param {
    lr_mult: 2
    decay_mult: 0
  }
  convolution_param {
    num_output: 512
    pad: 1
    kernel_size: 3
    stride: 2
    weight_filler {
      type: "xavier"
    }
    bias_filler {
      type: "constant"
      value: 0
    }
  }
}
layer {
  name: "conv6_2_relu"
  type: "ReLU"
  bottom: "conv6_2"
  top: "conv6_2"
}
layer {
  name: "conv7_1"
  type: "Convolution"
  bottom: "conv6_2"
  top: "conv7_1"
  param {
    lr_mult: 1
    decay_mult: 1
  }
  param {
    lr_mult: 2
    decay_mult: 0
  }
  convolution_param {
    num_output: 128
    pad: 0
    kernel_size: 1
    stride: 1
    weight_filler {
      type: "xavier"
    }
    bias_filler {
      type: "constant"
      value: 0
    }
  }
}
layer {
  name: "conv7_1_relu"
  type: "ReLU"
  bottom: "conv7_1"
  top: "conv7_1"
}
layer {
  name: "conv7_2"
  type: "Convolution"
  bottom: "conv7_1"
  top: "conv7_2"
  param {
    lr_mult: 1
    decay_mult: 1
  }
  param {
    lr_mult: 2
    decay_mult: 0
  }
  convolution_param {
    num_output: 256
    pad: 1
    kernel_size: 3
    stride: 2
    weight_filler {
      type: "xavier"
    }
    bias_filler {
      type: "constant"
      value: 0
    }
  }
}
layer {
  name: "conv7_2_relu"
  type: "ReLU"
  bottom: "conv7_2"
  top: "conv7_2"
}
layer {
  name: "conv8_1"
  type: "Convolution"
  bottom: "conv7_2"
  top: "conv8_1"
  param {
    lr_mult: 1
    decay_mult: 1
  }
  param {
    lr_mult: 2
    decay_mult: 0
  }
  convolution_param {
    num_output: 128
    pad: 0
    kernel_size: 1
    stride: 1
    weight_filler {
      type: "xavier"
    }
    bias_filler {
      type: "constant"
      value: 0
    }
  }
}
layer {
  name: "conv8_1_relu"
  type: "ReLU"
  bottom: "conv8_1"
  top: "conv8_1"
}
layer {
  name: "conv8_2"
  type: "Convolution"
  bottom: "conv8_1"
  top: "conv8_2"
  param {
    lr_mult: 1
    decay_mult: 1
  }
  param {
    lr_mult: 2
    decay_mult: 0
  }
  convolution_param {
    num_output: 256
    pad: 0
    kernel_size: 3
    stride: 1
    weight_filler {
      type: "xavier"
    }
    bias_filler {
      type: "constant"
      value: 0
    }
  }
}
layer {
  name: "conv8_2_relu"
  type: "ReLU"
  bottom: "conv8_2"
  top: "conv8_2"
}
layer {
  name: "conv9_1"
  type: "Convolution"
  bottom: "conv8_2"
  top: "conv9_1"
  param {
    lr_mult: 1
    decay_mult: 1
  }
  param {
    lr_mult: 2
    decay_mult: 0
  }
  convolution_param {
    num_output: 128
    pad: 0
    kernel_size: 1
    stride: 1
    weight_filler {
      type: "xavier"
    }
    bias_filler {
      type: "constant"
      value: 0
    }
  }
}
layer {
  name: "conv9_1_relu"
  type: "ReLU"
  bottom: "conv9_1"
  top: "conv9_1"
}
layer {
  name: "conv9_2"
  type: "Convolution"
  bottom: "conv9_1"
  top: "conv9_2"
  param {
    lr_mult: 1
    decay_mult: 1
  }
  param {
    lr_mult: 2
    decay_mult: 0
  }
  convolution_param {
    num_output: 256
    pad: 0
    kernel_size: 3
    stride: 1
    weight_filler {
      type: "xavier"
    }
    bias_filler {
      type: "constant"
      value: 0
    }
  }
}
layer {
  name: "conv9_2_relu"
  type: "ReLU"
  bottom: "conv9_2"
  top: "conv9_2"
}
layer {
  name: "conv4_3_norm"
  type: "Normalize"
  bottom: "conv4_3"
  top: "conv4_3_norm"
  norm_param {
    across_spatial: false
    scale_filler {
      type: "constant"
      value: 20
    }
    channel_shared: false
  }
}
layer {
  name: "conv4_3_norm_mbox_loc_bdc2018"
  type: "Convolution"
  bottom: "conv4_3_norm"
  top: "conv4_3_norm_mbox_loc_bdc2018"
  param {
    lr_mult: 1
    decay_mult: 1
  }
  param {
    lr_mult: 2
    decay_mult: 0
  }
  convolution_param {
    num_output: 16
    pad: 1
    kernel_size: 3
    stride: 1
    weight_filler {
      type: "xavier"
    }
    bias_filler {
      type: "constant"
      value: 0
    }
  }
}
layer {
  name: "conv4_3_norm_mbox_loc_bdc2018_perm_bdc2018"
  type: "Permute"
  bottom: "conv4_3_norm_mbox_loc_bdc2018"
  top: "conv4_3_norm_mbox_loc_bdc2018_perm_bdc2018"
  permute_param {
    order: 0
    order: 2
    order: 3
    order: 1
  }
}
layer {
  name: "conv4_3_norm_mbox_loc_bdc2018_flat_bdc2018"
  type: "Flatten"
  bottom: "conv4_3_norm_mbox_loc_bdc2018_perm_bdc2018"
  top: "conv4_3_norm_mbox_loc_bdc2018_flat_bdc2018"
  flatten_param {
    axis: 1
  }
}
layer {
  name: "conv4_3_norm_mbox_conf_bdc2018_new"
  type: "Convolution"
  bottom: "conv4_3_norm"
  top: "conv4_3_norm_mbox_conf_bdc2018_new"
  param {
    lr_mult: 1
    decay_mult: 1
  }
  param {
    lr_mult: 2
    decay_mult: 0
  }
  convolution_param {
    num_output: 36
    pad: 1
    kernel_size: 3
    stride: 1
    weight_filler {
      type: "xavier"
    }
    bias_filler {
      type: "constant"
      value: 0
    }
  }
}
layer {
  name: "conv4_3_norm_mbox_conf_bdc2018_new_perm_bdc2018_new"
  type: "Permute"
  bottom: "conv4_3_norm_mbox_conf_bdc2018_new"
  top: "conv4_3_norm_mbox_conf_bdc2018_new_perm_bdc2018_new"
  permute_param {
    order: 0
    order: 2
    order: 3
    order: 1
  }
}
layer {
  name: "conv4_3_norm_mbox_conf_bdc2018_new_flat_bdc2018_new"
  type: "Flatten"
  bottom: "conv4_3_norm_mbox_conf_bdc2018_new_perm_bdc2018_new"
  top: "conv4_3_norm_mbox_conf_bdc2018_new_flat_bdc2018_new"
  flatten_param {
    axis: 1
  }
}
layer {
  name: "conv4_3_norm_mbox_priorbox"
  type: "PriorBox"
  bottom: "conv4_3_norm"
  bottom: "data"
  top: "conv4_3_norm_mbox_priorbox"
  prior_box_param {
    min_size: 102.4
    max_size: 204.8
    aspect_ratio: 2
    flip: true
    clip: false
    variance: 0.1
    variance: 0.1
    variance: 0.2
    variance: 0.2
    step: 8
    offset: 0.5
  }
}
layer {
  name: "fc7_mbox_loc_bdc2018"
  type: "Convolution"
  bottom: "fc7"
  top: "fc7_mbox_loc_bdc2018"
  param {
    lr_mult: 1
    decay_mult: 1
  }
  param {
    lr_mult: 2
    decay_mult: 0
  }
  convolution_param {
    num_output: 24
    pad: 1
    kernel_size: 3
    stride: 1
    weight_filler {
      type: "xavier"
    }
    bias_filler {
      type: "constant"
      value: 0
    }
  }
}
layer {
  name: "fc7_mbox_loc_bdc2018_perm_bdc2018"
  type: "Permute"
  bottom: "fc7_mbox_loc_bdc2018"
  top: "fc7_mbox_loc_bdc2018_perm_bdc2018"
  permute_param {
    order: 0
    order: 2
    order: 3
    order: 1
  }
}
layer {
  name: "fc7_mbox_loc_bdc2018_flat_bdc2018"
  type: "Flatten"
  bottom: "fc7_mbox_loc_bdc2018_perm_bdc2018"
  top: "fc7_mbox_loc_bdc2018_flat_bdc2018"
  flatten_param {
    axis: 1
  }
}
layer {
  name: "fc7_mbox_conf_bdc2018_new"
  type: "Convolution"
  bottom: "fc7"
  top: "fc7_mbox_conf_bdc2018_new"
  param {
    lr_mult: 1
    decay_mult: 1
  }
  param {
    lr_mult: 2
    decay_mult: 0
  }
  convolution_param {
    num_output: 54
    pad: 1
    kernel_size: 3
    stride: 1
    weight_filler {
      type: "xavier"
    }
    bias_filler {
      type: "constant"
      value: 0
    }
  }
}
layer {
  name: "fc7_mbox_conf_bdc2018_new_perm_bdc2018_new"
  type: "Permute"
  bottom: "fc7_mbox_conf_bdc2018_new"
  top: "fc7_mbox_conf_bdc2018_new_perm_bdc2018_new"
  permute_param {
    order: 0
    order: 2
    order: 3
    order: 1
  }
}
layer {
  name: "fc7_mbox_conf_bdc2018_new_flat_bdc2018_new"
  type: "Flatten"
  bottom: "fc7_mbox_conf_bdc2018_new_perm_bdc2018_new"
  top: "fc7_mbox_conf_bdc2018_new_flat_bdc2018_new"
  flatten_param {
    axis: 1
  }
}
layer {
  name: "fc7_mbox_priorbox"
  type: "PriorBox"
  bottom: "fc7"
  bottom: "data"
  top: "fc7_mbox_priorbox"
  prior_box_param {
    min_size: 204.8
    max_size: 378.88
    aspect_ratio: 2
    aspect_ratio: 3
    flip: true
    clip: false
    variance: 0.1
    variance: 0.1
    variance: 0.2
    variance: 0.2
    step: 16
    offset: 0.5
  }
}
layer {
  name: "conv6_2_mbox_loc_bdc2018"
  type: "Convolution"
  bottom: "conv6_2"
  top: "conv6_2_mbox_loc_bdc2018"
  param {
    lr_mult: 1
    decay_mult: 1
  }
  param {
    lr_mult: 2
    decay_mult: 0
  }
  convolution_param {
    num_output: 24
    pad: 1
    kernel_size: 3
    stride: 1
    weight_filler {
      type: "xavier"
    }
    bias_filler {
      type: "constant"
      value: 0
    }
  }
}
layer {
  name: "conv6_2_mbox_loc_bdc2018_perm_bdc2018"
  type: "Permute"
  bottom: "conv6_2_mbox_loc_bdc2018"
  top: "conv6_2_mbox_loc_bdc2018_perm_bdc2018"
  permute_param {
    order: 0
    order: 2
    order: 3
    order: 1
  }
}
layer {
  name: "conv6_2_mbox_loc_bdc2018_flat_bdc2018"
  type: "Flatten"
  bottom: "conv6_2_mbox_loc_bdc2018_perm_bdc2018"
  top: "conv6_2_mbox_loc_bdc2018_flat_bdc2018"
  flatten_param {
    axis: 1
  }
}
layer {
  name: "conv6_2_mbox_conf_bdc2018_new"
  type: "Convolution"
  bottom: "conv6_2"
  top: "conv6_2_mbox_conf_bdc2018_new"
  param {
    lr_mult: 1
    decay_mult: 1
  }
  param {
    lr_mult: 2
    decay_mult: 0
  }
  convolution_param {
    num_output: 54
    pad: 1
    kernel_size: 3
    stride: 1
    weight_filler {
      type: "xavier"
    }
    bias_filler {
      type: "constant"
      value: 0
    }
  }
}
layer {
  name: "conv6_2_mbox_conf_bdc2018_new_perm_bdc2018_new"
  type: "Permute"
  bottom: "conv6_2_mbox_conf_bdc2018_new"
  top: "conv6_2_mbox_conf_bdc2018_new_perm_bdc2018_new"
  permute_param {
    order: 0
    order: 2
    order: 3
    order: 1
  }
}
layer {
  name: "conv6_2_mbox_conf_bdc2018_new_flat_bdc2018_new"
  type: "Flatten"
  bottom: "conv6_2_mbox_conf_bdc2018_new_perm_bdc2018_new"
  top: "conv6_2_mbox_conf_bdc2018_new_flat_bdc2018_new"
  flatten_param {
    axis: 1
  }
}
layer {
  name: "conv6_2_mbox_priorbox"
  type: "PriorBox"
  bottom: "conv6_2"
  bottom: "data"
  top: "conv6_2_mbox_priorbox"
  prior_box_param {
    min_size: 378.88
    max_size: 552.96
    aspect_ratio: 2
    aspect_ratio: 3
    flip: true
    clip: false
    variance: 0.1
    variance: 0.1
    variance: 0.2
    variance: 0.2
    step: 32
    offset: 0.5
  }
}
layer {
  name: "conv7_2_mbox_loc_bdc2018"
  type: "Convolution"
  bottom: "conv7_2"
  top: "conv7_2_mbox_loc_bdc2018"
  param {
    lr_mult: 1
    decay_mult: 1
  }
  param {
    lr_mult: 2
    decay_mult: 0
  }
  convolution_param {
    num_output: 24
    pad: 1
    kernel_size: 3
    stride: 1
    weight_filler {
      type: "xavier"
    }
    bias_filler {
      type: "constant"
      value: 0
    }
  }
}
layer {
  name: "conv7_2_mbox_loc_bdc2018_perm_bdc2018"
  type: "Permute"
  bottom: "conv7_2_mbox_loc_bdc2018"
  top: "conv7_2_mbox_loc_bdc2018_perm_bdc2018"
  permute_param {
    order: 0
    order: 2
    order: 3
    order: 1
  }
}
layer {
  name: "conv7_2_mbox_loc_bdc2018_flat_bdc2018"
  type: "Flatten"
  bottom: "conv7_2_mbox_loc_bdc2018_perm_bdc2018"
  top: "conv7_2_mbox_loc_bdc2018_flat_bdc2018"
  flatten_param {
    axis: 1
  }
}
layer {
  name: "conv7_2_mbox_conf_bdc2018_new"
  type: "Convolution"
  bottom: "conv7_2"
  top: "conv7_2_mbox_conf_bdc2018_new"
  param {
    lr_mult: 1
    decay_mult: 1
  }
  param {
    lr_mult: 2
    decay_mult: 0
  }
  convolution_param {
    num_output: 54
    pad: 1
    kernel_size: 3
    stride: 1
    weight_filler {
      type: "xavier"
    }
    bias_filler {
      type: "constant"
      value: 0
    }
  }
}
layer {
  name: "conv7_2_mbox_conf_bdc2018_new_perm_bdc2018_new"
  type: "Permute"
  bottom: "conv7_2_mbox_conf_bdc2018_new"
  top: "conv7_2_mbox_conf_bdc2018_new_perm_bdc2018_new"
  permute_param {
    order: 0
    order: 2
    order: 3
    order: 1
  }
}
layer {
  name: "conv7_2_mbox_conf_bdc2018_new_flat_bdc2018_new"
  type: "Flatten"
  bottom: "conv7_2_mbox_conf_bdc2018_new_perm_bdc2018_new"
  top: "conv7_2_mbox_conf_bdc2018_new_flat_bdc2018_new"
  flatten_param {
    axis: 1
  }
}
layer {
  name: "conv7_2_mbox_priorbox"
  type: "PriorBox"
  bottom: "conv7_2"
  bottom: "data"
  top: "conv7_2_mbox_priorbox"
  prior_box_param {
    min_size: 552.96
    max_size: 727.04
    aspect_ratio: 2
    aspect_ratio: 3
    flip: true
    clip: false
    variance: 0.1
    variance: 0.1
    variance: 0.2
    variance: 0.2
    step: 64
    offset: 0.5
  }
}
layer {
  name: "conv8_2_mbox_loc_bdc2018"
  type: "Convolution"
  bottom: "conv8_2"
  top: "conv8_2_mbox_loc_bdc2018"
  param {
    lr_mult: 1
    decay_mult: 1
  }
  param {
    lr_mult: 2
    decay_mult: 0
  }
  convolution_param {
    num_output: 16
    pad: 1
    kernel_size: 3
    stride: 1
    weight_filler {
      type: "xavier"
    }
    bias_filler {
      type: "constant"
      value: 0
    }
  }
}
layer {
  name: "conv8_2_mbox_loc_bdc2018_perm_bdc2018"
  type: "Permute"
  bottom: "conv8_2_mbox_loc_bdc2018"
  top: "conv8_2_mbox_loc_bdc2018_perm_bdc2018"
  permute_param {
    order: 0
    order: 2
    order: 3
    order: 1
  }
}
layer {
  name: "conv8_2_mbox_loc_bdc2018_flat_bdc2018"
  type: "Flatten"
  bottom: "conv8_2_mbox_loc_bdc2018_perm_bdc2018"
  top: "conv8_2_mbox_loc_bdc2018_flat_bdc2018"
  flatten_param {
    axis: 1
  }
}
layer {
  name: "conv8_2_mbox_conf_bdc2018_new"
  type: "Convolution"
  bottom: "conv8_2"
  top: "conv8_2_mbox_conf_bdc2018_new"
  param {
    lr_mult: 1
    decay_mult: 1
  }
  param {
    lr_mult: 2
    decay_mult: 0
  }
  convolution_param {
    num_output: 36
    pad: 1
    kernel_size: 3
    stride: 1
    weight_filler {
      type: "xavier"
    }
    bias_filler {
      type: "constant"
      value: 0
    }
  }
}
layer {
  name: "conv8_2_mbox_conf_bdc2018_new_perm_bdc2018_new"
  type: "Permute"
  bottom: "conv8_2_mbox_conf_bdc2018_new"
  top: "conv8_2_mbox_conf_bdc2018_new_perm_bdc2018_new"
  permute_param {
    order: 0
    order: 2
    order: 3
    order: 1
  }
}
layer {
  name: "conv8_2_mbox_conf_bdc2018_new_flat_bdc2018_new"
  type: "Flatten"
  bottom: "conv8_2_mbox_conf_bdc2018_new_perm_bdc2018_new"
  top: "conv8_2_mbox_conf_bdc2018_new_flat_bdc2018_new"
  flatten_param {
    axis: 1
  }
}
layer {
  name: "conv8_2_mbox_priorbox"
  type: "PriorBox"
  bottom: "conv8_2"
  bottom: "data"
  top: "conv8_2_mbox_priorbox"
  prior_box_param {
    min_size: 727.04
    max_size: 901.12
    aspect_ratio: 2
    flip: true
    clip: false
    variance: 0.1
    variance: 0.1
    variance: 0.2
    variance: 0.2
    step: 100
    offset: 0.5
  }
}
layer {
  name: "conv9_2_mbox_loc_bdc2018"
  type: "Convolution"
  bottom: "conv9_2"
  top: "conv9_2_mbox_loc_bdc2018"
  param {
    lr_mult: 1
    decay_mult: 1
  }
  param {
    lr_mult: 2
    decay_mult: 0
  }
  convolution_param {
    num_output: 16
    pad: 1
    kernel_size: 3
    stride: 1
    weight_filler {
      type: "xavier"
    }
    bias_filler {
      type: "constant"
      value: 0
    }
  }
}
layer {
  name: "conv9_2_mbox_loc_bdc2018_perm_bdc2018"
  type: "Permute"
  bottom: "conv9_2_mbox_loc_bdc2018"
  top: "conv9_2_mbox_loc_bdc2018_perm_bdc2018"
  permute_param {
    order: 0
    order: 2
    order: 3
    order: 1
  }
}
layer {
  name: "conv9_2_mbox_loc_bdc2018_flat_bdc2018"
  type: "Flatten"
  bottom: "conv9_2_mbox_loc_bdc2018_perm_bdc2018"
  top: "conv9_2_mbox_loc_bdc2018_flat_bdc2018"
  flatten_param {
    axis: 1
  }
}
layer {
  name: "conv9_2_mbox_conf_bdc2018_new"
  type: "Convolution"
  bottom: "conv9_2"
  top: "conv9_2_mbox_conf_bdc2018_new"
  param {
    lr_mult: 1
    decay_mult: 1
  }
  param {
    lr_mult: 2
    decay_mult: 0
  }
  convolution_param {
    num_output: 36
    pad: 1
    kernel_size: 3
    stride: 1
    weight_filler {
      type: "xavier"
    }
    bias_filler {
      type: "constant"
      value: 0
    }
  }
}
layer {
  name: "conv9_2_mbox_conf_bdc2018_new_perm_bdc2018_new"
  type: "Permute"
  bottom: "conv9_2_mbox_conf_bdc2018_new"
  top: "conv9_2_mbox_conf_bdc2018_new_perm_bdc2018_new"
  permute_param {
    order: 0
    order: 2
    order: 3
    order: 1
  }
}
layer {
  name: "conv9_2_mbox_conf_bdc2018_new_flat_bdc2018_new"
  type: "Flatten"
  bottom: "conv9_2_mbox_conf_bdc2018_new_perm_bdc2018_new"
  top: "conv9_2_mbox_conf_bdc2018_new_flat_bdc2018_new"
  flatten_param {
    axis: 1
  }
}
layer {
  name: "conv9_2_mbox_priorbox"
  type: "PriorBox"
  bottom: "conv9_2"
  bottom: "data"
  top: "conv9_2_mbox_priorbox"
  prior_box_param {
    min_size: 901.12
    max_size: 1075.2
    aspect_ratio: 2
    flip: true
    clip: false
    variance: 0.1
    variance: 0.1
    variance: 0.2
    variance: 0.2
    step: 300
    offset: 0.5
  }
}
layer {
  name: "mbox_loc"
  type: "Concat"
  bottom: "conv4_3_norm_mbox_loc_bdc2018_flat_bdc2018"
  bottom: "fc7_mbox_loc_bdc2018_flat_bdc2018"
  bottom: "conv6_2_mbox_loc_bdc2018_flat_bdc2018"
  bottom: "conv7_2_mbox_loc_bdc2018_flat_bdc2018"
  bottom: "conv8_2_mbox_loc_bdc2018_flat_bdc2018"
  bottom: "conv9_2_mbox_loc_bdc2018_flat_bdc2018"
  top: "mbox_loc"
  concat_param {
    axis: 1
  }
}
layer {
  name: "mbox_conf"
  type: "Concat"
  bottom: "conv4_3_norm_mbox_conf_bdc2018_new_flat_bdc2018_new"
  bottom: "fc7_mbox_conf_bdc2018_new_flat_bdc2018_new"
  bottom: "conv6_2_mbox_conf_bdc2018_new_flat_bdc2018_new"
  bottom: "conv7_2_mbox_conf_bdc2018_new_flat_bdc2018_new"
  bottom: "conv8_2_mbox_conf_bdc2018_new_flat_bdc2018_new"
  bottom: "conv9_2_mbox_conf_bdc2018_new_flat_bdc2018_new"
  top: "mbox_conf"
  concat_param {
    axis: 1
  }
}
layer {
  name: "mbox_priorbox"
  type: "Concat"
  bottom: "conv4_3_norm_mbox_priorbox"
  bottom: "fc7_mbox_priorbox"
  bottom: "conv6_2_mbox_priorbox"
  bottom: "conv7_2_mbox_priorbox"
  bottom: "conv8_2_mbox_priorbox"
  bottom: "conv9_2_mbox_priorbox"
  top: "mbox_priorbox"
  concat_param {
    axis: 2
  }
}
layer {
  name: "mbox_conf_reshape"
  type: "Reshape"
  bottom: "mbox_conf"
  top: "mbox_conf_reshape"
  reshape_param {
    shape {
      dim: 0
      dim: -1
      dim: 9
    }
  }
}
layer {
  name: "mbox_conf_softmax"
  type: "Softmax"
  bottom: "mbox_conf_reshape"
  top: "mbox_conf_softmax"
  softmax_param {
    axis: 2
  }
}
layer {
  name: "mbox_conf_flatten"
  type: "Flatten"
  bottom: "mbox_conf_softmax"
  top: "mbox_conf_flatten"
  flatten_param {
    axis: 1
  }
}
layer {
  name: "detection_out"
  type: "DetectionOutput"
  bottom: "mbox_loc"
  bottom: "mbox_conf_flatten"
  bottom: "mbox_priorbox"
  top: "detection_out"
  include {
    phase: TEST
  }
  detection_output_param {
    num_classes: 9
    share_location: true
    background_label_id: 0
    nms_param {
      nms_threshold: 0.45
      top_k: 400
    }
    save_output_param {
      output_directory: "/home/user/data/bdc2018/results/SSD_1024x1024/Main"
      output_name_prefix: "comp4_det_test_"
      output_format: "VOC"
      label_map_file: "data/bdc2018/labelmap_bdc.prototxt"
      name_size_file: "data/bdc2018/val_name_size.txt"
      num_test_image: 37
    }
    code_type: CENTER_SIZE
    keep_top_k: 200
    confidence_threshold: 0.01
  }
}
layer {
  name: "detection_eval"
  type: "DetectionEvaluate"
  bottom: "detection_out"
  bottom: "label"
  top: "detection_eval"
  include {
    phase: TEST
  }
  detection_evaluate_param {
    num_classes: 9
    background_label_id: 0
    overlap_threshold: 0.5
    evaluate_difficult_gt: false
    name_size_file: "data/bdc2018/val_name_size.txt"
  }
}
I0722 00:57:09.699631 23230 layer_factory.hpp:77] Creating layer data
I0722 00:57:09.699723 23230 net.cpp:100] Creating Layer data
I0722 00:57:09.699734 23230 net.cpp:408] data -> data
I0722 00:57:09.699745 23230 net.cpp:408] data -> label
I0722 00:57:09.701031 23238 db_lmdb.cpp:35] Opened lmdb examples/bdc2018/bdc2018_val_name_lmdb
I0722 00:57:09.705873 23230 annotated_data_layer.cpp:62] output data size: 2,3,1024,1024
I0722 00:57:09.759591 23230 net.cpp:150] Setting up data
I0722 00:57:09.759637 23230 net.cpp:157] Top shape: 2 3 1024 1024 (6291456)
I0722 00:57:09.759644 23230 net.cpp:157] Top shape: 1 1 1 8 (8)
I0722 00:57:09.759647 23230 net.cpp:165] Memory required for data: 25165856
I0722 00:57:09.759656 23230 layer_factory.hpp:77] Creating layer data_data_0_split
I0722 00:57:09.759677 23230 net.cpp:100] Creating Layer data_data_0_split
I0722 00:57:09.759683 23230 net.cpp:434] data_data_0_split <- data
I0722 00:57:09.759694 23230 net.cpp:408] data_data_0_split -> data_data_0_split_0
I0722 00:57:09.759712 23230 net.cpp:408] data_data_0_split -> data_data_0_split_1
I0722 00:57:09.759722 23230 net.cpp:408] data_data_0_split -> data_data_0_split_2
I0722 00:57:09.759732 23230 net.cpp:408] data_data_0_split -> data_data_0_split_3
I0722 00:57:09.759739 23230 net.cpp:408] data_data_0_split -> data_data_0_split_4
I0722 00:57:09.759747 23230 net.cpp:408] data_data_0_split -> data_data_0_split_5
I0722 00:57:09.759752 23230 net.cpp:408] data_data_0_split -> data_data_0_split_6
I0722 00:57:09.759995 23230 net.cpp:150] Setting up data_data_0_split
I0722 00:57:09.760008 23230 net.cpp:157] Top shape: 2 3 1024 1024 (6291456)
I0722 00:57:09.760013 23230 net.cpp:157] Top shape: 2 3 1024 1024 (6291456)
I0722 00:57:09.760018 23230 net.cpp:157] Top shape: 2 3 1024 1024 (6291456)
I0722 00:57:09.760022 23230 net.cpp:157] Top shape: 2 3 1024 1024 (6291456)
I0722 00:57:09.760026 23230 net.cpp:157] Top shape: 2 3 1024 1024 (6291456)
I0722 00:57:09.760030 23230 net.cpp:157] Top shape: 2 3 1024 1024 (6291456)
I0722 00:57:09.760035 23230 net.cpp:157] Top shape: 2 3 1024 1024 (6291456)
I0722 00:57:09.760038 23230 net.cpp:165] Memory required for data: 201326624
I0722 00:57:09.760042 23230 layer_factory.hpp:77] Creating layer conv1_1
I0722 00:57:09.760059 23230 net.cpp:100] Creating Layer conv1_1
I0722 00:57:09.760066 23230 net.cpp:434] conv1_1 <- data_data_0_split_0
I0722 00:57:09.760076 23230 net.cpp:408] conv1_1 -> conv1_1
I0722 00:57:09.770159 23230 net.cpp:150] Setting up conv1_1
I0722 00:57:09.770177 23230 net.cpp:157] Top shape: 2 64 1024 1024 (134217728)
I0722 00:57:09.770182 23230 net.cpp:165] Memory required for data: 738197536
I0722 00:57:09.770197 23230 layer_factory.hpp:77] Creating layer relu1_1
I0722 00:57:09.770208 23230 net.cpp:100] Creating Layer relu1_1
I0722 00:57:09.770213 23230 net.cpp:434] relu1_1 <- conv1_1
I0722 00:57:09.770220 23230 net.cpp:395] relu1_1 -> conv1_1 (in-place)
I0722 00:57:09.770457 23230 net.cpp:150] Setting up relu1_1
I0722 00:57:09.770470 23230 net.cpp:157] Top shape: 2 64 1024 1024 (134217728)
I0722 00:57:09.770473 23230 net.cpp:165] Memory required for data: 1275068448
I0722 00:57:09.770478 23230 layer_factory.hpp:77] Creating layer conv1_2
I0722 00:57:09.770493 23230 net.cpp:100] Creating Layer conv1_2
I0722 00:57:09.770498 23230 net.cpp:434] conv1_2 <- conv1_1
I0722 00:57:09.770507 23230 net.cpp:408] conv1_2 -> conv1_2
I0722 00:57:09.783227 23230 net.cpp:150] Setting up conv1_2
I0722 00:57:09.783254 23230 net.cpp:157] Top shape: 2 64 1024 1024 (134217728)
I0722 00:57:09.783258 23230 net.cpp:165] Memory required for data: 1811939360
I0722 00:57:09.783272 23230 layer_factory.hpp:77] Creating layer relu1_2
I0722 00:57:09.783285 23230 net.cpp:100] Creating Layer relu1_2
I0722 00:57:09.783289 23230 net.cpp:434] relu1_2 <- conv1_2
I0722 00:57:09.783298 23230 net.cpp:395] relu1_2 -> conv1_2 (in-place)
I0722 00:57:09.783540 23230 net.cpp:150] Setting up relu1_2
I0722 00:57:09.783551 23230 net.cpp:157] Top shape: 2 64 1024 1024 (134217728)
I0722 00:57:09.783555 23230 net.cpp:165] Memory required for data: 2348810272
I0722 00:57:09.783560 23230 layer_factory.hpp:77] Creating layer pool1
I0722 00:57:09.783571 23230 net.cpp:100] Creating Layer pool1
I0722 00:57:09.783574 23230 net.cpp:434] pool1 <- conv1_2
I0722 00:57:09.783582 23230 net.cpp:408] pool1 -> pool1
I0722 00:57:09.783648 23230 net.cpp:150] Setting up pool1
I0722 00:57:09.783658 23230 net.cpp:157] Top shape: 2 64 512 512 (33554432)
I0722 00:57:09.783660 23230 net.cpp:165] Memory required for data: 2483028000
I0722 00:57:09.783664 23230 layer_factory.hpp:77] Creating layer conv2_1
I0722 00:57:09.783677 23230 net.cpp:100] Creating Layer conv2_1
I0722 00:57:09.783681 23230 net.cpp:434] conv2_1 <- pool1
I0722 00:57:09.783689 23230 net.cpp:408] conv2_1 -> conv2_1
I0722 00:57:09.790894 23230 net.cpp:150] Setting up conv2_1
I0722 00:57:09.790913 23230 net.cpp:157] Top shape: 2 128 512 512 (67108864)
I0722 00:57:09.790918 23230 net.cpp:165] Memory required for data: 2751463456
I0722 00:57:09.790931 23230 layer_factory.hpp:77] Creating layer relu2_1
I0722 00:57:09.790944 23230 net.cpp:100] Creating Layer relu2_1
I0722 00:57:09.790951 23230 net.cpp:434] relu2_1 <- conv2_1
I0722 00:57:09.790958 23230 net.cpp:395] relu2_1 -> conv2_1 (in-place)
I0722 00:57:09.791193 23230 net.cpp:150] Setting up relu2_1
I0722 00:57:09.791208 23230 net.cpp:157] Top shape: 2 128 512 512 (67108864)
I0722 00:57:09.791211 23230 net.cpp:165] Memory required for data: 3019898912
I0722 00:57:09.791237 23230 layer_factory.hpp:77] Creating layer conv2_2
I0722 00:57:09.791249 23230 net.cpp:100] Creating Layer conv2_2
I0722 00:57:09.791254 23230 net.cpp:434] conv2_2 <- conv2_1
I0722 00:57:09.791262 23230 net.cpp:408] conv2_2 -> conv2_2
I0722 00:57:09.800776 23230 net.cpp:150] Setting up conv2_2
I0722 00:57:09.800796 23230 net.cpp:157] Top shape: 2 128 512 512 (67108864)
I0722 00:57:09.800801 23230 net.cpp:165] Memory required for data: 3288334368
I0722 00:57:09.800809 23230 layer_factory.hpp:77] Creating layer relu2_2
I0722 00:57:09.800818 23230 net.cpp:100] Creating Layer relu2_2
I0722 00:57:09.800824 23230 net.cpp:434] relu2_2 <- conv2_2
I0722 00:57:09.800832 23230 net.cpp:395] relu2_2 -> conv2_2 (in-place)
I0722 00:57:09.801069 23230 net.cpp:150] Setting up relu2_2
I0722 00:57:09.801082 23230 net.cpp:157] Top shape: 2 128 512 512 (67108864)
I0722 00:57:09.801086 23230 net.cpp:165] Memory required for data: 3556769824
I0722 00:57:09.801091 23230 layer_factory.hpp:77] Creating layer pool2
I0722 00:57:09.801100 23230 net.cpp:100] Creating Layer pool2
I0722 00:57:09.801103 23230 net.cpp:434] pool2 <- conv2_2
I0722 00:57:09.801110 23230 net.cpp:408] pool2 -> pool2
I0722 00:57:09.801174 23230 net.cpp:150] Setting up pool2
I0722 00:57:09.801184 23230 net.cpp:157] Top shape: 2 128 256 256 (16777216)
I0722 00:57:09.801188 23230 net.cpp:165] Memory required for data: 3623878688
I0722 00:57:09.801192 23230 layer_factory.hpp:77] Creating layer conv3_1
I0722 00:57:09.801203 23230 net.cpp:100] Creating Layer conv3_1
I0722 00:57:09.801208 23230 net.cpp:434] conv3_1 <- pool2
I0722 00:57:09.801215 23230 net.cpp:408] conv3_1 -> conv3_1
I0722 00:57:09.808404 23230 net.cpp:150] Setting up conv3_1
I0722 00:57:09.808426 23230 net.cpp:157] Top shape: 2 256 256 256 (33554432)
I0722 00:57:09.808430 23230 net.cpp:165] Memory required for data: 3758096416
I0722 00:57:09.808445 23230 layer_factory.hpp:77] Creating layer relu3_1
I0722 00:57:09.808455 23230 net.cpp:100] Creating Layer relu3_1
I0722 00:57:09.808461 23230 net.cpp:434] relu3_1 <- conv3_1
I0722 00:57:09.808468 23230 net.cpp:395] relu3_1 -> conv3_1 (in-place)
I0722 00:57:09.808954 23230 net.cpp:150] Setting up relu3_1
I0722 00:57:09.808970 23230 net.cpp:157] Top shape: 2 256 256 256 (33554432)
I0722 00:57:09.808974 23230 net.cpp:165] Memory required for data: 3892314144
I0722 00:57:09.808979 23230 layer_factory.hpp:77] Creating layer conv3_2
I0722 00:57:09.808990 23230 net.cpp:100] Creating Layer conv3_2
I0722 00:57:09.808997 23230 net.cpp:434] conv3_2 <- conv3_1
I0722 00:57:09.809005 23230 net.cpp:408] conv3_2 -> conv3_2
I0722 00:57:09.815508 23230 net.cpp:150] Setting up conv3_2
I0722 00:57:09.815528 23230 net.cpp:157] Top shape: 2 256 256 256 (33554432)
I0722 00:57:09.815532 23230 net.cpp:165] Memory required for data: 4026531872
I0722 00:57:09.815541 23230 layer_factory.hpp:77] Creating layer relu3_2
I0722 00:57:09.815547 23230 net.cpp:100] Creating Layer relu3_2
I0722 00:57:09.815551 23230 net.cpp:434] relu3_2 <- conv3_2
I0722 00:57:09.815559 23230 net.cpp:395] relu3_2 -> conv3_2 (in-place)
I0722 00:57:09.815802 23230 net.cpp:150] Setting up relu3_2
I0722 00:57:09.815816 23230 net.cpp:157] Top shape: 2 256 256 256 (33554432)
I0722 00:57:09.815819 23230 net.cpp:165] Memory required for data: 4160749600
I0722 00:57:09.815824 23230 layer_factory.hpp:77] Creating layer conv3_3
I0722 00:57:09.815842 23230 net.cpp:100] Creating Layer conv3_3
I0722 00:57:09.815848 23230 net.cpp:434] conv3_3 <- conv3_2
I0722 00:57:09.815855 23230 net.cpp:408] conv3_3 -> conv3_3
I0722 00:57:09.823336 23230 net.cpp:150] Setting up conv3_3
I0722 00:57:09.823355 23230 net.cpp:157] Top shape: 2 256 256 256 (33554432)
I0722 00:57:09.823359 23230 net.cpp:165] Memory required for data: 4294967328
I0722 00:57:09.823369 23230 layer_factory.hpp:77] Creating layer relu3_3
I0722 00:57:09.823379 23230 net.cpp:100] Creating Layer relu3_3
I0722 00:57:09.823385 23230 net.cpp:434] relu3_3 <- conv3_3
I0722 00:57:09.823390 23230 net.cpp:395] relu3_3 -> conv3_3 (in-place)
I0722 00:57:09.823639 23230 net.cpp:150] Setting up relu3_3
I0722 00:57:09.823668 23230 net.cpp:157] Top shape: 2 256 256 256 (33554432)
I0722 00:57:09.823673 23230 net.cpp:165] Memory required for data: 4429185056
I0722 00:57:09.823676 23230 layer_factory.hpp:77] Creating layer pool3
I0722 00:57:09.823683 23230 net.cpp:100] Creating Layer pool3
I0722 00:57:09.823688 23230 net.cpp:434] pool3 <- conv3_3
I0722 00:57:09.823696 23230 net.cpp:408] pool3 -> pool3
I0722 00:57:09.823770 23230 net.cpp:150] Setting up pool3
I0722 00:57:09.823781 23230 net.cpp:157] Top shape: 2 256 128 128 (8388608)
I0722 00:57:09.823784 23230 net.cpp:165] Memory required for data: 4462739488
I0722 00:57:09.823787 23230 layer_factory.hpp:77] Creating layer conv4_1
I0722 00:57:09.823801 23230 net.cpp:100] Creating Layer conv4_1
I0722 00:57:09.823806 23230 net.cpp:434] conv4_1 <- pool3
I0722 00:57:09.823814 23230 net.cpp:408] conv4_1 -> conv4_1
I0722 00:57:09.834862 23230 net.cpp:150] Setting up conv4_1
I0722 00:57:09.834884 23230 net.cpp:157] Top shape: 2 512 128 128 (16777216)
I0722 00:57:09.834888 23230 net.cpp:165] Memory required for data: 4529848352
I0722 00:57:09.834897 23230 layer_factory.hpp:77] Creating layer relu4_1
I0722 00:57:09.834903 23230 net.cpp:100] Creating Layer relu4_1
I0722 00:57:09.834908 23230 net.cpp:434] relu4_1 <- conv4_1
I0722 00:57:09.834913 23230 net.cpp:395] relu4_1 -> conv4_1 (in-place)
I0722 00:57:09.835152 23230 net.cpp:150] Setting up relu4_1
I0722 00:57:09.835165 23230 net.cpp:157] Top shape: 2 512 128 128 (16777216)
I0722 00:57:09.835170 23230 net.cpp:165] Memory required for data: 4596957216
I0722 00:57:09.835173 23230 layer_factory.hpp:77] Creating layer conv4_2
I0722 00:57:09.835187 23230 net.cpp:100] Creating Layer conv4_2
I0722 00:57:09.835192 23230 net.cpp:434] conv4_2 <- conv4_1
I0722 00:57:09.835199 23230 net.cpp:408] conv4_2 -> conv4_2
I0722 00:57:09.857043 23230 net.cpp:150] Setting up conv4_2
I0722 00:57:09.857060 23230 net.cpp:157] Top shape: 2 512 128 128 (16777216)
I0722 00:57:09.857064 23230 net.cpp:165] Memory required for data: 4664066080
I0722 00:57:09.857082 23230 layer_factory.hpp:77] Creating layer relu4_2
I0722 00:57:09.857091 23230 net.cpp:100] Creating Layer relu4_2
I0722 00:57:09.857095 23230 net.cpp:434] relu4_2 <- conv4_2
I0722 00:57:09.857103 23230 net.cpp:395] relu4_2 -> conv4_2 (in-place)
I0722 00:57:09.859169 23230 net.cpp:150] Setting up relu4_2
I0722 00:57:09.859182 23230 net.cpp:157] Top shape: 2 512 128 128 (16777216)
I0722 00:57:09.859186 23230 net.cpp:165] Memory required for data: 4731174944
I0722 00:57:09.859190 23230 layer_factory.hpp:77] Creating layer conv4_3
I0722 00:57:09.859202 23230 net.cpp:100] Creating Layer conv4_3
I0722 00:57:09.859207 23230 net.cpp:434] conv4_3 <- conv4_2
I0722 00:57:09.859217 23230 net.cpp:408] conv4_3 -> conv4_3
I0722 00:57:09.881618 23230 net.cpp:150] Setting up conv4_3
I0722 00:57:09.881639 23230 net.cpp:157] Top shape: 2 512 128 128 (16777216)
I0722 00:57:09.881644 23230 net.cpp:165] Memory required for data: 4798283808
I0722 00:57:09.881652 23230 layer_factory.hpp:77] Creating layer relu4_3
I0722 00:57:09.881660 23230 net.cpp:100] Creating Layer relu4_3
I0722 00:57:09.881664 23230 net.cpp:434] relu4_3 <- conv4_3
I0722 00:57:09.881670 23230 net.cpp:395] relu4_3 -> conv4_3 (in-place)
I0722 00:57:09.883677 23230 net.cpp:150] Setting up relu4_3
I0722 00:57:09.883692 23230 net.cpp:157] Top shape: 2 512 128 128 (16777216)
I0722 00:57:09.883695 23230 net.cpp:165] Memory required for data: 4865392672
I0722 00:57:09.883699 23230 layer_factory.hpp:77] Creating layer conv4_3_relu4_3_0_split
I0722 00:57:09.883710 23230 net.cpp:100] Creating Layer conv4_3_relu4_3_0_split
I0722 00:57:09.883714 23230 net.cpp:434] conv4_3_relu4_3_0_split <- conv4_3
I0722 00:57:09.883723 23230 net.cpp:408] conv4_3_relu4_3_0_split -> conv4_3_relu4_3_0_split_0
I0722 00:57:09.883730 23230 net.cpp:408] conv4_3_relu4_3_0_split -> conv4_3_relu4_3_0_split_1
I0722 00:57:09.883798 23230 net.cpp:150] Setting up conv4_3_relu4_3_0_split
I0722 00:57:09.883807 23230 net.cpp:157] Top shape: 2 512 128 128 (16777216)
I0722 00:57:09.883812 23230 net.cpp:157] Top shape: 2 512 128 128 (16777216)
I0722 00:57:09.883834 23230 net.cpp:165] Memory required for data: 4999610400
I0722 00:57:09.883838 23230 layer_factory.hpp:77] Creating layer pool4
I0722 00:57:09.883849 23230 net.cpp:100] Creating Layer pool4
I0722 00:57:09.883853 23230 net.cpp:434] pool4 <- conv4_3_relu4_3_0_split_0
I0722 00:57:09.883859 23230 net.cpp:408] pool4 -> pool4
I0722 00:57:09.883922 23230 net.cpp:150] Setting up pool4
I0722 00:57:09.883931 23230 net.cpp:157] Top shape: 2 512 64 64 (4194304)
I0722 00:57:09.883934 23230 net.cpp:165] Memory required for data: 5016387616
I0722 00:57:09.883939 23230 layer_factory.hpp:77] Creating layer conv5_1
I0722 00:57:09.883950 23230 net.cpp:100] Creating Layer conv5_1
I0722 00:57:09.883955 23230 net.cpp:434] conv5_1 <- pool4
I0722 00:57:09.883962 23230 net.cpp:408] conv5_1 -> conv5_1
I0722 00:57:09.907469 23230 net.cpp:150] Setting up conv5_1
I0722 00:57:09.907487 23230 net.cpp:157] Top shape: 2 512 64 64 (4194304)
I0722 00:57:09.907493 23230 net.cpp:165] Memory required for data: 5033164832
I0722 00:57:09.907502 23230 layer_factory.hpp:77] Creating layer relu5_1
I0722 00:57:09.907510 23230 net.cpp:100] Creating Layer relu5_1
I0722 00:57:09.907515 23230 net.cpp:434] relu5_1 <- conv5_1
I0722 00:57:09.907521 23230 net.cpp:395] relu5_1 -> conv5_1 (in-place)
I0722 00:57:09.909517 23230 net.cpp:150] Setting up relu5_1
I0722 00:57:09.909536 23230 net.cpp:157] Top shape: 2 512 64 64 (4194304)
I0722 00:57:09.909540 23230 net.cpp:165] Memory required for data: 5049942048
I0722 00:57:09.909544 23230 layer_factory.hpp:77] Creating layer conv5_2
I0722 00:57:09.909559 23230 net.cpp:100] Creating Layer conv5_2
I0722 00:57:09.909564 23230 net.cpp:434] conv5_2 <- conv5_1
I0722 00:57:09.909574 23230 net.cpp:408] conv5_2 -> conv5_2
I0722 00:57:09.933250 23230 net.cpp:150] Setting up conv5_2
I0722 00:57:09.933272 23230 net.cpp:157] Top shape: 2 512 64 64 (4194304)
I0722 00:57:09.933276 23230 net.cpp:165] Memory required for data: 5066719264
I0722 00:57:09.933285 23230 layer_factory.hpp:77] Creating layer relu5_2
I0722 00:57:09.933295 23230 net.cpp:100] Creating Layer relu5_2
I0722 00:57:09.933300 23230 net.cpp:434] relu5_2 <- conv5_2
I0722 00:57:09.933305 23230 net.cpp:395] relu5_2 -> conv5_2 (in-place)
I0722 00:57:09.935314 23230 net.cpp:150] Setting up relu5_2
I0722 00:57:09.935329 23230 net.cpp:157] Top shape: 2 512 64 64 (4194304)
I0722 00:57:09.935333 23230 net.cpp:165] Memory required for data: 5083496480
I0722 00:57:09.935336 23230 layer_factory.hpp:77] Creating layer conv5_3
I0722 00:57:09.935350 23230 net.cpp:100] Creating Layer conv5_3
I0722 00:57:09.935354 23230 net.cpp:434] conv5_3 <- conv5_2
I0722 00:57:09.935364 23230 net.cpp:408] conv5_3 -> conv5_3
I0722 00:57:09.959584 23230 net.cpp:150] Setting up conv5_3
I0722 00:57:09.959604 23230 net.cpp:157] Top shape: 2 512 64 64 (4194304)
I0722 00:57:09.959609 23230 net.cpp:165] Memory required for data: 5100273696
I0722 00:57:09.959617 23230 layer_factory.hpp:77] Creating layer relu5_3
I0722 00:57:09.959638 23230 net.cpp:100] Creating Layer relu5_3
I0722 00:57:09.959643 23230 net.cpp:434] relu5_3 <- conv5_3
I0722 00:57:09.959650 23230 net.cpp:395] relu5_3 -> conv5_3 (in-place)
I0722 00:57:09.959895 23230 net.cpp:150] Setting up relu5_3
I0722 00:57:09.959908 23230 net.cpp:157] Top shape: 2 512 64 64 (4194304)
I0722 00:57:09.959913 23230 net.cpp:165] Memory required for data: 5117050912
I0722 00:57:09.959916 23230 layer_factory.hpp:77] Creating layer pool5
I0722 00:57:09.959928 23230 net.cpp:100] Creating Layer pool5
I0722 00:57:09.959933 23230 net.cpp:434] pool5 <- conv5_3
I0722 00:57:09.959939 23230 net.cpp:408] pool5 -> pool5
I0722 00:57:09.960011 23230 net.cpp:150] Setting up pool5
I0722 00:57:09.960019 23230 net.cpp:157] Top shape: 2 512 64 64 (4194304)
I0722 00:57:09.960022 23230 net.cpp:165] Memory required for data: 5133828128
I0722 00:57:09.960026 23230 layer_factory.hpp:77] Creating layer fc6
I0722 00:57:09.960038 23230 net.cpp:100] Creating Layer fc6
I0722 00:57:09.960043 23230 net.cpp:434] fc6 <- pool5
I0722 00:57:09.960073 23230 net.cpp:408] fc6 -> fc6
I0722 00:57:09.998004 23230 net.cpp:150] Setting up fc6
I0722 00:57:09.998030 23230 net.cpp:157] Top shape: 2 1024 64 64 (8388608)
I0722 00:57:09.998035 23230 net.cpp:165] Memory required for data: 5167382560
I0722 00:57:09.998044 23230 layer_factory.hpp:77] Creating layer relu6
I0722 00:57:09.998064 23230 net.cpp:100] Creating Layer relu6
I0722 00:57:09.998070 23230 net.cpp:434] relu6 <- fc6
I0722 00:57:09.998077 23230 net.cpp:395] relu6 -> fc6 (in-place)
I0722 00:57:09.998368 23230 net.cpp:150] Setting up relu6
I0722 00:57:09.998383 23230 net.cpp:157] Top shape: 2 1024 64 64 (8388608)
I0722 00:57:09.998387 23230 net.cpp:165] Memory required for data: 5200936992
I0722 00:57:09.998391 23230 layer_factory.hpp:77] Creating layer fc7
I0722 00:57:09.998404 23230 net.cpp:100] Creating Layer fc7
I0722 00:57:09.998409 23230 net.cpp:434] fc7 <- fc6
I0722 00:57:09.998420 23230 net.cpp:408] fc7 -> fc7
I0722 00:57:10.013204 23230 net.cpp:150] Setting up fc7
I0722 00:57:10.013226 23230 net.cpp:157] Top shape: 2 1024 64 64 (8388608)
I0722 00:57:10.013231 23230 net.cpp:165] Memory required for data: 5234491424
I0722 00:57:10.013239 23230 layer_factory.hpp:77] Creating layer relu7
I0722 00:57:10.013248 23230 net.cpp:100] Creating Layer relu7
I0722 00:57:10.013253 23230 net.cpp:434] relu7 <- fc7
I0722 00:57:10.013262 23230 net.cpp:395] relu7 -> fc7 (in-place)
I0722 00:57:10.017782 23230 net.cpp:150] Setting up relu7
I0722 00:57:10.017817 23230 net.cpp:157] Top shape: 2 1024 64 64 (8388608)
I0722 00:57:10.017825 23230 net.cpp:165] Memory required for data: 5268045856
I0722 00:57:10.017833 23230 layer_factory.hpp:77] Creating layer fc7_relu7_0_split
I0722 00:57:10.017850 23230 net.cpp:100] Creating Layer fc7_relu7_0_split
I0722 00:57:10.017860 23230 net.cpp:434] fc7_relu7_0_split <- fc7
I0722 00:57:10.017879 23230 net.cpp:408] fc7_relu7_0_split -> fc7_relu7_0_split_0
I0722 00:57:10.017899 23230 net.cpp:408] fc7_relu7_0_split -> fc7_relu7_0_split_1
I0722 00:57:10.017930 23230 net.cpp:408] fc7_relu7_0_split -> fc7_relu7_0_split_2
I0722 00:57:10.017947 23230 net.cpp:408] fc7_relu7_0_split -> fc7_relu7_0_split_3
I0722 00:57:10.018110 23230 net.cpp:150] Setting up fc7_relu7_0_split
I0722 00:57:10.018126 23230 net.cpp:157] Top shape: 2 1024 64 64 (8388608)
I0722 00:57:10.018131 23230 net.cpp:157] Top shape: 2 1024 64 64 (8388608)
I0722 00:57:10.018136 23230 net.cpp:157] Top shape: 2 1024 64 64 (8388608)
I0722 00:57:10.018139 23230 net.cpp:157] Top shape: 2 1024 64 64 (8388608)
I0722 00:57:10.018143 23230 net.cpp:165] Memory required for data: 5402263584
I0722 00:57:10.018147 23230 layer_factory.hpp:77] Creating layer conv6_1
I0722 00:57:10.018162 23230 net.cpp:100] Creating Layer conv6_1
I0722 00:57:10.018167 23230 net.cpp:434] conv6_1 <- fc7_relu7_0_split_0
I0722 00:57:10.018177 23230 net.cpp:408] conv6_1 -> conv6_1
I0722 00:57:10.024518 23230 net.cpp:150] Setting up conv6_1
I0722 00:57:10.024535 23230 net.cpp:157] Top shape: 2 256 64 64 (2097152)
I0722 00:57:10.024540 23230 net.cpp:165] Memory required for data: 5410652192
I0722 00:57:10.024549 23230 layer_factory.hpp:77] Creating layer conv6_1_relu
I0722 00:57:10.024555 23230 net.cpp:100] Creating Layer conv6_1_relu
I0722 00:57:10.024560 23230 net.cpp:434] conv6_1_relu <- conv6_1
I0722 00:57:10.024569 23230 net.cpp:395] conv6_1_relu -> conv6_1 (in-place)
I0722 00:57:10.026345 23230 net.cpp:150] Setting up conv6_1_relu
I0722 00:57:10.026360 23230 net.cpp:157] Top shape: 2 256 64 64 (2097152)
I0722 00:57:10.026365 23230 net.cpp:165] Memory required for data: 5419040800
I0722 00:57:10.026370 23230 layer_factory.hpp:77] Creating layer conv6_2
I0722 00:57:10.026382 23230 net.cpp:100] Creating Layer conv6_2
I0722 00:57:10.026387 23230 net.cpp:434] conv6_2 <- conv6_1
I0722 00:57:10.026397 23230 net.cpp:408] conv6_2 -> conv6_2
I0722 00:57:10.040145 23230 net.cpp:150] Setting up conv6_2
I0722 00:57:10.040164 23230 net.cpp:157] Top shape: 2 512 32 32 (1048576)
I0722 00:57:10.040169 23230 net.cpp:165] Memory required for data: 5423235104
I0722 00:57:10.040212 23230 layer_factory.hpp:77] Creating layer conv6_2_relu
I0722 00:57:10.040225 23230 net.cpp:100] Creating Layer conv6_2_relu
I0722 00:57:10.040228 23230 net.cpp:434] conv6_2_relu <- conv6_2
I0722 00:57:10.040235 23230 net.cpp:395] conv6_2_relu -> conv6_2 (in-place)
I0722 00:57:10.042245 23230 net.cpp:150] Setting up conv6_2_relu
I0722 00:57:10.042263 23230 net.cpp:157] Top shape: 2 512 32 32 (1048576)
I0722 00:57:10.042266 23230 net.cpp:165] Memory required for data: 5427429408
I0722 00:57:10.042270 23230 layer_factory.hpp:77] Creating layer conv6_2_conv6_2_relu_0_split
I0722 00:57:10.042281 23230 net.cpp:100] Creating Layer conv6_2_conv6_2_relu_0_split
I0722 00:57:10.042286 23230 net.cpp:434] conv6_2_conv6_2_relu_0_split <- conv6_2
I0722 00:57:10.042294 23230 net.cpp:408] conv6_2_conv6_2_relu_0_split -> conv6_2_conv6_2_relu_0_split_0
I0722 00:57:10.042302 23230 net.cpp:408] conv6_2_conv6_2_relu_0_split -> conv6_2_conv6_2_relu_0_split_1
I0722 00:57:10.042311 23230 net.cpp:408] conv6_2_conv6_2_relu_0_split -> conv6_2_conv6_2_relu_0_split_2
I0722 00:57:10.042317 23230 net.cpp:408] conv6_2_conv6_2_relu_0_split -> conv6_2_conv6_2_relu_0_split_3
I0722 00:57:10.042428 23230 net.cpp:150] Setting up conv6_2_conv6_2_relu_0_split
I0722 00:57:10.042438 23230 net.cpp:157] Top shape: 2 512 32 32 (1048576)
I0722 00:57:10.042443 23230 net.cpp:157] Top shape: 2 512 32 32 (1048576)
I0722 00:57:10.042446 23230 net.cpp:157] Top shape: 2 512 32 32 (1048576)
I0722 00:57:10.042450 23230 net.cpp:157] Top shape: 2 512 32 32 (1048576)
I0722 00:57:10.042454 23230 net.cpp:165] Memory required for data: 5444206624
I0722 00:57:10.042457 23230 layer_factory.hpp:77] Creating layer conv7_1
I0722 00:57:10.042474 23230 net.cpp:100] Creating Layer conv7_1
I0722 00:57:10.042480 23230 net.cpp:434] conv7_1 <- conv6_2_conv6_2_relu_0_split_0
I0722 00:57:10.042487 23230 net.cpp:408] conv7_1 -> conv7_1
I0722 00:57:10.049144 23230 net.cpp:150] Setting up conv7_1
I0722 00:57:10.049162 23230 net.cpp:157] Top shape: 2 128 32 32 (262144)
I0722 00:57:10.049166 23230 net.cpp:165] Memory required for data: 5445255200
I0722 00:57:10.049176 23230 layer_factory.hpp:77] Creating layer conv7_1_relu
I0722 00:57:10.049185 23230 net.cpp:100] Creating Layer conv7_1_relu
I0722 00:57:10.049190 23230 net.cpp:434] conv7_1_relu <- conv7_1
I0722 00:57:10.049198 23230 net.cpp:395] conv7_1_relu -> conv7_1 (in-place)
I0722 00:57:10.051208 23230 net.cpp:150] Setting up conv7_1_relu
I0722 00:57:10.051223 23230 net.cpp:157] Top shape: 2 128 32 32 (262144)
I0722 00:57:10.051228 23230 net.cpp:165] Memory required for data: 5446303776
I0722 00:57:10.051231 23230 layer_factory.hpp:77] Creating layer conv7_2
I0722 00:57:10.051244 23230 net.cpp:100] Creating Layer conv7_2
I0722 00:57:10.051249 23230 net.cpp:434] conv7_2 <- conv7_1
I0722 00:57:10.051259 23230 net.cpp:408] conv7_2 -> conv7_2
I0722 00:57:10.058094 23230 net.cpp:150] Setting up conv7_2
I0722 00:57:10.058115 23230 net.cpp:157] Top shape: 2 256 16 16 (131072)
I0722 00:57:10.058120 23230 net.cpp:165] Memory required for data: 5446828064
I0722 00:57:10.058127 23230 layer_factory.hpp:77] Creating layer conv7_2_relu
I0722 00:57:10.058135 23230 net.cpp:100] Creating Layer conv7_2_relu
I0722 00:57:10.058140 23230 net.cpp:434] conv7_2_relu <- conv7_2
I0722 00:57:10.058149 23230 net.cpp:395] conv7_2_relu -> conv7_2 (in-place)
I0722 00:57:10.060103 23230 net.cpp:150] Setting up conv7_2_relu
I0722 00:57:10.060119 23230 net.cpp:157] Top shape: 2 256 16 16 (131072)
I0722 00:57:10.060122 23230 net.cpp:165] Memory required for data: 5447352352
I0722 00:57:10.060127 23230 layer_factory.hpp:77] Creating layer conv7_2_conv7_2_relu_0_split
I0722 00:57:10.060135 23230 net.cpp:100] Creating Layer conv7_2_conv7_2_relu_0_split
I0722 00:57:10.060139 23230 net.cpp:434] conv7_2_conv7_2_relu_0_split <- conv7_2
I0722 00:57:10.060148 23230 net.cpp:408] conv7_2_conv7_2_relu_0_split -> conv7_2_conv7_2_relu_0_split_0
I0722 00:57:10.060155 23230 net.cpp:408] conv7_2_conv7_2_relu_0_split -> conv7_2_conv7_2_relu_0_split_1
I0722 00:57:10.060163 23230 net.cpp:408] conv7_2_conv7_2_relu_0_split -> conv7_2_conv7_2_relu_0_split_2
I0722 00:57:10.060184 23230 net.cpp:408] conv7_2_conv7_2_relu_0_split -> conv7_2_conv7_2_relu_0_split_3
I0722 00:57:10.060288 23230 net.cpp:150] Setting up conv7_2_conv7_2_relu_0_split
I0722 00:57:10.060297 23230 net.cpp:157] Top shape: 2 256 16 16 (131072)
I0722 00:57:10.060302 23230 net.cpp:157] Top shape: 2 256 16 16 (131072)
I0722 00:57:10.060307 23230 net.cpp:157] Top shape: 2 256 16 16 (131072)
I0722 00:57:10.060312 23230 net.cpp:157] Top shape: 2 256 16 16 (131072)
I0722 00:57:10.060314 23230 net.cpp:165] Memory required for data: 5449449504
I0722 00:57:10.060320 23230 layer_factory.hpp:77] Creating layer conv8_1
I0722 00:57:10.060335 23230 net.cpp:100] Creating Layer conv8_1
I0722 00:57:10.060341 23230 net.cpp:434] conv8_1 <- conv7_2_conv7_2_relu_0_split_0
I0722 00:57:10.060348 23230 net.cpp:408] conv8_1 -> conv8_1
I0722 00:57:10.066990 23230 net.cpp:150] Setting up conv8_1
I0722 00:57:10.067010 23230 net.cpp:157] Top shape: 2 128 16 16 (65536)
I0722 00:57:10.067014 23230 net.cpp:165] Memory required for data: 5449711648
I0722 00:57:10.067023 23230 layer_factory.hpp:77] Creating layer conv8_1_relu
I0722 00:57:10.067029 23230 net.cpp:100] Creating Layer conv8_1_relu
I0722 00:57:10.067034 23230 net.cpp:434] conv8_1_relu <- conv8_1
I0722 00:57:10.067041 23230 net.cpp:395] conv8_1_relu -> conv8_1 (in-place)
I0722 00:57:10.069056 23230 net.cpp:150] Setting up conv8_1_relu
I0722 00:57:10.069072 23230 net.cpp:157] Top shape: 2 128 16 16 (65536)
I0722 00:57:10.069075 23230 net.cpp:165] Memory required for data: 5449973792
I0722 00:57:10.069079 23230 layer_factory.hpp:77] Creating layer conv8_2
I0722 00:57:10.069092 23230 net.cpp:100] Creating Layer conv8_2
I0722 00:57:10.069097 23230 net.cpp:434] conv8_2 <- conv8_1
I0722 00:57:10.069103 23230 net.cpp:408] conv8_2 -> conv8_2
I0722 00:57:10.075963 23230 net.cpp:150] Setting up conv8_2
I0722 00:57:10.075984 23230 net.cpp:157] Top shape: 2 256 14 14 (100352)
I0722 00:57:10.075989 23230 net.cpp:165] Memory required for data: 5450375200
I0722 00:57:10.075996 23230 layer_factory.hpp:77] Creating layer conv8_2_relu
I0722 00:57:10.076004 23230 net.cpp:100] Creating Layer conv8_2_relu
I0722 00:57:10.076009 23230 net.cpp:434] conv8_2_relu <- conv8_2
I0722 00:57:10.076016 23230 net.cpp:395] conv8_2_relu -> conv8_2 (in-place)
I0722 00:57:10.078039 23230 net.cpp:150] Setting up conv8_2_relu
I0722 00:57:10.078063 23230 net.cpp:157] Top shape: 2 256 14 14 (100352)
I0722 00:57:10.078068 23230 net.cpp:165] Memory required for data: 5450776608
I0722 00:57:10.078073 23230 layer_factory.hpp:77] Creating layer conv8_2_conv8_2_relu_0_split
I0722 00:57:10.078079 23230 net.cpp:100] Creating Layer conv8_2_conv8_2_relu_0_split
I0722 00:57:10.078084 23230 net.cpp:434] conv8_2_conv8_2_relu_0_split <- conv8_2
I0722 00:57:10.078092 23230 net.cpp:408] conv8_2_conv8_2_relu_0_split -> conv8_2_conv8_2_relu_0_split_0
I0722 00:57:10.078101 23230 net.cpp:408] conv8_2_conv8_2_relu_0_split -> conv8_2_conv8_2_relu_0_split_1
I0722 00:57:10.078107 23230 net.cpp:408] conv8_2_conv8_2_relu_0_split -> conv8_2_conv8_2_relu_0_split_2
I0722 00:57:10.078114 23230 net.cpp:408] conv8_2_conv8_2_relu_0_split -> conv8_2_conv8_2_relu_0_split_3
I0722 00:57:10.078235 23230 net.cpp:150] Setting up conv8_2_conv8_2_relu_0_split
I0722 00:57:10.078245 23230 net.cpp:157] Top shape: 2 256 14 14 (100352)
I0722 00:57:10.078250 23230 net.cpp:157] Top shape: 2 256 14 14 (100352)
I0722 00:57:10.078254 23230 net.cpp:157] Top shape: 2 256 14 14 (100352)
I0722 00:57:10.078258 23230 net.cpp:157] Top shape: 2 256 14 14 (100352)
I0722 00:57:10.078261 23230 net.cpp:165] Memory required for data: 5452382240
I0722 00:57:10.078269 23230 layer_factory.hpp:77] Creating layer conv9_1
I0722 00:57:10.078281 23230 net.cpp:100] Creating Layer conv9_1
I0722 00:57:10.078287 23230 net.cpp:434] conv9_1 <- conv8_2_conv8_2_relu_0_split_0
I0722 00:57:10.078297 23230 net.cpp:408] conv9_1 -> conv9_1
I0722 00:57:10.084028 23230 net.cpp:150] Setting up conv9_1
I0722 00:57:10.084045 23230 net.cpp:157] Top shape: 2 128 14 14 (50176)
I0722 00:57:10.084062 23230 net.cpp:165] Memory required for data: 5452582944
I0722 00:57:10.084071 23230 layer_factory.hpp:77] Creating layer conv9_1_relu
I0722 00:57:10.084079 23230 net.cpp:100] Creating Layer conv9_1_relu
I0722 00:57:10.084084 23230 net.cpp:434] conv9_1_relu <- conv9_1
I0722 00:57:10.084092 23230 net.cpp:395] conv9_1_relu -> conv9_1 (in-place)
I0722 00:57:10.085091 23230 net.cpp:150] Setting up conv9_1_relu
I0722 00:57:10.085111 23230 net.cpp:157] Top shape: 2 128 14 14 (50176)
I0722 00:57:10.085115 23230 net.cpp:165] Memory required for data: 5452783648
I0722 00:57:10.085119 23230 layer_factory.hpp:77] Creating layer conv9_2
I0722 00:57:10.085134 23230 net.cpp:100] Creating Layer conv9_2
I0722 00:57:10.085139 23230 net.cpp:434] conv9_2 <- conv9_1
I0722 00:57:10.085150 23230 net.cpp:408] conv9_2 -> conv9_2
I0722 00:57:10.089241 23230 net.cpp:150] Setting up conv9_2
I0722 00:57:10.089260 23230 net.cpp:157] Top shape: 2 256 12 12 (73728)
I0722 00:57:10.089264 23230 net.cpp:165] Memory required for data: 5453078560
I0722 00:57:10.089272 23230 layer_factory.hpp:77] Creating layer conv9_2_relu
I0722 00:57:10.089282 23230 net.cpp:100] Creating Layer conv9_2_relu
I0722 00:57:10.089287 23230 net.cpp:434] conv9_2_relu <- conv9_2
I0722 00:57:10.089293 23230 net.cpp:395] conv9_2_relu -> conv9_2 (in-place)
I0722 00:57:10.089812 23230 net.cpp:150] Setting up conv9_2_relu
I0722 00:57:10.089829 23230 net.cpp:157] Top shape: 2 256 12 12 (73728)
I0722 00:57:10.089833 23230 net.cpp:165] Memory required for data: 5453373472
I0722 00:57:10.089838 23230 layer_factory.hpp:77] Creating layer conv9_2_conv9_2_relu_0_split
I0722 00:57:10.089848 23230 net.cpp:100] Creating Layer conv9_2_conv9_2_relu_0_split
I0722 00:57:10.089853 23230 net.cpp:434] conv9_2_conv9_2_relu_0_split <- conv9_2
I0722 00:57:10.089859 23230 net.cpp:408] conv9_2_conv9_2_relu_0_split -> conv9_2_conv9_2_relu_0_split_0
I0722 00:57:10.089869 23230 net.cpp:408] conv9_2_conv9_2_relu_0_split -> conv9_2_conv9_2_relu_0_split_1
I0722 00:57:10.089877 23230 net.cpp:408] conv9_2_conv9_2_relu_0_split -> conv9_2_conv9_2_relu_0_split_2
I0722 00:57:10.089972 23230 net.cpp:150] Setting up conv9_2_conv9_2_relu_0_split
I0722 00:57:10.089982 23230 net.cpp:157] Top shape: 2 256 12 12 (73728)
I0722 00:57:10.089985 23230 net.cpp:157] Top shape: 2 256 12 12 (73728)
I0722 00:57:10.089989 23230 net.cpp:157] Top shape: 2 256 12 12 (73728)
I0722 00:57:10.089993 23230 net.cpp:165] Memory required for data: 5454258208
I0722 00:57:10.089996 23230 layer_factory.hpp:77] Creating layer conv4_3_norm
I0722 00:57:10.090008 23230 net.cpp:100] Creating Layer conv4_3_norm
I0722 00:57:10.090013 23230 net.cpp:434] conv4_3_norm <- conv4_3_relu4_3_0_split_1
I0722 00:57:10.090018 23230 net.cpp:408] conv4_3_norm -> conv4_3_norm
I0722 00:57:10.090293 23230 net.cpp:150] Setting up conv4_3_norm
I0722 00:57:10.090304 23230 net.cpp:157] Top shape: 2 512 128 128 (16777216)
I0722 00:57:10.090308 23230 net.cpp:165] Memory required for data: 5521367072
I0722 00:57:10.090314 23230 layer_factory.hpp:77] Creating layer conv4_3_norm_conv4_3_norm_0_split
I0722 00:57:10.090322 23230 net.cpp:100] Creating Layer conv4_3_norm_conv4_3_norm_0_split
I0722 00:57:10.090325 23230 net.cpp:434] conv4_3_norm_conv4_3_norm_0_split <- conv4_3_norm
I0722 00:57:10.090330 23230 net.cpp:408] conv4_3_norm_conv4_3_norm_0_split -> conv4_3_norm_conv4_3_norm_0_split_0
I0722 00:57:10.090338 23230 net.cpp:408] conv4_3_norm_conv4_3_norm_0_split -> conv4_3_norm_conv4_3_norm_0_split_1
I0722 00:57:10.090348 23230 net.cpp:408] conv4_3_norm_conv4_3_norm_0_split -> conv4_3_norm_conv4_3_norm_0_split_2
I0722 00:57:10.090420 23230 net.cpp:150] Setting up conv4_3_norm_conv4_3_norm_0_split
I0722 00:57:10.090430 23230 net.cpp:157] Top shape: 2 512 128 128 (16777216)
I0722 00:57:10.090433 23230 net.cpp:157] Top shape: 2 512 128 128 (16777216)
I0722 00:57:10.090437 23230 net.cpp:157] Top shape: 2 512 128 128 (16777216)
I0722 00:57:10.090441 23230 net.cpp:165] Memory required for data: 5722693664
I0722 00:57:10.090445 23230 layer_factory.hpp:77] Creating layer conv4_3_norm_mbox_loc_bdc2018
I0722 00:57:10.090472 23230 net.cpp:100] Creating Layer conv4_3_norm_mbox_loc_bdc2018
I0722 00:57:10.090477 23230 net.cpp:434] conv4_3_norm_mbox_loc_bdc2018 <- conv4_3_norm_conv4_3_norm_0_split_0
I0722 00:57:10.090484 23230 net.cpp:408] conv4_3_norm_mbox_loc_bdc2018 -> conv4_3_norm_mbox_loc_bdc2018
I0722 00:57:10.098800 23230 net.cpp:150] Setting up conv4_3_norm_mbox_loc_bdc2018
I0722 00:57:10.098839 23230 net.cpp:157] Top shape: 2 16 128 128 (524288)
I0722 00:57:10.098848 23230 net.cpp:165] Memory required for data: 5724790816
I0722 00:57:10.098865 23230 layer_factory.hpp:77] Creating layer conv4_3_norm_mbox_loc_bdc2018_perm_bdc2018
I0722 00:57:10.098882 23230 net.cpp:100] Creating Layer conv4_3_norm_mbox_loc_bdc2018_perm_bdc2018
I0722 00:57:10.098891 23230 net.cpp:434] conv4_3_norm_mbox_loc_bdc2018_perm_bdc2018 <- conv4_3_norm_mbox_loc_bdc2018
I0722 00:57:10.098909 23230 net.cpp:408] conv4_3_norm_mbox_loc_bdc2018_perm_bdc2018 -> conv4_3_norm_mbox_loc_bdc2018_perm_bdc2018
I0722 00:57:10.099170 23230 net.cpp:150] Setting up conv4_3_norm_mbox_loc_bdc2018_perm_bdc2018
I0722 00:57:10.099180 23230 net.cpp:157] Top shape: 2 128 128 16 (524288)
I0722 00:57:10.099184 23230 net.cpp:165] Memory required for data: 5726887968
I0722 00:57:10.099189 23230 layer_factory.hpp:77] Creating layer conv4_3_norm_mbox_loc_bdc2018_flat_bdc2018
I0722 00:57:10.099197 23230 net.cpp:100] Creating Layer conv4_3_norm_mbox_loc_bdc2018_flat_bdc2018
I0722 00:57:10.099201 23230 net.cpp:434] conv4_3_norm_mbox_loc_bdc2018_flat_bdc2018 <- conv4_3_norm_mbox_loc_bdc2018_perm_bdc2018
I0722 00:57:10.099210 23230 net.cpp:408] conv4_3_norm_mbox_loc_bdc2018_flat_bdc2018 -> conv4_3_norm_mbox_loc_bdc2018_flat_bdc2018
I0722 00:57:10.099264 23230 net.cpp:150] Setting up conv4_3_norm_mbox_loc_bdc2018_flat_bdc2018
I0722 00:57:10.099274 23230 net.cpp:157] Top shape: 2 262144 (524288)
I0722 00:57:10.099278 23230 net.cpp:165] Memory required for data: 5728985120
I0722 00:57:10.099282 23230 layer_factory.hpp:77] Creating layer conv4_3_norm_mbox_conf_bdc2018_new
I0722 00:57:10.099304 23230 net.cpp:100] Creating Layer conv4_3_norm_mbox_conf_bdc2018_new
I0722 00:57:10.099310 23230 net.cpp:434] conv4_3_norm_mbox_conf_bdc2018_new <- conv4_3_norm_conv4_3_norm_0_split_1
I0722 00:57:10.099318 23230 net.cpp:408] conv4_3_norm_mbox_conf_bdc2018_new -> conv4_3_norm_mbox_conf_bdc2018_new
I0722 00:57:10.101992 23230 net.cpp:150] Setting up conv4_3_norm_mbox_conf_bdc2018_new
I0722 00:57:10.102010 23230 net.cpp:157] Top shape: 2 36 128 128 (1179648)
I0722 00:57:10.102015 23230 net.cpp:165] Memory required for data: 5733703712
I0722 00:57:10.102022 23230 layer_factory.hpp:77] Creating layer conv4_3_norm_mbox_conf_bdc2018_new_perm_bdc2018_new
I0722 00:57:10.102033 23230 net.cpp:100] Creating Layer conv4_3_norm_mbox_conf_bdc2018_new_perm_bdc2018_new
I0722 00:57:10.102038 23230 net.cpp:434] conv4_3_norm_mbox_conf_bdc2018_new_perm_bdc2018_new <- conv4_3_norm_mbox_conf_bdc2018_new
I0722 00:57:10.102046 23230 net.cpp:408] conv4_3_norm_mbox_conf_bdc2018_new_perm_bdc2018_new -> conv4_3_norm_mbox_conf_bdc2018_new_perm_bdc2018_new
I0722 00:57:10.102226 23230 net.cpp:150] Setting up conv4_3_norm_mbox_conf_bdc2018_new_perm_bdc2018_new
I0722 00:57:10.102238 23230 net.cpp:157] Top shape: 2 128 128 36 (1179648)
I0722 00:57:10.102241 23230 net.cpp:165] Memory required for data: 5738422304
I0722 00:57:10.102246 23230 layer_factory.hpp:77] Creating layer conv4_3_norm_mbox_conf_bdc2018_new_flat_bdc2018_new
I0722 00:57:10.102255 23230 net.cpp:100] Creating Layer conv4_3_norm_mbox_conf_bdc2018_new_flat_bdc2018_new
I0722 00:57:10.102259 23230 net.cpp:434] conv4_3_norm_mbox_conf_bdc2018_new_flat_bdc2018_new <- conv4_3_norm_mbox_conf_bdc2018_new_perm_bdc2018_new
I0722 00:57:10.102267 23230 net.cpp:408] conv4_3_norm_mbox_conf_bdc2018_new_flat_bdc2018_new -> conv4_3_norm_mbox_conf_bdc2018_new_flat_bdc2018_new
I0722 00:57:10.102308 23230 net.cpp:150] Setting up conv4_3_norm_mbox_conf_bdc2018_new_flat_bdc2018_new
I0722 00:57:10.102318 23230 net.cpp:157] Top shape: 2 589824 (1179648)
I0722 00:57:10.102334 23230 net.cpp:165] Memory required for data: 5743140896
I0722 00:57:10.102339 23230 layer_factory.hpp:77] Creating layer conv4_3_norm_mbox_priorbox
I0722 00:57:10.102350 23230 net.cpp:100] Creating Layer conv4_3_norm_mbox_priorbox
I0722 00:57:10.102355 23230 net.cpp:434] conv4_3_norm_mbox_priorbox <- conv4_3_norm_conv4_3_norm_0_split_2
I0722 00:57:10.102361 23230 net.cpp:434] conv4_3_norm_mbox_priorbox <- data_data_0_split_1
I0722 00:57:10.102367 23230 net.cpp:408] conv4_3_norm_mbox_priorbox -> conv4_3_norm_mbox_priorbox
I0722 00:57:10.102414 23230 net.cpp:150] Setting up conv4_3_norm_mbox_priorbox
I0722 00:57:10.102423 23230 net.cpp:157] Top shape: 1 2 262144 (524288)
I0722 00:57:10.102427 23230 net.cpp:165] Memory required for data: 5745238048
I0722 00:57:10.102429 23230 layer_factory.hpp:77] Creating layer fc7_mbox_loc_bdc2018
I0722 00:57:10.102443 23230 net.cpp:100] Creating Layer fc7_mbox_loc_bdc2018
I0722 00:57:10.102449 23230 net.cpp:434] fc7_mbox_loc_bdc2018 <- fc7_relu7_0_split_1
I0722 00:57:10.102463 23230 net.cpp:408] fc7_mbox_loc_bdc2018 -> fc7_mbox_loc_bdc2018
I0722 00:57:10.105182 23230 net.cpp:150] Setting up fc7_mbox_loc_bdc2018
I0722 00:57:10.105199 23230 net.cpp:157] Top shape: 2 24 64 64 (196608)
I0722 00:57:10.105203 23230 net.cpp:165] Memory required for data: 5746024480
I0722 00:57:10.105211 23230 layer_factory.hpp:77] Creating layer fc7_mbox_loc_bdc2018_perm_bdc2018
I0722 00:57:10.105222 23230 net.cpp:100] Creating Layer fc7_mbox_loc_bdc2018_perm_bdc2018
I0722 00:57:10.105226 23230 net.cpp:434] fc7_mbox_loc_bdc2018_perm_bdc2018 <- fc7_mbox_loc_bdc2018
I0722 00:57:10.105233 23230 net.cpp:408] fc7_mbox_loc_bdc2018_perm_bdc2018 -> fc7_mbox_loc_bdc2018_perm_bdc2018
I0722 00:57:10.105404 23230 net.cpp:150] Setting up fc7_mbox_loc_bdc2018_perm_bdc2018
I0722 00:57:10.105414 23230 net.cpp:157] Top shape: 2 64 64 24 (196608)
I0722 00:57:10.105417 23230 net.cpp:165] Memory required for data: 5746810912
I0722 00:57:10.105422 23230 layer_factory.hpp:77] Creating layer fc7_mbox_loc_bdc2018_flat_bdc2018
I0722 00:57:10.105430 23230 net.cpp:100] Creating Layer fc7_mbox_loc_bdc2018_flat_bdc2018
I0722 00:57:10.105434 23230 net.cpp:434] fc7_mbox_loc_bdc2018_flat_bdc2018 <- fc7_mbox_loc_bdc2018_perm_bdc2018
I0722 00:57:10.105440 23230 net.cpp:408] fc7_mbox_loc_bdc2018_flat_bdc2018 -> fc7_mbox_loc_bdc2018_flat_bdc2018
I0722 00:57:10.105479 23230 net.cpp:150] Setting up fc7_mbox_loc_bdc2018_flat_bdc2018
I0722 00:57:10.105487 23230 net.cpp:157] Top shape: 2 98304 (196608)
I0722 00:57:10.105491 23230 net.cpp:165] Memory required for data: 5747597344
I0722 00:57:10.105494 23230 layer_factory.hpp:77] Creating layer fc7_mbox_conf_bdc2018_new
I0722 00:57:10.105509 23230 net.cpp:100] Creating Layer fc7_mbox_conf_bdc2018_new
I0722 00:57:10.105512 23230 net.cpp:434] fc7_mbox_conf_bdc2018_new <- fc7_relu7_0_split_2
I0722 00:57:10.105520 23230 net.cpp:408] fc7_mbox_conf_bdc2018_new -> fc7_mbox_conf_bdc2018_new
I0722 00:57:10.111726 23230 net.cpp:150] Setting up fc7_mbox_conf_bdc2018_new
I0722 00:57:10.111745 23230 net.cpp:157] Top shape: 2 54 64 64 (442368)
I0722 00:57:10.111750 23230 net.cpp:165] Memory required for data: 5749366816
I0722 00:57:10.111758 23230 layer_factory.hpp:77] Creating layer fc7_mbox_conf_bdc2018_new_perm_bdc2018_new
I0722 00:57:10.111769 23230 net.cpp:100] Creating Layer fc7_mbox_conf_bdc2018_new_perm_bdc2018_new
I0722 00:57:10.111774 23230 net.cpp:434] fc7_mbox_conf_bdc2018_new_perm_bdc2018_new <- fc7_mbox_conf_bdc2018_new
I0722 00:57:10.111783 23230 net.cpp:408] fc7_mbox_conf_bdc2018_new_perm_bdc2018_new -> fc7_mbox_conf_bdc2018_new_perm_bdc2018_new
I0722 00:57:10.111961 23230 net.cpp:150] Setting up fc7_mbox_conf_bdc2018_new_perm_bdc2018_new
I0722 00:57:10.111974 23230 net.cpp:157] Top shape: 2 64 64 54 (442368)
I0722 00:57:10.111976 23230 net.cpp:165] Memory required for data: 5751136288
I0722 00:57:10.111980 23230 layer_factory.hpp:77] Creating layer fc7_mbox_conf_bdc2018_new_flat_bdc2018_new
I0722 00:57:10.111989 23230 net.cpp:100] Creating Layer fc7_mbox_conf_bdc2018_new_flat_bdc2018_new
I0722 00:57:10.112006 23230 net.cpp:434] fc7_mbox_conf_bdc2018_new_flat_bdc2018_new <- fc7_mbox_conf_bdc2018_new_perm_bdc2018_new
I0722 00:57:10.112015 23230 net.cpp:408] fc7_mbox_conf_bdc2018_new_flat_bdc2018_new -> fc7_mbox_conf_bdc2018_new_flat_bdc2018_new
I0722 00:57:10.112057 23230 net.cpp:150] Setting up fc7_mbox_conf_bdc2018_new_flat_bdc2018_new
I0722 00:57:10.112068 23230 net.cpp:157] Top shape: 2 221184 (442368)
I0722 00:57:10.112072 23230 net.cpp:165] Memory required for data: 5752905760
I0722 00:57:10.112076 23230 layer_factory.hpp:77] Creating layer fc7_mbox_priorbox
I0722 00:57:10.112084 23230 net.cpp:100] Creating Layer fc7_mbox_priorbox
I0722 00:57:10.112088 23230 net.cpp:434] fc7_mbox_priorbox <- fc7_relu7_0_split_3
I0722 00:57:10.112093 23230 net.cpp:434] fc7_mbox_priorbox <- data_data_0_split_2
I0722 00:57:10.112102 23230 net.cpp:408] fc7_mbox_priorbox -> fc7_mbox_priorbox
I0722 00:57:10.112143 23230 net.cpp:150] Setting up fc7_mbox_priorbox
I0722 00:57:10.112154 23230 net.cpp:157] Top shape: 1 2 98304 (196608)
I0722 00:57:10.112157 23230 net.cpp:165] Memory required for data: 5753692192
I0722 00:57:10.112160 23230 layer_factory.hpp:77] Creating layer conv6_2_mbox_loc_bdc2018
I0722 00:57:10.112175 23230 net.cpp:100] Creating Layer conv6_2_mbox_loc_bdc2018
I0722 00:57:10.112179 23230 net.cpp:434] conv6_2_mbox_loc_bdc2018 <- conv6_2_conv6_2_relu_0_split_1
I0722 00:57:10.112186 23230 net.cpp:408] conv6_2_mbox_loc_bdc2018 -> conv6_2_mbox_loc_bdc2018
I0722 00:57:10.115679 23230 net.cpp:150] Setting up conv6_2_mbox_loc_bdc2018
I0722 00:57:10.115697 23230 net.cpp:157] Top shape: 2 24 32 32 (49152)
I0722 00:57:10.115701 23230 net.cpp:165] Memory required for data: 5753888800
I0722 00:57:10.115710 23230 layer_factory.hpp:77] Creating layer conv6_2_mbox_loc_bdc2018_perm_bdc2018
I0722 00:57:10.115717 23230 net.cpp:100] Creating Layer conv6_2_mbox_loc_bdc2018_perm_bdc2018
I0722 00:57:10.115721 23230 net.cpp:434] conv6_2_mbox_loc_bdc2018_perm_bdc2018 <- conv6_2_mbox_loc_bdc2018
I0722 00:57:10.115731 23230 net.cpp:408] conv6_2_mbox_loc_bdc2018_perm_bdc2018 -> conv6_2_mbox_loc_bdc2018_perm_bdc2018
I0722 00:57:10.115905 23230 net.cpp:150] Setting up conv6_2_mbox_loc_bdc2018_perm_bdc2018
I0722 00:57:10.115914 23230 net.cpp:157] Top shape: 2 32 32 24 (49152)
I0722 00:57:10.115918 23230 net.cpp:165] Memory required for data: 5754085408
I0722 00:57:10.115921 23230 layer_factory.hpp:77] Creating layer conv6_2_mbox_loc_bdc2018_flat_bdc2018
I0722 00:57:10.115928 23230 net.cpp:100] Creating Layer conv6_2_mbox_loc_bdc2018_flat_bdc2018
I0722 00:57:10.115932 23230 net.cpp:434] conv6_2_mbox_loc_bdc2018_flat_bdc2018 <- conv6_2_mbox_loc_bdc2018_perm_bdc2018
I0722 00:57:10.115941 23230 net.cpp:408] conv6_2_mbox_loc_bdc2018_flat_bdc2018 -> conv6_2_mbox_loc_bdc2018_flat_bdc2018
I0722 00:57:10.115981 23230 net.cpp:150] Setting up conv6_2_mbox_loc_bdc2018_flat_bdc2018
I0722 00:57:10.115989 23230 net.cpp:157] Top shape: 2 24576 (49152)
I0722 00:57:10.115993 23230 net.cpp:165] Memory required for data: 5754282016
I0722 00:57:10.115996 23230 layer_factory.hpp:77] Creating layer conv6_2_mbox_conf_bdc2018_new
I0722 00:57:10.116009 23230 net.cpp:100] Creating Layer conv6_2_mbox_conf_bdc2018_new
I0722 00:57:10.116014 23230 net.cpp:434] conv6_2_mbox_conf_bdc2018_new <- conv6_2_conv6_2_relu_0_split_2
I0722 00:57:10.116022 23230 net.cpp:408] conv6_2_mbox_conf_bdc2018_new -> conv6_2_mbox_conf_bdc2018_new
I0722 00:57:10.122520 23230 net.cpp:150] Setting up conv6_2_mbox_conf_bdc2018_new
I0722 00:57:10.122539 23230 net.cpp:157] Top shape: 2 54 32 32 (110592)
I0722 00:57:10.122542 23230 net.cpp:165] Memory required for data: 5754724384
I0722 00:57:10.122550 23230 layer_factory.hpp:77] Creating layer conv6_2_mbox_conf_bdc2018_new_perm_bdc2018_new
I0722 00:57:10.122560 23230 net.cpp:100] Creating Layer conv6_2_mbox_conf_bdc2018_new_perm_bdc2018_new
I0722 00:57:10.122567 23230 net.cpp:434] conv6_2_mbox_conf_bdc2018_new_perm_bdc2018_new <- conv6_2_mbox_conf_bdc2018_new
I0722 00:57:10.122573 23230 net.cpp:408] conv6_2_mbox_conf_bdc2018_new_perm_bdc2018_new -> conv6_2_mbox_conf_bdc2018_new_perm_bdc2018_new
I0722 00:57:10.122763 23230 net.cpp:150] Setting up conv6_2_mbox_conf_bdc2018_new_perm_bdc2018_new
I0722 00:57:10.122774 23230 net.cpp:157] Top shape: 2 32 32 54 (110592)
I0722 00:57:10.122777 23230 net.cpp:165] Memory required for data: 5755166752
I0722 00:57:10.122781 23230 layer_factory.hpp:77] Creating layer conv6_2_mbox_conf_bdc2018_new_flat_bdc2018_new
I0722 00:57:10.122790 23230 net.cpp:100] Creating Layer conv6_2_mbox_conf_bdc2018_new_flat_bdc2018_new
I0722 00:57:10.122795 23230 net.cpp:434] conv6_2_mbox_conf_bdc2018_new_flat_bdc2018_new <- conv6_2_mbox_conf_bdc2018_new_perm_bdc2018_new
I0722 00:57:10.122802 23230 net.cpp:408] conv6_2_mbox_conf_bdc2018_new_flat_bdc2018_new -> conv6_2_mbox_conf_bdc2018_new_flat_bdc2018_new
I0722 00:57:10.122843 23230 net.cpp:150] Setting up conv6_2_mbox_conf_bdc2018_new_flat_bdc2018_new
I0722 00:57:10.122850 23230 net.cpp:157] Top shape: 2 55296 (110592)
I0722 00:57:10.122853 23230 net.cpp:165] Memory required for data: 5755609120
I0722 00:57:10.122858 23230 layer_factory.hpp:77] Creating layer conv6_2_mbox_priorbox
I0722 00:57:10.122867 23230 net.cpp:100] Creating Layer conv6_2_mbox_priorbox
I0722 00:57:10.122871 23230 net.cpp:434] conv6_2_mbox_priorbox <- conv6_2_conv6_2_relu_0_split_3
I0722 00:57:10.122877 23230 net.cpp:434] conv6_2_mbox_priorbox <- data_data_0_split_3
I0722 00:57:10.122884 23230 net.cpp:408] conv6_2_mbox_priorbox -> conv6_2_mbox_priorbox
I0722 00:57:10.122926 23230 net.cpp:150] Setting up conv6_2_mbox_priorbox
I0722 00:57:10.122936 23230 net.cpp:157] Top shape: 1 2 24576 (49152)
I0722 00:57:10.122938 23230 net.cpp:165] Memory required for data: 5755805728
I0722 00:57:10.122942 23230 layer_factory.hpp:77] Creating layer conv7_2_mbox_loc_bdc2018
I0722 00:57:10.122954 23230 net.cpp:100] Creating Layer conv7_2_mbox_loc_bdc2018
I0722 00:57:10.122959 23230 net.cpp:434] conv7_2_mbox_loc_bdc2018 <- conv7_2_conv7_2_relu_0_split_1
I0722 00:57:10.122969 23230 net.cpp:408] conv7_2_mbox_loc_bdc2018 -> conv7_2_mbox_loc_bdc2018
I0722 00:57:10.129456 23230 net.cpp:150] Setting up conv7_2_mbox_loc_bdc2018
I0722 00:57:10.129475 23230 net.cpp:157] Top shape: 2 24 16 16 (12288)
I0722 00:57:10.129479 23230 net.cpp:165] Memory required for data: 5755854880
I0722 00:57:10.129487 23230 layer_factory.hpp:77] Creating layer conv7_2_mbox_loc_bdc2018_perm_bdc2018
I0722 00:57:10.129495 23230 net.cpp:100] Creating Layer conv7_2_mbox_loc_bdc2018_perm_bdc2018
I0722 00:57:10.129500 23230 net.cpp:434] conv7_2_mbox_loc_bdc2018_perm_bdc2018 <- conv7_2_mbox_loc_bdc2018
I0722 00:57:10.129508 23230 net.cpp:408] conv7_2_mbox_loc_bdc2018_perm_bdc2018 -> conv7_2_mbox_loc_bdc2018_perm_bdc2018
I0722 00:57:10.129678 23230 net.cpp:150] Setting up conv7_2_mbox_loc_bdc2018_perm_bdc2018
I0722 00:57:10.129690 23230 net.cpp:157] Top shape: 2 16 16 24 (12288)
I0722 00:57:10.129693 23230 net.cpp:165] Memory required for data: 5755904032
I0722 00:57:10.129698 23230 layer_factory.hpp:77] Creating layer conv7_2_mbox_loc_bdc2018_flat_bdc2018
I0722 00:57:10.129704 23230 net.cpp:100] Creating Layer conv7_2_mbox_loc_bdc2018_flat_bdc2018
I0722 00:57:10.129709 23230 net.cpp:434] conv7_2_mbox_loc_bdc2018_flat_bdc2018 <- conv7_2_mbox_loc_bdc2018_perm_bdc2018
I0722 00:57:10.129716 23230 net.cpp:408] conv7_2_mbox_loc_bdc2018_flat_bdc2018 -> conv7_2_mbox_loc_bdc2018_flat_bdc2018
I0722 00:57:10.129753 23230 net.cpp:150] Setting up conv7_2_mbox_loc_bdc2018_flat_bdc2018
I0722 00:57:10.129765 23230 net.cpp:157] Top shape: 2 6144 (12288)
I0722 00:57:10.129767 23230 net.cpp:165] Memory required for data: 5755953184
I0722 00:57:10.129771 23230 layer_factory.hpp:77] Creating layer conv7_2_mbox_conf_bdc2018_new
I0722 00:57:10.129783 23230 net.cpp:100] Creating Layer conv7_2_mbox_conf_bdc2018_new
I0722 00:57:10.129787 23230 net.cpp:434] conv7_2_mbox_conf_bdc2018_new <- conv7_2_conv7_2_relu_0_split_2
I0722 00:57:10.129794 23230 net.cpp:408] conv7_2_mbox_conf_bdc2018_new -> conv7_2_mbox_conf_bdc2018_new
I0722 00:57:10.136399 23230 net.cpp:150] Setting up conv7_2_mbox_conf_bdc2018_new
I0722 00:57:10.136430 23230 net.cpp:157] Top shape: 2 54 16 16 (27648)
I0722 00:57:10.136435 23230 net.cpp:165] Memory required for data: 5756063776
I0722 00:57:10.136442 23230 layer_factory.hpp:77] Creating layer conv7_2_mbox_conf_bdc2018_new_perm_bdc2018_new
I0722 00:57:10.136452 23230 net.cpp:100] Creating Layer conv7_2_mbox_conf_bdc2018_new_perm_bdc2018_new
I0722 00:57:10.136457 23230 net.cpp:434] conv7_2_mbox_conf_bdc2018_new_perm_bdc2018_new <- conv7_2_mbox_conf_bdc2018_new
I0722 00:57:10.136464 23230 net.cpp:408] conv7_2_mbox_conf_bdc2018_new_perm_bdc2018_new -> conv7_2_mbox_conf_bdc2018_new_perm_bdc2018_new
I0722 00:57:10.136641 23230 net.cpp:150] Setting up conv7_2_mbox_conf_bdc2018_new_perm_bdc2018_new
I0722 00:57:10.136651 23230 net.cpp:157] Top shape: 2 16 16 54 (27648)
I0722 00:57:10.136654 23230 net.cpp:165] Memory required for data: 5756174368
I0722 00:57:10.136657 23230 layer_factory.hpp:77] Creating layer conv7_2_mbox_conf_bdc2018_new_flat_bdc2018_new
I0722 00:57:10.136664 23230 net.cpp:100] Creating Layer conv7_2_mbox_conf_bdc2018_new_flat_bdc2018_new
I0722 00:57:10.136669 23230 net.cpp:434] conv7_2_mbox_conf_bdc2018_new_flat_bdc2018_new <- conv7_2_mbox_conf_bdc2018_new_perm_bdc2018_new
I0722 00:57:10.136677 23230 net.cpp:408] conv7_2_mbox_conf_bdc2018_new_flat_bdc2018_new -> conv7_2_mbox_conf_bdc2018_new_flat_bdc2018_new
I0722 00:57:10.136719 23230 net.cpp:150] Setting up conv7_2_mbox_conf_bdc2018_new_flat_bdc2018_new
I0722 00:57:10.136728 23230 net.cpp:157] Top shape: 2 13824 (27648)
I0722 00:57:10.136730 23230 net.cpp:165] Memory required for data: 5756284960
I0722 00:57:10.136734 23230 layer_factory.hpp:77] Creating layer conv7_2_mbox_priorbox
I0722 00:57:10.136741 23230 net.cpp:100] Creating Layer conv7_2_mbox_priorbox
I0722 00:57:10.136745 23230 net.cpp:434] conv7_2_mbox_priorbox <- conv7_2_conv7_2_relu_0_split_3
I0722 00:57:10.136750 23230 net.cpp:434] conv7_2_mbox_priorbox <- data_data_0_split_4
I0722 00:57:10.136759 23230 net.cpp:408] conv7_2_mbox_priorbox -> conv7_2_mbox_priorbox
I0722 00:57:10.136806 23230 net.cpp:150] Setting up conv7_2_mbox_priorbox
I0722 00:57:10.136816 23230 net.cpp:157] Top shape: 1 2 6144 (12288)
I0722 00:57:10.136818 23230 net.cpp:165] Memory required for data: 5756334112
I0722 00:57:10.136822 23230 layer_factory.hpp:77] Creating layer conv8_2_mbox_loc_bdc2018
I0722 00:57:10.136837 23230 net.cpp:100] Creating Layer conv8_2_mbox_loc_bdc2018
I0722 00:57:10.136840 23230 net.cpp:434] conv8_2_mbox_loc_bdc2018 <- conv8_2_conv8_2_relu_0_split_1
I0722 00:57:10.136847 23230 net.cpp:408] conv8_2_mbox_loc_bdc2018 -> conv8_2_mbox_loc_bdc2018
I0722 00:57:10.140926 23230 net.cpp:150] Setting up conv8_2_mbox_loc_bdc2018
I0722 00:57:10.140946 23230 net.cpp:157] Top shape: 2 16 14 14 (6272)
I0722 00:57:10.140950 23230 net.cpp:165] Memory required for data: 5756359200
I0722 00:57:10.140969 23230 layer_factory.hpp:77] Creating layer conv8_2_mbox_loc_bdc2018_perm_bdc2018
I0722 00:57:10.140980 23230 net.cpp:100] Creating Layer conv8_2_mbox_loc_bdc2018_perm_bdc2018
I0722 00:57:10.140985 23230 net.cpp:434] conv8_2_mbox_loc_bdc2018_perm_bdc2018 <- conv8_2_mbox_loc_bdc2018
I0722 00:57:10.140992 23230 net.cpp:408] conv8_2_mbox_loc_bdc2018_perm_bdc2018 -> conv8_2_mbox_loc_bdc2018_perm_bdc2018
I0722 00:57:10.141173 23230 net.cpp:150] Setting up conv8_2_mbox_loc_bdc2018_perm_bdc2018
I0722 00:57:10.141183 23230 net.cpp:157] Top shape: 2 14 14 16 (6272)
I0722 00:57:10.141186 23230 net.cpp:165] Memory required for data: 5756384288
I0722 00:57:10.141191 23230 layer_factory.hpp:77] Creating layer conv8_2_mbox_loc_bdc2018_flat_bdc2018
I0722 00:57:10.141197 23230 net.cpp:100] Creating Layer conv8_2_mbox_loc_bdc2018_flat_bdc2018
I0722 00:57:10.141201 23230 net.cpp:434] conv8_2_mbox_loc_bdc2018_flat_bdc2018 <- conv8_2_mbox_loc_bdc2018_perm_bdc2018
I0722 00:57:10.141211 23230 net.cpp:408] conv8_2_mbox_loc_bdc2018_flat_bdc2018 -> conv8_2_mbox_loc_bdc2018_flat_bdc2018
I0722 00:57:10.141252 23230 net.cpp:150] Setting up conv8_2_mbox_loc_bdc2018_flat_bdc2018
I0722 00:57:10.141260 23230 net.cpp:157] Top shape: 2 3136 (6272)
I0722 00:57:10.141283 23230 net.cpp:165] Memory required for data: 5756409376
I0722 00:57:10.141288 23230 layer_factory.hpp:77] Creating layer conv8_2_mbox_conf_bdc2018_new
I0722 00:57:10.141301 23230 net.cpp:100] Creating Layer conv8_2_mbox_conf_bdc2018_new
I0722 00:57:10.141307 23230 net.cpp:434] conv8_2_mbox_conf_bdc2018_new <- conv8_2_conv8_2_relu_0_split_2
I0722 00:57:10.141317 23230 net.cpp:408] conv8_2_mbox_conf_bdc2018_new -> conv8_2_mbox_conf_bdc2018_new
I0722 00:57:10.143609 23230 net.cpp:150] Setting up conv8_2_mbox_conf_bdc2018_new
I0722 00:57:10.143625 23230 net.cpp:157] Top shape: 2 36 14 14 (14112)
I0722 00:57:10.143630 23230 net.cpp:165] Memory required for data: 5756465824
I0722 00:57:10.143638 23230 layer_factory.hpp:77] Creating layer conv8_2_mbox_conf_bdc2018_new_perm_bdc2018_new
I0722 00:57:10.143648 23230 net.cpp:100] Creating Layer conv8_2_mbox_conf_bdc2018_new_perm_bdc2018_new
I0722 00:57:10.143656 23230 net.cpp:434] conv8_2_mbox_conf_bdc2018_new_perm_bdc2018_new <- conv8_2_mbox_conf_bdc2018_new
I0722 00:57:10.143664 23230 net.cpp:408] conv8_2_mbox_conf_bdc2018_new_perm_bdc2018_new -> conv8_2_mbox_conf_bdc2018_new_perm_bdc2018_new
I0722 00:57:10.143844 23230 net.cpp:150] Setting up conv8_2_mbox_conf_bdc2018_new_perm_bdc2018_new
I0722 00:57:10.143857 23230 net.cpp:157] Top shape: 2 14 14 36 (14112)
I0722 00:57:10.143860 23230 net.cpp:165] Memory required for data: 5756522272
I0722 00:57:10.143864 23230 layer_factory.hpp:77] Creating layer conv8_2_mbox_conf_bdc2018_new_flat_bdc2018_new
I0722 00:57:10.143872 23230 net.cpp:100] Creating Layer conv8_2_mbox_conf_bdc2018_new_flat_bdc2018_new
I0722 00:57:10.143875 23230 net.cpp:434] conv8_2_mbox_conf_bdc2018_new_flat_bdc2018_new <- conv8_2_mbox_conf_bdc2018_new_perm_bdc2018_new
I0722 00:57:10.143883 23230 net.cpp:408] conv8_2_mbox_conf_bdc2018_new_flat_bdc2018_new -> conv8_2_mbox_conf_bdc2018_new_flat_bdc2018_new
I0722 00:57:10.143923 23230 net.cpp:150] Setting up conv8_2_mbox_conf_bdc2018_new_flat_bdc2018_new
I0722 00:57:10.143934 23230 net.cpp:157] Top shape: 2 7056 (14112)
I0722 00:57:10.143936 23230 net.cpp:165] Memory required for data: 5756578720
I0722 00:57:10.143940 23230 layer_factory.hpp:77] Creating layer conv8_2_mbox_priorbox
I0722 00:57:10.143947 23230 net.cpp:100] Creating Layer conv8_2_mbox_priorbox
I0722 00:57:10.143952 23230 net.cpp:434] conv8_2_mbox_priorbox <- conv8_2_conv8_2_relu_0_split_3
I0722 00:57:10.143957 23230 net.cpp:434] conv8_2_mbox_priorbox <- data_data_0_split_5
I0722 00:57:10.143965 23230 net.cpp:408] conv8_2_mbox_priorbox -> conv8_2_mbox_priorbox
I0722 00:57:10.144009 23230 net.cpp:150] Setting up conv8_2_mbox_priorbox
I0722 00:57:10.144017 23230 net.cpp:157] Top shape: 1 2 3136 (6272)
I0722 00:57:10.144021 23230 net.cpp:165] Memory required for data: 5756603808
I0722 00:57:10.144024 23230 layer_factory.hpp:77] Creating layer conv9_2_mbox_loc_bdc2018
I0722 00:57:10.144037 23230 net.cpp:100] Creating Layer conv9_2_mbox_loc_bdc2018
I0722 00:57:10.144043 23230 net.cpp:434] conv9_2_mbox_loc_bdc2018 <- conv9_2_conv9_2_relu_0_split_0
I0722 00:57:10.144050 23230 net.cpp:408] conv9_2_mbox_loc_bdc2018 -> conv9_2_mbox_loc_bdc2018
I0722 00:57:10.149531 23230 net.cpp:150] Setting up conv9_2_mbox_loc_bdc2018
I0722 00:57:10.149549 23230 net.cpp:157] Top shape: 2 16 12 12 (4608)
I0722 00:57:10.149554 23230 net.cpp:165] Memory required for data: 5756622240
I0722 00:57:10.149561 23230 layer_factory.hpp:77] Creating layer conv9_2_mbox_loc_bdc2018_perm_bdc2018
I0722 00:57:10.149574 23230 net.cpp:100] Creating Layer conv9_2_mbox_loc_bdc2018_perm_bdc2018
I0722 00:57:10.149580 23230 net.cpp:434] conv9_2_mbox_loc_bdc2018_perm_bdc2018 <- conv9_2_mbox_loc_bdc2018
I0722 00:57:10.149588 23230 net.cpp:408] conv9_2_mbox_loc_bdc2018_perm_bdc2018 -> conv9_2_mbox_loc_bdc2018_perm_bdc2018
I0722 00:57:10.149768 23230 net.cpp:150] Setting up conv9_2_mbox_loc_bdc2018_perm_bdc2018
I0722 00:57:10.149778 23230 net.cpp:157] Top shape: 2 12 12 16 (4608)
I0722 00:57:10.149783 23230 net.cpp:165] Memory required for data: 5756640672
I0722 00:57:10.149801 23230 layer_factory.hpp:77] Creating layer conv9_2_mbox_loc_bdc2018_flat_bdc2018
I0722 00:57:10.149807 23230 net.cpp:100] Creating Layer conv9_2_mbox_loc_bdc2018_flat_bdc2018
I0722 00:57:10.149811 23230 net.cpp:434] conv9_2_mbox_loc_bdc2018_flat_bdc2018 <- conv9_2_mbox_loc_bdc2018_perm_bdc2018
I0722 00:57:10.149817 23230 net.cpp:408] conv9_2_mbox_loc_bdc2018_flat_bdc2018 -> conv9_2_mbox_loc_bdc2018_flat_bdc2018
I0722 00:57:10.149863 23230 net.cpp:150] Setting up conv9_2_mbox_loc_bdc2018_flat_bdc2018
I0722 00:57:10.149871 23230 net.cpp:157] Top shape: 2 2304 (4608)
I0722 00:57:10.149874 23230 net.cpp:165] Memory required for data: 5756659104
I0722 00:57:10.149878 23230 layer_factory.hpp:77] Creating layer conv9_2_mbox_conf_bdc2018_new
I0722 00:57:10.149891 23230 net.cpp:100] Creating Layer conv9_2_mbox_conf_bdc2018_new
I0722 00:57:10.149895 23230 net.cpp:434] conv9_2_mbox_conf_bdc2018_new <- conv9_2_conv9_2_relu_0_split_1
I0722 00:57:10.149904 23230 net.cpp:408] conv9_2_mbox_conf_bdc2018_new -> conv9_2_mbox_conf_bdc2018_new
I0722 00:57:10.156024 23230 net.cpp:150] Setting up conv9_2_mbox_conf_bdc2018_new
I0722 00:57:10.156044 23230 net.cpp:157] Top shape: 2 36 12 12 (10368)
I0722 00:57:10.156049 23230 net.cpp:165] Memory required for data: 5756700576
I0722 00:57:10.156056 23230 layer_factory.hpp:77] Creating layer conv9_2_mbox_conf_bdc2018_new_perm_bdc2018_new
I0722 00:57:10.156064 23230 net.cpp:100] Creating Layer conv9_2_mbox_conf_bdc2018_new_perm_bdc2018_new
I0722 00:57:10.156074 23230 net.cpp:434] conv9_2_mbox_conf_bdc2018_new_perm_bdc2018_new <- conv9_2_mbox_conf_bdc2018_new
I0722 00:57:10.156080 23230 net.cpp:408] conv9_2_mbox_conf_bdc2018_new_perm_bdc2018_new -> conv9_2_mbox_conf_bdc2018_new_perm_bdc2018_new
I0722 00:57:10.156263 23230 net.cpp:150] Setting up conv9_2_mbox_conf_bdc2018_new_perm_bdc2018_new
I0722 00:57:10.156275 23230 net.cpp:157] Top shape: 2 12 12 36 (10368)
I0722 00:57:10.156278 23230 net.cpp:165] Memory required for data: 5756742048
I0722 00:57:10.156281 23230 layer_factory.hpp:77] Creating layer conv9_2_mbox_conf_bdc2018_new_flat_bdc2018_new
I0722 00:57:10.156289 23230 net.cpp:100] Creating Layer conv9_2_mbox_conf_bdc2018_new_flat_bdc2018_new
I0722 00:57:10.156293 23230 net.cpp:434] conv9_2_mbox_conf_bdc2018_new_flat_bdc2018_new <- conv9_2_mbox_conf_bdc2018_new_perm_bdc2018_new
I0722 00:57:10.156301 23230 net.cpp:408] conv9_2_mbox_conf_bdc2018_new_flat_bdc2018_new -> conv9_2_mbox_conf_bdc2018_new_flat_bdc2018_new
I0722 00:57:10.156343 23230 net.cpp:150] Setting up conv9_2_mbox_conf_bdc2018_new_flat_bdc2018_new
I0722 00:57:10.156350 23230 net.cpp:157] Top shape: 2 5184 (10368)
I0722 00:57:10.156353 23230 net.cpp:165] Memory required for data: 5756783520
I0722 00:57:10.156358 23230 layer_factory.hpp:77] Creating layer conv9_2_mbox_priorbox
I0722 00:57:10.156365 23230 net.cpp:100] Creating Layer conv9_2_mbox_priorbox
I0722 00:57:10.156369 23230 net.cpp:434] conv9_2_mbox_priorbox <- conv9_2_conv9_2_relu_0_split_2
I0722 00:57:10.156376 23230 net.cpp:434] conv9_2_mbox_priorbox <- data_data_0_split_6
I0722 00:57:10.156383 23230 net.cpp:408] conv9_2_mbox_priorbox -> conv9_2_mbox_priorbox
I0722 00:57:10.156426 23230 net.cpp:150] Setting up conv9_2_mbox_priorbox
I0722 00:57:10.156433 23230 net.cpp:157] Top shape: 1 2 2304 (4608)
I0722 00:57:10.156436 23230 net.cpp:165] Memory required for data: 5756801952
I0722 00:57:10.156440 23230 layer_factory.hpp:77] Creating layer mbox_loc
I0722 00:57:10.156448 23230 net.cpp:100] Creating Layer mbox_loc
I0722 00:57:10.156452 23230 net.cpp:434] mbox_loc <- conv4_3_norm_mbox_loc_bdc2018_flat_bdc2018
I0722 00:57:10.156461 23230 net.cpp:434] mbox_loc <- fc7_mbox_loc_bdc2018_flat_bdc2018
I0722 00:57:10.156466 23230 net.cpp:434] mbox_loc <- conv6_2_mbox_loc_bdc2018_flat_bdc2018
I0722 00:57:10.156471 23230 net.cpp:434] mbox_loc <- conv7_2_mbox_loc_bdc2018_flat_bdc2018
I0722 00:57:10.156474 23230 net.cpp:434] mbox_loc <- conv8_2_mbox_loc_bdc2018_flat_bdc2018
I0722 00:57:10.156479 23230 net.cpp:434] mbox_loc <- conv9_2_mbox_loc_bdc2018_flat_bdc2018
I0722 00:57:10.164448 23230 net.cpp:408] mbox_loc -> mbox_loc
I0722 00:57:10.164536 23230 net.cpp:150] Setting up mbox_loc
I0722 00:57:10.164548 23230 net.cpp:157] Top shape: 2 396608 (793216)
I0722 00:57:10.164551 23230 net.cpp:165] Memory required for data: 5759974816
I0722 00:57:10.164556 23230 layer_factory.hpp:77] Creating layer mbox_conf
I0722 00:57:10.164563 23230 net.cpp:100] Creating Layer mbox_conf
I0722 00:57:10.164568 23230 net.cpp:434] mbox_conf <- conv4_3_norm_mbox_conf_bdc2018_new_flat_bdc2018_new
I0722 00:57:10.164574 23230 net.cpp:434] mbox_conf <- fc7_mbox_conf_bdc2018_new_flat_bdc2018_new
I0722 00:57:10.164579 23230 net.cpp:434] mbox_conf <- conv6_2_mbox_conf_bdc2018_new_flat_bdc2018_new
I0722 00:57:10.164584 23230 net.cpp:434] mbox_conf <- conv7_2_mbox_conf_bdc2018_new_flat_bdc2018_new
I0722 00:57:10.164588 23230 net.cpp:434] mbox_conf <- conv8_2_mbox_conf_bdc2018_new_flat_bdc2018_new
I0722 00:57:10.164593 23230 net.cpp:434] mbox_conf <- conv9_2_mbox_conf_bdc2018_new_flat_bdc2018_new
I0722 00:57:10.164602 23230 net.cpp:408] mbox_conf -> mbox_conf
I0722 00:57:10.164649 23230 net.cpp:150] Setting up mbox_conf
I0722 00:57:10.164657 23230 net.cpp:157] Top shape: 2 892368 (1784736)
I0722 00:57:10.164660 23230 net.cpp:165] Memory required for data: 5767113760
I0722 00:57:10.164664 23230 layer_factory.hpp:77] Creating layer mbox_priorbox
I0722 00:57:10.164670 23230 net.cpp:100] Creating Layer mbox_priorbox
I0722 00:57:10.164674 23230 net.cpp:434] mbox_priorbox <- conv4_3_norm_mbox_priorbox
I0722 00:57:10.164680 23230 net.cpp:434] mbox_priorbox <- fc7_mbox_priorbox
I0722 00:57:10.164685 23230 net.cpp:434] mbox_priorbox <- conv6_2_mbox_priorbox
I0722 00:57:10.164690 23230 net.cpp:434] mbox_priorbox <- conv7_2_mbox_priorbox
I0722 00:57:10.164693 23230 net.cpp:434] mbox_priorbox <- conv8_2_mbox_priorbox
I0722 00:57:10.164698 23230 net.cpp:434] mbox_priorbox <- conv9_2_mbox_priorbox
I0722 00:57:10.164703 23230 net.cpp:408] mbox_priorbox -> mbox_priorbox
I0722 00:57:10.164747 23230 net.cpp:150] Setting up mbox_priorbox
I0722 00:57:10.164755 23230 net.cpp:157] Top shape: 1 2 396608 (793216)
I0722 00:57:10.164759 23230 net.cpp:165] Memory required for data: 5770286624
I0722 00:57:10.164763 23230 layer_factory.hpp:77] Creating layer mbox_conf_reshape
I0722 00:57:10.164774 23230 net.cpp:100] Creating Layer mbox_conf_reshape
I0722 00:57:10.164779 23230 net.cpp:434] mbox_conf_reshape <- mbox_conf
I0722 00:57:10.164785 23230 net.cpp:408] mbox_conf_reshape -> mbox_conf_reshape
I0722 00:57:10.164840 23230 net.cpp:150] Setting up mbox_conf_reshape
I0722 00:57:10.164849 23230 net.cpp:157] Top shape: 2 99152 9 (1784736)
I0722 00:57:10.164854 23230 net.cpp:165] Memory required for data: 5777425568
I0722 00:57:10.164857 23230 layer_factory.hpp:77] Creating layer mbox_conf_softmax
I0722 00:57:10.164865 23230 net.cpp:100] Creating Layer mbox_conf_softmax
I0722 00:57:10.164870 23230 net.cpp:434] mbox_conf_softmax <- mbox_conf_reshape
I0722 00:57:10.164878 23230 net.cpp:408] mbox_conf_softmax -> mbox_conf_softmax
I0722 00:57:10.165236 23230 net.cpp:150] Setting up mbox_conf_softmax
I0722 00:57:10.165251 23230 net.cpp:157] Top shape: 2 99152 9 (1784736)
I0722 00:57:10.165256 23230 net.cpp:165] Memory required for data: 5784564512
I0722 00:57:10.165259 23230 layer_factory.hpp:77] Creating layer mbox_conf_flatten
I0722 00:57:10.165266 23230 net.cpp:100] Creating Layer mbox_conf_flatten
I0722 00:57:10.165271 23230 net.cpp:434] mbox_conf_flatten <- mbox_conf_softmax
I0722 00:57:10.165277 23230 net.cpp:408] mbox_conf_flatten -> mbox_conf_flatten
I0722 00:57:10.165323 23230 net.cpp:150] Setting up mbox_conf_flatten
I0722 00:57:10.165333 23230 net.cpp:157] Top shape: 2 892368 (1784736)
I0722 00:57:10.165336 23230 net.cpp:165] Memory required for data: 5791703456
I0722 00:57:10.165340 23230 layer_factory.hpp:77] Creating layer detection_out
I0722 00:57:10.165359 23230 net.cpp:100] Creating Layer detection_out
I0722 00:57:10.165364 23230 net.cpp:434] detection_out <- mbox_loc
I0722 00:57:10.165370 23230 net.cpp:434] detection_out <- mbox_conf_flatten
I0722 00:57:10.165388 23230 net.cpp:434] detection_out <- mbox_priorbox
I0722 00:57:10.165400 23230 net.cpp:408] detection_out -> detection_out
W0722 00:57:10.165454 23230 detection_output_layer.cpp:49] Failed to create directory: /home/user/data/bdc2018/results/SSD_1024x1024/Main
I0722 00:57:10.166234 23230 net.cpp:150] Setting up detection_out
I0722 00:57:10.166250 23230 net.cpp:157] Top shape: 1 1 1 7 (7)
I0722 00:57:10.166254 23230 net.cpp:165] Memory required for data: 5791703484
I0722 00:57:10.166258 23230 layer_factory.hpp:77] Creating layer detection_eval
I0722 00:57:10.166267 23230 net.cpp:100] Creating Layer detection_eval
I0722 00:57:10.166272 23230 net.cpp:434] detection_eval <- detection_out
I0722 00:57:10.166277 23230 net.cpp:434] detection_eval <- label
I0722 00:57:10.166285 23230 net.cpp:408] detection_eval -> detection_eval
I0722 00:57:10.166529 23230 net.cpp:150] Setting up detection_eval
I0722 00:57:10.166543 23230 net.cpp:157] Top shape: 1 1 9 5 (45)
I0722 00:57:10.166545 23230 net.cpp:165] Memory required for data: 5791703664
I0722 00:57:10.166549 23230 net.cpp:228] detection_eval does not need backward computation.
I0722 00:57:10.166554 23230 net.cpp:228] detection_out does not need backward computation.
I0722 00:57:10.166558 23230 net.cpp:228] mbox_conf_flatten does not need backward computation.
I0722 00:57:10.166563 23230 net.cpp:228] mbox_conf_softmax does not need backward computation.
…
