…
      sampler {
        min_scale: 0.3
        max_scale: 1
        min_aspect_ratio: 0.5
        max_aspect_ratio: 2
      }
      sample_constraint {
        min_jaccard_overlap: 0.9
      }
      max_sample: 1
      max_trials: 50
    }
    batch_sampler {
      sampler {
        min_scale: 0.3
        max_scale: 1
        min_aspect_ratio: 0.5
        max_aspect_ratio: 2
      }
      sample_constraint {
        max_jaccard_overlap: 1
      }
      max_sample: 1
      max_trials: 50
    }
    label_map_file: "data/bdc2018/labelmap_bdc.prototxt"
  }
}
layer {
  name: "conv1_1"
  type: "Convolution"
  bottom: "data"
  top: "conv1_1"
  param {
    lr_mult: 1
    decay_mult: 1
  }
  param {
    lr_mult: 2
    decay_mult: 0
  }
  convolution_param {
    num_output: 64
    pad: 1
    kernel_size: 3
    weight_filler {
      type: "xavier"
    }
    bias_filler {
      type: "constant"
      value: 0
    }
  }
}
layer {
  name: "relu1_1"
  type: "ReLU"
  bottom: "conv1_1"
  top: "conv1_1"
}
layer {
  name: "conv1_2"
  type: "Convolution"
  bottom: "conv1_1"
  top: "conv1_2"
  param {
    lr_mult: 1
    decay_mult: 1
  }
  param {
    lr_mult: 2
    decay_mult: 0
  }
  convolution_param {
    num_output: 64
    pad: 1
    kernel_size: 3
    weight_filler {
      type: "xavier"
    }
    bias_filler {
      type: "constant"
      value: 0
    }
  }
}
layer {
  name: "relu1_2"
  type: "ReLU"
  bottom: "conv1_2"
  top: "conv1_2"
}
layer {
  name: "pool1"
  type: "Pooling"
  bottom: "conv1_2"
  top: "pool1"
  pooling_param {
    pool: MAX
    kernel_size: 2
    stride: 2
  }
}
layer {
  name: "conv2_1"
  type: "Convolution"
  bottom: "pool1"
  top: "conv2_1"
  param {
    lr_mult: 1
    decay_mult: 1
  }
  param {
    lr_mult: 2
    decay_mult: 0
  }
  convolution_param {
    num_output: 128
    pad: 1
    kernel_size: 3
    weight_filler {
      type: "xavier"
    }
    bias_filler {
      type: "constant"
      value: 0
    }
  }
}
layer {
  name: "relu2_1"
  type: "ReLU"
  bottom: "conv2_1"
  top: "conv2_1"
}
layer {
  name: "conv2_2"
  type: "Convolution"
  bottom: "conv2_1"
  top: "conv2_2"
  param {
    lr_mult: 1
    decay_mult: 1
  }
  param {
    lr_mult: 2
    decay_mult: 0
  }
  convolution_param {
    num_output: 128
    pad: 1
    kernel_size: 3
    weight_filler {
      type: "xavier"
    }
    bias_filler {
      type: "constant"
      value: 0
    }
  }
}
layer {
  name: "relu2_2"
  type: "ReLU"
  bottom: "conv2_2"
  top: "conv2_2"
}
layer {
  name: "pool2"
  type: "Pooling"
  bottom: "conv2_2"
  top: "pool2"
  pooling_param {
    pool: MAX
    kernel_size: 2
    stride: 2
  }
}
layer {
  name: "conv3_1"
  type: "Convolution"
  bottom: "pool2"
  top: "conv3_1"
  param {
    lr_mult: 1
    decay_mult: 1
  }
  param {
    lr_mult: 2
    decay_mult: 0
  }
  convolution_param {
    num_output: 256
    pad: 1
    kernel_size: 3
    weight_filler {
      type: "xavier"
    }
    bias_filler {
      type: "constant"
      value: 0
    }
  }
}
layer {
  name: "relu3_1"
  type: "ReLU"
  bottom: "conv3_1"
  top: "conv3_1"
}
layer {
  name: "conv3_2"
  type: "Convolution"
  bottom: "conv3_1"
  top: "conv3_2"
  param {
    lr_mult: 1
    decay_mult: 1
  }
  param {
    lr_mult: 2
    decay_mult: 0
  }
  convolution_param {
    num_output: 256
    pad: 1
    kernel_size: 3
    weight_filler {
      type: "xavier"
    }
    bias_filler {
      type: "constant"
      value: 0
    }
  }
}
layer {
  name: "relu3_2"
  type: "ReLU"
  bottom: "conv3_2"
  top: "conv3_2"
}
layer {
  name: "conv3_3"
  type: "Convolution"
  bottom: "conv3_2"
  top: "conv3_3"
  param {
    lr_mult: 1
    decay_mult: 1
  }
  param {
    lr_mult: 2
    decay_mult: 0
  }
  convolution_param {
    num_output: 256
    pad: 1
    kernel_size: 3
    weight_filler {
      type: "xavier"
    }
    bias_filler {
      type: "constant"
      value: 0
    }
  }
}
layer {
  name: "relu3_3"
  type: "ReLU"
  bottom: "conv3_3"
  top: "conv3_3"
}
layer {
  name: "pool3"
  type: "Pooling"
  bottom: "conv3_3"
  top: "pool3"
  pooling_param {
    pool: MAX
    kernel_size: 2
    stride: 2
  }
}
layer {
  name: "conv4_1"
  type: "Convolution"
  bottom: "pool3"
  top: "conv4_1"
  param {
    lr_mult: 1
    decay_mult: 1
  }
  param {
    lr_mult: 2
    decay_mult: 0
  }
  convolution_param {
    num_output: 512
    pad: 1
    kernel_size: 3
    weight_filler {
      type: "xavier"
    }
    bias_filler {
      type: "constant"
      value: 0
    }
  }
}
layer {
  name: "relu4_1"
  type: "ReLU"
  bottom: "conv4_1"
  top: "conv4_1"
}
layer {
  name: "conv4_2"
  type: "Convolution"
  bottom: "conv4_1"
  top: "conv4_2"
  param {
    lr_mult: 1
    decay_mult: 1
  }
  param {
    lr_mult: 2
    decay_mult: 0
  }
  convolution_param {
    num_output: 512
    pad: 1
    kernel_size: 3
    weight_filler {
      type: "xavier"
    }
    bias_filler {
      type: "constant"
      value: 0
    }
  }
}
layer {
  name: "relu4_2"
  type: "ReLU"
  bottom: "conv4_2"
  top: "conv4_2"
}
layer {
  name: "conv4_3"
  type: "Convolution"
  bottom: "conv4_2"
  top: "conv4_3"
  param {
    lr_mult: 1
    decay_mult: 1
  }
  param {
    lr_mult: 2
    decay_mult: 0
  }
  convolution_param {
    num_output: 512
    pad: 1
    kernel_size: 3
    weight_filler {
      type: "xavier"
    }
    bias_filler {
      type: "constant"
      value: 0
    }
  }
}
layer {
  name: "relu4_3"
  type: "ReLU"
  bottom: "conv4_3"
  top: "conv4_3"
}
layer {
  name: "pool4"
  type: "Pooling"
  bottom: "conv4_3"
  top: "pool4"
  pooling_param {
    pool: MAX
    kernel_size: 2
    stride: 2
  }
}
layer {
  name: "conv5_1"
  type: "Convolution"
  bottom: "pool4"
  top: "conv5_1"
  param {
    lr_mult: 1
    decay_mult: 1
  }
  param {
    lr_mult: 2
    decay_mult: 0
  }
  convolution_param {
    num_output: 512
    pad: 1
    kernel_size: 3
    weight_filler {
      type: "xavier"
    }
    bias_filler {
      type: "constant"
      value: 0
    }
    dilation: 1
  }
}
layer {
  name: "relu5_1"
  type: "ReLU"
  bottom: "conv5_1"
  top: "conv5_1"
}
layer {
  name: "conv5_2"
  type: "Convolution"
  bottom: "conv5_1"
  top: "conv5_2"
  param {
    lr_mult: 1
    decay_mult: 1
  }
  param {
    lr_mult: 2
    decay_mult: 0
  }
  convolution_param {
    num_output: 512
    pad: 1
    kernel_size: 3
    weight_filler {
      type: "xavier"
    }
    bias_filler {
      type: "constant"
      value: 0
    }
    dilation: 1
  }
}
layer {
  name: "relu5_2"
  type: "ReLU"
  bottom: "conv5_2"
  top: "conv5_2"
}
layer {
  name: "conv5_3"
  type: "Convolution"
  bottom: "conv5_2"
  top: "conv5_3"
  param {
    lr_mult: 1
    decay_mult: 1
  }
  param {
    lr_mult: 2
    decay_mult: 0
  }
  convolution_param {
    num_output: 512
    pad: 1
    kernel_size: 3
    weight_filler {
      type: "xavier"
    }
    bias_filler {
      type: "constant"
      value: 0
    }
    dilation: 1
  }
}
layer {
  name: "relu5_3"
  type: "ReLU"
  bottom: "conv5_3"
  top: "conv5_3"
}
layer {
  name: "pool5"
  type: "Pooling"
  bottom: "conv5_3"
  top: "pool5"
  pooling_param {
    pool: MAX
    kernel_size: 3
    stride: 1
    pad: 1
  }
}
layer {
  name: "fc6"
  type: "Convolution"
  bottom: "pool5"
  top: "fc6"
  param {
    lr_mult: 1
    decay_mult: 1
  }
  param {
    lr_mult: 2
    decay_mult: 0
  }
  convolution_param {
    num_output: 1024
    pad: 6
    kernel_size: 3
    weight_filler {
      type: "xavier"
    }
    bias_filler {
      type: "constant"
      value: 0
    }
    dilation: 6
  }
}
layer {
  name: "relu6"
  type: "ReLU"
  bottom: "fc6"
  top: "fc6"
}
layer {
  name: "fc7"
  type: "Convolution"
  bottom: "fc6"
  top: "fc7"
  param {
    lr_mult: 1
    decay_mult: 1
  }
  param {
    lr_mult: 2
    decay_mult: 0
  }
  convolution_param {
    num_output: 1024
    kernel_size: 1
    weight_filler {
      type: "xavier"
    }
    bias_filler {
      type: "constant"
      value: 0
    }
  }
}
layer {
  name: "relu7"
  type: "ReLU"
  bottom: "fc7"
  top: "fc7"
}
layer {
  name: "conv6_1"
  type: "Convolution"
  bottom: "fc7"
  top: "conv6_1"
  param {
    lr_mult: 1
    decay_mult: 1
  }
  param {
    lr_mult: 2
    decay_mult: 0
  }
  convolution_param {
    num_output: 256
    pad: 0
    kernel_size: 1
    stride: 1
    weight_filler {
      type: "xavier"
    }
    bias_filler {
      type: "constant"
      value: 0
    }
  }
}
layer {
  name: "conv6_1_relu"
  type: "ReLU"
  bottom: "conv6_1"
  top: "conv6_1"
}
layer {
  name: "conv6_2"
  type: "Convolution"
  bottom: "conv6_1"
  top: "conv6_2"
  param {
    lr_mult: 1
    decay_mult: 1
  }
  param {
    lr_mult: 2
    decay_mult: 0
  }
  convolution_param {
    num_output: 512
    pad: 1
    kernel_size: 3
    stride: 2
    weight_filler {
      type: "xavier"
    }
    bias_filler {
      type: "constant"
      value: 0
    }
  }
}
layer {
  name: "conv6_2_relu"
  type: "ReLU"
  bottom: "conv6_2"
  top: "conv6_2"
}
layer {
  name: "conv7_1"
  type: "Convolution"
  bottom: "conv6_2"
  top: "conv7_1"
  param {
    lr_mult: 1
    decay_mult: 1
  }
  param {
    lr_mult: 2
    decay_mult: 0
  }
  convolution_param {
    num_output: 128
    pad: 0
    kernel_size: 1
    stride: 1
    weight_filler {
      type: "xavier"
    }
    bias_filler {
      type: "constant"
      value: 0
    }
  }
}
layer {
  name: "conv7_1_relu"
  type: "ReLU"
  bottom: "conv7_1"
  top: "conv7_1"
}
layer {
  name: "conv7_2"
  type: "Convolution"
  bottom: "conv7_1"
  top: "conv7_2"
  param {
    lr_mult: 1
    decay_mult: 1
  }
  param {
    lr_mult: 2
    decay_mult: 0
  }
  convolution_param {
    num_output: 256
    pad: 1
    kernel_size: 3
    stride: 2
    weight_filler {
      type: "xavier"
    }
    bias_filler {
      type: "constant"
      value: 0
    }
  }
}
layer {
  name: "conv7_2_relu"
  type: "ReLU"
  bottom: "conv7_2"
  top: "conv7_2"
}
layer {
  name: "conv8_1"
  type: "Convolution"
  bottom: "conv7_2"
  top: "conv8_1"
  param {
    lr_mult: 1
    decay_mult: 1
  }
  param {
    lr_mult: 2
    decay_mult: 0
  }
  convolution_param {
    num_output: 128
    pad: 0
    kernel_size: 1
    stride: 1
    weight_filler {
      type: "xavier"
    }
    bias_filler {
      type: "constant"
      value: 0
    }
  }
}
layer {
  name: "conv8_1_relu"
  type: "ReLU"
  bottom: "conv8_1"
  top: "conv8_1"
}
layer {
  name: "conv8_2"
  type: "Convolution"
  bottom: "conv8_1"
  top: "conv8_2"
  param {
    lr_mult: 1
    decay_mult: 1
  }
  param {
    lr_mult: 2
    decay_mult: 0
  }
  convolution_param {
    num_output: 256
    pad: 0
    kernel_size: 3
    stride: 1
    weight_filler {
      type: "xavier"
    }
    bias_filler {
      type: "constant"
      value: 0
    }
  }
}
layer {
  name: "conv8_2_relu"
  type: "ReLU"
  bottom: "conv8_2"
  top: "conv8_2"
}
layer {
  name: "conv9_1"
  type: "Convolution"
  bottom: "conv8_2"
  top: "conv9_1"
  param {
    lr_mult: 1
    decay_mult: 1
  }
  param {
    lr_mult: 2
    decay_mult: 0
  }
  convolution_param {
    num_output: 128
    pad: 0
    kernel_size: 1
    stride: 1
    weight_filler {
      type: "xavier"
    }
    bias_filler {
      type: "constant"
      value: 0
    }
  }
}
layer {
  name: "conv9_1_relu"
  type: "ReLU"
  bottom: "conv9_1"
  top: "conv9_1"
}
layer {
  name: "conv9_2"
  type: "Convolution"
  bottom: "conv9_1"
  top: "conv9_2"
  param {
    lr_mult: 1
    decay_mult: 1
  }
  param {
    lr_mult: 2
    decay_mult: 0
  }
  convolution_param {
    num_output: 256
    pad: 0
    kernel_size: 3
    stride: 1
    weight_filler {
      type: "xavier"
    }
    bias_filler {
      type: "constant"
      value: 0
    }
  }
}
layer {
  name: "conv9_2_relu"
  type: "ReLU"
  bottom: "conv9_2"
  top: "conv9_2"
}
layer {
  name: "conv4_3_norm"
  type: "Normalize"
  bottom: "conv4_3"
  top: "conv4_3_norm"
  norm_param {
    across_spatial: false
    scale_filler {
      type: "constant"
      value: 20
    }
    channel_shared: false
  }
}
layer {
  name: "conv4_3_norm_mbox_loc_bdc2018"
  type: "Convolution"
  bottom: "conv4_3_norm"
  top: "conv4_3_norm_mbox_loc_bdc2018"
  param {
    lr_mult: 1
    decay_mult: 1
  }
  param {
    lr_mult: 2
    decay_mult: 0
  }
  convolution_param {
    num_output: 16
    pad: 1
    kernel_size: 3
    stride: 1
    weight_filler {
      type: "xavier"
    }
    bias_filler {
      type: "constant"
      value: 0
    }
  }
}
layer {
  name: "conv4_3_norm_mbox_loc_bdc2018_perm_bdc2018"
  type: "Permute"
  bottom: "conv4_3_norm_mbox_loc_bdc2018"
  top: "conv4_3_norm_mbox_loc_bdc2018_perm_bdc2018"
  permute_param {
    order: 0
    order: 2
    order: 3
    order: 1
  }
}
layer {
  name: "conv4_3_norm_mbox_loc_bdc2018_flat_bdc2018"
  type: "Flatten"
  bottom: "conv4_3_norm_mbox_loc_bdc2018_perm_bdc2018"
  top: "conv4_3_norm_mbox_loc_bdc2018_flat_bdc2018"
  flatten_param {
    axis: 1
  }
}
layer {
  name: "conv4_3_norm_mbox_conf_bdc2018_new"
  type: "Convolution"
  bottom: "conv4_3_norm"
  top: "conv4_3_norm_mbox_conf_bdc2018_new"
  param {
    lr_mult: 1
    decay_mult: 1
  }
  param {
    lr_mult: 2
    decay_mult: 0
  }
  convolution_param {
    num_output: 36
    pad: 1
    kernel_size: 3
    stride: 1
    weight_filler {
      type: "xavier"
    }
    bias_filler {
      type: "constant"
      value: 0
    }
  }
}
layer {
  name: "conv4_3_norm_mbox_conf_bdc2018_new_perm_bdc2018_new"
  type: "Permute"
  bottom: "conv4_3_norm_mbox_conf_bdc2018_new"
  top: "conv4_3_norm_mbox_conf_bdc2018_new_perm_bdc2018_new"
  permute_param {
    order: 0
    order: 2
    order: 3
    order: 1
  }
}
layer {
  name: "conv4_3_norm_mbox_conf_bdc2018_new_flat_bdc2018_new"
  type: "Flatten"
  bottom: "conv4_3_norm_mbox_conf_bdc2018_new_perm_bdc2018_new"
  top: "conv4_3_norm_mbox_conf_bdc2018_new_flat_bdc2018_new"
  flatten_param {
    axis: 1
  }
}
layer {
  name: "conv4_3_norm_mbox_priorbox"
  type: "PriorBox"
  bottom: "conv4_3_norm"
  bottom: "data"
  top: "conv4_3_norm_mbox_priorbox"
  prior_box_param {
    min_size: 102.4
    max_size: 204.8
    aspect_ratio: 2
    flip: true
    clip: false
    variance: 0.1
    variance: 0.1
    variance: 0.2
    variance: 0.2
    step: 8
    offset: 0.5
  }
}
layer {
  name: "fc7_mbox_loc_bdc2018"
  type: "Convolution"
  bottom: "fc7"
  top: "fc7_mbox_loc_bdc2018"
  param {
    lr_mult: 1
    decay_mult: 1
  }
  param {
    lr_mult: 2
    decay_mult: 0
  }
  convolution_param {
    num_output: 24
    pad: 1
    kernel_size: 3
    stride: 1
    weight_filler {
      type: "xavier"
    }
    bias_filler {
      type: "constant"
      value: 0
    }
  }
}
layer {
  name: "fc7_mbox_loc_bdc2018_perm_bdc2018"
  type: "Permute"
  bottom: "fc7_mbox_loc_bdc2018"
  top: "fc7_mbox_loc_bdc2018_perm_bdc2018"
  permute_param {
    order: 0
    order: 2
    order: 3
    order: 1
  }
}
layer {
  name: "fc7_mbox_loc_bdc2018_flat_bdc2018"
  type: "Flatten"
  bottom: "fc7_mbox_loc_bdc2018_perm_bdc2018"
  top: "fc7_mbox_loc_bdc2018_flat_bdc2018"
  flatten_param {
    axis: 1
  }
}
layer {
  name: "fc7_mbox_conf_bdc2018_new"
  type: "Convolution"
  bottom: "fc7"
  top: "fc7_mbox_conf_bdc2018_new"
  param {
    lr_mult: 1
    decay_mult: 1
  }
  param {
    lr_mult: 2
    decay_mult: 0
  }
  convolution_param {
    num_output: 54
    pad: 1
    kernel_size: 3
    stride: 1
    weight_filler {
      type: "xavier"
    }
    bias_filler {
      type: "constant"
      value: 0
    }
  }
}
layer {
  name: "fc7_mbox_conf_bdc2018_new_perm_bdc2018_new"
  type: "Permute"
  bottom: "fc7_mbox_conf_bdc2018_new"
  top: "fc7_mbox_conf_bdc2018_new_perm_bdc2018_new"
  permute_param {
    order: 0
    order: 2
    order: 3
    order: 1
  }
}
layer {
  name: "fc7_mbox_conf_bdc2018_new_flat_bdc2018_new"
  type: "Flatten"
  bottom: "fc7_mbox_conf_bdc2018_new_perm_bdc2018_new"
  top: "fc7_mbox_conf_bdc2018_new_flat_bdc2018_new"
  flatten_param {
    axis: 1
  }
}
layer {
  name: "fc7_mbox_priorbox"
  type: "PriorBox"
  bottom: "fc7"
  bottom: "data"
  top: "fc7_mbox_priorbox"
  prior_box_param {
    min_size: 204.8
    max_size: 378.88
    aspect_ratio: 2
    aspect_ratio: 3
    flip: true
    clip: false
    variance: 0.1
    variance: 0.1
    variance: 0.2
    variance: 0.2
    step: 16
    offset: 0.5
  }
}
layer {
  name: "conv6_2_mbox_loc_bdc2018"
  type: "Convolution"
  bottom: "conv6_2"
  top: "conv6_2_mbox_loc_bdc2018"
  param {
    lr_mult: 1
    decay_mult: 1
  }
  param {
    lr_mult: 2
    decay_mult: 0
  }
  convolution_param {
    num_output: 24
    pad: 1
    kernel_size: 3
    stride: 1
    weight_filler {
      type: "xavier"
    }
    bias_filler {
      type: "constant"
      value: 0
    }
  }
}
layer {
  name: "conv6_2_mbox_loc_bdc2018_perm_bdc2018"
  type: "Permute"
  bottom: "conv6_2_mbox_loc_bdc2018"
  top: "conv6_2_mbox_loc_bdc2018_perm_bdc2018"
  permute_param {
    order: 0
    order: 2
    order: 3
    order: 1
  }
}
layer {
  name: "conv6_2_mbox_loc_bdc2018_flat_bdc2018"
  type: "Flatten"
  bottom: "conv6_2_mbox_loc_bdc2018_perm_bdc2018"
  top: "conv6_2_mbox_loc_bdc2018_flat_bdc2018"
  flatten_param {
    axis: 1
  }
}
layer {
  name: "conv6_2_mbox_conf_bdc2018_new"
  type: "Convolution"
  bottom: "conv6_2"
  top: "conv6_2_mbox_conf_bdc2018_new"
  param {
    lr_mult: 1
    decay_mult: 1
  }
  param {
    lr_mult: 2
    decay_mult: 0
  }
  convolution_param {
    num_output: 54
    pad: 1
    kernel_size: 3
    stride: 1
    weight_filler {
      type: "xavier"
    }
    bias_filler {
      type: "constant"
      value: 0
    }
  }
}
layer {
  name: "conv6_2_mbox_conf_bdc2018_new_perm_bdc2018_new"
  type: "Permute"
  bottom: "conv6_2_mbox_conf_bdc2018_new"
  top: "conv6_2_mbox_conf_bdc2018_new_perm_bdc2018_new"
  permute_param {
    order: 0
    order: 2
    order: 3
    order: 1
  }
}
layer {
  name: "conv6_2_mbox_conf_bdc2018_new_flat_bdc2018_new"
  type: "Flatten"
  bottom: "conv6_2_mbox_conf_bdc2018_new_perm_bdc2018_new"
  top: "conv6_2_mbox_conf_bdc2018_new_flat_bdc2018_new"
  flatten_param {
    axis: 1
  }
}
layer {
  name: "conv6_2_mbox_priorbox"
  type: "PriorBox"
  bottom: "conv6_2"
  bottom: "data"
  top: "conv6_2_mbox_priorbox"
  prior_box_param {
    min_size: 378.88
    max_size: 552.96
    aspect_ratio: 2
    aspect_ratio: 3
    flip: true
    clip: false
    variance: 0.1
    variance: 0.1
    variance: 0.2
    variance: 0.2
    step: 32
    offset: 0.5
  }
}
layer {
  name: "conv7_2_mbox_loc_bdc2018"
  type: "Convolution"
  bottom: "conv7_2"
  top: "conv7_2_mbox_loc_bdc2018"
  param {
    lr_mult: 1
    decay_mult: 1
  }
  param {
    lr_mult: 2
    decay_mult: 0
  }
  convolution_param {
    num_output: 24
    pad: 1
    kernel_size: 3
    stride: 1
    weight_filler {
      type: "xavier"
    }
    bias_filler {
      type: "constant"
      value: 0
    }
  }
}
layer {
  name: "conv7_2_mbox_loc_bdc2018_perm_bdc2018"
  type: "Permute"
  bottom: "conv7_2_mbox_loc_bdc2018"
  top: "conv7_2_mbox_loc_bdc2018_perm_bdc2018"
  permute_param {
    order: 0
    order: 2
    order: 3
    order: 1
  }
}
layer {
  name: "conv7_2_mbox_loc_bdc2018_flat_bdc2018"
  type: "Flatten"
  bottom: "conv7_2_mbox_loc_bdc2018_perm_bdc2018"
  top: "conv7_2_mbox_loc_bdc2018_flat_bdc2018"
  flatten_param {
    axis: 1
  }
}
layer {
  name: "conv7_2_mbox_conf_bdc2018_new"
  type: "Convolution"
  bottom: "conv7_2"
  top: "conv7_2_mbox_conf_bdc2018_new"
  param {
    lr_mult: 1
    decay_mult: 1
  }
  param {
    lr_mult: 2
    decay_mult: 0
  }
  convolution_param {
    num_output: 54
    pad: 1
    kernel_size: 3
    stride: 1
    weight_filler {
      type: "xavier"
    }
    bias_filler {
      type: "constant"
      value: 0
    }
  }
}
layer {
  name: "conv7_2_mbox_conf_bdc2018_new_perm_bdc2018_new"
  type: "Permute"
  bottom: "conv7_2_mbox_conf_bdc2018_new"
  top: "conv7_2_mbox_conf_bdc2018_new_perm_bdc2018_new"
  permute_param {
    order: 0
    order: 2
    order: 3
    order: 1
  }
}
layer {
  name: "conv7_2_mbox_conf_bdc2018_new_flat_bdc2018_new"
  type: "Flatten"
  bottom: "conv7_2_mbox_conf_bdc2018_new_perm_bdc2018_new"
  top: "conv7_2_mbox_conf_bdc2018_new_flat_bdc2018_new"
  flatten_param {
    axis: 1
  }
}
layer {
  name: "conv7_2_mbox_priorbox"
  type: "PriorBox"
  bottom: "conv7_2"
  bottom: "data"
  top: "conv7_2_mbox_priorbox"
  prior_box_param {
    min_size: 552.96
    max_size: 727.04
    aspect_ratio: 2
    aspect_ratio: 3
    flip: true
    clip: false
    variance: 0.1
    variance: 0.1
    variance: 0.2
    variance: 0.2
    step: 64
    offset: 0.5
  }
}
layer {
  name: "conv8_2_mbox_loc_bdc2018"
  type: "Convolution"
  bottom: "conv8_2"
  top: "conv8_2_mbox_loc_bdc2018"
  param {
    lr_mult: 1
    decay_mult: 1
  }
  param {
    lr_mult: 2
    decay_mult: 0
  }
  convolution_param {
    num_output: 16
    pad: 1
    kernel_size: 3
    stride: 1
    weight_filler {
      type: "xavier"
    }
    bias_filler {
      type: "constant"
      value: 0
    }
  }
}
layer {
  name: "conv8_2_mbox_loc_bdc2018_perm_bdc2018"
  type: "Permute"
  bottom: "conv8_2_mbox_loc_bdc2018"
  top: "conv8_2_mbox_loc_bdc2018_perm_bdc2018"
  permute_param {
    order: 0
    order: 2
    order: 3
    order: 1
  }
}
layer {
  name: "conv8_2_mbox_loc_bdc2018_flat_bdc2018"
  type: "Flatten"
  bottom: "conv8_2_mbox_loc_bdc2018_perm_bdc2018"
  top: "conv8_2_mbox_loc_bdc2018_flat_bdc2018"
  flatten_param {
    axis: 1
  }
}
layer {
  name: "conv8_2_mbox_conf_bdc2018_new"
  type: "Convolution"
  bottom: "conv8_2"
  top: "conv8_2_mbox_conf_bdc2018_new"
  param {
    lr_mult: 1
    decay_mult: 1
  }
  param {
    lr_mult: 2
    decay_mult: 0
  }
  convolution_param {
    num_output: 36
    pad: 1
    kernel_size: 3
    stride: 1
    weight_filler {
      type: "xavier"
    }
    bias_filler {
      type: "constant"
      value: 0
    }
  }
}
layer {
  name: "conv8_2_mbox_conf_bdc2018_new_perm_bdc2018_new"
  type: "Permute"
  bottom: "conv8_2_mbox_conf_bdc2018_new"
  top: "conv8_2_mbox_conf_bdc2018_new_perm_bdc2018_new"
  permute_param {
    order: 0
    order: 2
    order: 3
    order: 1
  }
}
layer {
  name: "conv8_2_mbox_conf_bdc2018_new_flat_bdc2018_new"
  type: "Flatten"
  bottom: "conv8_2_mbox_conf_bdc2018_new_perm_bdc2018_new"
  top: "conv8_2_mbox_conf_bdc2018_new_flat_bdc2018_new"
  flatten_param {
    axis: 1
  }
}
layer {
  name: "conv8_2_mbox_priorbox"
  type: "PriorBox"
  bottom: "conv8_2"
  bottom: "data"
  top: "conv8_2_mbox_priorbox"
  prior_box_param {
    min_size: 727.04
    max_size: 901.12
    aspect_ratio: 2
    flip: true
    clip: false
    variance: 0.1
    variance: 0.1
    variance: 0.2
    variance: 0.2
    step: 100
    offset: 0.5
  }
}
layer {
  name: "conv9_2_mbox_loc_bdc2018"
  type: "Convolution"
  bottom: "conv9_2"
  top: "conv9_2_mbox_loc_bdc2018"
  param {
    lr_mult: 1
    decay_mult: 1
  }
  param {
    lr_mult: 2
    decay_mult: 0
  }
  convolution_param {
    num_output: 16
    pad: 1
    kernel_size: 3
    stride: 1
    weight_filler {
      type: "xavier"
    }
    bias_filler {
      type: "constant"
      value: 0
    }
  }
}
layer {
  name: "conv9_2_mbox_loc_bdc2018_perm_bdc2018"
  type: "Permute"
  bottom: "conv9_2_mbox_loc_bdc2018"
  top: "conv9_2_mbox_loc_bdc2018_perm_bdc2018"
  permute_param {
    order: 0
    order: 2
    order: 3
    order: 1
  }
}
layer {
  name: "conv9_2_mbox_loc_bdc2018_flat_bdc2018"
  type: "Flatten"
  bottom: "conv9_2_mbox_loc_bdc2018_perm_bdc2018"
  top: "conv9_2_mbox_loc_bdc2018_flat_bdc2018"
  flatten_param {
    axis: 1
  }
}
layer {
  name: "conv9_2_mbox_conf_bdc2018_new"
  type: "Convolution"
  bottom: "conv9_2"
  top: "conv9_2_mbox_conf_bdc2018_new"
  param {
    lr_mult: 1
    decay_mult: 1
  }
  param {
    lr_mult: 2
    decay_mult: 0
  }
  convolution_param {
    num_output: 36
    pad: 1
    kernel_size: 3
    stride: 1
    weight_filler {
      type: "xavier"
    }
    bias_filler {
      type: "constant"
      value: 0
    }
  }
}
layer {
  name: "conv9_2_mbox_conf_bdc2018_new_perm_bdc2018_new"
  type: "Permute"
  bottom: "conv9_2_mbox_conf_bdc2018_new"
  top: "conv9_2_mbox_conf_bdc2018_new_perm_bdc2018_new"
  permute_param {
    order: 0
    order: 2
    order: 3
    order: 1
  }
}
layer {
  name: "conv9_2_mbox_conf_bdc2018_new_flat_bdc2018_new"
  type: "Flatten"
  bottom: "conv9_2_mbox_conf_bdc2018_new_perm_bdc2018_new"
  top: "conv9_2_mbox_conf_bdc2018_new_flat_bdc2018_new"
  flatten_param {
    axis: 1
  }
}
layer {
  name: "conv9_2_mbox_priorbox"
  type: "PriorBox"
  bottom: "conv9_2"
  bottom: "data"
  top: "conv9_2_mbox_priorbox"
  prior_box_param {
    min_size: 901.12
    max_size: 1075.2
    aspect_ratio: 2
    flip: true
    clip: false
    variance: 0.1
    variance: 0.1
    variance: 0.2
    variance: 0.2
    step: 300
    offset: 0.5
  }
}
layer {
  name: "mbox_loc"
  type: "Concat"
  bottom: "conv4_3_norm_mbox_loc_bdc2018_flat_bdc2018"
  bottom: "fc7_mbox_loc_bdc2018_flat_bdc2018"
  bottom: "conv6_2_mbox_loc_bdc2018_flat_bdc2018"
  bottom: "conv7_2_mbox_loc_bdc2018_flat_bdc2018"
  bottom: "conv8_2_mbox_loc_bdc2018_flat_bdc2018"
  bottom: "conv9_2_mbox_loc_bdc2018_flat_bdc2018"
  top: "mbox_loc"
  concat_param {
    axis: 1
  }
}
layer {
  name: "mbox_conf"
  type: "Concat"
  bottom: "conv4_3_norm_mbox_conf_bdc2018_new_flat_bdc2018_new"
  bottom: "fc7_mbox_conf_bdc2018_new_flat_bdc2018_new"
  bottom: "conv6_2_mbox_conf_bdc2018_new_flat_bdc2018_new"
  bottom: "conv7_2_mbox_conf_bdc2018_new_flat_bdc2018_new"
  bottom: "conv8_2_mbox_conf_bdc2018_new_flat_bdc2018_new"
  bottom: "conv9_2_mbox_conf_bdc2018_new_flat_bdc2018_new"
  top: "mbox_conf"
  concat_param {
    axis: 1
  }
}
layer {
  name: "mbox_priorbox"
  type: "Concat"
  bottom: "conv4_3_norm_mbox_priorbox"
  bottom: "fc7_mbox_priorbox"
  bottom: "conv6_2_mbox_priorbox"
  bottom: "conv7_2_mbox_priorbox"
  bottom: "conv8_2_mbox_priorbox"
  bottom: "conv9_2_mbox_priorbox"
  top: "mbox_priorbox"
  concat_param {
    axis: 2
  }
}
layer {
  name: "mbox_loss"
  type: "MultiBoxLoss"
  bottom: "mbox_loc"
  bottom: "mbox_conf"
  bottom: "mbox_priorbox"
  bottom: "label"
  top: "mbox_loss"
  include {
    phase: TRAIN
  }
  propagate_down: true
  propagate_down: true
  propagate_down: false
  propagate_down: false
  loss_param {
    normalization: VALID
  }
  multibox_loss_param {
    loc_loss_type: SMOOTH_L1
    conf_loss_type: SOFTMAX
    loc_weight: 1
    num_classes: 9
    share_location: true
    match_type: PER_PREDICTION
    overlap_threshold: 0.5
    use_prior_for_matching: true
    background_label_id: 0
    use_difficult_gt: true
    neg_pos_ratio: 3
    neg_overlap: 0.5
    code_type: CENTER_SIZE
    ignore_cross_boundary_bbox: false
    mining_type: MAX_NEGATIVE
  }
}
I1110 19:02:29.536478 20135 layer_factory.hpp:77] Creating layer data
I1110 19:02:29.536705 20135 net.cpp:100] Creating Layer data
I1110 19:02:29.536731 20135 net.cpp:408] data -> data
I1110 19:02:29.536787 20135 net.cpp:408] data -> label
I1110 19:02:29.538075 20145 db_lmdb.cpp:35] Opened lmdb examples/bdc2018/bdc2018_train_name_lmdb
I1110 19:02:29.559075 20135 annotated_data_layer.cpp:62] output data size: 2,3,1024,1024
I1110 19:02:29.604357 20135 net.cpp:150] Setting up data
I1110 19:02:29.604395 20135 net.cpp:157] Top shape: 2 3 1024 1024 (6291456)
I1110 19:02:29.604401 20135 net.cpp:157] Top shape: 1 1 2 8 (16)
I1110 19:02:29.604405 20135 net.cpp:165] Memory required for data: 25165888
I1110 19:02:29.604419 20135 layer_factory.hpp:77] Creating layer data_data_0_split
I1110 19:02:29.604437 20135 net.cpp:100] Creating Layer data_data_0_split
I1110 19:02:29.604445 20135 net.cpp:434] data_data_0_split <- data
I1110 19:02:29.604465 20135 net.cpp:408] data_data_0_split -> data_data_0_split_0
I1110 19:02:29.604481 20135 net.cpp:408] data_data_0_split -> data_data_0_split_1
I1110 19:02:29.604493 20135 net.cpp:408] data_data_0_split -> data_data_0_split_2
I1110 19:02:29.604504 20135 net.cpp:408] data_data_0_split -> data_data_0_split_3
I1110 19:02:29.604512 20135 net.cpp:408] data_data_0_split -> data_data_0_split_4
I1110 19:02:29.604518 20135 net.cpp:408] data_data_0_split -> data_data_0_split_5
I1110 19:02:29.604526 20135 net.cpp:408] data_data_0_split -> data_data_0_split_6
I1110 19:02:29.604717 20135 net.cpp:150] Setting up data_data_0_split
I1110 19:02:29.604730 20135 net.cpp:157] Top shape: 2 3 1024 1024 (6291456)
I1110 19:02:29.604737 20135 net.cpp:157] Top shape: 2 3 1024 1024 (6291456)
I1110 19:02:29.604741 20135 net.cpp:157] Top shape: 2 3 1024 1024 (6291456)
I1110 19:02:29.604746 20135 net.cpp:157] Top shape: 2 3 1024 1024 (6291456)
I1110 19:02:29.604751 20135 net.cpp:157] Top shape: 2 3 1024 1024 (6291456)
I1110 19:02:29.604755 20135 net.cpp:157] Top shape: 2 3 1024 1024 (6291456)
I1110 19:02:29.604760 20135 net.cpp:157] Top shape: 2 3 1024 1024 (6291456)
I1110 19:02:29.604763 20135 net.cpp:165] Memory required for data: 201326656
I1110 19:02:29.604768 20135 layer_factory.hpp:77] Creating layer conv1_1
I1110 19:02:29.604789 20135 net.cpp:100] Creating Layer conv1_1
I1110 19:02:29.604796 20135 net.cpp:434] conv1_1 <- data_data_0_split_0
I1110 19:02:29.604807 20135 net.cpp:408] conv1_1 -> conv1_1
I1110 19:02:29.672291 20146 blocking_queue.cpp:50] Waiting for data
I1110 19:02:29.909952 20135 net.cpp:150] Setting up conv1_1
I1110 19:02:29.909989 20135 net.cpp:157] Top shape: 2 64 1024 1024 (134217728)
I1110 19:02:29.909993 20135 net.cpp:165] Memory required for data: 738197568
I1110 19:02:29.910027 20135 layer_factory.hpp:77] Creating layer relu1_1
I1110 19:02:29.910068 20135 net.cpp:100] Creating Layer relu1_1
I1110 19:02:29.910076 20135 net.cpp:434] relu1_1 <- conv1_1
I1110 19:02:29.910084 20135 net.cpp:395] relu1_1 -> conv1_1 (in-place)
I1110 19:02:29.910261 20135 net.cpp:150] Setting up relu1_1
I1110 19:02:29.910272 20135 net.cpp:157] Top shape: 2 64 1024 1024 (134217728)
I1110 19:02:29.910275 20135 net.cpp:165] Memory required for data: 1275068480
I1110 19:02:29.910280 20135 layer_factory.hpp:77] Creating layer conv1_2
I1110 19:02:29.910295 20135 net.cpp:100] Creating Layer conv1_2
I1110 19:02:29.910300 20135 net.cpp:434] conv1_2 <- conv1_1
I1110 19:02:29.910305 20135 net.cpp:408] conv1_2 -> conv1_2
I1110 19:02:29.914484 20135 net.cpp:150] Setting up conv1_2
I1110 19:02:29.914500 20135 net.cpp:157] Top shape: 2 64 1024 1024 (134217728)
I1110 19:02:29.914503 20135 net.cpp:165] Memory required for data: 1811939392
I1110 19:02:29.914525 20135 layer_factory.hpp:77] Creating layer relu1_2
I1110 19:02:29.914532 20135 net.cpp:100] Creating Layer relu1_2
I1110 19:02:29.914535 20135 net.cpp:434] relu1_2 <- conv1_2
I1110 19:02:29.914541 20135 net.cpp:395] relu1_2 -> conv1_2 (in-place)
I1110 19:02:29.914731 20135 net.cpp:150] Setting up relu1_2
I1110 19:02:29.914742 20135 net.cpp:157] Top shape: 2 64 1024 1024 (134217728)
I1110 19:02:29.914746 20135 net.cpp:165] Memory required for data: 2348810304
I1110 19:02:29.914749 20135 layer_factory.hpp:77] Creating layer pool1
I1110 19:02:29.914757 20135 net.cpp:100] Creating Layer pool1
I1110 19:02:29.914760 20135 net.cpp:434] pool1 <- conv1_2
I1110 19:02:29.914765 20135 net.cpp:408] pool1 -> pool1
I1110 19:02:29.914815 20135 net.cpp:150] Setting up pool1
I1110 19:02:29.914824 20135 net.cpp:157] Top shape: 2 64 512 512 (33554432)
I1110 19:02:29.914826 20135 net.cpp:165] Memory required for data: 2483028032
I1110 19:02:29.914830 20135 layer_factory.hpp:77] Creating layer conv2_1
I1110 19:02:29.914839 20135 net.cpp:100] Creating Layer conv2_1
I1110 19:02:29.914842 20135 net.cpp:434] conv2_1 <- pool1
I1110 19:02:29.914847 20135 net.cpp:408] conv2_1 -> conv2_1
I1110 19:02:29.917333 20135 net.cpp:150] Setting up conv2_1
I1110 19:02:29.917361 20135 net.cpp:157] Top shape: 2 128 512 512 (67108864)
I1110 19:02:29.917363 20135 net.cpp:165] Memory required for data: 2751463488
I1110 19:02:29.917372 20135 layer_factory.hpp:77] Creating layer relu2_1
I1110 19:02:29.917381 20135 net.cpp:100] Creating Layer relu2_1
I1110 19:02:29.917383 20135 net.cpp:434] relu2_1 <- conv2_1
I1110 19:02:29.917388 20135 net.cpp:395] relu2_1 -> conv2_1 (in-place)
I1110 19:02:29.917584 20135 net.cpp:150] Setting up relu2_1
I1110 19:02:29.917595 20135 net.cpp:157] Top shape: 2 128 512 512 (67108864)
I1110 19:02:29.917598 20135 net.cpp:165] Memory required for data: 3019898944
I1110 19:02:29.917603 20135 layer_factory.hpp:77] Creating layer conv2_2
I1110 19:02:29.917611 20135 net.cpp:100] Creating Layer conv2_2
I1110 19:02:29.917615 20135 net.cpp:434] conv2_2 <- conv2_1
I1110 19:02:29.917620 20135 net.cpp:408] conv2_2 -> conv2_2
I1110 19:02:29.920466 20135 net.cpp:150] Setting up conv2_2
I1110 19:02:29.920481 20135 net.cpp:157] Top shape: 2 128 512 512 (67108864)
I1110 19:02:29.920496 20135 net.cpp:165] Memory required for data: 3288334400
I1110 19:02:29.920503 20135 layer_factory.hpp:77] Creating layer relu2_2
I1110 19:02:29.920509 20135 net.cpp:100] Creating Layer relu2_2
I1110 19:02:29.920512 20135 net.cpp:434] relu2_2 <- conv2_2
I1110 19:02:29.920517 20135 net.cpp:395] relu2_2 -> conv2_2 (in-place)
I1110 19:02:29.920711 20135 net.cpp:150] Setting up relu2_2
I1110 19:02:29.920722 20135 net.cpp:157] Top shape: 2 128 512 512 (67108864)
I1110 19:02:29.920724 20135 net.cpp:165] Memory required for data: 3556769856
I1110 19:02:29.920728 20135 layer_factory.hpp:77] Creating layer pool2
I1110 19:02:29.920735 20135 net.cpp:100] Creating Layer pool2
I1110 19:02:29.920738 20135 net.cpp:434] pool2 <- conv2_2
I1110 19:02:29.920743 20135 net.cpp:408] pool2 -> pool2
I1110 19:02:29.920784 20135 net.cpp:150] Setting up pool2
I1110 19:02:29.920792 20135 net.cpp:157] Top shape: 2 128 256 256 (16777216)
I1110 19:02:29.920807 20135 net.cpp:165] Memory required for data: 3623878720
I1110 19:02:29.920811 20135 layer_factory.hpp:77] Creating layer conv3_1
I1110 19:02:29.920820 20135 net.cpp:100] Creating Layer conv3_1
I1110 19:02:29.920825 20135 net.cpp:434] conv3_1 <- pool2
I1110 19:02:29.920831 20135 net.cpp:408] conv3_1 -> conv3_1
I1110 19:02:29.924221 20135 net.cpp:150] Setting up conv3_1
I1110 19:02:29.924247 20135 net.cpp:157] Top shape: 2 256 256 256 (33554432)
I1110 19:02:29.924250 20135 net.cpp:165] Memory required for data: 3758096448
I1110 19:02:29.924260 20135 layer_factory.hpp:77] Creating layer relu3_1
I1110 19:02:29.924265 20135 net.cpp:100] Creating Layer relu3_1
I1110 19:02:29.924269 20135 net.cpp:434] relu3_1 <- conv3_1
I1110 19:02:29.924274 20135 net.cpp:395] relu3_1 -> conv3_1 (in-place)
I1110 19:02:29.924710 20135 net.cpp:150] Setting up relu3_1
I1110 19:02:29.924723 20135 net.cpp:157] Top shape: 2 256 256 256 (33554432)
I1110 19:02:29.924738 20135 net.cpp:165] Memory required for data: 3892314176
I1110 19:02:29.924742 20135 layer_factory.hpp:77] Creating layer conv3_2
I1110 19:02:29.924754 20135 net.cpp:100] Creating Layer conv3_2
I1110 19:02:29.924759 20135 net.cpp:434] conv3_2 <- conv3_1
I1110 19:02:29.924765 20135 net.cpp:408] conv3_2 -> conv3_2
I1110 19:02:29.929605 20135 net.cpp:150] Setting up conv3_2
I1110 19:02:29.929633 20135 net.cpp:157] Top shape: 2 256 256 256 (33554432)
I1110 19:02:29.929637 20135 net.cpp:165] Memory required for data: 4026531904
I1110 19:02:29.929644 20135 layer_factory.hpp:77] Creating layer relu3_2
I1110 19:02:29.929649 20135 net.cpp:100] Creating Layer relu3_2
I1110 19:02:29.929653 20135 net.cpp:434] relu3_2 <- conv3_2
I1110 19:02:29.929657 20135 net.cpp:395] relu3_2 -> conv3_2 (in-place)
I1110 19:02:29.930099 20135 net.cpp:150] Setting up relu3_2
I1110 19:02:29.930114 20135 net.cpp:157] Top shape: 2 256 256 256 (33554432)
I1110 19:02:29.930128 20135 net.cpp:165] Memory required for data: 4160749632
I1110 19:02:29.930132 20135 layer_factory.hpp:77] Creating layer conv3_3
I1110 19:02:29.930145 20135 net.cpp:100] Creating Layer conv3_3
I1110 19:02:29.930150 20135 net.cpp:434] conv3_3 <- conv3_2
I1110 19:02:29.930168 20135 net.cpp:408] conv3_3 -> conv3_3
I1110 19:02:29.935143 20135 net.cpp:150] Setting up conv3_3
I1110 19:02:29.935159 20135 net.cpp:157] Top shape: 2 256 256 256 (33554432)
I1110 19:02:29.935163 20135 net.cpp:165] Memory required for data: 4294967360
I1110 19:02:29.935171 20135 layer_factory.hpp:77] Creating layer relu3_3
I1110 19:02:29.935178 20135 net.cpp:100] Creating Layer relu3_3
I1110 19:02:29.935180 20135 net.cpp:434] relu3_3 <- conv3_3
I1110 19:02:29.935184 20135 net.cpp:395] relu3_3 -> conv3_3 (in-place)
I1110 19:02:29.935405 20135 net.cpp:150] Setting up relu3_3
I1110 19:02:29.935416 20135 net.cpp:157] Top shape: 2 256 256 256 (33554432)
I1110 19:02:29.935420 20135 net.cpp:165] Memory required for data: 4429185088
I1110 19:02:29.935423 20135 layer_factory.hpp:77] Creating layer pool3
I1110 19:02:29.935431 20135 net.cpp:100] Creating Layer pool3
I1110 19:02:29.935436 20135 net.cpp:434] pool3 <- conv3_3
I1110 19:02:29.935441 20135 net.cpp:408] pool3 -> pool3
I1110 19:02:29.935488 20135 net.cpp:150] Setting up pool3
I1110 19:02:29.935497 20135 net.cpp:157] Top shape: 2 256 128 128 (8388608)
I1110 19:02:29.935499 20135 net.cpp:165] Memory required for data: 4462739520
I1110 19:02:29.935503 20135 layer_factory.hpp:77] Creating layer conv4_1
I1110 19:02:29.935511 20135 net.cpp:100] Creating Layer conv4_1
I1110 19:02:29.935515 20135 net.cpp:434] conv4_1 <- pool3
I1110 19:02:29.935523 20135 net.cpp:408] conv4_1 -> conv4_1
I1110 19:02:29.945868 20135 net.cpp:150] Setting up conv4_1
I1110 19:02:29.945896 20135 net.cpp:157] Top shape: 2 512 128 128 (16777216)
I1110 19:02:29.945900 20135 net.cpp:165] Memory required for data: 4529848384
I1110 19:02:29.945906 20135 layer_factory.hpp:77] Creating layer relu4_1
I1110 19:02:29.945912 20135 net.cpp:100] Creating Layer relu4_1
I1110 19:02:29.945916 20135 net.cpp:434] relu4_1 <- conv4_1
I1110 19:02:29.945920 20135 net.cpp:395] relu4_1 -> conv4_1 (in-place)
I1110 19:02:29.946156 20135 net.cpp:150] Setting up relu4_1
I1110 19:02:29.946167 20135 net.cpp:157] Top shape: 2 512 128 128 (16777216)
I1110 19:02:29.946171 20135 net.cpp:165] Memory required for data: 4596957248
I1110 19:02:29.946174 20135 layer_factory.hpp:77] Creating layer conv4_2
I1110 19:02:29.946184 20135 net.cpp:100] Creating Layer conv4_2
I1110 19:02:29.946192 20135 net.cpp:434] conv4_2 <- conv4_1
I1110 19:02:29.946197 20135 net.cpp:408] conv4_2 -> conv4_2
I1110 19:02:29.961704 20135 net.cpp:150] Setting up conv4_2
I1110 19:02:29.961731 20135 net.cpp:157] Top shape: 2 512 128 128 (16777216)
I1110 19:02:29.961735 20135 net.cpp:165] Memory required for data: 4664066112
I1110 19:02:29.961747 20135 layer_factory.hpp:77] Creating layer relu4_2
I1110 19:02:29.961753 20135 net.cpp:100] Creating Layer relu4_2
I1110 19:02:29.961757 20135 net.cpp:434] relu4_2 <- conv4_2
I1110 19:02:29.961763 20135 net.cpp:395] relu4_2 -> conv4_2 (in-place)
I1110 19:02:29.961977 20135 net.cpp:150] Setting up relu4_2
I1110 19:02:29.961987 20135 net.cpp:157] Top shape: 2 512 128 128 (16777216)
I1110 19:02:29.961990 20135 net.cpp:165] Memory required for data: 4731174976
I1110 19:02:29.961994 20135 layer_factory.hpp:77] Creating layer conv4_3
I1110 19:02:29.962007 20135 net.cpp:100] Creating Layer conv4_3
I1110 19:02:29.962010 20135 net.cpp:434] conv4_3 <- conv4_2
I1110 19:02:29.962016 20135 net.cpp:408] conv4_3 -> conv4_3
I1110 19:02:29.977411 20135 net.cpp:150] Setting up conv4_3
I1110 19:02:29.977437 20135 net.cpp:157] Top shape: 2 512 128 128 (16777216)
I1110 19:02:29.977442 20135 net.cpp:165] Memory required for data: 4798283840
I1110 19:02:29.977447 20135 layer_factory.hpp:77] Creating layer relu4_3
I1110 19:02:29.977453 20135 net.cpp:100] Creating Layer relu4_3
I1110 19:02:29.977458 20135 net.cpp:434] relu4_3 <- conv4_3
I1110 19:02:29.977463 20135 net.cpp:395] relu4_3 -> conv4_3 (in-place)
I1110 19:02:29.977677 20135 net.cpp:150] Setting up relu4_3
I1110 19:02:29.977689 20135 net.cpp:157] Top shape: 2 512 128 128 (16777216)
I1110 19:02:29.977692 20135 net.cpp:165] Memory required for data: 4865392704
I1110 19:02:29.977695 20135 layer_factory.hpp:77] Creating layer conv4_3_relu4_3_0_split
I1110 19:02:29.977705 20135 net.cpp:100] Creating Layer conv4_3_relu4_3_0_split
I1110 19:02:29.977707 20135 net.cpp:434] conv4_3_relu4_3_0_split <- conv4_3
I1110 19:02:29.977715 20135 net.cpp:408] conv4_3_relu4_3_0_split -> conv4_3_relu4_3_0_split_0
I1110 19:02:29.977721 20135 net.cpp:408] conv4_3_relu4_3_0_split -> conv4_3_relu4_3_0_split_1
I1110 19:02:29.977766 20135 net.cpp:150] Setting up conv4_3_relu4_3_0_split
I1110 19:02:29.977775 20135 net.cpp:157] Top shape: 2 512 128 128 (16777216)
I1110 19:02:29.977779 20135 net.cpp:157] Top shape: 2 512 128 128 (16777216)
I1110 19:02:29.977782 20135 net.cpp:165] Memory required for data: 4999610432
I1110 19:02:29.977785 20135 layer_factory.hpp:77] Creating layer pool4
I1110 19:02:29.977792 20135 net.cpp:100] Creating Layer pool4
I1110 19:02:29.977794 20135 net.cpp:434] pool4 <- conv4_3_relu4_3_0_split_0
I1110 19:02:29.977799 20135 net.cpp:408] pool4 -> pool4
I1110 19:02:29.977843 20135 net.cpp:150] Setting up pool4
I1110 19:02:29.977851 20135 net.cpp:157] Top shape: 2 512 64 64 (4194304)
I1110 19:02:29.977854 20135 net.cpp:165] Memory required for data: 5016387648
I1110 19:02:29.977857 20135 layer_factory.hpp:77] Creating layer conv5_1
I1110 19:02:29.977869 20135 net.cpp:100] Creating Layer conv5_1
I1110 19:02:29.977872 20135 net.cpp:434] conv5_1 <- pool4
I1110 19:02:29.977879 20135 net.cpp:408] conv5_1 -> conv5_1
I1110 19:02:29.994295 20135 net.cpp:150] Setting up conv5_1
I1110 19:02:29.994325 20135 net.cpp:157] Top shape: 2 512 64 64 (4194304)
I1110 19:02:29.994329 20135 net.cpp:165] Memory required for data: 5033164864
I1110 19:02:29.994335 20135 layer_factory.hpp:77] Creating layer relu5_1
I1110 19:02:29.994343 20135 net.cpp:100] Creating Layer relu5_1
I1110 19:02:29.994346 20135 net.cpp:434] relu5_1 <- conv5_1
I1110 19:02:29.994351 20135 net.cpp:395] relu5_1 -> conv5_1 (in-place)
I1110 19:02:29.994779 20135 net.cpp:150] Setting up relu5_1
I1110 19:02:29.994794 20135 net.cpp:157] Top shape: 2 512 64 64 (4194304)
I1110 19:02:29.994797 20135 net.cpp:165] Memory required for data: 5049942080
I1110 19:02:29.994801 20135 layer_factory.hpp:77] Creating layer conv5_2
I1110 19:02:29.994813 20135 net.cpp:100] Creating Layer conv5_2
I1110 19:02:29.994817 20135 net.cpp:434] conv5_2 <- conv5_1
I1110 19:02:29.994824 20135 net.cpp:408] conv5_2 -> conv5_2
I1110 19:02:30.010077 20135 net.cpp:150] Setting up conv5_2
I1110 19:02:30.010107 20135 net.cpp:157] Top shape: 2 512 64 64 (4194304)
I1110 19:02:30.010112 20135 net.cpp:165] Memory required for data: 5066719296
I1110 19:02:30.010118 20135 layer_factory.hpp:77] Creating layer relu5_2
I1110 19:02:30.010123 20135 net.cpp:100] Creating Layer relu5_2
I1110 19:02:30.010126 20135 net.cpp:434] relu5_2 <- conv5_2
I1110 19:02:30.010131 20135 net.cpp:395] relu5_2 -> conv5_2 (in-place)
I1110 19:02:30.010578 20135 net.cpp:150] Setting up relu5_2
I1110 19:02:30.010604 20135 net.cpp:157] Top shape: 2 512 64 64 (4194304)
I1110 19:02:30.010607 20135 net.cpp:165] Memory required for data: 5083496512
I1110 19:02:30.010612 20135 layer_factory.hpp:77] Creating layer conv5_3
I1110 19:02:30.010624 20135 net.cpp:100] Creating Layer conv5_3
I1110 19:02:30.010628 20135 net.cpp:434] conv5_3 <- conv5_2
I1110 19:02:30.010634 20135 net.cpp:408] conv5_3 -> conv5_3
I1110 19:02:30.026119 20135 net.cpp:150] Setting up conv5_3
I1110 19:02:30.026147 20135 net.cpp:157] Top shape: 2 512 64 64 (4194304)
I1110 19:02:30.026152 20135 net.cpp:165] Memory required for data: 5100273728
I1110 19:02:30.026160 20135 layer_factory.hpp:77] Creating layer relu5_3
I1110 19:02:30.026173 20135 net.cpp:100] Creating Layer relu5_3
I1110 19:02:30.026177 20135 net.cpp:434] relu5_3 <- conv5_3
I1110 19:02:30.026193 20135 net.cpp:395] relu5_3 -> conv5_3 (in-place)
I1110 19:02:30.026396 20135 net.cpp:150] Setting up relu5_3
I1110 19:02:30.026407 20135 net.cpp:157] Top shape: 2 512 64 64 (4194304)
I1110 19:02:30.026410 20135 net.cpp:165] Memory required for data: 5117050944
I1110 19:02:30.026413 20135 layer_factory.hpp:77] Creating layer pool5
I1110 19:02:30.026422 20135 net.cpp:100] Creating Layer pool5
I1110 19:02:30.026425 20135 net.cpp:434] pool5 <- conv5_3
I1110 19:02:30.026432 20135 net.cpp:408] pool5 -> pool5
I1110 19:02:30.026480 20135 net.cpp:150] Setting up pool5
I1110 19:02:30.026489 20135 net.cpp:157] Top shape: 2 512 64 64 (4194304)
I1110 19:02:30.026492 20135 net.cpp:165] Memory required for data: 5133828160
I1110 19:02:30.026495 20135 layer_factory.hpp:77] Creating layer fc6
I1110 19:02:30.026507 20135 net.cpp:100] Creating Layer fc6
I1110 19:02:30.026512 20135 net.cpp:434] fc6 <- pool5
I1110 19:02:30.026520 20135 net.cpp:408] fc6 -> fc6
I1110 19:02:30.055786 20135 net.cpp:150] Setting up fc6
I1110 19:02:30.055807 20135 net.cpp:157] Top shape: 2 1024 64 64 (8388608)
I1110 19:02:30.055822 20135 net.cpp:165] Memory required for data: 5167382592
I1110 19:02:30.055830 20135 layer_factory.hpp:77] Creating layer relu6
I1110 19:02:30.055836 20135 net.cpp:100] Creating Layer relu6
I1110 19:02:30.055840 20135 net.cpp:434] relu6 <- fc6
I1110 19:02:30.055848 20135 net.cpp:395] relu6 -> fc6 (in-place)
I1110 19:02:30.056088 20135 net.cpp:150] Setting up relu6
I1110 19:02:30.056100 20135 net.cpp:157] Top shape: 2 1024 64 64 (8388608)
I1110 19:02:30.056103 20135 net.cpp:165] Memory required for data: 5200937024
I1110 19:02:30.056107 20135 layer_factory.hpp:77] Creating layer fc7
I1110 19:02:30.056124 20135 net.cpp:100] Creating Layer fc7
I1110 19:02:30.056129 20135 net.cpp:434] fc7 <- fc6
I1110 19:02:30.056136 20135 net.cpp:408] fc7 -> fc7
I1110 19:02:30.063760 20135 net.cpp:150] Setting up fc7
I1110 19:02:30.063791 20135 net.cpp:157] Top shape: 2 1024 64 64 (8388608)
I1110 19:02:30.063796 20135 net.cpp:165] Memory required for data: 5234491456
I1110 19:02:30.063803 20135 layer_factory.hpp:77] Creating layer relu7
I1110 19:02:30.063808 20135 net.cpp:100] Creating Layer relu7
I1110 19:02:30.063841 20135 net.cpp:434] relu7 <- fc7
I1110 19:02:30.063848 20135 net.cpp:395] relu7 -> fc7 (in-place)
I1110 19:02:30.064051 20135 net.cpp:150] Setting up relu7
I1110 19:02:30.064062 20135 net.cpp:157] Top shape: 2 1024 64 64 (8388608)
I1110 19:02:30.064065 20135 net.cpp:165] Memory required for data: 5268045888
I1110 19:02:30.064069 20135 layer_factory.hpp:77] Creating layer fc7_relu7_0_split
I1110 19:02:30.064077 20135 net.cpp:100] Creating Layer fc7_relu7_0_split
I1110 19:02:30.064081 20135 net.cpp:434] fc7_relu7_0_split <- fc7
I1110 19:02:30.064086 20135 net.cpp:408] fc7_relu7_0_split -> fc7_relu7_0_split_0
I1110 19:02:30.064095 20135 net.cpp:408] fc7_relu7_0_split -> fc7_relu7_0_split_1
I1110 19:02:30.064115 20135 net.cpp:408] fc7_relu7_0_split -> fc7_relu7_0_split_2
I1110 19:02:30.064122 20135 net.cpp:408] fc7_relu7_0_split -> fc7_relu7_0_split_3
I1110 19:02:30.064194 20135 net.cpp:150] Setting up fc7_relu7_0_split
I1110 19:02:30.064203 20135 net.cpp:157] Top shape: 2 1024 64 64 (8388608)
I1110 19:02:30.064208 20135 net.cpp:157] Top shape: 2 1024 64 64 (8388608)
I1110 19:02:30.064213 20135 net.cpp:157] Top shape: 2 1024 64 64 (8388608)
I1110 19:02:30.064216 20135 net.cpp:157] Top shape: 2 1024 64 64 (8388608)
I1110 19:02:30.064218 20135 net.cpp:165] Memory required for data: 5402263616
I1110 19:02:30.064221 20135 layer_factory.hpp:77] Creating layer conv6_1
I1110 19:02:30.064234 20135 net.cpp:100] Creating Layer conv6_1
I1110 19:02:30.064239 20135 net.cpp:434] conv6_1 <- fc7_relu7_0_split_0
I1110 19:02:30.064244 20135 net.cpp:408] conv6_1 -> conv6_1
I1110 19:02:30.066659 20135 net.cpp:150] Setting up conv6_1
I1110 19:02:30.066673 20135 net.cpp:157] Top shape: 2 256 64 64 (2097152)
I1110 19:02:30.066689 20135 net.cpp:165] Memory required for data: 5410652224
I1110 19:02:30.066694 20135 layer_factory.hpp:77] Creating layer conv6_1_relu
I1110 19:02:30.066700 20135 net.cpp:100] Creating Layer conv6_1_relu
I1110 19:02:30.066704 20135 net.cpp:434] conv6_1_relu <- conv6_1
I1110 19:02:30.066710 20135 net.cpp:395] conv6_1_relu -> conv6_1 (in-place)
I1110 19:02:30.067157 20135 net.cpp:150] Setting up conv6_1_relu
I1110 19:02:30.067170 20135 net.cpp:157] Top shape: 2 256 64 64 (2097152)
I1110 19:02:30.067185 20135 net.cpp:165] Memory required for data: 5419040832
I1110 19:02:30.067189 20135 layer_factory.hpp:77] Creating layer conv6_2
I1110 19:02:30.067201 20135 net.cpp:100] Creating Layer conv6_2
I1110 19:02:30.067206 20135 net.cpp:434] conv6_2 <- conv6_1
I1110 19:02:30.067212 20135 net.cpp:408] conv6_2 -> conv6_2
I1110 19:02:30.075567 20135 net.cpp:150] Setting up conv6_2
I1110 19:02:30.075592 20135 net.cpp:157] Top shape: 2 512 32 32 (1048576)
I1110 19:02:30.075597 20135 net.cpp:165] Memory required for data: 5423235136
I1110 19:02:30.075615 20135 layer_factory.hpp:77] Creating layer conv6_2_relu
I1110 19:02:30.075623 20135 net.cpp:100] Creating Layer conv6_2_relu
I1110 19:02:30.075628 20135 net.cpp:434] conv6_2_relu <- conv6_2
I1110 19:02:30.075644 20135 net.cpp:395] conv6_2_relu -> conv6_2 (in-place)
I1110 19:02:30.076086 20135 net.cpp:150] Setting up conv6_2_relu
I1110 19:02:30.076099 20135 net.cpp:157] Top shape: 2 512 32 32 (1048576)
I1110 19:02:30.076126 20135 net.cpp:165] Memory required for data: 5427429440
I1110 19:02:30.076130 20135 layer_factory.hpp:77] Creating layer conv6_2_conv6_2_relu_0_split
I1110 19:02:30.076138 20135 net.cpp:100] Creating Layer conv6_2_conv6_2_relu_0_split
I1110 19:02:30.076143 20135 net.cpp:434] conv6_2_conv6_2_relu_0_split <- conv6_2
I1110 19:02:30.076149 20135 net.cpp:408] conv6_2_conv6_2_relu_0_split -> conv6_2_conv6_2_relu_0_split_0
I1110 19:02:30.076156 20135 net.cpp:408] conv6_2_conv6_2_relu_0_split -> conv6_2_conv6_2_relu_0_split_1
I1110 19:02:30.076164 20135 net.cpp:408] conv6_2_conv6_2_relu_0_split -> conv6_2_conv6_2_relu_0_split_2
I1110 19:02:30.076170 20135 net.cpp:408] conv6_2_conv6_2_relu_0_split -> conv6_2_conv6_2_relu_0_split_3
I1110 19:02:30.076246 20135 net.cpp:150] Setting up conv6_2_conv6_2_relu_0_split
I1110 19:02:30.076254 20135 net.cpp:157] Top shape: 2 512 32 32 (1048576)
I1110 19:02:30.076270 20135 net.cpp:157] Top shape: 2 512 32 32 (1048576)
I1110 19:02:30.076274 20135 net.cpp:157] Top shape: 2 512 32 32 (1048576)
I1110 19:02:30.076277 20135 net.cpp:157] Top shape: 2 512 32 32 (1048576)
I1110 19:02:30.076280 20135 net.cpp:165] Memory required for data: 5444206656
I1110 19:02:30.076283 20135 layer_factory.hpp:77] Creating layer conv7_1
I1110 19:02:30.076297 20135 net.cpp:100] Creating Layer conv7_1
I1110 19:02:30.076301 20135 net.cpp:434] conv7_1 <- conv6_2_conv6_2_relu_0_split_0
I1110 19:02:30.076308 20135 net.cpp:408] conv7_1 -> conv7_1
I1110 19:02:30.077741 20135 net.cpp:150] Setting up conv7_1
I1110 19:02:30.077767 20135 net.cpp:157] Top shape: 2 128 32 32 (262144)
I1110 19:02:30.077771 20135 net.cpp:165] Memory required for data: 5445255232
I1110 19:02:30.077777 20135 layer_factory.hpp:77] Creating layer conv7_1_relu
I1110 19:02:30.077783 20135 net.cpp:100] Creating Layer conv7_1_relu
I1110 19:02:30.077788 20135 net.cpp:434] conv7_1_relu <- conv7_1
I1110 19:02:30.077795 20135 net.cpp:395] conv7_1_relu -> conv7_1 (in-place)
I1110 19:02:30.078004 20135 net.cpp:150] Setting up conv7_1_relu
I1110 19:02:30.078016 20135 net.cpp:157] Top shape: 2 128 32 32 (262144)
I1110 19:02:30.078018 20135 net.cpp:165] Memory required for data: 5446303808
I1110 19:02:30.078022 20135 layer_factory.hpp:77] Creating layer conv7_2
I1110 19:02:30.078032 20135 net.cpp:100] Creating Layer conv7_2
I1110 19:02:30.078037 20135 net.cpp:434] conv7_2 <- conv7_1
I1110 19:02:30.078044 20135 net.cpp:408] conv7_2 -> conv7_2
I1110 19:02:30.081598 20135 net.cpp:150] Setting up conv7_2
I1110 19:02:30.081626 20135 net.cpp:157] Top shape: 2 256 16 16 (131072)
I1110 19:02:30.081630 20135 net.cpp:165] Memory required for data: 5446828096
I1110 19:02:30.081636 20135 layer_factory.hpp:77] Creating layer conv7_2_relu
I1110 19:02:30.081641 20135 net.cpp:100] Creating Layer conv7_2_relu
I1110 19:02:30.081646 20135 net.cpp:434] conv7_2_relu <- conv7_2
I1110 19:02:30.081651 20135 net.cpp:395] conv7_2_relu -> conv7_2 (in-place)
I1110 19:02:30.081877 20135 net.cpp:150] Setting up conv7_2_relu
I1110 19:02:30.081888 20135 net.cpp:157] Top shape: 2 256 16 16 (131072)
I1110 19:02:30.081892 20135 net.cpp:165] Memory required for data: 5447352384
I1110 19:02:30.081895 20135 layer_factory.hpp:77] Creating layer conv7_2_conv7_2_relu_0_split
I1110 19:02:30.081903 20135 net.cpp:100] Creating Layer conv7_2_conv7_2_relu_0_split
I1110 19:02:30.081907 20135 net.cpp:434] conv7_2_conv7_2_relu_0_split <- conv7_2
I1110 19:02:30.081914 20135 net.cpp:408] conv7_2_conv7_2_relu_0_split -> conv7_2_conv7_2_relu_0_split_0
I1110 19:02:30.081921 20135 net.cpp:408] conv7_2_conv7_2_relu_0_split -> conv7_2_conv7_2_relu_0_split_1
I1110 19:02:30.081928 20135 net.cpp:408] conv7_2_conv7_2_relu_0_split -> conv7_2_conv7_2_relu_0_split_2
I1110 19:02:30.081933 20135 net.cpp:408] conv7_2_conv7_2_relu_0_split -> conv7_2_conv7_2_relu_0_split_3
I1110 19:02:30.082003 20135 net.cpp:150] Setting up conv7_2_conv7_2_relu_0_split
I1110 19:02:30.082011 20135 net.cpp:157] Top shape: 2 256 16 16 (131072)
I1110 19:02:30.082015 20135 net.cpp:157] Top shape: 2 256 16 16 (131072)
I1110 19:02:30.082020 20135 net.cpp:157] Top shape: 2 256 16 16 (131072)
I1110 19:02:30.082023 20135 net.cpp:157] Top shape: 2 256 16 16 (131072)
I1110 19:02:30.082026 20135 net.cpp:165] Memory required for data: 5449449536
I1110 19:02:30.082028 20135 layer_factory.hpp:77] Creating layer conv8_1
I1110 19:02:30.082041 20135 net.cpp:100] Creating Layer conv8_1
I1110 19:02:30.082044 20135 net.cpp:434] conv8_1 <- conv7_2_conv7_2_relu_0_split_0
I1110 19:02:30.082051 20135 net.cpp:408] conv8_1 -> conv8_1
I1110 19:02:30.083314 20135 net.cpp:150] Setting up conv8_1
I1110 19:02:30.083343 20135 net.cpp:157] Top shape: 2 128 16 16 (65536)
I1110 19:02:30.083346 20135 net.cpp:165] Memory required for data: 5449711680
I1110 19:02:30.083353 20135 layer_factory.hpp:77] Creating layer conv8_1_relu
I1110 19:02:30.083359 20135 net.cpp:100] Creating Layer conv8_1_relu
I1110 19:02:30.083362 20135 net.cpp:434] conv8_1_relu <- conv8_1
I1110 19:02:30.083379 20135 net.cpp:395] conv8_1_relu -> conv8_1 (in-place)
I1110 19:02:30.083587 20135 net.cpp:150] Setting up conv8_1_relu
I1110 19:02:30.083598 20135 net.cpp:157] Top shape: 2 128 16 16 (65536)
I1110 19:02:30.083602 20135 net.cpp:165] Memory required for data: 5449973824
I1110 19:02:30.083606 20135 layer_factory.hpp:77] Creating layer conv8_2
I1110 19:02:30.083617 20135 net.cpp:100] Creating Layer conv8_2
I1110 19:02:30.083623 20135 net.cpp:434] conv8_2 <- conv8_1
I1110 19:02:30.083631 20135 net.cpp:408] conv8_2 -> conv8_2
I1110 19:02:30.086997 20135 net.cpp:150] Setting up conv8_2
I1110 19:02:30.087025 20135 net.cpp:157] Top shape: 2 256 14 14 (100352)
I1110 19:02:30.087029 20135 net.cpp:165] Memory required for data: 5450375232
I1110 19:02:30.087035 20135 layer_factory.hpp:77] Creating layer conv8_2_relu
I1110 19:02:30.087040 20135 net.cpp:100] Creating Layer conv8_2_relu
I1110 19:02:30.087045 20135 net.cpp:434] conv8_2_relu <- conv8_2
I1110 19:02:30.087050 20135 net.cpp:395] conv8_2_relu -> conv8_2 (in-place)
I1110 19:02:30.087273 20135 net.cpp:150] Setting up conv8_2_relu
I1110 19:02:30.087285 20135 net.cpp:157] Top shape: 2 256 14 14 (100352)
I1110 19:02:30.087287 20135 net.cpp:165] Memory required for data: 5450776640
I1110 19:02:30.087291 20135 layer_factory.hpp:77] Creating layer conv8_2_conv8_2_relu_0_split
I1110 19:02:30.087299 20135 net.cpp:100] Creating Layer conv8_2_conv8_2_relu_0_split
I1110 19:02:30.087303 20135 net.cpp:434] conv8_2_conv8_2_relu_0_split <- conv8_2
I1110 19:02:30.087311 20135 net.cpp:408] conv8_2_conv8_2_relu_0_split -> conv8_2_conv8_2_relu_0_split_0
I1110 19:02:30.087317 20135 net.cpp:408] conv8_2_conv8_2_relu_0_split -> conv8_2_conv8_2_relu_0_split_1
I1110 19:02:30.087323 20135 net.cpp:408] conv8_2_conv8_2_relu_0_split -> conv8_2_conv8_2_relu_0_split_2
I1110 19:02:30.087329 20135 net.cpp:408] conv8_2_conv8_2_relu_0_split -> conv8_2_conv8_2_relu_0_split_3
I1110 19:02:30.087407 20135 net.cpp:150] Setting up conv8_2_conv8_2_relu_0_split
I1110 19:02:30.087417 20135 net.cpp:157] Top shape: 2 256 14 14 (100352)
I1110 19:02:30.087421 20135 net.cpp:157] Top shape: 2 256 14 14 (100352)
I1110 19:02:30.087425 20135 net.cpp:157] Top shape: 2 256 14 14 (100352)
I1110 19:02:30.087429 20135 net.cpp:157] Top shape: 2 256 14 14 (100352)
I1110 19:02:30.087431 20135 net.cpp:165] Memory required for data: 5452382272
I1110 19:02:30.087435 20135 layer_factory.hpp:77] Creating layer conv9_1
I1110 19:02:30.087446 20135 net.cpp:100] Creating Layer conv9_1
I1110 19:02:30.087450 20135 net.cpp:434] conv9_1 <- conv8_2_conv8_2_relu_0_split_0
I1110 19:02:30.087458 20135 net.cpp:408] conv9_1 -> conv9_1
I1110 19:02:30.088728 20135 net.cpp:150] Setting up conv9_1
I1110 19:02:30.088743 20135 net.cpp:157] Top shape: 2 128 14 14 (50176)
I1110 19:02:30.088758 20135 net.cpp:165] Memory required for data: 5452582976
I1110 19:02:30.088765 20135 layer_factory.hpp:77] Creating layer conv9_1_relu
I1110 19:02:30.088771 20135 net.cpp:100] Creating Layer conv9_1_relu
I1110 19:02:30.088774 20135 net.cpp:434] conv9_1_relu <- conv9_1
I1110 19:02:30.088783 20135 net.cpp:395] conv9_1_relu -> conv9_1 (in-place)
I1110 19:02:30.089184 20135 net.cpp:150] Setting up conv9_1_relu
I1110 19:02:30.089200 20135 net.cpp:157] Top shape: 2 128 14 14 (50176)
I1110 19:02:30.089203 20135 net.cpp:165] Memory required for data: 5452783680
I1110 19:02:30.089207 20135 layer_factory.hpp:77] Creating layer conv9_2
I1110 19:02:30.089217 20135 net.cpp:100] Creating Layer conv9_2
I1110 19:02:30.089221 20135 net.cpp:434] conv9_2 <- conv9_1
I1110 19:02:30.089229 20135 net.cpp:408] conv9_2 -> conv9_2
I1110 19:02:30.092556 20135 net.cpp:150] Setting up conv9_2
I1110 19:02:30.092582 20135 net.cpp:157] Top shape: 2 256 12 12 (73728)
I1110 19:02:30.092586 20135 net.cpp:165] Memory required for data: 5453078592
I1110 19:02:30.092592 20135 layer_factory.hpp:77] Creating layer conv9_2_relu
I1110 19:02:30.092597 20135 net.cpp:100] Creating Layer conv9_2_relu
I1110 19:02:30.092602 20135 net.cpp:434] conv9_2_relu <- conv9_2
I1110 19:02:30.092608 20135 net.cpp:395] conv9_2_relu -> conv9_2 (in-place)
I1110 19:02:30.093039 20135 net.cpp:150] Setting up conv9_2_relu
I1110 19:02:30.093055 20135 net.cpp:157] Top shape: 2 256 12 12 (73728)
I1110 19:02:30.093058 20135 net.cpp:165] Memory required for data: 5453373504
I1110 19:02:30.093062 20135 layer_factory.hpp:77] Creating layer conv9_2_conv9_2_relu_0_split
I1110 19:02:30.093068 20135 net.cpp:100] Creating Layer conv9_2_conv9_2_relu_0_split
I1110 19:02:30.093072 20135 net.cpp:434] conv9_2_conv9_2_relu_0_split <- conv9_2
I1110 19:02:30.093080 20135 net.cpp:408] conv9_2_conv9_2_relu_0_split -> conv9_2_conv9_2_relu_0_split_0
I1110 19:02:30.093087 20135 net.cpp:408] conv9_2_conv9_2_relu_0_split -> conv9_2_conv9_2_relu_0_split_1
I1110 19:02:30.093093 20135 net.cpp:408] conv9_2_conv9_2_relu_0_split -> conv9_2_conv9_2_relu_0_split_2
I1110 19:02:30.093159 20135 net.cpp:150] Setting up conv9_2_conv9_2_relu_0_split
I1110 19:02:30.093168 20135 net.cpp:157] Top shape: 2 256 12 12 (73728)
I1110 19:02:30.093171 20135 net.cpp:157] Top shape: 2 256 12 12 (73728)
I1110 19:02:30.093175 20135 net.cpp:157] Top shape: 2 256 12 12 (73728)
I1110 19:02:30.093178 20135 net.cpp:165] Memory required for data: 5454258240
I1110 19:02:30.093181 20135 layer_factory.hpp:77] Creating layer conv4_3_norm
I1110 19:02:30.093189 20135 net.cpp:100] Creating Layer conv4_3_norm
I1110 19:02:30.093194 20135 net.cpp:434] conv4_3_norm <- conv4_3_relu4_3_0_split_1
I1110 19:02:30.093199 20135 net.cpp:408] conv4_3_norm -> conv4_3_norm
I1110 19:02:30.093381 20135 net.cpp:150] Setting up conv4_3_norm
I1110 19:02:30.093390 20135 net.cpp:157] Top shape: 2 512 128 128 (16777216)
I1110 19:02:30.093394 20135 net.cpp:165] Memory required for data: 5521367104
I1110 19:02:30.093399 20135 layer_factory.hpp:77] Creating layer conv4_3_norm_conv4_3_norm_0_split
I1110 19:02:30.093403 20135 net.cpp:100] Creating Layer conv4_3_norm_conv4_3_norm_0_split
I1110 19:02:30.093407 20135 net.cpp:434] conv4_3_norm_conv4_3_norm_0_split <- conv4_3_norm
I1110 19:02:30.093415 20135 net.cpp:408] conv4_3_norm_conv4_3_norm_0_split -> conv4_3_norm_conv4_3_norm_0_split_0
I1110 19:02:30.093420 20135 net.cpp:408] conv4_3_norm_conv4_3_norm_0_split -> conv4_3_norm_conv4_3_norm_0_split_1
I1110 19:02:30.093426 20135 net.cpp:408] conv4_3_norm_conv4_3_norm_0_split -> conv4_3_norm_conv4_3_norm_0_split_2
I1110 19:02:30.093477 20135 net.cpp:150] Setting up conv4_3_norm_conv4_3_norm_0_split
I1110 19:02:30.093484 20135 net.cpp:157] Top shape: 2 512 128 128 (16777216)
I1110 19:02:30.093488 20135 net.cpp:157] Top shape: 2 512 128 128 (16777216)
I1110 19:02:30.093492 20135 net.cpp:157] Top shape: 2 512 128 128 (16777216)
I1110 19:02:30.093495 20135 net.cpp:165] Memory required for data: 5722693696
I1110 19:02:30.093498 20135 layer_factory.hpp:77] Creating layer conv4_3_norm_mbox_loc_bdc2018
I1110 19:02:30.093510 20135 net.cpp:100] Creating Layer conv4_3_norm_mbox_loc_bdc2018
I1110 19:02:30.093514 20135 net.cpp:434] conv4_3_norm_mbox_loc_bdc2018 <- conv4_3_norm_conv4_3_norm_0_split_0
I1110 19:02:30.093520 20135 net.cpp:408] conv4_3_norm_mbox_loc_bdc2018 -> conv4_3_norm_mbox_loc_bdc2018
I1110 19:02:30.095237 20135 net.cpp:150] Setting up conv4_3_norm_mbox_loc_bdc2018
I1110 19:02:30.095253 20135 net.cpp:157] Top shape: 2 16 128 128 (524288)
I1110 19:02:30.095268 20135 net.cpp:165] Memory required for data: 5724790848
I1110 19:02:30.095275 20135 layer_factory.hpp:77] Creating layer conv4_3_norm_mbox_loc_bdc2018_perm_bdc2018
I1110 19:02:30.095283 20135 net.cpp:100] Creating Layer conv4_3_norm_mbox_loc_bdc2018_perm_bdc2018
I1110 19:02:30.095288 20135 net.cpp:434] conv4_3_norm_mbox_loc_bdc2018_perm_bdc2018 <- conv4_3_norm_mbox_loc_bdc2018
I1110 19:02:30.095295 20135 net.cpp:408] conv4_3_norm_mbox_loc_bdc2018_perm_bdc2018 -> conv4_3_norm_mbox_loc_bdc2018_perm_bdc2018
I1110 19:02:30.095422 20135 net.cpp:150] Setting up conv4_3_norm_mbox_loc_bdc2018_perm_bdc2018
I1110 19:02:30.095430 20135 net.cpp:157] Top shape: 2 128 128 16 (524288)
I1110 19:02:30.095433 20135 net.cpp:165] Memory required for data: 5726888000
I1110 19:02:30.095436 20135 layer_factory.hpp:77] Creating layer conv4_3_norm_mbox_loc_bdc2018_flat_bdc2018
I1110 19:02:30.095458 20135 net.cpp:100] Creating Layer conv4_3_norm_mbox_loc_bdc2018_flat_bdc2018
I1110 19:02:30.095461 20135 net.cpp:434] conv4_3_norm_mbox_loc_bdc2018_flat_bdc2018 <- conv4_3_norm_mbox_loc_bdc2018_perm_bdc2018
I1110 19:02:30.095469 20135 net.cpp:408] conv4_3_norm_mbox_loc_bdc2018_flat_bdc2018 -> conv4_3_norm_mbox_loc_bdc2018_flat_bdc2018
I1110 19:02:30.095511 20135 net.cpp:150] Setting up conv4_3_norm_mbox_loc_bdc2018_flat_bdc2018
I1110 19:02:30.095520 20135 net.cpp:157] Top shape: 2 262144 (524288)
I1110 19:02:30.095522 20135 net.cpp:165] Memory required for data: 5728985152
I1110 19:02:30.095525 20135 layer_factory.hpp:77] Creating layer conv4_3_norm_mbox_conf_bdc2018_new
I1110 19:02:30.095547 20135 net.cpp:100] Creating Layer conv4_3_norm_mbox_conf_bdc2018_new
I1110 19:02:30.095553 20135 net.cpp:434] conv4_3_norm_mbox_conf_bdc2018_new <- conv4_3_norm_conv4_3_norm_0_split_1
I1110 19:02:30.095561 20135 net.cpp:408] conv4_3_norm_mbox_conf_bdc2018_new -> conv4_3_norm_mbox_conf_bdc2018_new
I1110 19:02:30.097517 20135 net.cpp:150] Setting up conv4_3_norm_mbox_conf_bdc2018_new
I1110 19:02:30.097543 20135 net.cpp:157] Top shape: 2 36 128 128 (1179648)
I1110 19:02:30.097546 20135 net.cpp:165] Memory required for data: 5733703744
I1110 19:02:30.097554 20135 layer_factory.hpp:77] Creating layer conv4_3_norm_mbox_conf_bdc2018_new_perm_bdc2018_new
I1110 19:02:30.097561 20135 net.cpp:100] Creating Layer conv4_3_norm_mbox_conf_bdc2018_new_perm_bdc2018_new
I1110 19:02:30.097565 20135 net.cpp:434] conv4_3_norm_mbox_conf_bdc2018_new_perm_bdc2018_new <- conv4_3_norm_mbox_conf_bdc2018_new
I1110 19:02:30.097573 20135 net.cpp:408] conv4_3_norm_mbox_conf_bdc2018_new_perm_bdc2018_new -> conv4_3_norm_mbox_conf_bdc2018_new_perm_bdc2018_new
I1110 19:02:30.097693 20135 net.cpp:150] Setting up conv4_3_norm_mbox_conf_bdc2018_new_perm_bdc2018_new
I1110 19:02:30.097702 20135 net.cpp:157] Top shape: 2 128 128 36 (1179648)
I1110 19:02:30.097705 20135 net.cpp:165] Memory required for data: 5738422336
I1110 19:02:30.097708 20135 layer_factory.hpp:77] Creating layer conv4_3_norm_mbox_conf_bdc2018_new_flat_bdc2018_new
I1110 19:02:30.097714 20135 net.cpp:100] Creating Layer conv4_3_norm_mbox_conf_bdc2018_new_flat_bdc2018_new
I1110 19:02:30.097719 20135 net.cpp:434] conv4_3_norm_mbox_conf_bdc2018_new_flat_bdc2018_new <- conv4_3_norm_mbox_conf_bdc2018_new_perm_bdc2018_new
I1110 19:02:30.097724 20135 net.cpp:408] conv4_3_norm_mbox_conf_bdc2018_new_flat_bdc2018_new -> conv4_3_norm_mbox_conf_bdc2018_new_flat_bdc2018_new
I1110 19:02:30.097753 20135 net.cpp:150] Setting up conv4_3_norm_mbox_conf_bdc2018_new_flat_bdc2018_new
I1110 19:02:30.097759 20135 net.cpp:157] Top shape: 2 589824 (1179648)
I1110 19:02:30.097762 20135 net.cpp:165] Memory required for data: 5743140928
I1110 19:02:30.097765 20135 layer_factory.hpp:77] Creating layer conv4_3_norm_mbox_priorbox
I1110 19:02:30.097774 20135 net.cpp:100] Creating Layer conv4_3_norm_mbox_priorbox
I1110 19:02:30.097777 20135 net.cpp:434] conv4_3_norm_mbox_priorbox <- conv4_3_norm_conv4_3_norm_0_split_2
I1110 19:02:30.097782 20135 net.cpp:434] conv4_3_norm_mbox_priorbox <- data_data_0_split_1
I1110 19:02:30.097787 20135 net.cpp:408] conv4_3_norm_mbox_priorbox -> conv4_3_norm_mbox_priorbox
I1110 19:02:30.097820 20135 net.cpp:150] Setting up conv4_3_norm_mbox_priorbox
I1110 19:02:30.097827 20135 net.cpp:157] Top shape: 1 2 262144 (524288)
I1110 19:02:30.097831 20135 net.cpp:165] Memory required for data: 5745238080
I1110 19:02:30.097833 20135 layer_factory.hpp:77] Creating layer fc7_mbox_loc_bdc2018
I1110 19:02:30.097844 20135 net.cpp:100] Creating Layer fc7_mbox_loc_bdc2018
I1110 19:02:30.097848 20135 net.cpp:434] fc7_mbox_loc_bdc2018 <- fc7_relu7_0_split_1
I1110 19:02:30.097856 20135 net.cpp:408] fc7_mbox_loc_bdc2018 -> fc7_mbox_loc_bdc2018
I1110 19:02:30.100306 20135 net.cpp:150] Setting up fc7_mbox_loc_bdc2018
I1110 19:02:30.100322 20135 net.cpp:157] Top shape: 2 24 64 64 (196608)
I1110 19:02:30.100327 20135 net.cpp:165] Memory required for data: 5746024512
I1110 19:02:30.100344 20135 layer_factory.hpp:77] Creating layer fc7_mbox_loc_bdc2018_perm_bdc2018
I1110 19:02:30.100352 20135 net.cpp:100] Creating Layer fc7_mbox_loc_bdc2018_perm_bdc2018
I1110 19:02:30.100356 20135 net.cpp:434] fc7_mbox_loc_bdc2018_perm_bdc2018 <- fc7_mbox_loc_bdc2018
I1110 19:02:30.100364 20135 net.cpp:408] fc7_mbox_loc_bdc2018_perm_bdc2018 -> fc7_mbox_loc_bdc2018_perm_bdc2018
I1110 19:02:30.100484 20135 net.cpp:150] Setting up fc7_mbox_loc_bdc2018_perm_bdc2018
I1110 19:02:30.100493 20135 net.cpp:157] Top shape: 2 64 64 24 (196608)
I1110 19:02:30.100497 20135 net.cpp:165] Memory required for data: 5746810944
I1110 19:02:30.100499 20135 layer_factory.hpp:77] Creating layer fc7_mbox_loc_bdc2018_flat_bdc2018
I1110 19:02:30.100507 20135 net.cpp:100] Creating Layer fc7_mbox_loc_bdc2018_flat_bdc2018
I1110 19:02:30.100512 20135 net.cpp:434] fc7_mbox_loc_bdc2018_flat_bdc2018 <- fc7_mbox_loc_bdc2018_perm_bdc2018
I1110 19:02:30.100517 20135 net.cpp:408] fc7_mbox_loc_bdc2018_flat_bdc2018 -> fc7_mbox_loc_bdc2018_flat_bdc2018
I1110 19:02:30.100543 20135 net.cpp:150] Setting up fc7_mbox_loc_bdc2018_flat_bdc2018
I1110 19:02:30.100550 20135 net.cpp:157] Top shape: 2 98304 (196608)
I1110 19:02:30.100553 20135 net.cpp:165] Memory required for data: 5747597376
I1110 19:02:30.100556 20135 layer_factory.hpp:77] Creating layer fc7_mbox_conf_bdc2018_new
I1110 19:02:30.100566 20135 net.cpp:100] Creating Layer fc7_mbox_conf_bdc2018_new
I1110 19:02:30.100571 20135 net.cpp:434] fc7_mbox_conf_bdc2018_new <- fc7_relu7_0_split_2
I1110 19:02:30.100579 20135 net.cpp:408] fc7_mbox_conf_bdc2018_new -> fc7_mbox_conf_bdc2018_new
I1110 19:02:30.105406 20135 net.cpp:150] Setting up fc7_mbox_conf_bdc2018_new
I1110 19:02:30.105422 20135 net.cpp:157] Top shape: 2 54 64 64 (442368)
I1110 19:02:30.105427 20135 net.cpp:165] Memory required for data: 5749366848
I1110 19:02:30.105433 20135 layer_factory.hpp:77] Creating layer fc7_mbox_conf_bdc2018_new_perm_bdc2018_new
I1110 19:02:30.105444 20135 net.cpp:100] Creating Layer fc7_mbox_conf_bdc2018_new_perm_bdc2018_new
I1110 19:02:30.105449 20135 net.cpp:434] fc7_mbox_conf_bdc2018_new_perm_bdc2018_new <- fc7_mbox_conf_bdc2018_new
I1110 19:02:30.105455 20135 net.cpp:408] fc7_mbox_conf_bdc2018_new_perm_bdc2018_new -> fc7_mbox_conf_bdc2018_new_perm_bdc2018_new
I1110 19:02:30.105576 20135 net.cpp:150] Setting up fc7_mbox_conf_bdc2018_new_perm_bdc2018_new
I1110 19:02:30.105584 20135 net.cpp:157] Top shape: 2 64 64 54 (442368)
I1110 19:02:30.105587 20135 net.cpp:165] Memory required for data: 5751136320
I1110 19:02:30.105590 20135 layer_factory.hpp:77] Creating layer fc7_mbox_conf_bdc2018_new_flat_bdc2018_new
I1110 19:02:30.105598 20135 net.cpp:100] Creating Layer fc7_mbox_conf_bdc2018_new_flat_bdc2018_new
I1110 19:02:30.105602 20135 net.cpp:434] fc7_mbox_conf_bdc2018_new_flat_bdc2018_new <- fc7_mbox_conf_bdc2018_new_perm_bdc2018_new
I1110 19:02:30.105609 20135 net.cpp:408] fc7_mbox_conf_bdc2018_new_flat_bdc2018_new -> fc7_mbox_conf_bdc2018_new_flat_bdc2018_new
I1110 19:02:30.105635 20135 net.cpp:150] Setting up fc7_mbox_conf_bdc2018_new_flat_bdc2018_new
I1110 19:02:30.105643 20135 net.cpp:157] Top shape: 2 221184 (442368)
I1110 19:02:30.105645 20135 net.cpp:165] Memory required for data: 5752905792
I1110 19:02:30.105648 20135 layer_factory.hpp:77] Creating layer fc7_mbox_priorbox
I1110 19:02:30.105657 20135 net.cpp:100] Creating Layer fc7_mbox_priorbox
I1110 19:02:30.105661 20135 net.cpp:434] fc7_mbox_priorbox <- fc7_relu7_0_split_3
I1110 19:02:30.105665 20135 net.cpp:434] fc7_mbox_priorbox <- data_data_0_split_2
I1110 19:02:30.105672 20135 net.cpp:408] fc7_mbox_priorbox -> fc7_mbox_priorbox
I1110 19:02:30.105700 20135 net.cpp:150] Setting up fc7_mbox_priorbox
I1110 19:02:30.105707 20135 net.cpp:157] Top shape: 1 2 98304 (196608)
I1110 19:02:30.105710 20135 net.cpp:165] Memory required for data: 5753692224
I1110 19:02:30.105713 20135 layer_factory.hpp:77] Creating layer conv6_2_mbox_loc_bdc2018
I1110 19:02:30.105726 20135 net.cpp:100] Creating Layer conv6_2_mbox_loc_bdc2018
I1110 19:02:30.105742 20135 net.cpp:434] conv6_2_mbox_loc_bdc2018 <- conv6_2_conv6_2_relu_0_split_1
I1110 19:02:30.105751 20135 net.cpp:408] conv6_2_mbox_loc_bdc2018 -> conv6_2_mbox_loc_bdc2018
I1110 19:02:30.107659 20135 net.cpp:150] Setting up conv6_2_mbox_loc_bdc2018
I1110 19:02:30.107687 20135 net.cpp:157] Top shape: 2 24 32 32 (49152)
I1110 19:02:30.107692 20135 net.cpp:165] Memory required for data: 5753888832
I1110 19:02:30.107698 20135 layer_factory.hpp:77] Creating layer conv6_2_mbox_loc_bdc2018_perm_bdc2018
I1110 19:02:30.107704 20135 net.cpp:100] Creating Layer conv6_2_mbox_loc_bdc2018_perm_bdc2018
I1110 19:02:30.107708 20135 net.cpp:434] conv6_2_mbox_loc_bdc2018_perm_bdc2018 <- conv6_2_mbox_loc_bdc2018
I1110 19:02:30.107717 20135 net.cpp:408] conv6_2_mbox_loc_bdc2018_perm_bdc2018 -> conv6_2_mbox_loc_bdc2018_perm_bdc2018
I1110 19:02:30.107851 20135 net.cpp:150] Setting up conv6_2_mbox_loc_bdc2018_perm_bdc2018
I1110 19:02:30.107861 20135 net.cpp:157] Top shape: 2 32 32 24 (49152)
I1110 19:02:30.107863 20135 net.cpp:165] Memory required for data: 5754085440
I1110 19:02:30.107867 20135 layer_factory.hpp:77] Creating layer conv6_2_mbox_loc_bdc2018_flat_bdc2018
I1110 19:02:30.107872 20135 net.cpp:100] Creating Layer conv6_2_mbox_loc_bdc2018_flat_bdc2018
I1110 19:02:30.107877 20135 net.cpp:434] conv6_2_mbox_loc_bdc2018_flat_bdc2018 <- conv6_2_mbox_loc_bdc2018_perm_bdc2018
I1110 19:02:30.107882 20135 net.cpp:408] conv6_2_mbox_loc_bdc2018_flat_bdc2018 -> conv6_2_mbox_loc_bdc2018_flat_bdc2018
I1110 19:02:30.107908 20135 net.cpp:150] Setting up conv6_2_mbox_loc_bdc2018_flat_bdc2018
I1110 19:02:30.107915 20135 net.cpp:157] Top shape: 2 24576 (49152)
I1110 19:02:30.107918 20135 net.cpp:165] Memory required for data: 5754282048
I1110 19:02:30.107921 20135 layer_factory.hpp:77] Creating layer conv6_2_mbox_conf_bdc2018_new
I1110 19:02:30.107933 20135 net.cpp:100] Creating Layer conv6_2_mbox_conf_bdc2018_new
I1110 19:02:30.107940 20135 net.cpp:434] conv6_2_mbox_conf_bdc2018_new <- conv6_2_conv6_2_relu_0_split_2
I1110 19:02:30.107949 20135 net.cpp:408] conv6_2_mbox_conf_bdc2018_new -> conv6_2_mbox_conf_bdc2018_new
I1110 19:02:30.111532 20135 net.cpp:150] Setting up conv6_2_mbox_conf_bdc2018_new
I1110 19:02:30.111548 20135 net.cpp:157] Top shape: 2 54 32 32 (110592)
I1110 19:02:30.111552 20135 net.cpp:165] Memory required for data: 5754724416
I1110 19:02:30.111558 20135 layer_factory.hpp:77] Creating layer conv6_2_mbox_conf_bdc2018_new_perm_bdc2018_new
I1110 19:02:30.111578 20135 net.cpp:100] Creating Layer conv6_2_mbox_conf_bdc2018_new_perm_bdc2018_new
I1110 19:02:30.111585 20135 net.cpp:434] conv6_2_mbox_conf_bdc2018_new_perm_bdc2018_new <- conv6_2_mbox_conf_bdc2018_new
I1110 19:02:30.111591 20135 net.cpp:408] conv6_2_mbox_conf_bdc2018_new_perm_bdc2018_new -> conv6_2_mbox_conf_bdc2018_new_perm_bdc2018_new
I1110 19:02:30.111713 20135 net.cpp:150] Setting up conv6_2_mbox_conf_bdc2018_new_perm_bdc2018_new
I1110 19:02:30.111721 20135 net.cpp:157] Top shape: 2 32 32 54 (110592)
I1110 19:02:30.111724 20135 net.cpp:165] Memory required for data: 5755166784
I1110 19:02:30.111727 20135 layer_factory.hpp:77] Creating layer conv6_2_mbox_conf_bdc2018_new_flat_bdc2018_new
I1110 19:02:30.111733 20135 net.cpp:100] Creating Layer conv6_2_mbox_conf_bdc2018_new_flat_bdc2018_new
I1110 19:02:30.111737 20135 net.cpp:434] conv6_2_mbox_conf_bdc2018_new_flat_bdc2018_new <- conv6_2_mbox_conf_bdc2018_new_perm_bdc2018_new
I1110 19:02:30.111743 20135 net.cpp:408] conv6_2_mbox_conf_bdc2018_new_flat_bdc2018_new -> conv6_2_mbox_conf_bdc2018_new_flat_bdc2018_new
I1110 19:02:30.111771 20135 net.cpp:150] Setting up conv6_2_mbox_conf_bdc2018_new_flat_bdc2018_new
I1110 19:02:30.111779 20135 net.cpp:157] Top shape: 2 55296 (110592)
I1110 19:02:30.111783 20135 net.cpp:165] Memory required for data: 5755609152
I1110 19:02:30.111785 20135 layer_factory.hpp:77] Creating layer conv6_2_mbox_priorbox
I1110 19:02:30.111791 20135 net.cpp:100] Creating Layer conv6_2_mbox_priorbox
I1110 19:02:30.111795 20135 net.cpp:434] conv6_2_mbox_priorbox <- conv6_2_conv6_2_relu_0_split_3
I1110 19:02:30.111814 20135 net.cpp:434] conv6_2_mbox_priorbox <- data_data_0_split_3
I1110 19:02:30.111820 20135 net.cpp:408] conv6_2_mbox_priorbox -> conv6_2_mbox_priorbox
I1110 19:02:30.111853 20135 net.cpp:150] Setting up conv6_2_mbox_priorbox
I1110 19:02:30.111861 20135 net.cpp:157] Top shape: 1 2 24576 (49152)
I1110 19:02:30.111865 20135 net.cpp:165] Memory required for data: 5755805760
I1110 19:02:30.111867 20135 layer_factory.hpp:77] Creating layer conv7_2_mbox_loc_bdc2018
I1110 19:02:30.111877 20135 net.cpp:100] Creating Layer conv7_2_mbox_loc_bdc2018
I1110 19:02:30.111881 20135 net.cpp:434] conv7_2_mbox_loc_bdc2018 <- conv7_2_conv7_2_relu_0_split_1
I1110 19:02:30.111887 20135 net.cpp:408] conv7_2_mbox_loc_bdc2018 -> conv7_2_mbox_loc_bdc2018
I1110 19:02:30.113517 20135 net.cpp:150] Setting up conv7_2_mbox_loc_bdc2018
I1110 19:02:30.113545 20135 net.cpp:157] Top shape: 2 24 16 16 (12288)
I1110 19:02:30.113549 20135 net.cpp:165] Memory required for data: 5755854912
I1110 19:02:30.113556 20135 layer_factory.hpp:77] Creating layer conv7_2_mbox_loc_bdc2018_perm_bdc2018
I1110 19:02:30.113562 20135 net.cpp:100] Creating Layer conv7_2_mbox_loc_bdc2018_perm_bdc2018
I1110 19:02:30.113566 20135 net.cpp:434] conv7_2_mbox_loc_bdc2018_perm_bdc2018 <- conv7_2_mbox_loc_bdc2018
I1110 19:02:30.113574 20135 net.cpp:408] conv7_2_mbox_loc_bdc2018_perm_bdc2018 -> conv7_2_mbox_loc_bdc2018_perm_bdc2018
I1110 19:02:30.113703 20135 net.cpp:150] Setting up conv7_2_mbox_loc_bdc2018_perm_bdc2018
I1110 19:02:30.113710 20135 net.cpp:157] Top shape: 2 16 16 24 (12288)
I1110 19:02:30.113714 20135 net.cpp:165] Memory required for data: 5755904064
I1110 19:02:30.113718 20135 layer_factory.hpp:77] Creating layer conv7_2_mbox_loc_bdc2018_flat_bdc2018
I1110 19:02:30.113724 20135 net.cpp:100] Creating Layer conv7_2_mbox_loc_bdc2018_flat_bdc2018
I1110 19:02:30.113729 20135 net.cpp:434] conv7_2_mbox_loc_bdc2018_flat_bdc2018 <- conv7_2_mbox_loc_bdc2018_perm_bdc2018
I1110 19:02:30.113734 20135 net.cpp:408] conv7_2_mbox_loc_bdc2018_flat_bdc2018 -> conv7_2_mbox_loc_bdc2018_flat_bdc2018
I1110 19:02:30.113761 20135 net.cpp:150] Setting up conv7_2_mbox_loc_bdc2018_flat_bdc2018
I1110 19:02:30.113768 20135 net.cpp:157] Top shape: 2 6144 (12288)
I1110 19:02:30.113771 20135 net.cpp:165] Memory required for data: 5755953216
I1110 19:02:30.113775 20135 layer_factory.hpp:77] Creating layer conv7_2_mbox_conf_bdc2018_new
I1110 19:02:30.113785 20135 net.cpp:100] Creating Layer conv7_2_mbox_conf_bdc2018_new
I1110 19:02:30.113790 20135 net.cpp:434] conv7_2_mbox_conf_bdc2018_new <- conv7_2_conv7_2_relu_0_split_2
I1110 19:02:30.113795 20135 net.cpp:408] conv7_2_mbox_conf_bdc2018_new -> conv7_2_mbox_conf_bdc2018_new
I1110 19:02:30.115737 20135 net.cpp:150] Setting up conv7_2_mbox_conf_bdc2018_new
I1110 19:02:30.115752 20135 net.cpp:157] Top shape: 2 54 16 16 (27648)
I1110 19:02:30.115767 20135 net.cpp:165] Memory required for data: 5756063808
I1110 19:02:30.115773 20135 layer_factory.hpp:77] Creating layer conv7_2_mbox_conf_bdc2018_new_perm_bdc2018_new
I1110 19:02:30.115780 20135 net.cpp:100] Creating Layer conv7_2_mbox_conf_bdc2018_new_perm_bdc2018_new
I1110 19:02:30.115785 20135 net.cpp:434] conv7_2_mbox_conf_bdc2018_new_perm_bdc2018_new <- conv7_2_mbox_conf_bdc2018_new
I1110 19:02:30.115792 20135 net.cpp:408] conv7_2_mbox_conf_bdc2018_new_perm_bdc2018_new -> conv7_2_mbox_conf_bdc2018_new_perm_bdc2018_new
I1110 19:02:30.115923 20135 net.cpp:150] Setting up conv7_2_mbox_conf_bdc2018_new_perm_bdc2018_new
I1110 19:02:30.115932 20135 net.cpp:157] Top shape: 2 16 16 54 (27648)
I1110 19:02:30.115936 20135 net.cpp:165] Memory required for data: 5756174400
I1110 19:02:30.115938 20135 layer_factory.hpp:77] Creating layer conv7_2_mbox_conf_bdc2018_new_flat_bdc2018_new
I1110 19:02:30.115945 20135 net.cpp:100] Creating Layer conv7_2_mbox_conf_bdc2018_new_flat_bdc2018_new
I1110 19:02:30.115949 20135 net.cpp:434] conv7_2_mbox_conf_bdc2018_new_flat_bdc2018_new <- conv7_2_mbox_conf_bdc2018_new_perm_bdc2018_new
I1110 19:02:30.115957 20135 net.cpp:408] conv7_2_mbox_conf_bdc2018_new_flat_bdc2018_new -> conv7_2_mbox_conf_bdc2018_new_flat_bdc2018_new
I1110 19:02:30.115996 20135 net.cpp:150] Setting up conv7_2_mbox_conf_bdc2018_new_flat_bdc2018_new
I1110 19:02:30.116005 20135 net.cpp:157] Top shape: 2 13824 (27648)
I1110 19:02:30.116008 20135 net.cpp:165] Memory required for data: 5756284992
I1110 19:02:30.116010 20135 layer_factory.hpp:77] Creating layer conv7_2_mbox_priorbox
I1110 19:02:30.116019 20135 net.cpp:100] Creating Layer conv7_2_mbox_priorbox
I1110 19:02:30.116024 20135 net.cpp:434] conv7_2_mbox_priorbox <- conv7_2_conv7_2_relu_0_split_3
I1110 19:02:30.116027 20135 net.cpp:434] conv7_2_mbox_priorbox <- data_data_0_split_4
I1110 19:02:30.116035 20135 net.cpp:408] conv7_2_mbox_priorbox -> conv7_2_mbox_priorbox
I1110 19:02:30.116065 20135 net.cpp:150] Setting up conv7_2_mbox_priorbox
I1110 19:02:30.116072 20135 net.cpp:157] Top shape: 1 2 6144 (12288)
I1110 19:02:30.116075 20135 net.cpp:165] Memory required for data: 5756334144
I1110 19:02:30.116078 20135 layer_factory.hpp:77] Creating layer conv8_2_mbox_loc_bdc2018
I1110 19:02:30.116091 20135 net.cpp:100] Creating Layer conv8_2_mbox_loc_bdc2018
I1110 19:02:30.116097 20135 net.cpp:434] conv8_2_mbox_loc_bdc2018 <- conv8_2_conv8_2_relu_0_split_1
I1110 19:02:30.116106 20135 net.cpp:408] conv8_2_mbox_loc_bdc2018 -> conv8_2_mbox_loc_bdc2018
I1110 19:02:30.117667 20135 net.cpp:150] Setting up conv8_2_mbox_loc_bdc2018
I1110 19:02:30.117683 20135 net.cpp:157] Top shape: 2 16 14 14 (6272)
I1110 19:02:30.117687 20135 net.cpp:165] Memory required for data: 5756359232
I1110 19:02:30.117704 20135 layer_factory.hpp:77] Creating layer conv8_2_mbox_loc_bdc2018_perm_bdc2018
I1110 19:02:30.117715 20135 net.cpp:100] Creating Layer conv8_2_mbox_loc_bdc2018_perm_bdc2018
I1110 19:02:30.117719 20135 net.cpp:434] conv8_2_mbox_loc_bdc2018_perm_bdc2018 <- conv8_2_mbox_loc_bdc2018
I1110 19:02:30.117727 20135 net.cpp:408] conv8_2_mbox_loc_bdc2018_perm_bdc2018 -> conv8_2_mbox_loc_bdc2018_perm_bdc2018
I1110 19:02:30.117849 20135 net.cpp:150] Setting up conv8_2_mbox_loc_bdc2018_perm_bdc2018
I1110 19:02:30.117858 20135 net.cpp:157] Top shape: 2 14 14 16 (6272)
I1110 19:02:30.117861 20135 net.cpp:165] Memory required for data: 5756384320
I1110 19:02:30.117864 20135 layer_factory.hpp:77] Creating layer conv8_2_mbox_loc_bdc2018_flat_bdc2018
I1110 19:02:30.117871 20135 net.cpp:100] Creating Layer conv8_2_mbox_loc_bdc2018_flat_bdc2018
I1110 19:02:30.117873 20135 net.cpp:434] conv8_2_mbox_loc_bdc2018_flat_bdc2018 <- conv8_2_mbox_loc_bdc2018_perm_bdc2018
I1110 19:02:30.117880 20135 net.cpp:408] conv8_2_mbox_loc_bdc2018_flat_bdc2018 -> conv8_2_mbox_loc_bdc2018_flat_bdc2018
I1110 19:02:30.117909 20135 net.cpp:150] Setting up conv8_2_mbox_loc_bdc2018_flat_bdc2018
I1110 19:02:30.117918 20135 net.cpp:157] Top shape: 2 3136 (6272)
I1110 19:02:30.117920 20135 net.cpp:165] Memory required for data: 5756409408
I1110 19:02:30.117923 20135 layer_factory.hpp:77] Creating layer conv8_2_mbox_conf_bdc2018_new
I1110 19:02:30.117933 20135 net.cpp:100] Creating Layer conv8_2_mbox_conf_bdc2018_new
I1110 19:02:30.117938 20135 net.cpp:434] conv8_2_mbox_conf_bdc2018_new <- conv8_2_conv8_2_relu_0_split_2
I1110 19:02:30.117944 20135 net.cpp:408] conv8_2_mbox_conf_bdc2018_new -> conv8_2_mbox_conf_bdc2018_new
I1110 19:02:30.119691 20135 net.cpp:150] Setting up conv8_2_mbox_conf_bdc2018_new
I1110 19:02:30.119706 20135 net.cpp:157] Top shape: 2 36 14 14 (14112)
I1110 19:02:30.119710 20135 net.cpp:165] Memory required for data: 5756465856
I1110 19:02:30.119716 20135 layer_factory.hpp:77] Creating layer conv8_2_mbox_conf_bdc2018_new_perm_bdc2018_new
I1110 19:02:30.119725 20135 net.cpp:100] Creating Layer conv8_2_mbox_conf_bdc2018_new_perm_bdc2018_new
I1110 19:02:30.119730 20135 net.cpp:434] conv8_2_mbox_conf_bdc2018_new_perm_bdc2018_new <- conv8_2_mbox_conf_bdc2018_new
I1110 19:02:30.119736 20135 net.cpp:408] conv8_2_mbox_conf_bdc2018_new_perm_bdc2018_new -> conv8_2_mbox_conf_bdc2018_new_perm_bdc2018_new
I1110 19:02:30.119859 20135 net.cpp:150] Setting up conv8_2_mbox_conf_bdc2018_new_perm_bdc2018_new
I1110 19:02:30.119882 20135 net.cpp:157] Top shape: 2 14 14 36 (14112)
I1110 19:02:30.119886 20135 net.cpp:165] Memory required for data: 5756522304
I1110 19:02:30.119889 20135 layer_factory.hpp:77] Creating layer conv8_2_mbox_conf_bdc2018_new_flat_bdc2018_new
I1110 19:02:30.119897 20135 net.cpp:100] Creating Layer conv8_2_mbox_conf_bdc2018_new_flat_bdc2018_new
I1110 19:02:30.119901 20135 net.cpp:434] conv8_2_mbox_conf_bdc2018_new_flat_bdc2018_new <- conv8_2_mbox_conf_bdc2018_new_perm_bdc2018_new
I1110 19:02:30.119909 20135 net.cpp:408] conv8_2_mbox_conf_bdc2018_new_flat_bdc2018_new -> conv8_2_mbox_conf_bdc2018_new_flat_bdc2018_new
I1110 19:02:30.119938 20135 net.cpp:150] Setting up conv8_2_mbox_conf_bdc2018_new_flat_bdc2018_new
I1110 19:02:30.119946 20135 net.cpp:157] Top shape: 2 7056 (14112)
I1110 19:02:30.119948 20135 net.cpp:165] Memory required for data: 5756578752
I1110 19:02:30.119951 20135 layer_factory.hpp:77] Creating layer conv8_2_mbox_priorbox
I1110 19:02:30.119959 20135 net.cpp:100] Creating Layer conv8_2_mbox_priorbox
I1110 19:02:30.119963 20135 net.cpp:434] conv8_2_mbox_priorbox <- conv8_2_conv8_2_relu_0_split_3
I1110 19:02:30.119969 20135 net.cpp:434] conv8_2_mbox_priorbox <- data_data_0_split_5
I1110 19:02:30.119976 20135 net.cpp:408] conv8_2_mbox_priorbox -> conv8_2_mbox_priorbox
I1110 19:02:30.120005 20135 net.cpp:150] Setting up conv8_2_mbox_priorbox
I1110 19:02:30.120012 20135 net.cpp:157] Top shape: 1 2 3136 (6272)
I1110 19:02:30.120015 20135 net.cpp:165] Memory required for data: 5756603840
I1110 19:02:30.120018 20135 layer_factory.hpp:77] Creating layer conv9_2_mbox_loc_bdc2018
I1110 19:02:30.120030 20135 net.cpp:100] Creating Layer conv9_2_mbox_loc_bdc2018
I1110 19:02:30.120036 20135 net.cpp:434] conv9_2_mbox_loc_bdc2018 <- conv9_2_conv9_2_relu_0_split_0
I1110 19:02:30.120043 20135 net.cpp:408] conv9_2_mbox_loc_bdc2018 -> conv9_2_mbox_loc_bdc2018
I1110 19:02:30.121572 20135 net.cpp:150] Setting up conv9_2_mbox_loc_bdc2018
I1110 19:02:30.121587 20135 net.cpp:157] Top shape: 2 16 12 12 (4608)
I1110 19:02:30.121603 20135 net.cpp:165] Memory required for data: 5756622272
I1110 19:02:30.121609 20135 layer_factory.hpp:77] Creating layer conv9_2_mbox_loc_bdc2018_perm_bdc2018
I1110 19:02:30.121616 20135 net.cpp:100] Creating Layer conv9_2_mbox_loc_bdc2018_perm_bdc2018
I1110 19:02:30.121620 20135 net.cpp:434] conv9_2_mbox_loc_bdc2018_perm_bdc2018 <- conv9_2_mbox_loc_bdc2018
I1110 19:02:30.121630 20135 net.cpp:408] conv9_2_mbox_loc_bdc2018_perm_bdc2018 -> conv9_2_mbox_loc_bdc2018_perm_bdc2018
I1110 19:02:30.121758 20135 net.cpp:150] Setting up conv9_2_mbox_loc_bdc2018_perm_bdc2018
I1110 19:02:30.121767 20135 net.cpp:157] Top shape: 2 12 12 16 (4608)
I1110 19:02:30.121770 20135 net.cpp:165] Memory required for data: 5756640704
I1110 19:02:30.121773 20135 layer_factory.hpp:77] Creating layer conv9_2_mbox_loc_bdc2018_flat_bdc2018
I1110 19:02:30.121781 20135 net.cpp:100] Creating Layer conv9_2_mbox_loc_bdc2018_flat_bdc2018
I1110 19:02:30.121784 20135 net.cpp:434] conv9_2_mbox_loc_bdc2018_flat_bdc2018 <- conv9_2_mbox_loc_bdc2018_perm_bdc2018
I1110 19:02:30.121790 20135 net.cpp:408] conv9_2_mbox_loc_bdc2018_flat_bdc2018 -> conv9_2_mbox_loc_bdc2018_flat_bdc2018
I1110 19:02:30.121819 20135 net.cpp:150] Setting up conv9_2_mbox_loc_bdc2018_flat_bdc2018
I1110 19:02:30.121826 20135 net.cpp:157] Top shape: 2 2304 (4608)
I1110 19:02:30.121829 20135 net.cpp:165] Memory required for data: 5756659136
I1110 19:02:30.121832 20135 layer_factory.hpp:77] Creating layer conv9_2_mbox_conf_bdc2018_new
I1110 19:02:30.121842 20135 net.cpp:100] Creating Layer conv9_2_mbox_conf_bdc2018_new
I1110 19:02:30.121846 20135 net.cpp:434] conv9_2_mbox_conf_bdc2018_new <- conv9_2_conv9_2_relu_0_split_1
I1110 19:02:30.121855 20135 net.cpp:408] conv9_2_mbox_conf_bdc2018_new -> conv9_2_mbox_conf_bdc2018_new
I1110 19:02:30.123623 20135 net.cpp:150] Setting up conv9_2_mbox_conf_bdc2018_new
I1110 19:02:30.123652 20135 net.cpp:157] Top shape: 2 36 12 12 (10368)
I1110 19:02:30.123657 20135 net.cpp:165] Memory required for data: 5756700608
I1110 19:02:30.123675 20135 layer_factory.hpp:77] Creating layer conv9_2_mbox_conf_bdc2018_new_perm_bdc2018_new
I1110 19:02:30.123682 20135 net.cpp:100] Creating Layer conv9_2_mbox_conf_bdc2018_new_perm_bdc2018_new
I1110 19:02:30.123687 20135 net.cpp:434] conv9_2_mbox_conf_bdc2018_new_perm_bdc2018_new <- conv9_2_mbox_conf_bdc2018_new
I1110 19:02:30.123694 20135 net.cpp:408] conv9_2_mbox_conf_bdc2018_new_perm_bdc2018_new -> conv9_2_mbox_conf_bdc2018_new_perm_bdc2018_new
I1110 19:02:30.123821 20135 net.cpp:150] Setting up conv9_2_mbox_conf_bdc2018_new_perm_bdc2018_new
I1110 19:02:30.123828 20135 net.cpp:157] Top shape: 2 12 12 36 (10368)
I1110 19:02:30.123831 20135 net.cpp:165] Memory required for data: 5756742080
I1110 19:02:30.123836 20135 layer_factory.hpp:77] Creating layer conv9_2_mbox_conf_bdc2018_new_flat_bdc2018_new
I1110 19:02:30.123841 20135 net.cpp:100] Creating Layer conv9_2_mbox_conf_bdc2018_new_flat_bdc2018_new
I1110 19:02:30.123844 20135 net.cpp:434] conv9_2_mbox_conf_bdc2018_new_flat_bdc2018_new <- conv9_2_mbox_conf_bdc2018_new_perm_bdc2018_new
I1110 19:02:30.123852 20135 net.cpp:408] conv9_2_mbox_conf_bdc2018_new_flat_bdc2018_new -> conv9_2_mbox_conf_bdc2018_new_flat_bdc2018_new
I1110 19:02:30.123880 20135 net.cpp:150] Setting up conv9_2_mbox_conf_bdc2018_new_flat_bdc2018_new
I1110 19:02:30.123888 20135 net.cpp:157] Top shape: 2 5184 (10368)
I1110 19:02:30.123890 20135 net.cpp:165] Memory required for data: 5756783552
I1110 19:02:30.123893 20135 layer_factory.hpp:77] Creating layer conv9_2_mbox_priorbox
I1110 19:02:30.123899 20135 net.cpp:100] Creating Layer conv9_2_mbox_priorbox
I1110 19:02:30.123903 20135 net.cpp:434] conv9_2_mbox_priorbox <- conv9_2_conv9_2_relu_0_split_2
I1110 19:02:30.123908 20135 net.cpp:434] conv9_2_mbox_priorbox <- data_data_0_split_6
I1110 19:02:30.123914 20135 net.cpp:408] conv9_2_mbox_priorbox -> conv9_2_mbox_priorbox
I1110 19:02:30.123945 20135 net.cpp:150] Setting up conv9_2_mbox_priorbox
I1110 19:02:30.123953 20135 net.cpp:157] Top shape: 1 2 2304 (4608)
I1110 19:02:30.123955 20135 net.cpp:165] Memory required for data: 5756801984
I1110 19:02:30.123958 20135 layer_factory.hpp:77] Creating layer mbox_loc
I1110 19:02:30.123965 20135 net.cpp:100] Creating Layer mbox_loc
I1110 19:02:30.123970 20135 net.cpp:434] mbox_loc <- conv4_3_norm_mbox_loc_bdc2018_flat_bdc2018
I1110 19:02:30.123973 20135 net.cpp:434] mbox_loc <- fc7_mbox_loc_bdc2018_flat_bdc2018
I1110 19:02:30.123978 20135 net.cpp:434] mbox_loc <- conv6_2_mbox_loc_bdc2018_flat_bdc2018
I1110 19:02:30.123982 20135 net.cpp:434] mbox_loc <- conv7_2_mbox_loc_bdc2018_flat_bdc2018
I1110 19:02:30.123986 20135 net.cpp:434] mbox_loc <- conv8_2_mbox_loc_bdc2018_flat_bdc2018
I1110 19:02:30.123989 20135 net.cpp:434] mbox_loc <- conv9_2_mbox_loc_bdc2018_flat_bdc2018
I1110 19:02:30.123997 20135 net.cpp:408] mbox_loc -> mbox_loc
I1110 19:02:30.124029 20135 net.cpp:150] Setting up mbox_loc
I1110 19:02:30.124037 20135 net.cpp:157] Top shape: 2 396608 (793216)
I1110 19:02:30.124039 20135 net.cpp:165] Memory required for data: 5759974848
I1110 19:02:30.124042 20135 layer_factory.hpp:77] Creating layer mbox_conf
I1110 19:02:30.124047 20135 net.cpp:100] Creating Layer mbox_conf
I1110 19:02:30.124052 20135 net.cpp:434] mbox_conf <- conv4_3_norm_mbox_conf_bdc2018_new_flat_bdc2018_new
I1110 19:02:30.124056 20135 net.cpp:434] mbox_conf <- fc7_mbox_conf_bdc2018_new_flat_bdc2018_new
I1110 19:02:30.124060 20135 net.cpp:434] mbox_conf <- conv6_2_mbox_conf_bdc2018_new_flat_bdc2018_new
I1110 19:02:30.124064 20135 net.cpp:434] mbox_conf <- conv7_2_mbox_conf_bdc2018_new_flat_bdc2018_new
I1110 19:02:30.124068 20135 net.cpp:434] mbox_conf <- conv8_2_mbox_conf_bdc2018_new_flat_bdc2018_new
I1110 19:02:30.124073 20135 net.cpp:434] mbox_conf <- conv9_2_mbox_conf_bdc2018_new_flat_bdc2018_new
I1110 19:02:30.124078 20135 net.cpp:408] mbox_conf -> mbox_conf
I1110 19:02:30.124106 20135 net.cpp:150] Setting up mbox_conf
I1110 19:02:30.124121 20135 net.cpp:157] Top shape: 2 892368 (1784736)
I1110 19:02:30.124125 20135 net.cpp:165] Memory required for data: 5767113792
I1110 19:02:30.124137 20135 layer_factory.hpp:77] Creating layer mbox_priorbox
I1110 19:02:30.124143 20135 net.cpp:100] Creating Layer mbox_priorbox
I1110 19:02:30.124147 20135 net.cpp:434] mbox_priorbox <- conv4_3_norm_mbox_priorbox
I1110 19:02:30.124152 20135 net.cpp:434] mbox_priorbox <- fc7_mbox_priorbox
I1110 19:02:30.124156 20135 net.cpp:434] mbox_priorbox <- conv6_2_mbox_priorbox
I1110 19:02:30.124161 20135 net.cpp:434] mbox_priorbox <- conv7_2_mbox_priorbox
I1110 19:02:30.124164 20135 net.cpp:434] mbox_priorbox <- conv8_2_mbox_priorbox
I1110 19:02:30.124167 20135 net.cpp:434] mbox_priorbox <- conv9_2_mbox_priorbox
I1110 19:02:30.124172 20135 net.cpp:408] mbox_priorbox -> mbox_priorbox
I1110 19:02:30.124205 20135 net.cpp:150] Setting up mbox_priorbox
I1110 19:02:30.124212 20135 net.cpp:157] Top shape: 1 2 396608 (793216)
I1110 19:02:30.124215 20135 net.cpp:165] Memory required for data: 5770286656
I1110 19:02:30.124218 20135 layer_factory.hpp:77] Creating layer mbox_loss
I1110 19:02:30.124229 20135 net.cpp:100] Creating Layer mbox_loss
I1110 19:02:30.124233 20135 net.cpp:434] mbox_loss <- mbox_loc
I1110 19:02:30.124238 20135 net.cpp:434] mbox_loss <- mbox_conf
I1110 19:02:30.124241 20135 net.cpp:434] mbox_loss <- mbox_priorbox
…
layer {
  name: "data"
  type: "AnnotatedData"
  top: "data"
  top: "label"
  include {
    phase: TEST
  }
  transform_param {
    crop_size: 1024
    mean_value: 104
    mean_value: 117
    mean_value: 123
    resize_param {
      prob: 1
      resize_mode: WARP
      height: 1074
      width: 1074
      interp_mode: LINEAR
    }
  }
  data_param {
    source: "examples/bdc2018/bdc2018_val_name_lmdb"
    batch_size: 2
    backend: LMDB
  }
  annotated_data_param {
    batch_sampler {
    }
    label_map_file: "data/bdc2018/labelmap_bdc.prototxt"
  }
}
layer {
  name: "conv1_1"
  type: "Convolution"
  bottom: "data"
  top: "conv1_1"
  param {
    lr_mult: 1
    decay_mult: 1
  }
  param {
    lr_mult: 2
    decay_mult: 0
  }
  convolution_param {
    num_output: 64
    pad: 1
    kernel_size: 3
    weight_filler {
      type: "xavier"
    }
    bias_filler {
      type: "constant"
      value: 0
    }
  }
}
layer {
  name: "relu1_1"
  type: "ReLU"
  bottom: "conv1_1"
  top: "conv1_1"
}
layer {
  name: "conv1_2"
  type: "Convolution"
  bottom: "conv1_1"
  top: "conv1_2"
  param {
    lr_mult: 1
    decay_mult: 1
  }
  param {
    lr_mult: 2
    decay_mult: 0
  }
  convolution_param {
    num_output: 64
    pad: 1
    kernel_size: 3
    weight_filler {
      type: "xavier"
    }
    bias_filler {
      type: "constant"
      value: 0
    }
  }
}
layer {
  name: "relu1_2"
  type: "ReLU"
  bottom: "conv1_2"
  top: "conv1_2"
}
layer {
  name: "pool1"
  type: "Pooling"
  bottom: "conv1_2"
  top: "pool1"
  pooling_param {
    pool: MAX
    kernel_size: 2
    stride: 2
  }
}
layer {
  name: "conv2_1"
  type: "Convolution"
  bottom: "pool1"
  top: "conv2_1"
  param {
    lr_mult: 1
    decay_mult: 1
  }
  param {
    lr_mult: 2
    decay_mult: 0
  }
  convolution_param {
    num_output: 128
    pad: 1
    kernel_size: 3
    weight_filler {
      type: "xavier"
    }
    bias_filler {
      type: "constant"
      value: 0
    }
  }
}
layer {
  name: "relu2_1"
  type: "ReLU"
  bottom: "conv2_1"
  top: "conv2_1"
}
layer {
  name: "conv2_2"
  type: "Convolution"
  bottom: "conv2_1"
  top: "conv2_2"
  param {
    lr_mult: 1
    decay_mult: 1
  }
  param {
    lr_mult: 2
    decay_mult: 0
  }
  convolution_param {
    num_output: 128
    pad: 1
    kernel_size: 3
    weight_filler {
      type: "xavier"
    }
    bias_filler {
      type: "constant"
      value: 0
    }
  }
}
layer {
  name: "relu2_2"
  type: "ReLU"
  bottom: "conv2_2"
  top: "conv2_2"
}
layer {
  name: "pool2"
  type: "Pooling"
  bottom: "conv2_2"
  top: "pool2"
  pooling_param {
    pool: MAX
    kernel_size: 2
    stride: 2
  }
}
layer {
  name: "conv3_1"
  type: "Convolution"
  bottom: "pool2"
  top: "conv3_1"
  param {
    lr_mult: 1
    decay_mult: 1
  }
  param {
    lr_mult: 2
    decay_mult: 0
  }
  convolution_param {
    num_output: 256
    pad: 1
    kernel_size: 3
    weight_filler {
      type: "xavier"
    }
    bias_filler {
      type: "constant"
      value: 0
    }
  }
}
layer {
  name: "relu3_1"
  type: "ReLU"
  bottom: "conv3_1"
  top: "conv3_1"
}
layer {
  name: "conv3_2"
  type: "Convolution"
  bottom: "conv3_1"
  top: "conv3_2"
  param {
    lr_mult: 1
    decay_mult: 1
  }
  param {
    lr_mult: 2
    decay_mult: 0
  }
  convolution_param {
    num_output: 256
    pad: 1
    kernel_size: 3
    weight_filler {
      type: "xavier"
    }
    bias_filler {
      type: "constant"
      value: 0
    }
  }
}
layer {
  name: "relu3_2"
  type: "ReLU"
  bottom: "conv3_2"
  top: "conv3_2"
}
layer {
  name: "conv3_3"
  type: "Convolution"
  bottom: "conv3_2"
  top: "conv3_3"
  param {
    lr_mult: 1
    decay_mult: 1
  }
  param {
    lr_mult: 2
    decay_mult: 0
  }
  convolution_param {
    num_output: 256
    pad: 1
    kernel_size: 3
    weight_filler {
      type: "xavier"
    }
    bias_filler {
      type: "constant"
      value: 0
    }
  }
}
layer {
  name: "relu3_3"
  type: "ReLU"
  bottom: "conv3_3"
  top: "conv3_3"
}
layer {
  name: "pool3"
  type: "Pooling"
  bottom: "conv3_3"
  top: "pool3"
  pooling_param {
    pool: MAX
    kernel_size: 2
    stride: 2
  }
}
layer {
  name: "conv4_1"
  type: "Convolution"
  bottom: "pool3"
  top: "conv4_1"
  param {
    lr_mult: 1
    decay_mult: 1
  }
  param {
    lr_mult: 2
    decay_mult: 0
  }
  convolution_param {
    num_output: 512
    pad: 1
    kernel_size: 3
    weight_filler {
      type: "xavier"
    }
    bias_filler {
      type: "constant"
      value: 0
    }
  }
}
layer {
  name: "relu4_1"
  type: "ReLU"
  bottom: "conv4_1"
  top: "conv4_1"
}
layer {
  name: "conv4_2"
  type: "Convolution"
  bottom: "conv4_1"
  top: "conv4_2"
  param {
    lr_mult: 1
    decay_mult: 1
  }
  param {
    lr_mult: 2
    decay_mult: 0
  }
  convolution_param {
    num_output: 512
    pad: 1
    kernel_size: 3
    weight_filler {
      type: "xavier"
    }
    bias_filler {
      type: "constant"
      value: 0
    }
  }
}
layer {
  name: "relu4_2"
  type: "ReLU"
  bottom: "conv4_2"
  top: "conv4_2"
}
layer {
  name: "conv4_3"
  type: "Convolution"
  bottom: "conv4_2"
  top: "conv4_3"
  param {
    lr_mult: 1
    decay_mult: 1
  }
  param {
    lr_mult: 2
    decay_mult: 0
  }
  convolution_param {
    num_output: 512
    pad: 1
    kernel_size: 3
    weight_filler {
      type: "xavier"
    }
    bias_filler {
      type: "constant"
      value: 0
    }
  }
}
layer {
  name: "relu4_3"
  type: "ReLU"
  bottom: "conv4_3"
  top: "conv4_3"
}
layer {
  name: "pool4"
  type: "Pooling"
  bottom: "conv4_3"
  top: "pool4"
  pooling_param {
    pool: MAX
    kernel_size: 2
    stride: 2
  }
}
layer {
  name: "conv5_1"
  type: "Convolution"
  bottom: "pool4"
  top: "conv5_1"
  param {
    lr_mult: 1
    decay_mult: 1
  }
  param {
    lr_mult: 2
    decay_mult: 0
  }
  convolution_param {
    num_output: 512
    pad: 1
    kernel_size: 3
    weight_filler {
      type: "xavier"
    }
    bias_filler {
      type: "constant"
      value: 0
    }
    dilation: 1
  }
}
layer {
  name: "relu5_1"
  type: "ReLU"
  bottom: "conv5_1"
  top: "conv5_1"
}
layer {
  name: "conv5_2"
  type: "Convolution"
  bottom: "conv5_1"
  top: "conv5_2"
  param {
    lr_mult: 1
    decay_mult: 1
  }
  param {
    lr_mult: 2
    decay_mult: 0
  }
  convolution_param {
    num_output: 512
    pad: 1
    kernel_size: 3
    weight_filler {
      type: "xavier"
    }
    bias_filler {
      type: "constant"
      value: 0
    }
    dilation: 1
  }
}
layer {
  name: "relu5_2"
  type: "ReLU"
  bottom: "conv5_2"
  top: "conv5_2"
}
layer {
  name: "conv5_3"
  type: "Convolution"
  bottom: "conv5_2"
  top: "conv5_3"
  param {
    lr_mult: 1
    decay_mult: 1
  }
  param {
    lr_mult: 2
    decay_mult: 0
  }
  convolution_param {
    num_output: 512
    pad: 1
    kernel_size: 3
    weight_filler {
      type: "xavier"
    }
    bias_filler {
      type: "constant"
      value: 0
    }
    dilation: 1
  }
}
layer {
  name: "relu5_3"
  type: "ReLU"
  bottom: "conv5_3"
  top: "conv5_3"
}
layer {
  name: "pool5"
  type: "Pooling"
  bottom: "conv5_3"
  top: "pool5"
  pooling_param {
    pool: MAX
    kernel_size: 3
    stride: 1
    pad: 1
  }
}
layer {
  name: "fc6"
  type: "Convolution"
  bottom: "pool5"
  top: "fc6"
  param {
    lr_mult: 1
    decay_mult: 1
  }
  param {
    lr_mult: 2
    decay_mult: 0
  }
  convolution_param {
    num_output: 1024
    pad: 6
    kernel_size: 3
    weight_filler {
      type: "xavier"
    }
    bias_filler {
      type: "constant"
      value: 0
    }
    dilation: 6
  }
}
layer {
  name: "relu6"
  type: "ReLU"
  bottom: "fc6"
  top: "fc6"
}
layer {
  name: "fc7"
  type: "Convolution"
  bottom: "fc6"
  top: "fc7"
  param {
    lr_mult: 1
    decay_mult: 1
  }
  param {
    lr_mult: 2
    decay_mult: 0
  }
  convolution_param {
    num_output: 1024
    kernel_size: 1
    weight_filler {
      type: "xavier"
    }
    bias_filler {
      type: "constant"
      value: 0
    }
  }
}
layer {
  name: "relu7"
  type: "ReLU"
  bottom: "fc7"
  top: "fc7"
}
layer {
  name: "conv6_1"
  type: "Convolution"
  bottom: "fc7"
  top: "conv6_1"
  param {
    lr_mult: 1
    decay_mult: 1
  }
  param {
    lr_mult: 2
    decay_mult: 0
  }
  convolution_param {
    num_output: 256
    pad: 0
    kernel_size: 1
    stride: 1
    weight_filler {
      type: "xavier"
    }
    bias_filler {
      type: "constant"
      value: 0
    }
  }
}
layer {
  name: "conv6_1_relu"
  type: "ReLU"
  bottom: "conv6_1"
  top: "conv6_1"
}
layer {
  name: "conv6_2"
  type: "Convolution"
  bottom: "conv6_1"
  top: "conv6_2"
  param {
    lr_mult: 1
    decay_mult: 1
  }
  param {
    lr_mult: 2
    decay_mult: 0
  }
  convolution_param {
    num_output: 512
    pad: 1
    kernel_size: 3
    stride: 2
    weight_filler {
      type: "xavier"
    }
    bias_filler {
      type: "constant"
      value: 0
    }
  }
}
layer {
  name: "conv6_2_relu"
  type: "ReLU"
  bottom: "conv6_2"
  top: "conv6_2"
}
layer {
  name: "conv7_1"
  type: "Convolution"
  bottom: "conv6_2"
  top: "conv7_1"
  param {
    lr_mult: 1
    decay_mult: 1
  }
  param {
    lr_mult: 2
    decay_mult: 0
  }
  convolution_param {
    num_output: 128
    pad: 0
    kernel_size: 1
    stride: 1
    weight_filler {
      type: "xavier"
    }
    bias_filler {
      type: "constant"
      value: 0
    }
  }
}
layer {
  name: "conv7_1_relu"
  type: "ReLU"
  bottom: "conv7_1"
  top: "conv7_1"
}
layer {
  name: "conv7_2"
  type: "Convolution"
  bottom: "conv7_1"
  top: "conv7_2"
  param {
    lr_mult: 1
    decay_mult: 1
  }
  param {
    lr_mult: 2
    decay_mult: 0
  }
  convolution_param {
    num_output: 256
    pad: 1
    kernel_size: 3
    stride: 2
    weight_filler {
      type: "xavier"
    }
    bias_filler {
      type: "constant"
      value: 0
    }
  }
}
layer {
  name: "conv7_2_relu"
  type: "ReLU"
  bottom: "conv7_2"
  top: "conv7_2"
}
layer {
  name: "conv8_1"
  type: "Convolution"
  bottom: "conv7_2"
  top: "conv8_1"
  param {
    lr_mult: 1
    decay_mult: 1
  }
  param {
    lr_mult: 2
    decay_mult: 0
  }
  convolution_param {
    num_output: 128
    pad: 0
    kernel_size: 1
    stride: 1
    weight_filler {
      type: "xavier"
    }
    bias_filler {
      type: "constant"
      value: 0
    }
  }
}
layer {
  name: "conv8_1_relu"
  type: "ReLU"
  bottom: "conv8_1"
  top: "conv8_1"
}
layer {
  name: "conv8_2"
  type: "Convolution"
  bottom: "conv8_1"
  top: "conv8_2"
  param {
    lr_mult: 1
    decay_mult: 1
  }
  param {
    lr_mult: 2
    decay_mult: 0
  }
  convolution_param {
    num_output: 256
    pad: 0
    kernel_size: 3
    stride: 1
    weight_filler {
      type: "xavier"
    }
    bias_filler {
      type: "constant"
      value: 0
    }
  }
}
layer {
  name: "conv8_2_relu"
  type: "ReLU"
  bottom: "conv8_2"
  top: "conv8_2"
}
layer {
  name: "conv9_1"
  type: "Convolution"
  bottom: "conv8_2"
  top: "conv9_1"
  param {
    lr_mult: 1
    decay_mult: 1
  }
  param {
    lr_mult: 2
    decay_mult: 0
  }
  convolution_param {
    num_output: 128
    pad: 0
    kernel_size: 1
    stride: 1
    weight_filler {
      type: "xavier"
    }
    bias_filler {
      type: "constant"
      value: 0
    }
  }
}
layer {
  name: "conv9_1_relu"
  type: "ReLU"
  bottom: "conv9_1"
  top: "conv9_1"
}
layer {
  name: "conv9_2"
  type: "Convolution"
  bottom: "conv9_1"
  top: "conv9_2"
  param {
    lr_mult: 1
    decay_mult: 1
  }
  param {
    lr_mult: 2
    decay_mult: 0
  }
  convolution_param {
    num_output: 256
    pad: 0
    kernel_size: 3
    stride: 1
    weight_filler {
      type: "xavier"
    }
    bias_filler {
      type: "constant"
      value: 0
    }
  }
}
layer {
  name: "conv9_2_relu"
  type: "ReLU"
  bottom: "conv9_2"
  top: "conv9_2"
}
layer {
  name: "conv4_3_norm"
  type: "Normalize"
  bottom: "conv4_3"
  top: "conv4_3_norm"
  norm_param {
    across_spatial: false
    scale_filler {
      type: "constant"
      value: 20
    }
    channel_shared: false
  }
}
layer {
  name: "conv4_3_norm_mbox_loc_bdc2018"
  type: "Convolution"
  bottom: "conv4_3_norm"
  top: "conv4_3_norm_mbox_loc_bdc2018"
  param {
    lr_mult: 1
    decay_mult: 1
  }
  param {
    lr_mult: 2
    decay_mult: 0
  }
  convolution_param {
    num_output: 16
    pad: 1
    kernel_size: 3
    stride: 1
    weight_filler {
      type: "xavier"
    }
    bias_filler {
      type: "constant"
      value: 0
    }
  }
}
layer {
  name: "conv4_3_norm_mbox_loc_bdc2018_perm_bdc2018"
  type: "Permute"
  bottom: "conv4_3_norm_mbox_loc_bdc2018"
  top: "conv4_3_norm_mbox_loc_bdc2018_perm_bdc2018"
  permute_param {
    order: 0
    order: 2
    order: 3
    order: 1
  }
}
layer {
  name: "conv4_3_norm_mbox_loc_bdc2018_flat_bdc2018"
  type: "Flatten"
  bottom: "conv4_3_norm_mbox_loc_bdc2018_perm_bdc2018"
  top: "conv4_3_norm_mbox_loc_bdc2018_flat_bdc2018"
  flatten_param {
    axis: 1
  }
}
layer {
  name: "conv4_3_norm_mbox_conf_bdc2018_new"
  type: "Convolution"
  bottom: "conv4_3_norm"
  top: "conv4_3_norm_mbox_conf_bdc2018_new"
  param {
    lr_mult: 1
    decay_mult: 1
  }
  param {
    lr_mult: 2
    decay_mult: 0
  }
  convolution_param {
    num_output: 36
    pad: 1
    kernel_size: 3
    stride: 1
    weight_filler {
      type: "xavier"
    }
    bias_filler {
      type: "constant"
      value: 0
    }
  }
}
layer {
  name: "conv4_3_norm_mbox_conf_bdc2018_new_perm_bdc2018_new"
  type: "Permute"
  bottom: "conv4_3_norm_mbox_conf_bdc2018_new"
  top: "conv4_3_norm_mbox_conf_bdc2018_new_perm_bdc2018_new"
  permute_param {
    order: 0
    order: 2
    order: 3
    order: 1
  }
}
layer {
  name: "conv4_3_norm_mbox_conf_bdc2018_new_flat_bdc2018_new"
  type: "Flatten"
  bottom: "conv4_3_norm_mbox_conf_bdc2018_new_perm_bdc2018_new"
  top: "conv4_3_norm_mbox_conf_bdc2018_new_flat_bdc2018_new"
  flatten_param {
    axis: 1
  }
}
layer {
  name: "conv4_3_norm_mbox_priorbox"
  type: "PriorBox"
  bottom: "conv4_3_norm"
  bottom: "data"
  top: "conv4_3_norm_mbox_priorbox"
  prior_box_param {
    min_size: 102.4
    max_size: 204.8
    aspect_ratio: 2
    flip: true
    clip: false
    variance: 0.1
    variance: 0.1
    variance: 0.2
    variance: 0.2
    step: 8
    offset: 0.5
  }
}
layer {
  name: "fc7_mbox_loc_bdc2018"
  type: "Convolution"
  bottom: "fc7"
  top: "fc7_mbox_loc_bdc2018"
  param {
    lr_mult: 1
    decay_mult: 1
  }
  param {
    lr_mult: 2
    decay_mult: 0
  }
  convolution_param {
    num_output: 24
    pad: 1
    kernel_size: 3
    stride: 1
    weight_filler {
      type: "xavier"
    }
    bias_filler {
      type: "constant"
      value: 0
    }
  }
}
layer {
  name: "fc7_mbox_loc_bdc2018_perm_bdc2018"
  type: "Permute"
  bottom: "fc7_mbox_loc_bdc2018"
  top: "fc7_mbox_loc_bdc2018_perm_bdc2018"
  permute_param {
    order: 0
    order: 2
    order: 3
    order: 1
  }
}
layer {
  name: "fc7_mbox_loc_bdc2018_flat_bdc2018"
  type: "Flatten"
  bottom: "fc7_mbox_loc_bdc2018_perm_bdc2018"
  top: "fc7_mbox_loc_bdc2018_flat_bdc2018"
  flatten_param {
    axis: 1
  }
}
layer {
  name: "fc7_mbox_conf_bdc2018_new"
  type: "Convolution"
  bottom: "fc7"
  top: "fc7_mbox_conf_bdc2018_new"
  param {
    lr_mult: 1
    decay_mult: 1
  }
  param {
    lr_mult: 2
    decay_mult: 0
  }
  convolution_param {
    num_output: 54
    pad: 1
    kernel_size: 3
    stride: 1
    weight_filler {
      type: "xavier"
    }
    bias_filler {
      type: "constant"
      value: 0
    }
  }
}
layer {
  name: "fc7_mbox_conf_bdc2018_new_perm_bdc2018_new"
  type: "Permute"
  bottom: "fc7_mbox_conf_bdc2018_new"
  top: "fc7_mbox_conf_bdc2018_new_perm_bdc2018_new"
  permute_param {
    order: 0
    order: 2
    order: 3
    order: 1
  }
}
layer {
  name: "fc7_mbox_conf_bdc2018_new_flat_bdc2018_new"
  type: "Flatten"
  bottom: "fc7_mbox_conf_bdc2018_new_perm_bdc2018_new"
  top: "fc7_mbox_conf_bdc2018_new_flat_bdc2018_new"
  flatten_param {
    axis: 1
  }
}
layer {
  name: "fc7_mbox_priorbox"
  type: "PriorBox"
  bottom: "fc7"
  bottom: "data"
  top: "fc7_mbox_priorbox"
  prior_box_param {
    min_size: 204.8
    max_size: 378.88
    aspect_ratio: 2
    aspect_ratio: 3
    flip: true
    clip: false
    variance: 0.1
    variance: 0.1
    variance: 0.2
    variance: 0.2
    step: 16
    offset: 0.5
  }
}
layer {
  name: "conv6_2_mbox_loc_bdc2018"
  type: "Convolution"
  bottom: "conv6_2"
  top: "conv6_2_mbox_loc_bdc2018"
  param {
    lr_mult: 1
    decay_mult: 1
  }
  param {
    lr_mult: 2
    decay_mult: 0
  }
  convolution_param {
    num_output: 24
    pad: 1
    kernel_size: 3
    stride: 1
    weight_filler {
      type: "xavier"
    }
    bias_filler {
      type: "constant"
      value: 0
    }
  }
}
layer {
  name: "conv6_2_mbox_loc_bdc2018_perm_bdc2018"
  type: "Permute"
  bottom: "conv6_2_mbox_loc_bdc2018"
  top: "conv6_2_mbox_loc_bdc2018_perm_bdc2018"
  permute_param {
    order: 0
    order: 2
    order: 3
    order: 1
  }
}
layer {
  name: "conv6_2_mbox_loc_bdc2018_flat_bdc2018"
  type: "Flatten"
  bottom: "conv6_2_mbox_loc_bdc2018_perm_bdc2018"
  top: "conv6_2_mbox_loc_bdc2018_flat_bdc2018"
  flatten_param {
    axis: 1
  }
}
layer {
  name: "conv6_2_mbox_conf_bdc2018_new"
  type: "Convolution"
  bottom: "conv6_2"
  top: "conv6_2_mbox_conf_bdc2018_new"
  param {
    lr_mult: 1
    decay_mult: 1
  }
  param {
    lr_mult: 2
    decay_mult: 0
  }
  convolution_param {
    num_output: 54
    pad: 1
    kernel_size: 3
    stride: 1
    weight_filler {
      type: "xavier"
    }
    bias_filler {
      type: "constant"
      value: 0
    }
  }
}
layer {
  name: "conv6_2_mbox_conf_bdc2018_new_perm_bdc2018_new"
  type: "Permute"
  bottom: "conv6_2_mbox_conf_bdc2018_new"
  top: "conv6_2_mbox_conf_bdc2018_new_perm_bdc2018_new"
  permute_param {
    order: 0
    order: 2
    order: 3
    order: 1
  }
}
layer {
  name: "conv6_2_mbox_conf_bdc2018_new_flat_bdc2018_new"
  type: "Flatten"
  bottom: "conv6_2_mbox_conf_bdc2018_new_perm_bdc2018_new"
  top: "conv6_2_mbox_conf_bdc2018_new_flat_bdc2018_new"
  flatten_param {
    axis: 1
  }
}
layer {
  name: "conv6_2_mbox_priorbox"
  type: "PriorBox"
  bottom: "conv6_2"
  bottom: "data"
  top: "conv6_2_mbox_priorbox"
  prior_box_param {
    min_size: 378.88
    max_size: 552.96
    aspect_ratio: 2
    aspect_ratio: 3
    flip: true
    clip: false
    variance: 0.1
    variance: 0.1
    variance: 0.2
    variance: 0.2
    step: 32
    offset: 0.5
  }
}
layer {
  name: "conv7_2_mbox_loc_bdc2018"
  type: "Convolution"
  bottom: "conv7_2"
  top: "conv7_2_mbox_loc_bdc2018"
  param {
    lr_mult: 1
    decay_mult: 1
  }
  param {
    lr_mult: 2
    decay_mult: 0
  }
  convolution_param {
    num_output: 24
    pad: 1
    kernel_size: 3
    stride: 1
    weight_filler {
      type: "xavier"
    }
    bias_filler {
      type: "constant"
      value: 0
    }
  }
}
layer {
  name: "conv7_2_mbox_loc_bdc2018_perm_bdc2018"
  type: "Permute"
  bottom: "conv7_2_mbox_loc_bdc2018"
  top: "conv7_2_mbox_loc_bdc2018_perm_bdc2018"
  permute_param {
    order: 0
    order: 2
    order: 3
    order: 1
  }
}
layer {
  name: "conv7_2_mbox_loc_bdc2018_flat_bdc2018"
  type: "Flatten"
  bottom: "conv7_2_mbox_loc_bdc2018_perm_bdc2018"
  top: "conv7_2_mbox_loc_bdc2018_flat_bdc2018"
  flatten_param {
    axis: 1
  }
}
layer {
  name: "conv7_2_mbox_conf_bdc2018_new"
  type: "Convolution"
  bottom: "conv7_2"
  top: "conv7_2_mbox_conf_bdc2018_new"
  param {
    lr_mult: 1
    decay_mult: 1
  }
  param {
    lr_mult: 2
    decay_mult: 0
  }
  convolution_param {
    num_output: 54
    pad: 1
    kernel_size: 3
    stride: 1
    weight_filler {
      type: "xavier"
    }
    bias_filler {
      type: "constant"
      value: 0
    }
  }
}
layer {
  name: "conv7_2_mbox_conf_bdc2018_new_perm_bdc2018_new"
  type: "Permute"
  bottom: "conv7_2_mbox_conf_bdc2018_new"
  top: "conv7_2_mbox_conf_bdc2018_new_perm_bdc2018_new"
  permute_param {
    order: 0
    order: 2
    order: 3
    order: 1
  }
}
layer {
  name: "conv7_2_mbox_conf_bdc2018_new_flat_bdc2018_new"
  type: "Flatten"
  bottom: "conv7_2_mbox_conf_bdc2018_new_perm_bdc2018_new"
  top: "conv7_2_mbox_conf_bdc2018_new_flat_bdc2018_new"
  flatten_param {
    axis: 1
  }
}
layer {
  name: "conv7_2_mbox_priorbox"
  type: "PriorBox"
  bottom: "conv7_2"
  bottom: "data"
  top: "conv7_2_mbox_priorbox"
  prior_box_param {
    min_size: 552.96
    max_size: 727.04
    aspect_ratio: 2
    aspect_ratio: 3
    flip: true
    clip: false
    variance: 0.1
    variance: 0.1
    variance: 0.2
    variance: 0.2
    step: 64
    offset: 0.5
  }
}
layer {
  name: "conv8_2_mbox_loc_bdc2018"
  type: "Convolution"
  bottom: "conv8_2"
  top: "conv8_2_mbox_loc_bdc2018"
  param {
    lr_mult: 1
    decay_mult: 1
  }
  param {
    lr_mult: 2
    decay_mult: 0
  }
  convolution_param {
    num_output: 16
    pad: 1
    kernel_size: 3
    stride: 1
    weight_filler {
      type: "xavier"
    }
    bias_filler {
      type: "constant"
      value: 0
    }
  }
}
layer {
  name: "conv8_2_mbox_loc_bdc2018_perm_bdc2018"
  type: "Permute"
  bottom: "conv8_2_mbox_loc_bdc2018"
  top: "conv8_2_mbox_loc_bdc2018_perm_bdc2018"
  permute_param {
    order: 0
    order: 2
    order: 3
    order: 1
  }
}
layer {
  name: "conv8_2_mbox_loc_bdc2018_flat_bdc2018"
  type: "Flatten"
  bottom: "conv8_2_mbox_loc_bdc2018_perm_bdc2018"
  top: "conv8_2_mbox_loc_bdc2018_flat_bdc2018"
  flatten_param {
    axis: 1
  }
}
layer {
  name: "conv8_2_mbox_conf_bdc2018_new"
  type: "Convolution"
  bottom: "conv8_2"
  top: "conv8_2_mbox_conf_bdc2018_new"
  param {
    lr_mult: 1
    decay_mult: 1
  }
  param {
    lr_mult: 2
    decay_mult: 0
  }
  convolution_param {
    num_output: 36
    pad: 1
    kernel_size: 3
    stride: 1
    weight_filler {
      type: "xavier"
    }
    bias_filler {
      type: "constant"
      value: 0
    }
  }
}
layer {
  name: "conv8_2_mbox_conf_bdc2018_new_perm_bdc2018_new"
  type: "Permute"
  bottom: "conv8_2_mbox_conf_bdc2018_new"
  top: "conv8_2_mbox_conf_bdc2018_new_perm_bdc2018_new"
  permute_param {
    order: 0
    order: 2
    order: 3
    order: 1
  }
}
layer {
  name: "conv8_2_mbox_conf_bdc2018_new_flat_bdc2018_new"
  type: "Flatten"
  bottom: "conv8_2_mbox_conf_bdc2018_new_perm_bdc2018_new"
  top: "conv8_2_mbox_conf_bdc2018_new_flat_bdc2018_new"
  flatten_param {
    axis: 1
  }
}
layer {
  name: "conv8_2_mbox_priorbox"
  type: "PriorBox"
  bottom: "conv8_2"
  bottom: "data"
  top: "conv8_2_mbox_priorbox"
  prior_box_param {
    min_size: 727.04
    max_size: 901.12
    aspect_ratio: 2
    flip: true
    clip: false
    variance: 0.1
    variance: 0.1
    variance: 0.2
    variance: 0.2
    step: 100
    offset: 0.5
  }
}
layer {
  name: "conv9_2_mbox_loc_bdc2018"
  type: "Convolution"
  bottom: "conv9_2"
  top: "conv9_2_mbox_loc_bdc2018"
  param {
    lr_mult: 1
    decay_mult: 1
  }
  param {
    lr_mult: 2
    decay_mult: 0
  }
  convolution_param {
    num_output: 16
    pad: 1
    kernel_size: 3
    stride: 1
    weight_filler {
      type: "xavier"
    }
    bias_filler {
      type: "constant"
      value: 0
    }
  }
}
layer {
  name: "conv9_2_mbox_loc_bdc2018_perm_bdc2018"
  type: "Permute"
  bottom: "conv9_2_mbox_loc_bdc2018"
  top: "conv9_2_mbox_loc_bdc2018_perm_bdc2018"
  permute_param {
    order: 0
    order: 2
    order: 3
    order: 1
  }
}
layer {
  name: "conv9_2_mbox_loc_bdc2018_flat_bdc2018"
  type: "Flatten"
  bottom: "conv9_2_mbox_loc_bdc2018_perm_bdc2018"
  top: "conv9_2_mbox_loc_bdc2018_flat_bdc2018"
  flatten_param {
    axis: 1
  }
}
layer {
  name: "conv9_2_mbox_conf_bdc2018_new"
  type: "Convolution"
  bottom: "conv9_2"
  top: "conv9_2_mbox_conf_bdc2018_new"
  param {
    lr_mult: 1
    decay_mult: 1
  }
  param {
    lr_mult: 2
    decay_mult: 0
  }
  convolution_param {
    num_output: 36
    pad: 1
    kernel_size: 3
    stride: 1
    weight_filler {
      type: "xavier"
    }
    bias_filler {
      type: "constant"
      value: 0
    }
  }
}
layer {
  name: "conv9_2_mbox_conf_bdc2018_new_perm_bdc2018_new"
  type: "Permute"
  bottom: "conv9_2_mbox_conf_bdc2018_new"
  top: "conv9_2_mbox_conf_bdc2018_new_perm_bdc2018_new"
  permute_param {
    order: 0
    order: 2
    order: 3
    order: 1
  }
}
layer {
  name: "conv9_2_mbox_conf_bdc2018_new_flat_bdc2018_new"
  type: "Flatten"
  bottom: "conv9_2_mbox_conf_bdc2018_new_perm_bdc2018_new"
  top: "conv9_2_mbox_conf_bdc2018_new_flat_bdc2018_new"
  flatten_param {
    axis: 1
  }
}
layer {
  name: "conv9_2_mbox_priorbox"
  type: "PriorBox"
  bottom: "conv9_2"
  bottom: "data"
  top: "conv9_2_mbox_priorbox"
  prior_box_param {
    min_size: 901.12
    max_size: 1075.2
    aspect_ratio: 2
    flip: true
    clip: false
    variance: 0.1
    variance: 0.1
    variance: 0.2
    variance: 0.2
    step: 300
    offset: 0.5
  }
}
layer {
  name: "mbox_loc"
  type: "Concat"
  bottom: "conv4_3_norm_mbox_loc_bdc2018_flat_bdc2018"
  bottom: "fc7_mbox_loc_bdc2018_flat_bdc2018"
  bottom: "conv6_2_mbox_loc_bdc2018_flat_bdc2018"
  bottom: "conv7_2_mbox_loc_bdc2018_flat_bdc2018"
  bottom: "conv8_2_mbox_loc_bdc2018_flat_bdc2018"
  bottom: "conv9_2_mbox_loc_bdc2018_flat_bdc2018"
  top: "mbox_loc"
  concat_param {
    axis: 1
  }
}
layer {
  name: "mbox_conf"
  type: "Concat"
  bottom: "conv4_3_norm_mbox_conf_bdc2018_new_flat_bdc2018_new"
  bottom: "fc7_mbox_conf_bdc2018_new_flat_bdc2018_new"
  bottom: "conv6_2_mbox_conf_bdc2018_new_flat_bdc2018_new"
  bottom: "conv7_2_mbox_conf_bdc2018_new_flat_bdc2018_new"
  bottom: "conv8_2_mbox_conf_bdc2018_new_flat_bdc2018_new"
  bottom: "conv9_2_mbox_conf_bdc2018_new_flat_bdc2018_new"
  top: "mbox_conf"
  concat_param {
    axis: 1
  }
}
layer {
  name: "mbox_priorbox"
  type: "Concat"
  bottom: "conv4_3_norm_mbox_priorbox"
  bottom: "fc7_mbox_priorbox"
  bottom: "conv6_2_mbox_priorbox"
  bottom: "conv7_2_mbox_priorbox"
  bottom: "conv8_2_mbox_priorbox"
  bottom: "conv9_2_mbox_priorbox"
  top: "mbox_priorbox"
  concat_param {
    axis: 2
  }
}
layer {
  name: "mbox_conf_reshape"
  type: "Reshape"
  bottom: "mbox_conf"
  top: "mbox_conf_reshape"
  reshape_param {
    shape {
      dim: 0
      dim: -1
      dim: 9
    }
  }
}
layer {
  name: "mbox_conf_softmax"
  type: "Softmax"
  bottom: "mbox_conf_reshape"
  top: "mbox_conf_softmax"
  softmax_param {
    axis: 2
  }
}
layer {
  name: "mbox_conf_flatten"
  type: "Flatten"
  bottom: "mbox_conf_softmax"
  top: "mbox_conf_flatten"
  flatten_param {
    axis: 1
  }
}
layer {
  name: "detection_out"
  type: "DetectionOutput"
  bottom: "mbox_loc"
  bottom: "mbox_conf_flatten"
  bottom: "mbox_priorbox"
  top: "detection_out"
  include {
    phase: TEST
  }
  detection_output_param {
    num_classes: 9
    share_location: true
    background_label_id: 0
    nms_param {
      nms_threshold: 0.45
      top_k: 400
    }
    save_output_param {
      output_directory: "/home/user/data/bdc2018/results/SSD_1024x1024/Main"
      output_name_prefix: "comp4_det_test_"
      output_format: "VOC"
      label_map_file: "data/bdc2018/labelmap_bdc.prototxt"
      name_size_file: "data/bdc2018/val_name_size.txt"
      num_test_image: 37
    }
    code_type: CENTER_SIZE
    keep_top_k: 200
    confidence_threshold: 0.01
  }
}
layer {
  name: "detection_eval"
  type: "DetectionEvaluate"
  bottom: "detection_out"
  bottom: "label"
  top: "detection_eval"
  include {
    phase: TEST
  }
  detection_evaluate_param {
    num_classes: 9
    background_label_id: 0
    overlap_threshold: 0.5
    evaluate_difficult_gt: false
    name_size_file: "data/bdc2018/val_name_size.txt"
  }
}
I1110 19:02:30.127638 20135 layer_factory.hpp:77] Creating layer data
I1110 19:02:30.127722 20135 net.cpp:100] Creating Layer data
I1110 19:02:30.127732 20135 net.cpp:408] data -> data
I1110 19:02:30.127741 20135 net.cpp:408] data -> label
I1110 19:02:30.129029 20147 db_lmdb.cpp:35] Opened lmdb examples/bdc2018/bdc2018_val_name_lmdb
I1110 19:02:30.133075 20135 annotated_data_layer.cpp:62] output data size: 2,3,1024,1024
I1110 19:02:30.175472 20135 net.cpp:150] Setting up data
I1110 19:02:30.175521 20135 net.cpp:157] Top shape: 2 3 1024 1024 (6291456)
I1110 19:02:30.175527 20135 net.cpp:157] Top shape: 1 1 1 8 (8)
I1110 19:02:30.175530 20135 net.cpp:165] Memory required for data: 25165856
I1110 19:02:30.175539 20135 layer_factory.hpp:77] Creating layer data_data_0_split
I1110 19:02:30.175555 20135 net.cpp:100] Creating Layer data_data_0_split
I1110 19:02:30.175560 20135 net.cpp:434] data_data_0_split <- data
I1110 19:02:30.175570 20135 net.cpp:408] data_data_0_split -> data_data_0_split_0
I1110 19:02:30.175582 20135 net.cpp:408] data_data_0_split -> data_data_0_split_1
I1110 19:02:30.175590 20135 net.cpp:408] data_data_0_split -> data_data_0_split_2
I1110 19:02:30.175596 20135 net.cpp:408] data_data_0_split -> data_data_0_split_3
I1110 19:02:30.175603 20135 net.cpp:408] data_data_0_split -> data_data_0_split_4
I1110 19:02:30.175609 20135 net.cpp:408] data_data_0_split -> data_data_0_split_5
I1110 19:02:30.175614 20135 net.cpp:408] data_data_0_split -> data_data_0_split_6
I1110 19:02:30.175789 20135 net.cpp:150] Setting up data_data_0_split
I1110 19:02:30.175815 20135 net.cpp:157] Top shape: 2 3 1024 1024 (6291456)
I1110 19:02:30.175820 20135 net.cpp:157] Top shape: 2 3 1024 1024 (6291456)
I1110 19:02:30.175824 20135 net.cpp:157] Top shape: 2 3 1024 1024 (6291456)
I1110 19:02:30.175828 20135 net.cpp:157] Top shape: 2 3 1024 1024 (6291456)
I1110 19:02:30.175832 20135 net.cpp:157] Top shape: 2 3 1024 1024 (6291456)
I1110 19:02:30.175835 20135 net.cpp:157] Top shape: 2 3 1024 1024 (6291456)
I1110 19:02:30.175839 20135 net.cpp:157] Top shape: 2 3 1024 1024 (6291456)
I1110 19:02:30.175843 20135 net.cpp:165] Memory required for data: 201326624
I1110 19:02:30.175845 20135 layer_factory.hpp:77] Creating layer conv1_1
I1110 19:02:30.175860 20135 net.cpp:100] Creating Layer conv1_1
I1110 19:02:30.175864 20135 net.cpp:434] conv1_1 <- data_data_0_split_0
I1110 19:02:30.175873 20135 net.cpp:408] conv1_1 -> conv1_1
I1110 19:02:30.180022 20135 net.cpp:150] Setting up conv1_1
I1110 19:02:30.180049 20135 net.cpp:157] Top shape: 2 64 1024 1024 (134217728)
I1110 19:02:30.180053 20135 net.cpp:165] Memory required for data: 738197536
I1110 19:02:30.180065 20135 layer_factory.hpp:77] Creating layer relu1_1
I1110 19:02:30.180073 20135 net.cpp:100] Creating Layer relu1_1
I1110 19:02:30.180078 20135 net.cpp:434] relu1_1 <- conv1_1
I1110 19:02:30.180083 20135 net.cpp:395] relu1_1 -> conv1_1 (in-place)
I1110 19:02:30.180299 20135 net.cpp:150] Setting up relu1_1
I1110 19:02:30.180312 20135 net.cpp:157] Top shape: 2 64 1024 1024 (134217728)
I1110 19:02:30.180315 20135 net.cpp:165] Memory required for data: 1275068448
I1110 19:02:30.180318 20135 layer_factory.hpp:77] Creating layer conv1_2
I1110 19:02:30.180330 20135 net.cpp:100] Creating Layer conv1_2
I1110 19:02:30.180336 20135 net.cpp:434] conv1_2 <- conv1_1
I1110 19:02:30.180343 20135 net.cpp:408] conv1_2 -> conv1_2
I1110 19:02:30.184933 20135 net.cpp:150] Setting up conv1_2
I1110 19:02:30.184962 20135 net.cpp:157] Top shape: 2 64 1024 1024 (134217728)
I1110 19:02:30.184965 20135 net.cpp:165] Memory required for data: 1811939360
I1110 19:02:30.184974 20135 layer_factory.hpp:77] Creating layer relu1_2
I1110 19:02:30.184981 20135 net.cpp:100] Creating Layer relu1_2
I1110 19:02:30.184985 20135 net.cpp:434] relu1_2 <- conv1_2
I1110 19:02:30.184991 20135 net.cpp:395] relu1_2 -> conv1_2 (in-place)
I1110 19:02:30.185202 20135 net.cpp:150] Setting up relu1_2
I1110 19:02:30.185215 20135 net.cpp:157] Top shape: 2 64 1024 1024 (134217728)
I1110 19:02:30.185218 20135 net.cpp:165] Memory required for data: 2348810272
I1110 19:02:30.185221 20135 layer_factory.hpp:77] Creating layer pool1
I1110 19:02:30.185230 20135 net.cpp:100] Creating Layer pool1
I1110 19:02:30.185233 20135 net.cpp:434] pool1 <- conv1_2
I1110 19:02:30.185240 20135 net.cpp:408] pool1 -> pool1
I1110 19:02:30.185294 20135 net.cpp:150] Setting up pool1
I1110 19:02:30.185302 20135 net.cpp:157] Top shape: 2 64 512 512 (33554432)
I1110 19:02:30.185305 20135 net.cpp:165] Memory required for data: 2483028000
I1110 19:02:30.185308 20135 layer_factory.hpp:77] Creating layer conv2_1
I1110 19:02:30.185318 20135 net.cpp:100] Creating Layer conv2_1
I1110 19:02:30.185322 20135 net.cpp:434] conv2_1 <- pool1
I1110 19:02:30.185329 20135 net.cpp:408] conv2_1 -> conv2_1
I1110 19:02:30.190212 20135 net.cpp:150] Setting up conv2_1
I1110 19:02:30.190243 20135 net.cpp:157] Top shape: 2 128 512 512 (67108864)
I1110 19:02:30.190246 20135 net.cpp:165] Memory required for data: 2751463456
I1110 19:02:30.190258 20135 layer_factory.hpp:77] Creating layer relu2_1
I1110 19:02:30.190268 20135 net.cpp:100] Creating Layer relu2_1
I1110 19:02:30.190271 20135 net.cpp:434] relu2_1 <- conv2_1
I1110 19:02:30.190277 20135 net.cpp:395] relu2_1 -> conv2_1 (in-place)
I1110 19:02:30.190503 20135 net.cpp:150] Setting up relu2_1
I1110 19:02:30.190516 20135 net.cpp:157] Top shape: 2 128 512 512 (67108864)
I1110 19:02:30.190521 20135 net.cpp:165] Memory required for data: 3019898912
I1110 19:02:30.190523 20135 layer_factory.hpp:77] Creating layer conv2_2
I1110 19:02:30.190534 20135 net.cpp:100] Creating Layer conv2_2
I1110 19:02:30.190552 20135 net.cpp:434] conv2_2 <- conv2_1
I1110 19:02:30.190560 20135 net.cpp:408] conv2_2 -> conv2_2
I1110 19:02:30.193791 20135 net.cpp:150] Setting up conv2_2
I1110 19:02:30.193819 20135 net.cpp:157] Top shape: 2 128 512 512 (67108864)
I1110 19:02:30.193822 20135 net.cpp:165] Memory required for data: 3288334368
I1110 19:02:30.193830 20135 layer_factory.hpp:77] Creating layer relu2_2
I1110 19:02:30.193836 20135 net.cpp:100] Creating Layer relu2_2
I1110 19:02:30.193840 20135 net.cpp:434] relu2_2 <- conv2_2
I1110 19:02:30.193845 20135 net.cpp:395] relu2_2 -> conv2_2 (in-place)
I1110 19:02:30.194067 20135 net.cpp:150] Setting up relu2_2
I1110 19:02:30.194078 20135 net.cpp:157] Top shape: 2 128 512 512 (67108864)
I1110 19:02:30.194082 20135 net.cpp:165] Memory required for data: 3556769824
I1110 19:02:30.194085 20135 layer_factory.hpp:77] Creating layer pool2
I1110 19:02:30.194092 20135 net.cpp:100] Creating Layer pool2
I1110 19:02:30.194095 20135 net.cpp:434] pool2 <- conv2_2
I1110 19:02:30.194102 20135 net.cpp:408] pool2 -> pool2
I1110 19:02:30.194157 20135 net.cpp:150] Setting up pool2
I1110 19:02:30.194166 20135 net.cpp:157] Top shape: 2 128 256 256 (16777216)
I1110 19:02:30.194169 20135 net.cpp:165] Memory required for data: 3623878688
I1110 19:02:30.194172 20135 layer_factory.hpp:77] Creating layer conv3_1
I1110 19:02:30.194181 20135 net.cpp:100] Creating Layer conv3_1
I1110 19:02:30.194185 20135 net.cpp:434] conv3_1 <- pool2
I1110 19:02:30.194192 20135 net.cpp:408] conv3_1 -> conv3_1
I1110 19:02:30.197984 20135 net.cpp:150] Setting up conv3_1
I1110 19:02:30.198012 20135 net.cpp:157] Top shape: 2 256 256 256 (33554432)
I1110 19:02:30.198016 20135 net.cpp:165] Memory required for data: 3758096416
I1110 19:02:30.198026 20135 layer_factory.hpp:77] Creating layer relu3_1
I1110 19:02:30.198034 20135 net.cpp:100] Creating Layer relu3_1
I1110 19:02:30.198037 20135 net.cpp:434] relu3_1 <- conv3_1
I1110 19:02:30.198042 20135 net.cpp:395] relu3_1 -> conv3_1 (in-place)
I1110 19:02:30.198483 20135 net.cpp:150] Setting up relu3_1
I1110 19:02:30.198498 20135 net.cpp:157] Top shape: 2 256 256 256 (33554432)
I1110 19:02:30.198503 20135 net.cpp:165] Memory required for data: 3892314144
I1110 19:02:30.198506 20135 layer_factory.hpp:77] Creating layer conv3_2
I1110 19:02:30.198516 20135 net.cpp:100] Creating Layer conv3_2
I1110 19:02:30.198520 20135 net.cpp:434] conv3_2 <- conv3_1
I1110 19:02:30.198529 20135 net.cpp:408] conv3_2 -> conv3_2
I1110 19:02:30.203887 20135 net.cpp:150] Setting up conv3_2
I1110 19:02:30.203914 20135 net.cpp:157] Top shape: 2 256 256 256 (33554432)
I1110 19:02:30.203918 20135 net.cpp:165] Memory required for data: 4026531872
I1110 19:02:30.203925 20135 layer_factory.hpp:77] Creating layer relu3_2
I1110 19:02:30.203930 20135 net.cpp:100] Creating Layer relu3_2
I1110 19:02:30.203935 20135 net.cpp:434] relu3_2 <- conv3_2
I1110 19:02:30.203943 20135 net.cpp:395] relu3_2 -> conv3_2 (in-place)
I1110 19:02:30.204190 20135 net.cpp:150] Setting up relu3_2
I1110 19:02:30.204202 20135 net.cpp:157] Top shape: 2 256 256 256 (33554432)
I1110 19:02:30.204205 20135 net.cpp:165] Memory required for data: 4160749600
I1110 19:02:30.204210 20135 layer_factory.hpp:77] Creating layer conv3_3
I1110 19:02:30.204228 20135 net.cpp:100] Creating Layer conv3_3
I1110 19:02:30.204234 20135 net.cpp:434] conv3_3 <- conv3_2
I1110 19:02:30.204241 20135 net.cpp:408] conv3_3 -> conv3_3
I1110 19:02:30.209445 20135 net.cpp:150] Setting up conv3_3
I1110 19:02:30.209460 20135 net.cpp:157] Top shape: 2 256 256 256 (33554432)
I1110 19:02:30.209475 20135 net.cpp:165] Memory required for data: 4294967328
I1110 19:02:30.209481 20135 layer_factory.hpp:77] Creating layer relu3_3
I1110 19:02:30.209489 20135 net.cpp:100] Creating Layer relu3_3
I1110 19:02:30.209493 20135 net.cpp:434] relu3_3 <- conv3_3
I1110 19:02:30.209498 20135 net.cpp:395] relu3_3 -> conv3_3 (in-place)
I1110 19:02:30.209728 20135 net.cpp:150] Setting up relu3_3
I1110 19:02:30.209739 20135 net.cpp:157] Top shape: 2 256 256 256 (33554432)
I1110 19:02:30.209755 20135 net.cpp:165] Memory required for data: 4429185056
I1110 19:02:30.209759 20135 layer_factory.hpp:77] Creating layer pool3
I1110 19:02:30.209765 20135 net.cpp:100] Creating Layer pool3
I1110 19:02:30.209769 20135 net.cpp:434] pool3 <- conv3_3
I1110 19:02:30.209776 20135 net.cpp:408] pool3 -> pool3
I1110 19:02:30.209836 20135 net.cpp:150] Setting up pool3
I1110 19:02:30.209844 20135 net.cpp:157] Top shape: 2 256 128 128 (8388608)
I1110 19:02:30.209847 20135 net.cpp:165] Memory required for data: 4462739488
I1110 19:02:30.209849 20135 layer_factory.hpp:77] Creating layer conv4_1
I1110 19:02:30.209861 20135 net.cpp:100] Creating Layer conv4_1
I1110 19:02:30.209868 20135 net.cpp:434] conv4_1 <- pool3
I1110 19:02:30.209877 20135 net.cpp:408] conv4_1 -> conv4_1
I1110 19:02:30.219080 20135 net.cpp:150] Setting up conv4_1
I1110 19:02:30.219110 20135 net.cpp:157] Top shape: 2 512 128 128 (16777216)
I1110 19:02:30.219113 20135 net.cpp:165] Memory required for data: 4529848352
I1110 19:02:30.219120 20135 layer_factory.hpp:77] Creating layer relu4_1
I1110 19:02:30.219126 20135 net.cpp:100] Creating Layer relu4_1
I1110 19:02:30.219130 20135 net.cpp:434] relu4_1 <- conv4_1
I1110 19:02:30.219135 20135 net.cpp:395] relu4_1 -> conv4_1 (in-place)
I1110 19:02:30.219362 20135 net.cpp:150] Setting up relu4_1
I1110 19:02:30.219373 20135 net.cpp:157] Top shape: 2 512 128 128 (16777216)
I1110 19:02:30.219377 20135 net.cpp:165] Memory required for data: 4596957216
I1110 19:02:30.219380 20135 layer_factory.hpp:77] Creating layer conv4_2
I1110 19:02:30.219393 20135 net.cpp:100] Creating Layer conv4_2
I1110 19:02:30.219396 20135 net.cpp:434] conv4_2 <- conv4_1
I1110 19:02:30.219403 20135 net.cpp:408] conv4_2 -> conv4_2
I1110 19:02:30.236021 20135 net.cpp:150] Setting up conv4_2
I1110 19:02:30.236048 20135 net.cpp:157] Top shape: 2 512 128 128 (16777216)
I1110 19:02:30.236052 20135 net.cpp:165] Memory required for data: 4664066080
I1110 19:02:30.236068 20135 layer_factory.hpp:77] Creating layer relu4_2
I1110 19:02:30.236074 20135 net.cpp:100] Creating Layer relu4_2
I1110 19:02:30.236078 20135 net.cpp:434] relu4_2 <- conv4_2
I1110 19:02:30.236084 20135 net.cpp:395] relu4_2 -> conv4_2 (in-place)
I1110 19:02:30.236311 20135 net.cpp:150] Setting up relu4_2
I1110 19:02:30.236325 20135 net.cpp:157] Top shape: 2 512 128 128 (16777216)
I1110 19:02:30.236327 20135 net.cpp:165] Memory required for data: 4731174944
I1110 19:02:30.236330 20135 layer_factory.hpp:77] Creating layer conv4_3
I1110 19:02:30.236342 20135 net.cpp:100] Creating Layer conv4_3
I1110 19:02:30.236349 20135 net.cpp:434] conv4_3 <- conv4_2
I1110 19:02:30.236357 20135 net.cpp:408] conv4_3 -> conv4_3
I1110 19:02:30.253041 20135 net.cpp:150] Setting up conv4_3
I1110 19:02:30.253073 20135 net.cpp:157] Top shape: 2 512 128 128 (16777216)
I1110 19:02:30.253077 20135 net.cpp:165] Memory required for data: 4798283808
I1110 19:02:30.253084 20135 layer_factory.hpp:77] Creating layer relu4_3
I1110 19:02:30.253089 20135 net.cpp:100] Creating Layer relu4_3
I1110 19:02:30.253093 20135 net.cpp:434] relu4_3 <- conv4_3
I1110 19:02:30.253099 20135 net.cpp:395] relu4_3 -> conv4_3 (in-place)
I1110 19:02:30.253322 20135 net.cpp:150] Setting up relu4_3
I1110 19:02:30.253334 20135 net.cpp:157] Top shape: 2 512 128 128 (16777216)
I1110 19:02:30.253337 20135 net.cpp:165] Memory required for data: 4865392672
I1110 19:02:30.253340 20135 layer_factory.hpp:77] Creating layer conv4_3_relu4_3_0_split
I1110 19:02:30.253350 20135 net.cpp:100] Creating Layer conv4_3_relu4_3_0_split
I1110 19:02:30.253353 20135 net.cpp:434] conv4_3_relu4_3_0_split <- conv4_3
I1110 19:02:30.253360 20135 net.cpp:408] conv4_3_relu4_3_0_split -> conv4_3_relu4_3_0_split_0
I1110 19:02:30.253367 20135 net.cpp:408] conv4_3_relu4_3_0_split -> conv4_3_relu4_3_0_split_1
I1110 19:02:30.253423 20135 net.cpp:150] Setting up conv4_3_relu4_3_0_split
I1110 19:02:30.253432 20135 net.cpp:157] Top shape: 2 512 128 128 (16777216)
I1110 19:02:30.253435 20135 net.cpp:157] Top shape: 2 512 128 128 (16777216)
I1110 19:02:30.253438 20135 net.cpp:165] Memory required for data: 4999610400
I1110 19:02:30.253458 20135 layer_factory.hpp:77] Creating layer pool4
I1110 19:02:30.253468 20135 net.cpp:100] Creating Layer pool4
I1110 19:02:30.253473 20135 net.cpp:434] pool4 <- conv4_3_relu4_3_0_split_0
I1110 19:02:30.253479 20135 net.cpp:408] pool4 -> pool4
I1110 19:02:30.253531 20135 net.cpp:150] Setting up pool4
I1110 19:02:30.253540 20135 net.cpp:157] Top shape: 2 512 64 64 (4194304)
I1110 19:02:30.253542 20135 net.cpp:165] Memory required for data: 5016387616
I1110 19:02:30.253545 20135 layer_factory.hpp:77] Creating layer conv5_1
I1110 19:02:30.253556 20135 net.cpp:100] Creating Layer conv5_1
I1110 19:02:30.253561 20135 net.cpp:434] conv5_1 <- pool4
I1110 19:02:30.253567 20135 net.cpp:408] conv5_1 -> conv5_1
I1110 19:02:30.270107 20135 net.cpp:150] Setting up conv5_1
I1110 19:02:30.270139 20135 net.cpp:157] Top shape: 2 512 64 64 (4194304)
I1110 19:02:30.270143 20135 net.cpp:165] Memory required for data: 5033164832
I1110 19:02:30.270149 20135 layer_factory.hpp:77] Creating layer relu5_1
I1110 19:02:30.270156 20135 net.cpp:100] Creating Layer relu5_1
I1110 19:02:30.270160 20135 net.cpp:434] relu5_1 <- conv5_1
I1110 19:02:30.270165 20135 net.cpp:395] relu5_1 -> conv5_1 (in-place)
I1110 19:02:30.270611 20135 net.cpp:150] Setting up relu5_1
I1110 19:02:30.270625 20135 net.cpp:157] Top shape: 2 512 64 64 (4194304)
I1110 19:02:30.270629 20135 net.cpp:165] Memory required for data: 5049942048
I1110 19:02:30.270632 20135 layer_factory.hpp:77] Creating layer conv5_2
I1110 19:02:30.270643 20135 net.cpp:100] Creating Layer conv5_2
I1110 19:02:30.270648 20135 net.cpp:434] conv5_2 <- conv5_1
I1110 19:02:30.270655 20135 net.cpp:408] conv5_2 -> conv5_2
I1110 19:02:30.287113 20135 net.cpp:150] Setting up conv5_2
I1110 19:02:30.287142 20135 net.cpp:157] Top shape: 2 512 64 64 (4194304)
I1110 19:02:30.287144 20135 net.cpp:165] Memory required for data: 5066719264
I1110 19:02:30.287151 20135 layer_factory.hpp:77] Creating layer relu5_2
I1110 19:02:30.287159 20135 net.cpp:100] Creating Layer relu5_2
I1110 19:02:30.287163 20135 net.cpp:434] relu5_2 <- conv5_2
I1110 19:02:30.287168 20135 net.cpp:395] relu5_2 -> conv5_2 (in-place)
I1110 19:02:30.287389 20135 net.cpp:150] Setting up relu5_2
I1110 19:02:30.287400 20135 net.cpp:157] Top shape: 2 512 64 64 (4194304)
I1110 19:02:30.287403 20135 net.cpp:165] Memory required for data: 5083496480
I1110 19:02:30.287407 20135 layer_factory.hpp:77] Creating layer conv5_3
I1110 19:02:30.287417 20135 net.cpp:100] Creating Layer conv5_3
I1110 19:02:30.287421 20135 net.cpp:434] conv5_3 <- conv5_2
I1110 19:02:30.287430 20135 net.cpp:408] conv5_3 -> conv5_3
I1110 19:02:30.308056 20135 net.cpp:150] Setting up conv5_3
I1110 19:02:30.308086 20135 net.cpp:157] Top shape: 2 512 64 64 (4194304)
I1110 19:02:30.308091 20135 net.cpp:165] Memory required for data: 5100273696
I1110 19:02:30.308100 20135 layer_factory.hpp:77] Creating layer relu5_3
I1110 19:02:30.308137 20135 net.cpp:100] Creating Layer relu5_3
I1110 19:02:30.308153 20135 net.cpp:434] relu5_3 <- conv5_3
I1110 19:02:30.308161 20135 net.cpp:395] relu5_3 -> conv5_3 (in-place)
I1110 19:02:30.308374 20135 net.cpp:150] Setting up relu5_3
I1110 19:02:30.308385 20135 net.cpp:157] Top shape: 2 512 64 64 (4194304)
I1110 19:02:30.308389 20135 net.cpp:165] Memory required for data: 5117050912
I1110 19:02:30.308394 20135 layer_factory.hpp:77] Creating layer pool5
I1110 19:02:30.308404 20135 net.cpp:100] Creating Layer pool5
I1110 19:02:30.308408 20135 net.cpp:434] pool5 <- conv5_3
I1110 19:02:30.308415 20135 net.cpp:408] pool5 -> pool5
I1110 19:02:30.308476 20135 net.cpp:150] Setting up pool5
I1110 19:02:30.308485 20135 net.cpp:157] Top shape: 2 512 64 64 (4194304)
I1110 19:02:30.308488 20135 net.cpp:165] Memory required for data: 5133828128
I1110 19:02:30.308491 20135 layer_factory.hpp:77] Creating layer fc6
I1110 19:02:30.308504 20135 net.cpp:100] Creating Layer fc6
I1110 19:02:30.308509 20135 net.cpp:434] fc6 <- pool5
I1110 19:02:30.308516 20135 net.cpp:408] fc6 -> fc6
I1110 19:02:30.339301 20135 net.cpp:150] Setting up fc6
I1110 19:02:30.339349 20135 net.cpp:157] Top shape: 2 1024 64 64 (8388608)
I1110 19:02:30.339354 20135 net.cpp:165] Memory required for data: 5167382560
I1110 19:02:30.339360 20135 layer_factory.hpp:77] Creating layer relu6
I1110 19:02:30.339370 20135 net.cpp:100] Creating Layer relu6
I1110 19:02:30.339373 20135 net.cpp:434] relu6 <- fc6
I1110 19:02:30.339378 20135 net.cpp:395] relu6 -> fc6 (in-place)
I1110 19:02:30.339623 20135 net.cpp:150] Setting up relu6
I1110 19:02:30.339635 20135 net.cpp:157] Top shape: 2 1024 64 64 (8388608)
I1110 19:02:30.339638 20135 net.cpp:165] Memory required for data: 5200936992
I1110 19:02:30.339643 20135 layer_factory.hpp:77] Creating layer fc7
I1110 19:02:30.339656 20135 net.cpp:100] Creating Layer fc7
I1110 19:02:30.339660 20135 net.cpp:434] fc7 <- fc6
I1110 19:02:30.339669 20135 net.cpp:408] fc7 -> fc7
I1110 19:02:30.347815 20135 net.cpp:150] Setting up fc7
I1110 19:02:30.347831 20135 net.cpp:157] Top shape: 2 1024 64 64 (8388608)
I1110 19:02:30.347846 20135 net.cpp:165] Memory required for data: 5234491424
I1110 19:02:30.347851 20135 layer_factory.hpp:77] Creating layer relu7
I1110 19:02:30.347857 20135 net.cpp:100] Creating Layer relu7
I1110 19:02:30.347860 20135 net.cpp:434] relu7 <- fc7
I1110 19:02:30.347870 20135 net.cpp:395] relu7 -> fc7 (in-place)
I1110 19:02:30.348090 20135 net.cpp:150] Setting up relu7
I1110 19:02:30.348103 20135 net.cpp:157] Top shape: 2 1024 64 64 (8388608)
I1110 19:02:30.348105 20135 net.cpp:165] Memory required for data: 5268045856
I1110 19:02:30.348117 20135 layer_factory.hpp:77] Creating layer fc7_relu7_0_split
I1110 19:02:30.348129 20135 net.cpp:100] Creating Layer fc7_relu7_0_split
I1110 19:02:30.348132 20135 net.cpp:434] fc7_relu7_0_split <- fc7
I1110 19:02:30.348140 20135 net.cpp:408] fc7_relu7_0_split -> fc7_relu7_0_split_0
I1110 19:02:30.348147 20135 net.cpp:408] fc7_relu7_0_split -> fc7_relu7_0_split_1
I1110 19:02:30.348162 20135 net.cpp:408] fc7_relu7_0_split -> fc7_relu7_0_split_2
I1110 19:02:30.348171 20135 net.cpp:408] fc7_relu7_0_split -> fc7_relu7_0_split_3
I1110 19:02:30.348261 20135 net.cpp:150] Setting up fc7_relu7_0_split
I1110 19:02:30.348271 20135 net.cpp:157] Top shape: 2 1024 64 64 (8388608)
I1110 19:02:30.348275 20135 net.cpp:157] Top shape: 2 1024 64 64 (8388608)
I1110 19:02:30.348279 20135 net.cpp:157] Top shape: 2 1024 64 64 (8388608)
I1110 19:02:30.348282 20135 net.cpp:157] Top shape: 2 1024 64 64 (8388608)
I1110 19:02:30.348285 20135 net.cpp:165] Memory required for data: 5402263584
I1110 19:02:30.348289 20135 layer_factory.hpp:77] Creating layer conv6_1
I1110 19:02:30.348300 20135 net.cpp:100] Creating Layer conv6_1
I1110 19:02:30.348304 20135 net.cpp:434] conv6_1 <- fc7_relu7_0_split_0
I1110 19:02:30.348312 20135 net.cpp:408] conv6_1 -> conv6_1
I1110 19:02:30.351105 20135 net.cpp:150] Setting up conv6_1
I1110 19:02:30.351132 20135 net.cpp:157] Top shape: 2 256 64 64 (2097152)
I1110 19:02:30.351136 20135 net.cpp:165] Memory required for data: 5410652192
I1110 19:02:30.351143 20135 layer_factory.hpp:77] Creating layer conv6_1_relu
I1110 19:02:30.351151 20135 net.cpp:100] Creating Layer conv6_1_relu
I1110 19:02:30.351155 20135 net.cpp:434] conv6_1_relu <- conv6_1
I1110 19:02:30.351161 20135 net.cpp:395] conv6_1_relu -> conv6_1 (in-place)
I1110 19:02:30.351575 20135 net.cpp:150] Setting up conv6_1_relu
I1110 19:02:30.351590 20135 net.cpp:157] Top shape: 2 256 64 64 (2097152)
I1110 19:02:30.351593 20135 net.cpp:165] Memory required for data: 5419040800
I1110 19:02:30.351598 20135 layer_factory.hpp:77] Creating layer conv6_2
I1110 19:02:30.351610 20135 net.cpp:100] Creating Layer conv6_2
I1110 19:02:30.351614 20135 net.cpp:434] conv6_2 <- conv6_1
I1110 19:02:30.351621 20135 net.cpp:408] conv6_2 -> conv6_2
I1110 19:02:30.360348 20135 net.cpp:150] Setting up conv6_2
I1110 19:02:30.360363 20135 net.cpp:157] Top shape: 2 512 32 32 (1048576)
I1110 19:02:30.360379 20135 net.cpp:165] Memory required for data: 5423235104
I1110 19:02:30.360394 20135 layer_factory.hpp:77] Creating layer conv6_2_relu
I1110 19:02:30.360404 20135 net.cpp:100] Creating Layer conv6_2_relu
I1110 19:02:30.360422 20135 net.cpp:434] conv6_2_relu <- conv6_2
I1110 19:02:30.360429 20135 net.cpp:395] conv6_2_relu -> conv6_2 (in-place)
I1110 19:02:30.360852 20135 net.cpp:150] Setting up conv6_2_relu
I1110 19:02:30.360867 20135 net.cpp:157] Top shape: 2 512 32 32 (1048576)
I1110 19:02:30.360870 20135 net.cpp:165] Memory required for data: 5427429408
I1110 19:02:30.360873 20135 layer_factory.hpp:77] Creating layer conv6_2_conv6_2_relu_0_split
I1110 19:02:30.360882 20135 net.cpp:100] Creating Layer conv6_2_conv6_2_relu_0_split
I1110 19:02:30.360886 20135 net.cpp:434] conv6_2_conv6_2_relu_0_split <- conv6_2
I1110 19:02:30.360893 20135 net.cpp:408] conv6_2_conv6_2_relu_0_split -> conv6_2_conv6_2_relu_0_split_0
I1110 19:02:30.360901 20135 net.cpp:408] conv6_2_conv6_2_relu_0_split -> conv6_2_conv6_2_relu_0_split_1
I1110 19:02:30.360908 20135 net.cpp:408] conv6_2_conv6_2_relu_0_split -> conv6_2_conv6_2_relu_0_split_2
I1110 19:02:30.360913 20135 net.cpp:408] conv6_2_conv6_2_relu_0_split -> conv6_2_conv6_2_relu_0_split_3
I1110 19:02:30.361004 20135 net.cpp:150] Setting up conv6_2_conv6_2_relu_0_split
I1110 19:02:30.361013 20135 net.cpp:157] Top shape: 2 512 32 32 (1048576)
I1110 19:02:30.361017 20135 net.cpp:157] Top shape: 2 512 32 32 (1048576)
I1110 19:02:30.361021 20135 net.cpp:157] Top shape: 2 512 32 32 (1048576)
I1110 19:02:30.361024 20135 net.cpp:157] Top shape: 2 512 32 32 (1048576)
I1110 19:02:30.361027 20135 net.cpp:165] Memory required for data: 5444206624
I1110 19:02:30.361030 20135 layer_factory.hpp:77] Creating layer conv7_1
I1110 19:02:30.361042 20135 net.cpp:100] Creating Layer conv7_1
I1110 19:02:30.361047 20135 net.cpp:434] conv7_1 <- conv6_2_conv6_2_relu_0_split_0
I1110 19:02:30.361055 20135 net.cpp:408] conv7_1 -> conv7_1
I1110 19:02:30.362581 20135 net.cpp:150] Setting up conv7_1
I1110 19:02:30.362607 20135 net.cpp:157] Top shape: 2 128 32 32 (262144)
I1110 19:02:30.362610 20135 net.cpp:165] Memory required for data: 5445255200
I1110 19:02:30.362628 20135 layer_factory.hpp:77] Creating layer conv7_1_relu
I1110 19:02:30.362635 20135 net.cpp:100] Creating Layer conv7_1_relu
I1110 19:02:30.362639 20135 net.cpp:434] conv7_1_relu <- conv7_1
I1110 19:02:30.362644 20135 net.cpp:395] conv7_1_relu -> conv7_1 (in-place)
I1110 19:02:30.362862 20135 net.cpp:150] Setting up conv7_1_relu
I1110 19:02:30.362874 20135 net.cpp:157] Top shape: 2 128 32 32 (262144)
I1110 19:02:30.362876 20135 net.cpp:165] Memory required for data: 5446303776
I1110 19:02:30.362880 20135 layer_factory.hpp:77] Creating layer conv7_2
I1110 19:02:30.362892 20135 net.cpp:100] Creating Layer conv7_2
I1110 19:02:30.362896 20135 net.cpp:434] conv7_2 <- conv7_1
I1110 19:02:30.362902 20135 net.cpp:408] conv7_2 -> conv7_2
I1110 19:02:30.366538 20135 net.cpp:150] Setting up conv7_2
I1110 19:02:30.366564 20135 net.cpp:157] Top shape: 2 256 16 16 (131072)
I1110 19:02:30.366569 20135 net.cpp:165] Memory required for data: 5446828064
I1110 19:02:30.366575 20135 layer_factory.hpp:77] Creating layer conv7_2_relu
I1110 19:02:30.366580 20135 net.cpp:100] Creating Layer conv7_2_relu
I1110 19:02:30.366583 20135 net.cpp:434] conv7_2_relu <- conv7_2
I1110 19:02:30.366590 20135 net.cpp:395] conv7_2_relu -> conv7_2 (in-place)
I1110 19:02:30.366811 20135 net.cpp:150] Setting up conv7_2_relu
I1110 19:02:30.366822 20135 net.cpp:157] Top shape: 2 256 16 16 (131072)
I1110 19:02:30.366827 20135 net.cpp:165] Memory required for data: 5447352352
I1110 19:02:30.366830 20135 layer_factory.hpp:77] Creating layer conv7_2_conv7_2_relu_0_split
I1110 19:02:30.366839 20135 net.cpp:100] Creating Layer conv7_2_conv7_2_relu_0_split
I1110 19:02:30.366844 20135 net.cpp:434] conv7_2_conv7_2_relu_0_split <- conv7_2
I1110 19:02:30.366852 20135 net.cpp:408] conv7_2_conv7_2_relu_0_split -> conv7_2_conv7_2_relu_0_split_0
I1110 19:02:30.366858 20135 net.cpp:408] conv7_2_conv7_2_relu_0_split -> conv7_2_conv7_2_relu_0_split_1
I1110 19:02:30.366864 20135 net.cpp:408] conv7_2_conv7_2_relu_0_split -> conv7_2_conv7_2_relu_0_split_2
I1110 19:02:30.366870 20135 net.cpp:408] conv7_2_conv7_2_relu_0_split -> conv7_2_conv7_2_relu_0_split_3
I1110 19:02:30.366972 20135 net.cpp:150] Setting up conv7_2_conv7_2_relu_0_split
I1110 19:02:30.366981 20135 net.cpp:157] Top shape: 2 256 16 16 (131072)
I1110 19:02:30.366986 20135 net.cpp:157] Top shape: 2 256 16 16 (131072)
I1110 19:02:30.366988 20135 net.cpp:157] Top shape: 2 256 16 16 (131072)
I1110 19:02:30.366992 20135 net.cpp:157] Top shape: 2 256 16 16 (131072)
I1110 19:02:30.366994 20135 net.cpp:165] Memory required for data: 5449449504
I1110 19:02:30.366997 20135 layer_factory.hpp:77] Creating layer conv8_1
I1110 19:02:30.367007 20135 net.cpp:100] Creating Layer conv8_1
I1110 19:02:30.367012 20135 net.cpp:434] conv8_1 <- conv7_2_conv7_2_relu_0_split_0
I1110 19:02:30.367019 20135 net.cpp:408] conv8_1 -> conv8_1
I1110 19:02:30.368413 20135 net.cpp:150] Setting up conv8_1
I1110 19:02:30.368428 20135 net.cpp:157] Top shape: 2 128 16 16 (65536)
I1110 19:02:30.368444 20135 net.cpp:165] Memory required for data: 5449711648
I1110 19:02:30.368463 20135 layer_factory.hpp:77] Creating layer conv8_1_relu
I1110 19:02:30.368468 20135 net.cpp:100] Creating Layer conv8_1_relu
I1110 19:02:30.368472 20135 net.cpp:434] conv8_1_relu <- conv8_1
I1110 19:02:30.368479 20135 net.cpp:395] conv8_1_relu -> conv8_1 (in-place)
I1110 19:02:30.368700 20135 net.cpp:150] Setting up conv8_1_relu
I1110 19:02:30.368711 20135 net.cpp:157] Top shape: 2 128 16 16 (65536)
I1110 19:02:30.368715 20135 net.cpp:165] Memory required for data: 5449973792
I1110 19:02:30.368719 20135 layer_factory.hpp:77] Creating layer conv8_2
I1110 19:02:30.368731 20135 net.cpp:100] Creating Layer conv8_2
I1110 19:02:30.368736 20135 net.cpp:434] conv8_2 <- conv8_1
I1110 19:02:30.368742 20135 net.cpp:408] conv8_2 -> conv8_2
I1110 19:02:30.372848 20135 net.cpp:150] Setting up conv8_2
I1110 19:02:30.372879 20135 net.cpp:157] Top shape: 2 256 14 14 (100352)
I1110 19:02:30.372884 20135 net.cpp:165] Memory required for data: 5450375200
I1110 19:02:30.372890 20135 layer_factory.hpp:77] Creating layer conv8_2_relu
I1110 19:02:30.372896 20135 net.cpp:100] Creating Layer conv8_2_relu
I1110 19:02:30.372900 20135 net.cpp:434] conv8_2_relu <- conv8_2
I1110 19:02:30.372906 20135 net.cpp:395] conv8_2_relu -> conv8_2 (in-place)
I1110 19:02:30.373124 20135 net.cpp:150] Setting up conv8_2_relu
I1110 19:02:30.373137 20135 net.cpp:157] Top shape: 2 256 14 14 (100352)
I1110 19:02:30.373140 20135 net.cpp:165] Memory required for data: 5450776608
I1110 19:02:30.373144 20135 layer_factory.hpp:77] Creating layer conv8_2_conv8_2_relu_0_split
I1110 19:02:30.373150 20135 net.cpp:100] Creating Layer conv8_2_conv8_2_relu_0_split
I1110 19:02:30.373154 20135 net.cpp:434] conv8_2_conv8_2_relu_0_split <- conv8_2
I1110 19:02:30.373162 20135 net.cpp:408] conv8_2_conv8_2_relu_0_split -> conv8_2_conv8_2_relu_0_split_0
I1110 19:02:30.373168 20135 net.cpp:408] conv8_2_conv8_2_relu_0_split -> conv8_2_conv8_2_relu_0_split_1
I1110 19:02:30.373174 20135 net.cpp:408] conv8_2_conv8_2_relu_0_split -> conv8_2_conv8_2_relu_0_split_2
I1110 19:02:30.373180 20135 net.cpp:408] conv8_2_conv8_2_relu_0_split -> conv8_2_conv8_2_relu_0_split_3
I1110 19:02:30.373311 20135 net.cpp:150] Setting up conv8_2_conv8_2_relu_0_split
I1110 19:02:30.373318 20135 net.cpp:157] Top shape: 2 256 14 14 (100352)
I1110 19:02:30.373322 20135 net.cpp:157] Top shape: 2 256 14 14 (100352)
I1110 19:02:30.373327 20135 net.cpp:157] Top shape: 2 256 14 14 (100352)
I1110 19:02:30.373330 20135 net.cpp:157] Top shape: 2 256 14 14 (100352)
I1110 19:02:30.373333 20135 net.cpp:165] Memory required for data: 5452382240
I1110 19:02:30.373337 20135 layer_factory.hpp:77] Creating layer conv9_1
I1110 19:02:30.373347 20135 net.cpp:100] Creating Layer conv9_1
I1110 19:02:30.373351 20135 net.cpp:434] conv9_1 <- conv8_2_conv8_2_relu_0_split_0
I1110 19:02:30.373359 20135 net.cpp:408] conv9_1 -> conv9_1
I1110 19:02:30.374752 20135 net.cpp:150] Setting up conv9_1
I1110 19:02:30.374778 20135 net.cpp:157] Top shape: 2 128 14 14 (50176)
I1110 19:02:30.374783 20135 net.cpp:165] Memory required for data: 5452582944
I1110 19:02:30.374800 20135 layer_factory.hpp:77] Creating layer conv9_1_relu
I1110 19:02:30.374807 20135 net.cpp:100] Creating Layer conv9_1_relu
I1110 19:02:30.374811 20135 net.cpp:434] conv9_1_relu <- conv9_1
I1110 19:02:30.374819 20135 net.cpp:395] conv9_1_relu -> conv9_1 (in-place)
I1110 19:02:30.375254 20135 net.cpp:150] Setting up conv9_1_relu
I1110 19:02:30.375269 20135 net.cpp:157] Top shape: 2 128 14 14 (50176)
I1110 19:02:30.375272 20135 net.cpp:165] Memory required for data: 5452783648
I1110 19:02:30.375277 20135 layer_factory.hpp:77] Creating layer conv9_2
I1110 19:02:30.375288 20135 net.cpp:100] Creating Layer conv9_2
I1110 19:02:30.375293 20135 net.cpp:434] conv9_2 <- conv9_1
I1110 19:02:30.375300 20135 net.cpp:408] conv9_2 -> conv9_2
I1110 19:02:30.378760 20135 net.cpp:150] Setting up conv9_2
I1110 19:02:30.378775 20135 net.cpp:157] Top shape: 2 256 12 12 (73728)
I1110 19:02:30.378790 20135 net.cpp:165] Memory required for data: 5453078560
I1110 19:02:30.378798 20135 layer_factory.hpp:77] Creating layer conv9_2_relu
I1110 19:02:30.378805 20135 net.cpp:100] Creating Layer conv9_2_relu
I1110 19:02:30.378809 20135 net.cpp:434] conv9_2_relu <- conv9_2
I1110 19:02:30.378814 20135 net.cpp:395] conv9_2_relu -> conv9_2 (in-place)
I1110 19:02:30.379251 20135 net.cpp:150] Setting up conv9_2_relu
I1110 19:02:30.379264 20135 net.cpp:157] Top shape: 2 256 12 12 (73728)
I1110 19:02:30.379268 20135 net.cpp:165] Memory required for data: 5453373472
I1110 19:02:30.379271 20135 layer_factory.hpp:77] Creating layer conv9_2_conv9_2_relu_0_split
I1110 19:02:30.379281 20135 net.cpp:100] Creating Layer conv9_2_conv9_2_relu_0_split
I1110 19:02:30.379284 20135 net.cpp:434] conv9_2_conv9_2_relu_0_split <- conv9_2
I1110 19:02:30.379289 20135 net.cpp:408] conv9_2_conv9_2_relu_0_split -> conv9_2_conv9_2_relu_0_split_0
I1110 19:02:30.379297 20135 net.cpp:408] conv9_2_conv9_2_relu_0_split -> conv9_2_conv9_2_relu_0_split_1
I1110 19:02:30.379305 20135 net.cpp:408] conv9_2_conv9_2_relu_0_split -> conv9_2_conv9_2_relu_0_split_2
I1110 19:02:30.379384 20135 net.cpp:150] Setting up conv9_2_conv9_2_relu_0_split
I1110 19:02:30.379393 20135 net.cpp:157] Top shape: 2 256 12 12 (73728)
I1110 19:02:30.379397 20135 net.cpp:157] Top shape: 2 256 12 12 (73728)
I1110 19:02:30.379400 20135 net.cpp:157] Top shape: 2 256 12 12 (73728)
I1110 19:02:30.379403 20135 net.cpp:165] Memory required for data: 5454258208
I1110 19:02:30.379406 20135 layer_factory.hpp:77] Creating layer conv4_3_norm
I1110 19:02:30.379416 20135 net.cpp:100] Creating Layer conv4_3_norm
I1110 19:02:30.379420 20135 net.cpp:434] conv4_3_norm <- conv4_3_relu4_3_0_split_1
I1110 19:02:30.379426 20135 net.cpp:408] conv4_3_norm -> conv4_3_norm
I1110 19:02:30.379647 20135 net.cpp:150] Setting up conv4_3_norm
I1110 19:02:30.379655 20135 net.cpp:157] Top shape: 2 512 128 128 (16777216)
I1110 19:02:30.379658 20135 net.cpp:165] Memory required for data: 5521367072
I1110 19:02:30.379664 20135 layer_factory.hpp:77] Creating layer conv4_3_norm_conv4_3_norm_0_split
I1110 19:02:30.379670 20135 net.cpp:100] Creating Layer conv4_3_norm_conv4_3_norm_0_split
I1110 19:02:30.379673 20135 net.cpp:434] conv4_3_norm_conv4_3_norm_0_split <- conv4_3_norm
I1110 19:02:30.379679 20135 net.cpp:408] conv4_3_norm_conv4_3_norm_0_split -> conv4_3_norm_conv4_3_norm_0_split_0
I1110 19:02:30.379686 20135 net.cpp:408] conv4_3_norm_conv4_3_norm_0_split -> conv4_3_norm_conv4_3_norm_0_split_1
I1110 19:02:30.379693 20135 net.cpp:408] conv4_3_norm_conv4_3_norm_0_split -> conv4_3_norm_conv4_3_norm_0_split_2
I1110 19:02:30.379755 20135 net.cpp:150] Setting up conv4_3_norm_conv4_3_norm_0_split
I1110 19:02:30.379762 20135 net.cpp:157] Top shape: 2 512 128 128 (16777216)
I1110 19:02:30.379766 20135 net.cpp:157] Top shape: 2 512 128 128 (16777216)
I1110 19:02:30.379770 20135 net.cpp:157] Top shape: 2 512 128 128 (16777216)
I1110 19:02:30.379773 20135 net.cpp:165] Memory required for data: 5722693664
I1110 19:02:30.379776 20135 layer_factory.hpp:77] Creating layer conv4_3_norm_mbox_loc_bdc2018
I1110 19:02:30.379788 20135 net.cpp:100] Creating Layer conv4_3_norm_mbox_loc_bdc2018
I1110 19:02:30.379804 20135 net.cpp:434] conv4_3_norm_mbox_loc_bdc2018 <- conv4_3_norm_conv4_3_norm_0_split_0
I1110 19:02:30.379813 20135 net.cpp:408] conv4_3_norm_mbox_loc_bdc2018 -> conv4_3_norm_mbox_loc_bdc2018
I1110 19:02:30.381618 20135 net.cpp:150] Setting up conv4_3_norm_mbox_loc_bdc2018
I1110 19:02:30.381646 20135 net.cpp:157] Top shape: 2 16 128 128 (524288)
I1110 19:02:30.381650 20135 net.cpp:165] Memory required for data: 5724790816
I1110 19:02:30.381656 20135 layer_factory.hpp:77] Creating layer conv4_3_norm_mbox_loc_bdc2018_perm_bdc2018
I1110 19:02:30.381666 20135 net.cpp:100] Creating Layer conv4_3_norm_mbox_loc_bdc2018_perm_bdc2018
I1110 19:02:30.381671 20135 net.cpp:434] conv4_3_norm_mbox_loc_bdc2018_perm_bdc2018 <- conv4_3_norm_mbox_loc_bdc2018
I1110 19:02:30.381678 20135 net.cpp:408] conv4_3_norm_mbox_loc_bdc2018_perm_bdc2018 -> conv4_3_norm_mbox_loc_bdc2018_perm_bdc2018
I1110 19:02:30.381826 20135 net.cpp:150] Setting up conv4_3_norm_mbox_loc_bdc2018_perm_bdc2018
I1110 19:02:30.381835 20135 net.cpp:157] Top shape: 2 128 128 16 (524288)
I1110 19:02:30.381839 20135 net.cpp:165] Memory required for data: 5726887968
I1110 19:02:30.381844 20135 layer_factory.hpp:77] Creating layer conv4_3_norm_mbox_loc_bdc2018_flat_bdc2018
I1110 19:02:30.381850 20135 net.cpp:100] Creating Layer conv4_3_norm_mbox_loc_bdc2018_flat_bdc2018
I1110 19:02:30.381853 20135 net.cpp:434] conv4_3_norm_mbox_loc_bdc2018_flat_bdc2018 <- conv4_3_norm_mbox_loc_bdc2018_perm_bdc2018
I1110 19:02:30.381860 20135 net.cpp:408] conv4_3_norm_mbox_loc_bdc2018_flat_bdc2018 -> conv4_3_norm_mbox_loc_bdc2018_flat_bdc2018
I1110 19:02:30.381907 20135 net.cpp:150] Setting up conv4_3_norm_mbox_loc_bdc2018_flat_bdc2018
I1110 19:02:30.381916 20135 net.cpp:157] Top shape: 2 262144 (524288)
I1110 19:02:30.381918 20135 net.cpp:165] Memory required for data: 5728985120
I1110 19:02:30.381922 20135 layer_factory.hpp:77] Creating layer conv4_3_norm_mbox_conf_bdc2018_new
I1110 19:02:30.381942 20135 net.cpp:100] Creating Layer conv4_3_norm_mbox_conf_bdc2018_new
I1110 19:02:30.381947 20135 net.cpp:434] conv4_3_norm_mbox_conf_bdc2018_new <- conv4_3_norm_conv4_3_norm_0_split_1
I1110 19:02:30.381953 20135 net.cpp:408] conv4_3_norm_mbox_conf_bdc2018_new -> conv4_3_norm_mbox_conf_bdc2018_new
I1110 19:02:30.384217 20135 net.cpp:150] Setting up conv4_3_norm_mbox_conf_bdc2018_new
I1110 19:02:30.384243 20135 net.cpp:157] Top shape: 2 36 128 128 (1179648)
I1110 19:02:30.384246 20135 net.cpp:165] Memory required for data: 5733703712
I1110 19:02:30.384253 20135 layer_factory.hpp:77] Creating layer conv4_3_norm_mbox_conf_bdc2018_new_perm_bdc2018_new
I1110 19:02:30.384263 20135 net.cpp:100] Creating Layer conv4_3_norm_mbox_conf_bdc2018_new_perm_bdc2018_new
I1110 19:02:30.384266 20135 net.cpp:434] conv4_3_norm_mbox_conf_bdc2018_new_perm_bdc2018_new <- conv4_3_norm_mbox_conf_bdc2018_new
I1110 19:02:30.384272 20135 net.cpp:408] conv4_3_norm_mbox_conf_bdc2018_new_perm_bdc2018_new -> conv4_3_norm_mbox_conf_bdc2018_new_perm_bdc2018_new
I1110 19:02:30.384430 20135 net.cpp:150] Setting up conv4_3_norm_mbox_conf_bdc2018_new_perm_bdc2018_new
I1110 19:02:30.384439 20135 net.cpp:157] Top shape: 2 128 128 36 (1179648)
I1110 19:02:30.384443 20135 net.cpp:165] Memory required for data: 5738422304
I1110 19:02:30.384447 20135 layer_factory.hpp:77] Creating layer conv4_3_norm_mbox_conf_bdc2018_new_flat_bdc2018_new
I1110 19:02:30.384454 20135 net.cpp:100] Creating Layer conv4_3_norm_mbox_conf_bdc2018_new_flat_bdc2018_new
I1110 19:02:30.384459 20135 net.cpp:434] conv4_3_norm_mbox_conf_bdc2018_new_flat_bdc2018_new <- conv4_3_norm_mbox_conf_bdc2018_new_perm_bdc2018_new
I1110 19:02:30.384464 20135 net.cpp:408] conv4_3_norm_mbox_conf_bdc2018_new_flat_bdc2018_new -> conv4_3_norm_mbox_conf_bdc2018_new_flat_bdc2018_new
I1110 19:02:30.384498 20135 net.cpp:150] Setting up conv4_3_norm_mbox_conf_bdc2018_new_flat_bdc2018_new
I1110 19:02:30.384506 20135 net.cpp:157] Top shape: 2 589824 (1179648)
I1110 19:02:30.384510 20135 net.cpp:165] Memory required for data: 5743140896
I1110 19:02:30.384524 20135 layer_factory.hpp:77] Creating layer conv4_3_norm_mbox_priorbox
I1110 19:02:30.384534 20135 net.cpp:100] Creating Layer conv4_3_norm_mbox_priorbox
I1110 19:02:30.384538 20135 net.cpp:434] conv4_3_norm_mbox_priorbox <- conv4_3_norm_conv4_3_norm_0_split_2
I1110 19:02:30.384542 20135 net.cpp:434] conv4_3_norm_mbox_priorbox <- data_data_0_split_1
I1110 19:02:30.384548 20135 net.cpp:408] conv4_3_norm_mbox_priorbox -> conv4_3_norm_mbox_priorbox
I1110 19:02:30.384588 20135 net.cpp:150] Setting up conv4_3_norm_mbox_priorbox
I1110 19:02:30.384595 20135 net.cpp:157] Top shape: 1 2 262144 (524288)
I1110 19:02:30.384598 20135 net.cpp:165] Memory required for data: 5745238048
I1110 19:02:30.384601 20135 layer_factory.hpp:77] Creating layer fc7_mbox_loc_bdc2018
I1110 19:02:30.384613 20135 net.cpp:100] Creating Layer fc7_mbox_loc_bdc2018
I1110 19:02:30.384616 20135 net.cpp:434] fc7_mbox_loc_bdc2018 <- fc7_relu7_0_split_1
I1110 19:02:30.384626 20135 net.cpp:408] fc7_mbox_loc_bdc2018 -> fc7_mbox_loc_bdc2018
I1110 19:02:30.386955 20135 net.cpp:150] Setting up fc7_mbox_loc_bdc2018
I1110 19:02:30.386970 20135 net.cpp:157] Top shape: 2 24 64 64 (196608)
I1110 19:02:30.386984 20135 net.cpp:165] Memory required for data: 5746024480
I1110 19:02:30.386992 20135 layer_factory.hpp:77] Creating layer fc7_mbox_loc_bdc2018_perm_bdc2018
I1110 19:02:30.387001 20135 net.cpp:100] Creating Layer fc7_mbox_loc_bdc2018_perm_bdc2018
I1110 19:02:30.387006 20135 net.cpp:434] fc7_mbox_loc_bdc2018_perm_bdc2018 <- fc7_mbox_loc_bdc2018
I1110 19:02:30.387010 20135 net.cpp:408] fc7_mbox_loc_bdc2018_perm_bdc2018 -> fc7_mbox_loc_bdc2018_perm_bdc2018
I1110 19:02:30.387168 20135 net.cpp:150] Setting up fc7_mbox_loc_bdc2018_perm_bdc2018
I1110 19:02:30.387178 20135 net.cpp:157] Top shape: 2 64 64 24 (196608)
I1110 19:02:30.387181 20135 net.cpp:165] Memory required for data: 5746810912
I1110 19:02:30.387184 20135 layer_factory.hpp:77] Creating layer fc7_mbox_loc_bdc2018_flat_bdc2018
I1110 19:02:30.387192 20135 net.cpp:100] Creating Layer fc7_mbox_loc_bdc2018_flat_bdc2018
I1110 19:02:30.387195 20135 net.cpp:434] fc7_mbox_loc_bdc2018_flat_bdc2018 <- fc7_mbox_loc_bdc2018_perm_bdc2018
I1110 19:02:30.387200 20135 net.cpp:408] fc7_mbox_loc_bdc2018_flat_bdc2018 -> fc7_mbox_loc_bdc2018_flat_bdc2018
I1110 19:02:30.387233 20135 net.cpp:150] Setting up fc7_mbox_loc_bdc2018_flat_bdc2018
I1110 19:02:30.387241 20135 net.cpp:157] Top shape: 2 98304 (196608)
I1110 19:02:30.387244 20135 net.cpp:165] Memory required for data: 5747597344
I1110 19:02:30.387248 20135 layer_factory.hpp:77] Creating layer fc7_mbox_conf_bdc2018_new
I1110 19:02:30.387259 20135 net.cpp:100] Creating Layer fc7_mbox_conf_bdc2018_new
I1110 19:02:30.387264 20135 net.cpp:434] fc7_mbox_conf_bdc2018_new <- fc7_relu7_0_split_2
I1110 19:02:30.387270 20135 net.cpp:408] fc7_mbox_conf_bdc2018_new -> fc7_mbox_conf_bdc2018_new
I1110 19:02:30.392290 20135 net.cpp:150] Setting up fc7_mbox_conf_bdc2018_new
I1110 19:02:30.392307 20135 net.cpp:157] Top shape: 2 54 64 64 (442368)
I1110 19:02:30.392309 20135 net.cpp:165] Memory required for data: 5749366816
I1110 19:02:30.392318 20135 layer_factory.hpp:77] Creating layer fc7_mbox_conf_bdc2018_new_perm_bdc2018_new
I1110 19:02:30.392328 20135 net.cpp:100] Creating Layer fc7_mbox_conf_bdc2018_new_perm_bdc2018_new
I1110 19:02:30.392331 20135 net.cpp:434] fc7_mbox_conf_bdc2018_new_perm_bdc2018_new <- fc7_mbox_conf_bdc2018_new
I1110 19:02:30.392340 20135 net.cpp:408] fc7_mbox_conf_bdc2018_new_perm_bdc2018_new -> fc7_mbox_conf_bdc2018_new_perm_bdc2018_new
I1110 19:02:30.392490 20135 net.cpp:150] Setting up fc7_mbox_conf_bdc2018_new_perm_bdc2018_new
I1110 19:02:30.392499 20135 net.cpp:157] Top shape: 2 64 64 54 (442368)
I1110 19:02:30.392503 20135 net.cpp:165] Memory required for data: 5751136288
I1110 19:02:30.392506 20135 layer_factory.hpp:77] Creating layer fc7_mbox_conf_bdc2018_new_flat_bdc2018_new
I1110 19:02:30.392513 20135 net.cpp:100] Creating Layer fc7_mbox_conf_bdc2018_new_flat_bdc2018_new
I1110 19:02:30.392516 20135 net.cpp:434] fc7_mbox_conf_bdc2018_new_flat_bdc2018_new <- fc7_mbox_conf_bdc2018_new_perm_bdc2018_new
I1110 19:02:30.392535 20135 net.cpp:408] fc7_mbox_conf_bdc2018_new_flat_bdc2018_new -> fc7_mbox_conf_bdc2018_new_flat_bdc2018_new
I1110 19:02:30.392572 20135 net.cpp:150] Setting up fc7_mbox_conf_bdc2018_new_flat_bdc2018_new
I1110 19:02:30.392581 20135 net.cpp:157] Top shape: 2 221184 (442368)
I1110 19:02:30.392585 20135 net.cpp:165] Memory required for data: 5752905760
I1110 19:02:30.392587 20135 layer_factory.hpp:77] Creating layer fc7_mbox_priorbox
I1110 19:02:30.392593 20135 net.cpp:100] Creating Layer fc7_mbox_priorbox
I1110 19:02:30.392597 20135 net.cpp:434] fc7_mbox_priorbox <- fc7_relu7_0_split_3
I1110 19:02:30.392602 20135 net.cpp:434] fc7_mbox_priorbox <- data_data_0_split_2
I1110 19:02:30.392609 20135 net.cpp:408] fc7_mbox_priorbox -> fc7_mbox_priorbox
I1110 19:02:30.392645 20135 net.cpp:150] Setting up fc7_mbox_priorbox
I1110 19:02:30.392653 20135 net.cpp:157] Top shape: 1 2 98304 (196608)
I1110 19:02:30.392657 20135 net.cpp:165] Memory required for data: 5753692192
I1110 19:02:30.392662 20135 layer_factory.hpp:77] Creating layer conv6_2_mbox_loc_bdc2018
I1110 19:02:30.392673 20135 net.cpp:100] Creating Layer conv6_2_mbox_loc_bdc2018
I1110 19:02:30.392678 20135 net.cpp:434] conv6_2_mbox_loc_bdc2018 <- conv6_2_conv6_2_relu_0_split_1
I1110 19:02:30.392684 20135 net.cpp:408] conv6_2_mbox_loc_bdc2018 -> conv6_2_mbox_loc_bdc2018
I1110 19:02:30.394682 20135 net.cpp:150] Setting up conv6_2_mbox_loc_bdc2018
I1110 19:02:30.394697 20135 net.cpp:157] Top shape: 2 24 32 32 (49152)
I1110 19:02:30.394701 20135 net.cpp:165] Memory required for data: 5753888800
I1110 19:02:30.394708 20135 layer_factory.hpp:77] Creating layer conv6_2_mbox_loc_bdc2018_perm_bdc2018
I1110 19:02:30.394716 20135 net.cpp:100] Creating Layer conv6_2_mbox_loc_bdc2018_perm_bdc2018
I1110 19:02:30.394721 20135 net.cpp:434] conv6_2_mbox_loc_bdc2018_perm_bdc2018 <- conv6_2_mbox_loc_bdc2018
I1110 19:02:30.394726 20135 net.cpp:408] conv6_2_mbox_loc_bdc2018_perm_bdc2018 -> conv6_2_mbox_loc_bdc2018_perm_bdc2018
I1110 19:02:30.394874 20135 net.cpp:150] Setting up conv6_2_mbox_loc_bdc2018_perm_bdc2018
I1110 19:02:30.394883 20135 net.cpp:157] Top shape: 2 32 32 24 (49152)
I1110 19:02:30.394886 20135 net.cpp:165] Memory required for data: 5754085408
I1110 19:02:30.394889 20135 layer_factory.hpp:77] Creating layer conv6_2_mbox_loc_bdc2018_flat_bdc2018
I1110 19:02:30.394896 20135 net.cpp:100] Creating Layer conv6_2_mbox_loc_bdc2018_flat_bdc2018
I1110 19:02:30.394899 20135 net.cpp:434] conv6_2_mbox_loc_bdc2018_flat_bdc2018 <- conv6_2_mbox_loc_bdc2018_perm_bdc2018
I1110 19:02:30.394907 20135 net.cpp:408] conv6_2_mbox_loc_bdc2018_flat_bdc2018 -> conv6_2_mbox_loc_bdc2018_flat_bdc2018
I1110 19:02:30.394942 20135 net.cpp:150] Setting up conv6_2_mbox_loc_bdc2018_flat_bdc2018
I1110 19:02:30.394948 20135 net.cpp:157] Top shape: 2 24576 (49152)
I1110 19:02:30.394951 20135 net.cpp:165] Memory required for data: 5754282016
I1110 19:02:30.394955 20135 layer_factory.hpp:77] Creating layer conv6_2_mbox_conf_bdc2018_new
I1110 19:02:30.394966 20135 net.cpp:100] Creating Layer conv6_2_mbox_conf_bdc2018_new
I1110 19:02:30.394974 20135 net.cpp:434] conv6_2_mbox_conf_bdc2018_new <- conv6_2_conv6_2_relu_0_split_2
I1110 19:02:30.394982 20135 net.cpp:408] conv6_2_mbox_conf_bdc2018_new -> conv6_2_mbox_conf_bdc2018_new
I1110 19:02:30.398728 20135 net.cpp:150] Setting up conv6_2_mbox_conf_bdc2018_new
I1110 19:02:30.398744 20135 net.cpp:157] Top shape: 2 54 32 32 (110592)
I1110 19:02:30.398749 20135 net.cpp:165] Memory required for data: 5754724384
I1110 19:02:30.398756 20135 layer_factory.hpp:77] Creating layer conv6_2_mbox_conf_bdc2018_new_perm_bdc2018_new
I1110 19:02:30.398764 20135 net.cpp:100] Creating Layer conv6_2_mbox_conf_bdc2018_new_perm_bdc2018_new
I1110 19:02:30.398769 20135 net.cpp:434] conv6_2_mbox_conf_bdc2018_new_perm_bdc2018_new <- conv6_2_mbox_conf_bdc2018_new
I1110 19:02:30.398774 20135 net.cpp:408] conv6_2_mbox_conf_bdc2018_new_perm_bdc2018_new -> conv6_2_mbox_conf_bdc2018_new_perm_bdc2018_new
I1110 19:02:30.398942 20135 net.cpp:150] Setting up conv6_2_mbox_conf_bdc2018_new_perm_bdc2018_new
I1110 19:02:30.398952 20135 net.cpp:157] Top shape: 2 32 32 54 (110592)
I1110 19:02:30.398955 20135 net.cpp:165] Memory required for data: 5755166752
I1110 19:02:30.398958 20135 layer_factory.hpp:77] Creating layer conv6_2_mbox_conf_bdc2018_new_flat_bdc2018_new
I1110 19:02:30.398967 20135 net.cpp:100] Creating Layer conv6_2_mbox_conf_bdc2018_new_flat_bdc2018_new
I1110 19:02:30.398970 20135 net.cpp:434] conv6_2_mbox_conf_bdc2018_new_flat_bdc2018_new <- conv6_2_mbox_conf_bdc2018_new_perm_bdc2018_new
I1110 19:02:30.398977 20135 net.cpp:408] conv6_2_mbox_conf_bdc2018_new_flat_bdc2018_new -> conv6_2_mbox_conf_bdc2018_new_flat_bdc2018_new
I1110 19:02:30.399010 20135 net.cpp:150] Setting up conv6_2_mbox_conf_bdc2018_new_flat_bdc2018_new
I1110 19:02:30.399019 20135 net.cpp:157] Top shape: 2 55296 (110592)
I1110 19:02:30.399021 20135 net.cpp:165] Memory required for data: 5755609120
I1110 19:02:30.399025 20135 layer_factory.hpp:77] Creating layer conv6_2_mbox_priorbox
I1110 19:02:30.399034 20135 net.cpp:100] Creating Layer conv6_2_mbox_priorbox
I1110 19:02:30.399037 20135 net.cpp:434] conv6_2_mbox_priorbox <- conv6_2_conv6_2_relu_0_split_3
I1110 19:02:30.399042 20135 net.cpp:434] conv6_2_mbox_priorbox <- data_data_0_split_3
I1110 19:02:30.399049 20135 net.cpp:408] conv6_2_mbox_priorbox -> conv6_2_mbox_priorbox
I1110 19:02:30.399085 20135 net.cpp:150] Setting up conv6_2_mbox_priorbox
I1110 19:02:30.399092 20135 net.cpp:157] Top shape: 1 2 24576 (49152)
I1110 19:02:30.399096 20135 net.cpp:165] Memory required for data: 5755805728
I1110 19:02:30.399098 20135 layer_factory.hpp:77] Creating layer conv7_2_mbox_loc_bdc2018
I1110 19:02:30.399108 20135 net.cpp:100] Creating Layer conv7_2_mbox_loc_bdc2018
I1110 19:02:30.399112 20135 net.cpp:434] conv7_2_mbox_loc_bdc2018 <- conv7_2_conv7_2_relu_0_split_1
I1110 19:02:30.399121 20135 net.cpp:408] conv7_2_mbox_loc_bdc2018 -> conv7_2_mbox_loc_bdc2018
I1110 19:02:30.400874 20135 net.cpp:150] Setting up conv7_2_mbox_loc_bdc2018
I1110 19:02:30.400890 20135 net.cpp:157] Top shape: 2 24 16 16 (12288)
I1110 19:02:30.400905 20135 net.cpp:165] Memory required for data: 5755854880
I1110 19:02:30.400912 20135 layer_factory.hpp:77] Creating layer conv7_2_mbox_loc_bdc2018_perm_bdc2018
I1110 19:02:30.400918 20135 net.cpp:100] Creating Layer conv7_2_mbox_loc_bdc2018_perm_bdc2018
I1110 19:02:30.400925 20135 net.cpp:434] conv7_2_mbox_loc_bdc2018_perm_bdc2018 <- conv7_2_mbox_loc_bdc2018
I1110 19:02:30.400930 20135 net.cpp:408] conv7_2_mbox_loc_bdc2018_perm_bdc2018 -> conv7_2_mbox_loc_bdc2018_perm_bdc2018
I1110 19:02:30.401074 20135 net.cpp:150] Setting up conv7_2_mbox_loc_bdc2018_perm_bdc2018
I1110 19:02:30.401084 20135 net.cpp:157] Top shape: 2 16 16 24 (12288)
I1110 19:02:30.401087 20135 net.cpp:165] Memory required for data: 5755904032
I1110 19:02:30.401093 20135 layer_factory.hpp:77] Creating layer conv7_2_mbox_loc_bdc2018_flat_bdc2018
I1110 19:02:30.401098 20135 net.cpp:100] Creating Layer conv7_2_mbox_loc_bdc2018_flat_bdc2018
I1110 19:02:30.401103 20135 net.cpp:434] conv7_2_mbox_loc_bdc2018_flat_bdc2018 <- conv7_2_mbox_loc_bdc2018_perm_bdc2018
I1110 19:02:30.401108 20135 net.cpp:408] conv7_2_mbox_loc_bdc2018_flat_bdc2018 -> conv7_2_mbox_loc_bdc2018_flat_bdc2018
I1110 19:02:30.401140 20135 net.cpp:150] Setting up conv7_2_mbox_loc_bdc2018_flat_bdc2018
I1110 19:02:30.401150 20135 net.cpp:157] Top shape: 2 6144 (12288)
I1110 19:02:30.401154 20135 net.cpp:165] Memory required for data: 5755953184
I1110 19:02:30.401156 20135 layer_factory.hpp:77] Creating layer conv7_2_mbox_conf_bdc2018_new
I1110 19:02:30.401166 20135 net.cpp:100] Creating Layer conv7_2_mbox_conf_bdc2018_new
I1110 19:02:30.401170 20135 net.cpp:434] conv7_2_mbox_conf_bdc2018_new <- conv7_2_conv7_2_relu_0_split_2
I1110 19:02:30.401177 20135 net.cpp:408] conv7_2_mbox_conf_bdc2018_new -> conv7_2_mbox_conf_bdc2018_new
I1110 19:02:30.403215 20135 net.cpp:150] Setting up conv7_2_mbox_conf_bdc2018_new
I1110 19:02:30.403241 20135 net.cpp:157] Top shape: 2 54 16 16 (27648)
I1110 19:02:30.403256 20135 net.cpp:165] Memory required for data: 5756063776
I1110 19:02:30.403264 20135 layer_factory.hpp:77] Creating layer conv7_2_mbox_conf_bdc2018_new_perm_bdc2018_new
I1110 19:02:30.403272 20135 net.cpp:100] Creating Layer conv7_2_mbox_conf_bdc2018_new_perm_bdc2018_new
I1110 19:02:30.403276 20135 net.cpp:434] conv7_2_mbox_conf_bdc2018_new_perm_bdc2018_new <- conv7_2_mbox_conf_bdc2018_new
I1110 19:02:30.403282 20135 net.cpp:408] conv7_2_mbox_conf_bdc2018_new_perm_bdc2018_new -> conv7_2_mbox_conf_bdc2018_new_perm_bdc2018_new
I1110 19:02:30.403442 20135 net.cpp:150] Setting up conv7_2_mbox_conf_bdc2018_new_perm_bdc2018_new
I1110 19:02:30.403452 20135 net.cpp:157] Top shape: 2 16 16 54 (27648)
I1110 19:02:30.403455 20135 net.cpp:165] Memory required for data: 5756174368
I1110 19:02:30.403460 20135 layer_factory.hpp:77] Creating layer conv7_2_mbox_conf_bdc2018_new_flat_bdc2018_new
I1110 19:02:30.403466 20135 net.cpp:100] Creating Layer conv7_2_mbox_conf_bdc2018_new_flat_bdc2018_new
I1110 19:02:30.403470 20135 net.cpp:434] conv7_2_mbox_conf_bdc2018_new_flat_bdc2018_new <- conv7_2_mbox_conf_bdc2018_new_perm_bdc2018_new
I1110 19:02:30.403476 20135 net.cpp:408] conv7_2_mbox_conf_bdc2018_new_flat_bdc2018_new -> conv7_2_mbox_conf_bdc2018_new_flat_bdc2018_new
I1110 19:02:30.403512 20135 net.cpp:150] Setting up conv7_2_mbox_conf_bdc2018_new_flat_bdc2018_new
I1110 19:02:30.403520 20135 net.cpp:157] Top shape: 2 13824 (27648)
I1110 19:02:30.403522 20135 net.cpp:165] Memory required for data: 5756284960
I1110 19:02:30.403527 20135 layer_factory.hpp:77] Creating layer conv7_2_mbox_priorbox
I1110 19:02:30.403532 20135 net.cpp:100] Creating Layer conv7_2_mbox_priorbox
I1110 19:02:30.403535 20135 net.cpp:434] conv7_2_mbox_priorbox <- conv7_2_conv7_2_relu_0_split_3
I1110 19:02:30.403540 20135 net.cpp:434] conv7_2_mbox_priorbox <- data_data_0_split_4
I1110 19:02:30.403548 20135 net.cpp:408] conv7_2_mbox_priorbox -> conv7_2_mbox_priorbox
I1110 19:02:30.403584 20135 net.cpp:150] Setting up conv7_2_mbox_priorbox
I1110 19:02:30.403591 20135 net.cpp:157] Top shape: 1 2 6144 (12288)
I1110 19:02:30.403594 20135 net.cpp:165] Memory required for data: 5756334112
I1110 19:02:30.403597 20135 layer_factory.hpp:77] Creating layer conv8_2_mbox_loc_bdc2018
I1110 19:02:30.403607 20135 net.cpp:100] Creating Layer conv8_2_mbox_loc_bdc2018
I1110 19:02:30.403612 20135 net.cpp:434] conv8_2_mbox_loc_bdc2018 <- conv8_2_conv8_2_relu_0_split_1
I1110 19:02:30.403620 20135 net.cpp:408] conv8_2_mbox_loc_bdc2018 -> conv8_2_mbox_loc_bdc2018
I1110 19:02:30.405292 20135 net.cpp:150] Setting up conv8_2_mbox_loc_bdc2018
I1110 19:02:30.405321 20135 net.cpp:157] Top shape: 2 16 14 14 (6272)
I1110 19:02:30.405325 20135 net.cpp:165] Memory required for data: 5756359200
I1110 19:02:30.405344 20135 layer_factory.hpp:77] Creating layer conv8_2_mbox_loc_bdc2018_perm_bdc2018
I1110 19:02:30.405351 20135 net.cpp:100] Creating Layer conv8_2_mbox_loc_bdc2018_perm_bdc2018
I1110 19:02:30.405356 20135 net.cpp:434] conv8_2_mbox_loc_bdc2018_perm_bdc2018 <- conv8_2_mbox_loc_bdc2018
I1110 19:02:30.405362 20135 net.cpp:408] conv8_2_mbox_loc_bdc2018_perm_bdc2018 -> conv8_2_mbox_loc_bdc2018_perm_bdc2018
I1110 19:02:30.405514 20135 net.cpp:150] Setting up conv8_2_mbox_loc_bdc2018_perm_bdc2018
I1110 19:02:30.405524 20135 net.cpp:157] Top shape: 2 14 14 16 (6272)
I1110 19:02:30.405526 20135 net.cpp:165] Memory required for data: 5756384288
I1110 19:02:30.405529 20135 layer_factory.hpp:77] Creating layer conv8_2_mbox_loc_bdc2018_flat_bdc2018
I1110 19:02:30.405536 20135 net.cpp:100] Creating Layer conv8_2_mbox_loc_bdc2018_flat_bdc2018
I1110 19:02:30.405540 20135 net.cpp:434] conv8_2_mbox_loc_bdc2018_flat_bdc2018 <- conv8_2_mbox_loc_bdc2018_perm_bdc2018
I1110 19:02:30.405546 20135 net.cpp:408] conv8_2_mbox_loc_bdc2018_flat_bdc2018 -> conv8_2_mbox_loc_bdc2018_flat_bdc2018
I1110 19:02:30.405580 20135 net.cpp:150] Setting up conv8_2_mbox_loc_bdc2018_flat_bdc2018
I1110 19:02:30.405587 20135 net.cpp:157] Top shape: 2 3136 (6272)
I1110 19:02:30.405591 20135 net.cpp:165] Memory required for data: 5756409376
I1110 19:02:30.405604 20135 layer_factory.hpp:77] Creating layer conv8_2_mbox_conf_bdc2018_new
I1110 19:02:30.405616 20135 net.cpp:100] Creating Layer conv8_2_mbox_conf_bdc2018_new
I1110 19:02:30.405620 20135 net.cpp:434] conv8_2_mbox_conf_bdc2018_new <- conv8_2_conv8_2_relu_0_split_2
I1110 19:02:30.405629 20135 net.cpp:408] conv8_2_mbox_conf_bdc2018_new -> conv8_2_mbox_conf_bdc2018_new
I1110 19:02:30.407471 20135 net.cpp:150] Setting up conv8_2_mbox_conf_bdc2018_new
I1110 19:02:30.407500 20135 net.cpp:157] Top shape: 2 36 14 14 (14112)
I1110 19:02:30.407503 20135 net.cpp:165] Memory required for data: 5756465824
I1110 19:02:30.407511 20135 layer_factory.hpp:77] Creating layer conv8_2_mbox_conf_bdc2018_new_perm_bdc2018_new
I1110 19:02:30.407518 20135 net.cpp:100] Creating Layer conv8_2_mbox_conf_bdc2018_new_perm_bdc2018_new
I1110 19:02:30.407522 20135 net.cpp:434] conv8_2_mbox_conf_bdc2018_new_perm_bdc2018_new <- conv8_2_mbox_conf_bdc2018_new
I1110 19:02:30.407531 20135 net.cpp:408] conv8_2_mbox_conf_bdc2018_new_perm_bdc2018_new -> conv8_2_mbox_conf_bdc2018_new_perm_bdc2018_new
I1110 19:02:30.407692 20135 net.cpp:150] Setting up conv8_2_mbox_conf_bdc2018_new_perm_bdc2018_new
I1110 19:02:30.407701 20135 net.cpp:157] Top shape: 2 14 14 36 (14112)
I1110 19:02:30.407704 20135 net.cpp:165] Memory required for data: 5756522272
I1110 19:02:30.407708 20135 layer_factory.hpp:77] Creating layer conv8_2_mbox_conf_bdc2018_new_flat_bdc2018_new
I1110 19:02:30.407714 20135 net.cpp:100] Creating Layer conv8_2_mbox_conf_bdc2018_new_flat_bdc2018_new
I1110 19:02:30.407718 20135 net.cpp:434] conv8_2_mbox_conf_bdc2018_new_flat_bdc2018_new <- conv8_2_mbox_conf_bdc2018_new_perm_bdc2018_new
I1110 19:02:30.407724 20135 net.cpp:408] conv8_2_mbox_conf_bdc2018_new_flat_bdc2018_new -> conv8_2_mbox_conf_bdc2018_new_flat_bdc2018_new
I1110 19:02:30.407761 20135 net.cpp:150] Setting up conv8_2_mbox_conf_bdc2018_new_flat_bdc2018_new
I1110 19:02:30.407769 20135 net.cpp:157] Top shape: 2 7056 (14112)
I1110 19:02:30.407773 20135 net.cpp:165] Memory required for data: 5756578720
I1110 19:02:30.407775 20135 layer_factory.hpp:77] Creating layer conv8_2_mbox_priorbox
I1110 19:02:30.407781 20135 net.cpp:100] Creating Layer conv8_2_mbox_priorbox
I1110 19:02:30.407784 20135 net.cpp:434] conv8_2_mbox_priorbox <- conv8_2_conv8_2_relu_0_split_3
I1110 19:02:30.407789 20135 net.cpp:434] conv8_2_mbox_priorbox <- data_data_0_split_5
I1110 19:02:30.407796 20135 net.cpp:408] conv8_2_mbox_priorbox -> conv8_2_mbox_priorbox
I1110 19:02:30.407840 20135 net.cpp:150] Setting up conv8_2_mbox_priorbox
I1110 19:02:30.407848 20135 net.cpp:157] Top shape: 1 2 3136 (6272)
I1110 19:02:30.407851 20135 net.cpp:165] Memory required for data: 5756603808
I1110 19:02:30.407855 20135 layer_factory.hpp:77] Creating layer conv9_2_mbox_loc_bdc2018
I1110 19:02:30.407866 20135 net.cpp:100] Creating Layer conv9_2_mbox_loc_bdc2018
I1110 19:02:30.407872 20135 net.cpp:434] conv9_2_mbox_loc_bdc2018 <- conv9_2_conv9_2_relu_0_split_0
I1110 19:02:30.407879 20135 net.cpp:408] conv9_2_mbox_loc_bdc2018 -> conv9_2_mbox_loc_bdc2018
I1110 19:02:30.409731 20135 net.cpp:150] Setting up conv9_2_mbox_loc_bdc2018
I1110 19:02:30.409759 20135 net.cpp:157] Top shape: 2 16 12 12 (4608)
I1110 19:02:30.409762 20135 net.cpp:165] Memory required for data: 5756622240
I1110 19:02:30.409768 20135 layer_factory.hpp:77] Creating layer conv9_2_mbox_loc_bdc2018_perm_bdc2018
I1110 19:02:30.409780 20135 net.cpp:100] Creating Layer conv9_2_mbox_loc_bdc2018_perm_bdc2018
I1110 19:02:30.409785 20135 net.cpp:434] conv9_2_mbox_loc_bdc2018_perm_bdc2018 <- conv9_2_mbox_loc_bdc2018
I1110 19:02:30.409791 20135 net.cpp:408] conv9_2_mbox_loc_bdc2018_perm_bdc2018 -> conv9_2_mbox_loc_bdc2018_perm_bdc2018
I1110 19:02:30.409953 20135 net.cpp:150] Setting up conv9_2_mbox_loc_bdc2018_perm_bdc2018
I1110 19:02:30.409965 20135 net.cpp:157] Top shape: 2 12 12 16 (4608)
I1110 19:02:30.409967 20135 net.cpp:165] Memory required for data: 5756640672
I1110 19:02:30.409970 20135 layer_factory.hpp:77] Creating layer conv9_2_mbox_loc_bdc2018_flat_bdc2018
I1110 19:02:30.409989 20135 net.cpp:100] Creating Layer conv9_2_mbox_loc_bdc2018_flat_bdc2018
I1110 19:02:30.409996 20135 net.cpp:434] conv9_2_mbox_loc_bdc2018_flat_bdc2018 <- conv9_2_mbox_loc_bdc2018_perm_bdc2018
I1110 19:02:30.410001 20135 net.cpp:408] conv9_2_mbox_loc_bdc2018_flat_bdc2018 -> conv9_2_mbox_loc_bdc2018_flat_bdc2018
I1110 19:02:30.410039 20135 net.cpp:150] Setting up conv9_2_mbox_loc_bdc2018_flat_bdc2018
I1110 19:02:30.410048 20135 net.cpp:157] Top shape: 2 2304 (4608)
I1110 19:02:30.410051 20135 net.cpp:165] Memory required for data: 5756659104
I1110 19:02:30.410054 20135 layer_factory.hpp:77] Creating layer conv9_2_mbox_conf_bdc2018_new
I1110 19:02:30.410064 20135 net.cpp:100] Creating Layer conv9_2_mbox_conf_bdc2018_new
I1110 19:02:30.410068 20135 net.cpp:434] conv9_2_mbox_conf_bdc2018_new <- conv9_2_conv9_2_relu_0_split_1
I1110 19:02:30.410075 20135 net.cpp:408] conv9_2_mbox_conf_bdc2018_new -> conv9_2_mbox_conf_bdc2018_new
I1110 19:02:30.411973 20135 net.cpp:150] Setting up conv9_2_mbox_conf_bdc2018_new
I1110 19:02:30.412000 20135 net.cpp:157] Top shape: 2 36 12 12 (10368)
I1110 19:02:30.412003 20135 net.cpp:165] Memory required for data: 5756700576
I1110 19:02:30.412010 20135 layer_factory.hpp:77] Creating layer conv9_2_mbox_conf_bdc2018_new_perm_bdc2018_new
I1110 19:02:30.412019 20135 net.cpp:100] Creating Layer conv9_2_mbox_conf_bdc2018_new_perm_bdc2018_new
I1110 19:02:30.412024 20135 net.cpp:434] conv9_2_mbox_conf_bdc2018_new_perm_bdc2018_new <- conv9_2_mbox_conf_bdc2018_new
I1110 19:02:30.412029 20135 net.cpp:408] conv9_2_mbox_conf_bdc2018_new_perm_bdc2018_new -> conv9_2_mbox_conf_bdc2018_new_perm_bdc2018_new
I1110 19:02:30.412204 20135 net.cpp:150] Setting up conv9_2_mbox_conf_bdc2018_new_perm_bdc2018_new
I1110 19:02:30.412214 20135 net.cpp:157] Top shape: 2 12 12 36 (10368)
I1110 19:02:30.412219 20135 net.cpp:165] Memory required for data: 5756742048
I1110 19:02:30.412221 20135 layer_factory.hpp:77] Creating layer conv9_2_mbox_conf_bdc2018_new_flat_bdc2018_new
I1110 19:02:30.412227 20135 net.cpp:100] Creating Layer conv9_2_mbox_conf_bdc2018_new_flat_bdc2018_new
I1110 19:02:30.412231 20135 net.cpp:434] conv9_2_mbox_conf_bdc2018_new_flat_bdc2018_new <- conv9_2_mbox_conf_bdc2018_new_perm_bdc2018_new
I1110 19:02:30.412238 20135 net.cpp:408] conv9_2_mbox_conf_bdc2018_new_flat_bdc2018_new -> conv9_2_mbox_conf_bdc2018_new_flat_bdc2018_new
I1110 19:02:30.412276 20135 net.cpp:150] Setting up conv9_2_mbox_conf_bdc2018_new_flat_bdc2018_new
I1110 19:02:30.412283 20135 net.cpp:157] Top shape: 2 5184 (10368)
I1110 19:02:30.412286 20135 net.cpp:165] Memory required for data: 5756783520
I1110 19:02:30.412289 20135 layer_factory.hpp:77] Creating layer conv9_2_mbox_priorbox
I1110 19:02:30.412297 20135 net.cpp:100] Creating Layer conv9_2_mbox_priorbox
I1110 19:02:30.412302 20135 net.cpp:434] conv9_2_mbox_priorbox <- conv9_2_conv9_2_relu_0_split_2
I1110 19:02:30.412305 20135 net.cpp:434] conv9_2_mbox_priorbox <- data_data_0_split_6
I1110 19:02:30.412312 20135 net.cpp:408] conv9_2_mbox_priorbox -> conv9_2_mbox_priorbox
I1110 19:02:30.412348 20135 net.cpp:150] Setting up conv9_2_mbox_priorbox
I1110 19:02:30.412355 20135 net.cpp:157] Top shape: 1 2 2304 (4608)
I1110 19:02:30.412358 20135 net.cpp:165] Memory required for data: 5756801952
I1110 19:02:30.412362 20135 layer_factory.hpp:77] Creating layer mbox_loc
I1110 19:02:30.412374 20135 net.cpp:100] Creating Layer mbox_loc
I1110 19:02:30.412377 20135 net.cpp:434] mbox_loc <- conv4_3_norm_mbox_loc_bdc2018_flat_bdc2018
I1110 19:02:30.412382 20135 net.cpp:434] mbox_loc <- fc7_mbox_loc_bdc2018_flat_bdc2018
I1110 19:02:30.412387 20135 net.cpp:434] mbox_loc <- conv6_2_mbox_loc_bdc2018_flat_bdc2018
I1110 19:02:30.412391 20135 net.cpp:434] mbox_loc <- conv7_2_mbox_loc_bdc2018_flat_bdc2018
I1110 19:02:30.412395 20135 net.cpp:434] mbox_loc <- conv8_2_mbox_loc_bdc2018_flat_bdc2018
I1110 19:02:30.412398 20135 net.cpp:434] mbox_loc <- conv9_2_mbox_loc_bdc2018_flat_bdc2018
I1110 19:02:30.412403 20135 net.cpp:408] mbox_loc -> mbox_loc
I1110 19:02:30.412438 20135 net.cpp:150] Setting up mbox_loc
I1110 19:02:30.412458 20135 net.cpp:157] Top shape: 2 396608 (793216)
I1110 19:02:30.412462 20135 net.cpp:165] Memory required for data: 5759974816
I1110 19:02:30.412466 20135 layer_factory.hpp:77] Creating layer mbox_conf
I1110 19:02:30.412472 20135 net.cpp:100] Creating Layer mbox_conf
I1110 19:02:30.412475 20135 net.cpp:434] mbox_conf <- conv4_3_norm_mbox_conf_bdc2018_new_flat_bdc2018_new
I1110 19:02:30.412479 20135 net.cpp:434] mbox_conf <- fc7_mbox_conf_bdc2018_new_flat_bdc2018_new
I1110 19:02:30.412484 20135 net.cpp:434] mbox_conf <- conv6_2_mbox_conf_bdc2018_new_flat_bdc2018_new
I1110 19:02:30.412488 20135 net.cpp:434] mbox_conf <- conv7_2_mbox_conf_bdc2018_new_flat_bdc2018_new
I1110 19:02:30.412492 20135 net.cpp:434] mbox_conf <- conv8_2_mbox_conf_bdc2018_new_flat_bdc2018_new
I1110 19:02:30.412495 20135 net.cpp:434] mbox_conf <- conv9_2_mbox_conf_bdc2018_new_flat_bdc2018_new
I1110 19:02:30.412503 20135 net.cpp:408] mbox_conf -> mbox_conf
I1110 19:02:30.412539 20135 net.cpp:150] Setting up mbox_conf
I1110 19:02:30.412546 20135 net.cpp:157] Top shape: 2 892368 (1784736)
I1110 19:02:30.412549 20135 net.cpp:165] Memory required for data: 5767113760
I1110 19:02:30.412551 20135 layer_factory.hpp:77] Creating layer mbox_priorbox
I1110 19:02:30.412557 20135 net.cpp:100] Creating Layer mbox_priorbox
I1110 19:02:30.412560 20135 net.cpp:434] mbox_priorbox <- conv4_3_norm_mbox_priorbox
I1110 19:02:30.412565 20135 net.cpp:434] mbox_priorbox <- fc7_mbox_priorbox
I1110 19:02:30.412569 20135 net.cpp:434] mbox_priorbox <- conv6_2_mbox_priorbox
I1110 19:02:30.412572 20135 net.cpp:434] mbox_priorbox <- conv7_2_mbox_priorbox
I1110 19:02:30.412577 20135 net.cpp:434] mbox_priorbox <- conv8_2_mbox_priorbox
I1110 19:02:30.412580 20135 net.cpp:434] mbox_priorbox <- conv9_2_mbox_priorbox
I1110 19:02:30.412587 20135 net.cpp:408] mbox_priorbox -> mbox_priorbox
I1110 19:02:30.412619 20135 net.cpp:150] Setting up mbox_priorbox
I1110 19:02:30.412629 20135 net.cpp:157] Top shape: 1 2 396608 (793216)
I1110 19:02:30.412632 20135 net.cpp:165] Memory required for data: 5770286624
I1110 19:02:30.412636 20135 layer_factory.hpp:77] Creating layer mbox_conf_reshape
I1110 19:02:30.412642 20135 net.cpp:100] Creating Layer mbox_conf_reshape
I1110 19:02:30.412647 20135 net.cpp:434] mbox_conf_reshape <- mbox_conf
I1110 19:02:30.412652 20135 net.cpp:408] mbox_conf_reshape -> mbox_conf_reshape
I1110 19:02:30.412695 20135 net.cpp:150] Setting up mbox_conf_reshape
I1110 19:02:30.412703 20135 net.cpp:157] Top shape: 2 99152 9 (1784736)
I1110 19:02:30.412706 20135 net.cpp:165] Memory required for data: 5777425568
I1110 19:02:30.412709 20135 layer_factory.hpp:77] Creating layer mbox_conf_softmax
I1110 19:02:30.412717 20135 net.cpp:100] Creating Layer mbox_conf_softmax
I1110 19:02:30.412721 20135 net.cpp:434] mbox_conf_softmax <- mbox_conf_reshape
I1110 19:02:30.412726 20135 net.cpp:408] mbox_conf_softmax -> mbox_conf_softmax
I1110 19:02:30.413041 20135 net.cpp:150] Setting up mbox_conf_softmax
I1110 19:02:30.413055 20135 net.cpp:157] Top shape: 2 99152 9 (1784736)
I1110 19:02:30.413058 20135 net.cpp:165] Memory required for data: 5784564512
I1110 19:02:30.413061 20135 layer_factory.hpp:77] Creating layer mbox_conf_flatten
I1110 19:02:30.413069 20135 net.cpp:100] Creating Layer mbox_conf_flatten
I1110 19:02:30.413071 20135 net.cpp:434] mbox_conf_flatten <- mbox_conf_softmax
I1110 19:02:30.413079 20135 net.cpp:408] mbox_conf_flatten -> mbox_conf_flatten
I1110 19:02:30.413115 20135 net.cpp:150] Setting up mbox_conf_flatten
I1110 19:02:30.413125 20135 net.cpp:157] Top shape: 2 892368 (1784736)
I1110 19:02:30.413127 20135 net.cpp:165] Memory required for data: 5791703456
I1110 19:02:30.413130 20135 layer_factory.hpp:77] Creating layer detection_out
I1110 19:02:30.413144 20135 net.cpp:100] Creating Layer detection_out
I1110 19:02:30.413148 20135 net.cpp:434] detection_out <- mbox_loc
I1110 19:02:30.413153 20135 net.cpp:434] detection_out <- mbox_conf_flatten
I1110 19:02:30.413157 20135 net.cpp:434] detection_out <- mbox_priorbox
I1110 19:02:30.413177 20135 net.cpp:408] detection_out -> detection_out
W1110 19:02:30.413208 20135 detection_output_layer.cpp:49] Failed to create directory: /home/user/data/bdc2018/results/SSD_1024x1024/Main
I1110 19:02:30.413842 20135 net.cpp:150] Setting up detection_out
I1110 19:02:30.413856 20135 net.cpp:157] Top shape: 1 1 1 7 (7)
I1110 19:02:30.413859 20135 net.cpp:165] Memory required for data: 5791703484
I1110 19:02:30.413862 20135 layer_factory.hpp:77] Creating layer detection_eval
I1110 19:02:30.413873 20135 net.cpp:100] Creating Layer detection_eval
I1110 19:02:30.413877 20135 net.cpp:434] detection_eval <- detection_out
I1110 19:02:30.413882 20135 net.cpp:434] detection_eval <- label
I1110 19:02:30.413887 20135 net.cpp:408] detection_eval -> detection_eval
I1110 19:02:30.414070 20135 net.cpp:150] Setting up detection_eval
I1110 19:02:30.414081 20135 net.cpp:157] Top shape: 1 1 9 5 (45)
I1110 19:02:30.414084 20135 net.cpp:165] Memory required for data: 5791703664
I1110 19:02:30.414088 20135 net.cpp:228] detection_eval does not need backward computation.
I1110 19:02:30.414091 20135 net.cpp:228] detection_out does not need backward computation.
I1110 19:02:30.414095 20135 net.cpp:228] mbox_conf_flatten does not need backward computation.
I1110 19:02:30.414099 20135 net.cpp:228] mbox_conf_softmax does not need backward computation.
…
