…
      sampler {
        min_scale: 0.3
        max_scale: 1
        min_aspect_ratio: 0.5
        max_aspect_ratio: 2
      }
      sample_constraint {
        min_jaccard_overlap: 0.9
      }
      max_sample: 1
      max_trials: 50
    }
    batch_sampler {
      sampler {
        min_scale: 0.3
        max_scale: 1
        min_aspect_ratio: 0.5
        max_aspect_ratio: 2
      }
      sample_constraint {
        max_jaccard_overlap: 1
      }
      max_sample: 1
      max_trials: 50
    }
    label_map_file: "data/bdc2018/labelmap_bdc.prototxt"
  }
}
layer {
  name: "conv1_1"
  type: "Convolution"
  bottom: "data"
  top: "conv1_1"
  param {
    lr_mult: 1
    decay_mult: 1
  }
  param {
    lr_mult: 2
    decay_mult: 0
  }
  convolution_param {
    num_output: 64
    pad: 1
    kernel_size: 3
    weight_filler {
      type: "xavier"
    }
    bias_filler {
      type: "constant"
      value: 0
    }
  }
}
layer {
  name: "relu1_1"
  type: "ReLU"
  bottom: "conv1_1"
  top: "conv1_1"
}
layer {
  name: "conv1_2"
  type: "Convolution"
  bottom: "conv1_1"
  top: "conv1_2"
  param {
    lr_mult: 1
    decay_mult: 1
  }
  param {
    lr_mult: 2
    decay_mult: 0
  }
  convolution_param {
    num_output: 64
    pad: 1
    kernel_size: 3
    weight_filler {
      type: "xavier"
    }
    bias_filler {
      type: "constant"
      value: 0
    }
  }
}
layer {
  name: "relu1_2"
  type: "ReLU"
  bottom: "conv1_2"
  top: "conv1_2"
}
layer {
  name: "pool1"
  type: "Pooling"
  bottom: "conv1_2"
  top: "pool1"
  pooling_param {
    pool: MAX
    kernel_size: 2
    stride: 2
  }
}
layer {
  name: "conv2_1"
  type: "Convolution"
  bottom: "pool1"
  top: "conv2_1"
  param {
    lr_mult: 1
    decay_mult: 1
  }
  param {
    lr_mult: 2
    decay_mult: 0
  }
  convolution_param {
    num_output: 128
    pad: 1
    kernel_size: 3
    weight_filler {
      type: "xavier"
    }
    bias_filler {
      type: "constant"
      value: 0
    }
  }
}
layer {
  name: "relu2_1"
  type: "ReLU"
  bottom: "conv2_1"
  top: "conv2_1"
}
layer {
  name: "conv2_2"
  type: "Convolution"
  bottom: "conv2_1"
  top: "conv2_2"
  param {
    lr_mult: 1
    decay_mult: 1
  }
  param {
    lr_mult: 2
    decay_mult: 0
  }
  convolution_param {
    num_output: 128
    pad: 1
    kernel_size: 3
    weight_filler {
      type: "xavier"
    }
    bias_filler {
      type: "constant"
      value: 0
    }
  }
}
layer {
  name: "relu2_2"
  type: "ReLU"
  bottom: "conv2_2"
  top: "conv2_2"
}
layer {
  name: "pool2"
  type: "Pooling"
  bottom: "conv2_2"
  top: "pool2"
  pooling_param {
    pool: MAX
    kernel_size: 2
    stride: 2
  }
}
layer {
  name: "conv3_1"
  type: "Convolution"
  bottom: "pool2"
  top: "conv3_1"
  param {
    lr_mult: 1
    decay_mult: 1
  }
  param {
    lr_mult: 2
    decay_mult: 0
  }
  convolution_param {
    num_output: 256
    pad: 1
    kernel_size: 3
    weight_filler {
      type: "xavier"
    }
    bias_filler {
      type: "constant"
      value: 0
    }
  }
}
layer {
  name: "relu3_1"
  type: "ReLU"
  bottom: "conv3_1"
  top: "conv3_1"
}
layer {
  name: "conv3_2"
  type: "Convolution"
  bottom: "conv3_1"
  top: "conv3_2"
  param {
    lr_mult: 1
    decay_mult: 1
  }
  param {
    lr_mult: 2
    decay_mult: 0
  }
  convolution_param {
    num_output: 256
    pad: 1
    kernel_size: 3
    weight_filler {
      type: "xavier"
    }
    bias_filler {
      type: "constant"
      value: 0
    }
  }
}
layer {
  name: "relu3_2"
  type: "ReLU"
  bottom: "conv3_2"
  top: "conv3_2"
}
layer {
  name: "conv3_3"
  type: "Convolution"
  bottom: "conv3_2"
  top: "conv3_3"
  param {
    lr_mult: 1
    decay_mult: 1
  }
  param {
    lr_mult: 2
    decay_mult: 0
  }
  convolution_param {
    num_output: 256
    pad: 1
    kernel_size: 3
    weight_filler {
      type: "xavier"
    }
    bias_filler {
      type: "constant"
      value: 0
    }
  }
}
layer {
  name: "relu3_3"
  type: "ReLU"
  bottom: "conv3_3"
  top: "conv3_3"
}
layer {
  name: "pool3"
  type: "Pooling"
  bottom: "conv3_3"
  top: "pool3"
  pooling_param {
    pool: MAX
    kernel_size: 2
    stride: 2
  }
}
layer {
  name: "conv4_1"
  type: "Convolution"
  bottom: "pool3"
  top: "conv4_1"
  param {
    lr_mult: 1
    decay_mult: 1
  }
  param {
    lr_mult: 2
    decay_mult: 0
  }
  convolution_param {
    num_output: 512
    pad: 1
    kernel_size: 3
    weight_filler {
      type: "xavier"
    }
    bias_filler {
      type: "constant"
      value: 0
    }
  }
}
layer {
  name: "relu4_1"
  type: "ReLU"
  bottom: "conv4_1"
  top: "conv4_1"
}
layer {
  name: "conv4_2"
  type: "Convolution"
  bottom: "conv4_1"
  top: "conv4_2"
  param {
    lr_mult: 1
    decay_mult: 1
  }
  param {
    lr_mult: 2
    decay_mult: 0
  }
  convolution_param {
    num_output: 512
    pad: 1
    kernel_size: 3
    weight_filler {
      type: "xavier"
    }
    bias_filler {
      type: "constant"
      value: 0
    }
  }
}
layer {
  name: "relu4_2"
  type: "ReLU"
  bottom: "conv4_2"
  top: "conv4_2"
}
layer {
  name: "conv4_3"
  type: "Convolution"
  bottom: "conv4_2"
  top: "conv4_3"
  param {
    lr_mult: 1
    decay_mult: 1
  }
  param {
    lr_mult: 2
    decay_mult: 0
  }
  convolution_param {
    num_output: 512
    pad: 1
    kernel_size: 3
    weight_filler {
      type: "xavier"
    }
    bias_filler {
      type: "constant"
      value: 0
    }
  }
}
layer {
  name: "relu4_3"
  type: "ReLU"
  bottom: "conv4_3"
  top: "conv4_3"
}
layer {
  name: "pool4"
  type: "Pooling"
  bottom: "conv4_3"
  top: "pool4"
  pooling_param {
    pool: MAX
    kernel_size: 2
    stride: 2
  }
}
layer {
  name: "conv5_1"
  type: "Convolution"
  bottom: "pool4"
  top: "conv5_1"
  param {
    lr_mult: 1
    decay_mult: 1
  }
  param {
    lr_mult: 2
    decay_mult: 0
  }
  convolution_param {
    num_output: 512
    pad: 1
    kernel_size: 3
    weight_filler {
      type: "xavier"
    }
    bias_filler {
      type: "constant"
      value: 0
    }
    dilation: 1
  }
}
layer {
  name: "relu5_1"
  type: "ReLU"
  bottom: "conv5_1"
  top: "conv5_1"
}
layer {
  name: "conv5_2"
  type: "Convolution"
  bottom: "conv5_1"
  top: "conv5_2"
  param {
    lr_mult: 1
    decay_mult: 1
  }
  param {
    lr_mult: 2
    decay_mult: 0
  }
  convolution_param {
    num_output: 512
    pad: 1
    kernel_size: 3
    weight_filler {
      type: "xavier"
    }
    bias_filler {
      type: "constant"
      value: 0
    }
    dilation: 1
  }
}
layer {
  name: "relu5_2"
  type: "ReLU"
  bottom: "conv5_2"
  top: "conv5_2"
}
layer {
  name: "conv5_3"
  type: "Convolution"
  bottom: "conv5_2"
  top: "conv5_3"
  param {
    lr_mult: 1
    decay_mult: 1
  }
  param {
    lr_mult: 2
    decay_mult: 0
  }
  convolution_param {
    num_output: 512
    pad: 1
    kernel_size: 3
    weight_filler {
      type: "xavier"
    }
    bias_filler {
      type: "constant"
      value: 0
    }
    dilation: 1
  }
}
layer {
  name: "relu5_3"
  type: "ReLU"
  bottom: "conv5_3"
  top: "conv5_3"
}
layer {
  name: "pool5"
  type: "Pooling"
  bottom: "conv5_3"
  top: "pool5"
  pooling_param {
    pool: MAX
    kernel_size: 3
    stride: 1
    pad: 1
  }
}
layer {
  name: "fc6"
  type: "Convolution"
  bottom: "pool5"
  top: "fc6"
  param {
    lr_mult: 1
    decay_mult: 1
  }
  param {
    lr_mult: 2
    decay_mult: 0
  }
  convolution_param {
    num_output: 1024
    pad: 6
    kernel_size: 3
    weight_filler {
      type: "xavier"
    }
    bias_filler {
      type: "constant"
      value: 0
    }
    dilation: 6
  }
}
layer {
  name: "relu6"
  type: "ReLU"
  bottom: "fc6"
  top: "fc6"
}
layer {
  name: "fc7"
  type: "Convolution"
  bottom: "fc6"
  top: "fc7"
  param {
    lr_mult: 1
    decay_mult: 1
  }
  param {
    lr_mult: 2
    decay_mult: 0
  }
  convolution_param {
    num_output: 1024
    kernel_size: 1
    weight_filler {
      type: "xavier"
    }
    bias_filler {
      type: "constant"
      value: 0
    }
  }
}
layer {
  name: "relu7"
  type: "ReLU"
  bottom: "fc7"
  top: "fc7"
}
layer {
  name: "conv6_1"
  type: "Convolution"
  bottom: "fc7"
  top: "conv6_1"
  param {
    lr_mult: 1
    decay_mult: 1
  }
  param {
    lr_mult: 2
    decay_mult: 0
  }
  convolution_param {
    num_output: 256
    pad: 0
    kernel_size: 1
    stride: 1
    weight_filler {
      type: "xavier"
    }
    bias_filler {
      type: "constant"
      value: 0
    }
  }
}
layer {
  name: "conv6_1_relu"
  type: "ReLU"
  bottom: "conv6_1"
  top: "conv6_1"
}
layer {
  name: "conv6_2"
  type: "Convolution"
  bottom: "conv6_1"
  top: "conv6_2"
  param {
    lr_mult: 1
    decay_mult: 1
  }
  param {
    lr_mult: 2
    decay_mult: 0
  }
  convolution_param {
    num_output: 512
    pad: 1
    kernel_size: 3
    stride: 2
    weight_filler {
      type: "xavier"
    }
    bias_filler {
      type: "constant"
      value: 0
    }
  }
}
layer {
  name: "conv6_2_relu"
  type: "ReLU"
  bottom: "conv6_2"
  top: "conv6_2"
}
layer {
  name: "conv7_1"
  type: "Convolution"
  bottom: "conv6_2"
  top: "conv7_1"
  param {
    lr_mult: 1
    decay_mult: 1
  }
  param {
    lr_mult: 2
    decay_mult: 0
  }
  convolution_param {
    num_output: 128
    pad: 0
    kernel_size: 1
    stride: 1
    weight_filler {
      type: "xavier"
    }
    bias_filler {
      type: "constant"
      value: 0
    }
  }
}
layer {
  name: "conv7_1_relu"
  type: "ReLU"
  bottom: "conv7_1"
  top: "conv7_1"
}
layer {
  name: "conv7_2"
  type: "Convolution"
  bottom: "conv7_1"
  top: "conv7_2"
  param {
    lr_mult: 1
    decay_mult: 1
  }
  param {
    lr_mult: 2
    decay_mult: 0
  }
  convolution_param {
    num_output: 256
    pad: 1
    kernel_size: 3
    stride: 2
    weight_filler {
      type: "xavier"
    }
    bias_filler {
      type: "constant"
      value: 0
    }
  }
}
layer {
  name: "conv7_2_relu"
  type: "ReLU"
  bottom: "conv7_2"
  top: "conv7_2"
}
layer {
  name: "conv8_1"
  type: "Convolution"
  bottom: "conv7_2"
  top: "conv8_1"
  param {
    lr_mult: 1
    decay_mult: 1
  }
  param {
    lr_mult: 2
    decay_mult: 0
  }
  convolution_param {
    num_output: 128
    pad: 0
    kernel_size: 1
    stride: 1
    weight_filler {
      type: "xavier"
    }
    bias_filler {
      type: "constant"
      value: 0
    }
  }
}
layer {
  name: "conv8_1_relu"
  type: "ReLU"
  bottom: "conv8_1"
  top: "conv8_1"
}
layer {
  name: "conv8_2"
  type: "Convolution"
  bottom: "conv8_1"
  top: "conv8_2"
  param {
    lr_mult: 1
    decay_mult: 1
  }
  param {
    lr_mult: 2
    decay_mult: 0
  }
  convolution_param {
    num_output: 256
    pad: 0
    kernel_size: 3
    stride: 1
    weight_filler {
      type: "xavier"
    }
    bias_filler {
      type: "constant"
      value: 0
    }
  }
}
layer {
  name: "conv8_2_relu"
  type: "ReLU"
  bottom: "conv8_2"
  top: "conv8_2"
}
layer {
  name: "conv9_1"
  type: "Convolution"
  bottom: "conv8_2"
  top: "conv9_1"
  param {
    lr_mult: 1
    decay_mult: 1
  }
  param {
    lr_mult: 2
    decay_mult: 0
  }
  convolution_param {
    num_output: 128
    pad: 0
    kernel_size: 1
    stride: 1
    weight_filler {
      type: "xavier"
    }
    bias_filler {
      type: "constant"
      value: 0
    }
  }
}
layer {
  name: "conv9_1_relu"
  type: "ReLU"
  bottom: "conv9_1"
  top: "conv9_1"
}
layer {
  name: "conv9_2"
  type: "Convolution"
  bottom: "conv9_1"
  top: "conv9_2"
  param {
    lr_mult: 1
    decay_mult: 1
  }
  param {
    lr_mult: 2
    decay_mult: 0
  }
  convolution_param {
    num_output: 256
    pad: 0
    kernel_size: 3
    stride: 1
    weight_filler {
      type: "xavier"
    }
    bias_filler {
      type: "constant"
      value: 0
    }
  }
}
layer {
  name: "conv9_2_relu"
  type: "ReLU"
  bottom: "conv9_2"
  top: "conv9_2"
}
layer {
  name: "conv4_3_norm"
  type: "Normalize"
  bottom: "conv4_3"
  top: "conv4_3_norm"
  norm_param {
    across_spatial: false
    scale_filler {
      type: "constant"
      value: 20
    }
    channel_shared: false
  }
}
layer {
  name: "conv4_3_norm_mbox_loc_bdc2018"
  type: "Convolution"
  bottom: "conv4_3_norm"
  top: "conv4_3_norm_mbox_loc_bdc2018"
  param {
    lr_mult: 1
    decay_mult: 1
  }
  param {
    lr_mult: 2
    decay_mult: 0
  }
  convolution_param {
    num_output: 16
    pad: 1
    kernel_size: 3
    stride: 1
    weight_filler {
      type: "xavier"
    }
    bias_filler {
      type: "constant"
      value: 0
    }
  }
}
layer {
  name: "conv4_3_norm_mbox_loc_bdc2018_perm_bdc2018"
  type: "Permute"
  bottom: "conv4_3_norm_mbox_loc_bdc2018"
  top: "conv4_3_norm_mbox_loc_bdc2018_perm_bdc2018"
  permute_param {
    order: 0
    order: 2
    order: 3
    order: 1
  }
}
layer {
  name: "conv4_3_norm_mbox_loc_bdc2018_flat_bdc2018"
  type: "Flatten"
  bottom: "conv4_3_norm_mbox_loc_bdc2018_perm_bdc2018"
  top: "conv4_3_norm_mbox_loc_bdc2018_flat_bdc2018"
  flatten_param {
    axis: 1
  }
}
layer {
  name: "conv4_3_norm_mbox_conf_bdc2018_new"
  type: "Convolution"
  bottom: "conv4_3_norm"
  top: "conv4_3_norm_mbox_conf_bdc2018_new"
  param {
    lr_mult: 1
    decay_mult: 1
  }
  param {
    lr_mult: 2
    decay_mult: 0
  }
  convolution_param {
    num_output: 36
    pad: 1
    kernel_size: 3
    stride: 1
    weight_filler {
      type: "xavier"
    }
    bias_filler {
      type: "constant"
      value: 0
    }
  }
}
layer {
  name: "conv4_3_norm_mbox_conf_bdc2018_new_perm_bdc2018_new"
  type: "Permute"
  bottom: "conv4_3_norm_mbox_conf_bdc2018_new"
  top: "conv4_3_norm_mbox_conf_bdc2018_new_perm_bdc2018_new"
  permute_param {
    order: 0
    order: 2
    order: 3
    order: 1
  }
}
layer {
  name: "conv4_3_norm_mbox_conf_bdc2018_new_flat_bdc2018_new"
  type: "Flatten"
  bottom: "conv4_3_norm_mbox_conf_bdc2018_new_perm_bdc2018_new"
  top: "conv4_3_norm_mbox_conf_bdc2018_new_flat_bdc2018_new"
  flatten_param {
    axis: 1
  }
}
layer {
  name: "conv4_3_norm_mbox_priorbox"
  type: "PriorBox"
  bottom: "conv4_3_norm"
  bottom: "data"
  top: "conv4_3_norm_mbox_priorbox"
  prior_box_param {
    min_size: 102.4
    max_size: 204.8
    aspect_ratio: 2
    flip: true
    clip: false
    variance: 0.1
    variance: 0.1
    variance: 0.2
    variance: 0.2
    step: 8
    offset: 0.5
  }
}
layer {
  name: "fc7_mbox_loc_bdc2018"
  type: "Convolution"
  bottom: "fc7"
  top: "fc7_mbox_loc_bdc2018"
  param {
    lr_mult: 1
    decay_mult: 1
  }
  param {
    lr_mult: 2
    decay_mult: 0
  }
  convolution_param {
    num_output: 24
    pad: 1
    kernel_size: 3
    stride: 1
    weight_filler {
      type: "xavier"
    }
    bias_filler {
      type: "constant"
      value: 0
    }
  }
}
layer {
  name: "fc7_mbox_loc_bdc2018_perm_bdc2018"
  type: "Permute"
  bottom: "fc7_mbox_loc_bdc2018"
  top: "fc7_mbox_loc_bdc2018_perm_bdc2018"
  permute_param {
    order: 0
    order: 2
    order: 3
    order: 1
  }
}
layer {
  name: "fc7_mbox_loc_bdc2018_flat_bdc2018"
  type: "Flatten"
  bottom: "fc7_mbox_loc_bdc2018_perm_bdc2018"
  top: "fc7_mbox_loc_bdc2018_flat_bdc2018"
  flatten_param {
    axis: 1
  }
}
layer {
  name: "fc7_mbox_conf_bdc2018_new"
  type: "Convolution"
  bottom: "fc7"
  top: "fc7_mbox_conf_bdc2018_new"
  param {
    lr_mult: 1
    decay_mult: 1
  }
  param {
    lr_mult: 2
    decay_mult: 0
  }
  convolution_param {
    num_output: 54
    pad: 1
    kernel_size: 3
    stride: 1
    weight_filler {
      type: "xavier"
    }
    bias_filler {
      type: "constant"
      value: 0
    }
  }
}
layer {
  name: "fc7_mbox_conf_bdc2018_new_perm_bdc2018_new"
  type: "Permute"
  bottom: "fc7_mbox_conf_bdc2018_new"
  top: "fc7_mbox_conf_bdc2018_new_perm_bdc2018_new"
  permute_param {
    order: 0
    order: 2
    order: 3
    order: 1
  }
}
layer {
  name: "fc7_mbox_conf_bdc2018_new_flat_bdc2018_new"
  type: "Flatten"
  bottom: "fc7_mbox_conf_bdc2018_new_perm_bdc2018_new"
  top: "fc7_mbox_conf_bdc2018_new_flat_bdc2018_new"
  flatten_param {
    axis: 1
  }
}
layer {
  name: "fc7_mbox_priorbox"
  type: "PriorBox"
  bottom: "fc7"
  bottom: "data"
  top: "fc7_mbox_priorbox"
  prior_box_param {
    min_size: 204.8
    max_size: 378.88
    aspect_ratio: 2
    aspect_ratio: 3
    flip: true
    clip: false
    variance: 0.1
    variance: 0.1
    variance: 0.2
    variance: 0.2
    step: 16
    offset: 0.5
  }
}
layer {
  name: "conv6_2_mbox_loc_bdc2018"
  type: "Convolution"
  bottom: "conv6_2"
  top: "conv6_2_mbox_loc_bdc2018"
  param {
    lr_mult: 1
    decay_mult: 1
  }
  param {
    lr_mult: 2
    decay_mult: 0
  }
  convolution_param {
    num_output: 24
    pad: 1
    kernel_size: 3
    stride: 1
    weight_filler {
      type: "xavier"
    }
    bias_filler {
      type: "constant"
      value: 0
    }
  }
}
layer {
  name: "conv6_2_mbox_loc_bdc2018_perm_bdc2018"
  type: "Permute"
  bottom: "conv6_2_mbox_loc_bdc2018"
  top: "conv6_2_mbox_loc_bdc2018_perm_bdc2018"
  permute_param {
    order: 0
    order: 2
    order: 3
    order: 1
  }
}
layer {
  name: "conv6_2_mbox_loc_bdc2018_flat_bdc2018"
  type: "Flatten"
  bottom: "conv6_2_mbox_loc_bdc2018_perm_bdc2018"
  top: "conv6_2_mbox_loc_bdc2018_flat_bdc2018"
  flatten_param {
    axis: 1
  }
}
layer {
  name: "conv6_2_mbox_conf_bdc2018_new"
  type: "Convolution"
  bottom: "conv6_2"
  top: "conv6_2_mbox_conf_bdc2018_new"
  param {
    lr_mult: 1
    decay_mult: 1
  }
  param {
    lr_mult: 2
    decay_mult: 0
  }
  convolution_param {
    num_output: 54
    pad: 1
    kernel_size: 3
    stride: 1
    weight_filler {
      type: "xavier"
    }
    bias_filler {
      type: "constant"
      value: 0
    }
  }
}
layer {
  name: "conv6_2_mbox_conf_bdc2018_new_perm_bdc2018_new"
  type: "Permute"
  bottom: "conv6_2_mbox_conf_bdc2018_new"
  top: "conv6_2_mbox_conf_bdc2018_new_perm_bdc2018_new"
  permute_param {
    order: 0
    order: 2
    order: 3
    order: 1
  }
}
layer {
  name: "conv6_2_mbox_conf_bdc2018_new_flat_bdc2018_new"
  type: "Flatten"
  bottom: "conv6_2_mbox_conf_bdc2018_new_perm_bdc2018_new"
  top: "conv6_2_mbox_conf_bdc2018_new_flat_bdc2018_new"
  flatten_param {
    axis: 1
  }
}
layer {
  name: "conv6_2_mbox_priorbox"
  type: "PriorBox"
  bottom: "conv6_2"
  bottom: "data"
  top: "conv6_2_mbox_priorbox"
  prior_box_param {
    min_size: 378.88
    max_size: 552.96
    aspect_ratio: 2
    aspect_ratio: 3
    flip: true
    clip: false
    variance: 0.1
    variance: 0.1
    variance: 0.2
    variance: 0.2
    step: 32
    offset: 0.5
  }
}
layer {
  name: "conv7_2_mbox_loc_bdc2018"
  type: "Convolution"
  bottom: "conv7_2"
  top: "conv7_2_mbox_loc_bdc2018"
  param {
    lr_mult: 1
    decay_mult: 1
  }
  param {
    lr_mult: 2
    decay_mult: 0
  }
  convolution_param {
    num_output: 24
    pad: 1
    kernel_size: 3
    stride: 1
    weight_filler {
      type: "xavier"
    }
    bias_filler {
      type: "constant"
      value: 0
    }
  }
}
layer {
  name: "conv7_2_mbox_loc_bdc2018_perm_bdc2018"
  type: "Permute"
  bottom: "conv7_2_mbox_loc_bdc2018"
  top: "conv7_2_mbox_loc_bdc2018_perm_bdc2018"
  permute_param {
    order: 0
    order: 2
    order: 3
    order: 1
  }
}
layer {
  name: "conv7_2_mbox_loc_bdc2018_flat_bdc2018"
  type: "Flatten"
  bottom: "conv7_2_mbox_loc_bdc2018_perm_bdc2018"
  top: "conv7_2_mbox_loc_bdc2018_flat_bdc2018"
  flatten_param {
    axis: 1
  }
}
layer {
  name: "conv7_2_mbox_conf_bdc2018_new"
  type: "Convolution"
  bottom: "conv7_2"
  top: "conv7_2_mbox_conf_bdc2018_new"
  param {
    lr_mult: 1
    decay_mult: 1
  }
  param {
    lr_mult: 2
    decay_mult: 0
  }
  convolution_param {
    num_output: 54
    pad: 1
    kernel_size: 3
    stride: 1
    weight_filler {
      type: "xavier"
    }
    bias_filler {
      type: "constant"
      value: 0
    }
  }
}
layer {
  name: "conv7_2_mbox_conf_bdc2018_new_perm_bdc2018_new"
  type: "Permute"
  bottom: "conv7_2_mbox_conf_bdc2018_new"
  top: "conv7_2_mbox_conf_bdc2018_new_perm_bdc2018_new"
  permute_param {
    order: 0
    order: 2
    order: 3
    order: 1
  }
}
layer {
  name: "conv7_2_mbox_conf_bdc2018_new_flat_bdc2018_new"
  type: "Flatten"
  bottom: "conv7_2_mbox_conf_bdc2018_new_perm_bdc2018_new"
  top: "conv7_2_mbox_conf_bdc2018_new_flat_bdc2018_new"
  flatten_param {
    axis: 1
  }
}
layer {
  name: "conv7_2_mbox_priorbox"
  type: "PriorBox"
  bottom: "conv7_2"
  bottom: "data"
  top: "conv7_2_mbox_priorbox"
  prior_box_param {
    min_size: 552.96
    max_size: 727.04
    aspect_ratio: 2
    aspect_ratio: 3
    flip: true
    clip: false
    variance: 0.1
    variance: 0.1
    variance: 0.2
    variance: 0.2
    step: 64
    offset: 0.5
  }
}
layer {
  name: "conv8_2_mbox_loc_bdc2018"
  type: "Convolution"
  bottom: "conv8_2"
  top: "conv8_2_mbox_loc_bdc2018"
  param {
    lr_mult: 1
    decay_mult: 1
  }
  param {
    lr_mult: 2
    decay_mult: 0
  }
  convolution_param {
    num_output: 16
    pad: 1
    kernel_size: 3
    stride: 1
    weight_filler {
      type: "xavier"
    }
    bias_filler {
      type: "constant"
      value: 0
    }
  }
}
layer {
  name: "conv8_2_mbox_loc_bdc2018_perm_bdc2018"
  type: "Permute"
  bottom: "conv8_2_mbox_loc_bdc2018"
  top: "conv8_2_mbox_loc_bdc2018_perm_bdc2018"
  permute_param {
    order: 0
    order: 2
    order: 3
    order: 1
  }
}
layer {
  name: "conv8_2_mbox_loc_bdc2018_flat_bdc2018"
  type: "Flatten"
  bottom: "conv8_2_mbox_loc_bdc2018_perm_bdc2018"
  top: "conv8_2_mbox_loc_bdc2018_flat_bdc2018"
  flatten_param {
    axis: 1
  }
}
layer {
  name: "conv8_2_mbox_conf_bdc2018_new"
  type: "Convolution"
  bottom: "conv8_2"
  top: "conv8_2_mbox_conf_bdc2018_new"
  param {
    lr_mult: 1
    decay_mult: 1
  }
  param {
    lr_mult: 2
    decay_mult: 0
  }
  convolution_param {
    num_output: 36
    pad: 1
    kernel_size: 3
    stride: 1
    weight_filler {
      type: "xavier"
    }
    bias_filler {
      type: "constant"
      value: 0
    }
  }
}
layer {
  name: "conv8_2_mbox_conf_bdc2018_new_perm_bdc2018_new"
  type: "Permute"
  bottom: "conv8_2_mbox_conf_bdc2018_new"
  top: "conv8_2_mbox_conf_bdc2018_new_perm_bdc2018_new"
  permute_param {
    order: 0
    order: 2
    order: 3
    order: 1
  }
}
layer {
  name: "conv8_2_mbox_conf_bdc2018_new_flat_bdc2018_new"
  type: "Flatten"
  bottom: "conv8_2_mbox_conf_bdc2018_new_perm_bdc2018_new"
  top: "conv8_2_mbox_conf_bdc2018_new_flat_bdc2018_new"
  flatten_param {
    axis: 1
  }
}
layer {
  name: "conv8_2_mbox_priorbox"
  type: "PriorBox"
  bottom: "conv8_2"
  bottom: "data"
  top: "conv8_2_mbox_priorbox"
  prior_box_param {
    min_size: 727.04
    max_size: 901.12
    aspect_ratio: 2
    flip: true
    clip: false
    variance: 0.1
    variance: 0.1
    variance: 0.2
    variance: 0.2
    step: 100
    offset: 0.5
  }
}
layer {
  name: "conv9_2_mbox_loc_bdc2018"
  type: "Convolution"
  bottom: "conv9_2"
  top: "conv9_2_mbox_loc_bdc2018"
  param {
    lr_mult: 1
    decay_mult: 1
  }
  param {
    lr_mult: 2
    decay_mult: 0
  }
  convolution_param {
    num_output: 16
    pad: 1
    kernel_size: 3
    stride: 1
    weight_filler {
      type: "xavier"
    }
    bias_filler {
      type: "constant"
      value: 0
    }
  }
}
layer {
  name: "conv9_2_mbox_loc_bdc2018_perm_bdc2018"
  type: "Permute"
  bottom: "conv9_2_mbox_loc_bdc2018"
  top: "conv9_2_mbox_loc_bdc2018_perm_bdc2018"
  permute_param {
    order: 0
    order: 2
    order: 3
    order: 1
  }
}
layer {
  name: "conv9_2_mbox_loc_bdc2018_flat_bdc2018"
  type: "Flatten"
  bottom: "conv9_2_mbox_loc_bdc2018_perm_bdc2018"
  top: "conv9_2_mbox_loc_bdc2018_flat_bdc2018"
  flatten_param {
    axis: 1
  }
}
layer {
  name: "conv9_2_mbox_conf_bdc2018_new"
  type: "Convolution"
  bottom: "conv9_2"
  top: "conv9_2_mbox_conf_bdc2018_new"
  param {
    lr_mult: 1
    decay_mult: 1
  }
  param {
    lr_mult: 2
    decay_mult: 0
  }
  convolution_param {
    num_output: 36
    pad: 1
    kernel_size: 3
    stride: 1
    weight_filler {
      type: "xavier"
    }
    bias_filler {
      type: "constant"
      value: 0
    }
  }
}
layer {
  name: "conv9_2_mbox_conf_bdc2018_new_perm_bdc2018_new"
  type: "Permute"
  bottom: "conv9_2_mbox_conf_bdc2018_new"
  top: "conv9_2_mbox_conf_bdc2018_new_perm_bdc2018_new"
  permute_param {
    order: 0
    order: 2
    order: 3
    order: 1
  }
}
layer {
  name: "conv9_2_mbox_conf_bdc2018_new_flat_bdc2018_new"
  type: "Flatten"
  bottom: "conv9_2_mbox_conf_bdc2018_new_perm_bdc2018_new"
  top: "conv9_2_mbox_conf_bdc2018_new_flat_bdc2018_new"
  flatten_param {
    axis: 1
  }
}
layer {
  name: "conv9_2_mbox_priorbox"
  type: "PriorBox"
  bottom: "conv9_2"
  bottom: "data"
  top: "conv9_2_mbox_priorbox"
  prior_box_param {
    min_size: 901.12
    max_size: 1075.2
    aspect_ratio: 2
    flip: true
    clip: false
    variance: 0.1
    variance: 0.1
    variance: 0.2
    variance: 0.2
    step: 300
    offset: 0.5
  }
}
layer {
  name: "mbox_loc"
  type: "Concat"
  bottom: "conv4_3_norm_mbox_loc_bdc2018_flat_bdc2018"
  bottom: "fc7_mbox_loc_bdc2018_flat_bdc2018"
  bottom: "conv6_2_mbox_loc_bdc2018_flat_bdc2018"
  bottom: "conv7_2_mbox_loc_bdc2018_flat_bdc2018"
  bottom: "conv8_2_mbox_loc_bdc2018_flat_bdc2018"
  bottom: "conv9_2_mbox_loc_bdc2018_flat_bdc2018"
  top: "mbox_loc"
  concat_param {
    axis: 1
  }
}
layer {
  name: "mbox_conf"
  type: "Concat"
  bottom: "conv4_3_norm_mbox_conf_bdc2018_new_flat_bdc2018_new"
  bottom: "fc7_mbox_conf_bdc2018_new_flat_bdc2018_new"
  bottom: "conv6_2_mbox_conf_bdc2018_new_flat_bdc2018_new"
  bottom: "conv7_2_mbox_conf_bdc2018_new_flat_bdc2018_new"
  bottom: "conv8_2_mbox_conf_bdc2018_new_flat_bdc2018_new"
  bottom: "conv9_2_mbox_conf_bdc2018_new_flat_bdc2018_new"
  top: "mbox_conf"
  concat_param {
    axis: 1
  }
}
layer {
  name: "mbox_priorbox"
  type: "Concat"
  bottom: "conv4_3_norm_mbox_priorbox"
  bottom: "fc7_mbox_priorbox"
  bottom: "conv6_2_mbox_priorbox"
  bottom: "conv7_2_mbox_priorbox"
  bottom: "conv8_2_mbox_priorbox"
  bottom: "conv9_2_mbox_priorbox"
  top: "mbox_priorbox"
  concat_param {
    axis: 2
  }
}
layer {
  name: "mbox_loss"
  type: "MultiBoxLoss"
  bottom: "mbox_loc"
  bottom: "mbox_conf"
  bottom: "mbox_priorbox"
  bottom: "label"
  top: "mbox_loss"
  include {
    phase: TRAIN
  }
  propagate_down: true
  propagate_down: true
  propagate_down: false
  propagate_down: false
  loss_param {
    normalization: VALID
  }
  multibox_loss_param {
    loc_loss_type: SMOOTH_L1
    conf_loss_type: SOFTMAX
    loc_weight: 1
    num_classes: 9
    share_location: true
    match_type: PER_PREDICTION
    overlap_threshold: 0.5
    use_prior_for_matching: true
    background_label_id: 0
    use_difficult_gt: true
    neg_pos_ratio: 3
    neg_overlap: 0.5
    code_type: CENTER_SIZE
    ignore_cross_boundary_bbox: false
    mining_type: MAX_NEGATIVE
  }
}
I0720 19:35:39.789791  3051 layer_factory.hpp:77] Creating layer data
I0720 19:35:39.790030  3051 net.cpp:100] Creating Layer data
I0720 19:35:39.790068  3051 net.cpp:408] data -> data
I0720 19:35:39.790120  3051 net.cpp:408] data -> label
I0720 19:35:39.792028  3061 db_lmdb.cpp:35] Opened lmdb examples/bdc2018/bdc2018_train_name_lmdb
I0720 19:35:39.827065  3051 annotated_data_layer.cpp:62] output data size: 2,3,1024,1024
I0720 19:35:39.872174  3051 net.cpp:150] Setting up data
I0720 19:35:39.872215  3051 net.cpp:157] Top shape: 2 3 1024 1024 (6291456)
I0720 19:35:39.872221  3051 net.cpp:157] Top shape: 1 1 1 8 (8)
I0720 19:35:39.872225  3051 net.cpp:165] Memory required for data: 25165856
I0720 19:35:39.872238  3051 layer_factory.hpp:77] Creating layer data_data_0_split
I0720 19:35:39.872257  3051 net.cpp:100] Creating Layer data_data_0_split
I0720 19:35:39.872265  3051 net.cpp:434] data_data_0_split <- data
I0720 19:35:39.872285  3051 net.cpp:408] data_data_0_split -> data_data_0_split_0
I0720 19:35:39.872303  3051 net.cpp:408] data_data_0_split -> data_data_0_split_1
I0720 19:35:39.872311  3051 net.cpp:408] data_data_0_split -> data_data_0_split_2
I0720 19:35:39.872323  3051 net.cpp:408] data_data_0_split -> data_data_0_split_3
I0720 19:35:39.872329  3051 net.cpp:408] data_data_0_split -> data_data_0_split_4
I0720 19:35:39.872337  3051 net.cpp:408] data_data_0_split -> data_data_0_split_5
I0720 19:35:39.872344  3051 net.cpp:408] data_data_0_split -> data_data_0_split_6
I0720 19:35:39.872496  3051 net.cpp:150] Setting up data_data_0_split
I0720 19:35:39.872509  3051 net.cpp:157] Top shape: 2 3 1024 1024 (6291456)
I0720 19:35:39.872514  3051 net.cpp:157] Top shape: 2 3 1024 1024 (6291456)
I0720 19:35:39.872519  3051 net.cpp:157] Top shape: 2 3 1024 1024 (6291456)
I0720 19:35:39.872524  3051 net.cpp:157] Top shape: 2 3 1024 1024 (6291456)
I0720 19:35:39.872529  3051 net.cpp:157] Top shape: 2 3 1024 1024 (6291456)
I0720 19:35:39.872534  3051 net.cpp:157] Top shape: 2 3 1024 1024 (6291456)
I0720 19:35:39.872539  3051 net.cpp:157] Top shape: 2 3 1024 1024 (6291456)
I0720 19:35:39.872542  3051 net.cpp:165] Memory required for data: 201326624
I0720 19:35:39.872547  3051 layer_factory.hpp:77] Creating layer conv1_1
I0720 19:35:39.872571  3051 net.cpp:100] Creating Layer conv1_1
I0720 19:35:39.872578  3051 net.cpp:434] conv1_1 <- data_data_0_split_0
I0720 19:35:39.872586  3051 net.cpp:408] conv1_1 -> conv1_1
I0720 19:35:39.970031  3062 blocking_queue.cpp:50] Waiting for data
I0720 19:35:40.287637  3051 net.cpp:150] Setting up conv1_1
I0720 19:35:40.287680  3051 net.cpp:157] Top shape: 2 64 1024 1024 (134217728)
I0720 19:35:40.287685  3051 net.cpp:165] Memory required for data: 738197536
I0720 19:35:40.287745  3051 layer_factory.hpp:77] Creating layer relu1_1
I0720 19:35:40.287765  3051 net.cpp:100] Creating Layer relu1_1
I0720 19:35:40.287775  3051 net.cpp:434] relu1_1 <- conv1_1
I0720 19:35:40.287786  3051 net.cpp:395] relu1_1 -> conv1_1 (in-place)
I0720 19:35:40.287991  3051 net.cpp:150] Setting up relu1_1
I0720 19:35:40.288007  3051 net.cpp:157] Top shape: 2 64 1024 1024 (134217728)
I0720 19:35:40.288010  3051 net.cpp:165] Memory required for data: 1275068448
I0720 19:35:40.288015  3051 layer_factory.hpp:77] Creating layer conv1_2
I0720 19:35:40.288034  3051 net.cpp:100] Creating Layer conv1_2
I0720 19:35:40.288041  3051 net.cpp:434] conv1_2 <- conv1_1
I0720 19:35:40.288050  3051 net.cpp:408] conv1_2 -> conv1_2
I0720 19:35:40.293397  3051 net.cpp:150] Setting up conv1_2
I0720 19:35:40.293432  3051 net.cpp:157] Top shape: 2 64 1024 1024 (134217728)
I0720 19:35:40.293442  3051 net.cpp:165] Memory required for data: 1811939360
I0720 19:35:40.293462  3051 layer_factory.hpp:77] Creating layer relu1_2
I0720 19:35:40.293478  3051 net.cpp:100] Creating Layer relu1_2
I0720 19:35:40.293486  3051 net.cpp:434] relu1_2 <- conv1_2
I0720 19:35:40.293498  3051 net.cpp:395] relu1_2 -> conv1_2 (in-place)
I0720 19:35:40.293857  3051 net.cpp:150] Setting up relu1_2
I0720 19:35:40.293871  3051 net.cpp:157] Top shape: 2 64 1024 1024 (134217728)
I0720 19:35:40.293875  3051 net.cpp:165] Memory required for data: 2348810272
I0720 19:35:40.293884  3051 layer_factory.hpp:77] Creating layer pool1
I0720 19:35:40.293895  3051 net.cpp:100] Creating Layer pool1
I0720 19:35:40.293898  3051 net.cpp:434] pool1 <- conv1_2
I0720 19:35:40.293905  3051 net.cpp:408] pool1 -> pool1
I0720 19:35:40.293973  3051 net.cpp:150] Setting up pool1
I0720 19:35:40.293984  3051 net.cpp:157] Top shape: 2 64 512 512 (33554432)
I0720 19:35:40.293988  3051 net.cpp:165] Memory required for data: 2483028000
I0720 19:35:40.293992  3051 layer_factory.hpp:77] Creating layer conv2_1
I0720 19:35:40.294005  3051 net.cpp:100] Creating Layer conv2_1
I0720 19:35:40.294009  3051 net.cpp:434] conv2_1 <- pool1
I0720 19:35:40.294016  3051 net.cpp:408] conv2_1 -> conv2_1
I0720 19:35:40.297003  3051 net.cpp:150] Setting up conv2_1
I0720 19:35:40.297024  3051 net.cpp:157] Top shape: 2 128 512 512 (67108864)
I0720 19:35:40.297029  3051 net.cpp:165] Memory required for data: 2751463456
I0720 19:35:40.297039  3051 layer_factory.hpp:77] Creating layer relu2_1
I0720 19:35:40.297049  3051 net.cpp:100] Creating Layer relu2_1
I0720 19:35:40.297055  3051 net.cpp:434] relu2_1 <- conv2_1
I0720 19:35:40.297060  3051 net.cpp:395] relu2_1 -> conv2_1 (in-place)
I0720 19:35:40.297253  3051 net.cpp:150] Setting up relu2_1
I0720 19:35:40.297268  3051 net.cpp:157] Top shape: 2 128 512 512 (67108864)
I0720 19:35:40.297272  3051 net.cpp:165] Memory required for data: 3019898912
I0720 19:35:40.297279  3051 layer_factory.hpp:77] Creating layer conv2_2
I0720 19:35:40.297291  3051 net.cpp:100] Creating Layer conv2_2
I0720 19:35:40.297294  3051 net.cpp:434] conv2_2 <- conv2_1
I0720 19:35:40.297302  3051 net.cpp:408] conv2_2 -> conv2_2
I0720 19:35:40.300767  3051 net.cpp:150] Setting up conv2_2
I0720 19:35:40.300787  3051 net.cpp:157] Top shape: 2 128 512 512 (67108864)
I0720 19:35:40.300792  3051 net.cpp:165] Memory required for data: 3288334368
I0720 19:35:40.300801  3051 layer_factory.hpp:77] Creating layer relu2_2
I0720 19:35:40.300808  3051 net.cpp:100] Creating Layer relu2_2
I0720 19:35:40.300812  3051 net.cpp:434] relu2_2 <- conv2_2
I0720 19:35:40.300822  3051 net.cpp:395] relu2_2 -> conv2_2 (in-place)
I0720 19:35:40.301025  3051 net.cpp:150] Setting up relu2_2
I0720 19:35:40.301040  3051 net.cpp:157] Top shape: 2 128 512 512 (67108864)
I0720 19:35:40.301044  3051 net.cpp:165] Memory required for data: 3556769824
I0720 19:35:40.301048  3051 layer_factory.hpp:77] Creating layer pool2
I0720 19:35:40.301056  3051 net.cpp:100] Creating Layer pool2
I0720 19:35:40.301061  3051 net.cpp:434] pool2 <- conv2_2
I0720 19:35:40.301067  3051 net.cpp:408] pool2 -> pool2
I0720 19:35:40.301137  3051 net.cpp:150] Setting up pool2
I0720 19:35:40.301148  3051 net.cpp:157] Top shape: 2 128 256 256 (16777216)
I0720 19:35:40.301152  3051 net.cpp:165] Memory required for data: 3623878688
I0720 19:35:40.301156  3051 layer_factory.hpp:77] Creating layer conv3_1
I0720 19:35:40.301170  3051 net.cpp:100] Creating Layer conv3_1
I0720 19:35:40.301175  3051 net.cpp:434] conv3_1 <- pool2
I0720 19:35:40.301187  3051 net.cpp:408] conv3_1 -> conv3_1
I0720 19:35:40.305410  3051 net.cpp:150] Setting up conv3_1
I0720 19:35:40.305430  3051 net.cpp:157] Top shape: 2 256 256 256 (33554432)
I0720 19:35:40.305435  3051 net.cpp:165] Memory required for data: 3758096416
I0720 19:35:40.305447  3051 layer_factory.hpp:77] Creating layer relu3_1
I0720 19:35:40.305455  3051 net.cpp:100] Creating Layer relu3_1
I0720 19:35:40.305460  3051 net.cpp:434] relu3_1 <- conv3_1
I0720 19:35:40.305466  3051 net.cpp:395] relu3_1 -> conv3_1 (in-place)
I0720 19:35:40.305889  3051 net.cpp:150] Setting up relu3_1
I0720 19:35:40.305908  3051 net.cpp:157] Top shape: 2 256 256 256 (33554432)
I0720 19:35:40.305912  3051 net.cpp:165] Memory required for data: 3892314144
I0720 19:35:40.305917  3051 layer_factory.hpp:77] Creating layer conv3_2
I0720 19:35:40.305928  3051 net.cpp:100] Creating Layer conv3_2
I0720 19:35:40.305933  3051 net.cpp:434] conv3_2 <- conv3_1
I0720 19:35:40.305940  3051 net.cpp:408] conv3_2 -> conv3_2
I0720 19:35:40.311913  3051 net.cpp:150] Setting up conv3_2
I0720 19:35:40.311933  3051 net.cpp:157] Top shape: 2 256 256 256 (33554432)
I0720 19:35:40.311938  3051 net.cpp:165] Memory required for data: 4026531872
I0720 19:35:40.311945  3051 layer_factory.hpp:77] Creating layer relu3_2
I0720 19:35:40.311954  3051 net.cpp:100] Creating Layer relu3_2
I0720 19:35:40.311959  3051 net.cpp:434] relu3_2 <- conv3_2
I0720 19:35:40.311964  3051 net.cpp:395] relu3_2 -> conv3_2 (in-place)
I0720 19:35:40.312383  3051 net.cpp:150] Setting up relu3_2
I0720 19:35:40.312402  3051 net.cpp:157] Top shape: 2 256 256 256 (33554432)
I0720 19:35:40.312407  3051 net.cpp:165] Memory required for data: 4160749600
I0720 19:35:40.312414  3051 layer_factory.hpp:77] Creating layer conv3_3
I0720 19:35:40.312428  3051 net.cpp:100] Creating Layer conv3_3
I0720 19:35:40.312433  3051 net.cpp:434] conv3_3 <- conv3_2
I0720 19:35:40.312441  3051 net.cpp:408] conv3_3 -> conv3_3
I0720 19:35:40.318716  3051 net.cpp:150] Setting up conv3_3
I0720 19:35:40.318735  3051 net.cpp:157] Top shape: 2 256 256 256 (33554432)
I0720 19:35:40.318739  3051 net.cpp:165] Memory required for data: 4294967328
I0720 19:35:40.318748  3051 layer_factory.hpp:77] Creating layer relu3_3
I0720 19:35:40.318755  3051 net.cpp:100] Creating Layer relu3_3
I0720 19:35:40.318759  3051 net.cpp:434] relu3_3 <- conv3_3
I0720 19:35:40.318768  3051 net.cpp:395] relu3_3 -> conv3_3 (in-place)
I0720 19:35:40.318986  3051 net.cpp:150] Setting up relu3_3
I0720 19:35:40.319001  3051 net.cpp:157] Top shape: 2 256 256 256 (33554432)
I0720 19:35:40.319005  3051 net.cpp:165] Memory required for data: 4429185056
I0720 19:35:40.319010  3051 layer_factory.hpp:77] Creating layer pool3
I0720 19:35:40.319020  3051 net.cpp:100] Creating Layer pool3
I0720 19:35:40.319023  3051 net.cpp:434] pool3 <- conv3_3
I0720 19:35:40.319031  3051 net.cpp:408] pool3 -> pool3
I0720 19:35:40.319087  3051 net.cpp:150] Setting up pool3
I0720 19:35:40.319102  3051 net.cpp:157] Top shape: 2 256 128 128 (8388608)
I0720 19:35:40.319105  3051 net.cpp:165] Memory required for data: 4462739488
I0720 19:35:40.319110  3051 layer_factory.hpp:77] Creating layer conv4_1
I0720 19:35:40.319126  3051 net.cpp:100] Creating Layer conv4_1
I0720 19:35:40.319130  3051 net.cpp:434] conv4_1 <- pool3
I0720 19:35:40.319137  3051 net.cpp:408] conv4_1 -> conv4_1
I0720 19:35:40.332178  3051 net.cpp:150] Setting up conv4_1
I0720 19:35:40.332198  3051 net.cpp:157] Top shape: 2 512 128 128 (16777216)
I0720 19:35:40.332202  3051 net.cpp:165] Memory required for data: 4529848352
I0720 19:35:40.332211  3051 layer_factory.hpp:77] Creating layer relu4_1
I0720 19:35:40.332235  3051 net.cpp:100] Creating Layer relu4_1
I0720 19:35:40.332242  3051 net.cpp:434] relu4_1 <- conv4_1
I0720 19:35:40.332250  3051 net.cpp:395] relu4_1 -> conv4_1 (in-place)
I0720 19:35:40.332484  3051 net.cpp:150] Setting up relu4_1
I0720 19:35:40.332499  3051 net.cpp:157] Top shape: 2 512 128 128 (16777216)
I0720 19:35:40.332502  3051 net.cpp:165] Memory required for data: 4596957216
I0720 19:35:40.332506  3051 layer_factory.hpp:77] Creating layer conv4_2
I0720 19:35:40.332520  3051 net.cpp:100] Creating Layer conv4_2
I0720 19:35:40.332525  3051 net.cpp:434] conv4_2 <- conv4_1
I0720 19:35:40.332535  3051 net.cpp:408] conv4_2 -> conv4_2
I0720 19:35:40.352422  3051 net.cpp:150] Setting up conv4_2
I0720 19:35:40.352445  3051 net.cpp:157] Top shape: 2 512 128 128 (16777216)
I0720 19:35:40.352450  3051 net.cpp:165] Memory required for data: 4664066080
I0720 19:35:40.352464  3051 layer_factory.hpp:77] Creating layer relu4_2
I0720 19:35:40.352476  3051 net.cpp:100] Creating Layer relu4_2
I0720 19:35:40.352481  3051 net.cpp:434] relu4_2 <- conv4_2
I0720 19:35:40.352488  3051 net.cpp:395] relu4_2 -> conv4_2 (in-place)
I0720 19:35:40.352711  3051 net.cpp:150] Setting up relu4_2
I0720 19:35:40.352725  3051 net.cpp:157] Top shape: 2 512 128 128 (16777216)
I0720 19:35:40.352728  3051 net.cpp:165] Memory required for data: 4731174944
I0720 19:35:40.352732  3051 layer_factory.hpp:77] Creating layer conv4_3
I0720 19:35:40.352746  3051 net.cpp:100] Creating Layer conv4_3
I0720 19:35:40.352752  3051 net.cpp:434] conv4_3 <- conv4_2
I0720 19:35:40.352761  3051 net.cpp:408] conv4_3 -> conv4_3
I0720 19:35:40.372527  3051 net.cpp:150] Setting up conv4_3
I0720 19:35:40.372547  3051 net.cpp:157] Top shape: 2 512 128 128 (16777216)
I0720 19:35:40.372552  3051 net.cpp:165] Memory required for data: 4798283808
I0720 19:35:40.372560  3051 layer_factory.hpp:77] Creating layer relu4_3
I0720 19:35:40.372571  3051 net.cpp:100] Creating Layer relu4_3
I0720 19:35:40.372576  3051 net.cpp:434] relu4_3 <- conv4_3
I0720 19:35:40.372581  3051 net.cpp:395] relu4_3 -> conv4_3 (in-place)
I0720 19:35:40.372808  3051 net.cpp:150] Setting up relu4_3
I0720 19:35:40.372822  3051 net.cpp:157] Top shape: 2 512 128 128 (16777216)
I0720 19:35:40.372826  3051 net.cpp:165] Memory required for data: 4865392672
I0720 19:35:40.372830  3051 layer_factory.hpp:77] Creating layer conv4_3_relu4_3_0_split
I0720 19:35:40.372839  3051 net.cpp:100] Creating Layer conv4_3_relu4_3_0_split
I0720 19:35:40.372844  3051 net.cpp:434] conv4_3_relu4_3_0_split <- conv4_3
I0720 19:35:40.372853  3051 net.cpp:408] conv4_3_relu4_3_0_split -> conv4_3_relu4_3_0_split_0
I0720 19:35:40.372860  3051 net.cpp:408] conv4_3_relu4_3_0_split -> conv4_3_relu4_3_0_split_1
I0720 19:35:40.372917  3051 net.cpp:150] Setting up conv4_3_relu4_3_0_split
I0720 19:35:40.372926  3051 net.cpp:157] Top shape: 2 512 128 128 (16777216)
I0720 19:35:40.372931  3051 net.cpp:157] Top shape: 2 512 128 128 (16777216)
I0720 19:35:40.372934  3051 net.cpp:165] Memory required for data: 4999610400
I0720 19:35:40.372939  3051 layer_factory.hpp:77] Creating layer pool4
I0720 19:35:40.372948  3051 net.cpp:100] Creating Layer pool4
I0720 19:35:40.372952  3051 net.cpp:434] pool4 <- conv4_3_relu4_3_0_split_0
I0720 19:35:40.372958  3051 net.cpp:408] pool4 -> pool4
I0720 19:35:40.373004  3051 net.cpp:150] Setting up pool4
I0720 19:35:40.373013  3051 net.cpp:157] Top shape: 2 512 64 64 (4194304)
I0720 19:35:40.373018  3051 net.cpp:165] Memory required for data: 5016387616
I0720 19:35:40.373020  3051 layer_factory.hpp:77] Creating layer conv5_1
I0720 19:35:40.373034  3051 net.cpp:100] Creating Layer conv5_1
I0720 19:35:40.373037  3051 net.cpp:434] conv5_1 <- pool4
I0720 19:35:40.373045  3051 net.cpp:408] conv5_1 -> conv5_1
I0720 19:35:40.392980  3051 net.cpp:150] Setting up conv5_1
I0720 19:35:40.393002  3051 net.cpp:157] Top shape: 2 512 64 64 (4194304)
I0720 19:35:40.393005  3051 net.cpp:165] Memory required for data: 5033164832
I0720 19:35:40.393013  3051 layer_factory.hpp:77] Creating layer relu5_1
I0720 19:35:40.393023  3051 net.cpp:100] Creating Layer relu5_1
I0720 19:35:40.393045  3051 net.cpp:434] relu5_1 <- conv5_1
I0720 19:35:40.393054  3051 net.cpp:395] relu5_1 -> conv5_1 (in-place)
I0720 19:35:40.393503  3051 net.cpp:150] Setting up relu5_1
I0720 19:35:40.393522  3051 net.cpp:157] Top shape: 2 512 64 64 (4194304)
I0720 19:35:40.393525  3051 net.cpp:165] Memory required for data: 5049942048
I0720 19:35:40.393529  3051 layer_factory.hpp:77] Creating layer conv5_2
I0720 19:35:40.393543  3051 net.cpp:100] Creating Layer conv5_2
I0720 19:35:40.393548  3051 net.cpp:434] conv5_2 <- conv5_1
I0720 19:35:40.393556  3051 net.cpp:408] conv5_2 -> conv5_2
I0720 19:35:40.413100  3051 net.cpp:150] Setting up conv5_2
I0720 19:35:40.413120  3051 net.cpp:157] Top shape: 2 512 64 64 (4194304)
I0720 19:35:40.413125  3051 net.cpp:165] Memory required for data: 5066719264
I0720 19:35:40.413131  3051 layer_factory.hpp:77] Creating layer relu5_2
I0720 19:35:40.413138  3051 net.cpp:100] Creating Layer relu5_2
I0720 19:35:40.413143  3051 net.cpp:434] relu5_2 <- conv5_2
I0720 19:35:40.413154  3051 net.cpp:395] relu5_2 -> conv5_2 (in-place)
I0720 19:35:40.413604  3051 net.cpp:150] Setting up relu5_2
I0720 19:35:40.413622  3051 net.cpp:157] Top shape: 2 512 64 64 (4194304)
I0720 19:35:40.413626  3051 net.cpp:165] Memory required for data: 5083496480
I0720 19:35:40.413630  3051 layer_factory.hpp:77] Creating layer conv5_3
I0720 19:35:40.413643  3051 net.cpp:100] Creating Layer conv5_3
I0720 19:35:40.413650  3051 net.cpp:434] conv5_3 <- conv5_2
I0720 19:35:40.413658  3051 net.cpp:408] conv5_3 -> conv5_3
I0720 19:35:40.433429  3051 net.cpp:150] Setting up conv5_3
I0720 19:35:40.433449  3051 net.cpp:157] Top shape: 2 512 64 64 (4194304)
I0720 19:35:40.433454  3051 net.cpp:165] Memory required for data: 5100273696
I0720 19:35:40.433465  3051 layer_factory.hpp:77] Creating layer relu5_3
I0720 19:35:40.433481  3051 net.cpp:100] Creating Layer relu5_3
I0720 19:35:40.433488  3051 net.cpp:434] relu5_3 <- conv5_3
I0720 19:35:40.433495  3051 net.cpp:395] relu5_3 -> conv5_3 (in-place)
I0720 19:35:40.433719  3051 net.cpp:150] Setting up relu5_3
I0720 19:35:40.433732  3051 net.cpp:157] Top shape: 2 512 64 64 (4194304)
I0720 19:35:40.433737  3051 net.cpp:165] Memory required for data: 5117050912
I0720 19:35:40.433740  3051 layer_factory.hpp:77] Creating layer pool5
I0720 19:35:40.433750  3051 net.cpp:100] Creating Layer pool5
I0720 19:35:40.433755  3051 net.cpp:434] pool5 <- conv5_3
I0720 19:35:40.433763  3051 net.cpp:408] pool5 -> pool5
I0720 19:35:40.433820  3051 net.cpp:150] Setting up pool5
I0720 19:35:40.433828  3051 net.cpp:157] Top shape: 2 512 64 64 (4194304)
I0720 19:35:40.433832  3051 net.cpp:165] Memory required for data: 5133828128
I0720 19:35:40.433835  3051 layer_factory.hpp:77] Creating layer fc6
I0720 19:35:40.433847  3051 net.cpp:100] Creating Layer fc6
I0720 19:35:40.433852  3051 net.cpp:434] fc6 <- pool5
I0720 19:35:40.433861  3051 net.cpp:408] fc6 -> fc6
I0720 19:35:40.471045  3051 net.cpp:150] Setting up fc6
I0720 19:35:40.471066  3051 net.cpp:157] Top shape: 2 1024 64 64 (8388608)
I0720 19:35:40.471071  3051 net.cpp:165] Memory required for data: 5167382560
I0720 19:35:40.471081  3051 layer_factory.hpp:77] Creating layer relu6
I0720 19:35:40.471091  3051 net.cpp:100] Creating Layer relu6
I0720 19:35:40.471096  3051 net.cpp:434] relu6 <- fc6
I0720 19:35:40.471102  3051 net.cpp:395] relu6 -> fc6 (in-place)
I0720 19:35:40.471345  3051 net.cpp:150] Setting up relu6
I0720 19:35:40.471359  3051 net.cpp:157] Top shape: 2 1024 64 64 (8388608)
I0720 19:35:40.471362  3051 net.cpp:165] Memory required for data: 5200936992
I0720 19:35:40.471366  3051 layer_factory.hpp:77] Creating layer fc7
I0720 19:35:40.471379  3051 net.cpp:100] Creating Layer fc7
I0720 19:35:40.471384  3051 net.cpp:434] fc7 <- fc6
I0720 19:35:40.471393  3051 net.cpp:408] fc7 -> fc7
I0720 19:35:40.481014  3051 net.cpp:150] Setting up fc7
I0720 19:35:40.481034  3051 net.cpp:157] Top shape: 2 1024 64 64 (8388608)
I0720 19:35:40.481039  3051 net.cpp:165] Memory required for data: 5234491424
I0720 19:35:40.481046  3051 layer_factory.hpp:77] Creating layer relu7
I0720 19:35:40.481072  3051 net.cpp:100] Creating Layer relu7
I0720 19:35:40.481078  3051 net.cpp:434] relu7 <- fc7
I0720 19:35:40.481087  3051 net.cpp:395] relu7 -> fc7 (in-place)
I0720 19:35:40.481313  3051 net.cpp:150] Setting up relu7
I0720 19:35:40.481326  3051 net.cpp:157] Top shape: 2 1024 64 64 (8388608)
I0720 19:35:40.481330  3051 net.cpp:165] Memory required for data: 5268045856
I0720 19:35:40.481334  3051 layer_factory.hpp:77] Creating layer fc7_relu7_0_split
I0720 19:35:40.481345  3051 net.cpp:100] Creating Layer fc7_relu7_0_split
I0720 19:35:40.481349  3051 net.cpp:434] fc7_relu7_0_split <- fc7
I0720 19:35:40.481357  3051 net.cpp:408] fc7_relu7_0_split -> fc7_relu7_0_split_0
I0720 19:35:40.481366  3051 net.cpp:408] fc7_relu7_0_split -> fc7_relu7_0_split_1
I0720 19:35:40.481384  3051 net.cpp:408] fc7_relu7_0_split -> fc7_relu7_0_split_2
I0720 19:35:40.481392  3051 net.cpp:408] fc7_relu7_0_split -> fc7_relu7_0_split_3
I0720 19:35:40.481479  3051 net.cpp:150] Setting up fc7_relu7_0_split
I0720 19:35:40.481488  3051 net.cpp:157] Top shape: 2 1024 64 64 (8388608)
I0720 19:35:40.481493  3051 net.cpp:157] Top shape: 2 1024 64 64 (8388608)
I0720 19:35:40.481498  3051 net.cpp:157] Top shape: 2 1024 64 64 (8388608)
I0720 19:35:40.481503  3051 net.cpp:157] Top shape: 2 1024 64 64 (8388608)
I0720 19:35:40.481505  3051 net.cpp:165] Memory required for data: 5402263584
I0720 19:35:40.481509  3051 layer_factory.hpp:77] Creating layer conv6_1
I0720 19:35:40.481523  3051 net.cpp:100] Creating Layer conv6_1
I0720 19:35:40.481526  3051 net.cpp:434] conv6_1 <- fc7_relu7_0_split_0
I0720 19:35:40.481536  3051 net.cpp:408] conv6_1 -> conv6_1
I0720 19:35:40.484498  3051 net.cpp:150] Setting up conv6_1
I0720 19:35:40.484517  3051 net.cpp:157] Top shape: 2 256 64 64 (2097152)
I0720 19:35:40.484522  3051 net.cpp:165] Memory required for data: 5410652192
I0720 19:35:40.484530  3051 layer_factory.hpp:77] Creating layer conv6_1_relu
I0720 19:35:40.484537  3051 net.cpp:100] Creating Layer conv6_1_relu
I0720 19:35:40.484542  3051 net.cpp:434] conv6_1_relu <- conv6_1
I0720 19:35:40.484547  3051 net.cpp:395] conv6_1_relu -> conv6_1 (in-place)
I0720 19:35:40.484987  3051 net.cpp:150] Setting up conv6_1_relu
I0720 19:35:40.485004  3051 net.cpp:157] Top shape: 2 256 64 64 (2097152)
I0720 19:35:40.485008  3051 net.cpp:165] Memory required for data: 5419040800
I0720 19:35:40.485014  3051 layer_factory.hpp:77] Creating layer conv6_2
I0720 19:35:40.485028  3051 net.cpp:100] Creating Layer conv6_2
I0720 19:35:40.485033  3051 net.cpp:434] conv6_2 <- conv6_1
I0720 19:35:40.485043  3051 net.cpp:408] conv6_2 -> conv6_2
I0720 19:35:40.495687  3051 net.cpp:150] Setting up conv6_2
I0720 19:35:40.495705  3051 net.cpp:157] Top shape: 2 512 32 32 (1048576)
I0720 19:35:40.495710  3051 net.cpp:165] Memory required for data: 5423235104
I0720 19:35:40.495728  3051 layer_factory.hpp:77] Creating layer conv6_2_relu
I0720 19:35:40.495738  3051 net.cpp:100] Creating Layer conv6_2_relu
I0720 19:35:40.495743  3051 net.cpp:434] conv6_2_relu <- conv6_2
I0720 19:35:40.495748  3051 net.cpp:395] conv6_2_relu -> conv6_2 (in-place)
I0720 19:35:40.496217  3051 net.cpp:150] Setting up conv6_2_relu
I0720 19:35:40.496233  3051 net.cpp:157] Top shape: 2 512 32 32 (1048576)
I0720 19:35:40.496237  3051 net.cpp:165] Memory required for data: 5427429408
I0720 19:35:40.496243  3051 layer_factory.hpp:77] Creating layer conv6_2_conv6_2_relu_0_split
I0720 19:35:40.496253  3051 net.cpp:100] Creating Layer conv6_2_conv6_2_relu_0_split
I0720 19:35:40.496258  3051 net.cpp:434] conv6_2_conv6_2_relu_0_split <- conv6_2
I0720 19:35:40.496266  3051 net.cpp:408] conv6_2_conv6_2_relu_0_split -> conv6_2_conv6_2_relu_0_split_0
I0720 19:35:40.496275  3051 net.cpp:408] conv6_2_conv6_2_relu_0_split -> conv6_2_conv6_2_relu_0_split_1
I0720 19:35:40.496282  3051 net.cpp:408] conv6_2_conv6_2_relu_0_split -> conv6_2_conv6_2_relu_0_split_2
I0720 19:35:40.496289  3051 net.cpp:408] conv6_2_conv6_2_relu_0_split -> conv6_2_conv6_2_relu_0_split_3
I0720 19:35:40.496379  3051 net.cpp:150] Setting up conv6_2_conv6_2_relu_0_split
I0720 19:35:40.496403  3051 net.cpp:157] Top shape: 2 512 32 32 (1048576)
I0720 19:35:40.496408  3051 net.cpp:157] Top shape: 2 512 32 32 (1048576)
I0720 19:35:40.496413  3051 net.cpp:157] Top shape: 2 512 32 32 (1048576)
I0720 19:35:40.496417  3051 net.cpp:157] Top shape: 2 512 32 32 (1048576)
I0720 19:35:40.496420  3051 net.cpp:165] Memory required for data: 5444206624
I0720 19:35:40.496424  3051 layer_factory.hpp:77] Creating layer conv7_1
I0720 19:35:40.496439  3051 net.cpp:100] Creating Layer conv7_1
I0720 19:35:40.496445  3051 net.cpp:434] conv7_1 <- conv6_2_conv6_2_relu_0_split_0
I0720 19:35:40.496456  3051 net.cpp:408] conv7_1 -> conv7_1
I0720 19:35:40.498162  3051 net.cpp:150] Setting up conv7_1
I0720 19:35:40.498183  3051 net.cpp:157] Top shape: 2 128 32 32 (262144)
I0720 19:35:40.498188  3051 net.cpp:165] Memory required for data: 5445255200
I0720 19:35:40.498195  3051 layer_factory.hpp:77] Creating layer conv7_1_relu
I0720 19:35:40.498203  3051 net.cpp:100] Creating Layer conv7_1_relu
I0720 19:35:40.498206  3051 net.cpp:434] conv7_1_relu <- conv7_1
I0720 19:35:40.498212  3051 net.cpp:395] conv7_1_relu -> conv7_1 (in-place)
I0720 19:35:40.498450  3051 net.cpp:150] Setting up conv7_1_relu
I0720 19:35:40.498464  3051 net.cpp:157] Top shape: 2 128 32 32 (262144)
I0720 19:35:40.498467  3051 net.cpp:165] Memory required for data: 5446303776
I0720 19:35:40.498471  3051 layer_factory.hpp:77] Creating layer conv7_2
I0720 19:35:40.498486  3051 net.cpp:100] Creating Layer conv7_2
I0720 19:35:40.498492  3051 net.cpp:434] conv7_2 <- conv7_1
I0720 19:35:40.498498  3051 net.cpp:408] conv7_2 -> conv7_2
I0720 19:35:40.502876  3051 net.cpp:150] Setting up conv7_2
I0720 19:35:40.502897  3051 net.cpp:157] Top shape: 2 256 16 16 (131072)
I0720 19:35:40.502902  3051 net.cpp:165] Memory required for data: 5446828064
I0720 19:35:40.502909  3051 layer_factory.hpp:77] Creating layer conv7_2_relu
I0720 19:35:40.502919  3051 net.cpp:100] Creating Layer conv7_2_relu
I0720 19:35:40.502924  3051 net.cpp:434] conv7_2_relu <- conv7_2
I0720 19:35:40.502933  3051 net.cpp:395] conv7_2_relu -> conv7_2 (in-place)
I0720 19:35:40.503165  3051 net.cpp:150] Setting up conv7_2_relu
I0720 19:35:40.503177  3051 net.cpp:157] Top shape: 2 256 16 16 (131072)
I0720 19:35:40.503181  3051 net.cpp:165] Memory required for data: 5447352352
I0720 19:35:40.503185  3051 layer_factory.hpp:77] Creating layer conv7_2_conv7_2_relu_0_split
I0720 19:35:40.503193  3051 net.cpp:100] Creating Layer conv7_2_conv7_2_relu_0_split
I0720 19:35:40.503197  3051 net.cpp:434] conv7_2_conv7_2_relu_0_split <- conv7_2
I0720 19:35:40.503206  3051 net.cpp:408] conv7_2_conv7_2_relu_0_split -> conv7_2_conv7_2_relu_0_split_0
I0720 19:35:40.503214  3051 net.cpp:408] conv7_2_conv7_2_relu_0_split -> conv7_2_conv7_2_relu_0_split_1
I0720 19:35:40.503221  3051 net.cpp:408] conv7_2_conv7_2_relu_0_split -> conv7_2_conv7_2_relu_0_split_2
I0720 19:35:40.503235  3051 net.cpp:408] conv7_2_conv7_2_relu_0_split -> conv7_2_conv7_2_relu_0_split_3
I0720 19:35:40.503319  3051 net.cpp:150] Setting up conv7_2_conv7_2_relu_0_split
I0720 19:35:40.503329  3051 net.cpp:157] Top shape: 2 256 16 16 (131072)
I0720 19:35:40.503332  3051 net.cpp:157] Top shape: 2 256 16 16 (131072)
I0720 19:35:40.503336  3051 net.cpp:157] Top shape: 2 256 16 16 (131072)
I0720 19:35:40.503341  3051 net.cpp:157] Top shape: 2 256 16 16 (131072)
I0720 19:35:40.503345  3051 net.cpp:165] Memory required for data: 5449449504
I0720 19:35:40.503347  3051 layer_factory.hpp:77] Creating layer conv8_1
I0720 19:35:40.503360  3051 net.cpp:100] Creating Layer conv8_1
I0720 19:35:40.503366  3051 net.cpp:434] conv8_1 <- conv7_2_conv7_2_relu_0_split_0
I0720 19:35:40.503376  3051 net.cpp:408] conv8_1 -> conv8_1
I0720 19:35:40.504827  3051 net.cpp:150] Setting up conv8_1
I0720 19:35:40.504845  3051 net.cpp:157] Top shape: 2 128 16 16 (65536)
I0720 19:35:40.504849  3051 net.cpp:165] Memory required for data: 5449711648
I0720 19:35:40.504858  3051 layer_factory.hpp:77] Creating layer conv8_1_relu
I0720 19:35:40.504881  3051 net.cpp:100] Creating Layer conv8_1_relu
I0720 19:35:40.504887  3051 net.cpp:434] conv8_1_relu <- conv8_1
I0720 19:35:40.504895  3051 net.cpp:395] conv8_1_relu -> conv8_1 (in-place)
I0720 19:35:40.505132  3051 net.cpp:150] Setting up conv8_1_relu
I0720 19:35:40.505146  3051 net.cpp:157] Top shape: 2 128 16 16 (65536)
I0720 19:35:40.505149  3051 net.cpp:165] Memory required for data: 5449973792
I0720 19:35:40.505156  3051 layer_factory.hpp:77] Creating layer conv8_2
I0720 19:35:40.505168  3051 net.cpp:100] Creating Layer conv8_2
I0720 19:35:40.505174  3051 net.cpp:434] conv8_2 <- conv8_1
I0720 19:35:40.505183  3051 net.cpp:408] conv8_2 -> conv8_2
I0720 19:35:40.509371  3051 net.cpp:150] Setting up conv8_2
I0720 19:35:40.509392  3051 net.cpp:157] Top shape: 2 256 14 14 (100352)
I0720 19:35:40.509395  3051 net.cpp:165] Memory required for data: 5450375200
I0720 19:35:40.509403  3051 layer_factory.hpp:77] Creating layer conv8_2_relu
I0720 19:35:40.509410  3051 net.cpp:100] Creating Layer conv8_2_relu
I0720 19:35:40.509415  3051 net.cpp:434] conv8_2_relu <- conv8_2
I0720 19:35:40.509424  3051 net.cpp:395] conv8_2_relu -> conv8_2 (in-place)
I0720 19:35:40.509650  3051 net.cpp:150] Setting up conv8_2_relu
I0720 19:35:40.509663  3051 net.cpp:157] Top shape: 2 256 14 14 (100352)
I0720 19:35:40.509666  3051 net.cpp:165] Memory required for data: 5450776608
I0720 19:35:40.509670  3051 layer_factory.hpp:77] Creating layer conv8_2_conv8_2_relu_0_split
I0720 19:35:40.509678  3051 net.cpp:100] Creating Layer conv8_2_conv8_2_relu_0_split
I0720 19:35:40.509682  3051 net.cpp:434] conv8_2_conv8_2_relu_0_split <- conv8_2
I0720 19:35:40.509691  3051 net.cpp:408] conv8_2_conv8_2_relu_0_split -> conv8_2_conv8_2_relu_0_split_0
I0720 19:35:40.509701  3051 net.cpp:408] conv8_2_conv8_2_relu_0_split -> conv8_2_conv8_2_relu_0_split_1
I0720 19:35:40.509709  3051 net.cpp:408] conv8_2_conv8_2_relu_0_split -> conv8_2_conv8_2_relu_0_split_2
I0720 19:35:40.509716  3051 net.cpp:408] conv8_2_conv8_2_relu_0_split -> conv8_2_conv8_2_relu_0_split_3
I0720 19:35:40.509838  3051 net.cpp:150] Setting up conv8_2_conv8_2_relu_0_split
I0720 19:35:40.509848  3051 net.cpp:157] Top shape: 2 256 14 14 (100352)
I0720 19:35:40.509852  3051 net.cpp:157] Top shape: 2 256 14 14 (100352)
I0720 19:35:40.509856  3051 net.cpp:157] Top shape: 2 256 14 14 (100352)
I0720 19:35:40.509861  3051 net.cpp:157] Top shape: 2 256 14 14 (100352)
I0720 19:35:40.509865  3051 net.cpp:165] Memory required for data: 5452382240
I0720 19:35:40.509869  3051 layer_factory.hpp:77] Creating layer conv9_1
I0720 19:35:40.509881  3051 net.cpp:100] Creating Layer conv9_1
I0720 19:35:40.509887  3051 net.cpp:434] conv9_1 <- conv8_2_conv8_2_relu_0_split_0
I0720 19:35:40.509896  3051 net.cpp:408] conv9_1 -> conv9_1
I0720 19:35:40.511344  3051 net.cpp:150] Setting up conv9_1
I0720 19:35:40.511368  3051 net.cpp:157] Top shape: 2 128 14 14 (50176)
I0720 19:35:40.511371  3051 net.cpp:165] Memory required for data: 5452582944
I0720 19:35:40.511379  3051 layer_factory.hpp:77] Creating layer conv9_1_relu
I0720 19:35:40.511386  3051 net.cpp:100] Creating Layer conv9_1_relu
I0720 19:35:40.511392  3051 net.cpp:434] conv9_1_relu <- conv9_1
I0720 19:35:40.511397  3051 net.cpp:395] conv9_1_relu -> conv9_1 (in-place)
I0720 19:35:40.511852  3051 net.cpp:150] Setting up conv9_1_relu
I0720 19:35:40.511869  3051 net.cpp:157] Top shape: 2 128 14 14 (50176)
I0720 19:35:40.511873  3051 net.cpp:165] Memory required for data: 5452783648
I0720 19:35:40.511878  3051 layer_factory.hpp:77] Creating layer conv9_2
I0720 19:35:40.511893  3051 net.cpp:100] Creating Layer conv9_2
I0720 19:35:40.511898  3051 net.cpp:434] conv9_2 <- conv9_1
I0720 19:35:40.511907  3051 net.cpp:408] conv9_2 -> conv9_2
I0720 19:35:40.515895  3051 net.cpp:150] Setting up conv9_2
I0720 19:35:40.515918  3051 net.cpp:157] Top shape: 2 256 12 12 (73728)
I0720 19:35:40.515921  3051 net.cpp:165] Memory required for data: 5453078560
I0720 19:35:40.515929  3051 layer_factory.hpp:77] Creating layer conv9_2_relu
I0720 19:35:40.515936  3051 net.cpp:100] Creating Layer conv9_2_relu
I0720 19:35:40.515954  3051 net.cpp:434] conv9_2_relu <- conv9_2
I0720 19:35:40.515962  3051 net.cpp:395] conv9_2_relu -> conv9_2 (in-place)
I0720 19:35:40.516423  3051 net.cpp:150] Setting up conv9_2_relu
I0720 19:35:40.516440  3051 net.cpp:157] Top shape: 2 256 12 12 (73728)
I0720 19:35:40.516444  3051 net.cpp:165] Memory required for data: 5453373472
I0720 19:35:40.516448  3051 layer_factory.hpp:77] Creating layer conv9_2_conv9_2_relu_0_split
I0720 19:35:40.516458  3051 net.cpp:100] Creating Layer conv9_2_conv9_2_relu_0_split
I0720 19:35:40.516463  3051 net.cpp:434] conv9_2_conv9_2_relu_0_split <- conv9_2
I0720 19:35:40.516471  3051 net.cpp:408] conv9_2_conv9_2_relu_0_split -> conv9_2_conv9_2_relu_0_split_0
I0720 19:35:40.516481  3051 net.cpp:408] conv9_2_conv9_2_relu_0_split -> conv9_2_conv9_2_relu_0_split_1
I0720 19:35:40.516489  3051 net.cpp:408] conv9_2_conv9_2_relu_0_split -> conv9_2_conv9_2_relu_0_split_2
I0720 19:35:40.516564  3051 net.cpp:150] Setting up conv9_2_conv9_2_relu_0_split
I0720 19:35:40.516577  3051 net.cpp:157] Top shape: 2 256 12 12 (73728)
I0720 19:35:40.516580  3051 net.cpp:157] Top shape: 2 256 12 12 (73728)
I0720 19:35:40.516585  3051 net.cpp:157] Top shape: 2 256 12 12 (73728)
I0720 19:35:40.516588  3051 net.cpp:165] Memory required for data: 5454258208
I0720 19:35:40.516592  3051 layer_factory.hpp:77] Creating layer conv4_3_norm
I0720 19:35:40.516603  3051 net.cpp:100] Creating Layer conv4_3_norm
I0720 19:35:40.516607  3051 net.cpp:434] conv4_3_norm <- conv4_3_relu4_3_0_split_1
I0720 19:35:40.516618  3051 net.cpp:408] conv4_3_norm -> conv4_3_norm
I0720 19:35:40.516832  3051 net.cpp:150] Setting up conv4_3_norm
I0720 19:35:40.516844  3051 net.cpp:157] Top shape: 2 512 128 128 (16777216)
I0720 19:35:40.516847  3051 net.cpp:165] Memory required for data: 5521367072
I0720 19:35:40.516855  3051 layer_factory.hpp:77] Creating layer conv4_3_norm_conv4_3_norm_0_split
I0720 19:35:40.516861  3051 net.cpp:100] Creating Layer conv4_3_norm_conv4_3_norm_0_split
I0720 19:35:40.516865  3051 net.cpp:434] conv4_3_norm_conv4_3_norm_0_split <- conv4_3_norm
I0720 19:35:40.516877  3051 net.cpp:408] conv4_3_norm_conv4_3_norm_0_split -> conv4_3_norm_conv4_3_norm_0_split_0
I0720 19:35:40.516888  3051 net.cpp:408] conv4_3_norm_conv4_3_norm_0_split -> conv4_3_norm_conv4_3_norm_0_split_1
I0720 19:35:40.516899  3051 net.cpp:408] conv4_3_norm_conv4_3_norm_0_split -> conv4_3_norm_conv4_3_norm_0_split_2
I0720 19:35:40.516960  3051 net.cpp:150] Setting up conv4_3_norm_conv4_3_norm_0_split
I0720 19:35:40.516969  3051 net.cpp:157] Top shape: 2 512 128 128 (16777216)
I0720 19:35:40.516973  3051 net.cpp:157] Top shape: 2 512 128 128 (16777216)
I0720 19:35:40.516978  3051 net.cpp:157] Top shape: 2 512 128 128 (16777216)
I0720 19:35:40.516981  3051 net.cpp:165] Memory required for data: 5722693664
I0720 19:35:40.516984  3051 layer_factory.hpp:77] Creating layer conv4_3_norm_mbox_loc_bdc2018
I0720 19:35:40.516999  3051 net.cpp:100] Creating Layer conv4_3_norm_mbox_loc_bdc2018
I0720 19:35:40.517002  3051 net.cpp:434] conv4_3_norm_mbox_loc_bdc2018 <- conv4_3_norm_conv4_3_norm_0_split_0
I0720 19:35:40.517009  3051 net.cpp:408] conv4_3_norm_mbox_loc_bdc2018 -> conv4_3_norm_mbox_loc_bdc2018
I0720 19:35:40.518946  3051 net.cpp:150] Setting up conv4_3_norm_mbox_loc_bdc2018
I0720 19:35:40.518965  3051 net.cpp:157] Top shape: 2 16 128 128 (524288)
I0720 19:35:40.518968  3051 net.cpp:165] Memory required for data: 5724790816
I0720 19:35:40.518976  3051 layer_factory.hpp:77] Creating layer conv4_3_norm_mbox_loc_bdc2018_perm_bdc2018
I0720 19:35:40.518993  3051 net.cpp:100] Creating Layer conv4_3_norm_mbox_loc_bdc2018_perm_bdc2018
I0720 19:35:40.518998  3051 net.cpp:434] conv4_3_norm_mbox_loc_bdc2018_perm_bdc2018 <- conv4_3_norm_mbox_loc_bdc2018
I0720 19:35:40.519006  3051 net.cpp:408] conv4_3_norm_mbox_loc_bdc2018_perm_bdc2018 -> conv4_3_norm_mbox_loc_bdc2018_perm_bdc2018
I0720 19:35:40.519150  3051 net.cpp:150] Setting up conv4_3_norm_mbox_loc_bdc2018_perm_bdc2018
I0720 19:35:40.519160  3051 net.cpp:157] Top shape: 2 128 128 16 (524288)
I0720 19:35:40.519176  3051 net.cpp:165] Memory required for data: 5726887968
I0720 19:35:40.519181  3051 layer_factory.hpp:77] Creating layer conv4_3_norm_mbox_loc_bdc2018_flat_bdc2018
I0720 19:35:40.519192  3051 net.cpp:100] Creating Layer conv4_3_norm_mbox_loc_bdc2018_flat_bdc2018
I0720 19:35:40.519197  3051 net.cpp:434] conv4_3_norm_mbox_loc_bdc2018_flat_bdc2018 <- conv4_3_norm_mbox_loc_bdc2018_perm_bdc2018
I0720 19:35:40.519203  3051 net.cpp:408] conv4_3_norm_mbox_loc_bdc2018_flat_bdc2018 -> conv4_3_norm_mbox_loc_bdc2018_flat_bdc2018
I0720 19:35:40.519258  3051 net.cpp:150] Setting up conv4_3_norm_mbox_loc_bdc2018_flat_bdc2018
I0720 19:35:40.519268  3051 net.cpp:157] Top shape: 2 262144 (524288)
I0720 19:35:40.519271  3051 net.cpp:165] Memory required for data: 5728985120
I0720 19:35:40.519275  3051 layer_factory.hpp:77] Creating layer conv4_3_norm_mbox_conf_bdc2018_new
I0720 19:35:40.519300  3051 net.cpp:100] Creating Layer conv4_3_norm_mbox_conf_bdc2018_new
I0720 19:35:40.519306  3051 net.cpp:434] conv4_3_norm_mbox_conf_bdc2018_new <- conv4_3_norm_conv4_3_norm_0_split_1
I0720 19:35:40.519315  3051 net.cpp:408] conv4_3_norm_mbox_conf_bdc2018_new -> conv4_3_norm_mbox_conf_bdc2018_new
I0720 19:35:40.521569  3051 net.cpp:150] Setting up conv4_3_norm_mbox_conf_bdc2018_new
I0720 19:35:40.521587  3051 net.cpp:157] Top shape: 2 36 128 128 (1179648)
I0720 19:35:40.521595  3051 net.cpp:165] Memory required for data: 5733703712
I0720 19:35:40.521602  3051 layer_factory.hpp:77] Creating layer conv4_3_norm_mbox_conf_bdc2018_new_perm_bdc2018_new
I0720 19:35:40.521612  3051 net.cpp:100] Creating Layer conv4_3_norm_mbox_conf_bdc2018_new_perm_bdc2018_new
I0720 19:35:40.521617  3051 net.cpp:434] conv4_3_norm_mbox_conf_bdc2018_new_perm_bdc2018_new <- conv4_3_norm_mbox_conf_bdc2018_new
I0720 19:35:40.521626  3051 net.cpp:408] conv4_3_norm_mbox_conf_bdc2018_new_perm_bdc2018_new -> conv4_3_norm_mbox_conf_bdc2018_new_perm_bdc2018_new
I0720 19:35:40.521765  3051 net.cpp:150] Setting up conv4_3_norm_mbox_conf_bdc2018_new_perm_bdc2018_new
I0720 19:35:40.521775  3051 net.cpp:157] Top shape: 2 128 128 36 (1179648)
I0720 19:35:40.521778  3051 net.cpp:165] Memory required for data: 5738422304
I0720 19:35:40.521782  3051 layer_factory.hpp:77] Creating layer conv4_3_norm_mbox_conf_bdc2018_new_flat_bdc2018_new
I0720 19:35:40.521791  3051 net.cpp:100] Creating Layer conv4_3_norm_mbox_conf_bdc2018_new_flat_bdc2018_new
I0720 19:35:40.521796  3051 net.cpp:434] conv4_3_norm_mbox_conf_bdc2018_new_flat_bdc2018_new <- conv4_3_norm_mbox_conf_bdc2018_new_perm_bdc2018_new
I0720 19:35:40.521805  3051 net.cpp:408] conv4_3_norm_mbox_conf_bdc2018_new_flat_bdc2018_new -> conv4_3_norm_mbox_conf_bdc2018_new_flat_bdc2018_new
I0720 19:35:40.521834  3051 net.cpp:150] Setting up conv4_3_norm_mbox_conf_bdc2018_new_flat_bdc2018_new
I0720 19:35:40.521842  3051 net.cpp:157] Top shape: 2 589824 (1179648)
I0720 19:35:40.521845  3051 net.cpp:165] Memory required for data: 5743140896
I0720 19:35:40.521849  3051 layer_factory.hpp:77] Creating layer conv4_3_norm_mbox_priorbox
I0720 19:35:40.521859  3051 net.cpp:100] Creating Layer conv4_3_norm_mbox_priorbox
I0720 19:35:40.521864  3051 net.cpp:434] conv4_3_norm_mbox_priorbox <- conv4_3_norm_conv4_3_norm_0_split_2
I0720 19:35:40.521869  3051 net.cpp:434] conv4_3_norm_mbox_priorbox <- data_data_0_split_1
I0720 19:35:40.521878  3051 net.cpp:408] conv4_3_norm_mbox_priorbox -> conv4_3_norm_mbox_priorbox
I0720 19:35:40.521924  3051 net.cpp:150] Setting up conv4_3_norm_mbox_priorbox
I0720 19:35:40.521932  3051 net.cpp:157] Top shape: 1 2 262144 (524288)
I0720 19:35:40.521936  3051 net.cpp:165] Memory required for data: 5745238048
I0720 19:35:40.521939  3051 layer_factory.hpp:77] Creating layer fc7_mbox_loc_bdc2018
I0720 19:35:40.521956  3051 net.cpp:100] Creating Layer fc7_mbox_loc_bdc2018
I0720 19:35:40.521962  3051 net.cpp:434] fc7_mbox_loc_bdc2018 <- fc7_relu7_0_split_1
I0720 19:35:40.521973  3051 net.cpp:408] fc7_mbox_loc_bdc2018 -> fc7_mbox_loc_bdc2018
I0720 19:35:40.524772  3051 net.cpp:150] Setting up fc7_mbox_loc_bdc2018
I0720 19:35:40.524806  3051 net.cpp:157] Top shape: 2 24 64 64 (196608)
I0720 19:35:40.524811  3051 net.cpp:165] Memory required for data: 5746024480
I0720 19:35:40.524818  3051 layer_factory.hpp:77] Creating layer fc7_mbox_loc_bdc2018_perm_bdc2018
I0720 19:35:40.524828  3051 net.cpp:100] Creating Layer fc7_mbox_loc_bdc2018_perm_bdc2018
I0720 19:35:40.524833  3051 net.cpp:434] fc7_mbox_loc_bdc2018_perm_bdc2018 <- fc7_mbox_loc_bdc2018
I0720 19:35:40.524842  3051 net.cpp:408] fc7_mbox_loc_bdc2018_perm_bdc2018 -> fc7_mbox_loc_bdc2018_perm_bdc2018
I0720 19:35:40.524984  3051 net.cpp:150] Setting up fc7_mbox_loc_bdc2018_perm_bdc2018
I0720 19:35:40.524996  3051 net.cpp:157] Top shape: 2 64 64 24 (196608)
I0720 19:35:40.524999  3051 net.cpp:165] Memory required for data: 5746810912
I0720 19:35:40.525003  3051 layer_factory.hpp:77] Creating layer fc7_mbox_loc_bdc2018_flat_bdc2018
I0720 19:35:40.525010  3051 net.cpp:100] Creating Layer fc7_mbox_loc_bdc2018_flat_bdc2018
I0720 19:35:40.525015  3051 net.cpp:434] fc7_mbox_loc_bdc2018_flat_bdc2018 <- fc7_mbox_loc_bdc2018_perm_bdc2018
I0720 19:35:40.525023  3051 net.cpp:408] fc7_mbox_loc_bdc2018_flat_bdc2018 -> fc7_mbox_loc_bdc2018_flat_bdc2018
I0720 19:35:40.525054  3051 net.cpp:150] Setting up fc7_mbox_loc_bdc2018_flat_bdc2018
I0720 19:35:40.525063  3051 net.cpp:157] Top shape: 2 98304 (196608)
I0720 19:35:40.525066  3051 net.cpp:165] Memory required for data: 5747597344
I0720 19:35:40.525069  3051 layer_factory.hpp:77] Creating layer fc7_mbox_conf_bdc2018_new
I0720 19:35:40.525085  3051 net.cpp:100] Creating Layer fc7_mbox_conf_bdc2018_new
I0720 19:35:40.525090  3051 net.cpp:434] fc7_mbox_conf_bdc2018_new <- fc7_relu7_0_split_2
I0720 19:35:40.525096  3051 net.cpp:408] fc7_mbox_conf_bdc2018_new -> fc7_mbox_conf_bdc2018_new
I0720 19:35:40.530755  3051 net.cpp:150] Setting up fc7_mbox_conf_bdc2018_new
I0720 19:35:40.530776  3051 net.cpp:157] Top shape: 2 54 64 64 (442368)
I0720 19:35:40.530781  3051 net.cpp:165] Memory required for data: 5749366816
I0720 19:35:40.530789  3051 layer_factory.hpp:77] Creating layer fc7_mbox_conf_bdc2018_new_perm_bdc2018_new
I0720 19:35:40.530797  3051 net.cpp:100] Creating Layer fc7_mbox_conf_bdc2018_new_perm_bdc2018_new
I0720 19:35:40.530802  3051 net.cpp:434] fc7_mbox_conf_bdc2018_new_perm_bdc2018_new <- fc7_mbox_conf_bdc2018_new
I0720 19:35:40.530812  3051 net.cpp:408] fc7_mbox_conf_bdc2018_new_perm_bdc2018_new -> fc7_mbox_conf_bdc2018_new_perm_bdc2018_new
I0720 19:35:40.530954  3051 net.cpp:150] Setting up fc7_mbox_conf_bdc2018_new_perm_bdc2018_new
I0720 19:35:40.530966  3051 net.cpp:157] Top shape: 2 64 64 54 (442368)
I0720 19:35:40.530968  3051 net.cpp:165] Memory required for data: 5751136288
I0720 19:35:40.530972  3051 layer_factory.hpp:77] Creating layer fc7_mbox_conf_bdc2018_new_flat_bdc2018_new
I0720 19:35:40.530980  3051 net.cpp:100] Creating Layer fc7_mbox_conf_bdc2018_new_flat_bdc2018_new
I0720 19:35:40.530984  3051 net.cpp:434] fc7_mbox_conf_bdc2018_new_flat_bdc2018_new <- fc7_mbox_conf_bdc2018_new_perm_bdc2018_new
I0720 19:35:40.530992  3051 net.cpp:408] fc7_mbox_conf_bdc2018_new_flat_bdc2018_new -> fc7_mbox_conf_bdc2018_new_flat_bdc2018_new
I0720 19:35:40.531026  3051 net.cpp:150] Setting up fc7_mbox_conf_bdc2018_new_flat_bdc2018_new
I0720 19:35:40.531035  3051 net.cpp:157] Top shape: 2 221184 (442368)
I0720 19:35:40.531038  3051 net.cpp:165] Memory required for data: 5752905760
I0720 19:35:40.531041  3051 layer_factory.hpp:77] Creating layer fc7_mbox_priorbox
I0720 19:35:40.531051  3051 net.cpp:100] Creating Layer fc7_mbox_priorbox
I0720 19:35:40.531055  3051 net.cpp:434] fc7_mbox_priorbox <- fc7_relu7_0_split_3
I0720 19:35:40.531060  3051 net.cpp:434] fc7_mbox_priorbox <- data_data_0_split_2
I0720 19:35:40.531069  3051 net.cpp:408] fc7_mbox_priorbox -> fc7_mbox_priorbox
I0720 19:35:40.531105  3051 net.cpp:150] Setting up fc7_mbox_priorbox
I0720 19:35:40.531113  3051 net.cpp:157] Top shape: 1 2 98304 (196608)
I0720 19:35:40.531116  3051 net.cpp:165] Memory required for data: 5753692192
I0720 19:35:40.531121  3051 layer_factory.hpp:77] Creating layer conv6_2_mbox_loc_bdc2018
I0720 19:35:40.531147  3051 net.cpp:100] Creating Layer conv6_2_mbox_loc_bdc2018
I0720 19:35:40.531153  3051 net.cpp:434] conv6_2_mbox_loc_bdc2018 <- conv6_2_conv6_2_relu_0_split_1
I0720 19:35:40.531162  3051 net.cpp:408] conv6_2_mbox_loc_bdc2018 -> conv6_2_mbox_loc_bdc2018
I0720 19:35:40.533305  3051 net.cpp:150] Setting up conv6_2_mbox_loc_bdc2018
I0720 19:35:40.533324  3051 net.cpp:157] Top shape: 2 24 32 32 (49152)
I0720 19:35:40.533327  3051 net.cpp:165] Memory required for data: 5753888800
I0720 19:35:40.533335  3051 layer_factory.hpp:77] Creating layer conv6_2_mbox_loc_bdc2018_perm_bdc2018
I0720 19:35:40.533345  3051 net.cpp:100] Creating Layer conv6_2_mbox_loc_bdc2018_perm_bdc2018
I0720 19:35:40.533351  3051 net.cpp:434] conv6_2_mbox_loc_bdc2018_perm_bdc2018 <- conv6_2_mbox_loc_bdc2018
I0720 19:35:40.533358  3051 net.cpp:408] conv6_2_mbox_loc_bdc2018_perm_bdc2018 -> conv6_2_mbox_loc_bdc2018_perm_bdc2018
I0720 19:35:40.533500  3051 net.cpp:150] Setting up conv6_2_mbox_loc_bdc2018_perm_bdc2018
I0720 19:35:40.533510  3051 net.cpp:157] Top shape: 2 32 32 24 (49152)
I0720 19:35:40.533514  3051 net.cpp:165] Memory required for data: 5754085408
I0720 19:35:40.533517  3051 layer_factory.hpp:77] Creating layer conv6_2_mbox_loc_bdc2018_flat_bdc2018
I0720 19:35:40.533529  3051 net.cpp:100] Creating Layer conv6_2_mbox_loc_bdc2018_flat_bdc2018
I0720 19:35:40.533532  3051 net.cpp:434] conv6_2_mbox_loc_bdc2018_flat_bdc2018 <- conv6_2_mbox_loc_bdc2018_perm_bdc2018
I0720 19:35:40.533538  3051 net.cpp:408] conv6_2_mbox_loc_bdc2018_flat_bdc2018 -> conv6_2_mbox_loc_bdc2018_flat_bdc2018
I0720 19:35:40.533571  3051 net.cpp:150] Setting up conv6_2_mbox_loc_bdc2018_flat_bdc2018
I0720 19:35:40.533581  3051 net.cpp:157] Top shape: 2 24576 (49152)
I0720 19:35:40.533583  3051 net.cpp:165] Memory required for data: 5754282016
I0720 19:35:40.533587  3051 layer_factory.hpp:77] Creating layer conv6_2_mbox_conf_bdc2018_new
I0720 19:35:40.533601  3051 net.cpp:100] Creating Layer conv6_2_mbox_conf_bdc2018_new
I0720 19:35:40.533605  3051 net.cpp:434] conv6_2_mbox_conf_bdc2018_new <- conv6_2_conv6_2_relu_0_split_2
I0720 19:35:40.533614  3051 net.cpp:408] conv6_2_mbox_conf_bdc2018_new -> conv6_2_mbox_conf_bdc2018_new
I0720 19:35:40.537748  3051 net.cpp:150] Setting up conv6_2_mbox_conf_bdc2018_new
I0720 19:35:40.537767  3051 net.cpp:157] Top shape: 2 54 32 32 (110592)
I0720 19:35:40.537772  3051 net.cpp:165] Memory required for data: 5754724384
I0720 19:35:40.537781  3051 layer_factory.hpp:77] Creating layer conv6_2_mbox_conf_bdc2018_new_perm_bdc2018_new
I0720 19:35:40.537791  3051 net.cpp:100] Creating Layer conv6_2_mbox_conf_bdc2018_new_perm_bdc2018_new
I0720 19:35:40.537796  3051 net.cpp:434] conv6_2_mbox_conf_bdc2018_new_perm_bdc2018_new <- conv6_2_mbox_conf_bdc2018_new
I0720 19:35:40.537806  3051 net.cpp:408] conv6_2_mbox_conf_bdc2018_new_perm_bdc2018_new -> conv6_2_mbox_conf_bdc2018_new_perm_bdc2018_new
I0720 19:35:40.537947  3051 net.cpp:150] Setting up conv6_2_mbox_conf_bdc2018_new_perm_bdc2018_new
I0720 19:35:40.537959  3051 net.cpp:157] Top shape: 2 32 32 54 (110592)
I0720 19:35:40.537963  3051 net.cpp:165] Memory required for data: 5755166752
I0720 19:35:40.537967  3051 layer_factory.hpp:77] Creating layer conv6_2_mbox_conf_bdc2018_new_flat_bdc2018_new
I0720 19:35:40.537976  3051 net.cpp:100] Creating Layer conv6_2_mbox_conf_bdc2018_new_flat_bdc2018_new
I0720 19:35:40.537981  3051 net.cpp:434] conv6_2_mbox_conf_bdc2018_new_flat_bdc2018_new <- conv6_2_mbox_conf_bdc2018_new_perm_bdc2018_new
I0720 19:35:40.537989  3051 net.cpp:408] conv6_2_mbox_conf_bdc2018_new_flat_bdc2018_new -> conv6_2_mbox_conf_bdc2018_new_flat_bdc2018_new
I0720 19:35:40.538022  3051 net.cpp:150] Setting up conv6_2_mbox_conf_bdc2018_new_flat_bdc2018_new
I0720 19:35:40.538033  3051 net.cpp:157] Top shape: 2 55296 (110592)
I0720 19:35:40.538035  3051 net.cpp:165] Memory required for data: 5755609120
I0720 19:35:40.538039  3051 layer_factory.hpp:77] Creating layer conv6_2_mbox_priorbox
I0720 19:35:40.538046  3051 net.cpp:100] Creating Layer conv6_2_mbox_priorbox
I0720 19:35:40.538074  3051 net.cpp:434] conv6_2_mbox_priorbox <- conv6_2_conv6_2_relu_0_split_3
I0720 19:35:40.538081  3051 net.cpp:434] conv6_2_mbox_priorbox <- data_data_0_split_3
I0720 19:35:40.538090  3051 net.cpp:408] conv6_2_mbox_priorbox -> conv6_2_mbox_priorbox
I0720 19:35:40.538131  3051 net.cpp:150] Setting up conv6_2_mbox_priorbox
I0720 19:35:40.538156  3051 net.cpp:157] Top shape: 1 2 24576 (49152)
I0720 19:35:40.538159  3051 net.cpp:165] Memory required for data: 5755805728
I0720 19:35:40.538163  3051 layer_factory.hpp:77] Creating layer conv7_2_mbox_loc_bdc2018
I0720 19:35:40.538179  3051 net.cpp:100] Creating Layer conv7_2_mbox_loc_bdc2018
I0720 19:35:40.538183  3051 net.cpp:434] conv7_2_mbox_loc_bdc2018 <- conv7_2_conv7_2_relu_0_split_1
I0720 19:35:40.538190  3051 net.cpp:408] conv7_2_mbox_loc_bdc2018 -> conv7_2_mbox_loc_bdc2018
I0720 19:35:40.540045  3051 net.cpp:150] Setting up conv7_2_mbox_loc_bdc2018
I0720 19:35:40.540062  3051 net.cpp:157] Top shape: 2 24 16 16 (12288)
I0720 19:35:40.540066  3051 net.cpp:165] Memory required for data: 5755854880
I0720 19:35:40.540076  3051 layer_factory.hpp:77] Creating layer conv7_2_mbox_loc_bdc2018_perm_bdc2018
I0720 19:35:40.540087  3051 net.cpp:100] Creating Layer conv7_2_mbox_loc_bdc2018_perm_bdc2018
I0720 19:35:40.540092  3051 net.cpp:434] conv7_2_mbox_loc_bdc2018_perm_bdc2018 <- conv7_2_mbox_loc_bdc2018
I0720 19:35:40.540098  3051 net.cpp:408] conv7_2_mbox_loc_bdc2018_perm_bdc2018 -> conv7_2_mbox_loc_bdc2018_perm_bdc2018
I0720 19:35:40.540236  3051 net.cpp:150] Setting up conv7_2_mbox_loc_bdc2018_perm_bdc2018
I0720 19:35:40.540246  3051 net.cpp:157] Top shape: 2 16 16 24 (12288)
I0720 19:35:40.540251  3051 net.cpp:165] Memory required for data: 5755904032
I0720 19:35:40.540253  3051 layer_factory.hpp:77] Creating layer conv7_2_mbox_loc_bdc2018_flat_bdc2018
I0720 19:35:40.540261  3051 net.cpp:100] Creating Layer conv7_2_mbox_loc_bdc2018_flat_bdc2018
I0720 19:35:40.540264  3051 net.cpp:434] conv7_2_mbox_loc_bdc2018_flat_bdc2018 <- conv7_2_mbox_loc_bdc2018_perm_bdc2018
I0720 19:35:40.540272  3051 net.cpp:408] conv7_2_mbox_loc_bdc2018_flat_bdc2018 -> conv7_2_mbox_loc_bdc2018_flat_bdc2018
I0720 19:35:40.540305  3051 net.cpp:150] Setting up conv7_2_mbox_loc_bdc2018_flat_bdc2018
I0720 19:35:40.540314  3051 net.cpp:157] Top shape: 2 6144 (12288)
I0720 19:35:40.540318  3051 net.cpp:165] Memory required for data: 5755953184
I0720 19:35:40.540321  3051 layer_factory.hpp:77] Creating layer conv7_2_mbox_conf_bdc2018_new
I0720 19:35:40.540335  3051 net.cpp:100] Creating Layer conv7_2_mbox_conf_bdc2018_new
I0720 19:35:40.540340  3051 net.cpp:434] conv7_2_mbox_conf_bdc2018_new <- conv7_2_conv7_2_relu_0_split_2
I0720 19:35:40.540350  3051 net.cpp:408] conv7_2_mbox_conf_bdc2018_new -> conv7_2_mbox_conf_bdc2018_new
I0720 19:35:40.542618  3051 net.cpp:150] Setting up conv7_2_mbox_conf_bdc2018_new
I0720 19:35:40.542637  3051 net.cpp:157] Top shape: 2 54 16 16 (27648)
I0720 19:35:40.542641  3051 net.cpp:165] Memory required for data: 5756063776
I0720 19:35:40.542650  3051 layer_factory.hpp:77] Creating layer conv7_2_mbox_conf_bdc2018_new_perm_bdc2018_new
I0720 19:35:40.542661  3051 net.cpp:100] Creating Layer conv7_2_mbox_conf_bdc2018_new_perm_bdc2018_new
I0720 19:35:40.542666  3051 net.cpp:434] conv7_2_mbox_conf_bdc2018_new_perm_bdc2018_new <- conv7_2_mbox_conf_bdc2018_new
I0720 19:35:40.542675  3051 net.cpp:408] conv7_2_mbox_conf_bdc2018_new_perm_bdc2018_new -> conv7_2_mbox_conf_bdc2018_new_perm_bdc2018_new
I0720 19:35:40.542814  3051 net.cpp:150] Setting up conv7_2_mbox_conf_bdc2018_new_perm_bdc2018_new
I0720 19:35:40.542824  3051 net.cpp:157] Top shape: 2 16 16 54 (27648)
I0720 19:35:40.542827  3051 net.cpp:165] Memory required for data: 5756174368
I0720 19:35:40.542831  3051 layer_factory.hpp:77] Creating layer conv7_2_mbox_conf_bdc2018_new_flat_bdc2018_new
I0720 19:35:40.542840  3051 net.cpp:100] Creating Layer conv7_2_mbox_conf_bdc2018_new_flat_bdc2018_new
I0720 19:35:40.542845  3051 net.cpp:434] conv7_2_mbox_conf_bdc2018_new_flat_bdc2018_new <- conv7_2_mbox_conf_bdc2018_new_perm_bdc2018_new
I0720 19:35:40.542865  3051 net.cpp:408] conv7_2_mbox_conf_bdc2018_new_flat_bdc2018_new -> conv7_2_mbox_conf_bdc2018_new_flat_bdc2018_new
I0720 19:35:40.542902  3051 net.cpp:150] Setting up conv7_2_mbox_conf_bdc2018_new_flat_bdc2018_new
I0720 19:35:40.542912  3051 net.cpp:157] Top shape: 2 13824 (27648)
I0720 19:35:40.542914  3051 net.cpp:165] Memory required for data: 5756284960
I0720 19:35:40.542918  3051 layer_factory.hpp:77] Creating layer conv7_2_mbox_priorbox
I0720 19:35:40.542927  3051 net.cpp:100] Creating Layer conv7_2_mbox_priorbox
I0720 19:35:40.542932  3051 net.cpp:434] conv7_2_mbox_priorbox <- conv7_2_conv7_2_relu_0_split_3
I0720 19:35:40.542937  3051 net.cpp:434] conv7_2_mbox_priorbox <- data_data_0_split_4
I0720 19:35:40.542943  3051 net.cpp:408] conv7_2_mbox_priorbox -> conv7_2_mbox_priorbox
I0720 19:35:40.542979  3051 net.cpp:150] Setting up conv7_2_mbox_priorbox
I0720 19:35:40.542987  3051 net.cpp:157] Top shape: 1 2 6144 (12288)
I0720 19:35:40.542990  3051 net.cpp:165] Memory required for data: 5756334112
I0720 19:35:40.542996  3051 layer_factory.hpp:77] Creating layer conv8_2_mbox_loc_bdc2018
I0720 19:35:40.543011  3051 net.cpp:100] Creating Layer conv8_2_mbox_loc_bdc2018
I0720 19:35:40.543018  3051 net.cpp:434] conv8_2_mbox_loc_bdc2018 <- conv8_2_conv8_2_relu_0_split_1
I0720 19:35:40.543025  3051 net.cpp:408] conv8_2_mbox_loc_bdc2018 -> conv8_2_mbox_loc_bdc2018
I0720 19:35:40.544782  3051 net.cpp:150] Setting up conv8_2_mbox_loc_bdc2018
I0720 19:35:40.544800  3051 net.cpp:157] Top shape: 2 16 14 14 (6272)
I0720 19:35:40.544804  3051 net.cpp:165] Memory required for data: 5756359200
I0720 19:35:40.544823  3051 layer_factory.hpp:77] Creating layer conv8_2_mbox_loc_bdc2018_perm_bdc2018
I0720 19:35:40.544832  3051 net.cpp:100] Creating Layer conv8_2_mbox_loc_bdc2018_perm_bdc2018
I0720 19:35:40.544837  3051 net.cpp:434] conv8_2_mbox_loc_bdc2018_perm_bdc2018 <- conv8_2_mbox_loc_bdc2018
I0720 19:35:40.544847  3051 net.cpp:408] conv8_2_mbox_loc_bdc2018_perm_bdc2018 -> conv8_2_mbox_loc_bdc2018_perm_bdc2018
I0720 19:35:40.544993  3051 net.cpp:150] Setting up conv8_2_mbox_loc_bdc2018_perm_bdc2018
I0720 19:35:40.545004  3051 net.cpp:157] Top shape: 2 14 14 16 (6272)
I0720 19:35:40.545007  3051 net.cpp:165] Memory required for data: 5756384288
I0720 19:35:40.545011  3051 layer_factory.hpp:77] Creating layer conv8_2_mbox_loc_bdc2018_flat_bdc2018
I0720 19:35:40.545020  3051 net.cpp:100] Creating Layer conv8_2_mbox_loc_bdc2018_flat_bdc2018
I0720 19:35:40.545025  3051 net.cpp:434] conv8_2_mbox_loc_bdc2018_flat_bdc2018 <- conv8_2_mbox_loc_bdc2018_perm_bdc2018
I0720 19:35:40.545032  3051 net.cpp:408] conv8_2_mbox_loc_bdc2018_flat_bdc2018 -> conv8_2_mbox_loc_bdc2018_flat_bdc2018
I0720 19:35:40.545066  3051 net.cpp:150] Setting up conv8_2_mbox_loc_bdc2018_flat_bdc2018
I0720 19:35:40.545075  3051 net.cpp:157] Top shape: 2 3136 (6272)
I0720 19:35:40.545078  3051 net.cpp:165] Memory required for data: 5756409376
I0720 19:35:40.545084  3051 layer_factory.hpp:77] Creating layer conv8_2_mbox_conf_bdc2018_new
I0720 19:35:40.545096  3051 net.cpp:100] Creating Layer conv8_2_mbox_conf_bdc2018_new
I0720 19:35:40.545101  3051 net.cpp:434] conv8_2_mbox_conf_bdc2018_new <- conv8_2_conv8_2_relu_0_split_2
I0720 19:35:40.545110  3051 net.cpp:408] conv8_2_mbox_conf_bdc2018_new -> conv8_2_mbox_conf_bdc2018_new
I0720 19:35:40.549064  3051 net.cpp:150] Setting up conv8_2_mbox_conf_bdc2018_new
I0720 19:35:40.549087  3051 net.cpp:157] Top shape: 2 36 14 14 (14112)
I0720 19:35:40.549090  3051 net.cpp:165] Memory required for data: 5756465824
I0720 19:35:40.549106  3051 layer_factory.hpp:77] Creating layer conv8_2_mbox_conf_bdc2018_new_perm_bdc2018_new
I0720 19:35:40.549116  3051 net.cpp:100] Creating Layer conv8_2_mbox_conf_bdc2018_new_perm_bdc2018_new
I0720 19:35:40.549126  3051 net.cpp:434] conv8_2_mbox_conf_bdc2018_new_perm_bdc2018_new <- conv8_2_mbox_conf_bdc2018_new
I0720 19:35:40.549134  3051 net.cpp:408] conv8_2_mbox_conf_bdc2018_new_perm_bdc2018_new -> conv8_2_mbox_conf_bdc2018_new_perm_bdc2018_new
I0720 19:35:40.549304  3051 net.cpp:150] Setting up conv8_2_mbox_conf_bdc2018_new_perm_bdc2018_new
I0720 19:35:40.549316  3051 net.cpp:157] Top shape: 2 14 14 36 (14112)
I0720 19:35:40.549319  3051 net.cpp:165] Memory required for data: 5756522272
I0720 19:35:40.549324  3051 layer_factory.hpp:77] Creating layer conv8_2_mbox_conf_bdc2018_new_flat_bdc2018_new
I0720 19:35:40.549331  3051 net.cpp:100] Creating Layer conv8_2_mbox_conf_bdc2018_new_flat_bdc2018_new
I0720 19:35:40.549335  3051 net.cpp:434] conv8_2_mbox_conf_bdc2018_new_flat_bdc2018_new <- conv8_2_mbox_conf_bdc2018_new_perm_bdc2018_new
I0720 19:35:40.549343  3051 net.cpp:408] conv8_2_mbox_conf_bdc2018_new_flat_bdc2018_new -> conv8_2_mbox_conf_bdc2018_new_flat_bdc2018_new
I0720 19:35:40.549379  3051 net.cpp:150] Setting up conv8_2_mbox_conf_bdc2018_new_flat_bdc2018_new
I0720 19:35:40.549387  3051 net.cpp:157] Top shape: 2 7056 (14112)
I0720 19:35:40.549391  3051 net.cpp:165] Memory required for data: 5756578720
I0720 19:35:40.549396  3051 layer_factory.hpp:77] Creating layer conv8_2_mbox_priorbox
I0720 19:35:40.549403  3051 net.cpp:100] Creating Layer conv8_2_mbox_priorbox
I0720 19:35:40.549412  3051 net.cpp:434] conv8_2_mbox_priorbox <- conv8_2_conv8_2_relu_0_split_3
I0720 19:35:40.549418  3051 net.cpp:434] conv8_2_mbox_priorbox <- data_data_0_split_5
I0720 19:35:40.549429  3051 net.cpp:408] conv8_2_mbox_priorbox -> conv8_2_mbox_priorbox
I0720 19:35:40.549479  3051 net.cpp:150] Setting up conv8_2_mbox_priorbox
I0720 19:35:40.549486  3051 net.cpp:157] Top shape: 1 2 3136 (6272)
I0720 19:35:40.549489  3051 net.cpp:165] Memory required for data: 5756603808
I0720 19:35:40.549494  3051 layer_factory.hpp:77] Creating layer conv9_2_mbox_loc_bdc2018
I0720 19:35:40.549509  3051 net.cpp:100] Creating Layer conv9_2_mbox_loc_bdc2018
I0720 19:35:40.549512  3051 net.cpp:434] conv9_2_mbox_loc_bdc2018 <- conv9_2_conv9_2_relu_0_split_0
I0720 19:35:40.549520  3051 net.cpp:408] conv9_2_mbox_loc_bdc2018 -> conv9_2_mbox_loc_bdc2018
I0720 19:35:40.551318  3051 net.cpp:150] Setting up conv9_2_mbox_loc_bdc2018
I0720 19:35:40.551338  3051 net.cpp:157] Top shape: 2 16 12 12 (4608)
I0720 19:35:40.551343  3051 net.cpp:165] Memory required for data: 5756622240
I0720 19:35:40.551352  3051 layer_factory.hpp:77] Creating layer conv9_2_mbox_loc_bdc2018_perm_bdc2018
I0720 19:35:40.551359  3051 net.cpp:100] Creating Layer conv9_2_mbox_loc_bdc2018_perm_bdc2018
I0720 19:35:40.551364  3051 net.cpp:434] conv9_2_mbox_loc_bdc2018_perm_bdc2018 <- conv9_2_mbox_loc_bdc2018
I0720 19:35:40.551373  3051 net.cpp:408] conv9_2_mbox_loc_bdc2018_perm_bdc2018 -> conv9_2_mbox_loc_bdc2018_perm_bdc2018
I0720 19:35:40.551519  3051 net.cpp:150] Setting up conv9_2_mbox_loc_bdc2018_perm_bdc2018
I0720 19:35:40.551532  3051 net.cpp:157] Top shape: 2 12 12 16 (4608)
I0720 19:35:40.551535  3051 net.cpp:165] Memory required for data: 5756640672
I0720 19:35:40.551539  3051 layer_factory.hpp:77] Creating layer conv9_2_mbox_loc_bdc2018_flat_bdc2018
I0720 19:35:40.551546  3051 net.cpp:100] Creating Layer conv9_2_mbox_loc_bdc2018_flat_bdc2018
I0720 19:35:40.551551  3051 net.cpp:434] conv9_2_mbox_loc_bdc2018_flat_bdc2018 <- conv9_2_mbox_loc_bdc2018_perm_bdc2018
I0720 19:35:40.551559  3051 net.cpp:408] conv9_2_mbox_loc_bdc2018_flat_bdc2018 -> conv9_2_mbox_loc_bdc2018_flat_bdc2018
I0720 19:35:40.551592  3051 net.cpp:150] Setting up conv9_2_mbox_loc_bdc2018_flat_bdc2018
I0720 19:35:40.551599  3051 net.cpp:157] Top shape: 2 2304 (4608)
I0720 19:35:40.551604  3051 net.cpp:165] Memory required for data: 5756659104
I0720 19:35:40.551609  3051 layer_factory.hpp:77] Creating layer conv9_2_mbox_conf_bdc2018_new
I0720 19:35:40.551625  3051 net.cpp:100] Creating Layer conv9_2_mbox_conf_bdc2018_new
I0720 19:35:40.551630  3051 net.cpp:434] conv9_2_mbox_conf_bdc2018_new <- conv9_2_conv9_2_relu_0_split_1
I0720 19:35:40.551638  3051 net.cpp:408] conv9_2_mbox_conf_bdc2018_new -> conv9_2_mbox_conf_bdc2018_new
I0720 19:35:40.553681  3051 net.cpp:150] Setting up conv9_2_mbox_conf_bdc2018_new
I0720 19:35:40.553699  3051 net.cpp:157] Top shape: 2 36 12 12 (10368)
I0720 19:35:40.553716  3051 net.cpp:165] Memory required for data: 5756700576
I0720 19:35:40.553725  3051 layer_factory.hpp:77] Creating layer conv9_2_mbox_conf_bdc2018_new_perm_bdc2018_new
I0720 19:35:40.553736  3051 net.cpp:100] Creating Layer conv9_2_mbox_conf_bdc2018_new_perm_bdc2018_new
I0720 19:35:40.553741  3051 net.cpp:434] conv9_2_mbox_conf_bdc2018_new_perm_bdc2018_new <- conv9_2_mbox_conf_bdc2018_new
I0720 19:35:40.553750  3051 net.cpp:408] conv9_2_mbox_conf_bdc2018_new_perm_bdc2018_new -> conv9_2_mbox_conf_bdc2018_new_perm_bdc2018_new
I0720 19:35:40.553899  3051 net.cpp:150] Setting up conv9_2_mbox_conf_bdc2018_new_perm_bdc2018_new
I0720 19:35:40.553911  3051 net.cpp:157] Top shape: 2 12 12 36 (10368)
I0720 19:35:40.553915  3051 net.cpp:165] Memory required for data: 5756742048
I0720 19:35:40.553920  3051 layer_factory.hpp:77] Creating layer conv9_2_mbox_conf_bdc2018_new_flat_bdc2018_new
I0720 19:35:40.553926  3051 net.cpp:100] Creating Layer conv9_2_mbox_conf_bdc2018_new_flat_bdc2018_new
I0720 19:35:40.553930  3051 net.cpp:434] conv9_2_mbox_conf_bdc2018_new_flat_bdc2018_new <- conv9_2_mbox_conf_bdc2018_new_perm_bdc2018_new
I0720 19:35:40.553936  3051 net.cpp:408] conv9_2_mbox_conf_bdc2018_new_flat_bdc2018_new -> conv9_2_mbox_conf_bdc2018_new_flat_bdc2018_new
I0720 19:35:40.553970  3051 net.cpp:150] Setting up conv9_2_mbox_conf_bdc2018_new_flat_bdc2018_new
I0720 19:35:40.553982  3051 net.cpp:157] Top shape: 2 5184 (10368)
I0720 19:35:40.553984  3051 net.cpp:165] Memory required for data: 5756783520
I0720 19:35:40.553988  3051 layer_factory.hpp:77] Creating layer conv9_2_mbox_priorbox
I0720 19:35:40.553997  3051 net.cpp:100] Creating Layer conv9_2_mbox_priorbox
I0720 19:35:40.554000  3051 net.cpp:434] conv9_2_mbox_priorbox <- conv9_2_conv9_2_relu_0_split_2
I0720 19:35:40.554006  3051 net.cpp:434] conv9_2_mbox_priorbox <- data_data_0_split_6
I0720 19:35:40.554015  3051 net.cpp:408] conv9_2_mbox_priorbox -> conv9_2_mbox_priorbox
I0720 19:35:40.554049  3051 net.cpp:150] Setting up conv9_2_mbox_priorbox
I0720 19:35:40.554074  3051 net.cpp:157] Top shape: 1 2 2304 (4608)
I0720 19:35:40.554077  3051 net.cpp:165] Memory required for data: 5756801952
I0720 19:35:40.554081  3051 layer_factory.hpp:77] Creating layer mbox_loc
I0720 19:35:40.554090  3051 net.cpp:100] Creating Layer mbox_loc
I0720 19:35:40.554098  3051 net.cpp:434] mbox_loc <- conv4_3_norm_mbox_loc_bdc2018_flat_bdc2018
I0720 19:35:40.554107  3051 net.cpp:434] mbox_loc <- fc7_mbox_loc_bdc2018_flat_bdc2018
I0720 19:35:40.554117  3051 net.cpp:434] mbox_loc <- conv6_2_mbox_loc_bdc2018_flat_bdc2018
I0720 19:35:40.554122  3051 net.cpp:434] mbox_loc <- conv7_2_mbox_loc_bdc2018_flat_bdc2018
I0720 19:35:40.554127  3051 net.cpp:434] mbox_loc <- conv8_2_mbox_loc_bdc2018_flat_bdc2018
I0720 19:35:40.554131  3051 net.cpp:434] mbox_loc <- conv9_2_mbox_loc_bdc2018_flat_bdc2018
I0720 19:35:40.554139  3051 net.cpp:408] mbox_loc -> mbox_loc
I0720 19:35:40.554191  3051 net.cpp:150] Setting up mbox_loc
I0720 19:35:40.554201  3051 net.cpp:157] Top shape: 2 396608 (793216)
I0720 19:35:40.554204  3051 net.cpp:165] Memory required for data: 5759974816
I0720 19:35:40.554208  3051 layer_factory.hpp:77] Creating layer mbox_conf
I0720 19:35:40.554215  3051 net.cpp:100] Creating Layer mbox_conf
I0720 19:35:40.554219  3051 net.cpp:434] mbox_conf <- conv4_3_norm_mbox_conf_bdc2018_new_flat_bdc2018_new
I0720 19:35:40.554226  3051 net.cpp:434] mbox_conf <- fc7_mbox_conf_bdc2018_new_flat_bdc2018_new
I0720 19:35:40.554232  3051 net.cpp:434] mbox_conf <- conv6_2_mbox_conf_bdc2018_new_flat_bdc2018_new
I0720 19:35:40.554239  3051 net.cpp:434] mbox_conf <- conv7_2_mbox_conf_bdc2018_new_flat_bdc2018_new
I0720 19:35:40.554244  3051 net.cpp:434] mbox_conf <- conv8_2_mbox_conf_bdc2018_new_flat_bdc2018_new
I0720 19:35:40.554249  3051 net.cpp:434] mbox_conf <- conv9_2_mbox_conf_bdc2018_new_flat_bdc2018_new
I0720 19:35:40.554255  3051 net.cpp:408] mbox_conf -> mbox_conf
I0720 19:35:40.554291  3051 net.cpp:150] Setting up mbox_conf
I0720 19:35:40.554298  3051 net.cpp:157] Top shape: 2 892368 (1784736)
I0720 19:35:40.554317  3051 net.cpp:165] Memory required for data: 5767113760
I0720 19:35:40.554322  3051 layer_factory.hpp:77] Creating layer mbox_priorbox
I0720 19:35:40.554328  3051 net.cpp:100] Creating Layer mbox_priorbox
I0720 19:35:40.554332  3051 net.cpp:434] mbox_priorbox <- conv4_3_norm_mbox_priorbox
I0720 19:35:40.554338  3051 net.cpp:434] mbox_priorbox <- fc7_mbox_priorbox
I0720 19:35:40.554343  3051 net.cpp:434] mbox_priorbox <- conv6_2_mbox_priorbox
I0720 19:35:40.554347  3051 net.cpp:434] mbox_priorbox <- conv7_2_mbox_priorbox
I0720 19:35:40.554352  3051 net.cpp:434] mbox_priorbox <- conv8_2_mbox_priorbox
I0720 19:35:40.554355  3051 net.cpp:434] mbox_priorbox <- conv9_2_mbox_priorbox
I0720 19:35:40.554361  3051 net.cpp:408] mbox_priorbox -> mbox_priorbox
I0720 19:35:40.554395  3051 net.cpp:150] Setting up mbox_priorbox
I0720 19:35:40.554404  3051 net.cpp:157] Top shape: 1 2 396608 (793216)
I0720 19:35:40.554407  3051 net.cpp:165] Memory required for data: 5770286624
I0720 19:35:40.554411  3051 layer_factory.hpp:77] Creating layer mbox_loss
I0720 19:35:40.554433  3051 net.cpp:100] Creating Layer mbox_loss
I0720 19:35:40.554440  3051 net.cpp:434] mbox_loss <- mbox_loc
I0720 19:35:40.554445  3051 net.cpp:434] mbox_loss <- mbox_conf
I0720 19:35:40.554451  3051 net.cpp:434] mbox_loss <- mbox_priorbox
…
layer {
  name: "data"
  type: "AnnotatedData"
  top: "data"
  top: "label"
  include {
    phase: TEST
  }
  transform_param {
    crop_size: 1024
    mean_value: 104
    mean_value: 117
    mean_value: 123
    resize_param {
      prob: 1
      resize_mode: WARP
      height: 1074
      width: 1074
      interp_mode: LINEAR
    }
  }
  data_param {
    source: "examples/bdc2018/bdc2018_val_name_lmdb"
    batch_size: 2
    backend: LMDB
  }
  annotated_data_param {
    batch_sampler {
    }
    label_map_file: "data/bdc2018/labelmap_bdc.prototxt"
  }
}
layer {
  name: "conv1_1"
  type: "Convolution"
  bottom: "data"
  top: "conv1_1"
  param {
    lr_mult: 1
    decay_mult: 1
  }
  param {
    lr_mult: 2
    decay_mult: 0
  }
  convolution_param {
    num_output: 64
    pad: 1
    kernel_size: 3
    weight_filler {
      type: "xavier"
    }
    bias_filler {
      type: "constant"
      value: 0
    }
  }
}
layer {
  name: "relu1_1"
  type: "ReLU"
  bottom: "conv1_1"
  top: "conv1_1"
}
layer {
  name: "conv1_2"
  type: "Convolution"
  bottom: "conv1_1"
  top: "conv1_2"
  param {
    lr_mult: 1
    decay_mult: 1
  }
  param {
    lr_mult: 2
    decay_mult: 0
  }
  convolution_param {
    num_output: 64
    pad: 1
    kernel_size: 3
    weight_filler {
      type: "xavier"
    }
    bias_filler {
      type: "constant"
      value: 0
    }
  }
}
layer {
  name: "relu1_2"
  type: "ReLU"
  bottom: "conv1_2"
  top: "conv1_2"
}
layer {
  name: "pool1"
  type: "Pooling"
  bottom: "conv1_2"
  top: "pool1"
  pooling_param {
    pool: MAX
    kernel_size: 2
    stride: 2
  }
}
layer {
  name: "conv2_1"
  type: "Convolution"
  bottom: "pool1"
  top: "conv2_1"
  param {
    lr_mult: 1
    decay_mult: 1
  }
  param {
    lr_mult: 2
    decay_mult: 0
  }
  convolution_param {
    num_output: 128
    pad: 1
    kernel_size: 3
    weight_filler {
      type: "xavier"
    }
    bias_filler {
      type: "constant"
      value: 0
    }
  }
}
layer {
  name: "relu2_1"
  type: "ReLU"
  bottom: "conv2_1"
  top: "conv2_1"
}
layer {
  name: "conv2_2"
  type: "Convolution"
  bottom: "conv2_1"
  top: "conv2_2"
  param {
    lr_mult: 1
    decay_mult: 1
  }
  param {
    lr_mult: 2
    decay_mult: 0
  }
  convolution_param {
    num_output: 128
    pad: 1
    kernel_size: 3
    weight_filler {
      type: "xavier"
    }
    bias_filler {
      type: "constant"
      value: 0
    }
  }
}
layer {
  name: "relu2_2"
  type: "ReLU"
  bottom: "conv2_2"
  top: "conv2_2"
}
layer {
  name: "pool2"
  type: "Pooling"
  bottom: "conv2_2"
  top: "pool2"
  pooling_param {
    pool: MAX
    kernel_size: 2
    stride: 2
  }
}
layer {
  name: "conv3_1"
  type: "Convolution"
  bottom: "pool2"
  top: "conv3_1"
  param {
    lr_mult: 1
    decay_mult: 1
  }
  param {
    lr_mult: 2
    decay_mult: 0
  }
  convolution_param {
    num_output: 256
    pad: 1
    kernel_size: 3
    weight_filler {
      type: "xavier"
    }
    bias_filler {
      type: "constant"
      value: 0
    }
  }
}
layer {
  name: "relu3_1"
  type: "ReLU"
  bottom: "conv3_1"
  top: "conv3_1"
}
layer {
  name: "conv3_2"
  type: "Convolution"
  bottom: "conv3_1"
  top: "conv3_2"
  param {
    lr_mult: 1
    decay_mult: 1
  }
  param {
    lr_mult: 2
    decay_mult: 0
  }
  convolution_param {
    num_output: 256
    pad: 1
    kernel_size: 3
    weight_filler {
      type: "xavier"
    }
    bias_filler {
      type: "constant"
      value: 0
    }
  }
}
layer {
  name: "relu3_2"
  type: "ReLU"
  bottom: "conv3_2"
  top: "conv3_2"
}
layer {
  name: "conv3_3"
  type: "Convolution"
  bottom: "conv3_2"
  top: "conv3_3"
  param {
    lr_mult: 1
    decay_mult: 1
  }
  param {
    lr_mult: 2
    decay_mult: 0
  }
  convolution_param {
    num_output: 256
    pad: 1
    kernel_size: 3
    weight_filler {
      type: "xavier"
    }
    bias_filler {
      type: "constant"
      value: 0
    }
  }
}
layer {
  name: "relu3_3"
  type: "ReLU"
  bottom: "conv3_3"
  top: "conv3_3"
}
layer {
  name: "pool3"
  type: "Pooling"
  bottom: "conv3_3"
  top: "pool3"
  pooling_param {
    pool: MAX
    kernel_size: 2
    stride: 2
  }
}
layer {
  name: "conv4_1"
  type: "Convolution"
  bottom: "pool3"
  top: "conv4_1"
  param {
    lr_mult: 1
    decay_mult: 1
  }
  param {
    lr_mult: 2
    decay_mult: 0
  }
  convolution_param {
    num_output: 512
    pad: 1
    kernel_size: 3
    weight_filler {
      type: "xavier"
    }
    bias_filler {
      type: "constant"
      value: 0
    }
  }
}
layer {
  name: "relu4_1"
  type: "ReLU"
  bottom: "conv4_1"
  top: "conv4_1"
}
layer {
  name: "conv4_2"
  type: "Convolution"
  bottom: "conv4_1"
  top: "conv4_2"
  param {
    lr_mult: 1
    decay_mult: 1
  }
  param {
    lr_mult: 2
    decay_mult: 0
  }
  convolution_param {
    num_output: 512
    pad: 1
    kernel_size: 3
    weight_filler {
      type: "xavier"
    }
    bias_filler {
      type: "constant"
      value: 0
    }
  }
}
layer {
  name: "relu4_2"
  type: "ReLU"
  bottom: "conv4_2"
  top: "conv4_2"
}
layer {
  name: "conv4_3"
  type: "Convolution"
  bottom: "conv4_2"
  top: "conv4_3"
  param {
    lr_mult: 1
    decay_mult: 1
  }
  param {
    lr_mult: 2
    decay_mult: 0
  }
  convolution_param {
    num_output: 512
    pad: 1
    kernel_size: 3
    weight_filler {
      type: "xavier"
    }
    bias_filler {
      type: "constant"
      value: 0
    }
  }
}
layer {
  name: "relu4_3"
  type: "ReLU"
  bottom: "conv4_3"
  top: "conv4_3"
}
layer {
  name: "pool4"
  type: "Pooling"
  bottom: "conv4_3"
  top: "pool4"
  pooling_param {
    pool: MAX
    kernel_size: 2
    stride: 2
  }
}
layer {
  name: "conv5_1"
  type: "Convolution"
  bottom: "pool4"
  top: "conv5_1"
  param {
    lr_mult: 1
    decay_mult: 1
  }
  param {
    lr_mult: 2
    decay_mult: 0
  }
  convolution_param {
    num_output: 512
    pad: 1
    kernel_size: 3
    weight_filler {
      type: "xavier"
    }
    bias_filler {
      type: "constant"
      value: 0
    }
    dilation: 1
  }
}
layer {
  name: "relu5_1"
  type: "ReLU"
  bottom: "conv5_1"
  top: "conv5_1"
}
layer {
  name: "conv5_2"
  type: "Convolution"
  bottom: "conv5_1"
  top: "conv5_2"
  param {
    lr_mult: 1
    decay_mult: 1
  }
  param {
    lr_mult: 2
    decay_mult: 0
  }
  convolution_param {
    num_output: 512
    pad: 1
    kernel_size: 3
    weight_filler {
      type: "xavier"
    }
    bias_filler {
      type: "constant"
      value: 0
    }
    dilation: 1
  }
}
layer {
  name: "relu5_2"
  type: "ReLU"
  bottom: "conv5_2"
  top: "conv5_2"
}
layer {
  name: "conv5_3"
  type: "Convolution"
  bottom: "conv5_2"
  top: "conv5_3"
  param {
    lr_mult: 1
    decay_mult: 1
  }
  param {
    lr_mult: 2
    decay_mult: 0
  }
  convolution_param {
    num_output: 512
    pad: 1
    kernel_size: 3
    weight_filler {
      type: "xavier"
    }
    bias_filler {
      type: "constant"
      value: 0
    }
    dilation: 1
  }
}
layer {
  name: "relu5_3"
  type: "ReLU"
  bottom: "conv5_3"
  top: "conv5_3"
}
layer {
  name: "pool5"
  type: "Pooling"
  bottom: "conv5_3"
  top: "pool5"
  pooling_param {
    pool: MAX
    kernel_size: 3
    stride: 1
    pad: 1
  }
}
layer {
  name: "fc6"
  type: "Convolution"
  bottom: "pool5"
  top: "fc6"
  param {
    lr_mult: 1
    decay_mult: 1
  }
  param {
    lr_mult: 2
    decay_mult: 0
  }
  convolution_param {
    num_output: 1024
    pad: 6
    kernel_size: 3
    weight_filler {
      type: "xavier"
    }
    bias_filler {
      type: "constant"
      value: 0
    }
    dilation: 6
  }
}
layer {
  name: "relu6"
  type: "ReLU"
  bottom: "fc6"
  top: "fc6"
}
layer {
  name: "fc7"
  type: "Convolution"
  bottom: "fc6"
  top: "fc7"
  param {
    lr_mult: 1
    decay_mult: 1
  }
  param {
    lr_mult: 2
    decay_mult: 0
  }
  convolution_param {
    num_output: 1024
    kernel_size: 1
    weight_filler {
      type: "xavier"
    }
    bias_filler {
      type: "constant"
      value: 0
    }
  }
}
layer {
  name: "relu7"
  type: "ReLU"
  bottom: "fc7"
  top: "fc7"
}
layer {
  name: "conv6_1"
  type: "Convolution"
  bottom: "fc7"
  top: "conv6_1"
  param {
    lr_mult: 1
    decay_mult: 1
  }
  param {
    lr_mult: 2
    decay_mult: 0
  }
  convolution_param {
    num_output: 256
    pad: 0
    kernel_size: 1
    stride: 1
    weight_filler {
      type: "xavier"
    }
    bias_filler {
      type: "constant"
      value: 0
    }
  }
}
layer {
  name: "conv6_1_relu"
  type: "ReLU"
  bottom: "conv6_1"
  top: "conv6_1"
}
layer {
  name: "conv6_2"
  type: "Convolution"
  bottom: "conv6_1"
  top: "conv6_2"
  param {
    lr_mult: 1
    decay_mult: 1
  }
  param {
    lr_mult: 2
    decay_mult: 0
  }
  convolution_param {
    num_output: 512
    pad: 1
    kernel_size: 3
    stride: 2
    weight_filler {
      type: "xavier"
    }
    bias_filler {
      type: "constant"
      value: 0
    }
  }
}
layer {
  name: "conv6_2_relu"
  type: "ReLU"
  bottom: "conv6_2"
  top: "conv6_2"
}
layer {
  name: "conv7_1"
  type: "Convolution"
  bottom: "conv6_2"
  top: "conv7_1"
  param {
    lr_mult: 1
    decay_mult: 1
  }
  param {
    lr_mult: 2
    decay_mult: 0
  }
  convolution_param {
    num_output: 128
    pad: 0
    kernel_size: 1
    stride: 1
    weight_filler {
      type: "xavier"
    }
    bias_filler {
      type: "constant"
      value: 0
    }
  }
}
layer {
  name: "conv7_1_relu"
  type: "ReLU"
  bottom: "conv7_1"
  top: "conv7_1"
}
layer {
  name: "conv7_2"
  type: "Convolution"
  bottom: "conv7_1"
  top: "conv7_2"
  param {
    lr_mult: 1
    decay_mult: 1
  }
  param {
    lr_mult: 2
    decay_mult: 0
  }
  convolution_param {
    num_output: 256
    pad: 1
    kernel_size: 3
    stride: 2
    weight_filler {
      type: "xavier"
    }
    bias_filler {
      type: "constant"
      value: 0
    }
  }
}
layer {
  name: "conv7_2_relu"
  type: "ReLU"
  bottom: "conv7_2"
  top: "conv7_2"
}
layer {
  name: "conv8_1"
  type: "Convolution"
  bottom: "conv7_2"
  top: "conv8_1"
  param {
    lr_mult: 1
    decay_mult: 1
  }
  param {
    lr_mult: 2
    decay_mult: 0
  }
  convolution_param {
    num_output: 128
    pad: 0
    kernel_size: 1
    stride: 1
    weight_filler {
      type: "xavier"
    }
    bias_filler {
      type: "constant"
      value: 0
    }
  }
}
layer {
  name: "conv8_1_relu"
  type: "ReLU"
  bottom: "conv8_1"
  top: "conv8_1"
}
layer {
  name: "conv8_2"
  type: "Convolution"
  bottom: "conv8_1"
  top: "conv8_2"
  param {
    lr_mult: 1
    decay_mult: 1
  }
  param {
    lr_mult: 2
    decay_mult: 0
  }
  convolution_param {
    num_output: 256
    pad: 0
    kernel_size: 3
    stride: 1
    weight_filler {
      type: "xavier"
    }
    bias_filler {
      type: "constant"
      value: 0
    }
  }
}
layer {
  name: "conv8_2_relu"
  type: "ReLU"
  bottom: "conv8_2"
  top: "conv8_2"
}
layer {
  name: "conv9_1"
  type: "Convolution"
  bottom: "conv8_2"
  top: "conv9_1"
  param {
    lr_mult: 1
    decay_mult: 1
  }
  param {
    lr_mult: 2
    decay_mult: 0
  }
  convolution_param {
    num_output: 128
    pad: 0
    kernel_size: 1
    stride: 1
    weight_filler {
      type: "xavier"
    }
    bias_filler {
      type: "constant"
      value: 0
    }
  }
}
layer {
  name: "conv9_1_relu"
  type: "ReLU"
  bottom: "conv9_1"
  top: "conv9_1"
}
layer {
  name: "conv9_2"
  type: "Convolution"
  bottom: "conv9_1"
  top: "conv9_2"
  param {
    lr_mult: 1
    decay_mult: 1
  }
  param {
    lr_mult: 2
    decay_mult: 0
  }
  convolution_param {
    num_output: 256
    pad: 0
    kernel_size: 3
    stride: 1
    weight_filler {
      type: "xavier"
    }
    bias_filler {
      type: "constant"
      value: 0
    }
  }
}
layer {
  name: "conv9_2_relu"
  type: "ReLU"
  bottom: "conv9_2"
  top: "conv9_2"
}
layer {
  name: "conv4_3_norm"
  type: "Normalize"
  bottom: "conv4_3"
  top: "conv4_3_norm"
  norm_param {
    across_spatial: false
    scale_filler {
      type: "constant"
      value: 20
    }
    channel_shared: false
  }
}
layer {
  name: "conv4_3_norm_mbox_loc_bdc2018"
  type: "Convolution"
  bottom: "conv4_3_norm"
  top: "conv4_3_norm_mbox_loc_bdc2018"
  param {
    lr_mult: 1
    decay_mult: 1
  }
  param {
    lr_mult: 2
    decay_mult: 0
  }
  convolution_param {
    num_output: 16
    pad: 1
    kernel_size: 3
    stride: 1
    weight_filler {
      type: "xavier"
    }
    bias_filler {
      type: "constant"
      value: 0
    }
  }
}
layer {
  name: "conv4_3_norm_mbox_loc_bdc2018_perm_bdc2018"
  type: "Permute"
  bottom: "conv4_3_norm_mbox_loc_bdc2018"
  top: "conv4_3_norm_mbox_loc_bdc2018_perm_bdc2018"
  permute_param {
    order: 0
    order: 2
    order: 3
    order: 1
  }
}
layer {
  name: "conv4_3_norm_mbox_loc_bdc2018_flat_bdc2018"
  type: "Flatten"
  bottom: "conv4_3_norm_mbox_loc_bdc2018_perm_bdc2018"
  top: "conv4_3_norm_mbox_loc_bdc2018_flat_bdc2018"
  flatten_param {
    axis: 1
  }
}
layer {
  name: "conv4_3_norm_mbox_conf_bdc2018_new"
  type: "Convolution"
  bottom: "conv4_3_norm"
  top: "conv4_3_norm_mbox_conf_bdc2018_new"
  param {
    lr_mult: 1
    decay_mult: 1
  }
  param {
    lr_mult: 2
    decay_mult: 0
  }
  convolution_param {
    num_output: 36
    pad: 1
    kernel_size: 3
    stride: 1
    weight_filler {
      type: "xavier"
    }
    bias_filler {
      type: "constant"
      value: 0
    }
  }
}
layer {
  name: "conv4_3_norm_mbox_conf_bdc2018_new_perm_bdc2018_new"
  type: "Permute"
  bottom: "conv4_3_norm_mbox_conf_bdc2018_new"
  top: "conv4_3_norm_mbox_conf_bdc2018_new_perm_bdc2018_new"
  permute_param {
    order: 0
    order: 2
    order: 3
    order: 1
  }
}
layer {
  name: "conv4_3_norm_mbox_conf_bdc2018_new_flat_bdc2018_new"
  type: "Flatten"
  bottom: "conv4_3_norm_mbox_conf_bdc2018_new_perm_bdc2018_new"
  top: "conv4_3_norm_mbox_conf_bdc2018_new_flat_bdc2018_new"
  flatten_param {
    axis: 1
  }
}
layer {
  name: "conv4_3_norm_mbox_priorbox"
  type: "PriorBox"
  bottom: "conv4_3_norm"
  bottom: "data"
  top: "conv4_3_norm_mbox_priorbox"
  prior_box_param {
    min_size: 102.4
    max_size: 204.8
    aspect_ratio: 2
    flip: true
    clip: false
    variance: 0.1
    variance: 0.1
    variance: 0.2
    variance: 0.2
    step: 8
    offset: 0.5
  }
}
layer {
  name: "fc7_mbox_loc_bdc2018"
  type: "Convolution"
  bottom: "fc7"
  top: "fc7_mbox_loc_bdc2018"
  param {
    lr_mult: 1
    decay_mult: 1
  }
  param {
    lr_mult: 2
    decay_mult: 0
  }
  convolution_param {
    num_output: 24
    pad: 1
    kernel_size: 3
    stride: 1
    weight_filler {
      type: "xavier"
    }
    bias_filler {
      type: "constant"
      value: 0
    }
  }
}
layer {
  name: "fc7_mbox_loc_bdc2018_perm_bdc2018"
  type: "Permute"
  bottom: "fc7_mbox_loc_bdc2018"
  top: "fc7_mbox_loc_bdc2018_perm_bdc2018"
  permute_param {
    order: 0
    order: 2
    order: 3
    order: 1
  }
}
layer {
  name: "fc7_mbox_loc_bdc2018_flat_bdc2018"
  type: "Flatten"
  bottom: "fc7_mbox_loc_bdc2018_perm_bdc2018"
  top: "fc7_mbox_loc_bdc2018_flat_bdc2018"
  flatten_param {
    axis: 1
  }
}
layer {
  name: "fc7_mbox_conf_bdc2018_new"
  type: "Convolution"
  bottom: "fc7"
  top: "fc7_mbox_conf_bdc2018_new"
  param {
    lr_mult: 1
    decay_mult: 1
  }
  param {
    lr_mult: 2
    decay_mult: 0
  }
  convolution_param {
    num_output: 54
    pad: 1
    kernel_size: 3
    stride: 1
    weight_filler {
      type: "xavier"
    }
    bias_filler {
      type: "constant"
      value: 0
    }
  }
}
layer {
  name: "fc7_mbox_conf_bdc2018_new_perm_bdc2018_new"
  type: "Permute"
  bottom: "fc7_mbox_conf_bdc2018_new"
  top: "fc7_mbox_conf_bdc2018_new_perm_bdc2018_new"
  permute_param {
    order: 0
    order: 2
    order: 3
    order: 1
  }
}
layer {
  name: "fc7_mbox_conf_bdc2018_new_flat_bdc2018_new"
  type: "Flatten"
  bottom: "fc7_mbox_conf_bdc2018_new_perm_bdc2018_new"
  top: "fc7_mbox_conf_bdc2018_new_flat_bdc2018_new"
  flatten_param {
    axis: 1
  }
}
layer {
  name: "fc7_mbox_priorbox"
  type: "PriorBox"
  bottom: "fc7"
  bottom: "data"
  top: "fc7_mbox_priorbox"
  prior_box_param {
    min_size: 204.8
    max_size: 378.88
    aspect_ratio: 2
    aspect_ratio: 3
    flip: true
    clip: false
    variance: 0.1
    variance: 0.1
    variance: 0.2
    variance: 0.2
    step: 16
    offset: 0.5
  }
}
layer {
  name: "conv6_2_mbox_loc_bdc2018"
  type: "Convolution"
  bottom: "conv6_2"
  top: "conv6_2_mbox_loc_bdc2018"
  param {
    lr_mult: 1
    decay_mult: 1
  }
  param {
    lr_mult: 2
    decay_mult: 0
  }
  convolution_param {
    num_output: 24
    pad: 1
    kernel_size: 3
    stride: 1
    weight_filler {
      type: "xavier"
    }
    bias_filler {
      type: "constant"
      value: 0
    }
  }
}
layer {
  name: "conv6_2_mbox_loc_bdc2018_perm_bdc2018"
  type: "Permute"
  bottom: "conv6_2_mbox_loc_bdc2018"
  top: "conv6_2_mbox_loc_bdc2018_perm_bdc2018"
  permute_param {
    order: 0
    order: 2
    order: 3
    order: 1
  }
}
layer {
  name: "conv6_2_mbox_loc_bdc2018_flat_bdc2018"
  type: "Flatten"
  bottom: "conv6_2_mbox_loc_bdc2018_perm_bdc2018"
  top: "conv6_2_mbox_loc_bdc2018_flat_bdc2018"
  flatten_param {
    axis: 1
  }
}
layer {
  name: "conv6_2_mbox_conf_bdc2018_new"
  type: "Convolution"
  bottom: "conv6_2"
  top: "conv6_2_mbox_conf_bdc2018_new"
  param {
    lr_mult: 1
    decay_mult: 1
  }
  param {
    lr_mult: 2
    decay_mult: 0
  }
  convolution_param {
    num_output: 54
    pad: 1
    kernel_size: 3
    stride: 1
    weight_filler {
      type: "xavier"
    }
    bias_filler {
      type: "constant"
      value: 0
    }
  }
}
layer {
  name: "conv6_2_mbox_conf_bdc2018_new_perm_bdc2018_new"
  type: "Permute"
  bottom: "conv6_2_mbox_conf_bdc2018_new"
  top: "conv6_2_mbox_conf_bdc2018_new_perm_bdc2018_new"
  permute_param {
    order: 0
    order: 2
    order: 3
    order: 1
  }
}
layer {
  name: "conv6_2_mbox_conf_bdc2018_new_flat_bdc2018_new"
  type: "Flatten"
  bottom: "conv6_2_mbox_conf_bdc2018_new_perm_bdc2018_new"
  top: "conv6_2_mbox_conf_bdc2018_new_flat_bdc2018_new"
  flatten_param {
    axis: 1
  }
}
layer {
  name: "conv6_2_mbox_priorbox"
  type: "PriorBox"
  bottom: "conv6_2"
  bottom: "data"
  top: "conv6_2_mbox_priorbox"
  prior_box_param {
    min_size: 378.88
    max_size: 552.96
    aspect_ratio: 2
    aspect_ratio: 3
    flip: true
    clip: false
    variance: 0.1
    variance: 0.1
    variance: 0.2
    variance: 0.2
    step: 32
    offset: 0.5
  }
}
layer {
  name: "conv7_2_mbox_loc_bdc2018"
  type: "Convolution"
  bottom: "conv7_2"
  top: "conv7_2_mbox_loc_bdc2018"
  param {
    lr_mult: 1
    decay_mult: 1
  }
  param {
    lr_mult: 2
    decay_mult: 0
  }
  convolution_param {
    num_output: 24
    pad: 1
    kernel_size: 3
    stride: 1
    weight_filler {
      type: "xavier"
    }
    bias_filler {
      type: "constant"
      value: 0
    }
  }
}
layer {
  name: "conv7_2_mbox_loc_bdc2018_perm_bdc2018"
  type: "Permute"
  bottom: "conv7_2_mbox_loc_bdc2018"
  top: "conv7_2_mbox_loc_bdc2018_perm_bdc2018"
  permute_param {
    order: 0
    order: 2
    order: 3
    order: 1
  }
}
layer {
  name: "conv7_2_mbox_loc_bdc2018_flat_bdc2018"
  type: "Flatten"
  bottom: "conv7_2_mbox_loc_bdc2018_perm_bdc2018"
  top: "conv7_2_mbox_loc_bdc2018_flat_bdc2018"
  flatten_param {
    axis: 1
  }
}
layer {
  name: "conv7_2_mbox_conf_bdc2018_new"
  type: "Convolution"
  bottom: "conv7_2"
  top: "conv7_2_mbox_conf_bdc2018_new"
  param {
    lr_mult: 1
    decay_mult: 1
  }
  param {
    lr_mult: 2
    decay_mult: 0
  }
  convolution_param {
    num_output: 54
    pad: 1
    kernel_size: 3
    stride: 1
    weight_filler {
      type: "xavier"
    }
    bias_filler {
      type: "constant"
      value: 0
    }
  }
}
layer {
  name: "conv7_2_mbox_conf_bdc2018_new_perm_bdc2018_new"
  type: "Permute"
  bottom: "conv7_2_mbox_conf_bdc2018_new"
  top: "conv7_2_mbox_conf_bdc2018_new_perm_bdc2018_new"
  permute_param {
    order: 0
    order: 2
    order: 3
    order: 1
  }
}
layer {
  name: "conv7_2_mbox_conf_bdc2018_new_flat_bdc2018_new"
  type: "Flatten"
  bottom: "conv7_2_mbox_conf_bdc2018_new_perm_bdc2018_new"
  top: "conv7_2_mbox_conf_bdc2018_new_flat_bdc2018_new"
  flatten_param {
    axis: 1
  }
}
layer {
  name: "conv7_2_mbox_priorbox"
  type: "PriorBox"
  bottom: "conv7_2"
  bottom: "data"
  top: "conv7_2_mbox_priorbox"
  prior_box_param {
    min_size: 552.96
    max_size: 727.04
    aspect_ratio: 2
    aspect_ratio: 3
    flip: true
    clip: false
    variance: 0.1
    variance: 0.1
    variance: 0.2
    variance: 0.2
    step: 64
    offset: 0.5
  }
}
layer {
  name: "conv8_2_mbox_loc_bdc2018"
  type: "Convolution"
  bottom: "conv8_2"
  top: "conv8_2_mbox_loc_bdc2018"
  param {
    lr_mult: 1
    decay_mult: 1
  }
  param {
    lr_mult: 2
    decay_mult: 0
  }
  convolution_param {
    num_output: 16
    pad: 1
    kernel_size: 3
    stride: 1
    weight_filler {
      type: "xavier"
    }
    bias_filler {
      type: "constant"
      value: 0
    }
  }
}
layer {
  name: "conv8_2_mbox_loc_bdc2018_perm_bdc2018"
  type: "Permute"
  bottom: "conv8_2_mbox_loc_bdc2018"
  top: "conv8_2_mbox_loc_bdc2018_perm_bdc2018"
  permute_param {
    order: 0
    order: 2
    order: 3
    order: 1
  }
}
layer {
  name: "conv8_2_mbox_loc_bdc2018_flat_bdc2018"
  type: "Flatten"
  bottom: "conv8_2_mbox_loc_bdc2018_perm_bdc2018"
  top: "conv8_2_mbox_loc_bdc2018_flat_bdc2018"
  flatten_param {
    axis: 1
  }
}
layer {
  name: "conv8_2_mbox_conf_bdc2018_new"
  type: "Convolution"
  bottom: "conv8_2"
  top: "conv8_2_mbox_conf_bdc2018_new"
  param {
    lr_mult: 1
    decay_mult: 1
  }
  param {
    lr_mult: 2
    decay_mult: 0
  }
  convolution_param {
    num_output: 36
    pad: 1
    kernel_size: 3
    stride: 1
    weight_filler {
      type: "xavier"
    }
    bias_filler {
      type: "constant"
      value: 0
    }
  }
}
layer {
  name: "conv8_2_mbox_conf_bdc2018_new_perm_bdc2018_new"
  type: "Permute"
  bottom: "conv8_2_mbox_conf_bdc2018_new"
  top: "conv8_2_mbox_conf_bdc2018_new_perm_bdc2018_new"
  permute_param {
    order: 0
    order: 2
    order: 3
    order: 1
  }
}
layer {
  name: "conv8_2_mbox_conf_bdc2018_new_flat_bdc2018_new"
  type: "Flatten"
  bottom: "conv8_2_mbox_conf_bdc2018_new_perm_bdc2018_new"
  top: "conv8_2_mbox_conf_bdc2018_new_flat_bdc2018_new"
  flatten_param {
    axis: 1
  }
}
layer {
  name: "conv8_2_mbox_priorbox"
  type: "PriorBox"
  bottom: "conv8_2"
  bottom: "data"
  top: "conv8_2_mbox_priorbox"
  prior_box_param {
    min_size: 727.04
    max_size: 901.12
    aspect_ratio: 2
    flip: true
    clip: false
    variance: 0.1
    variance: 0.1
    variance: 0.2
    variance: 0.2
    step: 100
    offset: 0.5
  }
}
layer {
  name: "conv9_2_mbox_loc_bdc2018"
  type: "Convolution"
  bottom: "conv9_2"
  top: "conv9_2_mbox_loc_bdc2018"
  param {
    lr_mult: 1
    decay_mult: 1
  }
  param {
    lr_mult: 2
    decay_mult: 0
  }
  convolution_param {
    num_output: 16
    pad: 1
    kernel_size: 3
    stride: 1
    weight_filler {
      type: "xavier"
    }
    bias_filler {
      type: "constant"
      value: 0
    }
  }
}
layer {
  name: "conv9_2_mbox_loc_bdc2018_perm_bdc2018"
  type: "Permute"
  bottom: "conv9_2_mbox_loc_bdc2018"
  top: "conv9_2_mbox_loc_bdc2018_perm_bdc2018"
  permute_param {
    order: 0
    order: 2
    order: 3
    order: 1
  }
}
layer {
  name: "conv9_2_mbox_loc_bdc2018_flat_bdc2018"
  type: "Flatten"
  bottom: "conv9_2_mbox_loc_bdc2018_perm_bdc2018"
  top: "conv9_2_mbox_loc_bdc2018_flat_bdc2018"
  flatten_param {
    axis: 1
  }
}
layer {
  name: "conv9_2_mbox_conf_bdc2018_new"
  type: "Convolution"
  bottom: "conv9_2"
  top: "conv9_2_mbox_conf_bdc2018_new"
  param {
    lr_mult: 1
    decay_mult: 1
  }
  param {
    lr_mult: 2
    decay_mult: 0
  }
  convolution_param {
    num_output: 36
    pad: 1
    kernel_size: 3
    stride: 1
    weight_filler {
      type: "xavier"
    }
    bias_filler {
      type: "constant"
      value: 0
    }
  }
}
layer {
  name: "conv9_2_mbox_conf_bdc2018_new_perm_bdc2018_new"
  type: "Permute"
  bottom: "conv9_2_mbox_conf_bdc2018_new"
  top: "conv9_2_mbox_conf_bdc2018_new_perm_bdc2018_new"
  permute_param {
    order: 0
    order: 2
    order: 3
    order: 1
  }
}
layer {
  name: "conv9_2_mbox_conf_bdc2018_new_flat_bdc2018_new"
  type: "Flatten"
  bottom: "conv9_2_mbox_conf_bdc2018_new_perm_bdc2018_new"
  top: "conv9_2_mbox_conf_bdc2018_new_flat_bdc2018_new"
  flatten_param {
    axis: 1
  }
}
layer {
  name: "conv9_2_mbox_priorbox"
  type: "PriorBox"
  bottom: "conv9_2"
  bottom: "data"
  top: "conv9_2_mbox_priorbox"
  prior_box_param {
    min_size: 901.12
    max_size: 1075.2
    aspect_ratio: 2
    flip: true
    clip: false
    variance: 0.1
    variance: 0.1
    variance: 0.2
    variance: 0.2
    step: 300
    offset: 0.5
  }
}
layer {
  name: "mbox_loc"
  type: "Concat"
  bottom: "conv4_3_norm_mbox_loc_bdc2018_flat_bdc2018"
  bottom: "fc7_mbox_loc_bdc2018_flat_bdc2018"
  bottom: "conv6_2_mbox_loc_bdc2018_flat_bdc2018"
  bottom: "conv7_2_mbox_loc_bdc2018_flat_bdc2018"
  bottom: "conv8_2_mbox_loc_bdc2018_flat_bdc2018"
  bottom: "conv9_2_mbox_loc_bdc2018_flat_bdc2018"
  top: "mbox_loc"
  concat_param {
    axis: 1
  }
}
layer {
  name: "mbox_conf"
  type: "Concat"
  bottom: "conv4_3_norm_mbox_conf_bdc2018_new_flat_bdc2018_new"
  bottom: "fc7_mbox_conf_bdc2018_new_flat_bdc2018_new"
  bottom: "conv6_2_mbox_conf_bdc2018_new_flat_bdc2018_new"
  bottom: "conv7_2_mbox_conf_bdc2018_new_flat_bdc2018_new"
  bottom: "conv8_2_mbox_conf_bdc2018_new_flat_bdc2018_new"
  bottom: "conv9_2_mbox_conf_bdc2018_new_flat_bdc2018_new"
  top: "mbox_conf"
  concat_param {
    axis: 1
  }
}
layer {
  name: "mbox_priorbox"
  type: "Concat"
  bottom: "conv4_3_norm_mbox_priorbox"
  bottom: "fc7_mbox_priorbox"
  bottom: "conv6_2_mbox_priorbox"
  bottom: "conv7_2_mbox_priorbox"
  bottom: "conv8_2_mbox_priorbox"
  bottom: "conv9_2_mbox_priorbox"
  top: "mbox_priorbox"
  concat_param {
    axis: 2
  }
}
layer {
  name: "mbox_conf_reshape"
  type: "Reshape"
  bottom: "mbox_conf"
  top: "mbox_conf_reshape"
  reshape_param {
    shape {
      dim: 0
      dim: -1
      dim: 9
    }
  }
}
layer {
  name: "mbox_conf_softmax"
  type: "Softmax"
  bottom: "mbox_conf_reshape"
  top: "mbox_conf_softmax"
  softmax_param {
    axis: 2
  }
}
layer {
  name: "mbox_conf_flatten"
  type: "Flatten"
  bottom: "mbox_conf_softmax"
  top: "mbox_conf_flatten"
  flatten_param {
    axis: 1
  }
}
layer {
  name: "detection_out"
  type: "DetectionOutput"
  bottom: "mbox_loc"
  bottom: "mbox_conf_flatten"
  bottom: "mbox_priorbox"
  top: "detection_out"
  include {
    phase: TEST
  }
  detection_output_param {
    num_classes: 9
    share_location: true
    background_label_id: 0
    nms_param {
      nms_threshold: 0.45
      top_k: 400
    }
    save_output_param {
      output_directory: "/home/user/data/bdc2018/results/SSD_1024x1024/Main"
      output_name_prefix: "comp4_det_test_"
      output_format: "VOC"
      label_map_file: "data/bdc2018/labelmap_bdc.prototxt"
      name_size_file: "data/bdc2018/val_name_size.txt"
      num_test_image: 37
    }
    code_type: CENTER_SIZE
    keep_top_k: 200
    confidence_threshold: 0.01
  }
}
layer {
  name: "detection_eval"
  type: "DetectionEvaluate"
  bottom: "detection_out"
  bottom: "label"
  top: "detection_eval"
  include {
    phase: TEST
  }
  detection_evaluate_param {
    num_classes: 9
    background_label_id: 0
    overlap_threshold: 0.5
    evaluate_difficult_gt: false
    name_size_file: "data/bdc2018/val_name_size.txt"
  }
}
I0720 19:35:40.558706  3051 layer_factory.hpp:77] Creating layer data
I0720 19:35:40.559017  3051 net.cpp:100] Creating Layer data
I0720 19:35:40.559031  3051 net.cpp:408] data -> data
I0720 19:35:40.559042  3051 net.cpp:408] data -> label
I0720 19:35:40.563388  3063 db_lmdb.cpp:35] Opened lmdb examples/bdc2018/bdc2018_val_name_lmdb
I0720 19:35:40.567965  3051 annotated_data_layer.cpp:62] output data size: 2,3,1024,1024
I0720 19:35:40.612606  3051 net.cpp:150] Setting up data
I0720 19:35:40.612646  3051 net.cpp:157] Top shape: 2 3 1024 1024 (6291456)
I0720 19:35:40.612653  3051 net.cpp:157] Top shape: 1 1 1 8 (8)
I0720 19:35:40.612656  3051 net.cpp:165] Memory required for data: 25165856
I0720 19:35:40.612664  3051 layer_factory.hpp:77] Creating layer data_data_0_split
I0720 19:35:40.612684  3051 net.cpp:100] Creating Layer data_data_0_split
I0720 19:35:40.612689  3051 net.cpp:434] data_data_0_split <- data
I0720 19:35:40.612701  3051 net.cpp:408] data_data_0_split -> data_data_0_split_0
I0720 19:35:40.612716  3051 net.cpp:408] data_data_0_split -> data_data_0_split_1
I0720 19:35:40.612725  3051 net.cpp:408] data_data_0_split -> data_data_0_split_2
I0720 19:35:40.612732  3051 net.cpp:408] data_data_0_split -> data_data_0_split_3
I0720 19:35:40.612740  3051 net.cpp:408] data_data_0_split -> data_data_0_split_4
I0720 19:35:40.612748  3051 net.cpp:408] data_data_0_split -> data_data_0_split_5
I0720 19:35:40.612779  3051 net.cpp:408] data_data_0_split -> data_data_0_split_6
I0720 19:35:40.613025  3051 net.cpp:150] Setting up data_data_0_split
I0720 19:35:40.613039  3051 net.cpp:157] Top shape: 2 3 1024 1024 (6291456)
I0720 19:35:40.613044  3051 net.cpp:157] Top shape: 2 3 1024 1024 (6291456)
I0720 19:35:40.613049  3051 net.cpp:157] Top shape: 2 3 1024 1024 (6291456)
I0720 19:35:40.613054  3051 net.cpp:157] Top shape: 2 3 1024 1024 (6291456)
I0720 19:35:40.613059  3051 net.cpp:157] Top shape: 2 3 1024 1024 (6291456)
I0720 19:35:40.613062  3051 net.cpp:157] Top shape: 2 3 1024 1024 (6291456)
I0720 19:35:40.613068  3051 net.cpp:157] Top shape: 2 3 1024 1024 (6291456)
I0720 19:35:40.613072  3051 net.cpp:165] Memory required for data: 201326624
I0720 19:35:40.613076  3051 layer_factory.hpp:77] Creating layer conv1_1
I0720 19:35:40.613093  3051 net.cpp:100] Creating Layer conv1_1
I0720 19:35:40.613098  3051 net.cpp:434] conv1_1 <- data_data_0_split_0
I0720 19:35:40.613106  3051 net.cpp:408] conv1_1 -> conv1_1
I0720 19:35:40.618216  3051 net.cpp:150] Setting up conv1_1
I0720 19:35:40.618237  3051 net.cpp:157] Top shape: 2 64 1024 1024 (134217728)
I0720 19:35:40.618242  3051 net.cpp:165] Memory required for data: 738197536
I0720 19:35:40.618257  3051 layer_factory.hpp:77] Creating layer relu1_1
I0720 19:35:40.618266  3051 net.cpp:100] Creating Layer relu1_1
I0720 19:35:40.618271  3051 net.cpp:434] relu1_1 <- conv1_1
I0720 19:35:40.618278  3051 net.cpp:395] relu1_1 -> conv1_1 (in-place)
I0720 19:35:40.618520  3051 net.cpp:150] Setting up relu1_1
I0720 19:35:40.618533  3051 net.cpp:157] Top shape: 2 64 1024 1024 (134217728)
I0720 19:35:40.618537  3051 net.cpp:165] Memory required for data: 1275068448
I0720 19:35:40.618541  3051 layer_factory.hpp:77] Creating layer conv1_2
I0720 19:35:40.618557  3051 net.cpp:100] Creating Layer conv1_2
I0720 19:35:40.618561  3051 net.cpp:434] conv1_2 <- conv1_1
I0720 19:35:40.618569  3051 net.cpp:408] conv1_2 -> conv1_2
I0720 19:35:40.626232  3051 net.cpp:150] Setting up conv1_2
I0720 19:35:40.626260  3051 net.cpp:157] Top shape: 2 64 1024 1024 (134217728)
I0720 19:35:40.626265  3051 net.cpp:165] Memory required for data: 1811939360
I0720 19:35:40.626277  3051 layer_factory.hpp:77] Creating layer relu1_2
I0720 19:35:40.626288  3051 net.cpp:100] Creating Layer relu1_2
I0720 19:35:40.626293  3051 net.cpp:434] relu1_2 <- conv1_2
I0720 19:35:40.626302  3051 net.cpp:395] relu1_2 -> conv1_2 (in-place)
I0720 19:35:40.626574  3051 net.cpp:150] Setting up relu1_2
I0720 19:35:40.626588  3051 net.cpp:157] Top shape: 2 64 1024 1024 (134217728)
I0720 19:35:40.626592  3051 net.cpp:165] Memory required for data: 2348810272
I0720 19:35:40.626596  3051 layer_factory.hpp:77] Creating layer pool1
I0720 19:35:40.626605  3051 net.cpp:100] Creating Layer pool1
I0720 19:35:40.626610  3051 net.cpp:434] pool1 <- conv1_2
I0720 19:35:40.626617  3051 net.cpp:408] pool1 -> pool1
I0720 19:35:40.626693  3051 net.cpp:150] Setting up pool1
I0720 19:35:40.626701  3051 net.cpp:157] Top shape: 2 64 512 512 (33554432)
I0720 19:35:40.626704  3051 net.cpp:165] Memory required for data: 2483028000
I0720 19:35:40.626708  3051 layer_factory.hpp:77] Creating layer conv2_1
I0720 19:35:40.626721  3051 net.cpp:100] Creating Layer conv2_1
I0720 19:35:40.626725  3051 net.cpp:434] conv2_1 <- pool1
I0720 19:35:40.626732  3051 net.cpp:408] conv2_1 -> conv2_1
I0720 19:35:40.630101  3051 net.cpp:150] Setting up conv2_1
I0720 19:35:40.630120  3051 net.cpp:157] Top shape: 2 128 512 512 (67108864)
I0720 19:35:40.630125  3051 net.cpp:165] Memory required for data: 2751463456
I0720 19:35:40.630137  3051 layer_factory.hpp:77] Creating layer relu2_1
I0720 19:35:40.630147  3051 net.cpp:100] Creating Layer relu2_1
I0720 19:35:40.630152  3051 net.cpp:434] relu2_1 <- conv2_1
I0720 19:35:40.630159  3051 net.cpp:395] relu2_1 -> conv2_1 (in-place)
I0720 19:35:40.630394  3051 net.cpp:150] Setting up relu2_1
I0720 19:35:40.630409  3051 net.cpp:157] Top shape: 2 128 512 512 (67108864)
I0720 19:35:40.630412  3051 net.cpp:165] Memory required for data: 3019898912
I0720 19:35:40.630432  3051 layer_factory.hpp:77] Creating layer conv2_2
I0720 19:35:40.630446  3051 net.cpp:100] Creating Layer conv2_2
I0720 19:35:40.630450  3051 net.cpp:434] conv2_2 <- conv2_1
I0720 19:35:40.630458  3051 net.cpp:408] conv2_2 -> conv2_2
I0720 19:35:40.634299  3051 net.cpp:150] Setting up conv2_2
I0720 19:35:40.634320  3051 net.cpp:157] Top shape: 2 128 512 512 (67108864)
I0720 19:35:40.634323  3051 net.cpp:165] Memory required for data: 3288334368
I0720 19:35:40.634332  3051 layer_factory.hpp:77] Creating layer relu2_2
I0720 19:35:40.634341  3051 net.cpp:100] Creating Layer relu2_2
I0720 19:35:40.634346  3051 net.cpp:434] relu2_2 <- conv2_2
I0720 19:35:40.634352  3051 net.cpp:395] relu2_2 -> conv2_2 (in-place)
I0720 19:35:40.634593  3051 net.cpp:150] Setting up relu2_2
I0720 19:35:40.634608  3051 net.cpp:157] Top shape: 2 128 512 512 (67108864)
I0720 19:35:40.634611  3051 net.cpp:165] Memory required for data: 3556769824
I0720 19:35:40.634615  3051 layer_factory.hpp:77] Creating layer pool2
I0720 19:35:40.634624  3051 net.cpp:100] Creating Layer pool2
I0720 19:35:40.634629  3051 net.cpp:434] pool2 <- conv2_2
I0720 19:35:40.634636  3051 net.cpp:408] pool2 -> pool2
I0720 19:35:40.634702  3051 net.cpp:150] Setting up pool2
I0720 19:35:40.634713  3051 net.cpp:157] Top shape: 2 128 256 256 (16777216)
I0720 19:35:40.634716  3051 net.cpp:165] Memory required for data: 3623878688
I0720 19:35:40.634721  3051 layer_factory.hpp:77] Creating layer conv3_1
I0720 19:35:40.634732  3051 net.cpp:100] Creating Layer conv3_1
I0720 19:35:40.634737  3051 net.cpp:434] conv3_1 <- pool2
I0720 19:35:40.634744  3051 net.cpp:408] conv3_1 -> conv3_1
I0720 19:35:40.639215  3051 net.cpp:150] Setting up conv3_1
I0720 19:35:40.639235  3051 net.cpp:157] Top shape: 2 256 256 256 (33554432)
I0720 19:35:40.639240  3051 net.cpp:165] Memory required for data: 3758096416
I0720 19:35:40.639252  3051 layer_factory.hpp:77] Creating layer relu3_1
I0720 19:35:40.639261  3051 net.cpp:100] Creating Layer relu3_1
I0720 19:35:40.639266  3051 net.cpp:434] relu3_1 <- conv3_1
I0720 19:35:40.639273  3051 net.cpp:395] relu3_1 -> conv3_1 (in-place)
I0720 19:35:40.639747  3051 net.cpp:150] Setting up relu3_1
I0720 19:35:40.639765  3051 net.cpp:157] Top shape: 2 256 256 256 (33554432)
I0720 19:35:40.639770  3051 net.cpp:165] Memory required for data: 3892314144
I0720 19:35:40.639773  3051 layer_factory.hpp:77] Creating layer conv3_2
I0720 19:35:40.639786  3051 net.cpp:100] Creating Layer conv3_2
I0720 19:35:40.639791  3051 net.cpp:434] conv3_2 <- conv3_1
I0720 19:35:40.639801  3051 net.cpp:408] conv3_2 -> conv3_2
I0720 19:35:40.646240  3051 net.cpp:150] Setting up conv3_2
I0720 19:35:40.646262  3051 net.cpp:157] Top shape: 2 256 256 256 (33554432)
I0720 19:35:40.646267  3051 net.cpp:165] Memory required for data: 4026531872
I0720 19:35:40.646275  3051 layer_factory.hpp:77] Creating layer relu3_2
I0720 19:35:40.646282  3051 net.cpp:100] Creating Layer relu3_2
I0720 19:35:40.646287  3051 net.cpp:434] relu3_2 <- conv3_2
I0720 19:35:40.646296  3051 net.cpp:395] relu3_2 -> conv3_2 (in-place)
I0720 19:35:40.646543  3051 net.cpp:150] Setting up relu3_2
I0720 19:35:40.646559  3051 net.cpp:157] Top shape: 2 256 256 256 (33554432)
I0720 19:35:40.646564  3051 net.cpp:165] Memory required for data: 4160749600
I0720 19:35:40.646567  3051 layer_factory.hpp:77] Creating layer conv3_3
I0720 19:35:40.646585  3051 net.cpp:100] Creating Layer conv3_3
I0720 19:35:40.646592  3051 net.cpp:434] conv3_3 <- conv3_2
I0720 19:35:40.646600  3051 net.cpp:408] conv3_3 -> conv3_3
I0720 19:35:40.653064  3051 net.cpp:150] Setting up conv3_3
I0720 19:35:40.653084  3051 net.cpp:157] Top shape: 2 256 256 256 (33554432)
I0720 19:35:40.653087  3051 net.cpp:165] Memory required for data: 4294967328
I0720 19:35:40.653095  3051 layer_factory.hpp:77] Creating layer relu3_3
I0720 19:35:40.653103  3051 net.cpp:100] Creating Layer relu3_3
I0720 19:35:40.653107  3051 net.cpp:434] relu3_3 <- conv3_3
I0720 19:35:40.653116  3051 net.cpp:395] relu3_3 -> conv3_3 (in-place)
I0720 19:35:40.653383  3051 net.cpp:150] Setting up relu3_3
I0720 19:35:40.653398  3051 net.cpp:157] Top shape: 2 256 256 256 (33554432)
I0720 19:35:40.653403  3051 net.cpp:165] Memory required for data: 4429185056
I0720 19:35:40.653407  3051 layer_factory.hpp:77] Creating layer pool3
I0720 19:35:40.653417  3051 net.cpp:100] Creating Layer pool3
I0720 19:35:40.653421  3051 net.cpp:434] pool3 <- conv3_3
I0720 19:35:40.653431  3051 net.cpp:408] pool3 -> pool3
I0720 19:35:40.653501  3051 net.cpp:150] Setting up pool3
I0720 19:35:40.653512  3051 net.cpp:157] Top shape: 2 256 128 128 (8388608)
I0720 19:35:40.653515  3051 net.cpp:165] Memory required for data: 4462739488
I0720 19:35:40.653518  3051 layer_factory.hpp:77] Creating layer conv4_1
I0720 19:35:40.653532  3051 net.cpp:100] Creating Layer conv4_1
I0720 19:35:40.653537  3051 net.cpp:434] conv4_1 <- pool3
I0720 19:35:40.653545  3051 net.cpp:408] conv4_1 -> conv4_1
I0720 19:35:40.664708  3051 net.cpp:150] Setting up conv4_1
I0720 19:35:40.664727  3051 net.cpp:157] Top shape: 2 512 128 128 (16777216)
I0720 19:35:40.664732  3051 net.cpp:165] Memory required for data: 4529848352
I0720 19:35:40.664741  3051 layer_factory.hpp:77] Creating layer relu4_1
I0720 19:35:40.664750  3051 net.cpp:100] Creating Layer relu4_1
I0720 19:35:40.664755  3051 net.cpp:434] relu4_1 <- conv4_1
I0720 19:35:40.664762  3051 net.cpp:395] relu4_1 -> conv4_1 (in-place)
I0720 19:35:40.665014  3051 net.cpp:150] Setting up relu4_1
I0720 19:35:40.665027  3051 net.cpp:157] Top shape: 2 512 128 128 (16777216)
I0720 19:35:40.665030  3051 net.cpp:165] Memory required for data: 4596957216
I0720 19:35:40.665035  3051 layer_factory.hpp:77] Creating layer conv4_2
I0720 19:35:40.665047  3051 net.cpp:100] Creating Layer conv4_2
I0720 19:35:40.665052  3051 net.cpp:434] conv4_2 <- conv4_1
I0720 19:35:40.665060  3051 net.cpp:408] conv4_2 -> conv4_2
I0720 19:35:40.685295  3051 net.cpp:150] Setting up conv4_2
I0720 19:35:40.685314  3051 net.cpp:157] Top shape: 2 512 128 128 (16777216)
I0720 19:35:40.685319  3051 net.cpp:165] Memory required for data: 4664066080
I0720 19:35:40.685334  3051 layer_factory.hpp:77] Creating layer relu4_2
I0720 19:35:40.685343  3051 net.cpp:100] Creating Layer relu4_2
I0720 19:35:40.685348  3051 net.cpp:434] relu4_2 <- conv4_2
I0720 19:35:40.685353  3051 net.cpp:395] relu4_2 -> conv4_2 (in-place)
I0720 19:35:40.685602  3051 net.cpp:150] Setting up relu4_2
I0720 19:35:40.685616  3051 net.cpp:157] Top shape: 2 512 128 128 (16777216)
I0720 19:35:40.685619  3051 net.cpp:165] Memory required for data: 4731174944
I0720 19:35:40.685624  3051 layer_factory.hpp:77] Creating layer conv4_3
I0720 19:35:40.685638  3051 net.cpp:100] Creating Layer conv4_3
I0720 19:35:40.685642  3051 net.cpp:434] conv4_3 <- conv4_2
I0720 19:35:40.685649  3051 net.cpp:408] conv4_3 -> conv4_3
I0720 19:35:40.705574  3051 net.cpp:150] Setting up conv4_3
I0720 19:35:40.705597  3051 net.cpp:157] Top shape: 2 512 128 128 (16777216)
I0720 19:35:40.705601  3051 net.cpp:165] Memory required for data: 4798283808
I0720 19:35:40.705610  3051 layer_factory.hpp:77] Creating layer relu4_3
I0720 19:35:40.705616  3051 net.cpp:100] Creating Layer relu4_3
I0720 19:35:40.705622  3051 net.cpp:434] relu4_3 <- conv4_3
I0720 19:35:40.705628  3051 net.cpp:395] relu4_3 -> conv4_3 (in-place)
I0720 19:35:40.705879  3051 net.cpp:150] Setting up relu4_3
I0720 19:35:40.705893  3051 net.cpp:157] Top shape: 2 512 128 128 (16777216)
I0720 19:35:40.705896  3051 net.cpp:165] Memory required for data: 4865392672
I0720 19:35:40.705900  3051 layer_factory.hpp:77] Creating layer conv4_3_relu4_3_0_split
I0720 19:35:40.705910  3051 net.cpp:100] Creating Layer conv4_3_relu4_3_0_split
I0720 19:35:40.705915  3051 net.cpp:434] conv4_3_relu4_3_0_split <- conv4_3
I0720 19:35:40.705921  3051 net.cpp:408] conv4_3_relu4_3_0_split -> conv4_3_relu4_3_0_split_0
I0720 19:35:40.705931  3051 net.cpp:408] conv4_3_relu4_3_0_split -> conv4_3_relu4_3_0_split_1
I0720 19:35:40.705997  3051 net.cpp:150] Setting up conv4_3_relu4_3_0_split
I0720 19:35:40.706007  3051 net.cpp:157] Top shape: 2 512 128 128 (16777216)
I0720 19:35:40.706029  3051 net.cpp:157] Top shape: 2 512 128 128 (16777216)
I0720 19:35:40.706032  3051 net.cpp:165] Memory required for data: 4999610400
I0720 19:35:40.706037  3051 layer_factory.hpp:77] Creating layer pool4
I0720 19:35:40.706048  3051 net.cpp:100] Creating Layer pool4
I0720 19:35:40.706051  3051 net.cpp:434] pool4 <- conv4_3_relu4_3_0_split_0
I0720 19:35:40.706068  3051 net.cpp:408] pool4 -> pool4
I0720 19:35:40.706132  3051 net.cpp:150] Setting up pool4
I0720 19:35:40.706142  3051 net.cpp:157] Top shape: 2 512 64 64 (4194304)
I0720 19:35:40.706146  3051 net.cpp:165] Memory required for data: 5016387616
I0720 19:35:40.706149  3051 layer_factory.hpp:77] Creating layer conv5_1
I0720 19:35:40.706161  3051 net.cpp:100] Creating Layer conv5_1
I0720 19:35:40.706166  3051 net.cpp:434] conv5_1 <- pool4
I0720 19:35:40.706174  3051 net.cpp:408] conv5_1 -> conv5_1
I0720 19:35:40.726191  3051 net.cpp:150] Setting up conv5_1
I0720 19:35:40.726212  3051 net.cpp:157] Top shape: 2 512 64 64 (4194304)
I0720 19:35:40.726215  3051 net.cpp:165] Memory required for data: 5033164832
I0720 19:35:40.726224  3051 layer_factory.hpp:77] Creating layer relu5_1
I0720 19:35:40.726231  3051 net.cpp:100] Creating Layer relu5_1
I0720 19:35:40.726235  3051 net.cpp:434] relu5_1 <- conv5_1
I0720 19:35:40.726248  3051 net.cpp:395] relu5_1 -> conv5_1 (in-place)
I0720 19:35:40.726742  3051 net.cpp:150] Setting up relu5_1
I0720 19:35:40.726759  3051 net.cpp:157] Top shape: 2 512 64 64 (4194304)
I0720 19:35:40.726763  3051 net.cpp:165] Memory required for data: 5049942048
I0720 19:35:40.726768  3051 layer_factory.hpp:77] Creating layer conv5_2
I0720 19:35:40.726781  3051 net.cpp:100] Creating Layer conv5_2
I0720 19:35:40.726786  3051 net.cpp:434] conv5_2 <- conv5_1
I0720 19:35:40.726795  3051 net.cpp:408] conv5_2 -> conv5_2
I0720 19:35:40.746723  3051 net.cpp:150] Setting up conv5_2
I0720 19:35:40.746743  3051 net.cpp:157] Top shape: 2 512 64 64 (4194304)
I0720 19:35:40.746748  3051 net.cpp:165] Memory required for data: 5066719264
I0720 19:35:40.746757  3051 layer_factory.hpp:77] Creating layer relu5_2
I0720 19:35:40.746762  3051 net.cpp:100] Creating Layer relu5_2
I0720 19:35:40.746767  3051 net.cpp:434] relu5_2 <- conv5_2
I0720 19:35:40.746775  3051 net.cpp:395] relu5_2 -> conv5_2 (in-place)
I0720 19:35:40.747025  3051 net.cpp:150] Setting up relu5_2
I0720 19:35:40.747040  3051 net.cpp:157] Top shape: 2 512 64 64 (4194304)
I0720 19:35:40.747043  3051 net.cpp:165] Memory required for data: 5083496480
I0720 19:35:40.747047  3051 layer_factory.hpp:77] Creating layer conv5_3
I0720 19:35:40.747061  3051 net.cpp:100] Creating Layer conv5_3
I0720 19:35:40.747064  3051 net.cpp:434] conv5_3 <- conv5_2
I0720 19:35:40.747073  3051 net.cpp:408] conv5_3 -> conv5_3
I0720 19:35:40.767048  3051 net.cpp:150] Setting up conv5_3
I0720 19:35:40.767068  3051 net.cpp:157] Top shape: 2 512 64 64 (4194304)
I0720 19:35:40.767072  3051 net.cpp:165] Memory required for data: 5100273696
I0720 19:35:40.767081  3051 layer_factory.hpp:77] Creating layer relu5_3
I0720 19:35:40.767099  3051 net.cpp:100] Creating Layer relu5_3
I0720 19:35:40.767104  3051 net.cpp:434] relu5_3 <- conv5_3
I0720 19:35:40.767112  3051 net.cpp:395] relu5_3 -> conv5_3 (in-place)
I0720 19:35:40.767359  3051 net.cpp:150] Setting up relu5_3
I0720 19:35:40.767374  3051 net.cpp:157] Top shape: 2 512 64 64 (4194304)
I0720 19:35:40.767376  3051 net.cpp:165] Memory required for data: 5117050912
I0720 19:35:40.767381  3051 layer_factory.hpp:77] Creating layer pool5
I0720 19:35:40.767393  3051 net.cpp:100] Creating Layer pool5
I0720 19:35:40.767398  3051 net.cpp:434] pool5 <- conv5_3
I0720 19:35:40.767403  3051 net.cpp:408] pool5 -> pool5
I0720 19:35:40.767477  3051 net.cpp:150] Setting up pool5
I0720 19:35:40.767488  3051 net.cpp:157] Top shape: 2 512 64 64 (4194304)
I0720 19:35:40.767491  3051 net.cpp:165] Memory required for data: 5133828128
I0720 19:35:40.767494  3051 layer_factory.hpp:77] Creating layer fc6
I0720 19:35:40.767508  3051 net.cpp:100] Creating Layer fc6
I0720 19:35:40.767511  3051 net.cpp:434] fc6 <- pool5
I0720 19:35:40.767536  3051 net.cpp:408] fc6 -> fc6
I0720 19:35:40.804841  3051 net.cpp:150] Setting up fc6
I0720 19:35:40.804862  3051 net.cpp:157] Top shape: 2 1024 64 64 (8388608)
I0720 19:35:40.804867  3051 net.cpp:165] Memory required for data: 5167382560
I0720 19:35:40.804875  3051 layer_factory.hpp:77] Creating layer relu6
I0720 19:35:40.804883  3051 net.cpp:100] Creating Layer relu6
I0720 19:35:40.804888  3051 net.cpp:434] relu6 <- fc6
I0720 19:35:40.804895  3051 net.cpp:395] relu6 -> fc6 (in-place)
I0720 19:35:40.805169  3051 net.cpp:150] Setting up relu6
I0720 19:35:40.805183  3051 net.cpp:157] Top shape: 2 1024 64 64 (8388608)
I0720 19:35:40.805187  3051 net.cpp:165] Memory required for data: 5200936992
I0720 19:35:40.805191  3051 layer_factory.hpp:77] Creating layer fc7
I0720 19:35:40.805203  3051 net.cpp:100] Creating Layer fc7
I0720 19:35:40.805208  3051 net.cpp:434] fc7 <- fc6
I0720 19:35:40.805219  3051 net.cpp:408] fc7 -> fc7
I0720 19:35:40.815034  3051 net.cpp:150] Setting up fc7
I0720 19:35:40.815054  3051 net.cpp:157] Top shape: 2 1024 64 64 (8388608)
I0720 19:35:40.815058  3051 net.cpp:165] Memory required for data: 5234491424
I0720 19:35:40.815066  3051 layer_factory.hpp:77] Creating layer relu7
I0720 19:35:40.815078  3051 net.cpp:100] Creating Layer relu7
I0720 19:35:40.815083  3051 net.cpp:434] relu7 <- fc7
I0720 19:35:40.815089  3051 net.cpp:395] relu7 -> fc7 (in-place)
I0720 19:35:40.815333  3051 net.cpp:150] Setting up relu7
I0720 19:35:40.815346  3051 net.cpp:157] Top shape: 2 1024 64 64 (8388608)
I0720 19:35:40.815351  3051 net.cpp:165] Memory required for data: 5268045856
I0720 19:35:40.815354  3051 layer_factory.hpp:77] Creating layer fc7_relu7_0_split
I0720 19:35:40.815364  3051 net.cpp:100] Creating Layer fc7_relu7_0_split
I0720 19:35:40.815369  3051 net.cpp:434] fc7_relu7_0_split <- fc7
I0720 19:35:40.815376  3051 net.cpp:408] fc7_relu7_0_split -> fc7_relu7_0_split_0
I0720 19:35:40.815385  3051 net.cpp:408] fc7_relu7_0_split -> fc7_relu7_0_split_1
I0720 19:35:40.815402  3051 net.cpp:408] fc7_relu7_0_split -> fc7_relu7_0_split_2
I0720 19:35:40.815410  3051 net.cpp:408] fc7_relu7_0_split -> fc7_relu7_0_split_3
I0720 19:35:40.815521  3051 net.cpp:150] Setting up fc7_relu7_0_split
I0720 19:35:40.815531  3051 net.cpp:157] Top shape: 2 1024 64 64 (8388608)
I0720 19:35:40.815539  3051 net.cpp:157] Top shape: 2 1024 64 64 (8388608)
I0720 19:35:40.815543  3051 net.cpp:157] Top shape: 2 1024 64 64 (8388608)
I0720 19:35:40.815547  3051 net.cpp:157] Top shape: 2 1024 64 64 (8388608)
I0720 19:35:40.815551  3051 net.cpp:165] Memory required for data: 5402263584
I0720 19:35:40.815556  3051 layer_factory.hpp:77] Creating layer conv6_1
I0720 19:35:40.815568  3051 net.cpp:100] Creating Layer conv6_1
I0720 19:35:40.815574  3051 net.cpp:434] conv6_1 <- fc7_relu7_0_split_0
I0720 19:35:40.815582  3051 net.cpp:408] conv6_1 -> conv6_1
I0720 19:35:40.818912  3051 net.cpp:150] Setting up conv6_1
I0720 19:35:40.818930  3051 net.cpp:157] Top shape: 2 256 64 64 (2097152)
I0720 19:35:40.818934  3051 net.cpp:165] Memory required for data: 5410652192
I0720 19:35:40.818943  3051 layer_factory.hpp:77] Creating layer conv6_1_relu
I0720 19:35:40.818950  3051 net.cpp:100] Creating Layer conv6_1_relu
I0720 19:35:40.818955  3051 net.cpp:434] conv6_1_relu <- conv6_1
I0720 19:35:40.818964  3051 net.cpp:395] conv6_1_relu -> conv6_1 (in-place)
I0720 19:35:40.819437  3051 net.cpp:150] Setting up conv6_1_relu
I0720 19:35:40.819458  3051 net.cpp:157] Top shape: 2 256 64 64 (2097152)
I0720 19:35:40.819461  3051 net.cpp:165] Memory required for data: 5419040800
I0720 19:35:40.819465  3051 layer_factory.hpp:77] Creating layer conv6_2
I0720 19:35:40.819479  3051 net.cpp:100] Creating Layer conv6_2
I0720 19:35:40.819484  3051 net.cpp:434] conv6_2 <- conv6_1
I0720 19:35:40.819494  3051 net.cpp:408] conv6_2 -> conv6_2
I0720 19:35:40.830063  3051 net.cpp:150] Setting up conv6_2
I0720 19:35:40.830081  3051 net.cpp:157] Top shape: 2 512 32 32 (1048576)
I0720 19:35:40.830085  3051 net.cpp:165] Memory required for data: 5423235104
I0720 19:35:40.830127  3051 layer_factory.hpp:77] Creating layer conv6_2_relu
I0720 19:35:40.830134  3051 net.cpp:100] Creating Layer conv6_2_relu
I0720 19:35:40.830139  3051 net.cpp:434] conv6_2_relu <- conv6_2
I0720 19:35:40.830149  3051 net.cpp:395] conv6_2_relu -> conv6_2 (in-place)
I0720 19:35:40.830643  3051 net.cpp:150] Setting up conv6_2_relu
I0720 19:35:40.830660  3051 net.cpp:157] Top shape: 2 512 32 32 (1048576)
I0720 19:35:40.830664  3051 net.cpp:165] Memory required for data: 5427429408
I0720 19:35:40.830668  3051 layer_factory.hpp:77] Creating layer conv6_2_conv6_2_relu_0_split
I0720 19:35:40.830677  3051 net.cpp:100] Creating Layer conv6_2_conv6_2_relu_0_split
I0720 19:35:40.830683  3051 net.cpp:434] conv6_2_conv6_2_relu_0_split <- conv6_2
I0720 19:35:40.830690  3051 net.cpp:408] conv6_2_conv6_2_relu_0_split -> conv6_2_conv6_2_relu_0_split_0
I0720 19:35:40.830699  3051 net.cpp:408] conv6_2_conv6_2_relu_0_split -> conv6_2_conv6_2_relu_0_split_1
I0720 19:35:40.830708  3051 net.cpp:408] conv6_2_conv6_2_relu_0_split -> conv6_2_conv6_2_relu_0_split_2
I0720 19:35:40.830714  3051 net.cpp:408] conv6_2_conv6_2_relu_0_split -> conv6_2_conv6_2_relu_0_split_3
I0720 19:35:40.830826  3051 net.cpp:150] Setting up conv6_2_conv6_2_relu_0_split
I0720 19:35:40.830837  3051 net.cpp:157] Top shape: 2 512 32 32 (1048576)
I0720 19:35:40.830840  3051 net.cpp:157] Top shape: 2 512 32 32 (1048576)
I0720 19:35:40.830845  3051 net.cpp:157] Top shape: 2 512 32 32 (1048576)
I0720 19:35:40.830849  3051 net.cpp:157] Top shape: 2 512 32 32 (1048576)
I0720 19:35:40.830852  3051 net.cpp:165] Memory required for data: 5444206624
I0720 19:35:40.830857  3051 layer_factory.hpp:77] Creating layer conv7_1
I0720 19:35:40.830871  3051 net.cpp:100] Creating Layer conv7_1
I0720 19:35:40.830878  3051 net.cpp:434] conv7_1 <- conv6_2_conv6_2_relu_0_split_0
I0720 19:35:40.830885  3051 net.cpp:408] conv7_1 -> conv7_1
I0720 19:35:40.832680  3051 net.cpp:150] Setting up conv7_1
I0720 19:35:40.832698  3051 net.cpp:157] Top shape: 2 128 32 32 (262144)
I0720 19:35:40.832702  3051 net.cpp:165] Memory required for data: 5445255200
I0720 19:35:40.832710  3051 layer_factory.hpp:77] Creating layer conv7_1_relu
I0720 19:35:40.832717  3051 net.cpp:100] Creating Layer conv7_1_relu
I0720 19:35:40.832721  3051 net.cpp:434] conv7_1_relu <- conv7_1
I0720 19:35:40.832731  3051 net.cpp:395] conv7_1_relu -> conv7_1 (in-place)
I0720 19:35:40.832984  3051 net.cpp:150] Setting up conv7_1_relu
I0720 19:35:40.832998  3051 net.cpp:157] Top shape: 2 128 32 32 (262144)
I0720 19:35:40.833000  3051 net.cpp:165] Memory required for data: 5446303776
I0720 19:35:40.833004  3051 layer_factory.hpp:77] Creating layer conv7_2
I0720 19:35:40.833017  3051 net.cpp:100] Creating Layer conv7_2
I0720 19:35:40.833021  3051 net.cpp:434] conv7_2 <- conv7_1
I0720 19:35:40.833031  3051 net.cpp:408] conv7_2 -> conv7_2
I0720 19:35:40.837400  3051 net.cpp:150] Setting up conv7_2
I0720 19:35:40.837419  3051 net.cpp:157] Top shape: 2 256 16 16 (131072)
I0720 19:35:40.837424  3051 net.cpp:165] Memory required for data: 5446828064
I0720 19:35:40.837431  3051 layer_factory.hpp:77] Creating layer conv7_2_relu
I0720 19:35:40.837441  3051 net.cpp:100] Creating Layer conv7_2_relu
I0720 19:35:40.837446  3051 net.cpp:434] conv7_2_relu <- conv7_2
I0720 19:35:40.837452  3051 net.cpp:395] conv7_2_relu -> conv7_2 (in-place)
I0720 19:35:40.837703  3051 net.cpp:150] Setting up conv7_2_relu
I0720 19:35:40.837718  3051 net.cpp:157] Top shape: 2 256 16 16 (131072)
I0720 19:35:40.837721  3051 net.cpp:165] Memory required for data: 5447352352
I0720 19:35:40.837725  3051 layer_factory.hpp:77] Creating layer conv7_2_conv7_2_relu_0_split
I0720 19:35:40.837736  3051 net.cpp:100] Creating Layer conv7_2_conv7_2_relu_0_split
I0720 19:35:40.837741  3051 net.cpp:434] conv7_2_conv7_2_relu_0_split <- conv7_2
I0720 19:35:40.837747  3051 net.cpp:408] conv7_2_conv7_2_relu_0_split -> conv7_2_conv7_2_relu_0_split_0
I0720 19:35:40.837759  3051 net.cpp:408] conv7_2_conv7_2_relu_0_split -> conv7_2_conv7_2_relu_0_split_1
I0720 19:35:40.837781  3051 net.cpp:408] conv7_2_conv7_2_relu_0_split -> conv7_2_conv7_2_relu_0_split_2
I0720 19:35:40.837790  3051 net.cpp:408] conv7_2_conv7_2_relu_0_split -> conv7_2_conv7_2_relu_0_split_3
I0720 19:35:40.837895  3051 net.cpp:150] Setting up conv7_2_conv7_2_relu_0_split
I0720 19:35:40.837905  3051 net.cpp:157] Top shape: 2 256 16 16 (131072)
I0720 19:35:40.837910  3051 net.cpp:157] Top shape: 2 256 16 16 (131072)
I0720 19:35:40.837914  3051 net.cpp:157] Top shape: 2 256 16 16 (131072)
I0720 19:35:40.837921  3051 net.cpp:157] Top shape: 2 256 16 16 (131072)
I0720 19:35:40.837924  3051 net.cpp:165] Memory required for data: 5449449504
I0720 19:35:40.837929  3051 layer_factory.hpp:77] Creating layer conv8_1
I0720 19:35:40.837942  3051 net.cpp:100] Creating Layer conv8_1
I0720 19:35:40.837950  3051 net.cpp:434] conv8_1 <- conv7_2_conv7_2_relu_0_split_0
I0720 19:35:40.837958  3051 net.cpp:408] conv8_1 -> conv8_1
I0720 19:35:40.839566  3051 net.cpp:150] Setting up conv8_1
I0720 19:35:40.839587  3051 net.cpp:157] Top shape: 2 128 16 16 (65536)
I0720 19:35:40.839592  3051 net.cpp:165] Memory required for data: 5449711648
I0720 19:35:40.839601  3051 layer_factory.hpp:77] Creating layer conv8_1_relu
I0720 19:35:40.839607  3051 net.cpp:100] Creating Layer conv8_1_relu
I0720 19:35:40.839612  3051 net.cpp:434] conv8_1_relu <- conv8_1
I0720 19:35:40.839618  3051 net.cpp:395] conv8_1_relu -> conv8_1 (in-place)
I0720 19:35:40.839860  3051 net.cpp:150] Setting up conv8_1_relu
I0720 19:35:40.839874  3051 net.cpp:157] Top shape: 2 128 16 16 (65536)
I0720 19:35:40.839877  3051 net.cpp:165] Memory required for data: 5449973792
I0720 19:35:40.839881  3051 layer_factory.hpp:77] Creating layer conv8_2
I0720 19:35:40.839893  3051 net.cpp:100] Creating Layer conv8_2
I0720 19:35:40.839898  3051 net.cpp:434] conv8_2 <- conv8_1
I0720 19:35:40.839907  3051 net.cpp:408] conv8_2 -> conv8_2
I0720 19:35:40.844233  3051 net.cpp:150] Setting up conv8_2
I0720 19:35:40.844252  3051 net.cpp:157] Top shape: 2 256 14 14 (100352)
I0720 19:35:40.844256  3051 net.cpp:165] Memory required for data: 5450375200
I0720 19:35:40.844264  3051 layer_factory.hpp:77] Creating layer conv8_2_relu
I0720 19:35:40.844275  3051 net.cpp:100] Creating Layer conv8_2_relu
I0720 19:35:40.844280  3051 net.cpp:434] conv8_2_relu <- conv8_2
I0720 19:35:40.844286  3051 net.cpp:395] conv8_2_relu -> conv8_2 (in-place)
I0720 19:35:40.844535  3051 net.cpp:150] Setting up conv8_2_relu
I0720 19:35:40.844548  3051 net.cpp:157] Top shape: 2 256 14 14 (100352)
I0720 19:35:40.844552  3051 net.cpp:165] Memory required for data: 5450776608
I0720 19:35:40.844557  3051 layer_factory.hpp:77] Creating layer conv8_2_conv8_2_relu_0_split
I0720 19:35:40.844566  3051 net.cpp:100] Creating Layer conv8_2_conv8_2_relu_0_split
I0720 19:35:40.844570  3051 net.cpp:434] conv8_2_conv8_2_relu_0_split <- conv8_2
I0720 19:35:40.844576  3051 net.cpp:408] conv8_2_conv8_2_relu_0_split -> conv8_2_conv8_2_relu_0_split_0
I0720 19:35:40.844588  3051 net.cpp:408] conv8_2_conv8_2_relu_0_split -> conv8_2_conv8_2_relu_0_split_1
I0720 19:35:40.844594  3051 net.cpp:408] conv8_2_conv8_2_relu_0_split -> conv8_2_conv8_2_relu_0_split_2
I0720 19:35:40.844600  3051 net.cpp:408] conv8_2_conv8_2_relu_0_split -> conv8_2_conv8_2_relu_0_split_3
I0720 19:35:40.844722  3051 net.cpp:150] Setting up conv8_2_conv8_2_relu_0_split
I0720 19:35:40.844730  3051 net.cpp:157] Top shape: 2 256 14 14 (100352)
I0720 19:35:40.844735  3051 net.cpp:157] Top shape: 2 256 14 14 (100352)
I0720 19:35:40.844739  3051 net.cpp:157] Top shape: 2 256 14 14 (100352)
I0720 19:35:40.844743  3051 net.cpp:157] Top shape: 2 256 14 14 (100352)
I0720 19:35:40.844746  3051 net.cpp:165] Memory required for data: 5452382240
I0720 19:35:40.844750  3051 layer_factory.hpp:77] Creating layer conv9_1
I0720 19:35:40.844766  3051 net.cpp:100] Creating Layer conv9_1
I0720 19:35:40.844772  3051 net.cpp:434] conv9_1 <- conv8_2_conv8_2_relu_0_split_0
I0720 19:35:40.844780  3051 net.cpp:408] conv9_1 -> conv9_1
I0720 19:35:40.846387  3051 net.cpp:150] Setting up conv9_1
I0720 19:35:40.846418  3051 net.cpp:157] Top shape: 2 128 14 14 (50176)
I0720 19:35:40.846423  3051 net.cpp:165] Memory required for data: 5452582944
I0720 19:35:40.846431  3051 layer_factory.hpp:77] Creating layer conv9_1_relu
I0720 19:35:40.846438  3051 net.cpp:100] Creating Layer conv9_1_relu
I0720 19:35:40.846443  3051 net.cpp:434] conv9_1_relu <- conv9_1
I0720 19:35:40.846451  3051 net.cpp:395] conv9_1_relu -> conv9_1 (in-place)
I0720 19:35:40.846937  3051 net.cpp:150] Setting up conv9_1_relu
I0720 19:35:40.846954  3051 net.cpp:157] Top shape: 2 128 14 14 (50176)
I0720 19:35:40.846958  3051 net.cpp:165] Memory required for data: 5452783648
I0720 19:35:40.846962  3051 layer_factory.hpp:77] Creating layer conv9_2
I0720 19:35:40.846977  3051 net.cpp:100] Creating Layer conv9_2
I0720 19:35:40.846983  3051 net.cpp:434] conv9_2 <- conv9_1
I0720 19:35:40.846990  3051 net.cpp:408] conv9_2 -> conv9_2
I0720 19:35:40.851104  3051 net.cpp:150] Setting up conv9_2
I0720 19:35:40.851124  3051 net.cpp:157] Top shape: 2 256 12 12 (73728)
I0720 19:35:40.851127  3051 net.cpp:165] Memory required for data: 5453078560
I0720 19:35:40.851135  3051 layer_factory.hpp:77] Creating layer conv9_2_relu
I0720 19:35:40.851142  3051 net.cpp:100] Creating Layer conv9_2_relu
I0720 19:35:40.851147  3051 net.cpp:434] conv9_2_relu <- conv9_2
I0720 19:35:40.851157  3051 net.cpp:395] conv9_2_relu -> conv9_2 (in-place)
I0720 19:35:40.851647  3051 net.cpp:150] Setting up conv9_2_relu
I0720 19:35:40.851665  3051 net.cpp:157] Top shape: 2 256 12 12 (73728)
I0720 19:35:40.851668  3051 net.cpp:165] Memory required for data: 5453373472
I0720 19:35:40.851672  3051 layer_factory.hpp:77] Creating layer conv9_2_conv9_2_relu_0_split
I0720 19:35:40.851680  3051 net.cpp:100] Creating Layer conv9_2_conv9_2_relu_0_split
I0720 19:35:40.851686  3051 net.cpp:434] conv9_2_conv9_2_relu_0_split <- conv9_2
I0720 19:35:40.851694  3051 net.cpp:408] conv9_2_conv9_2_relu_0_split -> conv9_2_conv9_2_relu_0_split_0
I0720 19:35:40.851703  3051 net.cpp:408] conv9_2_conv9_2_relu_0_split -> conv9_2_conv9_2_relu_0_split_1
I0720 19:35:40.851711  3051 net.cpp:408] conv9_2_conv9_2_relu_0_split -> conv9_2_conv9_2_relu_0_split_2
I0720 19:35:40.851804  3051 net.cpp:150] Setting up conv9_2_conv9_2_relu_0_split
I0720 19:35:40.851815  3051 net.cpp:157] Top shape: 2 256 12 12 (73728)
I0720 19:35:40.851819  3051 net.cpp:157] Top shape: 2 256 12 12 (73728)
I0720 19:35:40.851824  3051 net.cpp:157] Top shape: 2 256 12 12 (73728)
I0720 19:35:40.851827  3051 net.cpp:165] Memory required for data: 5454258208
I0720 19:35:40.851830  3051 layer_factory.hpp:77] Creating layer conv4_3_norm
I0720 19:35:40.851843  3051 net.cpp:100] Creating Layer conv4_3_norm
I0720 19:35:40.851848  3051 net.cpp:434] conv4_3_norm <- conv4_3_relu4_3_0_split_1
I0720 19:35:40.851855  3051 net.cpp:408] conv4_3_norm -> conv4_3_norm
I0720 19:35:40.852108  3051 net.cpp:150] Setting up conv4_3_norm
I0720 19:35:40.852119  3051 net.cpp:157] Top shape: 2 512 128 128 (16777216)
I0720 19:35:40.852123  3051 net.cpp:165] Memory required for data: 5521367072
I0720 19:35:40.852128  3051 layer_factory.hpp:77] Creating layer conv4_3_norm_conv4_3_norm_0_split
I0720 19:35:40.852135  3051 net.cpp:100] Creating Layer conv4_3_norm_conv4_3_norm_0_split
I0720 19:35:40.852139  3051 net.cpp:434] conv4_3_norm_conv4_3_norm_0_split <- conv4_3_norm
I0720 19:35:40.852144  3051 net.cpp:408] conv4_3_norm_conv4_3_norm_0_split -> conv4_3_norm_conv4_3_norm_0_split_0
I0720 19:35:40.852152  3051 net.cpp:408] conv4_3_norm_conv4_3_norm_0_split -> conv4_3_norm_conv4_3_norm_0_split_1
I0720 19:35:40.852160  3051 net.cpp:408] conv4_3_norm_conv4_3_norm_0_split -> conv4_3_norm_conv4_3_norm_0_split_2
I0720 19:35:40.852237  3051 net.cpp:150] Setting up conv4_3_norm_conv4_3_norm_0_split
I0720 19:35:40.852247  3051 net.cpp:157] Top shape: 2 512 128 128 (16777216)
I0720 19:35:40.852252  3051 net.cpp:157] Top shape: 2 512 128 128 (16777216)
I0720 19:35:40.852257  3051 net.cpp:157] Top shape: 2 512 128 128 (16777216)
I0720 19:35:40.852259  3051 net.cpp:165] Memory required for data: 5722693664
I0720 19:35:40.852280  3051 layer_factory.hpp:77] Creating layer conv4_3_norm_mbox_loc_bdc2018
I0720 19:35:40.852293  3051 net.cpp:100] Creating Layer conv4_3_norm_mbox_loc_bdc2018
I0720 19:35:40.852299  3051 net.cpp:434] conv4_3_norm_mbox_loc_bdc2018 <- conv4_3_norm_conv4_3_norm_0_split_0
I0720 19:35:40.852309  3051 net.cpp:408] conv4_3_norm_mbox_loc_bdc2018 -> conv4_3_norm_mbox_loc_bdc2018
I0720 19:35:40.854421  3051 net.cpp:150] Setting up conv4_3_norm_mbox_loc_bdc2018
I0720 19:35:40.854442  3051 net.cpp:157] Top shape: 2 16 128 128 (524288)
I0720 19:35:40.854446  3051 net.cpp:165] Memory required for data: 5724790816
I0720 19:35:40.854455  3051 layer_factory.hpp:77] Creating layer conv4_3_norm_mbox_loc_bdc2018_perm_bdc2018
I0720 19:35:40.854465  3051 net.cpp:100] Creating Layer conv4_3_norm_mbox_loc_bdc2018_perm_bdc2018
I0720 19:35:40.854470  3051 net.cpp:434] conv4_3_norm_mbox_loc_bdc2018_perm_bdc2018 <- conv4_3_norm_mbox_loc_bdc2018
I0720 19:35:40.854478  3051 net.cpp:408] conv4_3_norm_mbox_loc_bdc2018_perm_bdc2018 -> conv4_3_norm_mbox_loc_bdc2018_perm_bdc2018
I0720 19:35:40.854840  3051 net.cpp:150] Setting up conv4_3_norm_mbox_loc_bdc2018_perm_bdc2018
I0720 19:35:40.854852  3051 net.cpp:157] Top shape: 2 128 128 16 (524288)
I0720 19:35:40.854856  3051 net.cpp:165] Memory required for data: 5726887968
I0720 19:35:40.854861  3051 layer_factory.hpp:77] Creating layer conv4_3_norm_mbox_loc_bdc2018_flat_bdc2018
I0720 19:35:40.854871  3051 net.cpp:100] Creating Layer conv4_3_norm_mbox_loc_bdc2018_flat_bdc2018
I0720 19:35:40.854876  3051 net.cpp:434] conv4_3_norm_mbox_loc_bdc2018_flat_bdc2018 <- conv4_3_norm_mbox_loc_bdc2018_perm_bdc2018
I0720 19:35:40.854884  3051 net.cpp:408] conv4_3_norm_mbox_loc_bdc2018_flat_bdc2018 -> conv4_3_norm_mbox_loc_bdc2018_flat_bdc2018
I0720 19:35:40.855026  3051 net.cpp:150] Setting up conv4_3_norm_mbox_loc_bdc2018_flat_bdc2018
I0720 19:35:40.855038  3051 net.cpp:157] Top shape: 2 262144 (524288)
I0720 19:35:40.855041  3051 net.cpp:165] Memory required for data: 5728985120
I0720 19:35:40.855046  3051 layer_factory.hpp:77] Creating layer conv4_3_norm_mbox_conf_bdc2018_new
I0720 19:35:40.855074  3051 net.cpp:100] Creating Layer conv4_3_norm_mbox_conf_bdc2018_new
I0720 19:35:40.855082  3051 net.cpp:434] conv4_3_norm_mbox_conf_bdc2018_new <- conv4_3_norm_conv4_3_norm_0_split_1
I0720 19:35:40.855088  3051 net.cpp:408] conv4_3_norm_mbox_conf_bdc2018_new -> conv4_3_norm_mbox_conf_bdc2018_new
I0720 19:35:40.857784  3051 net.cpp:150] Setting up conv4_3_norm_mbox_conf_bdc2018_new
I0720 19:35:40.857805  3051 net.cpp:157] Top shape: 2 36 128 128 (1179648)
I0720 19:35:40.857808  3051 net.cpp:165] Memory required for data: 5733703712
I0720 19:35:40.857817  3051 layer_factory.hpp:77] Creating layer conv4_3_norm_mbox_conf_bdc2018_new_perm_bdc2018_new
I0720 19:35:40.857825  3051 net.cpp:100] Creating Layer conv4_3_norm_mbox_conf_bdc2018_new_perm_bdc2018_new
I0720 19:35:40.857831  3051 net.cpp:434] conv4_3_norm_mbox_conf_bdc2018_new_perm_bdc2018_new <- conv4_3_norm_mbox_conf_bdc2018_new
I0720 19:35:40.857841  3051 net.cpp:408] conv4_3_norm_mbox_conf_bdc2018_new_perm_bdc2018_new -> conv4_3_norm_mbox_conf_bdc2018_new_perm_bdc2018_new
I0720 19:35:40.858016  3051 net.cpp:150] Setting up conv4_3_norm_mbox_conf_bdc2018_new_perm_bdc2018_new
I0720 19:35:40.858026  3051 net.cpp:157] Top shape: 2 128 128 36 (1179648)
I0720 19:35:40.858031  3051 net.cpp:165] Memory required for data: 5738422304
I0720 19:35:40.858034  3051 layer_factory.hpp:77] Creating layer conv4_3_norm_mbox_conf_bdc2018_new_flat_bdc2018_new
I0720 19:35:40.858042  3051 net.cpp:100] Creating Layer conv4_3_norm_mbox_conf_bdc2018_new_flat_bdc2018_new
I0720 19:35:40.858045  3051 net.cpp:434] conv4_3_norm_mbox_conf_bdc2018_new_flat_bdc2018_new <- conv4_3_norm_mbox_conf_bdc2018_new_perm_bdc2018_new
I0720 19:35:40.858063  3051 net.cpp:408] conv4_3_norm_mbox_conf_bdc2018_new_flat_bdc2018_new -> conv4_3_norm_mbox_conf_bdc2018_new_flat_bdc2018_new
I0720 19:35:40.858111  3051 net.cpp:150] Setting up conv4_3_norm_mbox_conf_bdc2018_new_flat_bdc2018_new
I0720 19:35:40.858134  3051 net.cpp:157] Top shape: 2 589824 (1179648)
I0720 19:35:40.858139  3051 net.cpp:165] Memory required for data: 5743140896
I0720 19:35:40.858142  3051 layer_factory.hpp:77] Creating layer conv4_3_norm_mbox_priorbox
I0720 19:35:40.858150  3051 net.cpp:100] Creating Layer conv4_3_norm_mbox_priorbox
I0720 19:35:40.858155  3051 net.cpp:434] conv4_3_norm_mbox_priorbox <- conv4_3_norm_conv4_3_norm_0_split_2
I0720 19:35:40.858160  3051 net.cpp:434] conv4_3_norm_mbox_priorbox <- data_data_0_split_1
I0720 19:35:40.858170  3051 net.cpp:408] conv4_3_norm_mbox_priorbox -> conv4_3_norm_mbox_priorbox
I0720 19:35:40.858219  3051 net.cpp:150] Setting up conv4_3_norm_mbox_priorbox
I0720 19:35:40.858228  3051 net.cpp:157] Top shape: 1 2 262144 (524288)
I0720 19:35:40.858232  3051 net.cpp:165] Memory required for data: 5745238048
I0720 19:35:40.858235  3051 layer_factory.hpp:77] Creating layer fc7_mbox_loc_bdc2018
I0720 19:35:40.858249  3051 net.cpp:100] Creating Layer fc7_mbox_loc_bdc2018
I0720 19:35:40.858263  3051 net.cpp:434] fc7_mbox_loc_bdc2018 <- fc7_relu7_0_split_1
I0720 19:35:40.858270  3051 net.cpp:408] fc7_mbox_loc_bdc2018 -> fc7_mbox_loc_bdc2018
I0720 19:35:40.860998  3051 net.cpp:150] Setting up fc7_mbox_loc_bdc2018
I0720 19:35:40.861018  3051 net.cpp:157] Top shape: 2 24 64 64 (196608)
I0720 19:35:40.861023  3051 net.cpp:165] Memory required for data: 5746024480
I0720 19:35:40.861032  3051 layer_factory.hpp:77] Creating layer fc7_mbox_loc_bdc2018_perm_bdc2018
I0720 19:35:40.861039  3051 net.cpp:100] Creating Layer fc7_mbox_loc_bdc2018_perm_bdc2018
I0720 19:35:40.861044  3051 net.cpp:434] fc7_mbox_loc_bdc2018_perm_bdc2018 <- fc7_mbox_loc_bdc2018
I0720 19:35:40.861054  3051 net.cpp:408] fc7_mbox_loc_bdc2018_perm_bdc2018 -> fc7_mbox_loc_bdc2018_perm_bdc2018
I0720 19:35:40.861227  3051 net.cpp:150] Setting up fc7_mbox_loc_bdc2018_perm_bdc2018
I0720 19:35:40.861239  3051 net.cpp:157] Top shape: 2 64 64 24 (196608)
I0720 19:35:40.861243  3051 net.cpp:165] Memory required for data: 5746810912
I0720 19:35:40.861248  3051 layer_factory.hpp:77] Creating layer fc7_mbox_loc_bdc2018_flat_bdc2018
I0720 19:35:40.861254  3051 net.cpp:100] Creating Layer fc7_mbox_loc_bdc2018_flat_bdc2018
I0720 19:35:40.861258  3051 net.cpp:434] fc7_mbox_loc_bdc2018_flat_bdc2018 <- fc7_mbox_loc_bdc2018_perm_bdc2018
I0720 19:35:40.861266  3051 net.cpp:408] fc7_mbox_loc_bdc2018_flat_bdc2018 -> fc7_mbox_loc_bdc2018_flat_bdc2018
I0720 19:35:40.861304  3051 net.cpp:150] Setting up fc7_mbox_loc_bdc2018_flat_bdc2018
I0720 19:35:40.861313  3051 net.cpp:157] Top shape: 2 98304 (196608)
I0720 19:35:40.861316  3051 net.cpp:165] Memory required for data: 5747597344
I0720 19:35:40.861320  3051 layer_factory.hpp:77] Creating layer fc7_mbox_conf_bdc2018_new
I0720 19:35:40.861335  3051 net.cpp:100] Creating Layer fc7_mbox_conf_bdc2018_new
I0720 19:35:40.861340  3051 net.cpp:434] fc7_mbox_conf_bdc2018_new <- fc7_relu7_0_split_2
I0720 19:35:40.861348  3051 net.cpp:408] fc7_mbox_conf_bdc2018_new -> fc7_mbox_conf_bdc2018_new
I0720 19:35:40.867157  3051 net.cpp:150] Setting up fc7_mbox_conf_bdc2018_new
I0720 19:35:40.867177  3051 net.cpp:157] Top shape: 2 54 64 64 (442368)
I0720 19:35:40.867182  3051 net.cpp:165] Memory required for data: 5749366816
I0720 19:35:40.867189  3051 layer_factory.hpp:77] Creating layer fc7_mbox_conf_bdc2018_new_perm_bdc2018_new
I0720 19:35:40.867200  3051 net.cpp:100] Creating Layer fc7_mbox_conf_bdc2018_new_perm_bdc2018_new
I0720 19:35:40.867205  3051 net.cpp:434] fc7_mbox_conf_bdc2018_new_perm_bdc2018_new <- fc7_mbox_conf_bdc2018_new
I0720 19:35:40.867213  3051 net.cpp:408] fc7_mbox_conf_bdc2018_new_perm_bdc2018_new -> fc7_mbox_conf_bdc2018_new_perm_bdc2018_new
I0720 19:35:40.867388  3051 net.cpp:150] Setting up fc7_mbox_conf_bdc2018_new_perm_bdc2018_new
I0720 19:35:40.867398  3051 net.cpp:157] Top shape: 2 64 64 54 (442368)
I0720 19:35:40.867401  3051 net.cpp:165] Memory required for data: 5751136288
I0720 19:35:40.867405  3051 layer_factory.hpp:77] Creating layer fc7_mbox_conf_bdc2018_new_flat_bdc2018_new
I0720 19:35:40.867413  3051 net.cpp:100] Creating Layer fc7_mbox_conf_bdc2018_new_flat_bdc2018_new
I0720 19:35:40.867431  3051 net.cpp:434] fc7_mbox_conf_bdc2018_new_flat_bdc2018_new <- fc7_mbox_conf_bdc2018_new_perm_bdc2018_new
I0720 19:35:40.867440  3051 net.cpp:408] fc7_mbox_conf_bdc2018_new_flat_bdc2018_new -> fc7_mbox_conf_bdc2018_new_flat_bdc2018_new
I0720 19:35:40.867487  3051 net.cpp:150] Setting up fc7_mbox_conf_bdc2018_new_flat_bdc2018_new
I0720 19:35:40.867496  3051 net.cpp:157] Top shape: 2 221184 (442368)
I0720 19:35:40.867501  3051 net.cpp:165] Memory required for data: 5752905760
I0720 19:35:40.867503  3051 layer_factory.hpp:77] Creating layer fc7_mbox_priorbox
I0720 19:35:40.867514  3051 net.cpp:100] Creating Layer fc7_mbox_priorbox
I0720 19:35:40.867518  3051 net.cpp:434] fc7_mbox_priorbox <- fc7_relu7_0_split_3
I0720 19:35:40.867523  3051 net.cpp:434] fc7_mbox_priorbox <- data_data_0_split_2
I0720 19:35:40.867529  3051 net.cpp:408] fc7_mbox_priorbox -> fc7_mbox_priorbox
I0720 19:35:40.867574  3051 net.cpp:150] Setting up fc7_mbox_priorbox
I0720 19:35:40.867583  3051 net.cpp:157] Top shape: 1 2 98304 (196608)
I0720 19:35:40.867588  3051 net.cpp:165] Memory required for data: 5753692192
I0720 19:35:40.867590  3051 layer_factory.hpp:77] Creating layer conv6_2_mbox_loc_bdc2018
I0720 19:35:40.867604  3051 net.cpp:100] Creating Layer conv6_2_mbox_loc_bdc2018
I0720 19:35:40.867609  3051 net.cpp:434] conv6_2_mbox_loc_bdc2018 <- conv6_2_conv6_2_relu_0_split_1
I0720 19:35:40.867616  3051 net.cpp:408] conv6_2_mbox_loc_bdc2018 -> conv6_2_mbox_loc_bdc2018
I0720 19:35:40.869920  3051 net.cpp:150] Setting up conv6_2_mbox_loc_bdc2018
I0720 19:35:40.869940  3051 net.cpp:157] Top shape: 2 24 32 32 (49152)
I0720 19:35:40.869943  3051 net.cpp:165] Memory required for data: 5753888800
I0720 19:35:40.869952  3051 layer_factory.hpp:77] Creating layer conv6_2_mbox_loc_bdc2018_perm_bdc2018
I0720 19:35:40.869959  3051 net.cpp:100] Creating Layer conv6_2_mbox_loc_bdc2018_perm_bdc2018
I0720 19:35:40.869966  3051 net.cpp:434] conv6_2_mbox_loc_bdc2018_perm_bdc2018 <- conv6_2_mbox_loc_bdc2018
I0720 19:35:40.869973  3051 net.cpp:408] conv6_2_mbox_loc_bdc2018_perm_bdc2018 -> conv6_2_mbox_loc_bdc2018_perm_bdc2018
I0720 19:35:40.870165  3051 net.cpp:150] Setting up conv6_2_mbox_loc_bdc2018_perm_bdc2018
I0720 19:35:40.870178  3051 net.cpp:157] Top shape: 2 32 32 24 (49152)
I0720 19:35:40.870182  3051 net.cpp:165] Memory required for data: 5754085408
I0720 19:35:40.870187  3051 layer_factory.hpp:77] Creating layer conv6_2_mbox_loc_bdc2018_flat_bdc2018
I0720 19:35:40.870195  3051 net.cpp:100] Creating Layer conv6_2_mbox_loc_bdc2018_flat_bdc2018
I0720 19:35:40.870199  3051 net.cpp:434] conv6_2_mbox_loc_bdc2018_flat_bdc2018 <- conv6_2_mbox_loc_bdc2018_perm_bdc2018
I0720 19:35:40.870208  3051 net.cpp:408] conv6_2_mbox_loc_bdc2018_flat_bdc2018 -> conv6_2_mbox_loc_bdc2018_flat_bdc2018
I0720 19:35:40.870247  3051 net.cpp:150] Setting up conv6_2_mbox_loc_bdc2018_flat_bdc2018
I0720 19:35:40.870255  3051 net.cpp:157] Top shape: 2 24576 (49152)
I0720 19:35:40.870260  3051 net.cpp:165] Memory required for data: 5754282016
I0720 19:35:40.870262  3051 layer_factory.hpp:77] Creating layer conv6_2_mbox_conf_bdc2018_new
I0720 19:35:40.870277  3051 net.cpp:100] Creating Layer conv6_2_mbox_conf_bdc2018_new
I0720 19:35:40.870283  3051 net.cpp:434] conv6_2_mbox_conf_bdc2018_new <- conv6_2_conv6_2_relu_0_split_2
I0720 19:35:40.870290  3051 net.cpp:408] conv6_2_mbox_conf_bdc2018_new -> conv6_2_mbox_conf_bdc2018_new
I0720 19:35:40.874655  3051 net.cpp:150] Setting up conv6_2_mbox_conf_bdc2018_new
I0720 19:35:40.874676  3051 net.cpp:157] Top shape: 2 54 32 32 (110592)
I0720 19:35:40.874680  3051 net.cpp:165] Memory required for data: 5754724384
I0720 19:35:40.874688  3051 layer_factory.hpp:77] Creating layer conv6_2_mbox_conf_bdc2018_new_perm_bdc2018_new
I0720 19:35:40.874696  3051 net.cpp:100] Creating Layer conv6_2_mbox_conf_bdc2018_new_perm_bdc2018_new
I0720 19:35:40.874702  3051 net.cpp:434] conv6_2_mbox_conf_bdc2018_new_perm_bdc2018_new <- conv6_2_mbox_conf_bdc2018_new
I0720 19:35:40.874724  3051 net.cpp:408] conv6_2_mbox_conf_bdc2018_new_perm_bdc2018_new -> conv6_2_mbox_conf_bdc2018_new_perm_bdc2018_new
I0720 19:35:40.874904  3051 net.cpp:150] Setting up conv6_2_mbox_conf_bdc2018_new_perm_bdc2018_new
I0720 19:35:40.874915  3051 net.cpp:157] Top shape: 2 32 32 54 (110592)
I0720 19:35:40.874919  3051 net.cpp:165] Memory required for data: 5755166752
I0720 19:35:40.874923  3051 layer_factory.hpp:77] Creating layer conv6_2_mbox_conf_bdc2018_new_flat_bdc2018_new
I0720 19:35:40.874930  3051 net.cpp:100] Creating Layer conv6_2_mbox_conf_bdc2018_new_flat_bdc2018_new
I0720 19:35:40.874935  3051 net.cpp:434] conv6_2_mbox_conf_bdc2018_new_flat_bdc2018_new <- conv6_2_mbox_conf_bdc2018_new_perm_bdc2018_new
I0720 19:35:40.874943  3051 net.cpp:408] conv6_2_mbox_conf_bdc2018_new_flat_bdc2018_new -> conv6_2_mbox_conf_bdc2018_new_flat_bdc2018_new
I0720 19:35:40.874986  3051 net.cpp:150] Setting up conv6_2_mbox_conf_bdc2018_new_flat_bdc2018_new
I0720 19:35:40.874995  3051 net.cpp:157] Top shape: 2 55296 (110592)
I0720 19:35:40.875000  3051 net.cpp:165] Memory required for data: 5755609120
I0720 19:35:40.875003  3051 layer_factory.hpp:77] Creating layer conv6_2_mbox_priorbox
I0720 19:35:40.875011  3051 net.cpp:100] Creating Layer conv6_2_mbox_priorbox
I0720 19:35:40.875015  3051 net.cpp:434] conv6_2_mbox_priorbox <- conv6_2_conv6_2_relu_0_split_3
I0720 19:35:40.875020  3051 net.cpp:434] conv6_2_mbox_priorbox <- data_data_0_split_3
I0720 19:35:40.875030  3051 net.cpp:408] conv6_2_mbox_priorbox -> conv6_2_mbox_priorbox
I0720 19:35:40.875072  3051 net.cpp:150] Setting up conv6_2_mbox_priorbox
I0720 19:35:40.875082  3051 net.cpp:157] Top shape: 1 2 24576 (49152)
I0720 19:35:40.875085  3051 net.cpp:165] Memory required for data: 5755805728
I0720 19:35:40.875088  3051 layer_factory.hpp:77] Creating layer conv7_2_mbox_loc_bdc2018
I0720 19:35:40.875103  3051 net.cpp:100] Creating Layer conv7_2_mbox_loc_bdc2018
I0720 19:35:40.875108  3051 net.cpp:434] conv7_2_mbox_loc_bdc2018 <- conv7_2_conv7_2_relu_0_split_1
I0720 19:35:40.875114  3051 net.cpp:408] conv7_2_mbox_loc_bdc2018 -> conv7_2_mbox_loc_bdc2018
I0720 19:35:40.877120  3051 net.cpp:150] Setting up conv7_2_mbox_loc_bdc2018
I0720 19:35:40.877137  3051 net.cpp:157] Top shape: 2 24 16 16 (12288)
I0720 19:35:40.877142  3051 net.cpp:165] Memory required for data: 5755854880
I0720 19:35:40.877151  3051 layer_factory.hpp:77] Creating layer conv7_2_mbox_loc_bdc2018_perm_bdc2018
I0720 19:35:40.877161  3051 net.cpp:100] Creating Layer conv7_2_mbox_loc_bdc2018_perm_bdc2018
I0720 19:35:40.877166  3051 net.cpp:434] conv7_2_mbox_loc_bdc2018_perm_bdc2018 <- conv7_2_mbox_loc_bdc2018
I0720 19:35:40.877172  3051 net.cpp:408] conv7_2_mbox_loc_bdc2018_perm_bdc2018 -> conv7_2_mbox_loc_bdc2018_perm_bdc2018
I0720 19:35:40.877337  3051 net.cpp:150] Setting up conv7_2_mbox_loc_bdc2018_perm_bdc2018
I0720 19:35:40.877348  3051 net.cpp:157] Top shape: 2 16 16 24 (12288)
I0720 19:35:40.877351  3051 net.cpp:165] Memory required for data: 5755904032
I0720 19:35:40.877355  3051 layer_factory.hpp:77] Creating layer conv7_2_mbox_loc_bdc2018_flat_bdc2018
I0720 19:35:40.877362  3051 net.cpp:100] Creating Layer conv7_2_mbox_loc_bdc2018_flat_bdc2018
I0720 19:35:40.877367  3051 net.cpp:434] conv7_2_mbox_loc_bdc2018_flat_bdc2018 <- conv7_2_mbox_loc_bdc2018_perm_bdc2018
I0720 19:35:40.877374  3051 net.cpp:408] conv7_2_mbox_loc_bdc2018_flat_bdc2018 -> conv7_2_mbox_loc_bdc2018_flat_bdc2018
I0720 19:35:40.877415  3051 net.cpp:150] Setting up conv7_2_mbox_loc_bdc2018_flat_bdc2018
I0720 19:35:40.877424  3051 net.cpp:157] Top shape: 2 6144 (12288)
I0720 19:35:40.877427  3051 net.cpp:165] Memory required for data: 5755953184
I0720 19:35:40.877431  3051 layer_factory.hpp:77] Creating layer conv7_2_mbox_conf_bdc2018_new
I0720 19:35:40.877444  3051 net.cpp:100] Creating Layer conv7_2_mbox_conf_bdc2018_new
I0720 19:35:40.877449  3051 net.cpp:434] conv7_2_mbox_conf_bdc2018_new <- conv7_2_conv7_2_relu_0_split_2
I0720 19:35:40.877459  3051 net.cpp:408] conv7_2_mbox_conf_bdc2018_new -> conv7_2_mbox_conf_bdc2018_new
I0720 19:35:40.879899  3051 net.cpp:150] Setting up conv7_2_mbox_conf_bdc2018_new
I0720 19:35:40.879918  3051 net.cpp:157] Top shape: 2 54 16 16 (27648)
I0720 19:35:40.879923  3051 net.cpp:165] Memory required for data: 5756063776
I0720 19:35:40.879931  3051 layer_factory.hpp:77] Creating layer conv7_2_mbox_conf_bdc2018_new_perm_bdc2018_new
I0720 19:35:40.879940  3051 net.cpp:100] Creating Layer conv7_2_mbox_conf_bdc2018_new_perm_bdc2018_new
I0720 19:35:40.879945  3051 net.cpp:434] conv7_2_mbox_conf_bdc2018_new_perm_bdc2018_new <- conv7_2_mbox_conf_bdc2018_new
I0720 19:35:40.879953  3051 net.cpp:408] conv7_2_mbox_conf_bdc2018_new_perm_bdc2018_new -> conv7_2_mbox_conf_bdc2018_new_perm_bdc2018_new
I0720 19:35:40.880125  3051 net.cpp:150] Setting up conv7_2_mbox_conf_bdc2018_new_perm_bdc2018_new
I0720 19:35:40.880136  3051 net.cpp:157] Top shape: 2 16 16 54 (27648)
I0720 19:35:40.880138  3051 net.cpp:165] Memory required for data: 5756174368
I0720 19:35:40.880142  3051 layer_factory.hpp:77] Creating layer conv7_2_mbox_conf_bdc2018_new_flat_bdc2018_new
I0720 19:35:40.880152  3051 net.cpp:100] Creating Layer conv7_2_mbox_conf_bdc2018_new_flat_bdc2018_new
I0720 19:35:40.880156  3051 net.cpp:434] conv7_2_mbox_conf_bdc2018_new_flat_bdc2018_new <- conv7_2_mbox_conf_bdc2018_new_perm_bdc2018_new
I0720 19:35:40.880165  3051 net.cpp:408] conv7_2_mbox_conf_bdc2018_new_flat_bdc2018_new -> conv7_2_mbox_conf_bdc2018_new_flat_bdc2018_new
I0720 19:35:40.880205  3051 net.cpp:150] Setting up conv7_2_mbox_conf_bdc2018_new_flat_bdc2018_new
I0720 19:35:40.880214  3051 net.cpp:157] Top shape: 2 13824 (27648)
I0720 19:35:40.880218  3051 net.cpp:165] Memory required for data: 5756284960
I0720 19:35:40.880221  3051 layer_factory.hpp:77] Creating layer conv7_2_mbox_priorbox
I0720 19:35:40.880234  3051 net.cpp:100] Creating Layer conv7_2_mbox_priorbox
I0720 19:35:40.880237  3051 net.cpp:434] conv7_2_mbox_priorbox <- conv7_2_conv7_2_relu_0_split_3
I0720 19:35:40.880244  3051 net.cpp:434] conv7_2_mbox_priorbox <- data_data_0_split_4
I0720 19:35:40.880251  3051 net.cpp:408] conv7_2_mbox_priorbox -> conv7_2_mbox_priorbox
I0720 19:35:40.880293  3051 net.cpp:150] Setting up conv7_2_mbox_priorbox
I0720 19:35:40.880302  3051 net.cpp:157] Top shape: 1 2 6144 (12288)
I0720 19:35:40.880306  3051 net.cpp:165] Memory required for data: 5756334112
I0720 19:35:40.880309  3051 layer_factory.hpp:77] Creating layer conv8_2_mbox_loc_bdc2018
I0720 19:35:40.880323  3051 net.cpp:100] Creating Layer conv8_2_mbox_loc_bdc2018
I0720 19:35:40.880328  3051 net.cpp:434] conv8_2_mbox_loc_bdc2018 <- conv8_2_conv8_2_relu_0_split_1
I0720 19:35:40.880336  3051 net.cpp:408] conv8_2_mbox_loc_bdc2018 -> conv8_2_mbox_loc_bdc2018
I0720 19:35:40.882267  3051 net.cpp:150] Setting up conv8_2_mbox_loc_bdc2018
I0720 19:35:40.882285  3051 net.cpp:157] Top shape: 2 16 14 14 (6272)
I0720 19:35:40.882290  3051 net.cpp:165] Memory required for data: 5756359200
I0720 19:35:40.882309  3051 layer_factory.hpp:77] Creating layer conv8_2_mbox_loc_bdc2018_perm_bdc2018
I0720 19:35:40.882319  3051 net.cpp:100] Creating Layer conv8_2_mbox_loc_bdc2018_perm_bdc2018
I0720 19:35:40.882324  3051 net.cpp:434] conv8_2_mbox_loc_bdc2018_perm_bdc2018 <- conv8_2_mbox_loc_bdc2018
I0720 19:35:40.882333  3051 net.cpp:408] conv8_2_mbox_loc_bdc2018_perm_bdc2018 -> conv8_2_mbox_loc_bdc2018_perm_bdc2018
I0720 19:35:40.882505  3051 net.cpp:150] Setting up conv8_2_mbox_loc_bdc2018_perm_bdc2018
I0720 19:35:40.882519  3051 net.cpp:157] Top shape: 2 14 14 16 (6272)
I0720 19:35:40.882522  3051 net.cpp:165] Memory required for data: 5756384288
I0720 19:35:40.882526  3051 layer_factory.hpp:77] Creating layer conv8_2_mbox_loc_bdc2018_flat_bdc2018
I0720 19:35:40.882534  3051 net.cpp:100] Creating Layer conv8_2_mbox_loc_bdc2018_flat_bdc2018
I0720 19:35:40.882539  3051 net.cpp:434] conv8_2_mbox_loc_bdc2018_flat_bdc2018 <- conv8_2_mbox_loc_bdc2018_perm_bdc2018
I0720 19:35:40.882546  3051 net.cpp:408] conv8_2_mbox_loc_bdc2018_flat_bdc2018 -> conv8_2_mbox_loc_bdc2018_flat_bdc2018
I0720 19:35:40.882586  3051 net.cpp:150] Setting up conv8_2_mbox_loc_bdc2018_flat_bdc2018
I0720 19:35:40.882616  3051 net.cpp:157] Top shape: 2 3136 (6272)
I0720 19:35:40.882620  3051 net.cpp:165] Memory required for data: 5756409376
I0720 19:35:40.882624  3051 layer_factory.hpp:77] Creating layer conv8_2_mbox_conf_bdc2018_new
I0720 19:35:40.882637  3051 net.cpp:100] Creating Layer conv8_2_mbox_conf_bdc2018_new
I0720 19:35:40.882644  3051 net.cpp:434] conv8_2_mbox_conf_bdc2018_new <- conv8_2_conv8_2_relu_0_split_2
I0720 19:35:40.882652  3051 net.cpp:408] conv8_2_mbox_conf_bdc2018_new -> conv8_2_mbox_conf_bdc2018_new
I0720 19:35:40.884810  3051 net.cpp:150] Setting up conv8_2_mbox_conf_bdc2018_new
I0720 19:35:40.884829  3051 net.cpp:157] Top shape: 2 36 14 14 (14112)
I0720 19:35:40.884833  3051 net.cpp:165] Memory required for data: 5756465824
I0720 19:35:40.884841  3051 layer_factory.hpp:77] Creating layer conv8_2_mbox_conf_bdc2018_new_perm_bdc2018_new
I0720 19:35:40.884851  3051 net.cpp:100] Creating Layer conv8_2_mbox_conf_bdc2018_new_perm_bdc2018_new
I0720 19:35:40.884856  3051 net.cpp:434] conv8_2_mbox_conf_bdc2018_new_perm_bdc2018_new <- conv8_2_mbox_conf_bdc2018_new
I0720 19:35:40.884863  3051 net.cpp:408] conv8_2_mbox_conf_bdc2018_new_perm_bdc2018_new -> conv8_2_mbox_conf_bdc2018_new_perm_bdc2018_new
I0720 19:35:40.885041  3051 net.cpp:150] Setting up conv8_2_mbox_conf_bdc2018_new_perm_bdc2018_new
I0720 19:35:40.885052  3051 net.cpp:157] Top shape: 2 14 14 36 (14112)
I0720 19:35:40.885056  3051 net.cpp:165] Memory required for data: 5756522272
I0720 19:35:40.885059  3051 layer_factory.hpp:77] Creating layer conv8_2_mbox_conf_bdc2018_new_flat_bdc2018_new
I0720 19:35:40.885068  3051 net.cpp:100] Creating Layer conv8_2_mbox_conf_bdc2018_new_flat_bdc2018_new
I0720 19:35:40.885073  3051 net.cpp:434] conv8_2_mbox_conf_bdc2018_new_flat_bdc2018_new <- conv8_2_mbox_conf_bdc2018_new_perm_bdc2018_new
I0720 19:35:40.885079  3051 net.cpp:408] conv8_2_mbox_conf_bdc2018_new_flat_bdc2018_new -> conv8_2_mbox_conf_bdc2018_new_flat_bdc2018_new
I0720 19:35:40.885120  3051 net.cpp:150] Setting up conv8_2_mbox_conf_bdc2018_new_flat_bdc2018_new
I0720 19:35:40.885129  3051 net.cpp:157] Top shape: 2 7056 (14112)
I0720 19:35:40.885133  3051 net.cpp:165] Memory required for data: 5756578720
I0720 19:35:40.885136  3051 layer_factory.hpp:77] Creating layer conv8_2_mbox_priorbox
I0720 19:35:40.885146  3051 net.cpp:100] Creating Layer conv8_2_mbox_priorbox
I0720 19:35:40.885150  3051 net.cpp:434] conv8_2_mbox_priorbox <- conv8_2_conv8_2_relu_0_split_3
I0720 19:35:40.885156  3051 net.cpp:434] conv8_2_mbox_priorbox <- data_data_0_split_5
I0720 19:35:40.885162  3051 net.cpp:408] conv8_2_mbox_priorbox -> conv8_2_mbox_priorbox
I0720 19:35:40.885206  3051 net.cpp:150] Setting up conv8_2_mbox_priorbox
I0720 19:35:40.885215  3051 net.cpp:157] Top shape: 1 2 3136 (6272)
I0720 19:35:40.885218  3051 net.cpp:165] Memory required for data: 5756603808
I0720 19:35:40.885221  3051 layer_factory.hpp:77] Creating layer conv9_2_mbox_loc_bdc2018
I0720 19:35:40.885234  3051 net.cpp:100] Creating Layer conv9_2_mbox_loc_bdc2018
I0720 19:35:40.885239  3051 net.cpp:434] conv9_2_mbox_loc_bdc2018 <- conv9_2_conv9_2_relu_0_split_0
I0720 19:35:40.885246  3051 net.cpp:408] conv9_2_mbox_loc_bdc2018 -> conv9_2_mbox_loc_bdc2018
I0720 19:35:40.887387  3051 net.cpp:150] Setting up conv9_2_mbox_loc_bdc2018
I0720 19:35:40.887404  3051 net.cpp:157] Top shape: 2 16 12 12 (4608)
I0720 19:35:40.887409  3051 net.cpp:165] Memory required for data: 5756622240
I0720 19:35:40.887418  3051 layer_factory.hpp:77] Creating layer conv9_2_mbox_loc_bdc2018_perm_bdc2018
I0720 19:35:40.887425  3051 net.cpp:100] Creating Layer conv9_2_mbox_loc_bdc2018_perm_bdc2018
I0720 19:35:40.887434  3051 net.cpp:434] conv9_2_mbox_loc_bdc2018_perm_bdc2018 <- conv9_2_mbox_loc_bdc2018
I0720 19:35:40.887440  3051 net.cpp:408] conv9_2_mbox_loc_bdc2018_perm_bdc2018 -> conv9_2_mbox_loc_bdc2018_perm_bdc2018
I0720 19:35:40.887616  3051 net.cpp:150] Setting up conv9_2_mbox_loc_bdc2018_perm_bdc2018
I0720 19:35:40.887627  3051 net.cpp:157] Top shape: 2 12 12 16 (4608)
I0720 19:35:40.887630  3051 net.cpp:165] Memory required for data: 5756640672
I0720 19:35:40.887647  3051 layer_factory.hpp:77] Creating layer conv9_2_mbox_loc_bdc2018_flat_bdc2018
I0720 19:35:40.887655  3051 net.cpp:100] Creating Layer conv9_2_mbox_loc_bdc2018_flat_bdc2018
I0720 19:35:40.887660  3051 net.cpp:434] conv9_2_mbox_loc_bdc2018_flat_bdc2018 <- conv9_2_mbox_loc_bdc2018_perm_bdc2018
I0720 19:35:40.887668  3051 net.cpp:408] conv9_2_mbox_loc_bdc2018_flat_bdc2018 -> conv9_2_mbox_loc_bdc2018_flat_bdc2018
I0720 19:35:40.887714  3051 net.cpp:150] Setting up conv9_2_mbox_loc_bdc2018_flat_bdc2018
I0720 19:35:40.887722  3051 net.cpp:157] Top shape: 2 2304 (4608)
I0720 19:35:40.887727  3051 net.cpp:165] Memory required for data: 5756659104
I0720 19:35:40.887729  3051 layer_factory.hpp:77] Creating layer conv9_2_mbox_conf_bdc2018_new
I0720 19:35:40.887743  3051 net.cpp:100] Creating Layer conv9_2_mbox_conf_bdc2018_new
I0720 19:35:40.887748  3051 net.cpp:434] conv9_2_mbox_conf_bdc2018_new <- conv9_2_conv9_2_relu_0_split_1
I0720 19:35:40.887758  3051 net.cpp:408] conv9_2_mbox_conf_bdc2018_new -> conv9_2_mbox_conf_bdc2018_new
I0720 19:35:40.889950  3051 net.cpp:150] Setting up conv9_2_mbox_conf_bdc2018_new
I0720 19:35:40.889971  3051 net.cpp:157] Top shape: 2 36 12 12 (10368)
I0720 19:35:40.889976  3051 net.cpp:165] Memory required for data: 5756700576
I0720 19:35:40.889983  3051 layer_factory.hpp:77] Creating layer conv9_2_mbox_conf_bdc2018_new_perm_bdc2018_new
I0720 19:35:40.889991  3051 net.cpp:100] Creating Layer conv9_2_mbox_conf_bdc2018_new_perm_bdc2018_new
I0720 19:35:40.889997  3051 net.cpp:434] conv9_2_mbox_conf_bdc2018_new_perm_bdc2018_new <- conv9_2_mbox_conf_bdc2018_new
I0720 19:35:40.890005  3051 net.cpp:408] conv9_2_mbox_conf_bdc2018_new_perm_bdc2018_new -> conv9_2_mbox_conf_bdc2018_new_perm_bdc2018_new
I0720 19:35:40.890194  3051 net.cpp:150] Setting up conv9_2_mbox_conf_bdc2018_new_perm_bdc2018_new
I0720 19:35:40.890206  3051 net.cpp:157] Top shape: 2 12 12 36 (10368)
I0720 19:35:40.890210  3051 net.cpp:165] Memory required for data: 5756742048
I0720 19:35:40.890214  3051 layer_factory.hpp:77] Creating layer conv9_2_mbox_conf_bdc2018_new_flat_bdc2018_new
I0720 19:35:40.890223  3051 net.cpp:100] Creating Layer conv9_2_mbox_conf_bdc2018_new_flat_bdc2018_new
I0720 19:35:40.890228  3051 net.cpp:434] conv9_2_mbox_conf_bdc2018_new_flat_bdc2018_new <- conv9_2_mbox_conf_bdc2018_new_perm_bdc2018_new
I0720 19:35:40.890236  3051 net.cpp:408] conv9_2_mbox_conf_bdc2018_new_flat_bdc2018_new -> conv9_2_mbox_conf_bdc2018_new_flat_bdc2018_new
I0720 19:35:40.890278  3051 net.cpp:150] Setting up conv9_2_mbox_conf_bdc2018_new_flat_bdc2018_new
I0720 19:35:40.890286  3051 net.cpp:157] Top shape: 2 5184 (10368)
I0720 19:35:40.890290  3051 net.cpp:165] Memory required for data: 5756783520
I0720 19:35:40.890293  3051 layer_factory.hpp:77] Creating layer conv9_2_mbox_priorbox
I0720 19:35:40.890305  3051 net.cpp:100] Creating Layer conv9_2_mbox_priorbox
I0720 19:35:40.890308  3051 net.cpp:434] conv9_2_mbox_priorbox <- conv9_2_conv9_2_relu_0_split_2
I0720 19:35:40.890313  3051 net.cpp:434] conv9_2_mbox_priorbox <- data_data_0_split_6
I0720 19:35:40.890321  3051 net.cpp:408] conv9_2_mbox_priorbox -> conv9_2_mbox_priorbox
I0720 19:35:40.890363  3051 net.cpp:150] Setting up conv9_2_mbox_priorbox
I0720 19:35:40.890372  3051 net.cpp:157] Top shape: 1 2 2304 (4608)
I0720 19:35:40.890375  3051 net.cpp:165] Memory required for data: 5756801952
I0720 19:35:40.890379  3051 layer_factory.hpp:77] Creating layer mbox_loc
I0720 19:35:40.890390  3051 net.cpp:100] Creating Layer mbox_loc
I0720 19:35:40.890398  3051 net.cpp:434] mbox_loc <- conv4_3_norm_mbox_loc_bdc2018_flat_bdc2018
I0720 19:35:40.890403  3051 net.cpp:434] mbox_loc <- fc7_mbox_loc_bdc2018_flat_bdc2018
I0720 19:35:40.890408  3051 net.cpp:434] mbox_loc <- conv6_2_mbox_loc_bdc2018_flat_bdc2018
I0720 19:35:40.890413  3051 net.cpp:434] mbox_loc <- conv7_2_mbox_loc_bdc2018_flat_bdc2018
I0720 19:35:40.890417  3051 net.cpp:434] mbox_loc <- conv8_2_mbox_loc_bdc2018_flat_bdc2018
I0720 19:35:40.890421  3051 net.cpp:434] mbox_loc <- conv9_2_mbox_loc_bdc2018_flat_bdc2018
I0720 19:35:40.890445  3051 net.cpp:408] mbox_loc -> mbox_loc
I0720 19:35:40.890492  3051 net.cpp:150] Setting up mbox_loc
I0720 19:35:40.890504  3051 net.cpp:157] Top shape: 2 396608 (793216)
I0720 19:35:40.890507  3051 net.cpp:165] Memory required for data: 5759974816
I0720 19:35:40.890511  3051 layer_factory.hpp:77] Creating layer mbox_conf
I0720 19:35:40.890522  3051 net.cpp:100] Creating Layer mbox_conf
I0720 19:35:40.890525  3051 net.cpp:434] mbox_conf <- conv4_3_norm_mbox_conf_bdc2018_new_flat_bdc2018_new
I0720 19:35:40.890532  3051 net.cpp:434] mbox_conf <- fc7_mbox_conf_bdc2018_new_flat_bdc2018_new
I0720 19:35:40.890537  3051 net.cpp:434] mbox_conf <- conv6_2_mbox_conf_bdc2018_new_flat_bdc2018_new
I0720 19:35:40.890542  3051 net.cpp:434] mbox_conf <- conv7_2_mbox_conf_bdc2018_new_flat_bdc2018_new
I0720 19:35:40.890545  3051 net.cpp:434] mbox_conf <- conv8_2_mbox_conf_bdc2018_new_flat_bdc2018_new
I0720 19:35:40.890550  3051 net.cpp:434] mbox_conf <- conv9_2_mbox_conf_bdc2018_new_flat_bdc2018_new
I0720 19:35:40.890555  3051 net.cpp:408] mbox_conf -> mbox_conf
I0720 19:35:40.890595  3051 net.cpp:150] Setting up mbox_conf
I0720 19:35:40.890604  3051 net.cpp:157] Top shape: 2 892368 (1784736)
I0720 19:35:40.890609  3051 net.cpp:165] Memory required for data: 5767113760
I0720 19:35:40.890611  3051 layer_factory.hpp:77] Creating layer mbox_priorbox
I0720 19:35:40.890619  3051 net.cpp:100] Creating Layer mbox_priorbox
I0720 19:35:40.890622  3051 net.cpp:434] mbox_priorbox <- conv4_3_norm_mbox_priorbox
I0720 19:35:40.890627  3051 net.cpp:434] mbox_priorbox <- fc7_mbox_priorbox
I0720 19:35:40.890632  3051 net.cpp:434] mbox_priorbox <- conv6_2_mbox_priorbox
I0720 19:35:40.890636  3051 net.cpp:434] mbox_priorbox <- conv7_2_mbox_priorbox
I0720 19:35:40.890640  3051 net.cpp:434] mbox_priorbox <- conv8_2_mbox_priorbox
I0720 19:35:40.890645  3051 net.cpp:434] mbox_priorbox <- conv9_2_mbox_priorbox
I0720 19:35:40.890655  3051 net.cpp:408] mbox_priorbox -> mbox_priorbox
I0720 19:35:40.890692  3051 net.cpp:150] Setting up mbox_priorbox
I0720 19:35:40.890702  3051 net.cpp:157] Top shape: 1 2 396608 (793216)
I0720 19:35:40.890704  3051 net.cpp:165] Memory required for data: 5770286624
I0720 19:35:40.890708  3051 layer_factory.hpp:77] Creating layer mbox_conf_reshape
I0720 19:35:40.890717  3051 net.cpp:100] Creating Layer mbox_conf_reshape
I0720 19:35:40.890722  3051 net.cpp:434] mbox_conf_reshape <- mbox_conf
I0720 19:35:40.890730  3051 net.cpp:408] mbox_conf_reshape -> mbox_conf_reshape
I0720 19:35:40.890784  3051 net.cpp:150] Setting up mbox_conf_reshape
I0720 19:35:40.890795  3051 net.cpp:157] Top shape: 2 99152 9 (1784736)
I0720 19:35:40.890799  3051 net.cpp:165] Memory required for data: 5777425568
I0720 19:35:40.890803  3051 layer_factory.hpp:77] Creating layer mbox_conf_softmax
I0720 19:35:40.890811  3051 net.cpp:100] Creating Layer mbox_conf_softmax
I0720 19:35:40.890815  3051 net.cpp:434] mbox_conf_softmax <- mbox_conf_reshape
I0720 19:35:40.890825  3051 net.cpp:408] mbox_conf_softmax -> mbox_conf_softmax
I0720 19:35:40.891175  3051 net.cpp:150] Setting up mbox_conf_softmax
I0720 19:35:40.891188  3051 net.cpp:157] Top shape: 2 99152 9 (1784736)
I0720 19:35:40.891192  3051 net.cpp:165] Memory required for data: 5784564512
I0720 19:35:40.891196  3051 layer_factory.hpp:77] Creating layer mbox_conf_flatten
I0720 19:35:40.891204  3051 net.cpp:100] Creating Layer mbox_conf_flatten
I0720 19:35:40.891208  3051 net.cpp:434] mbox_conf_flatten <- mbox_conf_softmax
I0720 19:35:40.891217  3051 net.cpp:408] mbox_conf_flatten -> mbox_conf_flatten
I0720 19:35:40.891263  3051 net.cpp:150] Setting up mbox_conf_flatten
I0720 19:35:40.891271  3051 net.cpp:157] Top shape: 2 892368 (1784736)
I0720 19:35:40.891275  3051 net.cpp:165] Memory required for data: 5791703456
I0720 19:35:40.891278  3051 layer_factory.hpp:77] Creating layer detection_out
I0720 19:35:40.891305  3051 net.cpp:100] Creating Layer detection_out
I0720 19:35:40.891311  3051 net.cpp:434] detection_out <- mbox_loc
I0720 19:35:40.891317  3051 net.cpp:434] detection_out <- mbox_conf_flatten
I0720 19:35:40.891333  3051 net.cpp:434] detection_out <- mbox_priorbox
I0720 19:35:40.891345  3051 net.cpp:408] detection_out -> detection_out
W0720 19:35:40.891386  3051 detection_output_layer.cpp:49] Failed to create directory: /home/user/data/bdc2018/results/SSD_1024x1024/Main
I0720 19:35:40.892390  3051 net.cpp:150] Setting up detection_out
I0720 19:35:40.892406  3051 net.cpp:157] Top shape: 1 1 1 7 (7)
I0720 19:35:40.892410  3051 net.cpp:165] Memory required for data: 5791703484
I0720 19:35:40.892416  3051 layer_factory.hpp:77] Creating layer detection_eval
I0720 19:35:40.892426  3051 net.cpp:100] Creating Layer detection_eval
I0720 19:35:40.892431  3051 net.cpp:434] detection_eval <- detection_out
I0720 19:35:40.892437  3051 net.cpp:434] detection_eval <- label
I0720 19:35:40.892443  3051 net.cpp:408] detection_eval -> detection_eval
I0720 19:35:40.892662  3051 net.cpp:150] Setting up detection_eval
I0720 19:35:40.892674  3051 net.cpp:157] Top shape: 1 1 9 5 (45)
I0720 19:35:40.892678  3051 net.cpp:165] Memory required for data: 5791703664
I0720 19:35:40.892683  3051 net.cpp:228] detection_eval does not need backward computation.
I0720 19:35:40.892688  3051 net.cpp:228] detection_out does not need backward computation.
I0720 19:35:40.892691  3051 net.cpp:228] mbox_conf_flatten does not need backward computation.
I0720 19:35:40.892695  3051 net.cpp:228] mbox_conf_softmax does not need backward computation.
…
