…
      sampler {
        min_scale: 0.3
        max_scale: 1
        min_aspect_ratio: 0.5
        max_aspect_ratio: 2
      }
      sample_constraint {
        min_jaccard_overlap: 0.9
      }
      max_sample: 1
      max_trials: 50
    }
    batch_sampler {
      sampler {
        min_scale: 0.3
        max_scale: 1
        min_aspect_ratio: 0.5
        max_aspect_ratio: 2
      }
      sample_constraint {
        max_jaccard_overlap: 1
      }
      max_sample: 1
      max_trials: 50
    }
    label_map_file: "data/bdc2018/labelmap_bdc.prototxt"
  }
}
layer {
  name: "conv1"
  type: "Convolution"
  bottom: "data"
  top: "conv1"
  param {
    lr_mult: 1
    decay_mult: 1
  }
  convolution_param {
    num_output: 64
    bias_term: false
    pad: 3
    kernel_size: 7
    stride: 2
    weight_filler {
      type: "gaussian"
      std: 0.01
    }
  }
}
layer {
  name: "bn_conv1"
  type: "BatchNorm"
  bottom: "conv1"
  top: "conv1"
  batch_norm_param {
    moving_average_fraction: 0.999
    eps: 0.001
  }
}
layer {
  name: "scale_conv1"
  type: "Scale"
  bottom: "conv1"
  top: "conv1"
  param {
    lr_mult: 1
    decay_mult: 0
  }
  param {
    lr_mult: 1
    decay_mult: 0
  }
  scale_param {
    filler {
      type: "constant"
      value: 1
    }
    bias_term: true
    bias_filler {
      type: "constant"
      value: 0
    }
  }
}
layer {
  name: "conv1_relu"
  type: "ReLU"
  bottom: "conv1"
  top: "conv1"
}
layer {
  name: "pool1"
  type: "Pooling"
  bottom: "conv1"
  top: "pool1"
  pooling_param {
    pool: MAX
    kernel_size: 3
    stride: 2
  }
}
layer {
  name: "res2a_branch1"
  type: "Convolution"
  bottom: "pool1"
  top: "res2a_branch1"
  param {
    lr_mult: 1
    decay_mult: 1
  }
  convolution_param {
    num_output: 256
    bias_term: false
    pad: 0
    kernel_size: 1
    stride: 1
    weight_filler {
      type: "gaussian"
      std: 0.01
    }
  }
}
layer {
  name: "bn2a_branch1"
  type: "BatchNorm"
  bottom: "res2a_branch1"
  top: "res2a_branch1"
  batch_norm_param {
    moving_average_fraction: 0.999
    eps: 0.001
  }
}
layer {
  name: "scale2a_branch1"
  type: "Scale"
  bottom: "res2a_branch1"
  top: "res2a_branch1"
  param {
    lr_mult: 1
    decay_mult: 0
  }
  param {
    lr_mult: 1
    decay_mult: 0
  }
  scale_param {
    filler {
      type: "constant"
      value: 1
    }
    bias_term: true
    bias_filler {
      type: "constant"
      value: 0
    }
  }
}
layer {
  name: "res2a_branch2a"
  type: "Convolution"
  bottom: "pool1"
  top: "res2a_branch2a"
  param {
    lr_mult: 1
    decay_mult: 1
  }
  convolution_param {
    num_output: 64
    bias_term: false
    pad: 0
    kernel_size: 1
    stride: 1
    weight_filler {
      type: "gaussian"
      std: 0.01
    }
  }
}
layer {
  name: "bn2a_branch2a"
  type: "BatchNorm"
  bottom: "res2a_branch2a"
  top: "res2a_branch2a"
  batch_norm_param {
    moving_average_fraction: 0.999
    eps: 0.001
  }
}
layer {
  name: "scale2a_branch2a"
  type: "Scale"
  bottom: "res2a_branch2a"
  top: "res2a_branch2a"
  param {
    lr_mult: 1
    decay_mult: 0
  }
  param {
    lr_mult: 1
    decay_mult: 0
  }
  scale_param {
    filler {
      type: "constant"
      value: 1
    }
    bias_term: true
    bias_filler {
      type: "constant"
      value: 0
    }
  }
}
layer {
  name: "res2a_branch2a_relu"
  type: "ReLU"
  bottom: "res2a_branch2a"
  top: "res2a_branch2a"
}
layer {
  name: "res2a_branch2b"
  type: "Convolution"
  bottom: "res2a_branch2a"
  top: "res2a_branch2b"
  param {
    lr_mult: 1
    decay_mult: 1
  }
  convolution_param {
    num_output: 64
    bias_term: false
    pad: 1
    kernel_size: 3
    stride: 1
    weight_filler {
      type: "gaussian"
      std: 0.01
    }
  }
}
layer {
  name: "bn2a_branch2b"
  type: "BatchNorm"
  bottom: "res2a_branch2b"
  top: "res2a_branch2b"
  batch_norm_param {
    moving_average_fraction: 0.999
    eps: 0.001
  }
}
layer {
  name: "scale2a_branch2b"
  type: "Scale"
  bottom: "res2a_branch2b"
  top: "res2a_branch2b"
  param {
    lr_mult: 1
    decay_mult: 0
  }
  param {
    lr_mult: 1
    decay_mult: 0
  }
  scale_param {
    filler {
      type: "constant"
      value: 1
    }
    bias_term: true
    bias_filler {
      type: "constant"
      value: 0
    }
  }
}
layer {
  name: "res2a_branch2b_relu"
  type: "ReLU"
  bottom: "res2a_branch2b"
  top: "res2a_branch2b"
}
layer {
  name: "res2a_branch2c"
  type: "Convolution"
  bottom: "res2a_branch2b"
  top: "res2a_branch2c"
  param {
    lr_mult: 1
    decay_mult: 1
  }
  convolution_param {
    num_output: 256
    bias_term: false
    pad: 0
    kernel_size: 1
    stride: 1
    weight_filler {
      type: "gaussian"
      std: 0.01
    }
  }
}
layer {
  name: "bn2a_branch2c"
  type: "BatchNorm"
  bottom: "res2a_branch2c"
  top: "res2a_branch2c"
  batch_norm_param {
    moving_average_fraction: 0.999
    eps: 0.001
  }
}
layer {
  name: "scale2a_branch2c"
  type: "Scale"
  bottom: "res2a_branch2c"
  top: "res2a_branch2c"
  param {
    lr_mult: 1
    decay_mult: 0
  }
  param {
    lr_mult: 1
    decay_mult: 0
  }
  scale_param {
    filler {
      type: "constant"
      value: 1
    }
    bias_term: true
    bias_filler {
      type: "constant"
      value: 0
    }
  }
}
layer {
  name: "res2a"
  type: "Eltwise"
  bottom: "res2a_branch1"
  bottom: "res2a_branch2c"
  top: "res2a"
}
layer {
  name: "res2a_relu"
  type: "ReLU"
  bottom: "res2a"
  top: "res2a"
}
layer {
  name: "res2b_branch2a"
  type: "Convolution"
  bottom: "res2a"
  top: "res2b_branch2a"
  param {
    lr_mult: 1
    decay_mult: 1
  }
  convolution_param {
    num_output: 64
    bias_term: false
    pad: 0
    kernel_size: 1
    stride: 1
    weight_filler {
      type: "gaussian"
      std: 0.01
    }
  }
}
layer {
  name: "bn2b_branch2a"
  type: "BatchNorm"
  bottom: "res2b_branch2a"
  top: "res2b_branch2a"
  batch_norm_param {
    moving_average_fraction: 0.999
    eps: 0.001
  }
}
layer {
  name: "scale2b_branch2a"
  type: "Scale"
  bottom: "res2b_branch2a"
  top: "res2b_branch2a"
  param {
    lr_mult: 1
    decay_mult: 0
  }
  param {
    lr_mult: 1
    decay_mult: 0
  }
  scale_param {
    filler {
      type: "constant"
      value: 1
    }
    bias_term: true
    bias_filler {
      type: "constant"
      value: 0
    }
  }
}
layer {
  name: "res2b_branch2a_relu"
  type: "ReLU"
  bottom: "res2b_branch2a"
  top: "res2b_branch2a"
}
layer {
  name: "res2b_branch2b"
  type: "Convolution"
  bottom: "res2b_branch2a"
  top: "res2b_branch2b"
  param {
    lr_mult: 1
    decay_mult: 1
  }
  convolution_param {
    num_output: 64
    bias_term: false
    pad: 1
    kernel_size: 3
    stride: 1
    weight_filler {
      type: "gaussian"
      std: 0.01
    }
  }
}
layer {
  name: "bn2b_branch2b"
  type: "BatchNorm"
  bottom: "res2b_branch2b"
  top: "res2b_branch2b"
  batch_norm_param {
    moving_average_fraction: 0.999
    eps: 0.001
  }
}
layer {
  name: "scale2b_branch2b"
  type: "Scale"
  bottom: "res2b_branch2b"
  top: "res2b_branch2b"
  param {
    lr_mult: 1
    decay_mult: 0
  }
  param {
    lr_mult: 1
    decay_mult: 0
  }
  scale_param {
    filler {
      type: "constant"
      value: 1
    }
    bias_term: true
    bias_filler {
      type: "constant"
      value: 0
    }
  }
}
layer {
  name: "res2b_branch2b_relu"
  type: "ReLU"
  bottom: "res2b_branch2b"
  top: "res2b_branch2b"
}
layer {
  name: "res2b_branch2c"
  type: "Convolution"
  bottom: "res2b_branch2b"
  top: "res2b_branch2c"
  param {
    lr_mult: 1
    decay_mult: 1
  }
  convolution_param {
    num_output: 256
    bias_term: false
    pad: 0
    kernel_size: 1
    stride: 1
    weight_filler {
      type: "gaussian"
      std: 0.01
    }
  }
}
layer {
  name: "bn2b_branch2c"
  type: "BatchNorm"
  bottom: "res2b_branch2c"
  top: "res2b_branch2c"
  batch_norm_param {
    moving_average_fraction: 0.999
    eps: 0.001
  }
}
layer {
  name: "scale2b_branch2c"
  type: "Scale"
  bottom: "res2b_branch2c"
  top: "res2b_branch2c"
  param {
    lr_mult: 1
    decay_mult: 0
  }
  param {
    lr_mult: 1
    decay_mult: 0
  }
  scale_param {
    filler {
      type: "constant"
      value: 1
    }
    bias_term: true
    bias_filler {
      type: "constant"
      value: 0
    }
  }
}
layer {
  name: "res2b"
  type: "Eltwise"
  bottom: "res2a"
  bottom: "res2b_branch2c"
  top: "res2b"
}
layer {
  name: "res2b_relu"
  type: "ReLU"
  bottom: "res2b"
  top: "res2b"
}
layer {
  name: "res2c_branch2a"
  type: "Convolution"
  bottom: "res2b"
  top: "res2c_branch2a"
  param {
    lr_mult: 1
    decay_mult: 1
  }
  convolution_param {
    num_output: 64
    bias_term: false
    pad: 0
    kernel_size: 1
    stride: 1
    weight_filler {
      type: "gaussian"
      std: 0.01
    }
  }
}
layer {
  name: "bn2c_branch2a"
  type: "BatchNorm"
  bottom: "res2c_branch2a"
  top: "res2c_branch2a"
  batch_norm_param {
    moving_average_fraction: 0.999
    eps: 0.001
  }
}
layer {
  name: "scale2c_branch2a"
  type: "Scale"
  bottom: "res2c_branch2a"
  top: "res2c_branch2a"
  param {
    lr_mult: 1
    decay_mult: 0
  }
  param {
    lr_mult: 1
    decay_mult: 0
  }
  scale_param {
    filler {
      type: "constant"
      value: 1
    }
    bias_term: true
    bias_filler {
      type: "constant"
      value: 0
    }
  }
}
layer {
  name: "res2c_branch2a_relu"
  type: "ReLU"
  bottom: "res2c_branch2a"
  top: "res2c_branch2a"
}
layer {
  name: "res2c_branch2b"
  type: "Convolution"
  bottom: "res2c_branch2a"
  top: "res2c_branch2b"
  param {
    lr_mult: 1
    decay_mult: 1
  }
  convolution_param {
    num_output: 64
    bias_term: false
    pad: 1
    kernel_size: 3
    stride: 1
    weight_filler {
      type: "gaussian"
      std: 0.01
    }
  }
}
layer {
  name: "bn2c_branch2b"
  type: "BatchNorm"
  bottom: "res2c_branch2b"
  top: "res2c_branch2b"
  batch_norm_param {
    moving_average_fraction: 0.999
    eps: 0.001
  }
}
layer {
  name: "scale2c_branch2b"
  type: "Scale"
  bottom: "res2c_branch2b"
  top: "res2c_branch2b"
  param {
    lr_mult: 1
    decay_mult: 0
  }
  param {
    lr_mult: 1
    decay_mult: 0
  }
  scale_param {
    filler {
      type: "constant"
      value: 1
    }
    bias_term: true
    bias_filler {
      type: "constant"
      value: 0
    }
  }
}
layer {
  name: "res2c_branch2b_relu"
  type: "ReLU"
  bottom: "res2c_branch2b"
  top: "res2c_branch2b"
}
layer {
  name: "res2c_branch2c"
  type: "Convolution"
  bottom: "res2c_branch2b"
  top: "res2c_branch2c"
  param {
    lr_mult: 1
    decay_mult: 1
  }
  convolution_param {
    num_output: 256
    bias_term: false
    pad: 0
    kernel_size: 1
    stride: 1
    weight_filler {
      type: "gaussian"
      std: 0.01
    }
  }
}
layer {
  name: "bn2c_branch2c"
  type: "BatchNorm"
  bottom: "res2c_branch2c"
  top: "res2c_branch2c"
  batch_norm_param {
    moving_average_fraction: 0.999
    eps: 0.001
  }
}
layer {
  name: "scale2c_branch2c"
  type: "Scale"
  bottom: "res2c_branch2c"
  top: "res2c_branch2c"
  param {
    lr_mult: 1
    decay_mult: 0
  }
  param {
    lr_mult: 1
    decay_mult: 0
  }
  scale_param {
    filler {
      type: "constant"
      value: 1
    }
    bias_term: true
    bias_filler {
      type: "constant"
      value: 0
    }
  }
}
layer {
  name: "res2c"
  type: "Eltwise"
  bottom: "res2b"
  bottom: "res2c_branch2c"
  top: "res2c"
}
layer {
  name: "res2c_relu"
  type: "ReLU"
  bottom: "res2c"
  top: "res2c"
}
layer {
  name: "res3a_branch1"
  type: "Convolution"
  bottom: "res2c"
  top: "res3a_branch1"
  param {
    lr_mult: 1
    decay_mult: 1
  }
  convolution_param {
    num_output: 512
    bias_term: false
    pad: 0
    kernel_size: 1
    stride: 2
    weight_filler {
      type: "gaussian"
      std: 0.01
    }
  }
}
layer {
  name: "bn3a_branch1"
  type: "BatchNorm"
  bottom: "res3a_branch1"
  top: "res3a_branch1"
  batch_norm_param {
    moving_average_fraction: 0.999
    eps: 0.001
  }
}
layer {
  name: "scale3a_branch1"
  type: "Scale"
  bottom: "res3a_branch1"
  top: "res3a_branch1"
  param {
    lr_mult: 1
    decay_mult: 0
  }
  param {
    lr_mult: 1
    decay_mult: 0
  }
  scale_param {
    filler {
      type: "constant"
      value: 1
    }
    bias_term: true
    bias_filler {
      type: "constant"
      value: 0
    }
  }
}
layer {
  name: "res3a_branch2a"
  type: "Convolution"
  bottom: "res2c"
  top: "res3a_branch2a"
  param {
    lr_mult: 1
    decay_mult: 1
  }
  convolution_param {
    num_output: 128
    bias_term: false
    pad: 0
    kernel_size: 1
    stride: 2
    weight_filler {
      type: "gaussian"
      std: 0.01
    }
  }
}
layer {
  name: "bn3a_branch2a"
  type: "BatchNorm"
  bottom: "res3a_branch2a"
  top: "res3a_branch2a"
  batch_norm_param {
    moving_average_fraction: 0.999
    eps: 0.001
  }
}
layer {
  name: "scale3a_branch2a"
  type: "Scale"
  bottom: "res3a_branch2a"
  top: "res3a_branch2a"
  param {
    lr_mult: 1
    decay_mult: 0
  }
  param {
    lr_mult: 1
    decay_mult: 0
  }
  scale_param {
    filler {
      type: "constant"
      value: 1
    }
    bias_term: true
    bias_filler {
      type: "constant"
      value: 0
    }
  }
}
layer {
  name: "res3a_branch2a_relu"
  type: "ReLU"
  bottom: "res3a_branch2a"
  top: "res3a_branch2a"
}
layer {
  name: "res3a_branch2b"
  type: "Convolution"
  bottom: "res3a_branch2a"
  top: "res3a_branch2b"
  param {
    lr_mult: 1
    decay_mult: 1
  }
  convolution_param {
    num_output: 128
    bias_term: false
    pad: 1
    kernel_size: 3
    stride: 1
    weight_filler {
      type: "gaussian"
      std: 0.01
    }
  }
}
layer {
  name: "bn3a_branch2b"
  type: "BatchNorm"
  bottom: "res3a_branch2b"
  top: "res3a_branch2b"
  batch_norm_param {
    moving_average_fraction: 0.999
    eps: 0.001
  }
}
layer {
  name: "scale3a_branch2b"
  type: "Scale"
  bottom: "res3a_branch2b"
  top: "res3a_branch2b"
  param {
    lr_mult: 1
    decay_mult: 0
  }
  param {
    lr_mult: 1
    decay_mult: 0
  }
  scale_param {
    filler {
      type: "constant"
      value: 1
    }
    bias_term: true
    bias_filler {
      type: "constant"
      value: 0
    }
  }
}
layer {
  name: "res3a_branch2b_relu"
  type: "ReLU"
  bottom: "res3a_branch2b"
  top: "res3a_branch2b"
}
layer {
  name: "res3a_branch2c"
  type: "Convolution"
  bottom: "res3a_branch2b"
  top: "res3a_branch2c"
  param {
    lr_mult: 1
    decay_mult: 1
  }
  convolution_param {
    num_output: 512
    bias_term: false
    pad: 0
    kernel_size: 1
    stride: 1
    weight_filler {
      type: "gaussian"
      std: 0.01
    }
  }
}
layer {
  name: "bn3a_branch2c"
  type: "BatchNorm"
  bottom: "res3a_branch2c"
  top: "res3a_branch2c"
  batch_norm_param {
    moving_average_fraction: 0.999
    eps: 0.001
  }
}
layer {
  name: "scale3a_branch2c"
  type: "Scale"
  bottom: "res3a_branch2c"
  top: "res3a_branch2c"
  param {
    lr_mult: 1
    decay_mult: 0
  }
  param {
    lr_mult: 1
    decay_mult: 0
  }
  scale_param {
    filler {
      type: "constant"
      value: 1
    }
    bias_term: true
    bias_filler {
      type: "constant"
      value: 0
    }
  }
}
layer {
  name: "res3a"
  type: "Eltwise"
  bottom: "res3a_branch1"
  bottom: "res3a_branch2c"
  top: "res3a"
}
layer {
  name: "res3a_relu"
  type: "ReLU"
  bottom: "res3a"
  top: "res3a"
}
layer {
  name: "res3b1_branch2a"
  type: "Convolution"
  bottom: "res3a"
  top: "res3b1_branch2a"
  param {
    lr_mult: 1
    decay_mult: 1
  }
  convolution_param {
    num_output: 128
    bias_term: false
    pad: 0
    kernel_size: 1
    stride: 1
    weight_filler {
      type: "gaussian"
      std: 0.01
    }
  }
}
layer {
  name: "bn3b1_branch2a"
  type: "BatchNorm"
  bottom: "res3b1_branch2a"
  top: "res3b1_branch2a"
  batch_norm_param {
    moving_average_fraction: 0.999
    eps: 0.001
  }
}
layer {
  name: "scale3b1_branch2a"
  type: "Scale"
  bottom: "res3b1_branch2a"
  top: "res3b1_branch2a"
  param {
    lr_mult: 1
    decay_mult: 0
  }
  param {
    lr_mult: 1
    decay_mult: 0
  }
  scale_param {
    filler {
      type: "constant"
      value: 1
    }
    bias_term: true
    bias_filler {
      type: "constant"
      value: 0
    }
  }
}
layer {
  name: "res3b1_branch2a_relu"
  type: "ReLU"
  bottom: "res3b1_branch2a"
  top: "res3b1_branch2a"
}
layer {
  name: "res3b1_branch2b"
  type: "Convolution"
  bottom: "res3b1_branch2a"
  top: "res3b1_branch2b"
  param {
    lr_mult: 1
    decay_mult: 1
  }
  convolution_param {
    num_output: 128
    bias_term: false
    pad: 1
    kernel_size: 3
    stride: 1
    weight_filler {
      type: "gaussian"
      std: 0.01
    }
  }
}
layer {
  name: "bn3b1_branch2b"
  type: "BatchNorm"
  bottom: "res3b1_branch2b"
  top: "res3b1_branch2b"
  batch_norm_param {
    moving_average_fraction: 0.999
    eps: 0.001
  }
}
layer {
  name: "scale3b1_branch2b"
  type: "Scale"
  bottom: "res3b1_branch2b"
  top: "res3b1_branch2b"
  param {
    lr_mult: 1
    decay_mult: 0
  }
  param {
    lr_mult: 1
    decay_mult: 0
  }
  scale_param {
    filler {
      type: "constant"
      value: 1
    }
    bias_term: true
    bias_filler {
      type: "constant"
      value: 0
    }
  }
}
layer {
  name: "res3b1_branch2b_relu"
  type: "ReLU"
  bottom: "res3b1_branch2b"
  top: "res3b1_branch2b"
}
layer {
  name: "res3b1_branch2c"
  type: "Convolution"
  bottom: "res3b1_branch2b"
  top: "res3b1_branch2c"
  param {
    lr_mult: 1
    decay_mult: 1
  }
  convolution_param {
    num_output: 512
    bias_term: false
    pad: 0
    kernel_size: 1
    stride: 1
    weight_filler {
      type: "gaussian"
      std: 0.01
    }
  }
}
layer {
  name: "bn3b1_branch2c"
  type: "BatchNorm"
  bottom: "res3b1_branch2c"
  top: "res3b1_branch2c"
  batch_norm_param {
    moving_average_fraction: 0.999
    eps: 0.001
  }
}
layer {
  name: "scale3b1_branch2c"
  type: "Scale"
  bottom: "res3b1_branch2c"
  top: "res3b1_branch2c"
  param {
    lr_mult: 1
    decay_mult: 0
  }
  param {
    lr_mult: 1
    decay_mult: 0
  }
  scale_param {
    filler {
      type: "constant"
      value: 1
    }
    bias_term: true
    bias_filler {
      type: "constant"
      value: 0
    }
  }
}
layer {
  name: "res3b1"
  type: "Eltwise"
  bottom: "res3a"
  bottom: "res3b1_branch2c"
  top: "res3b1"
}
layer {
  name: "res3b1_relu"
  type: "ReLU"
  bottom: "res3b1"
  top: "res3b1"
}
layer {
  name: "res3b2_branch2a"
  type: "Convolution"
  bottom: "res3b1"
  top: "res3b2_branch2a"
  param {
    lr_mult: 1
    decay_mult: 1
  }
  convolution_param {
    num_output: 128
    bias_term: false
    pad: 0
    kernel_size: 1
    stride: 1
    weight_filler {
      type: "gaussian"
      std: 0.01
    }
  }
}
layer {
  name: "bn3b2_branch2a"
  type: "BatchNorm"
  bottom: "res3b2_branch2a"
  top: "res3b2_branch2a"
  batch_norm_param {
    moving_average_fraction: 0.999
    eps: 0.001
  }
}
layer {
  name: "scale3b2_branch2a"
  type: "Scale"
  bottom: "res3b2_branch2a"
  top: "res3b2_branch2a"
  param {
    lr_mult: 1
    decay_mult: 0
  }
  param {
    lr_mult: 1
    decay_mult: 0
  }
  scale_param {
    filler {
      type: "constant"
      value: 1
    }
    bias_term: true
    bias_filler {
      type: "constant"
      value: 0
    }
  }
}
layer {
  name: "res3b2_branch2a_relu"
  type: "ReLU"
  bottom: "res3b2_branch2a"
  top: "res3b2_branch2a"
}
layer {
  name: "res3b2_branch2b"
  type: "Convolution"
  bottom: "res3b2_branch2a"
  top: "res3b2_branch2b"
  param {
    lr_mult: 1
    decay_mult: 1
  }
  convolution_param {
    num_output: 128
    bias_term: false
    pad: 1
    kernel_size: 3
    stride: 1
    weight_filler {
      type: "gaussian"
      std: 0.01
    }
  }
}
layer {
  name: "bn3b2_branch2b"
  type: "BatchNorm"
  bottom: "res3b2_branch2b"
  top: "res3b2_branch2b"
  batch_norm_param {
    moving_average_fraction: 0.999
    eps: 0.001
  }
}
layer {
  name: "scale3b2_branch2b"
  type: "Scale"
  bottom: "res3b2_branch2b"
  top: "res3b2_branch2b"
  param {
    lr_mult: 1
    decay_mult: 0
  }
  param {
    lr_mult: 1
    decay_mult: 0
  }
  scale_param {
    filler {
      type: "constant"
      value: 1
    }
    bias_term: true
    bias_filler {
      type: "constant"
      value: 0
    }
  }
}
layer {
  name: "res3b2_branch2b_relu"
  type: "ReLU"
  bottom: "res3b2_branch2b"
  top: "res3b2_branch2b"
}
layer {
  name: "res3b2_branch2c"
  type: "Convolution"
  bottom: "res3b2_branch2b"
  top: "res3b2_branch2c"
  param {
    lr_mult: 1
    decay_mult: 1
  }
  convolution_param {
    num_output: 512
    bias_term: false
    pad: 0
    kernel_size: 1
    stride: 1
    weight_filler {
      type: "gaussian"
      std: 0.01
    }
  }
}
layer {
  name: "bn3b2_branch2c"
  type: "BatchNorm"
  bottom: "res3b2_branch2c"
  top: "res3b2_branch2c"
  batch_norm_param {
    moving_average_fraction: 0.999
    eps: 0.001
  }
}
layer {
  name: "scale3b2_branch2c"
  type: "Scale"
  bottom: "res3b2_branch2c"
  top: "res3b2_branch2c"
  param {
    lr_mult: 1
    decay_mult: 0
  }
  param {
    lr_mult: 1
    decay_mult: 0
  }
  scale_param {
    filler {
      type: "constant"
      value: 1
    }
    bias_term: true
    bias_filler {
      type: "constant"
      value: 0
    }
  }
}
layer {
  name: "res3b2"
  type: "Eltwise"
  bottom: "res3b1"
  bottom: "res3b2_branch2c"
  top: "res3b2"
}
layer {
  name: "res3b2_relu"
  type: "ReLU"
  bottom: "res3b2"
  top: "res3b2"
}
layer {
  name: "res3b3_branch2a"
  type: "Convolution"
  bottom: "res3b2"
  top: "res3b3_branch2a"
  param {
    lr_mult: 1
    decay_mult: 1
  }
  convolution_param {
    num_output: 128
    bias_term: false
    pad: 0
    kernel_size: 1
    stride: 1
    weight_filler {
      type: "gaussian"
      std: 0.01
    }
  }
}
layer {
  name: "bn3b3_branch2a"
  type: "BatchNorm"
  bottom: "res3b3_branch2a"
  top: "res3b3_branch2a"
  batch_norm_param {
    moving_average_fraction: 0.999
    eps: 0.001
  }
}
layer {
  name: "scale3b3_branch2a"
  type: "Scale"
  bottom: "res3b3_branch2a"
  top: "res3b3_branch2a"
  param {
    lr_mult: 1
    decay_mult: 0
  }
  param {
    lr_mult: 1
    decay_mult: 0
  }
  scale_param {
    filler {
      type: "constant"
      value: 1
    }
    bias_term: true
    bias_filler {
      type: "constant"
      value: 0
    }
  }
}
layer {
  name: "res3b3_branch2a_relu"
  type: "ReLU"
  bottom: "res3b3_branch2a"
  top: "res3b3_branch2a"
}
layer {
  name: "res3b3_branch2b"
  type: "Convolution"
  bottom: "res3b3_branch2a"
  top: "res3b3_branch2b"
  param {
    lr_mult: 1
    decay_mult: 1
  }
  convolution_param {
    num_output: 128
    bias_term: false
    pad: 1
    kernel_size: 3
    stride: 1
    weight_filler {
      type: "gaussian"
      std: 0.01
    }
  }
}
layer {
  name: "bn3b3_branch2b"
  type: "BatchNorm"
  bottom: "res3b3_branch2b"
  top: "res3b3_branch2b"
  batch_norm_param {
    moving_average_fraction: 0.999
    eps: 0.001
  }
}
layer {
  name: "scale3b3_branch2b"
  type: "Scale"
  bottom: "res3b3_branch2b"
  top: "res3b3_branch2b"
  param {
    lr_mult: 1
    decay_mult: 0
  }
  param {
    lr_mult: 1
    decay_mult: 0
  }
  scale_param {
    filler {
      type: "constant"
      value: 1
    }
    bias_term: true
    bias_filler {
      type: "constant"
      value: 0
    }
  }
}
layer {
  name: "res3b3_branch2b_relu"
  type: "ReLU"
  bottom: "res3b3_branch2b"
  top: "res3b3_branch2b"
}
layer {
  name: "res3b3_branch2c"
  type: "Convolution"
  bottom: "res3b3_branch2b"
  top: "res3b3_branch2c"
  param {
    lr_mult: 1
    decay_mult: 1
  }
  convolution_param {
    num_output: 512
    bias_term: false
    pad: 0
    kernel_size: 1
    stride: 1
    weight_filler {
      type: "gaussian"
      std: 0.01
    }
  }
}
layer {
  name: "bn3b3_branch2c"
  type: "BatchNorm"
  bottom: "res3b3_branch2c"
  top: "res3b3_branch2c"
  batch_norm_param {
    moving_average_fraction: 0.999
    eps: 0.001
  }
}
layer {
  name: "scale3b3_branch2c"
  type: "Scale"
  bottom: "res3b3_branch2c"
  top: "res3b3_branch2c"
  param {
    lr_mult: 1
    decay_mult: 0
  }
  param {
    lr_mult: 1
    decay_mult: 0
  }
  scale_param {
    filler {
      type: "constant"
      value: 1
    }
    bias_term: true
    bias_filler {
      type: "constant"
      value: 0
    }
  }
}
layer {
  name: "res3b3"
  type: "Eltwise"
  bottom: "res3b2"
  bottom: "res3b3_branch2c"
  top: "res3b3"
}
layer {
  name: "res3b3_relu"
  type: "ReLU"
  bottom: "res3b3"
  top: "res3b3"
}
layer {
  name: "res4a_branch1"
  type: "Convolution"
  bottom: "res3b3"
  top: "res4a_branch1"
  param {
    lr_mult: 1
    decay_mult: 1
  }
  convolution_param {
    num_output: 1024
    bias_term: false
    pad: 0
    kernel_size: 1
    stride: 2
    weight_filler {
      type: "gaussian"
      std: 0.01
    }
  }
}
layer {
  name: "bn4a_branch1"
  type: "BatchNorm"
  bottom: "res4a_branch1"
  top: "res4a_branch1"
  batch_norm_param {
    moving_average_fraction: 0.999
    eps: 0.001
  }
}
layer {
  name: "scale4a_branch1"
  type: "Scale"
  bottom: "res4a_branch1"
  top: "res4a_branch1"
  param {
    lr_mult: 1
    decay_mult: 0
  }
  param {
    lr_mult: 1
    decay_mult: 0
  }
  scale_param {
    filler {
      type: "constant"
      value: 1
    }
    bias_term: true
    bias_filler {
      type: "constant"
      value: 0
    }
  }
}
layer {
  name: "res4a_branch2a"
  type: "Convolution"
  bottom: "res3b3"
  top: "res4a_branch2a"
  param {
    lr_mult: 1
    decay_mult: 1
  }
  convolution_param {
    num_output: 256
    bias_term: false
    pad: 0
    kernel_size: 1
    stride: 2
    weight_filler {
      type: "gaussian"
      std: 0.01
    }
  }
}
layer {
  name: "bn4a_branch2a"
  type: "BatchNorm"
  bottom: "res4a_branch2a"
  top: "res4a_branch2a"
  batch_norm_param {
    moving_average_fraction: 0.999
    eps: 0.001
  }
}
layer {
  name: "scale4a_branch2a"
  type: "Scale"
  bottom: "res4a_branch2a"
  top: "res4a_branch2a"
  param {
    lr_mult: 1
    decay_mult: 0
  }
  param {
    lr_mult: 1
    decay_mult: 0
  }
  scale_param {
    filler {
      type: "constant"
      value: 1
    }
    bias_term: true
    bias_filler {
      type: "constant"
      value: 0
    }
  }
}
layer {
  name: "res4a_branch2a_relu"
  type: "ReLU"
  bottom: "res4a_branch2a"
  top: "res4a_branch2a"
}
layer {
  name: "res4a_branch2b"
  type: "Convolution"
  bottom: "res4a_branch2a"
  top: "res4a_branch2b"
  param {
    lr_mult: 1
    decay_mult: 1
  }
  convolution_param {
    num_output: 256
    bias_term: false
    pad: 1
    kernel_size: 3
    stride: 1
    weight_filler {
      type: "gaussian"
      std: 0.01
    }
  }
}
layer {
  name: "bn4a_branch2b"
  type: "BatchNorm"
  bottom: "res4a_branch2b"
  top: "res4a_branch2b"
  batch_norm_param {
    moving_average_fraction: 0.999
    eps: 0.001
  }
}
layer {
  name: "scale4a_branch2b"
  type: "Scale"
  bottom: "res4a_branch2b"
  top: "res4a_branch2b"
  param {
    lr_mult: 1
    decay_mult: 0
  }
  param {
    lr_mult: 1
    decay_mult: 0
  }
  scale_param {
    filler {
      type: "constant"
      value: 1
    }
    bias_term: true
    bias_filler {
      type: "constant"
      value: 0
    }
  }
}
layer {
  name: "res4a_branch2b_relu"
  type: "ReLU"
  bottom: "res4a_branch2b"
  top: "res4a_branch2b"
}
layer {
  name: "res4a_branch2c"
  type: "Convolution"
  bottom: "res4a_branch2b"
  top: "res4a_branch2c"
  param {
    lr_mult: 1
    decay_mult: 1
  }
  convolution_param {
    num_output: 1024
    bias_term: false
    pad: 0
    kernel_size: 1
    stride: 1
    weight_filler {
      type: "gaussian"
      std: 0.01
    }
  }
}
layer {
  name: "bn4a_branch2c"
  type: "BatchNorm"
  bottom: "res4a_branch2c"
  top: "res4a_branch2c"
  batch_norm_param {
    moving_average_fraction: 0.999
    eps: 0.001
  }
}
layer {
  name: "scale4a_branch2c"
  type: 
I0725 11:30:49.871465  6915 layer_factory.hpp:77] Creating layer data
I0725 11:30:49.871678  6915 net.cpp:100] Creating Layer data
I0725 11:30:49.871701  6915 net.cpp:408] data -> data
I0725 11:30:49.871750  6915 net.cpp:408] data -> label
I0725 11:30:49.873045  6926 db_lmdb.cpp:35] Opened lmdb examples/bdc2018/bdc2018_train_name_lmdb
I0725 11:30:49.890908  6915 annotated_data_layer.cpp:62] output data size: 2,3,512,512
I0725 11:30:49.901176  6915 net.cpp:150] Setting up data
I0725 11:30:49.901208  6915 net.cpp:157] Top shape: 2 3 512 512 (1572864)
I0725 11:30:49.901213  6915 net.cpp:157] Top shape: 1 1 1 8 (8)
I0725 11:30:49.901216  6915 net.cpp:165] Memory required for data: 6291488
I0725 11:30:49.901226  6915 layer_factory.hpp:77] Creating layer data_data_0_split
I0725 11:30:49.901239  6915 net.cpp:100] Creating Layer data_data_0_split
I0725 11:30:49.901247  6915 net.cpp:434] data_data_0_split <- data
I0725 11:30:49.901268  6915 net.cpp:408] data_data_0_split -> data_data_0_split_0
I0725 11:30:49.901294  6915 net.cpp:408] data_data_0_split -> data_data_0_split_1
I0725 11:30:49.901321  6915 net.cpp:408] data_data_0_split -> data_data_0_split_2
I0725 11:30:49.901336  6915 net.cpp:408] data_data_0_split -> data_data_0_split_3
I0725 11:30:49.901350  6915 net.cpp:408] data_data_0_split -> data_data_0_split_4
I0725 11:30:49.901389  6915 net.cpp:408] data_data_0_split -> data_data_0_split_5
I0725 11:30:49.901410  6915 net.cpp:408] data_data_0_split -> data_data_0_split_6
I0725 11:30:49.901531  6915 net.cpp:150] Setting up data_data_0_split
I0725 11:30:49.901543  6915 net.cpp:157] Top shape: 2 3 512 512 (1572864)
I0725 11:30:49.901547  6915 net.cpp:157] Top shape: 2 3 512 512 (1572864)
I0725 11:30:49.901552  6915 net.cpp:157] Top shape: 2 3 512 512 (1572864)
I0725 11:30:49.901558  6915 net.cpp:157] Top shape: 2 3 512 512 (1572864)
I0725 11:30:49.901564  6915 net.cpp:157] Top shape: 2 3 512 512 (1572864)
I0725 11:30:49.901571  6915 net.cpp:157] Top shape: 2 3 512 512 (1572864)
I0725 11:30:49.901577  6915 net.cpp:157] Top shape: 2 3 512 512 (1572864)
I0725 11:30:49.901582  6915 net.cpp:165] Memory required for data: 50331680
I0725 11:30:49.901587  6915 layer_factory.hpp:77] Creating layer conv1
I0725 11:30:49.901613  6915 net.cpp:100] Creating Layer conv1
I0725 11:30:49.901623  6915 net.cpp:434] conv1 <- data_data_0_split_0
I0725 11:30:49.901638  6915 net.cpp:408] conv1 -> conv1
I0725 11:30:49.959395  6927 blocking_queue.cpp:50] Waiting for data
I0725 11:30:50.166585  6915 net.cpp:150] Setting up conv1
I0725 11:30:50.166625  6915 net.cpp:157] Top shape: 2 64 256 256 (8388608)
I0725 11:30:50.166630  6915 net.cpp:165] Memory required for data: 83886112
I0725 11:30:50.166649  6915 layer_factory.hpp:77] Creating layer bn_conv1
I0725 11:30:50.166664  6915 net.cpp:100] Creating Layer bn_conv1
I0725 11:30:50.166674  6915 net.cpp:434] bn_conv1 <- conv1
I0725 11:30:50.166684  6915 net.cpp:395] bn_conv1 -> conv1 (in-place)
I0725 11:30:50.167987  6915 net.cpp:150] Setting up bn_conv1
I0725 11:30:50.168004  6915 net.cpp:157] Top shape: 2 64 256 256 (8388608)
I0725 11:30:50.168007  6915 net.cpp:165] Memory required for data: 117440544
I0725 11:30:50.168031  6915 layer_factory.hpp:77] Creating layer scale_conv1
I0725 11:30:50.168054  6915 net.cpp:100] Creating Layer scale_conv1
I0725 11:30:50.168076  6915 net.cpp:434] scale_conv1 <- conv1
I0725 11:30:50.168085  6915 net.cpp:395] scale_conv1 -> conv1 (in-place)
I0725 11:30:50.168151  6915 layer_factory.hpp:77] Creating layer scale_conv1
I0725 11:30:50.168350  6915 net.cpp:150] Setting up scale_conv1
I0725 11:30:50.168362  6915 net.cpp:157] Top shape: 2 64 256 256 (8388608)
I0725 11:30:50.168365  6915 net.cpp:165] Memory required for data: 150994976
I0725 11:30:50.168375  6915 layer_factory.hpp:77] Creating layer conv1_relu
I0725 11:30:50.168385  6915 net.cpp:100] Creating Layer conv1_relu
I0725 11:30:50.168393  6915 net.cpp:434] conv1_relu <- conv1
I0725 11:30:50.168402  6915 net.cpp:395] conv1_relu -> conv1 (in-place)
I0725 11:30:50.168588  6915 net.cpp:150] Setting up conv1_relu
I0725 11:30:50.168601  6915 net.cpp:157] Top shape: 2 64 256 256 (8388608)
I0725 11:30:50.168604  6915 net.cpp:165] Memory required for data: 184549408
I0725 11:30:50.168608  6915 layer_factory.hpp:77] Creating layer pool1
I0725 11:30:50.168618  6915 net.cpp:100] Creating Layer pool1
I0725 11:30:50.168624  6915 net.cpp:434] pool1 <- conv1
I0725 11:30:50.168633  6915 net.cpp:408] pool1 -> pool1
I0725 11:30:50.168701  6915 net.cpp:150] Setting up pool1
I0725 11:30:50.168712  6915 net.cpp:157] Top shape: 2 64 128 128 (2097152)
I0725 11:30:50.168715  6915 net.cpp:165] Memory required for data: 192938016
I0725 11:30:50.168720  6915 layer_factory.hpp:77] Creating layer pool1_pool1_0_split
I0725 11:30:50.168727  6915 net.cpp:100] Creating Layer pool1_pool1_0_split
I0725 11:30:50.168733  6915 net.cpp:434] pool1_pool1_0_split <- pool1
I0725 11:30:50.168741  6915 net.cpp:408] pool1_pool1_0_split -> pool1_pool1_0_split_0
I0725 11:30:50.168751  6915 net.cpp:408] pool1_pool1_0_split -> pool1_pool1_0_split_1
I0725 11:30:50.168803  6915 net.cpp:150] Setting up pool1_pool1_0_split
I0725 11:30:50.168813  6915 net.cpp:157] Top shape: 2 64 128 128 (2097152)
I0725 11:30:50.168817  6915 net.cpp:157] Top shape: 2 64 128 128 (2097152)
I0725 11:30:50.168820  6915 net.cpp:165] Memory required for data: 209715232
I0725 11:30:50.168824  6915 layer_factory.hpp:77] Creating layer res2a_branch1
I0725 11:30:50.168870  6915 net.cpp:100] Creating Layer res2a_branch1
I0725 11:30:50.168880  6915 net.cpp:434] res2a_branch1 <- pool1_pool1_0_split_0
I0725 11:30:50.168890  6915 net.cpp:408] res2a_branch1 -> res2a_branch1
I0725 11:30:50.169939  6915 net.cpp:150] Setting up res2a_branch1
I0725 11:30:50.169955  6915 net.cpp:157] Top shape: 2 256 128 128 (8388608)
I0725 11:30:50.169970  6915 net.cpp:165] Memory required for data: 243269664
I0725 11:30:50.169975  6915 layer_factory.hpp:77] Creating layer bn2a_branch1
I0725 11:30:50.169981  6915 net.cpp:100] Creating Layer bn2a_branch1
I0725 11:30:50.169984  6915 net.cpp:434] bn2a_branch1 <- res2a_branch1
I0725 11:30:50.169989  6915 net.cpp:395] bn2a_branch1 -> res2a_branch1 (in-place)
I0725 11:30:50.170207  6915 net.cpp:150] Setting up bn2a_branch1
I0725 11:30:50.170222  6915 net.cpp:157] Top shape: 2 256 128 128 (8388608)
I0725 11:30:50.170224  6915 net.cpp:165] Memory required for data: 276824096
I0725 11:30:50.170238  6915 layer_factory.hpp:77] Creating layer scale2a_branch1
I0725 11:30:50.170250  6915 net.cpp:100] Creating Layer scale2a_branch1
I0725 11:30:50.170259  6915 net.cpp:434] scale2a_branch1 <- res2a_branch1
I0725 11:30:50.170269  6915 net.cpp:395] scale2a_branch1 -> res2a_branch1 (in-place)
I0725 11:30:50.170326  6915 layer_factory.hpp:77] Creating layer scale2a_branch1
I0725 11:30:50.170475  6915 net.cpp:150] Setting up scale2a_branch1
I0725 11:30:50.170486  6915 net.cpp:157] Top shape: 2 256 128 128 (8388608)
I0725 11:30:50.170490  6915 net.cpp:165] Memory required for data: 310378528
I0725 11:30:50.170496  6915 layer_factory.hpp:77] Creating layer res2a_branch2a
I0725 11:30:50.170513  6915 net.cpp:100] Creating Layer res2a_branch2a
I0725 11:30:50.170522  6915 net.cpp:434] res2a_branch2a <- pool1_pool1_0_split_1
I0725 11:30:50.170532  6915 net.cpp:408] res2a_branch2a -> res2a_branch2a
I0725 11:30:50.172510  6915 net.cpp:150] Setting up res2a_branch2a
I0725 11:30:50.172538  6915 net.cpp:157] Top shape: 2 64 128 128 (2097152)
I0725 11:30:50.172543  6915 net.cpp:165] Memory required for data: 318767136
I0725 11:30:50.172549  6915 layer_factory.hpp:77] Creating layer bn2a_branch2a
I0725 11:30:50.172554  6915 net.cpp:100] Creating Layer bn2a_branch2a
I0725 11:30:50.172557  6915 net.cpp:434] bn2a_branch2a <- res2a_branch2a
I0725 11:30:50.172565  6915 net.cpp:395] bn2a_branch2a -> res2a_branch2a (in-place)
I0725 11:30:50.172807  6915 net.cpp:150] Setting up bn2a_branch2a
I0725 11:30:50.172821  6915 net.cpp:157] Top shape: 2 64 128 128 (2097152)
I0725 11:30:50.172824  6915 net.cpp:165] Memory required for data: 327155744
I0725 11:30:50.172834  6915 layer_factory.hpp:77] Creating layer scale2a_branch2a
I0725 11:30:50.172845  6915 net.cpp:100] Creating Layer scale2a_branch2a
I0725 11:30:50.172853  6915 net.cpp:434] scale2a_branch2a <- res2a_branch2a
I0725 11:30:50.172863  6915 net.cpp:395] scale2a_branch2a -> res2a_branch2a (in-place)
I0725 11:30:50.172925  6915 layer_factory.hpp:77] Creating layer scale2a_branch2a
I0725 11:30:50.173084  6915 net.cpp:150] Setting up scale2a_branch2a
I0725 11:30:50.173096  6915 net.cpp:157] Top shape: 2 64 128 128 (2097152)
I0725 11:30:50.173099  6915 net.cpp:165] Memory required for data: 335544352
I0725 11:30:50.173115  6915 layer_factory.hpp:77] Creating layer res2a_branch2a_relu
I0725 11:30:50.173126  6915 net.cpp:100] Creating Layer res2a_branch2a_relu
I0725 11:30:50.173132  6915 net.cpp:434] res2a_branch2a_relu <- res2a_branch2a
I0725 11:30:50.173143  6915 net.cpp:395] res2a_branch2a_relu -> res2a_branch2a (in-place)
I0725 11:30:50.173333  6915 net.cpp:150] Setting up res2a_branch2a_relu
I0725 11:30:50.173346  6915 net.cpp:157] Top shape: 2 64 128 128 (2097152)
I0725 11:30:50.173349  6915 net.cpp:165] Memory required for data: 343932960
I0725 11:30:50.173352  6915 layer_factory.hpp:77] Creating layer res2a_branch2b
I0725 11:30:50.173368  6915 net.cpp:100] Creating Layer res2a_branch2b
I0725 11:30:50.173377  6915 net.cpp:434] res2a_branch2b <- res2a_branch2a
I0725 11:30:50.173388  6915 net.cpp:408] res2a_branch2b -> res2a_branch2b
I0725 11:30:50.174860  6915 net.cpp:150] Setting up res2a_branch2b
I0725 11:30:50.174886  6915 net.cpp:157] Top shape: 2 64 128 128 (2097152)
I0725 11:30:50.174890  6915 net.cpp:165] Memory required for data: 352321568
I0725 11:30:50.174896  6915 layer_factory.hpp:77] Creating layer bn2a_branch2b
I0725 11:30:50.174908  6915 net.cpp:100] Creating Layer bn2a_branch2b
I0725 11:30:50.174912  6915 net.cpp:434] bn2a_branch2b <- res2a_branch2b
I0725 11:30:50.174917  6915 net.cpp:395] bn2a_branch2b -> res2a_branch2b (in-place)
I0725 11:30:50.175158  6915 net.cpp:150] Setting up bn2a_branch2b
I0725 11:30:50.175169  6915 net.cpp:157] Top shape: 2 64 128 128 (2097152)
I0725 11:30:50.175173  6915 net.cpp:165] Memory required for data: 360710176
I0725 11:30:50.175181  6915 layer_factory.hpp:77] Creating layer scale2a_branch2b
I0725 11:30:50.175191  6915 net.cpp:100] Creating Layer scale2a_branch2b
I0725 11:30:50.175197  6915 net.cpp:434] scale2a_branch2b <- res2a_branch2b
I0725 11:30:50.175206  6915 net.cpp:395] scale2a_branch2b -> res2a_branch2b (in-place)
I0725 11:30:50.175271  6915 layer_factory.hpp:77] Creating layer scale2a_branch2b
I0725 11:30:50.175436  6915 net.cpp:150] Setting up scale2a_branch2b
I0725 11:30:50.175448  6915 net.cpp:157] Top shape: 2 64 128 128 (2097152)
I0725 11:30:50.175452  6915 net.cpp:165] Memory required for data: 369098784
I0725 11:30:50.175459  6915 layer_factory.hpp:77] Creating layer res2a_branch2b_relu
I0725 11:30:50.175467  6915 net.cpp:100] Creating Layer res2a_branch2b_relu
I0725 11:30:50.175473  6915 net.cpp:434] res2a_branch2b_relu <- res2a_branch2b
I0725 11:30:50.175482  6915 net.cpp:395] res2a_branch2b_relu -> res2a_branch2b (in-place)
I0725 11:30:50.175675  6915 net.cpp:150] Setting up res2a_branch2b_relu
I0725 11:30:50.175688  6915 net.cpp:157] Top shape: 2 64 128 128 (2097152)
I0725 11:30:50.175690  6915 net.cpp:165] Memory required for data: 377487392
I0725 11:30:50.175694  6915 layer_factory.hpp:77] Creating layer res2a_branch2c
I0725 11:30:50.175709  6915 net.cpp:100] Creating Layer res2a_branch2c
I0725 11:30:50.175714  6915 net.cpp:434] res2a_branch2c <- res2a_branch2b
I0725 11:30:50.175726  6915 net.cpp:408] res2a_branch2c -> res2a_branch2c
I0725 11:30:50.176887  6915 net.cpp:150] Setting up res2a_branch2c
I0725 11:30:50.176913  6915 net.cpp:157] Top shape: 2 256 128 128 (8388608)
I0725 11:30:50.176918  6915 net.cpp:165] Memory required for data: 411041824
I0725 11:30:50.176923  6915 layer_factory.hpp:77] Creating layer bn2a_branch2c
I0725 11:30:50.176931  6915 net.cpp:100] Creating Layer bn2a_branch2c
I0725 11:30:50.176935  6915 net.cpp:434] bn2a_branch2c <- res2a_branch2c
I0725 11:30:50.176940  6915 net.cpp:395] bn2a_branch2c -> res2a_branch2c (in-place)
I0725 11:30:50.177165  6915 net.cpp:150] Setting up bn2a_branch2c
I0725 11:30:50.177181  6915 net.cpp:157] Top shape: 2 256 128 128 (8388608)
I0725 11:30:50.177184  6915 net.cpp:165] Memory required for data: 444596256
I0725 11:30:50.177196  6915 layer_factory.hpp:77] Creating layer scale2a_branch2c
I0725 11:30:50.177206  6915 net.cpp:100] Creating Layer scale2a_branch2c
I0725 11:30:50.177212  6915 net.cpp:434] scale2a_branch2c <- res2a_branch2c
I0725 11:30:50.177222  6915 net.cpp:395] scale2a_branch2c -> res2a_branch2c (in-place)
I0725 11:30:50.177284  6915 layer_factory.hpp:77] Creating layer scale2a_branch2c
I0725 11:30:50.177438  6915 net.cpp:150] Setting up scale2a_branch2c
I0725 11:30:50.177448  6915 net.cpp:157] Top shape: 2 256 128 128 (8388608)
I0725 11:30:50.177451  6915 net.cpp:165] Memory required for data: 478150688
I0725 11:30:50.177459  6915 layer_factory.hpp:77] Creating layer res2a
I0725 11:30:50.177467  6915 net.cpp:100] Creating Layer res2a
I0725 11:30:50.177474  6915 net.cpp:434] res2a <- res2a_branch1
I0725 11:30:50.177479  6915 net.cpp:434] res2a <- res2a_branch2c
I0725 11:30:50.177490  6915 net.cpp:408] res2a -> res2a
I0725 11:30:50.177529  6915 net.cpp:150] Setting up res2a
I0725 11:30:50.177541  6915 net.cpp:157] Top shape: 2 256 128 128 (8388608)
I0725 11:30:50.177561  6915 net.cpp:165] Memory required for data: 511705120
I0725 11:30:50.177567  6915 layer_factory.hpp:77] Creating layer res2a_relu
I0725 11:30:50.177578  6915 net.cpp:100] Creating Layer res2a_relu
I0725 11:30:50.177585  6915 net.cpp:434] res2a_relu <- res2a
I0725 11:30:50.177593  6915 net.cpp:395] res2a_relu -> res2a (in-place)
I0725 11:30:50.177790  6915 net.cpp:150] Setting up res2a_relu
I0725 11:30:50.177803  6915 net.cpp:157] Top shape: 2 256 128 128 (8388608)
I0725 11:30:50.177806  6915 net.cpp:165] Memory required for data: 545259552
I0725 11:30:50.177809  6915 layer_factory.hpp:77] Creating layer res2a_res2a_relu_0_split
I0725 11:30:50.177819  6915 net.cpp:100] Creating Layer res2a_res2a_relu_0_split
I0725 11:30:50.177825  6915 net.cpp:434] res2a_res2a_relu_0_split <- res2a
I0725 11:30:50.177834  6915 net.cpp:408] res2a_res2a_relu_0_split -> res2a_res2a_relu_0_split_0
I0725 11:30:50.177846  6915 net.cpp:408] res2a_res2a_relu_0_split -> res2a_res2a_relu_0_split_1
I0725 11:30:50.177907  6915 net.cpp:150] Setting up res2a_res2a_relu_0_split
I0725 11:30:50.177917  6915 net.cpp:157] Top shape: 2 256 128 128 (8388608)
I0725 11:30:50.177922  6915 net.cpp:157] Top shape: 2 256 128 128 (8388608)
I0725 11:30:50.177924  6915 net.cpp:165] Memory required for data: 612368416
I0725 11:30:50.177928  6915 layer_factory.hpp:77] Creating layer res2b_branch2a
I0725 11:30:50.177943  6915 net.cpp:100] Creating Layer res2b_branch2a
I0725 11:30:50.177953  6915 net.cpp:434] res2b_branch2a <- res2a_res2a_relu_0_split_0
I0725 11:30:50.177964  6915 net.cpp:408] res2b_branch2a -> res2b_branch2a
I0725 11:30:50.179097  6915 net.cpp:150] Setting up res2b_branch2a
I0725 11:30:50.179111  6915 net.cpp:157] Top shape: 2 64 128 128 (2097152)
I0725 11:30:50.179126  6915 net.cpp:165] Memory required for data: 620757024
I0725 11:30:50.179132  6915 layer_factory.hpp:77] Creating layer bn2b_branch2a
I0725 11:30:50.179141  6915 net.cpp:100] Creating Layer bn2b_branch2a
I0725 11:30:50.179143  6915 net.cpp:434] bn2b_branch2a <- res2b_branch2a
I0725 11:30:50.179148  6915 net.cpp:395] bn2b_branch2a -> res2b_branch2a (in-place)
I0725 11:30:50.179388  6915 net.cpp:150] Setting up bn2b_branch2a
I0725 11:30:50.179401  6915 net.cpp:157] Top shape: 2 64 128 128 (2097152)
I0725 11:30:50.179404  6915 net.cpp:165] Memory required for data: 629145632
I0725 11:30:50.179417  6915 layer_factory.hpp:77] Creating layer scale2b_branch2a
I0725 11:30:50.179433  6915 net.cpp:100] Creating Layer scale2b_branch2a
I0725 11:30:50.179443  6915 net.cpp:434] scale2b_branch2a <- res2b_branch2a
I0725 11:30:50.179455  6915 net.cpp:395] scale2b_branch2a -> res2b_branch2a (in-place)
I0725 11:30:50.179518  6915 layer_factory.hpp:77] Creating layer scale2b_branch2a
I0725 11:30:50.179687  6915 net.cpp:150] Setting up scale2b_branch2a
I0725 11:30:50.179698  6915 net.cpp:157] Top shape: 2 64 128 128 (2097152)
I0725 11:30:50.179702  6915 net.cpp:165] Memory required for data: 637534240
I0725 11:30:50.179708  6915 layer_factory.hpp:77] Creating layer res2b_branch2a_relu
I0725 11:30:50.179718  6915 net.cpp:100] Creating Layer res2b_branch2a_relu
I0725 11:30:50.179723  6915 net.cpp:434] res2b_branch2a_relu <- res2b_branch2a
I0725 11:30:50.179733  6915 net.cpp:395] res2b_branch2a_relu -> res2b_branch2a (in-place)
I0725 11:30:50.179929  6915 net.cpp:150] Setting up res2b_branch2a_relu
I0725 11:30:50.179942  6915 net.cpp:157] Top shape: 2 64 128 128 (2097152)
I0725 11:30:50.179946  6915 net.cpp:165] Memory required for data: 645922848
I0725 11:30:50.179950  6915 layer_factory.hpp:77] Creating layer res2b_branch2b
I0725 11:30:50.179965  6915 net.cpp:100] Creating Layer res2b_branch2b
I0725 11:30:50.179973  6915 net.cpp:434] res2b_branch2b <- res2b_branch2a
I0725 11:30:50.179985  6915 net.cpp:408] res2b_branch2b -> res2b_branch2b
I0725 11:30:50.181444  6915 net.cpp:150] Setting up res2b_branch2b
I0725 11:30:50.181471  6915 net.cpp:157] Top shape: 2 64 128 128 (2097152)
I0725 11:30:50.181475  6915 net.cpp:165] Memory required for data: 654311456
I0725 11:30:50.181480  6915 layer_factory.hpp:77] Creating layer bn2b_branch2b
I0725 11:30:50.181497  6915 net.cpp:100] Creating Layer bn2b_branch2b
I0725 11:30:50.181501  6915 net.cpp:434] bn2b_branch2b <- res2b_branch2b
I0725 11:30:50.181509  6915 net.cpp:395] bn2b_branch2b -> res2b_branch2b (in-place)
I0725 11:30:50.181754  6915 net.cpp:150] Setting up bn2b_branch2b
I0725 11:30:50.181767  6915 net.cpp:157] Top shape: 2 64 128 128 (2097152)
I0725 11:30:50.181771  6915 net.cpp:165] Memory required for data: 662700064
I0725 11:30:50.181779  6915 layer_factory.hpp:77] Creating layer scale2b_branch2b
I0725 11:30:50.181789  6915 net.cpp:100] Creating Layer scale2b_branch2b
I0725 11:30:50.181795  6915 net.cpp:434] scale2b_branch2b <- res2b_branch2b
I0725 11:30:50.181807  6915 net.cpp:395] scale2b_branch2b -> res2b_branch2b (in-place)
I0725 11:30:50.181872  6915 layer_factory.hpp:77] Creating layer scale2b_branch2b
I0725 11:30:50.182039  6915 net.cpp:150] Setting up scale2b_branch2b
I0725 11:30:50.182051  6915 net.cpp:157] Top shape: 2 64 128 128 (2097152)
I0725 11:30:50.182054  6915 net.cpp:165] Memory required for data: 671088672
I0725 11:30:50.182072  6915 layer_factory.hpp:77] Creating layer res2b_branch2b_relu
I0725 11:30:50.182091  6915 net.cpp:100] Creating Layer res2b_branch2b_relu
I0725 11:30:50.182101  6915 net.cpp:434] res2b_branch2b_relu <- res2b_branch2b
I0725 11:30:50.182109  6915 net.cpp:395] res2b_branch2b_relu -> res2b_branch2b (in-place)
I0725 11:30:50.182502  6915 net.cpp:150] Setting up res2b_branch2b_relu
I0725 11:30:50.182515  6915 net.cpp:157] Top shape: 2 64 128 128 (2097152)
I0725 11:30:50.182529  6915 net.cpp:165] Memory required for data: 679477280
I0725 11:30:50.182533  6915 layer_factory.hpp:77] Creating layer res2b_branch2c
I0725 11:30:50.182545  6915 net.cpp:100] Creating Layer res2b_branch2c
I0725 11:30:50.182549  6915 net.cpp:434] res2b_branch2c <- res2b_branch2b
I0725 11:30:50.182565  6915 net.cpp:408] res2b_branch2c -> res2b_branch2c
I0725 11:30:50.183689  6915 net.cpp:150] Setting up res2b_branch2c
I0725 11:30:50.183702  6915 net.cpp:157] Top shape: 2 256 128 128 (8388608)
I0725 11:30:50.183717  6915 net.cpp:165] Memory required for data: 713031712
I0725 11:30:50.183722  6915 layer_factory.hpp:77] Creating layer bn2b_branch2c
I0725 11:30:50.183729  6915 net.cpp:100] Creating Layer bn2b_branch2c
I0725 11:30:50.183733  6915 net.cpp:434] bn2b_branch2c <- res2b_branch2c
I0725 11:30:50.183738  6915 net.cpp:395] bn2b_branch2c -> res2b_branch2c (in-place)
I0725 11:30:50.183986  6915 net.cpp:150] Setting up bn2b_branch2c
I0725 11:30:50.183998  6915 net.cpp:157] Top shape: 2 256 128 128 (8388608)
I0725 11:30:50.184001  6915 net.cpp:165] Memory required for data: 746586144
I0725 11:30:50.184010  6915 layer_factory.hpp:77] Creating layer scale2b_branch2c
I0725 11:30:50.184029  6915 net.cpp:100] Creating Layer scale2b_branch2c
I0725 11:30:50.184037  6915 net.cpp:434] scale2b_branch2c <- res2b_branch2c
I0725 11:30:50.184046  6915 net.cpp:395] scale2b_branch2c -> res2b_branch2c (in-place)
I0725 11:30:50.184110  6915 layer_factory.hpp:77] Creating layer scale2b_branch2c
I0725 11:30:50.184270  6915 net.cpp:150] Setting up scale2b_branch2c
I0725 11:30:50.184283  6915 net.cpp:157] Top shape: 2 256 128 128 (8388608)
I0725 11:30:50.184285  6915 net.cpp:165] Memory required for data: 780140576
I0725 11:30:50.184293  6915 layer_factory.hpp:77] Creating layer res2b
I0725 11:30:50.184300  6915 net.cpp:100] Creating Layer res2b
I0725 11:30:50.184306  6915 net.cpp:434] res2b <- res2a_res2a_relu_0_split_1
I0725 11:30:50.184314  6915 net.cpp:434] res2b <- res2b_branch2c
I0725 11:30:50.184324  6915 net.cpp:408] res2b -> res2b
I0725 11:30:50.184362  6915 net.cpp:150] Setting up res2b
I0725 11:30:50.184375  6915 net.cpp:157] Top shape: 2 256 128 128 (8388608)
I0725 11:30:50.184378  6915 net.cpp:165] Memory required for data: 813695008
I0725 11:30:50.184381  6915 layer_factory.hpp:77] Creating layer res2b_relu
I0725 11:30:50.184393  6915 net.cpp:100] Creating Layer res2b_relu
I0725 11:30:50.184399  6915 net.cpp:434] res2b_relu <- res2b
I0725 11:30:50.184406  6915 net.cpp:395] res2b_relu -> res2b (in-place)
I0725 11:30:50.184623  6915 net.cpp:150] Setting up res2b_relu
I0725 11:30:50.184636  6915 net.cpp:157] Top shape: 2 256 128 128 (8388608)
I0725 11:30:50.184639  6915 net.cpp:165] Memory required for data: 847249440
I0725 11:30:50.184643  6915 layer_factory.hpp:77] Creating layer res2b_res2b_relu_0_split
I0725 11:30:50.184653  6915 net.cpp:100] Creating Layer res2b_res2b_relu_0_split
I0725 11:30:50.184659  6915 net.cpp:434] res2b_res2b_relu_0_split <- res2b
I0725 11:30:50.184667  6915 net.cpp:408] res2b_res2b_relu_0_split -> res2b_res2b_relu_0_split_0
I0725 11:30:50.184679  6915 net.cpp:408] res2b_res2b_relu_0_split -> res2b_res2b_relu_0_split_1
I0725 11:30:50.184742  6915 net.cpp:150] Setting up res2b_res2b_relu_0_split
I0725 11:30:50.184753  6915 net.cpp:157] Top shape: 2 256 128 128 (8388608)
I0725 11:30:50.184757  6915 net.cpp:157] Top shape: 2 256 128 128 (8388608)
I0725 11:30:50.184761  6915 net.cpp:165] Memory required for data: 914358304
I0725 11:30:50.184764  6915 layer_factory.hpp:77] Creating layer res2c_branch2a
I0725 11:30:50.184779  6915 net.cpp:100] Creating Layer res2c_branch2a
I0725 11:30:50.184788  6915 net.cpp:434] res2c_branch2a <- res2b_res2b_relu_0_split_0
I0725 11:30:50.184801  6915 net.cpp:408] res2c_branch2a -> res2c_branch2a
I0725 11:30:50.185943  6915 net.cpp:150] Setting up res2c_branch2a
I0725 11:30:50.185969  6915 net.cpp:157] Top shape: 2 64 128 128 (2097152)
I0725 11:30:50.185973  6915 net.cpp:165] Memory required for data: 922746912
I0725 11:30:50.185978  6915 layer_factory.hpp:77] Creating layer bn2c_branch2a
I0725 11:30:50.185987  6915 net.cpp:100] Creating Layer bn2c_branch2a
I0725 11:30:50.185992  6915 net.cpp:434] bn2c_branch2a <- res2c_branch2a
I0725 11:30:50.185997  6915 net.cpp:395] bn2c_branch2a -> res2c_branch2a (in-place)
I0725 11:30:50.186244  6915 net.cpp:150] Setting up bn2c_branch2a
I0725 11:30:50.186256  6915 net.cpp:157] Top shape: 2 64 128 128 (2097152)
I0725 11:30:50.186259  6915 net.cpp:165] Memory required for data: 931135520
I0725 11:30:50.186269  6915 layer_factory.hpp:77] Creating layer scale2c_branch2a
I0725 11:30:50.186278  6915 net.cpp:100] Creating Layer scale2c_branch2a
I0725 11:30:50.186285  6915 net.cpp:434] scale2c_branch2a <- res2c_branch2a
I0725 11:30:50.186298  6915 net.cpp:395] scale2c_branch2a -> res2c_branch2a (in-place)
I0725 11:30:50.186365  6915 layer_factory.hpp:77] Creating layer scale2c_branch2a
I0725 11:30:50.186532  6915 net.cpp:150] Setting up scale2c_branch2a
I0725 11:30:50.186543  6915 net.cpp:157] Top shape: 2 64 128 128 (2097152)
I0725 11:30:50.186547  6915 net.cpp:165] Memory required for data: 939524128
I0725 11:30:50.186553  6915 layer_factory.hpp:77] Creating layer res2c_branch2a_relu
I0725 11:30:50.186563  6915 net.cpp:100] Creating Layer res2c_branch2a_relu
I0725 11:30:50.186568  6915 net.cpp:434] res2c_branch2a_relu <- res2c_branch2a
I0725 11:30:50.186575  6915 net.cpp:395] res2c_branch2a_relu -> res2c_branch2a (in-place)
I0725 11:30:50.186780  6915 net.cpp:150] Setting up res2c_branch2a_relu
I0725 11:30:50.186794  6915 net.cpp:157] Top shape: 2 64 128 128 (2097152)
I0725 11:30:50.186796  6915 net.cpp:165] Memory required for data: 947912736
I0725 11:30:50.186800  6915 layer_factory.hpp:77] Creating layer res2c_branch2b
I0725 11:30:50.186813  6915 net.cpp:100] Creating Layer res2c_branch2b
I0725 11:30:50.186825  6915 net.cpp:434] res2c_branch2b <- res2c_branch2a
I0725 11:30:50.186834  6915 net.cpp:408] res2c_branch2b -> res2c_branch2b
I0725 11:30:50.188338  6915 net.cpp:150] Setting up res2c_branch2b
I0725 11:30:50.188365  6915 net.cpp:157] Top shape: 2 64 128 128 (2097152)
I0725 11:30:50.188369  6915 net.cpp:165] Memory required for data: 956301344
I0725 11:30:50.188374  6915 layer_factory.hpp:77] Creating layer bn2c_branch2b
I0725 11:30:50.188382  6915 net.cpp:100] Creating Layer bn2c_branch2b
I0725 11:30:50.188386  6915 net.cpp:434] bn2c_branch2b <- res2c_branch2b
I0725 11:30:50.188391  6915 net.cpp:395] bn2c_branch2b -> res2c_branch2b (in-place)
I0725 11:30:50.188634  6915 net.cpp:150] Setting up bn2c_branch2b
I0725 11:30:50.188658  6915 net.cpp:157] Top shape: 2 64 128 128 (2097152)
I0725 11:30:50.188663  6915 net.cpp:165] Memory required for data: 964689952
I0725 11:30:50.188671  6915 layer_factory.hpp:77] Creating layer scale2c_branch2b
I0725 11:30:50.188684  6915 net.cpp:100] Creating Layer scale2c_branch2b
I0725 11:30:50.188704  6915 net.cpp:434] scale2c_branch2b <- res2c_branch2b
I0725 11:30:50.188714  6915 net.cpp:395] scale2c_branch2b -> res2c_branch2b (in-place)
I0725 11:30:50.188781  6915 layer_factory.hpp:77] Creating layer scale2c_branch2b
I0725 11:30:50.189882  6915 net.cpp:150] Setting up scale2c_branch2b
I0725 11:30:50.189895  6915 net.cpp:157] Top shape: 2 64 128 128 (2097152)
I0725 11:30:50.189909  6915 net.cpp:165] Memory required for data: 973078560
I0725 11:30:50.189915  6915 layer_factory.hpp:77] Creating layer res2c_branch2b_relu
I0725 11:30:50.189921  6915 net.cpp:100] Creating Layer res2c_branch2b_relu
I0725 11:30:50.189925  6915 net.cpp:434] res2c_branch2b_relu <- res2c_branch2b
I0725 11:30:50.189931  6915 net.cpp:395] res2c_branch2b_relu -> res2c_branch2b (in-place)
I0725 11:30:50.190165  6915 net.cpp:150] Setting up res2c_branch2b_relu
I0725 11:30:50.190178  6915 net.cpp:157] Top shape: 2 64 128 128 (2097152)
I0725 11:30:50.190181  6915 net.cpp:165] Memory required for data: 981467168
I0725 11:30:50.190186  6915 layer_factory.hpp:77] Creating layer res2c_branch2c
I0725 11:30:50.190198  6915 net.cpp:100] Creating Layer res2c_branch2c
I0725 11:30:50.190205  6915 net.cpp:434] res2c_branch2c <- res2c_branch2b
I0725 11:30:50.190215  6915 net.cpp:408] res2c_branch2c -> res2c_branch2c
I0725 11:30:50.191334  6915 net.cpp:150] Setting up res2c_branch2c
I0725 11:30:50.191359  6915 net.cpp:157] Top shape: 2 256 128 128 (8388608)
I0725 11:30:50.191363  6915 net.cpp:165] Memory required for data: 1015021600
I0725 11:30:50.191380  6915 layer_factory.hpp:77] Creating layer bn2c_branch2c
I0725 11:30:50.191385  6915 net.cpp:100] Creating Layer bn2c_branch2c
I0725 11:30:50.191390  6915 net.cpp:434] bn2c_branch2c <- res2c_branch2c
I0725 11:30:50.191396  6915 net.cpp:395] bn2c_branch2c -> res2c_branch2c (in-place)
I0725 11:30:50.191629  6915 net.cpp:150] Setting up bn2c_branch2c
I0725 11:30:50.191642  6915 net.cpp:157] Top shape: 2 256 128 128 (8388608)
I0725 11:30:50.191645  6915 net.cpp:165] Memory required for data: 1048576032
I0725 11:30:50.191654  6915 layer_factory.hpp:77] Creating layer scale2c_branch2c
I0725 11:30:50.191664  6915 net.cpp:100] Creating Layer scale2c_branch2c
I0725 11:30:50.191671  6915 net.cpp:434] scale2c_branch2c <- res2c_branch2c
I0725 11:30:50.191679  6915 net.cpp:395] scale2c_branch2c -> res2c_branch2c (in-place)
I0725 11:30:50.191743  6915 layer_factory.hpp:77] Creating layer scale2c_branch2c
I0725 11:30:50.191887  6915 net.cpp:150] Setting up scale2c_branch2c
I0725 11:30:50.191898  6915 net.cpp:157] Top shape: 2 256 128 128 (8388608)
I0725 11:30:50.191901  6915 net.cpp:165] Memory required for data: 1082130464
I0725 11:30:50.191920  6915 layer_factory.hpp:77] Creating layer res2c
I0725 11:30:50.191933  6915 net.cpp:100] Creating Layer res2c
I0725 11:30:50.191941  6915 net.cpp:434] res2c <- res2b_res2b_relu_0_split_1
I0725 11:30:50.191947  6915 net.cpp:434] res2c <- res2c_branch2c
I0725 11:30:50.191957  6915 net.cpp:408] res2c -> res2c
I0725 11:30:50.191996  6915 net.cpp:150] Setting up res2c
I0725 11:30:50.192008  6915 net.cpp:157] Top shape: 2 256 128 128 (8388608)
I0725 11:30:50.192013  6915 net.cpp:165] Memory required for data: 1115684896
I0725 11:30:50.192015  6915 layer_factory.hpp:77] Creating layer res2c_relu
I0725 11:30:50.192034  6915 net.cpp:100] Creating Layer res2c_relu
I0725 11:30:50.192040  6915 net.cpp:434] res2c_relu <- res2c
I0725 11:30:50.192047  6915 net.cpp:395] res2c_relu -> res2c (in-place)
I0725 11:30:50.192262  6915 net.cpp:150] Setting up res2c_relu
I0725 11:30:50.192276  6915 net.cpp:157] Top shape: 2 256 128 128 (8388608)
I0725 11:30:50.192278  6915 net.cpp:165] Memory required for data: 1149239328
I0725 11:30:50.192281  6915 layer_factory.hpp:77] Creating layer res2c_res2c_relu_0_split
I0725 11:30:50.192306  6915 net.cpp:100] Creating Layer res2c_res2c_relu_0_split
I0725 11:30:50.192312  6915 net.cpp:434] res2c_res2c_relu_0_split <- res2c
I0725 11:30:50.192324  6915 net.cpp:408] res2c_res2c_relu_0_split -> res2c_res2c_relu_0_split_0
I0725 11:30:50.192340  6915 net.cpp:408] res2c_res2c_relu_0_split -> res2c_res2c_relu_0_split_1
I0725 11:30:50.192404  6915 net.cpp:150] Setting up res2c_res2c_relu_0_split
I0725 11:30:50.192415  6915 net.cpp:157] Top shape: 2 256 128 128 (8388608)
I0725 11:30:50.192420  6915 net.cpp:157] Top shape: 2 256 128 128 (8388608)
I0725 11:30:50.192422  6915 net.cpp:165] Memory required for data: 1216348192
I0725 11:30:50.192426  6915 layer_factory.hpp:77] Creating layer res3a_branch1
I0725 11:30:50.192456  6915 net.cpp:100] Creating Layer res3a_branch1
I0725 11:30:50.192464  6915 net.cpp:434] res3a_branch1 <- res2c_res2c_relu_0_split_0
I0725 11:30:50.192474  6915 net.cpp:408] res3a_branch1 -> res3a_branch1
I0725 11:30:50.195597  6915 net.cpp:150] Setting up res3a_branch1
I0725 11:30:50.195624  6915 net.cpp:157] Top shape: 2 512 64 64 (4194304)
I0725 11:30:50.195628  6915 net.cpp:165] Memory required for data: 1233125408
I0725 11:30:50.195634  6915 layer_factory.hpp:77] Creating layer bn3a_branch1
I0725 11:30:50.195641  6915 net.cpp:100] Creating Layer bn3a_branch1
I0725 11:30:50.195646  6915 net.cpp:434] bn3a_branch1 <- res3a_branch1
I0725 11:30:50.195650  6915 net.cpp:395] bn3a_branch1 -> res3a_branch1 (in-place)
I0725 11:30:50.196847  6915 net.cpp:150] Setting up bn3a_branch1
I0725 11:30:50.196861  6915 net.cpp:157] Top shape: 2 512 64 64 (4194304)
I0725 11:30:50.196877  6915 net.cpp:165] Memory required for data: 1249902624
I0725 11:30:50.196883  6915 layer_factory.hpp:77] Creating layer scale3a_branch1
I0725 11:30:50.196889  6915 net.cpp:100] Creating Layer scale3a_branch1
I0725 11:30:50.196893  6915 net.cpp:434] scale3a_branch1 <- res3a_branch1
I0725 11:30:50.196902  6915 net.cpp:395] scale3a_branch1 -> res3a_branch1 (in-place)
I0725 11:30:50.196960  6915 layer_factory.hpp:77] Creating layer scale3a_branch1
I0725 11:30:50.197113  6915 net.cpp:150] Setting up scale3a_branch1
I0725 11:30:50.197125  6915 net.cpp:157] Top shape: 2 512 64 64 (4194304)
I0725 11:30:50.197129  6915 net.cpp:165] Memory required for data: 1266679840
I0725 11:30:50.197135  6915 layer_factory.hpp:77] Creating layer res3a_branch2a
I0725 11:30:50.197147  6915 net.cpp:100] Creating Layer res3a_branch2a
I0725 11:30:50.197154  6915 net.cpp:434] res3a_branch2a <- res2c_res2c_relu_0_split_1
I0725 11:30:50.197168  6915 net.cpp:408] res3a_branch2a -> res3a_branch2a
I0725 11:30:50.198487  6915 net.cpp:150] Setting up res3a_branch2a
I0725 11:30:50.198513  6915 net.cpp:157] Top shape: 2 128 64 64 (1048576)
I0725 11:30:50.198518  6915 net.cpp:165] Memory required for data: 1270874144
I0725 11:30:50.198523  6915 layer_factory.hpp:77] Creating layer bn3a_branch2a
I0725 11:30:50.198530  6915 net.cpp:100] Creating Layer bn3a_branch2a
I0725 11:30:50.198534  6915 net.cpp:434] bn3a_branch2a <- res3a_branch2a
I0725 11:30:50.198541  6915 net.cpp:395] bn3a_branch2a -> res3a_branch2a (in-place)
I0725 11:30:50.198776  6915 net.cpp:150] Setting up bn3a_branch2a
I0725 11:30:50.198787  6915 net.cpp:157] Top shape: 2 128 64 64 (1048576)
I0725 11:30:50.198791  6915 net.cpp:165] Memory required for data: 1275068448
I0725 11:30:50.198799  6915 layer_factory.hpp:77] Creating layer scale3a_branch2a
I0725 11:30:50.198812  6915 net.cpp:100] Creating Layer scale3a_branch2a
I0725 11:30:50.198822  6915 net.cpp:434] scale3a_branch2a <- res3a_branch2a
I0725 11:30:50.198830  6915 net.cpp:395] scale3a_branch2a -> res3a_branch2a (in-place)
I0725 11:30:50.198894  6915 layer_factory.hpp:77] Creating layer scale3a_branch2a
I0725 11:30:50.199026  6915 net.cpp:150] Setting up scale3a_branch2a
I0725 11:30:50.199038  6915 net.cpp:157] Top shape: 2 128 64 64 (1048576)
I0725 11:30:50.199041  6915 net.cpp:165] Memory required for data: 1279262752
I0725 11:30:50.199048  6915 layer_factory.hpp:77] Creating layer res3a_branch2a_relu
I0725 11:30:50.199075  6915 net.cpp:100] Creating Layer res3a_branch2a_relu
I0725 11:30:50.199084  6915 net.cpp:434] res3a_branch2a_relu <- res3a_branch2a
I0725 11:30:50.199095  6915 net.cpp:395] res3a_branch2a_relu -> res3a_branch2a (in-place)
I0725 11:30:50.199308  6915 net.cpp:150] Setting up res3a_branch2a_relu
I0725 11:30:50.199321  6915 net.cpp:157] Top shape: 2 128 64 64 (1048576)
I0725 11:30:50.199324  6915 net.cpp:165] Memory required for data: 1283457056
I0725 11:30:50.199327  6915 layer_factory.hpp:77] Creating layer res3a_branch2b
I0725 11:30:50.199342  6915 net.cpp:100] Creating Layer res3a_branch2b
I0725 11:30:50.199352  6915 net.cpp:434] res3a_branch2b <- res3a_branch2a
I0725 11:30:50.199362  6915 net.cpp:408] res3a_branch2b -> res3a_branch2b
I0725 11:30:50.201889  6915 net.cpp:150] Setting up res3a_branch2b
I0725 11:30:50.201915  6915 net.cpp:157] Top shape: 2 128 64 64 (1048576)
I0725 11:30:50.201920  6915 net.cpp:165] Memory required for data: 1287651360
I0725 11:30:50.201925  6915 layer_factory.hpp:77] Creating layer bn3a_branch2b
I0725 11:30:50.201932  6915 net.cpp:100] Creating Layer bn3a_branch2b
I0725 11:30:50.201936  6915 net.cpp:434] bn3a_branch2b <- res3a_branch2b
I0725 11:30:50.201943  6915 net.cpp:395] bn3a_branch2b -> res3a_branch2b (in-place)
I0725 11:30:50.202179  6915 net.cpp:150] Setting up bn3a_branch2b
I0725 11:30:50.202191  6915 net.cpp:157] Top shape: 2 128 64 64 (1048576)
I0725 11:30:50.202194  6915 net.cpp:165] Memory required for data: 1291845664
I0725 11:30:50.202203  6915 layer_factory.hpp:77] Creating layer scale3a_branch2b
I0725 11:30:50.202216  6915 net.cpp:100] Creating Layer scale3a_branch2b
I0725 11:30:50.202224  6915 net.cpp:434] scale3a_branch2b <- res3a_branch2b
I0725 11:30:50.202234  6915 net.cpp:395] scale3a_branch2b -> res3a_branch2b (in-place)
I0725 11:30:50.202311  6915 layer_factory.hpp:77] Creating layer scale3a_branch2b
I0725 11:30:50.202445  6915 net.cpp:150] Setting up scale3a_branch2b
I0725 11:30:50.202457  6915 net.cpp:157] Top shape: 2 128 64 64 (1048576)
I0725 11:30:50.202461  6915 net.cpp:165] Memory required for data: 1296039968
I0725 11:30:50.202466  6915 layer_factory.hpp:77] Creating layer res3a_branch2b_relu
I0725 11:30:50.202474  6915 net.cpp:100] Creating Layer res3a_branch2b_relu
I0725 11:30:50.202479  6915 net.cpp:434] res3a_branch2b_relu <- res3a_branch2b
I0725 11:30:50.202489  6915 net.cpp:395] res3a_branch2b_relu -> res3a_branch2b (in-place)
I0725 11:30:50.202894  6915 net.cpp:150] Setting up res3a_branch2b_relu
I0725 11:30:50.202920  6915 net.cpp:157] Top shape: 2 128 64 64 (1048576)
I0725 11:30:50.202924  6915 net.cpp:165] Memory required for data: 1300234272
I0725 11:30:50.202927  6915 layer_factory.hpp:77] Creating layer res3a_branch2c
I0725 11:30:50.202945  6915 net.cpp:100] Creating Layer res3a_branch2c
I0725 11:30:50.202950  6915 net.cpp:434] res3a_branch2c <- res3a_branch2b
I0725 11:30:50.202956  6915 net.cpp:408] res3a_branch2c -> res3a_branch2c
I0725 11:30:50.204337  6915 net.cpp:150] Setting up res3a_branch2c
I0725 11:30:50.204350  6915 net.cpp:157] Top shape: 2 512 64 64 (4194304)
I0725 11:30:50.204354  6915 net.cpp:165] Memory required for data: 1317011488
I0725 11:30:50.204360  6915 layer_factory.hpp:77] Creating layer bn3a_branch2c
I0725 11:30:50.204366  6915 net.cpp:100] Creating Layer bn3a_branch2c
I0725 11:30:50.204370  6915 net.cpp:434] bn3a_branch2c <- res3a_branch2c
I0725 11:30:50.204375  6915 net.cpp:395] bn3a_branch2c -> res3a_branch2c (in-place)
I0725 11:30:50.204608  6915 net.cpp:150] Setting up bn3a_branch2c
I0725 11:30:50.204623  6915 net.cpp:157] Top shape: 2 512 64 64 (4194304)
I0725 11:30:50.204627  6915 net.cpp:165] Memory required for data: 1333788704
I0725 11:30:50.204634  6915 layer_factory.hpp:77] Creating layer scale3a_branch2c
I0725 11:30:50.204646  6915 net.cpp:100] Creating Layer scale3a_branch2c
I0725 11:30:50.204656  6915 net.cpp:434] scale3a_branch2c <- res3a_branch2c
I0725 11:30:50.204666  6915 net.cpp:395] scale3a_branch2c -> res3a_branch2c (in-place)
I0725 11:30:50.204723  6915 layer_factory.hpp:77] Creating layer scale3a_branch2c
I0725 11:30:50.204882  6915 net.cpp:150] Setting up scale3a_branch2c
I0725 11:30:50.204895  6915 net.cpp:157] Top shape: 2 512 64 64 (4194304)
I0725 11:30:50.204897  6915 net.cpp:165] Memory required for data: 1350565920
I0725 11:30:50.204905  6915 layer_factory.hpp:77] Creating layer res3a
I0725 11:30:50.204915  6915 net.cpp:100] Creating Layer res3a
I0725 11:30:50.204921  6915 net.cpp:434] res3a <- res3a_branch1
I0725 11:30:50.204927  6915 net.cpp:434] res3a <- res3a_branch2c
I0725 11:30:50.204934  6915 net.cpp:408] res3a -> res3a
I0725 11:30:50.204975  6915 net.cpp:150] Setting up res3a
I0725 11:30:50.204988  6915 net.cpp:157] Top shape: 2 512 64 64 (4194304)
I0725 11:30:50.204990  6915 net.cpp:165] Memory required for data: 1367343136
I0725 11:30:50.204993  6915 layer_factory.hpp:77] Creating layer res3a_relu
I0725 11:30:50.205001  6915 net.cpp:100] Creating Layer res3a_relu
I0725 11:30:50.205006  6915 net.cpp:434] res3a_relu <- res3a
I0725 11:30:50.205018  6915 net.cpp:395] res3a_relu -> res3a (in-place)
I0725 11:30:50.205438  6915 net.cpp:150] Setting up res3a_relu
I0725 11:30:50.205451  6915 net.cpp:157] Top shape: 2 512 64 64 (4194304)
I0725 11:30:50.205466  6915 net.cpp:165] Memory required for data: 1384120352
I0725 11:30:50.205469  6915 layer_factory.hpp:77] Creating layer res3a_res3a_relu_0_split
I0725 11:30:50.205474  6915 net.cpp:100] Creating Layer res3a_res3a_relu_0_split
I0725 11:30:50.205478  6915 net.cpp:434] res3a_res3a_relu_0_split <- res3a
I0725 11:30:50.205485  6915 net.cpp:408] res3a_res3a_relu_0_split -> res3a_res3a_relu_0_split_0
I0725 11:30:50.205492  6915 net.cpp:408] res3a_res3a_relu_0_split -> res3a_res3a_relu_0_split_1
I0725 11:30:50.205571  6915 net.cpp:150] Setting up res3a_res3a_relu_0_split
I0725 11:30:50.205584  6915 net.cpp:157] Top shape: 2 512 64 64 (4194304)
I0725 11:30:50.205587  6915 net.cpp:157] Top shape: 2 512 64 64 (4194304)
I0725 11:30:50.205590  6915 net.cpp:165] Memory required for data: 1417674784
I0725 11:30:50.205593  6915 layer_factory.hpp:77] Creating layer res3b1_branch2a
I0725 11:30:50.205611  6915 net.cpp:100] Creating Layer res3b1_branch2a
I0725 11:30:50.205617  6915 net.cpp:434] res3b1_branch2a <- res3a_res3a_relu_0_split_0
I0725 11:30:50.205631  6915 net.cpp:408] res3b1_branch2a -> res3b1_branch2a
I0725 11:30:50.207238  6915 net.cpp:150] Setting up res3b1_branch2a
I0725 11:30:50.207265  6915 net.cpp:157] Top shape: 2 128 64 64 (1048576)
I0725 11:30:50.207269  6915 net.cpp:165] Memory required for data: 1421869088
I0725 11:30:50.207275  6915 layer_factory.hpp:77] Creating layer bn3b1_branch2a
I0725 11:30:50.207281  6915 net.cpp:100] Creating Layer bn3b1_branch2a
I0725 11:30:50.207285  6915 net.cpp:434] bn3b1_branch2a <- res3b1_branch2a
I0725 11:30:50.207291  6915 net.cpp:395] bn3b1_branch2a -> res3b1_branch2a (in-place)
I0725 11:30:50.207528  6915 net.cpp:150] Setting up bn3b1_branch2a
I0725 11:30:50.207540  6915 net.cpp:157] Top shape: 2 128 64 64 (1048576)
I0725 11:30:50.207543  6915 net.cpp:165] Memory required for data: 1426063392
I0725 11:30:50.207551  6915 layer_factory.hpp:77] Creating layer scale3b1_branch2a
I0725 11:30:50.207561  6915 net.cpp:100] Creating Layer scale3b1_branch2a
I0725 11:30:50.207567  6915 net.cpp:434] scale3b1_branch2a <- res3b1_branch2a
I0725 11:30:50.207589  6915 net.cpp:395] scale3b1_branch2a -> res3b1_branch2a (in-place)
I0725 11:30:50.207654  6915 layer_factory.hpp:77] Creating layer scale3b1_branch2a
I0725 11:30:50.207788  6915 net.cpp:150] Setting up scale3b1_branch2a
I0725 11:30:50.207800  6915 net.cpp:157] Top shape: 2 128 64 64 (1048576)
I0725 11:30:50.207803  6915 net.cpp:165] Memory required for data: 1430257696
I0725 11:30:50.207809  6915 layer_factory.hpp:77] Creating layer res3b1_branch2a_relu
I0725 11:30:50.207818  6915 net.cpp:100] Creating Layer res3b1_branch2a_relu
I0725 11:30:50.207823  6915 net.cpp:434] res3b1_branch2a_relu <- res3b1_branch2a
I0725 11:30:50.207834  6915 net.cpp:395] res3b1_branch2a_relu -> res3b1_branch2a (in-place)
I0725 11:30:50.208268  6915 net.cpp:150] Setting up res3b1_branch2a_relu
I0725 11:30:50.208303  6915 net.cpp:157] Top shape: 2 128 64 64 (1048576)
I0725 11:30:50.208307  6915 net.cpp:165] Memory required for data: 1434452000
I0725 11:30:50.208312  6915 layer_factory.hpp:77] Creating layer res3b1_branch2b
I0725 11:30:50.208323  6915 net.cpp:100] Creating Layer res3b1_branch2b
I0725 11:30:50.208326  6915 net.cpp:434] res3b1_branch2b <- res3b1_branch2a
I0725 11:30:50.208334  6915 net.cpp:408] res3b1_branch2b -> res3b1_branch2b
I0725 11:30:50.210773  6915 net.cpp:150] Setting up res3b1_branch2b
I0725 11:30:50.210799  6915 net.cpp:157] Top shape: 2 128 64 64 (1048576)
I0725 11:30:50.210803  6915 net.cpp:165] Memory required for data: 1438646304
I0725 11:30:50.210809  6915 layer_factory.hpp:77] Creating layer bn3b1_branch2b
I0725 11:30:50.210815  6915 net.cpp:100] Creating Layer bn3b1_branch2b
I0725 11:30:50.210819  6915 net.cpp:434] bn3b1_branch2b <- res3b1_branch2b
I0725 11:30:50.210825  6915 net.cpp:395] bn3b1_branch2b -> res3b1_branch2b (in-place)
I0725 11:30:50.211067  6915 net.cpp:150] Setting up bn3b1_branch2b
I0725 11:30:50.211079  6915 net.cpp:157] Top shape: 2 128 64 64 (1048576)
I0725 11:30:50.211082  6915 net.cpp:165] Memory required for data: 1442840608
I0725 11:30:50.211089  6915 layer_factory.hpp:77] Creating layer scale3b1_branch2b
I0725 11:30:50.211103  6915 net.cpp:100] Creating Layer scale3b1_branch2b
I0725 11:30:50.211112  6915 net.cpp:434] scale3b1_branch2b <- res3b1_branch2b
I0725 11:30:50.211122  6915 net.cpp:395] scale3b1_branch2b -> res3b1_branch2b (in-place)
I0725 11:30:50.211189  6915 layer_factory.hpp:77] Creating layer scale3b1_branch2b
I0725 11:30:50.211328  6915 net.cpp:150] Setting up scale3b1_branch2b
I0725 11:30:50.211339  6915 net.cpp:157] Top shape: 2 128 64 64 (1048576)
I0725 11:30:50.211342  6915 net.cpp:165] Memory required for data: 1447034912
I0725 11:30:50.211349  6915 layer_factory.hpp:77] Creating layer res3b1_branch2b_relu
I0725 11:30:50.211357  6915 net.cpp:100] Creating Layer res3b1_branch2b_relu
I0725 11:30:50.211364  6915 net.cpp:434] res3b1_branch2b_relu <- res3b1_branch2b
I0725 11:30:50.211374  6915 net.cpp:395] res3b1_branch2b_relu -> res3b1_branch2b (in-place)
I0725 11:30:50.211583  6915 net.cpp:150] Setting up res3b1_branch2b_relu
I0725 11:30:50.211596  6915 net.cpp:157] Top shape: 2 128 64 64 (1048576)
I0725 11:30:50.211598  6915 net.cpp:165] Memory required for data: 1451229216
I0725 11:30:50.211602  6915 layer_factory.hpp:77] Creating layer res3b1_branch2c
I0725 11:30:50.211616  6915 net.cpp:100] Creating Layer res3b1_branch2c
I0725 11:30:50.211624  6915 net.cpp:434] res3b1_branch2c <- res3b1_branch2b
I0725 11:30:50.211637  6915 net.cpp:408] res3b1_branch2c -> res3b1_branch2c
I0725 11:30:50.214180  6915 net.cpp:150] Setting up res3b1_branch2c
I0725 11:30:50.214206  6915 net.cpp:157] Top shape: 2 512 64 64 (4194304)
I0725 11:30:50.214210  6915 net.cpp:165] Memory required for data: 1468006432
I0725 11:30:50.214215  6915 layer_factory.hpp:77] Creating layer bn3b1_branch2c
I0725 11:30:50.214223  6915 net.cpp:100] Creating Layer bn3b1_branch2c
I0725 11:30:50.214228  6915 net.cpp:434] bn3b1_branch2c <- res3b1_branch2c
I0725 11:30:50.214233  6915 net.cpp:395] bn3b1_branch2c -> res3b1_branch2c (in-place)
I0725 11:30:50.214480  6915 net.cpp:150] Setting up bn3b1_branch2c
I0725 11:30:50.214495  6915 net.cpp:157] Top shape: 2 512 64 64 (4194304)
I0725 11:30:50.214499  6915 net.cpp:165] Memory required for data: 1484783648
I0725 11:30:50.214509  6915 layer_factory.hpp:77] Creating layer scale3b1_branch2c
I0725 11:30:50.214522  6915 net.cpp:100] Creating Layer scale3b1_branch2c
I0725 11:30:50.214529  6915 net.cpp:434] scale3b1_branch2c <- res3b1_branch2c
I0725 11:30:50.214537  6915 net.cpp:395] scale3b1_branch2c -> res3b1_branch2c (in-place)
I0725 11:30:50.214610  6915 layer_factory.hpp:77] Creating layer scale3b1_branch2c
I0725 11:30:50.214747  6915 net.cpp:150] Setting up scale3b1_branch2c
I0725 11:30:50.214758  6915 net.cpp:157] Top shape: 2 512 64 64 (4194304)
I0725 11:30:50.214761  6915 net.cpp:165] Memory required for data: 1501560864
I0725 11:30:50.214783  6915 layer_factory.hpp:77] Creating layer res3b1
I0725 11:30:50.214797  6915 net.cpp:100] Creating Layer res3b1
I0725 11:30:50.214803  6915 net.cpp:434] res3b1 <- res3a_res3a_relu_0_split_1
I0725 11:30:50.214809  6915 net.cpp:434] res3b1 <- res3b1_branch2c
I0725 11:30:50.214818  6915 net.cpp:408] res3b1 -> res3b1
I0725 11:30:50.214860  6915 net.cpp:150] Setting up res3b1
I0725 11:30:50.214870  6915 net.cpp:157] Top shape: 2 512 64 64 (4194304)
I0725 11:30:50.214874  6915 net.cpp:165] Memory required for data: 1518338080
I0725 11:30:50.214876  6915 layer_factory.hpp:77] Creating layer res3b1_relu
I0725 11:30:50.214884  6915 net.cpp:100] Creating Layer res3b1_relu
I0725 11:30:50.214889  6915 net.cpp:434] res3b1_relu <- res3b1
I0725 11:30:50.214900  6915 net.cpp:395] res3b1_relu -> res3b1 (in-place)
I0725 11:30:50.215096  6915 net.cpp:150] Setting up res3b1_relu
I0725 11:30:50.215109  6915 net.cpp:157] Top shape: 2 512 64 64 (4194304)
I0725 11:30:50.215112  6915 net.cpp:165] Memory required for data: 1535115296
I0725 11:30:50.215116  6915 layer_factory.hpp:77] Creating layer res3b1_res3b1_relu_0_split
I0725 11:30:50.215123  6915 net.cpp:100] Creating Layer res3b1_res3b1_relu_0_split
I0725 11:30:50.215128  6915 net.cpp:434] res3b1_res3b1_relu_0_split <- res3b1
I0725 11:30:50.215138  6915 net.cpp:408] res3b1_res3b1_relu_0_split -> res3b1_res3b1_relu_0_split_0
I0725 11:30:50.215149  6915 net.cpp:408] res3b1_res3b1_relu_0_split -> res3b1_res3b1_relu_0_split_1
I0725 11:30:50.215216  6915 net.cpp:150] Setting up res3b1_res3b1_relu_0_split
I0725 11:30:50.215226  6915 net.cpp:157] Top shape: 2 512 64 64 (4194304)
I0725 11:30:50.215229  6915 net.cpp:157] Top shape: 2 512 64 64 (4194304)
I0725 11:30:50.215232  6915 net.cpp:165] Memory required for data: 1568669728
I0725 11:30:50.215236  6915 layer_factory.hpp:77] Creating layer res3b2_branch2a
I0725 11:30:50.215250  6915 net.cpp:100] Creating Layer res3b2_branch2a
I0725 11:30:50.215260  6915 net.cpp:434] res3b2_branch2a <- res3b1_res3b1_relu_0_split_0
I0725 11:30:50.215272  6915 net.cpp:408] res3b2_branch2a -> res3b2_branch2a
I0725 11:30:50.216872  6915 net.cpp:150] Setting up res3b2_branch2a
I0725 11:30:50.216898  6915 net.cpp:157] Top shape: 2 128 64 64 (1048576)
I0725 11:30:50.216902  6915 net.cpp:165] Memory required for data: 1572864032
I0725 11:30:50.216907  6915 layer_factory.hpp:77] Creating layer bn3b2_branch2a
I0725 11:30:50.216912  6915 net.cpp:100] Creating Layer bn3b2_branch2a
I0725 11:30:50.216919  6915 net.cpp:434] bn3b2_branch2a <- res3b2_branch2a
I0725 11:30:50.216924  6915 net.cpp:395] bn3b2_branch2a -> res3b2_branch2a (in-place)
I0725 11:30:50.217160  6915 net.cpp:150] Setting up bn3b2_branch2a
I0725 11:30:50.217173  6915 net.cpp:157] Top shape: 2 128 64 64 (1048576)
I0725 11:30:50.217176  6915 net.cpp:165] Memory required for data: 1577058336
I0725 11:30:50.217183  6915 layer_factory.hpp:77] Creating layer scale3b2_branch2a
I0725 11:30:50.217195  6915 net.cpp:100] Creating Layer scale3b2_branch2a
I0725 11:30:50.217201  6915 net.cpp:434] scale3b2_branch2a <- res3b2_branch2a
I0725 11:30:50.217209  6915 net.cpp:395] scale3b2_branch2a -> res3b2_branch2a (in-place)
I0725 11:30:50.217278  6915 layer_factory.hpp:77] Creating layer scale3b2_branch2a
I0725 11:30:50.217416  6915 net.cpp:150] Setting up scale3b2_branch2a
I0725 11:30:50.217427  6915 net.cpp:157] Top shape: 2 128 64 64 (1048576)
I0725 11:30:50.217430  6915 net.cpp:165] Memory required for data: 1581252640
I0725 11:30:50.217437  6915 layer_factory.hpp:77] Creating layer res3b2_branch2a_relu
I0725 11:30:50.217447  6915 net.cpp:100] Creating Layer res3b2_branch2a_relu
I0725 11:30:50.217453  6915 net.cpp:434] res3b2_branch2a_relu <- res3b2_branch2a
I0725 11:30:50.217460  6915 net.cpp:395] res3b2_branch2a_relu -> res3b2_branch2a (in-place)
I0725 11:30:50.217671  6915 net.cpp:150] Setting up res3b2_branch2a_relu
I0725 11:30:50.217684  6915 net.cpp:157] Top shape: 2 128 64 64 (1048576)
I0725 11:30:50.217686  6915 net.cpp:165] Memory required for data: 1585446944
I0725 11:30:50.217706  6915 layer_factory.hpp:77] Creating layer res3b2_branch2b
I0725 11:30:50.217723  6915 net.cpp:100] Creating Layer res3b2_branch2b
I0725 11:30:50.217730  6915 net.cpp:434] res3b2_branch2b <- res3b2_branch2a
I0725 11:30:50.217743  6915 net.cpp:408] res3b2_branch2b -> res3b2_branch2b
I0725 11:30:50.221215  6915 net.cpp:150] Setting up res3b2_branch2b
I0725 11:30:50.221230  6915 net.cpp:157] Top shape: 2 128 64 64 (1048576)
I0725 11:30:50.221246  6915 net.cpp:165] Memory required for data: 1589641248
I0725 11:30:50.221251  6915 layer_factory.hpp:77] Creating layer bn3b2_branch2b
I0725 11:30:50.221271  6915 net.cpp:100] Creating Layer bn3b2_branch2b
I0725 11:30:50.221276  6915 net.cpp:434] bn3b2_branch2b <- res3b2_branch2b
I0725 11:30:50.221280  6915 net.cpp:395] bn3b2_branch2b -> res3b2_branch2b (in-place)
I0725 11:30:50.221524  6915 net.cpp:150] Setting up bn3b2_branch2b
I0725 11:30:50.221536  6915 net.cpp:157] Top shape: 2 128 64 64 (1048576)
I0725 11:30:50.221539  6915 net.cpp:165] Memory required for data: 1593835552
I0725 11:30:50.221549  6915 layer_factory.hpp:77] Creating layer scale3b2_branch2b
I0725 11:30:50.221559  6915 net.cpp:100] Creating Layer scale3b2_branch2b
I0725 11:30:50.221565  6915 net.cpp:434] scale3b2_branch2b <- res3b2_branch2b
I0725 11:30:50.221575  6915 net.cpp:395] scale3b2_branch2b -> res3b2_branch2b (in-place)
I0725 11:30:50.221657  6915 layer_factory.hpp:77] Creating layer scale3b2_branch2b
I0725 11:30:50.221794  6915 net.cpp:150] Setting up scale3b2_branch2b
I0725 11:30:50.221806  6915 net.cpp:157] Top shape: 2 128 64 64 (1048576)
I0725 11:30:50.221808  6915 net.cpp:165] Memory required for data: 1598029856
I0725 11:30:50.221815  6915 layer_factory.hpp:77] Creating layer res3b2_branch2b_relu
I0725 11:30:50.221823  6915 net.cpp:100] Creating Layer res3b2_branch2b_relu
I0725 11:30:50.221828  6915 net.cpp:434] res3b2_branch2b_relu <- res3b2_branch2b
I0725 11:30:50.221835  6915 net.cpp:395] res3b2_branch2b_relu -> res3b2_branch2b (in-place)
I0725 11:30:50.222245  6915 net.cpp:150] Setting up res3b2_branch2b_relu
I0725 11:30:50.222270  6915 net.cpp:157] Top shape: 2 128 64 64 (1048576)
I0725 11:30:50.222273  6915 net.cpp:165] Memory required for data: 1602224160
I0725 11:30:50.222277  6915 layer_factory.hpp:77] Creating layer res3b2_branch2c
I0725 11:30:50.222287  6915 net.cpp:100] Creating Layer res3b2_branch2c
I0725 11:30:50.222291  6915 net.cpp:434] res3b2_branch2c <- res3b2_branch2b
I0725 11:30:50.222309  6915 net.cpp:408] res3b2_branch2c -> res3b2_branch2c
I0725 11:30:50.223690  6915 net.cpp:150] Setting up res3b2_branch2c
I0725 11:30:50.223702  6915 net.cpp:157] Top shape: 2 512 64 64 (4194304)
I0725 11:30:50.223706  6915 net.cpp:165] Memory required for data: 1619001376
I0725 11:30:50.223711  6915 layer_factory.hpp:77] Creating layer bn3b2_branch2c
I0725 11:30:50.223717  6915 net.cpp:100] Creating Layer bn3b2_branch2c
I0725 11:30:50.223721  6915 net.cpp:434] bn3b2_branch2c <- res3b2_branch2c
I0725 11:30:50.223726  6915 net.cpp:395] bn3b2_branch2c -> res3b2_branch2c (in-place)
I0725 11:30:50.223968  6915 net.cpp:150] Setting up bn3b2_branch2c
I0725 11:30:50.223978  6915 net.cpp:157] Top shape: 2 512 64 64 (4194304)
I0725 11:30:50.223981  6915 net.cpp:165] Memory required for data: 1635778592
I0725 11:30:50.223989  6915 layer_factory.hpp:77] Creating layer scale3b2_branch2c
I0725 11:30:50.223999  6915 net.cpp:100] Creating Layer scale3b2_branch2c
I0725 11:30:50.224005  6915 net.cpp:434] scale3b2_branch2c <- res3b2_branch2c
I0725 11:30:50.224014  6915 net.cpp:395] scale3b2_branch2c -> res3b2_branch2c (in-place)
I0725 11:30:50.224084  6915 layer_factory.hpp:77] Creating layer scale3b2_branch2c
I0725 11:30:50.224234  6915 net.cpp:150] Setting up scale3b2_branch2c
I0725 11:30:50.224246  6915 net.cpp:157] Top shape: 2 512 64 64 (4194304)
I0725 11:30:50.224249  6915 net.cpp:165] Memory required for data: 1652555808
I0725 11:30:50.224256  6915 layer_factory.hpp:77] Creating layer res3b2
I0725 11:30:50.224263  6915 net.cpp:100] Creating Layer res3b2
I0725 11:30:50.224269  6915 net.cpp:434] res3b2 <- res3b1_res3b1_relu_0_split_1
I0725 11:30:50.224292  6915 net.cpp:434] res3b2 <- res3b2_branch2c
I0725 11:30:50.224305  6915 net.cpp:408] res3b2 -> res3b2
I0725 11:30:50.224347  6915 net.cpp:150] Setting up res3b2
I0725 11:30:50.224357  6915 net.cpp:157] Top shape: 2 512 64 64 (4194304)
I0725 11:30:50.224360  6915 net.cpp:165] Memory required for data: 1669333024
I0725 11:30:50.224364  6915 layer_factory.hpp:77] Creating layer res3b2_relu
I0725 11:30:50.224373  6915 net.cpp:100] Creating Layer res3b2_relu
I0725 11:30:50.224380  6915 net.cpp:434] res3b2_relu <- res3b2
I0725 11:30:50.224387  6915 net.cpp:395] res3b2_relu -> res3b2 (in-place)
I0725 11:30:50.224797  6915 net.cpp:150] Setting up res3b2_relu
I0725 11:30:50.224810  6915 net.cpp:157] Top shape: 2 512 64 64 (4194304)
I0725 11:30:50.224824  6915 net.cpp:165] Memory required for data: 1686110240
I0725 11:30:50.224828  6915 layer_factory.hpp:77] Creating layer res3b2_res3b2_relu_0_split
I0725 11:30:50.224835  6915 net.cpp:100] Creating Layer res3b2_res3b2_relu_0_split
I0725 11:30:50.224839  6915 net.cpp:434] res3b2_res3b2_relu_0_split <- res3b2
I0725 11:30:50.224844  6915 net.cpp:408] res3b2_res3b2_relu_0_split -> res3b2_res3b2_relu_0_split_0
I0725 11:30:50.224851  6915 net.cpp:408] res3b2_res3b2_relu_0_split -> res3b2_res3b2_relu_0_split_1
I0725 11:30:50.224930  6915 net.cpp:150] Setting up res3b2_res3b2_relu_0_split
I0725 11:30:50.224942  6915 net.cpp:157] Top shape: 2 512 64 64 (4194304)
I0725 11:30:50.224946  6915 net.cpp:157] Top shape: 2 512 64 64 (4194304)
I0725 11:30:50.224948  6915 net.cpp:165] Memory required for data: 1719664672
I0725 11:30:50.224952  6915 layer_factory.hpp:77] Creating layer res3b3_branch2a
I0725 11:30:50.224967  6915 net.cpp:100] Creating Layer res3b3_branch2a
I0725 11:30:50.224972  6915 net.cpp:434] res3b3_branch2a <- res3b2_res3b2_relu_0_split_0
I0725 11:30:50.224985  6915 net.cpp:408] res3b3_branch2a -> res3b3_branch2a
I0725 11:30:50.226596  6915 net.cpp:150] Setting up res3b3_branch2a
I0725 11:30:50.226611  6915 net.cpp:157] Top shape: 2 128 64 64 (1048576)
I0725 11:30:50.226625  6915 net.cpp:165] Memory required for data: 1723858976
I0725 11:30:50.226631  6915 layer_factory.hpp:77] Creating layer bn3b3_branch2a
I0725 11:30:50.226639  6915 net.cpp:100] Creating Layer bn3b3_branch2a
I0725 11:30:50.226642  6915 net.cpp:434] bn3b3_branch2a <- res3b3_branch2a
I0725 11:30:50.226647  6915 net.cpp:395] bn3b3_branch2a -> res3b3_branch2a (in-place)
I0725 11:30:50.226889  6915 net.cpp:150] Setting up bn3b3_branch2a
I0725 11:30:50.226902  6915 net.cpp:157] Top shape: 2 128 64 64 (1048576)
I0725 11:30:50.226904  6915 net.cpp:165] Memory required for data: 1728053280
I0725 11:30:50.226943  6915 layer_factory.hpp:77] Creating layer scale3b3_branch2a
I0725 11:30:50.226958  6915 net.cpp:100] Creating Layer scale3b3_branch2a
I0725 11:30:50.226967  6915 net.cpp:434] scale3b3_branch2a <- res3b3_branch2a
I0725 11:30:50.226976  6915 net.cpp:395] scale3b3_branch2a -> res3b3_branch2a (in-place)
I0725 11:30:50.227044  6915 layer_factory.hpp:77] Creating layer scale3b3_branch2a
I0725 11:30:50.227175  6915 net.cpp:150] Setting up scale3b3_branch2a
I0725 11:30:50.227186  6915 net.cpp:157] Top shape: 2 128 64 64 (1048576)
I0725 11:30:50.227190  6915 net.cpp:165] Memory required for data: 1732247584
I0725 11:30:50.227196  6915 layer_factory.hpp:77] Creating layer res3b3_branch2a_relu
I0725 11:30:50.227206  6915 net.cpp:100] Creating Layer res3b3_branch2a_relu
I0725 11:30:50.227212  6915 net.cpp:434] res3b3_branch2a_relu <- res3b3_branch2a
I0725 11:30:50.227221  6915 net.cpp:395] res3b3_branch2a_relu -> res3b3_branch2a (in-place)
I0725 11:30:50.227427  6915 net.cpp:150] Setting up res3b3_branch2a_relu
I0725 11:30:50.227438  6915 net.cpp:157] Top shape: 2 128 64 64 (1048576)
I0725 11:30:50.227442  6915 net.cpp:165] Memory required for data: 1736441888
I0725 11:30:50.227444  6915 layer_factory.hpp:77] Creating layer res3b3_branch2b
I0725 11:30:50.227458  6915 net.cpp:100] Creating Layer res3b3_branch2b
I0725 11:30:50.227464  6915 net.cpp:434] res3b3_branch2b <- res3b3_branch2a
I0725 11:30:50.227491  6915 net.cpp:408] res3b3_branch2b -> res3b3_branch2b
I0725 11:30:50.229918  6915 net.cpp:150] Setting up res3b3_branch2b
I0725 11:30:50.229944  6915 net.cpp:157] Top shape: 2 128 64 64 (1048576)
I0725 11:30:50.229948  6915 net.cpp:165] Memory required for data: 1740636192
I0725 11:30:50.229954  6915 layer_factory.hpp:77] Creating layer bn3b3_branch2b
I0725 11:30:50.229961  6915 net.cpp:100] Creating Layer bn3b3_branch2b
I0725 11:30:50.229965  6915 net.cpp:434] bn3b3_branch2b <- res3b3_branch2b
I0725 11:30:50.229969  6915 net.cpp:395] bn3b3_branch2b -> res3b3_branch2b (in-place)
I0725 11:30:50.230221  6915 net.cpp:150] Setting up bn3b3_branch2b
I0725 11:30:50.230235  6915 net.cpp:157] Top shape: 2 128 64 64 (1048576)
I0725 11:30:50.230238  6915 net.cpp:165] Memory required for data: 1744830496
I0725 11:30:50.230247  6915 layer_factory.hpp:77] Creating layer scale3b3_branch2b
I0725 11:30:50.230257  6915 net.cpp:100] Creating Layer scale3b3_branch2b
I0725 11:30:50.230265  6915 net.cpp:434] scale3b3_branch2b <- res3b3_branch2b
I0725 11:30:50.230274  6915 net.cpp:395] scale3b3_branch2b -> res3b3_branch2b (in-place)
I0725 11:30:50.230346  6915 layer_factory.hpp:77] Creating layer scale3b3_branch2b
I0725 11:30:50.230486  6915 net.cpp:150] Setting up scale3b3_branch2b
I0725 11:30:50.230499  6915 net.cpp:157] Top shape: 2 128 64 64 (1048576)
I0725 11:30:50.230501  6915 net.cpp:165] Memory required for data: 1749024800
I0725 11:30:50.230509  6915 layer_factory.hpp:77] Creating layer res3b3_branch2b_relu
I0725 11:30:50.230516  6915 net.cpp:100] Creating Layer res3b3_branch2b_relu
I0725 11:30:50.230522  6915 net.cpp:434] res3b3_branch2b_relu <- res3b3_branch2b
I0725 11:30:50.230530  6915 net.cpp:395] res3b3_branch2b_relu -> res3b3_branch2b (in-place)
I0725 11:30:50.230746  6915 net.cpp:150] Setting up res3b3_branch2b_relu
I0725 11:30:50.230759  6915 net.cpp:157] Top shape: 2 128 64 64 (1048576)
I0725 11:30:50.230762  6915 net.cpp:165] Memory required for data: 1753219104
I0725 11:30:50.230765  6915 layer_factory.hpp:77] Creating layer res3b3_branch2c
I0725 11:30:50.230779  6915 net.cpp:100] Creating Layer res3b3_branch2c
I0725 11:30:50.230787  6915 net.cpp:434] res3b3_branch2c <- res3b3_branch2b
I0725 11:30:50.230800  6915 net.cpp:408] res3b3_branch2c -> res3b3_branch2c
I0725 11:30:50.232470  6915 net.cpp:150] Setting up res3b3_branch2c
I0725 11:30:50.232484  6915 net.cpp:157] Top shape: 2 512 64 64 (4194304)
I0725 11:30:50.232488  6915 net.cpp:165] Memory required for data: 1769996320
I0725 11:30:50.232493  6915 layer_factory.hpp:77] Creating layer bn3b3_branch2c
I0725 11:30:50.232501  6915 net.cpp:100] Creating Layer bn3b3_branch2c
I0725 11:30:50.232506  6915 net.cpp:434] bn3b3_branch2c <- res3b3_branch2c
I0725 11:30:50.232511  6915 net.cpp:395] bn3b3_branch2c -> res3b3_branch2c (in-place)
I0725 11:30:50.232749  6915 net.cpp:150] Setting up bn3b3_branch2c
I0725 11:30:50.232761  6915 net.cpp:157] Top shape: 2 512 64 64 (4194304)
I0725 11:30:50.232764  6915 net.cpp:165] Memory required for data: 1786773536
I0725 11:30:50.232772  6915 layer_factory.hpp:77] Creating layer scale3b3_branch2c
I0725 11:30:50.232786  6915 net.cpp:100] Creating Layer scale3b3_branch2c
I0725 11:30:50.232796  6915 net.cpp:434] scale3b3_branch2c <- res3b3_branch2c
I0725 11:30:50.232806  6915 net.cpp:395] scale3b3_branch2c -> res3b3_branch2c (in-place)
I0725 11:30:50.232868  6915 layer_factory.hpp:77] Creating layer scale3b3_branch2c
I0725 11:30:50.233013  6915 net.cpp:150] Setting up scale3b3_branch2c
I0725 11:30:50.233026  6915 net.cpp:157] Top shape: 2 512 64 64 (4194304)
I0725 11:30:50.233028  6915 net.cpp:165] Memory required for data: 1803550752
I0725 11:30:50.233036  6915 layer_factory.hpp:77] Creating layer res3b3
I0725 11:30:50.233043  6915 net.cpp:100] Creating Layer res3b3
I0725 11:30:50.233049  6915 net.cpp:434] res3b3 <- res3b2_res3b2_relu_0_split_1
I0725 11:30:50.233055  6915 net.cpp:434] res3b3 <- res3b3_branch2c
I0725 11:30:50.233067  6915 net.cpp:408] res3b3 -> res3b3
I0725 11:30:50.233108  6915 net.cpp:150] Setting up res3b3
I0725 11:30:50.233134  6915 net.cpp:157] Top shape: 2 512 64 64 (4194304)
I0725 11:30:50.233137  6915 net.cpp:165] Memory required for data: 1820327968
I0725 11:30:50.233141  6915 layer_factory.hpp:77] Creating layer res3b3_relu
I0725 11:30:50.233150  6915 net.cpp:100] Creating Layer res3b3_relu
I0725 11:30:50.233155  6915 net.cpp:434] res3b3_relu <- res3b3
I0725 11:30:50.233162  6915 net.cpp:395] res3b3_relu -> res3b3 (in-place)
I0725 11:30:50.233384  6915 net.cpp:150] Setting up res3b3_relu
I0725 11:30:50.233397  6915 net.cpp:157] Top shape: 2 512 64 64 (4194304)
I0725 11:30:50.233399  6915 net.cpp:165] Memory required for data: 1837105184
I0725 11:30:50.233403  6915 layer_factory.hpp:77] Creating layer res3b3_res3b3_relu_0_split
I0725 11:30:50.233413  6915 net.cpp:100] Creating Layer res3b3_res3b3_relu_0_split
I0725 11:30:50.233419  6915 net.cpp:434] res3b3_res3b3_relu_0_split <- res3b3
I0725 11:30:50.233428  6915 net.cpp:408] res3b3_res3b3_relu_0_split -> res3b3_res3b3_relu_0_split_0
I0725 11:30:50.233438  6915 net.cpp:408] res3b3_res3b3_relu_0_split -> res3b3_res3b3_relu_0_split_1
I0725 11:30:50.233510  6915 net.cpp:150] Setting up res3b3_res3b3_relu_0_split
I0725 11:30:50.233520  6915 net.cpp:157] Top shape: 2 512 64 64 (4194304)
I0725 11:30:50.233525  6915 net.cpp:157] Top shape: 2 512 64 64 (4194304)
I0725 11:30:50.233526  6915 net.cpp:165] Memory required for data: 1870659616
I0725 11:30:50.233531  6915 layer_factory.hpp:77] Creating layer res4a_branch1
I0725 11:30:50.233546  6915 net.cpp:100] Creating Layer res4a_branch1
I0725 11:30:50.233554  6915 net.cpp:434] res4a_branch1 <- res3b3_res3b3_relu_0_split_0
I0725 11:30:50.233568  6915 net.cpp:408] res4a_branch1 -> res4a_branch1
I0725 11:30:50.240259  6915 net.cpp:150] Setting up res4a_branch1
I0725 11:30:50.240286  6915 net.cpp:157] Top shape: 2 1024 32 32 (2097152)
I0725 11:30:50.240290  6915 net.cpp:165] Memory required for data: 1879048224
I0725 11:30:50.240295  6915 layer_factory.hpp:77] Creating layer bn4a_branch1
I0725 11:30:50.240303  6915 net.cpp:100] Creating Layer bn4a_branch1
I0725 11:30:50.240306  6915 net.cpp:434] bn4a_branch1 <- res4a_branch1
I0725 11:30:50.240314  6915 net.cpp:395] bn4a_branch1 -> res4a_branch1 (in-place)
I0725 11:30:50.240559  6915 net.cpp:150] Setting up bn4a_branch1
I0725 11:30:50.240571  6915 net.cpp:157] Top shape: 2 1024 32 32 (2097152)
I0725 11:30:50.240574  6915 net.cpp:165] Memory required for data: 1887436832
I0725 11:30:50.240583  6915 layer_factory.hpp:77] Creating layer scale4a_branch1
I0725 11:30:50.240597  6915 net.cpp:100] Creating Layer scale4a_branch1
I0725 11:30:50.240605  6915 net.cpp:434] scale4a_branch1 <- res4a_branch1
I0725 11:30:50.240615  6915 net.cpp:395] scale4a_branch1 -> res4a_branch1 (in-place)
I0725 11:30:50.240679  6915 layer_factory.hpp:77] Creating layer scale4a_branch1
I0725 11:30:50.240818  6915 net.cpp:150] Setting up scale4a_branch1
I0725 11:30:50.240829  6915 net.cpp:157] Top shape: 2 1024 32 32 (2097152)
I0725 11:30:50.240833  6915 net.cpp:165] Memory required for data: 1895825440
I0725 11:30:50.240839  6915 layer_factory.hpp:77] Creating layer res4a_branch2a
I0725 11:30:50.240855  6915 net.cpp:100] Creating Layer res4a_branch2a
I0725 11:30:50.240864  6915 net.cpp:434] res4a_branch2a <- res3b3_res3b3_relu_0_split_1
I0725 11:30:50.240877  6915 net.cpp:408] res4a_branch2a -> res4a_branch2a
I0725 11:30:50.243080  6915 net.cpp:150] Setting up res4a_branch2a
I0725 11:30:50.243095  6915 net.cpp:157] Top shape: 2 256 32 32 (524288)
I0725 11:30:50.243110  6915 net.cpp:165] Memory required for data: 1897922592
I0725 11:30:50.243115  6915 layer_factory.hpp:77] Creating layer bn4a_branch2a
I0725 11:30:50.243124  6915 net.cpp:100] Creating Layer bn4a_branch2a
I0725 11:30:50.243127  6915 net.cpp:434] bn4a_branch2a <- res4a_branch2a
I0725 11:30:50.243132  6915 net.cpp:395] bn4a_branch2a -> res4a_branch2a (in-place)
I0725 11:30:50.243379  6915 net.cpp:150] Setting up bn4a_branch2a
I0725 11:30:50.243394  6915 net.cpp:157] Top shape: 2 256 32 32 (524288)
I0725 11:30:50.243397  6915 net.cpp:165] Memory required for data: 1900019744
I0725 11:30:50.243422  6915 layer_factory.hpp:77] Creating layer scale4a_branch2a
I0725 11:30:50.243435  6915 net.cpp:100] Creating Layer scale4a_branch2a
I0725 11:30:50.243444  6915 net.cpp:434] scale4a_branch2a <- res4a_branch2a
I0725 11:30:50.243453  6915 net.cpp:395] scale4a_branch2a -> res4a_branch2a (in-place)
I0725 11:30:50.243521  6915 layer_factory.hpp:77] Creating layer scale4a_branch2a
I0725 11:30:50.243655  6915 net.cpp:150] Setting up scale4a_branch2a
I0725 11:30:50.243667  6915 net.cpp:157] Top shape: 2 256 32 32 (524288)
I0725 11:30:50.243670  6915 net.cpp:165] Memory required for data: 1902116896
I0725 11:30:50.243677  6915 layer_factory.hpp:77] Creating layer res4a_branch2a_relu
I0725 11:30:50.243687  6915 net.cpp:100] Creating Layer res4a_branch2a_relu
I0725 11:30:50.243693  6915 net.cpp:434] res4a_branch2a_relu <- res4a_branch2a
I0725 11:30:50.243701  6915 net.cpp:395] res4a_branch2a_relu -> res4a_branch2a (in-place)
I0725 11:30:50.243917  6915 net.cpp:150] Setting up res4a_branch2a_relu
I0725 11:30:50.243932  6915 net.cpp:157] Top shape: 2 256 32 32 (524288)
I0725 11:30:50.243934  6915 net.cpp:165] Memory required for data: 1904214048
I0725 11:30:50.243938  6915 layer_factory.hpp:77] Creating layer res4a_branch2b
I0725 11:30:50.243950  6915 net.cpp:100] Creating Layer res4a_branch2b
I0725 11:30:50.243955  6915 net.cpp:434] res4a_branch2b <- res4a_branch2a
I0725 11:30:50.243970  6915 net.cpp:408] res4a_branch2b -> res4a_branch2b
I0725 11:30:50.251585  6915 net.cpp:150] Setting up res4a_branch2b
I0725 11:30:50.251600  6915 net.cpp:157] Top shape: 2 256 32 32 (524288)
I0725 11:30:50.251603  6915 net.cpp:165] Memory required for data: 1906311200
I0725 11:30:50.251610  6915 layer_factory.hpp:77] Creating layer bn4a_branch2b
I0725 11:30:50.251617  6915 net.cpp:100] Creating Layer bn4a_branch2b
I0725 11:30:50.251621  6915 net.cpp:434] bn4a_branch2b <- res4a_branch2b
I0725 11:30:50.251626  6915 net.cpp:395] bn4a_branch2b -> res4a_branch2b (in-place)
I0725 11:30:50.251874  6915 net.cpp:150] Setting up bn4a_branch2b
I0725 11:30:50.251888  6915 net.cpp:157] Top shape: 2 256 32 32 (524288)
I0725 11:30:50.251890  6915 net.cpp:165] Memory required for data: 1908408352
I0725 11:30:50.251899  6915 layer_factory.hpp:77] Creating layer scale4a_branch2b
I0725 11:30:50.251909  6915 net.cpp:100] Creating Layer scale4a_branch2b
I0725 11:30:50.251915  6915 net.cpp:434] scale4a_branch2b <- res4a_branch2b
I0725 11:30:50.251926  6915 net.cpp:395] scale4a_branch2b -> res4a_branch2b (in-place)
I0725 11:30:50.251996  6915 layer_factory.hpp:77] Creating layer scale4a_branch2b
I0725 11:30:50.252146  6915 net.cpp:150] Setting up scale4a_branch2b
I0725 11:30:50.252157  6915 net.cpp:157] Top shape: 2 256 32 32 (524288)
I0725 11:30:50.252161  6915 net.cpp:165] Memory required for data: 1910505504
I0725 11:30:50.252166  6915 layer_factory.hpp:77] Creating layer res4a_branch2b_relu
I0725 11:30:50.252174  6915 net.cpp:100] Creating Layer res4a_branch2b_relu
I0725 11:30:50.252179  6915 net.cpp:434] res4a_branch2b_relu <- res4a_branch2b
I0725 11:30:50.252187  6915 net.cpp:395] res4a_branch2b_relu -> res4a_branch2b (in-place)
I0725 11:30:50.252409  6915 net.cpp:150] Setting up res4a_branch2b_relu
I0725 11:30:50.252423  6915 net.cpp:157] Top shape: 2 256 32 32 (524288)
I0725 11:30:50.252425  6915 net.cpp:165] Memory required for data: 1912602656
I0725 11:30:50.252429  6915 layer_factory.hpp:77] Creating layer res4a_branch2c
I0725 11:30:50.252444  6915 net.cpp:100] Creating Layer res4a_branch2c
I0725 11:30:50.252454  6915 net.cpp:434] res4a_branch2c <- res4a_branch2b
I0725 11:30:50.252463  6915 net.cpp:408] res4a_branch2c -> res4a_branch2c
I0725 11:30:50.256779  6915 net.cpp:150] Setting up res4a_branch2c
I0725 11:30:50.256794  6915 net.cpp:157] Top shape: 2 1024 32 32 (2097152)
I0725 11:30:50.256808  6915 net.cpp:165] Memory required for data: 1920991264
I0725 11:30:50.256814  6915 layer_factory.hpp:77] Creating layer bn4a_branch2c
I0725 11:30:50.256822  6915 net.cpp:100] Creating Layer bn4a_branch2c
I0725 11:30:50.256836  6915 net.cpp:434] bn4a_branch2c <- res4a_branch2c
I0725 11:30:50.256844  6915 net.cpp:395] bn4a_branch2c -> res4a_branch2c (in-place)
I0725 11:30:50.257089  6915 net.cpp:150] Setting up bn4a_branch2c
I0725 11:30:50.257102  6915 net.cpp:157] Top shape: 2 1024 32 32 (2097152)
I0725 11:30:50.257107  6915 net.cpp:165] Memory required for data: 1929379872
I0725 11:30:50.257113  6915 layer_factory.hpp:77] Creating layer scale4a_branch2c
I0725 11:30:50.257127  6915 net.cpp:100] Creating Layer scale4a_branch2c
I0725 11:30:50.257136  6915 net.cpp:434] scale4a_branch2c <- res4a_branch2c
I0725 11:30:50.257145  6915 net.cpp:395] scale4a_branch2c -> res4a_branch2c (in-place)
I0725 11:30:50.257210  6915 layer_factory.hpp:77] Creating layer scale4a_branch2c
I0725 11:30:50.257354  6915 net.cpp:150] Setting up scale4a_branch2c
I0725 11:30:50.257364  6915 net.cpp:157] Top shape: 2 1024 32 32 (2097152)
I0725 11:30:50.257367  6915 net.cpp:165] Memory required for data: 1937768480
I0725 11:30:50.257375  6915 layer_factory.hpp:77] Creating layer res4a
I0725 11:30:50.257382  6915 net.cpp:100] Creating Layer res4a
I0725 11:30:50.257387  6915 net.cpp:434] res4a <- res4a_branch1
I0725 11:30:50.257395  6915 net.cpp:434] res4a <- res4a_branch2c
I0725 11:30:50.257406  6915 net.cpp:408] res4a -> res4a
I0725 11:30:50.257447  6915 net.cpp:150] Setting up res4a
I0725 11:30:50.257462  6915 net.cpp:157] Top shape: 2 1024 32 32 (2097152)
I0725 11:30:50.257465  6915 net.cpp:165] Memory required for data: 1946157088
I0725 11:30:50.257469  6915 layer_factory.hpp:77] Creating layer res4a_relu
I0725 11:30:50.257477  6915 net.cpp:100] Creating Layer res4a_relu
I0725 11:30:50.257483  6915 net.cpp:434] res4a_relu <- res4a
I0725 11:30:50.257490  6915 net.cpp:395] res4a_relu -> res4a (in-place)
I0725 11:30:50.257928  6915 net.cpp:150] Setting up res4a_relu
I0725 11:30:50.257954  6915 net.cpp:157] Top shape: 2 1024 32 32 (2097152)
I0725 11:30:50.257958  6915 net.cpp:165] Memory required for data: 1954545696
I0725 11:30:50.257961  6915 layer_factory.hpp:77] Creating layer res4a_res4a_relu_0_split
I0725 11:30:50.257998  6915 net.cpp:100] Creating Layer res4a_res4a_relu_0_split
I0725 11:30:50.258004  6915 net.cpp:434] res4a_res4a_relu_0_split <- res4a
I0725 11:30:50.258010  6915 net.cpp:408] res4a_res4a_relu_0_split -> res4a_res4a_relu_0_split_0
I0725 11:30:50.258019  6915 net.cpp:408] res4a_res4a_relu_0_split -> res4a_res4a_relu_0_split_1
I0725 11:30:50.258087  6915 net.cpp:150] Setting up res4a_res4a_relu_0_split
I0725 11:30:50.258100  6915 net.cpp:157] Top shape: 2 1024 32 32 (2097152)
I0725 11:30:50.258103  6915 net.cpp:157] Top shape: 2 1024 32 32 (2097152)
I0725 11:30:50.258106  6915 net.cpp:165] Memory required for data: 1971322912
I0725 11:30:50.258111  6915 layer_factory.hpp:77] Creating layer res4b1_branch2a
I0725 11:30:50.258126  6915 net.cpp:100] Creating Layer res4b1_branch2a
I0725 11:30:50.258136  6915 net.cpp:434] res4b1_branch2a <- res4a_res4a_relu_0_split_0
I0725 11:30:50.258149  6915 net.cpp:408] res4b1_branch2a -> res4b1_branch2a
I0725 11:30:50.261375  6915 net.cpp:150] Setting up res4b1_branch2a
I0725 11:30:50.261404  6915 net.cpp:157] Top shape: 2 256 32 32 (524288)
I0725 11:30:50.261407  6915 net.cpp:165] Memory required for data: 1973420064
I0725 11:30:50.261412  6915 layer_factory.hpp:77] Creating layer bn4b1_branch2a
I0725 11:30:50.261418  6915 net.cpp:100] Creating Layer bn4b1_branch2a
I0725 11:30:50.261422  6915 net.cpp:434] bn4b1_branch2a <- res4b1_branch2a
I0725 11:30:50.261428  6915 net.cpp:395] bn4b1_branch2a -> res4b1_branch2a (in-place)
I0725 11:30:50.261683  6915 net.cpp:150] Setting up bn4b1_branch2a
I0725 11:30:50.261695  6915 net.cpp:157] Top shape: 2 256 32 32 (524288)
I0725 11:30:50.261698  6915 net.cpp:165] Memory required for data: 1975517216
I0725 11:30:50.261705  6915 layer_factory.hpp:77] Creating layer scale4b1_branch2a
I0725 11:30:50.261715  6915 net.cpp:100] Creating Layer scale4b1_branch2a
I0725 11:30:50.261721  6915 net.cpp:434] scale4b1_branch2a <- res4b1_branch2a
I0725 11:30:50.261729  6915 net.cpp:395] scale4b1_branch2a -> res4b1_branch2a (in-place)
I0725 11:30:50.261814  6915 layer_factory.hpp:77] Creating layer scale4b1_branch2a
I0725 11:30:50.261955  6915 net.cpp:150] Setting up scale4b1_branch2a
I0725 11:30:50.261966  6915 net.cpp:157] Top shape: 2 256 32 32 (524288)
I0725 11:30:50.261970  6915 net.cpp:165] Memory required for data: 1977614368
I0725 11:30:50.261976  6915 layer_factory.hpp:77] Creating layer res4b1_branch2a_relu
I0725 11:30:50.261986  6915 net.cpp:100] Creating Layer res4b1_branch2a_relu
I0725 11:30:50.261991  6915 net.cpp:434] res4b1_branch2a_relu <- res4b1_branch2a
I0725 11:30:50.262001  6915 net.cpp:395] res4b1_branch2a_relu -> res4b1_branch2a (in-place)
I0725 11:30:50.262226  6915 net.cpp:150] Setting up res4b1_branch2a_relu
I0725 11:30:50.262240  6915 net.cpp:157] Top shape: 2 256 32 32 (524288)
I0725 11:30:50.262243  6915 net.cpp:165] Memory required for data: 1979711520
I0725 11:30:50.262246  6915 layer_factory.hpp:77] Creating layer res4b1_branch2b
I0725 11:30:50.262259  6915 net.cpp:100] Creating Layer res4b1_branch2b
I0725 11:30:50.262266  6915 net.cpp:434] res4b1_branch2b <- res4b1_branch2a
I0725 11:30:50.262280  6915 net.cpp:408] res4b1_branch2b -> res4b1_branch2b
I0725 11:30:50.269865  6915 net.cpp:150] Setting up res4b1_branch2b
I0725 11:30:50.269891  6915 net.cpp:157] Top shape: 2 256 32 32 (524288)
I0725 11:30:50.269894  6915 net.cpp:165] Memory required for data: 1981808672
I0725 11:30:50.269901  6915 layer_factory.hpp:77] Creating layer bn4b1_branch2b
I0725 11:30:50.269906  6915 net.cpp:100] Creating Layer bn4b1_branch2b
I0725 11:30:50.269912  6915 net.cpp:434] bn4b1_branch2b <- res4b1_branch2b
I0725 11:30:50.269917  6915 net.cpp:395] bn4b1_branch2b -> res4b1_branch2b (in-place)
I0725 11:30:50.270170  6915 net.cpp:150] Setting up bn4b1_branch2b
I0725 11:30:50.270184  6915 net.cpp:157] Top shape: 2 256 32 32 (524288)
I0725 11:30:50.270186  6915 net.cpp:165] Memory required for data: 1983905824
I0725 11:30:50.270195  6915 layer_factory.hpp:77] Creating layer scale4b1_branch2b
I0725 11:30:50.270210  6915 net.cpp:100] Creating Layer scale4b1_branch2b
I0725 11:30:50.270217  6915 net.cpp:434] scale4b1_branch2b <- res4b1_branch2b
I0725 11:30:50.270229  6915 net.cpp:395] scale4b1_branch2b -> res4b1_branch2b (in-place)
I0725 11:30:50.270298  6915 layer_factory.hpp:77] Creating layer scale4b1_branch2b
I0725 11:30:50.270440  6915 net.cpp:150] Setting up scale4b1_branch2b
I0725 11:30:50.270452  6915 net.cpp:157] Top shape: 2 256 32 32 (524288)
I0725 11:30:50.270454  6915 net.cpp:165] Memory required for data: 1986002976
I0725 11:30:50.270462  6915 layer_factory.hpp:77] Creating layer res4b1_branch2b_relu
I0725 11:30:50.270469  6915 net.cpp:100] Creating Layer res4b1_branch2b_relu
I0725 11:30:50.270475  6915 net.cpp:434] res4b1_branch2b_relu <- res4b1_branch2b
I0725 11:30:50.270485  6915 net.cpp:395] res4b1_branch2b_relu -> res4b1_branch2b (in-place)
I0725 11:30:50.270706  6915 net.cpp:150] Setting up res4b1_branch2b_relu
I0725 11:30:50.270720  6915 net.cpp:157] Top shape: 2 256 32 32 (524288)
I0725 11:30:50.270722  6915 net.cpp:165] Memory required for data: 1988100128
I0725 11:30:50.270726  6915 layer_factory.hpp:77] Creating layer res4b1_branch2c
I0725 11:30:50.270740  6915 net.cpp:100] Creating Layer res4b1_branch2c
I0725 11:30:50.270746  6915 net.cpp:434] res4b1_branch2c <- res4b1_branch2b
I0725 11:30:50.270758  6915 net.cpp:408] res4b1_branch2c -> res4b1_branch2c
I0725 11:30:50.275113  6915 net.cpp:150] Setting up res4b1_branch2c
I0725 11:30:50.275140  6915 net.cpp:157] Top shape: 2 1024 32 32 (2097152)
I0725 11:30:50.275143  6915 net.cpp:165] Memory required for data: 1996488736
I0725 11:30:50.275148  6915 layer_factory.hpp:77] Creating layer bn4b1_branch2c
I0725 11:30:50.275156  6915 net.cpp:100] Creating Layer bn4b1_branch2c
I0725 11:30:50.275161  6915 net.cpp:434] bn4b1_branch2c <- res4b1_branch2c
I0725 11:30:50.275166  6915 net.cpp:395] bn4b1_branch2c -> res4b1_branch2c (in-place)
I0725 11:30:50.275421  6915 net.cpp:150] Setting up bn4b1_branch2c
I0725 11:30:50.275444  6915 net.cpp:157] Top shape: 2 1024 32 32 (2097152)
I0725 11:30:50.275449  6915 net.cpp:165] Memory required for data: 2004877344
I0725 11:30:50.275457  6915 layer_factory.hpp:77] Creating layer scale4b1_branch2c
I0725 11:30:50.275470  6915 net.cpp:100] Creating Layer scale4b1_branch2c
I0725 11:30:50.275480  6915 net.cpp:434] scale4b1_branch2c <- res4b1_branch2c
I0725 11:30:50.275488  6915 net.cpp:395] scale4b1_branch2c -> res4b1_branch2c (in-place)
I0725 11:30:50.275555  6915 layer_factory.hpp:77] Creating layer scale4b1_branch2c
I0725 11:30:50.275707  6915 net.cpp:150] Setting up scale4b1_branch2c
I0725 11:30:50.275718  6915 net.cpp:157] Top shape: 2 1024 32 32 (2097152)
I0725 11:30:50.275722  6915 net.cpp:165] Memory required for data: 2013265952
I0725 11:30:50.275728  6915 layer_factory.hpp:77] Creating layer res4b1
I0725 11:30:50.275739  6915 net.cpp:100] Creating Layer res4b1
I0725 11:30:50.275746  6915 net.cpp:434] res4b1 <- res4a_res4a_relu_0_split_1
I0725 11:30:50.275753  6915 net.cpp:434] res4b1 <- res4b1_branch2c
I0725 11:30:50.275761  6915 net.cpp:408] res4b1 -> res4b1
I0725 11:30:50.275805  6915 net.cpp:150] Setting up res4b1
I0725 11:30:50.275816  6915 net.cpp:157] Top shape: 2 1024 32 32 (2097152)
I0725 11:30:50.275820  6915 net.cpp:165] Memory required for data: 2021654560
I0725 11:30:50.275822  6915 layer_factory.hpp:77] Creating layer res4b1_relu
I0725 11:30:50.275830  6915 net.cpp:100] Creating Layer res4b1_relu
I0725 11:30:50.275835  6915 net.cpp:434] res4b1_relu <- res4b1
I0725 11:30:50.275847  6915 net.cpp:395] res4b1_relu -> res4b1 (in-place)
I0725 11:30:50.276096  6915 net.cpp:150] Setting up res4b1_relu
I0725 11:30:50.276113  6915 net.cpp:157] Top shape: 2 1024 32 32 (2097152)
I0725 11:30:50.276118  6915 net.cpp:165] Memory required for data: 2030043168
I0725 11:30:50.276124  6915 layer_factory.hpp:77] Creating layer res4b1_res4b1_relu_0_split
I0725 11:30:50.276132  6915 net.cpp:100] Creating Layer res4b1_res4b1_relu_0_split
I0725 11:30:50.276137  6915 net.cpp:434] res4b1_res4b1_relu_0_split <- res4b1
I0725 11:30:50.276150  6915 net.cpp:408] res4b1_res4b1_relu_0_split -> res4b1_res4b1_relu_0_split_0
I0725 11:30:50.276167  6915 net.cpp:408] res4b1_res4b1_relu_0_split -> res4b1_res4b1_relu_0_split_1
I0725 11:30:50.276243  6915 net.cpp:150] Setting up res4b1_res4b1_relu_0_split
I0725 11:30:50.276254  6915 net.cpp:157] Top shape: 2 1024 32 32 (2097152)
I0725 11:30:50.276258  6915 net.cpp:157] Top shape: 2 1024 32 32 (2097152)
I0725 11:30:50.276262  6915 net.cpp:165] Memory required for data: 2046820384
I0725 11:30:50.276266  6915 layer_factory.hpp:77] Creating layer res4b2_branch2a
I0725 11:30:50.276281  6915 net.cpp:100] Creating Layer res4b2_branch2a
I0725 11:30:50.276289  6915 net.cpp:434] res4b2_branch2a <- res4b1_res4b1_relu_0_split_0
I0725 11:30:50.276304  6915 net.cpp:408] res4b2_branch2a -> res4b2_branch2a
I0725 11:30:50.279700  6915 net.cpp:150] Setting up res4b2_branch2a
I0725 11:30:50.279727  6915 net.cpp:157] Top shape: 2 256 32 32 (524288)
I0725 11:30:50.279731  6915 net.cpp:165] Memory required for data: 2048917536
I0725 11:30:50.279736  6915 layer_factory.hpp:77] Creating layer bn4b2_branch2a
I0725 11:30:50.279742  6915 net.cpp:100] Creating Layer bn4b2_branch2a
I0725 11:30:50.279747  6915 net.cpp:434] bn4b2_branch2a <- res4b2_branch2a
I0725 11:30:50.279752  6915 net.cpp:395] bn4b2_branch2a -> res4b2_branch2a (in-place)
I0725 11:30:50.280014  6915 net.cpp:150] Setting up bn4b2_branch2a
I0725 11:30:50.280038  6915 net.cpp:157] Top shape: 2 256 32 32 (524288)
I0725 11:30:50.280043  6915 net.cpp:165] Memory required for data: 2051014688
I0725 11:30:50.280055  6915 layer_factory.hpp:77] Creating layer scale4b2_branch2a
I0725 11:30:50.280067  6915 net.cpp:100] Creating Layer scale4b2_branch2a
I0725 11:30:50.280073  6915 net.cpp:434] scale4b2_branch2a <- res4b2_branch2a
I0725 11:30:50.280086  6915 net.cpp:395] scale4b2_branch2a -> res4b2_branch2a (in-place)
I0725 11:30:50.280158  6915 layer_factory.hpp:77] Creating layer scale4b2_branch2a
I0725 11:30:50.280297  6915 net.cpp:150] Setting up scale4b2_branch2a
I0725 11:30:50.280319  6915 net.cpp:157] Top shape: 2 256 32 32 (524288)
I0725 11:30:50.280323  6915 net.cpp:165] Memory required for data: 2053111840
I0725 11:30:50.280330  6915 layer_factory.hpp:77] Creating layer res4b2_branch2a_relu
I0725 11:30:50.280339  6915 net.cpp:100] Creating Layer res4b2_branch2a_relu
I0725 11:30:50.280344  6915 net.cpp:434] res4b2_branch2a_relu <- res4b2_branch2a
I0725 11:30:50.280354  6915 net.cpp:395] res4b2_branch2a_relu -> res4b2_branch2a (in-place)
I0725 11:30:50.280580  6915 net.cpp:150] Setting up res4b2_branch2a_relu
I0725 11:30:50.280591  6915 net.cpp:157] Top shape: 2 256 32 32 (524288)
I0725 11:30:50.280594  6915 net.cpp:165] Memory required for data: 2055208992
I0725 11:30:50.280598  6915 layer_factory.hpp:77] Creating layer res4b2_branch2b
I0725 11:30:50.280612  6915 net.cpp:100] Creating Layer res4b2_branch2b
I0725 11:30:50.280622  6915 net.cpp:434] res4b2_branch2b <- res4b2_branch2a
I0725 11:30:50.280634  6915 net.cpp:408] res4b2_branch2b -> res4b2_branch2b
I0725 11:30:50.288174  6915 net.cpp:150] Setting up res4b2_branch2b
I0725 11:30:50.288203  6915 net.cpp:157] Top shape: 2 256 32 32 (524288)
I0725 11:30:50.288206  6915 net.cpp:165] Memory required for data: 2057306144
I0725 11:30:50.288211  6915 layer_factory.hpp:77] Creating layer bn4b2_branch2b
I0725 11:30:50.288218  6915 net.cpp:100] Creating Layer bn4b2_branch2b
I0725 11:30:50.288221  6915 net.cpp:434] bn4b2_branch2b <- res4b2_branch2b
I0725 11:30:50.288228  6915 net.cpp:395] bn4b2_branch2b -> res4b2_branch2b (in-place)
I0725 11:30:50.288488  6915 net.cpp:150] Setting up bn4b2_branch2b
I0725 11:30:50.288501  6915 net.cpp:157] Top shape: 2 256 32 32 (524288)
I0725 11:30:50.288504  6915 net.cpp:165] Memory required for data: 2059403296
I0725 11:30:50.288512  6915 layer_factory.hpp:77] Creating layer scale4b2_branch2b
I0725 11:30:50.288525  6915 net.cpp:100] Creating Layer scale4b2_branch2b
I0725 11:30:50.288534  6915 net.cpp:434] scale4b2_branch2b <- res4b2_branch2b
I0725 11:30:50.288543  6915 net.cpp:395] scale4b2_branch2b -> res4b2_branch2b (in-place)
I0725 11:30:50.288616  6915 layer_factory.hpp:77] Creating layer scale4b2_branch2b
I0725 11:30:50.288759  6915 net.cpp:150] Setting up scale4b2_branch2b
I0725 11:30:50.288771  6915 net.cpp:157] Top shape: 2 256 32 32 (524288)
I0725 11:30:50.288774  6915 net.cpp:165] Memory required for data: 2061500448
I0725 11:30:50.288781  6915 layer_factory.hpp:77] Creating layer res4b2_branch2b_relu
I0725 11:30:50.288792  6915 net.cpp:100] Creating Layer res4b2_branch2b_relu
I0725 11:30:50.288799  6915 net.cpp:434] res4b2_branch2b_relu <- res4b2_branch2b
I0725 11:30:50.288806  6915 net.cpp:395] res4b2_branch2b_relu -> res4b2_branch2b (in-place)
I0725 11:30:50.289022  6915 net.cpp:150] Setting up res4b2_branch2b_relu
I0725 11:30:50.289034  6915 net.cpp:157] Top shape: 2 256 32 32 (524288)
I0725 11:30:50.289037  6915 net.cpp:165] Memory required for data: 2063597600
I0725 11:30:50.289041  6915 layer_factory.hpp:77] Creating layer res4b2_branch2c
I0725 11:30:50.289055  6915 net.cpp:100] Creating Layer res4b2_branch2c
I0725 11:30:50.289062  6915 net.cpp:434] res4b2_branch2c <- res4b2_branch2b
I0725 11:30:50.289073  6915 net.cpp:408] res4b2_branch2c -> res4b2_branch2c
I0725 11:30:50.293412  6915 net.cpp:150] Setting up res4b2_branch2c
I0725 11:30:50.293438  6915 net.cpp:157] Top shape: 2 1024 32 32 (2097152)
I0725 11:30:50.293442  6915 net.cpp:165] Memory required for data: 2071986208
I0725 11:30:50.293447  6915 layer_factory.hpp:77] Creating layer bn4b2_branch2c
I0725 11:30:50.293455  6915 net.cpp:100] Creating Layer bn4b2_branch2c
I0725 11:30:50.293460  6915 net.cpp:434] bn4b2_branch2c <- res4b2_branch2c
I0725 11:30:50.293465  6915 net.cpp:395] bn4b2_branch2c -> res4b2_branch2c (in-place)
I0725 11:30:50.293721  6915 net.cpp:150] Setting up bn4b2_branch2c
I0725 11:30:50.293735  6915 net.cpp:157] Top shape: 2 1024 32 32 (2097152)
I0725 11:30:50.293737  6915 net.cpp:165] Memory required for data: 2080374816
I0725 11:30:50.293745  6915 layer_factory.hpp:77] Creating layer scale4b2_branch2c
I0725 11:30:50.293777  6915 net.cpp:100] Creating Layer scale4b2_branch2c
I0725 11:30:50.293789  6915 net.cpp:434] scale4b2_branch2c <- res4b2_branch2c
I0725 11:30:50.293799  6915 net.cpp:395] scale4b2_branch2c -> res4b2_branch2c (in-place)
I0725 11:30:50.293866  6915 layer_factory.hpp:77] Creating layer scale4b2_branch2c
I0725 11:30:50.294018  6915 net.cpp:150] Setting up scale4b2_branch2c
I0725 11:30:50.294029  6915 net.cpp:157] Top shape: 2 1024 32 32 (2097152)
I0725 11:30:50.294032  6915 net.cpp:165] Memory required for data: 2088763424
I0725 11:30:50.294039  6915 layer_factory.hpp:77] Creating layer res4b2
I0725 11:30:50.294050  6915 net.cpp:100] Creating Layer res4b2
I0725 11:30:50.294059  6915 net.cpp:434] res4b2 <- res4b1_res4b1_relu_0_split_1
I0725 11:30:50.294067  6915 net.cpp:434] res4b2 <- res4b2_branch2c
I0725 11:30:50.294075  6915 net.cpp:408] res4b2 -> res4b2
I0725 11:30:50.294121  6915 net.cpp:150] Setting up res4b2
I0725 11:30:50.294133  6915 net.cpp:157] Top shape: 2 1024 32 32 (2097152)
I0725 11:30:50.294137  6915 net.cpp:165] Memory required for data: 2097152032
I0725 11:30:50.294139  6915 layer_factory.hpp:77] Creating layer res4b2_relu
I0725 11:30:50.294147  6915 net.cpp:100] Creating Layer res4b2_relu
I0725 11:30:50.294152  6915 net.cpp:434] res4b2_relu <- res4b2
I0725 11:30:50.294162  6915 net.cpp:395] res4b2_relu -> res4b2 (in-place)
I0725 11:30:50.294591  6915 net.cpp:150] Setting up res4b2_relu
I0725 11:30:50.294616  6915 net.cpp:157] Top shape: 2 1024 32 32 (2097152)
I0725 11:30:50.294620  6915 net.cpp:165] Memory required for data: 2105540640
I0725 11:30:50.294623  6915 layer_factory.hpp:77] Creating layer res4b2_res4b2_relu_0_split
I0725 11:30:50.294629  6915 net.cpp:100] Creating Layer res4b2_res4b2_relu_0_split
I0725 11:30:50.294633  6915 net.cpp:434] res4b2_res4b2_relu_0_split <- res4b2
I0725 11:30:50.294641  6915 net.cpp:408] res4b2_res4b2_relu_0_split -> res4b2_res4b2_relu_0_split_0
I0725 11:30:50.294648  6915 net.cpp:408] res4b2_res4b2_relu_0_split -> res4b2_res4b2_relu_0_split_1
I0725 11:30:50.294724  6915 net.cpp:150] Setting up res4b2_res4b2_relu_0_split
I0725 11:30:50.294737  6915 net.cpp:157] Top shape: 2 1024 32 32 (2097152)
I0725 11:30:50.294741  6915 net.cpp:157] Top shape: 2 1024 32 32 (2097152)
I0725 11:30:50.294744  6915 net.cpp:165] Memory required for data: 2122317856
I0725 11:30:50.294749  6915 layer_factory.hpp:77] Creating layer res4b3_branch2a
I0725 11:30:50.294762  6915 net.cpp:100] Creating Layer res4b3_branch2a
I0725 11:30:50.294772  6915 net.cpp:434] res4b3_branch2a <- res4b2_res4b2_relu_0_split_0
I0725 11:30:50.294785  6915 net.cpp:408] res4b3_branch2a -> res4b3_branch2a
I0725 11:30:50.298188  6915 net.cpp:150] Setting up res4b3_branch2a
I0725 11:30:50.298213  6915 net.cpp:157] Top shape: 2 256 32 32 (524288)
I0725 11:30:50.298218  6915 net.cpp:165] Memory required for data: 2124415008
I0725 11:30:50.298223  6915 layer_factory.hpp:77] Creating layer bn4b3_branch2a
I0725 11:30:50.298231  6915 net.cpp:100] Creating Layer bn4b3_branch2a
I0725 11:30:50.298235  6915 net.cpp:434] bn4b3_branch2a <- res4b3_branch2a
I0725 11:30:50.298240  6915 net.cpp:395] bn4b3_branch2a -> res4b3_branch2a (in-place)
I0725 11:30:50.298499  6915 net.cpp:150] Setting up bn4b3_branch2a
I0725 11:30:50.298512  6915 net.cpp:157] Top shape: 2 256 32 32 (524288)
I0725 11:30:50.298516  6915 net.cpp:165] Memory required for data: 2126512160
I0725 11:30:50.298524  6915 layer_factory.hpp:77] Creating layer scale4b3_branch2a
I0725 11:30:50.298534  6915 net.cpp:100] Creating Layer scale4b3_branch2a
I0725 11:30:50.298540  6915 net.cpp:434] scale4b3_branch2a <- res4b3_branch2a
I0725 11:30:50.298548  6915 net.cpp:395] scale4b3_branch2a -> res4b3_branch2a (in-place)
I0725 11:30:50.298620  6915 layer_factory.hpp:77] Creating layer scale4b3_branch2a
I0725 11:30:50.298768  6915 net.cpp:150] Setting up scale4b3_branch2a
I0725 11:30:50.298780  6915 net.cpp:157] Top shape: 2 256 32 32 (524288)
I0725 11:30:50.298784  6915 net.cpp:165] Memory required for data: 2128609312
I0725 11:30:50.298790  6915 layer_factory.hpp:77] Creating layer res4b3_branch2a_relu
I0725 11:30:50.298818  6915 net.cpp:100] Creating Layer res4b3_branch2a_relu
I0725 11:30:50.298825  6915 net.cpp:434] res4b3_branch2a_relu <- res4b3_branch2a
I0725 11:30:50.298837  6915 net.cpp:395] res4b3_branch2a_relu -> res4b3_branch2a (in-place)
I0725 11:30:50.299060  6915 net.cpp:150] Setting up res4b3_branch2a_relu
I0725 11:30:50.299074  6915 net.cpp:157] Top shape: 2 256 32 32 (524288)
I0725 11:30:50.299077  6915 net.cpp:165] Memory required for data: 2130706464
I0725 11:30:50.299080  6915 layer_factory.hpp:77] Creating layer res4b3_branch2b
I0725 11:30:50.299094  6915 net.cpp:100] Creating Layer res4b3_branch2b
I0725 11:30:50.299100  6915 net.cpp:434] res4b3_branch2b <- res4b3_branch2a
I0725 11:30:50.299113  6915 net.cpp:408] res4b3_branch2b -> res4b3_branch2b
I0725 11:30:50.306685  6915 net.cpp:150] Setting up res4b3_branch2b
I0725 11:30:50.306713  6915 net.cpp:157] Top shape: 2 256 32 32 (524288)
I0725 11:30:50.306717  6915 net.cpp:165] Memory required for data: 2132803616
I0725 11:30:50.306722  6915 layer_factory.hpp:77] Creating layer bn4b3_branch2b
I0725 11:30:50.306728  6915 net.cpp:100] Creating Layer bn4b3_branch2b
I0725 11:30:50.306732  6915 net.cpp:434] bn4b3_branch2b <- res4b3_branch2b
I0725 11:30:50.306740  6915 net.cpp:395] bn4b3_branch2b -> res4b3_branch2b (in-place)
I0725 11:30:50.307000  6915 net.cpp:150] Setting up bn4b3_branch2b
I0725 11:30:50.307013  6915 net.cpp:157] Top shape: 2 256 32 32 (524288)
I0725 11:30:50.307016  6915 net.cpp:165] Memory required for data: 2134900768
I0725 11:30:50.307025  6915 layer_factory.hpp:77] Creating layer scale4b3_branch2b
I0725 11:30:50.307039  6915 net.cpp:100] Creating Layer scale4b3_branch2b
I0725 11:30:50.307047  6915 net.cpp:434] scale4b3_branch2b <- res4b3_branch2b
I0725 11:30:50.307056  6915 net.cpp:395] scale4b3_branch2b -> res4b3_branch2b (in-place)
I0725 11:30:50.307127  6915 layer_factory.hpp:77] Creating layer scale4b3_branch2b
I0725 11:30:50.307276  6915 net.cpp:150] Setting up scale4b3_branch2b
I0725 11:30:50.307288  6915 net.cpp:157] Top shape: 2 256 32 32 (524288)
I0725 11:30:50.307291  6915 net.cpp:165] Memory required for data: 2136997920
I0725 11:30:50.307298  6915 layer_factory.hpp:77] Creating layer res4b3_branch2b_relu
I0725 11:30:50.307307  6915 net.cpp:100] Creating Layer res4b3_branch2b_relu
I0725 11:30:50.307312  6915 net.cpp:434] res4b3_branch2b_relu <- res4b3_branch2b
I0725 11:30:50.307322  6915 net.cpp:395] res4b3_branch2b_relu -> res4b3_branch2b (in-place)
I0725 11:30:50.307551  6915 net.cpp:150] Setting up res4b3_branch2b_relu
I0725 11:30:50.307564  6915 net.cpp:157] Top shape: 2 256 32 32 (524288)
I0725 11:30:50.307567  6915 net.cpp:165] Memory required for data: 2139095072
I0725 11:30:50.307571  6915 layer_factory.hpp:77] Creating layer res4b3_branch2c
I0725 11:30:50.307585  6915 net.cpp:100] Creating Layer res4b3_branch2c
I0725 11:30:50.307595  6915 net.cpp:434] res4b3_branch2c <- res4b3_branch2b
I0725 11:30:50.307605  6915 net.cpp:408] res4b3_branch2c -> res4b3_branch2c
I0725 11:30:50.312058  6915 net.cpp:150] Setting up res4b3_branch2c
I0725 11:30:50.312086  6915 net.cpp:157] Top shape: 2 1024 32 32 (2097152)
I0725 11:30:50.312090  6915 net.cpp:165] Memory required for data: 2147483680
I0725 11:30:50.312095  6915 layer_factory.hpp:77] Creating layer bn4b3_branch2c
I0725 11:30:50.312101  6915 net.cpp:100] Creating Layer bn4b3_branch2c
I0725 11:30:50.312105  6915 net.cpp:434] bn4b3_branch2c <- res4b3_branch2c
I0725 11:30:50.312111  6915 net.cpp:395] bn4b3_branch2c -> res4b3_branch2c (in-place)
I0725 11:30:50.312376  6915 net.cpp:150] Setting up bn4b3_branch2c
I0725 11:30:50.312389  6915 net.cpp:157] Top shape: 2 1024 32 32 (2097152)
I0725 11:30:50.312392  6915 net.cpp:165] Memory required for data: 2155872288
I0725 11:30:50.312402  6915 layer_factory.hpp:77] Creating layer scale4b3_branch2c
I0725 11:30:50.312414  6915 net.cpp:100] Creating Layer scale4b3_branch2c
I0725 11:30:50.312423  6915 net.cpp:434] scale4b3_branch2c <- res4b3_branch2c
I0725 11:30:50.312433  6915 net.cpp:395] scale4b3_branch2c -> res4b3_branch2c (in-place)
I0725 11:30:50.312516  6915 layer_factory.hpp:77] Creating layer scale4b3_branch2c
I0725 11:30:50.312669  6915 net.cpp:150] Setting up scale4b3_branch2c
I0725 11:30:50.312681  6915 net.cpp:157] Top shape: 2 1024 32 32 (2097152)
I0725 11:30:50.312685  6915 net.cpp:165] Memory required for data: 2164260896
I0725 11:30:50.312691  6915 layer_factory.hpp:77] Creating layer res4b3
I0725 11:30:50.312702  6915 net.cpp:100] Creating Layer res4b3
I0725 11:30:50.312710  6915 net.cpp:434] res4b3 <- res4b2_res4b2_relu_0_split_1
I0725 11:30:50.312716  6915 net.cpp:434] res4b3 <- res4b3_branch2c
I0725 11:30:50.312724  6915 net.cpp:408] res4b3 -> res4b3
I0725 11:30:50.312770  6915 net.cpp:150] Setting up res4b3
I0725 11:30:50.312782  6915 net.cpp:157] Top shape: 2 1024 32 32 (2097152)
I0725 11:30:50.312784  6915 net.cpp:165] Memory required for data: 2172649504
I0725 11:30:50.312788  6915 layer_factory.hpp:77] Creating layer res4b3_relu
I0725 11:30:50.312794  6915 net.cpp:100] Creating Layer res4b3_relu
I0725 11:30:50.312799  6915 net.cpp:434] res4b3_relu <- res4b3
I0725 11:30:50.312809  6915 net.cpp:395] res4b3_relu -> res4b3 (in-place)
I0725 11:30:50.313033  6915 net.cpp:150] Setting up res4b3_relu
I0725 11:30:50.313046  6915 net.cpp:157] Top shape: 2 1024 32 32 (2097152)
I0725 11:30:50.313050  6915 net.cpp:165] Memory required for data: 2181038112
I0725 11:30:50.313052  6915 layer_factory.hpp:77] Creating layer res4b3_res4b3_relu_0_split
I0725 11:30:50.313061  6915 net.cpp:100] Creating Layer res4b3_res4b3_relu_0_split
I0725 11:30:50.313066  6915 net.cpp:434] res4b3_res4b3_relu_0_split <- res4b3
I0725 11:30:50.313081  6915 net.cpp:408] res4b3_res4b3_relu_0_split -> res4b3_res4b3_relu_0_split_0
I0725 11:30:50.313096  6915 net.cpp:408] res4b3_res4b3_relu_0_split -> res4b3_res4b3_relu_0_split_1
I0725 11:30:50.313171  6915 net.cpp:150] Setting up res4b3_res4b3_relu_0_split
I0725 11:30:50.313182  6915 net.cpp:157] Top shape: 2 1024 32 32 (2097152)
I0725 11:30:50.313186  6915 net.cpp:157] Top shape: 2 1024 32 32 (2097152)
I0725 11:30:50.313189  6915 net.cpp:165] Memory required for data: 2197815328
I0725 11:30:50.313192  6915 layer_factory.hpp:77] Creating layer res4b4_branch2a
I0725 11:30:50.313207  6915 net.cpp:100] Creating Layer res4b4_branch2a
I0725 11:30:50.313216  6915 net.cpp:434] res4b4_branch2a <- res4b3_res4b3_relu_0_split_0
I0725 11:30:50.313230  6915 net.cpp:408] res4b4_branch2a -> res4b4_branch2a
I0725 11:30:50.316762  6915 net.cpp:150] Setting up res4b4_branch2a
I0725 11:30:50.316778  6915 net.cpp:157] Top shape: 2 256 32 32 (524288)
I0725 11:30:50.316781  6915 net.cpp:165] Memory required for data: 2199912480
I0725 11:30:50.316787  6915 layer_factory.hpp:77] Creating layer bn4b4_branch2a
I0725 11:30:50.316797  6915 net.cpp:100] Creating Layer bn4b4_branch2a
I0725 11:30:50.316804  6915 net.cpp:434] bn4b4_branch2a <- res4b4_branch2a
I0725 11:30:50.316812  6915 net.cpp:395] bn4b4_branch2a -> res4b4_branch2a (in-place)
I0725 11:30:50.317061  6915 net.cpp:150] Setting up bn4b4_branch2a
I0725 11:30:50.317075  6915 net.cpp:157] Top shape: 2 256 32 32 (524288)
I0725 11:30:50.317077  6915 net.cpp:165] Memory required for data: 2202009632
I0725 11:30:50.317086  6915 layer_factory.hpp:77] Creating layer scale4b4_branch2a
I0725 11:30:50.317096  6915 net.cpp:100] Creating Layer scale4b4_branch2a
I0725 11:30:50.317106  6915 net.cpp:434] scale4b4_branch2a <- res4b4_branch2a
I0725 11:30:50.317118  6915 net.cpp:395] scale4b4_branch2a -> res4b4_branch2a (in-place)
I0725 11:30:50.317191  6915 layer_factory.hpp:77] Creating layer scale4b4_branch2a
I0725 11:30:50.317338  6915 net.cpp:150] Setting up scale4b4_branch2a
I0725 11:30:50.317349  6915 net.cpp:157] Top shape: 2 256 32 32 (524288)
I0725 11:30:50.317353  6915 net.cpp:165] Memory required for data: 2204106784
I0725 11:30:50.317359  6915 layer_factory.hpp:77] Creating layer res4b4_branch2a_relu
I0725 11:30:50.317368  6915 net.cpp:100] Creating Layer res4b4_branch2a_relu
I0725 11:30:50.317373  6915 net.cpp:434] res4b4_branch2a_relu <- res4b4_branch2a
I0725 11:30:50.317396  6915 net.cpp:395] res4b4_branch2a_relu -> res4b4_branch2a (in-place)
I0725 11:30:50.317621  6915 net.cpp:150] Setting up res4b4_branch2a_relu
I0725 11:30:50.317634  6915 net.cpp:157] Top shape: 2 256 32 32 (524288)
I0725 11:30:50.317637  6915 net.cpp:165] Memory required for data: 2206203936
I0725 11:30:50.317641  6915 layer_factory.hpp:77] Creating layer res4b4_branch2b
I0725 11:30:50.317656  6915 net.cpp:100] Creating Layer res4b4_branch2b
I0725 11:30:50.317665  6915 net.cpp:434] res4b4_branch2b <- res4b4_branch2a
I0725 11:30:50.317675  6915 net.cpp:408] res4b4_branch2b -> res4b4_branch2b
I0725 11:30:50.325238  6915 net.cpp:150] Setting up res4b4_branch2b
I0725 11:30:50.325268  6915 net.cpp:157] Top shape: 2 256 32 32 (524288)
I0725 11:30:50.325270  6915 net.cpp:165] Memory required for data: 2208301088
I0725 11:30:50.325276  6915 layer_factory.hpp:77] Creating layer bn4b4_branch2b
I0725 11:30:50.325282  6915 net.cpp:100] Creating Layer bn4b4_branch2b
I0725 11:30:50.325286  6915 net.cpp:434] bn4b4_branch2b <- res4b4_branch2b
I0725 11:30:50.325292  6915 net.cpp:395] bn4b4_branch2b -> res4b4_branch2b (in-place)
I0725 11:30:50.325565  6915 net.cpp:150] Setting up bn4b4_branch2b
I0725 11:30:50.325577  6915 net.cpp:157] Top shape: 2 256 32 32 (524288)
I0725 11:30:50.325582  6915 net.cpp:165] Memory required for data: 2210398240
I0725 11:30:50.325589  6915 layer_factory.hpp:77] Creating layer scale4b4_branch2b
I0725 11:30:50.325600  6915 net.cpp:100] Creating Layer scale4b4_branch2b
I0725 11:30:50.325610  6915 net.cpp:434] scale4b4_branch2b <- res4b4_branch2b
I0725 11:30:50.325619  6915 net.cpp:395] scale4b4_branch2b -> res4b4_branch2b (in-place)
I0725 11:30:50.325690  6915 layer_factory.hpp:77] Creating layer scale4b4_branch2b
I0725 11:30:50.325840  6915 net.cpp:150] Setting up scale4b4_branch2b
I0725 11:30:50.325851  6915 net.cpp:157] Top shape: 2 256 32 32 (524288)
I0725 11:30:50.325855  6915 net.cpp:165] Memory required for data: 2212495392
I0725 11:30:50.325861  6915 layer_factory.hpp:77] Creating layer res4b4_branch2b_relu
I0725 11:30:50.325870  6915 net.cpp:100] Creating Layer res4b4_branch2b_relu
I0725 11:30:50.325875  6915 net.cpp:434] res4b4_branch2b_relu <- res4b4_branch2b
I0725 11:30:50.325886  6915 net.cpp:395] res4b4_branch2b_relu -> res4b4_branch2b (in-place)
I0725 11:30:50.326110  6915 net.cpp:150] Setting up res4b4_branch2b_relu
I0725 11:30:50.326125  6915 net.cpp:157] Top shape: 2 256 32 32 (524288)
I0725 11:30:50.326128  6915 net.cpp:165] Memory required for data: 2214592544
I0725 11:30:50.326131  6915 layer_factory.hpp:77] Creating layer res4b4_branch2c
I0725 11:30:50.326145  6915 net.cpp:100] Creating Layer res4b4_branch2c
I0725 11:30:50.326153  6915 net.cpp:434] res4b4_branch2c <- res4b4_branch2b
I0725 11:30:50.326161  6915 net.cpp:408] res4b4_branch2c -> res4b4_branch2c
I0725 11:30:50.330520  6915 net.cpp:150] Setting up res4b4_branch2c
I0725 11:30:50.330548  6915 net.cpp:157] Top shape: 2 1024 32 32 (2097152)
I0725 11:30:50.330551  6915 net.cpp:165] Memory required for data: 2222981152
I0725 11:30:50.330557  6915 layer_factory.hpp:77] Creating layer bn4b4_branch2c
I0725 11:30:50.330562  6915 net.cpp:100] Creating Layer bn4b4_branch2c
I0725 11:30:50.330566  6915 net.cpp:434] bn4b4_branch2c <- res4b4_branch2c
I0725 11:30:50.330574  6915 net.cpp:395] bn4b4_branch2c -> res4b4_branch2c (in-place)
I0725 11:30:50.330844  6915 net.cpp:150] Setting up bn4b4_branch2c
I0725 11:30:50.330857  6915 net.cpp:157] Top shape: 2 1024 32 32 (2097152)
I0725 11:30:50.330860  6915 net.cpp:165] Memory required for data: 2231369760
I0725 11:30:50.330868  6915 layer_factory.hpp:77] Creating layer scale4b4_branch2c
I0725 11:30:50.330879  6915 net.cpp:100] Creating Layer scale4b4_branch2c
I0725 11:30:50.330888  6915 net.cpp:434] scale4b4_branch2c <- res4b4_branch2c
I0725 11:30:50.330900  6915 net.cpp:395] scale4b4_branch2c -> res4b4_branch2c (in-place)
I0725 11:30:50.330966  6915 layer_factory.hpp:77] Creating layer scale4b4_branch2c
I0725 11:30:50.331121  6915 net.cpp:150] Setting up scale4b4_branch2c
I0725 11:30:50.331145  6915 net.cpp:157] Top shape: 2 1024 32 32 (2097152)
I0725 11:30:50.331147  6915 net.cpp:165] Memory required for data: 2239758368
I0725 11:30:50.331154  6915 layer_factory.hpp:77] Creating layer res4b4
I0725 11:30:50.331166  6915 net.cpp:100] Creating Layer res4b4
I0725 11:30:50.331176  6915 net.cpp:434] res4b4 <- res4b3_res4b3_relu_0_split_1
I0725 11:30:50.331182  6915 net.cpp:434] res4b4 <- res4b4_branch2c
I0725 11:30:50.331192  6915 net.cpp:408] res4b4 -> res4b4
I0725 11:30:50.331238  6915 net.cpp:150] Setting up res4b4
I0725 11:30:50.331248  6915 net.cpp:157] Top shape: 2 1024 32 32 (2097152)
I0725 11:30:50.331251  6915 net.cpp:165] Memory required for data: 2248146976
I0725 11:30:50.331254  6915 layer_factory.hpp:77] Creating layer res4b4_relu
I0725 11:30:50.331261  6915 net.cpp:100] Creating Layer res4b4_relu
I0725 11:30:50.331267  6915 net.cpp:434] res4b4_relu <- res4b4
I0725 11:30:50.331276  6915 net.cpp:395] res4b4_relu -> res4b4 (in-place)
I0725 11:30:50.331703  6915 net.cpp:150] Setting up res4b4_relu
I0725 11:30:50.331728  6915 net.cpp:157] Top shape: 2 1024 32 32 (2097152)
I0725 11:30:50.331732  6915 net.cpp:165] Memory required for data: 2256535584
I0725 11:30:50.331735  6915 layer_factory.hpp:77] Creating layer res4b4_res4b4_relu_0_split
I0725 11:30:50.331743  6915 net.cpp:100] Creating Layer res4b4_res4b4_relu_0_split
I0725 11:30:50.331748  6915 net.cpp:434] res4b4_res4b4_relu_0_split <- res4b4
I0725 11:30:50.331755  6915 net.cpp:408] res4b4_res4b4_relu_0_split -> res4b4_res4b4_relu_0_split_0
I0725 11:30:50.331763  6915 net.cpp:408] res4b4_res4b4_relu_0_split -> res4b4_res4b4_relu_0_split_1
I0725 11:30:50.331841  6915 net.cpp:150] Setting up res4b4_res4b4_relu_0_split
I0725 11:30:50.331852  6915 net.cpp:157] Top shape: 2 1024 32 32 (2097152)
I0725 11:30:50.331856  6915 net.cpp:157] Top shape: 2 1024 32 32 (2097152)
I0725 11:30:50.331859  6915 net.cpp:165] Memory required for data: 2273312800
I0725 11:30:50.331863  6915 layer_factory.hpp:77] Creating layer res4b5_branch2a
I0725 11:30:50.331881  6915 net.cpp:100] Creating Layer res4b5_branch2a
I0725 11:30:50.331889  6915 net.cpp:434] res4b5_branch2a <- res4b4_res4b4_relu_0_split_0
I0725 11:30:50.331900  6915 net.cpp:408] res4b5_branch2a -> res4b5_branch2a
I0725 11:30:50.335322  6915 net.cpp:150] Setting up res4b5_branch2a
I0725 11:30:50.335348  6915 net.cpp:157] Top shape: 2 256 32 32 (524288)
I0725 11:30:50.335351  6915 net.cpp:165] Memory required for data: 2275409952
I0725 11:30:50.335357  6915 layer_factory.hpp:77] Creating layer bn4b5_branch2a
I0725 11:30:50.335366  6915 net.cpp:100] Creating Layer bn4b5_branch2a
I0725 11:30:50.335369  6915 net.cpp:434] bn4b5_branch2a <- res4b5_branch2a
I0725 11:30:50.335374  6915 net.cpp:395] bn4b5_branch2a -> res4b5_branch2a (in-place)
I0725 11:30:50.335641  6915 net.cpp:150] Setting up bn4b5_branch2a
I0725 11:30:50.335654  6915 net.cpp:157] Top shape: 2 256 32 32 (524288)
I0725 11:30:50.335657  6915 net.cpp:165] Memory required for data: 2277507104
I0725 11:30:50.335666  6915 layer_factory.hpp:77] Creating layer scale4b5_branch2a
I0725 11:30:50.335676  6915 net.cpp:100] Creating Layer scale4b5_branch2a
I0725 11:30:50.335682  6915 net.cpp:434] scale4b5_branch2a <- res4b5_branch2a
I0725 11:30:50.335695  6915 net.cpp:395] scale4b5_branch2a -> res4b5_branch2a (in-place)
I0725 11:30:50.335772  6915 layer_factory.hpp:77] Creating layer scale4b5_branch2a
I0725 11:30:50.335924  6915 net.cpp:150] Setting up scale4b5_branch2a
I0725 11:30:50.335937  6915 net.cpp:157] Top shape: 2 256 32 32 (524288)
I0725 11:30:50.335939  6915 net.cpp:165] Memory required for data: 2279604256
I0725 11:30:50.335945  6915 layer_factory.hpp:77] Creating layer res4b5_branch2a_relu
I0725 11:30:50.335953  6915 net.cpp:100] Creating Layer res4b5_branch2a_relu
I0725 11:30:50.335959  6915 net.cpp:434] res4b5_branch2a_relu <- res4b5_branch2a
I0725 11:30:50.335966  6915 net.cpp:395] res4b5_branch2a_relu -> res4b5_branch2a (in-place)
I0725 11:30:50.336230  6915 net.cpp:150] Setting up res4b5_branch2a_relu
I0725 11:30:50.336253  6915 net.cpp:157] Top shape: 2 256 32 32 (524288)
I0725 11:30:50.336257  6915 net.cpp:165] Memory required for data: 2281701408
I0725 11:30:50.336261  6915 layer_factory.hpp:77] Creating layer res4b5_branch2b
I0725 11:30:50.336277  6915 net.cpp:100] Creating Layer res4b5_branch2b
I0725 11:30:50.336285  6915 net.cpp:434] res4b5_branch2b <- res4b5_branch2a
I0725 11:30:50.336295  6915 net.cpp:408] res4b5_branch2b -> res4b5_branch2b
I0725 11:30:50.343858  6915 net.cpp:150] Setting up res4b5_branch2b
I0725 11:30:50.343873  6915 net.cpp:157] Top shape: 2 256 32 32 (524288)
I0725 11:30:50.343888  6915 net.cpp:165] Memory required for data: 2283798560
I0725 11:30:50.343892  6915 layer_factory.hpp:77] Creating layer bn4b5_branch2b
I0725 11:30:50.343900  6915 net.cpp:100] Creating Layer bn4b5_branch2b
I0725 11:30:50.343904  6915 net.cpp:434] bn4b5_branch2b <- res4b5_branch2b
I0725 11:30:50.343909  6915 net.cpp:395] bn4b5_branch2b -> res4b5_branch2b (in-place)
I0725 11:30:50.344208  6915 net.cpp:150] Setting up bn4b5_branch2b
I0725 11:30:50.344220  6915 net.cpp:157] Top shape: 2 256 32 32 (524288)
I0725 11:30:50.344223  6915 net.cpp:165] Memory required for data: 2285895712
I0725 11:30:50.344231  6915 layer_factory.hpp:77] Creating layer scale4b5_branch2b
I0725 11:30:50.344238  6915 net.cpp:100] Creating Layer scale4b5_branch2b
I0725 11:30:50.344244  6915 net.cpp:434] scale4b5_branch2b <- res4b5_branch2b
I0725 11:30:50.344252  6915 net.cpp:395] scale4b5_branch2b -> res4b5_branch2b (in-place)
I0725 11:30:50.344332  6915 layer_factory.hpp:77] Creating layer scale4b5_branch2b
I0725 11:30:50.344491  6915 net.cpp:150] Setting up scale4b5_branch2b
I0725 11:30:50.344502  6915 net.cpp:157] Top shape: 2 256 32 32 (524288)
I0725 11:30:50.344506  6915 net.cpp:165] Memory required for data: 2287992864
I0725 11:30:50.344512  6915 layer_factory.hpp:77] Creating layer res4b5_branch2b_relu
I0725 11:30:50.344521  6915 net.cpp:100] Creating Layer res4b5_branch2b_relu
I0725 11:30:50.344527  6915 net.cpp:434] res4b5_branch2b_relu <- res4b5_branch2b
I0725 11:30:50.344537  6915 net.cpp:395] res4b5_branch2b_relu -> res4b5_branch2b (in-place)
I0725 11:30:50.344765  6915 net.cpp:150] Setting up res4b5_branch2b_relu
I0725 11:30:50.344780  6915 net.cpp:157] Top shape: 2 256 32 32 (524288)
I0725 11:30:50.344784  6915 net.cpp:165] Memory required for data: 2290090016
I0725 11:30:50.344789  6915 layer_factory.hpp:77] Creating layer res4b5_branch2c
I0725 11:30:50.344802  6915 net.cpp:100] Creating Layer res4b5_branch2c
I0725 11:30:50.344811  6915 net.cpp:434] res4b5_branch2c <- res4b5_branch2b
I0725 11:30:50.344822  6915 net.cpp:408] res4b5_branch2c -> res4b5_branch2c
I0725 11:30:50.349198  6915 net.cpp:150] Setting up res4b5_branch2c
I0725 11:30:50.349226  6915 net.cpp:157] Top shape: 2 1024 32 32 (2097152)
I0725 11:30:50.349231  6915 net.cpp:165] Memory required for data: 2298478624
I0725 11:30:50.349236  6915 layer_factory.hpp:77] Creating layer bn4b5_branch2c
I0725 11:30:50.349242  6915 net.cpp:100] Creating Layer bn4b5_branch2c
I0725 11:30:50.349246  6915 net.cpp:434] bn4b5_branch2c <- res4b5_branch2c
I0725 11:30:50.349252  6915 net.cpp:395] bn4b5_branch2c -> res4b5_branch2c (in-place)
I0725 11:30:50.349529  6915 net.cpp:150] Setting up bn4b5_branch2c
I0725 11:30:50.349541  6915 net.cpp:157] Top shape: 2 1024 32 32 (2097152)
I0725 11:30:50.349545  6915 net.cpp:165] Memory required for data: 2306867232
I0725 11:30:50.349553  6915 layer_factory.hpp:77] Creating layer scale4b5_branch2c
I0725 11:30:50.349565  6915 net.cpp:100] Creating Layer scale4b5_branch2c
I0725 11:30:50.349573  6915 net.cpp:434] scale4b5_branch2c <- res4b5_branch2c
I0725 11:30:50.349583  6915 net.cpp:395] scale4b5_branch2c -> res4b5_branch2c (in-place)
I0725 11:30:50.349653  6915 layer_factory.hpp:77] Creating layer scale4b5_branch2c
I0725 11:30:50.349812  6915 net.cpp:150] Setting up scale4b5_branch2c
I0725 11:30:50.349823  6915 net.cpp:157] Top shape: 2 1024 32 32 (2097152)
I0725 11:30:50.349826  6915 net.cpp:165] Memory required for data: 2315255840
I0725 11:30:50.349869  6915 layer_factory.hpp:77] Creating layer res4b5
I0725 11:30:50.349890  6915 net.cpp:100] Creating Layer res4b5
I0725 11:30:50.349895  6915 net.cpp:434] res4b5 <- res4b4_res4b4_relu_0_split_1
I0725 11:30:50.349900  6915 net.cpp:434] res4b5 <- res4b5_branch2c
I0725 11:30:50.349908  6915 net.cpp:408] res4b5 -> res4b5
I0725 11:30:50.349956  6915 net.cpp:150] Setting up res4b5
I0725 11:30:50.349969  6915 net.cpp:157] Top shape: 2 1024 32 32 (2097152)
I0725 11:30:50.349973  6915 net.cpp:165] Memory required for data: 2323644448
I0725 11:30:50.349978  6915 layer_factory.hpp:77] Creating layer res4b5_relu
I0725 11:30:50.349985  6915 net.cpp:100] Creating Layer res4b5_relu
I0725 11:30:50.349992  6915 net.cpp:434] res4b5_relu <- res4b5
I0725 11:30:50.350003  6915 net.cpp:395] res4b5_relu -> res4b5 (in-place)
I0725 11:30:50.350239  6915 net.cpp:150] Setting up res4b5_relu
I0725 11:30:50.350255  6915 net.cpp:157] Top shape: 2 1024 32 32 (2097152)
I0725 11:30:50.350257  6915 net.cpp:165] Memory required for data: 2332033056
I0725 11:30:50.350262  6915 layer_factory.hpp:77] Creating layer res4b5_res4b5_relu_0_split
I0725 11:30:50.350270  6915 net.cpp:100] Creating Layer res4b5_res4b5_relu_0_split
I0725 11:30:50.350276  6915 net.cpp:434] res4b5_res4b5_relu_0_split <- res4b5
I0725 11:30:50.350287  6915 net.cpp:408] res4b5_res4b5_relu_0_split -> res4b5_res4b5_relu_0_split_0
I0725 11:30:50.350299  6915 net.cpp:408] res4b5_res4b5_relu_0_split -> res4b5_res4b5_relu_0_split_1
I0725 11:30:50.350378  6915 net.cpp:150] Setting up res4b5_res4b5_relu_0_split
I0725 11:30:50.350389  6915 net.cpp:157] Top shape: 2 1024 32 32 (2097152)
I0725 11:30:50.350394  6915 net.cpp:157] Top shape: 2 1024 32 32 (2097152)
I0725 11:30:50.350396  6915 net.cpp:165] Memory required for data: 2348810272
I0725 11:30:50.350400  6915 layer_factory.hpp:77] Creating layer res4b6_branch2a
I0725 11:30:50.350417  6915 net.cpp:100] Creating Layer res4b6_branch2a
I0725 11:30:50.350426  6915 net.cpp:434] res4b6_branch2a <- res4b5_res4b5_relu_0_split_0
I0725 11:30:50.350437  6915 net.cpp:408] res4b6_branch2a -> res4b6_branch2a
I0725 11:30:50.353929  6915 net.cpp:150] Setting up res4b6_branch2a
I0725 11:30:50.353945  6915 net.cpp:157] Top shape: 2 256 32 32 (524288)
I0725 11:30:50.353960  6915 net.cpp:165] Memory required for data: 2350907424
I0725 11:30:50.353965  6915 layer_factory.hpp:77] Creating layer bn4b6_branch2a
I0725 11:30:50.353972  6915 net.cpp:100] Creating Layer bn4b6_branch2a
I0725 11:30:50.353976  6915 net.cpp:434] bn4b6_branch2a <- res4b6_branch2a
I0725 11:30:50.353981  6915 net.cpp:395] bn4b6_branch2a -> res4b6_branch2a (in-place)
I0725 11:30:50.354205  6915 net.cpp:150] Setting up bn4b6_branch2a
I0725 11:30:50.354216  6915 net.cpp:157] Top shape: 2 256 32 32 (524288)
I0725 11:30:50.354220  6915 net.cpp:165] Memory required for data: 2353004576
I0725 11:30:50.354226  6915 layer_factory.hpp:77] Creating layer scale4b6_branch2a
I0725 11:30:50.354233  6915 net.cpp:100] Creating Layer scale4b6_branch2a
I0725 11:30:50.354238  6915 net.cpp:434] scale4b6_branch2a <- res4b6_branch2a
I0725 11:30:50.354241  6915 net.cpp:395] scale4b6_branch2a -> res4b6_branch2a (in-place)
I0725 11:30:50.354292  6915 layer_factory.hpp:77] Creating layer scale4b6_branch2a
I0725 11:30:50.354415  6915 net.cpp:150] Setting up scale4b6_branch2a
I0725 11:30:50.354424  6915 net.cpp:157] Top shape: 2 256 32 32 (524288)
I0725 11:30:50.354426  6915 net.cpp:165] Memory required for data: 2355101728
I0725 11:30:50.354432  6915 layer_factory.hpp:77] Creating layer res4b6_branch2a_relu
I0725 11:30:50.354439  6915 net.cpp:100] Creating Layer res4b6_branch2a_relu
I0725 11:30:50.354442  6915 net.cpp:434] res4b6_branch2a_relu <- res4b6_branch2a
I0725 11:30:50.354446  6915 net.cpp:395] res4b6_branch2a_relu -> res4b6_branch2a (in-place)
I0725 11:30:50.354645  6915 net.cpp:150] Setting up res4b6_branch2a_relu
I0725 11:30:50.354657  6915 net.cpp:157] Top shape: 2 256 32 32 (524288)
I0725 11:30:50.354660  6915 net.cpp:165] Memory required for data: 2357198880
I0725 11:30:50.354663  6915 layer_factory.hpp:77] Creating layer res4b6_branch2b
I0725 11:30:50.354683  6915 net.cpp:100] Creating Layer res4b6_branch2b
I0725 11:30:50.354687  6915 net.cpp:434] res4b6_branch2b <- res4b6_branch2a
I0725 11:30:50.354694  6915 net.cpp:408] res4b6_branch2b -> res4b6_branch2b
I0725 11:30:50.362445  6915 net.cpp:150] Setting up res4b6_branch2b
I0725 11:30:50.362473  6915 net.cpp:157] Top shape: 2 256 32 32 (524288)
I0725 11:30:50.362475  6915 net.cpp:165] Memory required for data: 2359296032
I0725 11:30:50.362481  6915 layer_factory.hpp:77] Creating layer bn4b6_branch2b
I0725 11:30:50.362501  6915 net.cpp:100] Creating Layer bn4b6_branch2b
I0725 11:30:50.362505  6915 net.cpp:434] bn4b6_branch2b <- res4b6_branch2b
I0725 11:30:50.362510  6915 net.cpp:395] bn4b6_branch2b -> res4b6_branch2b (in-place)
I0725 11:30:50.362742  6915 net.cpp:150] Setting up bn4b6_branch2b
I0725 11:30:50.362751  6915 net.cpp:157] Top shape: 2 256 32 32 (524288)
I0725 11:30:50.362754  6915 net.cpp:165] Memory required for data: 2361393184
I0725 11:30:50.362761  6915 layer_factory.hpp:77] Creating layer scale4b6_branch2b
I0725 11:30:50.362768  6915 net.cpp:100] Creating Layer scale4b6_branch2b
I0725 11:30:50.362772  6915 net.cpp:434] scale4b6_branch2b <- res4b6_branch2b
I0725 11:30:50.362777  6915 net.cpp:395] scale4b6_branch2b -> res4b6_branch2b (in-place)
I0725 11:30:50.362825  6915 layer_factory.hpp:77] Creating layer scale4b6_branch2b
I0725 11:30:50.362953  6915 net.cpp:150] Setting up scale4b6_branch2b
I0725 11:30:50.362962  6915 net.cpp:157] Top shape: 2 256 32 32 (524288)
I0725 11:30:50.362965  6915 net.cpp:165] Memory required for data: 2363490336
I0725 11:30:50.362970  6915 layer_factory.hpp:77] Creating layer res4b6_branch2b_relu
I0725 11:30:50.362975  6915 net.cpp:100] Creating Layer res4b6_branch2b_relu
I0725 11:30:50.362978  6915 net.cpp:434] res4b6_branch2b_relu <- res4b6_branch2b
I0725 11:30:50.362984  6915 net.cpp:395] res4b6_branch2b_relu -> res4b6_branch2b (in-place)
I0725 11:30:50.363190  6915 net.cpp:150] Setting up res4b6_branch2b_relu
I0725 11:30:50.363203  6915 net.cpp:157] Top shape: 2 256 32 32 (524288)
I0725 11:30:50.363205  6915 net.cpp:165] Memory required for data: 2365587488
I0725 11:30:50.363209  6915 layer_factory.hpp:77] Creating layer res4b6_branch2c
I0725 11:30:50.363219  6915 net.cpp:100] Creating Layer res4b6_branch2c
I0725 11:30:50.363225  6915 net.cpp:434] res4b6_branch2c <- res4b6_branch2b
I0725 11:30:50.363230  6915 net.cpp:408] res4b6_branch2c -> res4b6_branch2c
I0725 11:30:50.367744  6915 net.cpp:150] Setting up res4b6_branch2c
I0725 11:30:50.367772  6915 net.cpp:157] Top shape: 2 1024 32 32 (2097152)
I0725 11:30:50.367776  6915 net.cpp:165] Memory required for data: 2373976096
I0725 11:30:50.367781  6915 layer_factory.hpp:77] Creating layer bn4b6_branch2c
I0725 11:30:50.367787  6915 net.cpp:100] Creating Layer bn4b6_branch2c
I0725 11:30:50.367791  6915 net.cpp:434] bn4b6_branch2c <- res4b6_branch2c
I0725 11:30:50.367797  6915 net.cpp:395] bn4b6_branch2c -> res4b6_branch2c (in-place)
I0725 11:30:50.368034  6915 net.cpp:150] Setting up bn4b6_branch2c
I0725 11:30:50.368044  6915 net.cpp:157] Top shape: 2 1024 32 32 (2097152)
I0725 11:30:50.368047  6915 net.cpp:165] Memory required for data: 2382364704
I0725 11:30:50.368054  6915 layer_factory.hpp:77] Creating layer scale4b6_branch2c
I0725 11:30:50.368062  6915 net.cpp:100] Creating Layer scale4b6_branch2c
I0725 11:30:50.368064  6915 net.cpp:434] scale4b6_branch2c <- res4b6_branch2c
I0725 11:30:50.368072  6915 net.cpp:395] scale4b6_branch2c -> res4b6_branch2c (in-place)
I0725 11:30:50.368116  6915 layer_factory.hpp:77] Creating layer scale4b6_branch2c
I0725 11:30:50.368247  6915 net.cpp:150] Setting up scale4b6_branch2c
I0725 11:30:50.368257  6915 net.cpp:157] Top shape: 2 1024 32 32 (2097152)
I0725 11:30:50.368259  6915 net.cpp:165] Memory required for data: 2390753312
I0725 11:30:50.368264  6915 layer_factory.hpp:77] Creating layer res4b6
I0725 11:30:50.368271  6915 net.cpp:100] Creating Layer res4b6
I0725 11:30:50.368275  6915 net.cpp:434] res4b6 <- res4b5_res4b5_relu_0_split_1
I0725 11:30:50.368290  6915 net.cpp:434] res4b6 <- res4b6_branch2c
I0725 11:30:50.368295  6915 net.cpp:408] res4b6 -> res4b6
I0725 11:30:50.368325  6915 net.cpp:150] Setting up res4b6
I0725 11:30:50.368332  6915 net.cpp:157] Top shape: 2 1024 32 32 (2097152)
I0725 11:30:50.368335  6915 net.cpp:165] Memory required for data: 2399141920
I0725 11:30:50.368338  6915 layer_factory.hpp:77] Creating layer res4b6_relu
I0725 11:30:50.368345  6915 net.cpp:100] Creating Layer res4b6_relu
I0725 11:30:50.368348  6915 net.cpp:434] res4b6_relu <- res4b6
I0725 11:30:50.368355  6915 net.cpp:395] res4b6_relu -> res4b6 (in-place)
I0725 11:30:50.368767  6915 net.cpp:150] Setting up res4b6_relu
I0725 11:30:50.368780  6915 net.cpp:157] Top shape: 2 1024 32 32 (2097152)
I0725 11:30:50.368795  6915 net.cpp:165] Memory required for data: 2407530528
I0725 11:30:50.368798  6915 layer_factory.hpp:77] Creating layer res4b6_res4b6_relu_0_split
I0725 11:30:50.368806  6915 net.cpp:100] Creating Layer res4b6_res4b6_relu_0_split
I0725 11:30:50.368810  6915 net.cpp:434] res4b6_res4b6_relu_0_split <- res4b6
I0725 11:30:50.368818  6915 net.cpp:408] res4b6_res4b6_relu_0_split -> res4b6_res4b6_relu_0_split_0
I0725 11:30:50.368824  6915 net.cpp:408] res4b6_res4b6_relu_0_split -> res4b6_res4b6_relu_0_split_1
I0725 11:30:50.368876  6915 net.cpp:150] Setting up res4b6_res4b6_relu_0_split
I0725 11:30:50.368885  6915 net.cpp:157] Top shape: 2 1024 32 32 (2097152)
I0725 11:30:50.368888  6915 net.cpp:157] Top shape: 2 1024 32 32 (2097152)
I0725 11:30:50.368891  6915 net.cpp:165] Memory required for data: 2424307744
I0725 11:30:50.368893  6915 layer_factory.hpp:77] Creating layer res4b7_branch2a
I0725 11:30:50.368904  6915 net.cpp:100] Creating Layer res4b7_branch2a
I0725 11:30:50.368908  6915 net.cpp:434] res4b7_branch2a <- res4b6_res4b6_relu_0_split_0
I0725 11:30:50.368914  6915 net.cpp:408] res4b7_branch2a -> res4b7_branch2a
I0725 11:30:50.372277  6915 net.cpp:150] Setting up res4b7_branch2a
I0725 11:30:50.372303  6915 net.cpp:157] Top shape: 2 256 32 32 (524288)
I0725 11:30:50.372305  6915 net.cpp:165] Memory required for data: 2426404896
…
I0725 11:30:52.160534  6915 net.cpp:100] Creating Layer res5c_relu
I0725 11:30:52.160540  6915 net.cpp:434] res5c_relu <- res5c
I0725 11:30:52.160573  6915 net.cpp:395] res5c_relu -> res5c (in-place)
I0725 11:30:52.160887  6915 net.cpp:150] Setting up res5c_relu
I0725 11:30:52.160900  6915 net.cpp:157] Top shape: 2 2048 16 16 (1048576)
I0725 11:30:52.160903  6915 net.cpp:165] Memory required for data: 3749707808
I0725 11:30:52.160907  6915 layer_factory.hpp:77] Creating layer res5c_res5c_relu_0_split
I0725 11:30:52.160912  6915 net.cpp:100] Creating Layer res5c_res5c_relu_0_split
I0725 11:30:52.160917  6915 net.cpp:434] res5c_res5c_relu_0_split <- res5c
I0725 11:30:52.160928  6915 net.cpp:408] res5c_res5c_relu_0_split -> res5c_res5c_relu_0_split_0
I0725 11:30:52.160938  6915 net.cpp:408] res5c_res5c_relu_0_split -> res5c_res5c_relu_0_split_1
I0725 11:30:52.161017  6915 net.cpp:150] Setting up res5c_res5c_relu_0_split
I0725 11:30:52.161028  6915 net.cpp:157] Top shape: 2 2048 16 16 (1048576)
I0725 11:30:52.161032  6915 net.cpp:157] Top shape: 2 2048 16 16 (1048576)
I0725 11:30:52.161036  6915 net.cpp:165] Memory required for data: 3758096416
I0725 11:30:52.161038  6915 layer_factory.hpp:77] Creating layer pool5
I0725 11:30:52.161046  6915 net.cpp:100] Creating Layer pool5
I0725 11:30:52.161051  6915 net.cpp:434] pool5 <- res5c_res5c_relu_0_split_0
I0725 11:30:52.161062  6915 net.cpp:408] pool5 -> pool5
I0725 11:30:52.161377  6915 net.cpp:150] Setting up pool5
I0725 11:30:52.161391  6915 net.cpp:157] Top shape: 2 2048 1 1 (4096)
I0725 11:30:52.161394  6915 net.cpp:165] Memory required for data: 3758112800
I0725 11:30:52.161398  6915 layer_factory.hpp:77] Creating layer pool5_pool5_0_split
I0725 11:30:52.161406  6915 net.cpp:100] Creating Layer pool5_pool5_0_split
I0725 11:30:52.161412  6915 net.cpp:434] pool5_pool5_0_split <- pool5
I0725 11:30:52.161422  6915 net.cpp:408] pool5_pool5_0_split -> pool5_pool5_0_split_0
I0725 11:30:52.161434  6915 net.cpp:408] pool5_pool5_0_split -> pool5_pool5_0_split_1
I0725 11:30:52.161445  6915 net.cpp:408] pool5_pool5_0_split -> pool5_pool5_0_split_2
I0725 11:30:52.161458  6915 net.cpp:408] pool5_pool5_0_split -> pool5_pool5_0_split_3
I0725 11:30:52.161545  6915 net.cpp:150] Setting up pool5_pool5_0_split
I0725 11:30:52.161556  6915 net.cpp:157] Top shape: 2 2048 1 1 (4096)
I0725 11:30:52.161561  6915 net.cpp:157] Top shape: 2 2048 1 1 (4096)
I0725 11:30:52.161564  6915 net.cpp:157] Top shape: 2 2048 1 1 (4096)
I0725 11:30:52.161567  6915 net.cpp:157] Top shape: 2 2048 1 1 (4096)
I0725 11:30:52.161571  6915 net.cpp:165] Memory required for data: 3758178336
I0725 11:30:52.161576  6915 layer_factory.hpp:77] Creating layer conv6_1
I0725 11:30:52.161590  6915 net.cpp:100] Creating Layer conv6_1
I0725 11:30:52.161597  6915 net.cpp:434] conv6_1 <- pool5_pool5_0_split_0
I0725 11:30:52.161610  6915 net.cpp:408] conv6_1 -> conv6_1
I0725 11:30:52.166564  6915 net.cpp:150] Setting up conv6_1
I0725 11:30:52.166579  6915 net.cpp:157] Top shape: 2 256 1 1 (512)
I0725 11:30:52.166594  6915 net.cpp:165] Memory required for data: 3758180384
I0725 11:30:52.166600  6915 layer_factory.hpp:77] Creating layer conv6_1_relu
I0725 11:30:52.166610  6915 net.cpp:100] Creating Layer conv6_1_relu
I0725 11:30:52.166613  6915 net.cpp:434] conv6_1_relu <- conv6_1
I0725 11:30:52.166618  6915 net.cpp:395] conv6_1_relu -> conv6_1 (in-place)
I0725 11:30:52.166942  6915 net.cpp:150] Setting up conv6_1_relu
I0725 11:30:52.166955  6915 net.cpp:157] Top shape: 2 256 1 1 (512)
I0725 11:30:52.166959  6915 net.cpp:165] Memory required for data: 3758182432
I0725 11:30:52.166962  6915 layer_factory.hpp:77] Creating layer conv6_2
I0725 11:30:52.166973  6915 net.cpp:100] Creating Layer conv6_2
I0725 11:30:52.166980  6915 net.cpp:434] conv6_2 <- conv6_1
I0725 11:30:52.166991  6915 net.cpp:408] conv6_2 -> conv6_2
I0725 11:30:52.175583  6915 net.cpp:150] Setting up conv6_2
I0725 11:30:52.175598  6915 net.cpp:157] Top shape: 2 512 1 1 (1024)
I0725 11:30:52.175601  6915 net.cpp:165] Memory required for data: 3758186528
I0725 11:30:52.175607  6915 layer_factory.hpp:77] Creating layer conv6_2_relu
I0725 11:30:52.175614  6915 net.cpp:100] Creating Layer conv6_2_relu
I0725 11:30:52.175628  6915 net.cpp:434] conv6_2_relu <- conv6_2
I0725 11:30:52.175633  6915 net.cpp:395] conv6_2_relu -> conv6_2 (in-place)
I0725 11:30:52.176224  6915 net.cpp:150] Setting up conv6_2_relu
I0725 11:30:52.176239  6915 net.cpp:157] Top shape: 2 512 1 1 (1024)
I0725 11:30:52.176254  6915 net.cpp:165] Memory required for data: 3758190624
I0725 11:30:52.176256  6915 layer_factory.hpp:77] Creating layer conv6_2_conv6_2_relu_0_split
I0725 11:30:52.176265  6915 net.cpp:100] Creating Layer conv6_2_conv6_2_relu_0_split
I0725 11:30:52.176268  6915 net.cpp:434] conv6_2_conv6_2_relu_0_split <- conv6_2
I0725 11:30:52.176275  6915 net.cpp:408] conv6_2_conv6_2_relu_0_split -> conv6_2_conv6_2_relu_0_split_0
I0725 11:30:52.176281  6915 net.cpp:408] conv6_2_conv6_2_relu_0_split -> conv6_2_conv6_2_relu_0_split_1
I0725 11:30:52.176301  6915 net.cpp:408] conv6_2_conv6_2_relu_0_split -> conv6_2_conv6_2_relu_0_split_2
I0725 11:30:52.176306  6915 net.cpp:408] conv6_2_conv6_2_relu_0_split -> conv6_2_conv6_2_relu_0_split_3
I0725 11:30:52.176401  6915 net.cpp:150] Setting up conv6_2_conv6_2_relu_0_split
I0725 11:30:52.176414  6915 net.cpp:157] Top shape: 2 512 1 1 (1024)
I0725 11:30:52.176419  6915 net.cpp:157] Top shape: 2 512 1 1 (1024)
I0725 11:30:52.176421  6915 net.cpp:157] Top shape: 2 512 1 1 (1024)
I0725 11:30:52.176425  6915 net.cpp:157] Top shape: 2 512 1 1 (1024)
I0725 11:30:52.176427  6915 net.cpp:165] Memory required for data: 3758207008
I0725 11:30:52.176430  6915 layer_factory.hpp:77] Creating layer conv7_1
I0725 11:30:52.176447  6915 net.cpp:100] Creating Layer conv7_1
I0725 11:30:52.176466  6915 net.cpp:434] conv7_1 <- conv6_2_conv6_2_relu_0_split_0
I0725 11:30:52.176477  6915 net.cpp:408] conv7_1 -> conv7_1
I0725 11:30:52.177999  6915 net.cpp:150] Setting up conv7_1
I0725 11:30:52.178012  6915 net.cpp:157] Top shape: 2 128 1 1 (256)
I0725 11:30:52.178027  6915 net.cpp:165] Memory required for data: 3758208032
I0725 11:30:52.178033  6915 layer_factory.hpp:77] Creating layer conv7_1_relu
I0725 11:30:52.178040  6915 net.cpp:100] Creating Layer conv7_1_relu
I0725 11:30:52.178045  6915 net.cpp:434] conv7_1_relu <- conv7_1
I0725 11:30:52.178050  6915 net.cpp:395] conv7_1_relu -> conv7_1 (in-place)
I0725 11:30:52.178608  6915 net.cpp:150] Setting up conv7_1_relu
I0725 11:30:52.178622  6915 net.cpp:157] Top shape: 2 128 1 1 (256)
I0725 11:30:52.178637  6915 net.cpp:165] Memory required for data: 3758209056
I0725 11:30:52.178640  6915 layer_factory.hpp:77] Creating layer conv7_2
I0725 11:30:52.178650  6915 net.cpp:100] Creating Layer conv7_2
I0725 11:30:52.178655  6915 net.cpp:434] conv7_2 <- conv7_1
I0725 11:30:52.178663  6915 net.cpp:408] conv7_2 -> conv7_2
I0725 11:30:52.182410  6915 net.cpp:150] Setting up conv7_2
I0725 11:30:52.182423  6915 net.cpp:157] Top shape: 2 256 1 1 (512)
I0725 11:30:52.182438  6915 net.cpp:165] Memory required for data: 3758211104
I0725 11:30:52.182445  6915 layer_factory.hpp:77] Creating layer conv7_2_relu
I0725 11:30:52.182451  6915 net.cpp:100] Creating Layer conv7_2_relu
I0725 11:30:52.182456  6915 net.cpp:434] conv7_2_relu <- conv7_2
I0725 11:30:52.182461  6915 net.cpp:395] conv7_2_relu -> conv7_2 (in-place)
I0725 11:30:52.182765  6915 net.cpp:150] Setting up conv7_2_relu
I0725 11:30:52.182776  6915 net.cpp:157] Top shape: 2 256 1 1 (512)
I0725 11:30:52.182780  6915 net.cpp:165] Memory required for data: 3758213152
I0725 11:30:52.182783  6915 layer_factory.hpp:77] Creating layer conv7_2_conv7_2_relu_0_split
I0725 11:30:52.182791  6915 net.cpp:100] Creating Layer conv7_2_conv7_2_relu_0_split
I0725 11:30:52.182807  6915 net.cpp:434] conv7_2_conv7_2_relu_0_split <- conv7_2
I0725 11:30:52.182814  6915 net.cpp:408] conv7_2_conv7_2_relu_0_split -> conv7_2_conv7_2_relu_0_split_0
I0725 11:30:52.182822  6915 net.cpp:408] conv7_2_conv7_2_relu_0_split -> conv7_2_conv7_2_relu_0_split_1
I0725 11:30:52.182832  6915 net.cpp:408] conv7_2_conv7_2_relu_0_split -> conv7_2_conv7_2_relu_0_split_2
I0725 11:30:52.182845  6915 net.cpp:408] conv7_2_conv7_2_relu_0_split -> conv7_2_conv7_2_relu_0_split_3
I0725 11:30:52.182958  6915 net.cpp:150] Setting up conv7_2_conv7_2_relu_0_split
I0725 11:30:52.182970  6915 net.cpp:157] Top shape: 2 256 1 1 (512)
I0725 11:30:52.182973  6915 net.cpp:157] Top shape: 2 256 1 1 (512)
I0725 11:30:52.182976  6915 net.cpp:157] Top shape: 2 256 1 1 (512)
I0725 11:30:52.182979  6915 net.cpp:157] Top shape: 2 256 1 1 (512)
I0725 11:30:52.182982  6915 net.cpp:165] Memory required for data: 3758221344
I0725 11:30:52.182988  6915 layer_factory.hpp:77] Creating layer conv8_1
I0725 11:30:52.183007  6915 net.cpp:100] Creating Layer conv8_1
I0725 11:30:52.183015  6915 net.cpp:434] conv8_1 <- conv7_2_conv7_2_relu_0_split_0
I0725 11:30:52.183028  6915 net.cpp:408] conv8_1 -> conv8_1
I0725 11:30:52.184686  6915 net.cpp:150] Setting up conv8_1
I0725 11:30:52.184700  6915 net.cpp:157] Top shape: 2 128 1 1 (256)
I0725 11:30:52.184715  6915 net.cpp:165] Memory required for data: 3758222368
I0725 11:30:52.184721  6915 layer_factory.hpp:77] Creating layer conv8_1_relu
I0725 11:30:52.184726  6915 net.cpp:100] Creating Layer conv8_1_relu
I0725 11:30:52.184731  6915 net.cpp:434] conv8_1_relu <- conv8_1
I0725 11:30:52.184737  6915 net.cpp:395] conv8_1_relu -> conv8_1 (in-place)
I0725 11:30:52.185052  6915 net.cpp:150] Setting up conv8_1_relu
I0725 11:30:52.185065  6915 net.cpp:157] Top shape: 2 128 1 1 (256)
I0725 11:30:52.185068  6915 net.cpp:165] Memory required for data: 3758223392
I0725 11:30:52.185071  6915 layer_factory.hpp:77] Creating layer conv8_2
I0725 11:30:52.185084  6915 net.cpp:100] Creating Layer conv8_2
I0725 11:30:52.185089  6915 net.cpp:434] conv8_2 <- conv8_1
I0725 11:30:52.185096  6915 net.cpp:408] conv8_2 -> conv8_2
I0725 11:30:52.186715  6915 net.cpp:150] Setting up conv8_2
I0725 11:30:52.186728  6915 net.cpp:157] Top shape: 2 256 1 1 (512)
I0725 11:30:52.186743  6915 net.cpp:165] Memory required for data: 3758225440
I0725 11:30:52.186749  6915 layer_factory.hpp:77] Creating layer conv8_2_relu
I0725 11:30:52.186754  6915 net.cpp:100] Creating Layer conv8_2_relu
I0725 11:30:52.186758  6915 net.cpp:434] conv8_2_relu <- conv8_2
I0725 11:30:52.186767  6915 net.cpp:395] conv8_2_relu -> conv8_2 (in-place)
I0725 11:30:52.187083  6915 net.cpp:150] Setting up conv8_2_relu
I0725 11:30:52.187108  6915 net.cpp:157] Top shape: 2 256 1 1 (512)
I0725 11:30:52.187110  6915 net.cpp:165] Memory required for data: 3758227488
I0725 11:30:52.187114  6915 layer_factory.hpp:77] Creating layer conv8_2_conv8_2_relu_0_split
I0725 11:30:52.187134  6915 net.cpp:100] Creating Layer conv8_2_conv8_2_relu_0_split
I0725 11:30:52.187137  6915 net.cpp:434] conv8_2_conv8_2_relu_0_split <- conv8_2
I0725 11:30:52.187144  6915 net.cpp:408] conv8_2_conv8_2_relu_0_split -> conv8_2_conv8_2_relu_0_split_0
I0725 11:30:52.187153  6915 net.cpp:408] conv8_2_conv8_2_relu_0_split -> conv8_2_conv8_2_relu_0_split_1
I0725 11:30:52.187163  6915 net.cpp:408] conv8_2_conv8_2_relu_0_split -> conv8_2_conv8_2_relu_0_split_2
I0725 11:30:52.187175  6915 net.cpp:408] conv8_2_conv8_2_relu_0_split -> conv8_2_conv8_2_relu_0_split_3
I0725 11:30:52.187273  6915 net.cpp:150] Setting up conv8_2_conv8_2_relu_0_split
I0725 11:30:52.187284  6915 net.cpp:157] Top shape: 2 256 1 1 (512)
I0725 11:30:52.187289  6915 net.cpp:157] Top shape: 2 256 1 1 (512)
I0725 11:30:52.187292  6915 net.cpp:157] Top shape: 2 256 1 1 (512)
I0725 11:30:52.187295  6915 net.cpp:157] Top shape: 2 256 1 1 (512)
I0725 11:30:52.187299  6915 net.cpp:165] Memory required for data: 3758235680
I0725 11:30:52.187304  6915 layer_factory.hpp:77] Creating layer conv9_1
I0725 11:30:52.187319  6915 net.cpp:100] Creating Layer conv9_1
I0725 11:30:52.187326  6915 net.cpp:434] conv9_1 <- conv8_2_conv8_2_relu_0_split_0
I0725 11:30:52.187340  6915 net.cpp:408] conv9_1 -> conv9_1
I0725 11:30:52.189837  6915 net.cpp:150] Setting up conv9_1
I0725 11:30:52.189864  6915 net.cpp:157] Top shape: 2 128 1 1 (256)
I0725 11:30:52.189867  6915 net.cpp:165] Memory required for data: 3758236704
I0725 11:30:52.189887  6915 layer_factory.hpp:77] Creating layer conv9_1_relu
I0725 11:30:52.189891  6915 net.cpp:100] Creating Layer conv9_1_relu
I0725 11:30:52.189906  6915 net.cpp:434] conv9_1_relu <- conv9_1
I0725 11:30:52.189924  6915 net.cpp:395] conv9_1_relu -> conv9_1 (in-place)
I0725 11:30:52.190235  6915 net.cpp:150] Setting up conv9_1_relu
I0725 11:30:52.190248  6915 net.cpp:157] Top shape: 2 128 1 1 (256)
I0725 11:30:52.190251  6915 net.cpp:165] Memory required for data: 3758237728
I0725 11:30:52.190255  6915 layer_factory.hpp:77] Creating layer conv9_2
I0725 11:30:52.190268  6915 net.cpp:100] Creating Layer conv9_2
I0725 11:30:52.190273  6915 net.cpp:434] conv9_2 <- conv9_1
I0725 11:30:52.190279  6915 net.cpp:408] conv9_2 -> conv9_2
I0725 11:30:52.191797  6915 net.cpp:150] Setting up conv9_2
I0725 11:30:52.191810  6915 net.cpp:157] Top shape: 2 256 1 1 (512)
I0725 11:30:52.191813  6915 net.cpp:165] Memory required for data: 3758239776
I0725 11:30:52.191819  6915 layer_factory.hpp:77] Creating layer conv9_2_relu
I0725 11:30:52.191828  6915 net.cpp:100] Creating Layer conv9_2_relu
I0725 11:30:52.191833  6915 net.cpp:434] conv9_2_relu <- conv9_2
I0725 11:30:52.191836  6915 net.cpp:395] conv9_2_relu -> conv9_2 (in-place)
I0725 11:30:52.192435  6915 net.cpp:150] Setting up conv9_2_relu
I0725 11:30:52.192447  6915 net.cpp:157] Top shape: 2 256 1 1 (512)
I0725 11:30:52.192462  6915 net.cpp:165] Memory required for data: 3758241824
I0725 11:30:52.192466  6915 layer_factory.hpp:77] Creating layer conv9_2_conv9_2_relu_0_split
I0725 11:30:52.192473  6915 net.cpp:100] Creating Layer conv9_2_conv9_2_relu_0_split
I0725 11:30:52.192477  6915 net.cpp:434] conv9_2_conv9_2_relu_0_split <- conv9_2
I0725 11:30:52.192484  6915 net.cpp:408] conv9_2_conv9_2_relu_0_split -> conv9_2_conv9_2_relu_0_split_0
I0725 11:30:52.192492  6915 net.cpp:408] conv9_2_conv9_2_relu_0_split -> conv9_2_conv9_2_relu_0_split_1
I0725 11:30:52.192508  6915 net.cpp:408] conv9_2_conv9_2_relu_0_split -> conv9_2_conv9_2_relu_0_split_2
I0725 11:30:52.192605  6915 net.cpp:150] Setting up conv9_2_conv9_2_relu_0_split
I0725 11:30:52.192616  6915 net.cpp:157] Top shape: 2 256 1 1 (512)
I0725 11:30:52.192620  6915 net.cpp:157] Top shape: 2 256 1 1 (512)
I0725 11:30:52.192623  6915 net.cpp:157] Top shape: 2 256 1 1 (512)
I0725 11:30:52.192625  6915 net.cpp:165] Memory required for data: 3758247968
I0725 11:30:52.192629  6915 layer_factory.hpp:77] Creating layer res5c_norm
I0725 11:30:52.192639  6915 net.cpp:100] Creating Layer res5c_norm
I0725 11:30:52.192646  6915 net.cpp:434] res5c_norm <- res5c_res5c_relu_0_split_1
I0725 11:30:52.192657  6915 net.cpp:408] res5c_norm -> res5c_norm
I0725 11:30:52.192939  6915 net.cpp:150] Setting up res5c_norm
I0725 11:30:52.192951  6915 net.cpp:157] Top shape: 2 2048 16 16 (1048576)
I0725 11:30:52.192965  6915 net.cpp:165] Memory required for data: 3762442272
I0725 11:30:52.192970  6915 layer_factory.hpp:77] Creating layer res5c_norm_res5c_norm_0_split
I0725 11:30:52.192987  6915 net.cpp:100] Creating Layer res5c_norm_res5c_norm_0_split
I0725 11:30:52.192992  6915 net.cpp:434] res5c_norm_res5c_norm_0_split <- res5c_norm
I0725 11:30:52.192997  6915 net.cpp:408] res5c_norm_res5c_norm_0_split -> res5c_norm_res5c_norm_0_split_0
I0725 11:30:52.193006  6915 net.cpp:408] res5c_norm_res5c_norm_0_split -> res5c_norm_res5c_norm_0_split_1
I0725 11:30:52.193022  6915 net.cpp:408] res5c_norm_res5c_norm_0_split -> res5c_norm_res5c_norm_0_split_2
I0725 11:30:52.193099  6915 net.cpp:150] Setting up res5c_norm_res5c_norm_0_split
I0725 11:30:52.193109  6915 net.cpp:157] Top shape: 2 2048 16 16 (1048576)
I0725 11:30:52.193114  6915 net.cpp:157] Top shape: 2 2048 16 16 (1048576)
I0725 11:30:52.193117  6915 net.cpp:157] Top shape: 2 2048 16 16 (1048576)
I0725 11:30:52.193120  6915 net.cpp:165] Memory required for data: 3775025184
I0725 11:30:52.193125  6915 layer_factory.hpp:77] Creating layer res5c_norm_mbox_loc_bdc2018
I0725 11:30:52.193140  6915 net.cpp:100] Creating Layer res5c_norm_mbox_loc_bdc2018
I0725 11:30:52.193146  6915 net.cpp:434] res5c_norm_mbox_loc_bdc2018 <- res5c_norm_res5c_norm_0_split_0
I0725 11:30:52.193161  6915 net.cpp:408] res5c_norm_mbox_loc_bdc2018 -> res5c_norm_mbox_loc_bdc2018
I0725 11:30:52.196938  6915 net.cpp:150] Setting up res5c_norm_mbox_loc_bdc2018
I0725 11:30:52.196951  6915 net.cpp:157] Top shape: 2 16 16 16 (8192)
I0725 11:30:52.196966  6915 net.cpp:165] Memory required for data: 3775057952
I0725 11:30:52.196972  6915 layer_factory.hpp:77] Creating layer res5c_norm_mbox_loc_bdc2018_perm_bdc2018
I0725 11:30:52.196982  6915 net.cpp:100] Creating Layer res5c_norm_mbox_loc_bdc2018_perm_bdc2018
I0725 11:30:52.196986  6915 net.cpp:434] res5c_norm_mbox_loc_bdc2018_perm_bdc2018 <- res5c_norm_mbox_loc_bdc2018
I0725 11:30:52.196993  6915 net.cpp:408] res5c_norm_mbox_loc_bdc2018_perm_bdc2018 -> res5c_norm_mbox_loc_bdc2018_perm_bdc2018
I0725 11:30:52.197134  6915 net.cpp:150] Setting up res5c_norm_mbox_loc_bdc2018_perm_bdc2018
I0725 11:30:52.197146  6915 net.cpp:157] Top shape: 2 16 16 16 (8192)
I0725 11:30:52.197149  6915 net.cpp:165] Memory required for data: 3775090720
I0725 11:30:52.197152  6915 layer_factory.hpp:77] Creating layer res5c_norm_mbox_loc_bdc2018_flat_bdc2018
I0725 11:30:52.197162  6915 net.cpp:100] Creating Layer res5c_norm_mbox_loc_bdc2018_flat_bdc2018
I0725 11:30:52.197168  6915 net.cpp:434] res5c_norm_mbox_loc_bdc2018_flat_bdc2018 <- res5c_norm_mbox_loc_bdc2018_perm_bdc2018
I0725 11:30:52.197176  6915 net.cpp:408] res5c_norm_mbox_loc_bdc2018_flat_bdc2018 -> res5c_norm_mbox_loc_bdc2018_flat_bdc2018
I0725 11:30:52.197219  6915 net.cpp:150] Setting up res5c_norm_mbox_loc_bdc2018_flat_bdc2018
I0725 11:30:52.197229  6915 net.cpp:157] Top shape: 2 4096 (8192)
I0725 11:30:52.197232  6915 net.cpp:165] Memory required for data: 3775123488
I0725 11:30:52.197235  6915 layer_factory.hpp:77] Creating layer res5c_norm_mbox_conf_bdc2018_new
I0725 11:30:52.197247  6915 net.cpp:100] Creating Layer res5c_norm_mbox_conf_bdc2018_new
I0725 11:30:52.197250  6915 net.cpp:434] res5c_norm_mbox_conf_bdc2018_new <- res5c_norm_res5c_norm_0_split_1
I0725 11:30:52.197258  6915 net.cpp:408] res5c_norm_mbox_conf_bdc2018_new -> res5c_norm_mbox_conf_bdc2018_new
I0725 11:30:52.203059  6915 net.cpp:150] Setting up res5c_norm_mbox_conf_bdc2018_new
I0725 11:30:52.203086  6915 net.cpp:157] Top shape: 2 36 16 16 (18432)
I0725 11:30:52.203090  6915 net.cpp:165] Memory required for data: 3775197216
I0725 11:30:52.203097  6915 layer_factory.hpp:77] Creating layer res5c_norm_mbox_conf_bdc2018_new_perm_bdc2018_new
I0725 11:30:52.203104  6915 net.cpp:100] Creating Layer res5c_norm_mbox_conf_bdc2018_new_perm_bdc2018_new
I0725 11:30:52.203109  6915 net.cpp:434] res5c_norm_mbox_conf_bdc2018_new_perm_bdc2018_new <- res5c_norm_mbox_conf_bdc2018_new
I0725 11:30:52.203115  6915 net.cpp:408] res5c_norm_mbox_conf_bdc2018_new_perm_bdc2018_new -> res5c_norm_mbox_conf_bdc2018_new_perm_bdc2018_new
I0725 11:30:52.203233  6915 net.cpp:150] Setting up res5c_norm_mbox_conf_bdc2018_new_perm_bdc2018_new
I0725 11:30:52.203243  6915 net.cpp:157] Top shape: 2 16 16 36 (18432)
I0725 11:30:52.203245  6915 net.cpp:165] Memory required for data: 3775270944
I0725 11:30:52.203248  6915 layer_factory.hpp:77] Creating layer res5c_norm_mbox_conf_bdc2018_new_flat_bdc2018_new
I0725 11:30:52.203255  6915 net.cpp:100] Creating Layer res5c_norm_mbox_conf_bdc2018_new_flat_bdc2018_new
I0725 11:30:52.203259  6915 net.cpp:434] res5c_norm_mbox_conf_bdc2018_new_flat_bdc2018_new <- res5c_norm_mbox_conf_bdc2018_new_perm_bdc2018_new
I0725 11:30:52.203266  6915 net.cpp:408] res5c_norm_mbox_conf_bdc2018_new_flat_bdc2018_new -> res5c_norm_mbox_conf_bdc2018_new_flat_bdc2018_new
I0725 11:30:52.203291  6915 net.cpp:150] Setting up res5c_norm_mbox_conf_bdc2018_new_flat_bdc2018_new
I0725 11:30:52.203297  6915 net.cpp:157] Top shape: 2 9216 (18432)
I0725 11:30:52.203300  6915 net.cpp:165] Memory required for data: 3775344672
I0725 11:30:52.203302  6915 layer_factory.hpp:77] Creating layer res5c_norm_mbox_priorbox
I0725 11:30:52.203397  6915 net.cpp:100] Creating Layer res5c_norm_mbox_priorbox
I0725 11:30:52.203402  6915 net.cpp:434] res5c_norm_mbox_priorbox <- res5c_norm_res5c_norm_0_split_2
I0725 11:30:52.203408  6915 net.cpp:434] res5c_norm_mbox_priorbox <- data_data_0_split_1
I0725 11:30:52.203424  6915 net.cpp:408] res5c_norm_mbox_priorbox -> res5c_norm_mbox_priorbox
I0725 11:30:52.203459  6915 net.cpp:150] Setting up res5c_norm_mbox_priorbox
I0725 11:30:52.203465  6915 net.cpp:157] Top shape: 1 2 4096 (8192)
I0725 11:30:52.203469  6915 net.cpp:165] Memory required for data: 3775377440
I0725 11:30:52.203471  6915 layer_factory.hpp:77] Creating layer pool5_mbox_loc_bdc2018
I0725 11:30:52.203480  6915 net.cpp:100] Creating Layer pool5_mbox_loc_bdc2018
I0725 11:30:52.203483  6915 net.cpp:434] pool5_mbox_loc_bdc2018 <- pool5_pool5_0_split_1
I0725 11:30:52.203488  6915 net.cpp:408] pool5_mbox_loc_bdc2018 -> pool5_mbox_loc_bdc2018
I0725 11:30:52.208286  6915 net.cpp:150] Setting up pool5_mbox_loc_bdc2018
I0725 11:30:52.208310  6915 net.cpp:157] Top shape: 2 24 1 1 (48)
I0725 11:30:52.208314  6915 net.cpp:165] Memory required for data: 3775377632
I0725 11:30:52.208322  6915 layer_factory.hpp:77] Creating layer pool5_mbox_loc_bdc2018_perm_bdc2018
I0725 11:30:52.208328  6915 net.cpp:100] Creating Layer pool5_mbox_loc_bdc2018_perm_bdc2018
I0725 11:30:52.208333  6915 net.cpp:434] pool5_mbox_loc_bdc2018_perm_bdc2018 <- pool5_mbox_loc_bdc2018
I0725 11:30:52.208338  6915 net.cpp:408] pool5_mbox_loc_bdc2018_perm_bdc2018 -> pool5_mbox_loc_bdc2018_perm_bdc2018
I0725 11:30:52.208465  6915 net.cpp:150] Setting up pool5_mbox_loc_bdc2018_perm_bdc2018
I0725 11:30:52.208473  6915 net.cpp:157] Top shape: 2 1 1 24 (48)
I0725 11:30:52.208477  6915 net.cpp:165] Memory required for data: 3775377824
I0725 11:30:52.208479  6915 layer_factory.hpp:77] Creating layer pool5_mbox_loc_bdc2018_flat_bdc2018
I0725 11:30:52.208485  6915 net.cpp:100] Creating Layer pool5_mbox_loc_bdc2018_flat_bdc2018
I0725 11:30:52.208488  6915 net.cpp:434] pool5_mbox_loc_bdc2018_flat_bdc2018 <- pool5_mbox_loc_bdc2018_perm_bdc2018
I0725 11:30:52.208493  6915 net.cpp:408] pool5_mbox_loc_bdc2018_flat_bdc2018 -> pool5_mbox_loc_bdc2018_flat_bdc2018
I0725 11:30:52.208560  6915 net.cpp:150] Setting up pool5_mbox_loc_bdc2018_flat_bdc2018
I0725 11:30:52.208569  6915 net.cpp:157] Top shape: 2 24 (48)
I0725 11:30:52.208570  6915 net.cpp:165] Memory required for data: 3775378016
I0725 11:30:52.208573  6915 layer_factory.hpp:77] Creating layer pool5_mbox_conf_bdc2018_new
I0725 11:30:52.208582  6915 net.cpp:100] Creating Layer pool5_mbox_conf_bdc2018_new
I0725 11:30:52.208585  6915 net.cpp:434] pool5_mbox_conf_bdc2018_new <- pool5_pool5_0_split_2
I0725 11:30:52.208591  6915 net.cpp:408] pool5_mbox_conf_bdc2018_new -> pool5_mbox_conf_bdc2018_new
I0725 11:30:52.217135  6915 net.cpp:150] Setting up pool5_mbox_conf_bdc2018_new
I0725 11:30:52.217151  6915 net.cpp:157] Top shape: 2 54 1 1 (108)
I0725 11:30:52.217154  6915 net.cpp:165] Memory required for data: 3775378448
I0725 11:30:52.217162  6915 layer_factory.hpp:77] Creating layer pool5_mbox_conf_bdc2018_new_perm_bdc2018_new
I0725 11:30:52.217171  6915 net.cpp:100] Creating Layer pool5_mbox_conf_bdc2018_new_perm_bdc2018_new
I0725 11:30:52.217175  6915 net.cpp:434] pool5_mbox_conf_bdc2018_new_perm_bdc2018_new <- pool5_mbox_conf_bdc2018_new
I0725 11:30:52.217183  6915 net.cpp:408] pool5_mbox_conf_bdc2018_new_perm_bdc2018_new -> pool5_mbox_conf_bdc2018_new_perm_bdc2018_new
I0725 11:30:52.217298  6915 net.cpp:150] Setting up pool5_mbox_conf_bdc2018_new_perm_bdc2018_new
I0725 11:30:52.217308  6915 net.cpp:157] Top shape: 2 1 1 54 (108)
I0725 11:30:52.217310  6915 net.cpp:165] Memory required for data: 3775378880
I0725 11:30:52.217314  6915 layer_factory.hpp:77] Creating layer pool5_mbox_conf_bdc2018_new_flat_bdc2018_new
I0725 11:30:52.217319  6915 net.cpp:100] Creating Layer pool5_mbox_conf_bdc2018_new_flat_bdc2018_new
I0725 11:30:52.217324  6915 net.cpp:434] pool5_mbox_conf_bdc2018_new_flat_bdc2018_new <- pool5_mbox_conf_bdc2018_new_perm_bdc2018_new
I0725 11:30:52.217329  6915 net.cpp:408] pool5_mbox_conf_bdc2018_new_flat_bdc2018_new -> pool5_mbox_conf_bdc2018_new_flat_bdc2018_new
I0725 11:30:52.217355  6915 net.cpp:150] Setting up pool5_mbox_conf_bdc2018_new_flat_bdc2018_new
I0725 11:30:52.217375  6915 net.cpp:157] Top shape: 2 54 (108)
I0725 11:30:52.217378  6915 net.cpp:165] Memory required for data: 3775379312
I0725 11:30:52.217381  6915 layer_factory.hpp:77] Creating layer pool5_mbox_priorbox
I0725 11:30:52.217387  6915 net.cpp:100] Creating Layer pool5_mbox_priorbox
I0725 11:30:52.217391  6915 net.cpp:434] pool5_mbox_priorbox <- pool5_pool5_0_split_3
I0725 11:30:52.217396  6915 net.cpp:434] pool5_mbox_priorbox <- data_data_0_split_2
I0725 11:30:52.217402  6915 net.cpp:408] pool5_mbox_priorbox -> pool5_mbox_priorbox
I0725 11:30:52.217430  6915 net.cpp:150] Setting up pool5_mbox_priorbox
I0725 11:30:52.217439  6915 net.cpp:157] Top shape: 1 2 24 (48)
I0725 11:30:52.217453  6915 net.cpp:165] Memory required for data: 3775379504
I0725 11:30:52.217458  6915 layer_factory.hpp:77] Creating layer conv6_2_mbox_loc_bdc2018
I0725 11:30:52.217469  6915 net.cpp:100] Creating Layer conv6_2_mbox_loc_bdc2018
I0725 11:30:52.217473  6915 net.cpp:434] conv6_2_mbox_loc_bdc2018 <- conv6_2_conv6_2_relu_0_split_1
I0725 11:30:52.217479  6915 net.cpp:408] conv6_2_mbox_loc_bdc2018 -> conv6_2_mbox_loc_bdc2018
I0725 11:30:52.219591  6915 net.cpp:150] Setting up conv6_2_mbox_loc_bdc2018
I0725 11:30:52.219605  6915 net.cpp:157] Top shape: 2 24 1 1 (48)
I0725 11:30:52.219620  6915 net.cpp:165] Memory required for data: 3775379696
I0725 11:30:52.219626  6915 layer_factory.hpp:77] Creating layer conv6_2_mbox_loc_bdc2018_perm_bdc2018
I0725 11:30:52.219635  6915 net.cpp:100] Creating Layer conv6_2_mbox_loc_bdc2018_perm_bdc2018
I0725 11:30:52.219640  6915 net.cpp:434] conv6_2_mbox_loc_bdc2018_perm_bdc2018 <- conv6_2_mbox_loc_bdc2018
I0725 11:30:52.219645  6915 net.cpp:408] conv6_2_mbox_loc_bdc2018_perm_bdc2018 -> conv6_2_mbox_loc_bdc2018_perm_bdc2018
I0725 11:30:52.219763  6915 net.cpp:150] Setting up conv6_2_mbox_loc_bdc2018_perm_bdc2018
I0725 11:30:52.219771  6915 net.cpp:157] Top shape: 2 1 1 24 (48)
I0725 11:30:52.219774  6915 net.cpp:165] Memory required for data: 3775379888
I0725 11:30:52.219777  6915 layer_factory.hpp:77] Creating layer conv6_2_mbox_loc_bdc2018_flat_bdc2018
I0725 11:30:52.219782  6915 net.cpp:100] Creating Layer conv6_2_mbox_loc_bdc2018_flat_bdc2018
I0725 11:30:52.219785  6915 net.cpp:434] conv6_2_mbox_loc_bdc2018_flat_bdc2018 <- conv6_2_mbox_loc_bdc2018_perm_bdc2018
I0725 11:30:52.219792  6915 net.cpp:408] conv6_2_mbox_loc_bdc2018_flat_bdc2018 -> conv6_2_mbox_loc_bdc2018_flat_bdc2018
I0725 11:30:52.219820  6915 net.cpp:150] Setting up conv6_2_mbox_loc_bdc2018_flat_bdc2018
I0725 11:30:52.219826  6915 net.cpp:157] Top shape: 2 24 (48)
I0725 11:30:52.219828  6915 net.cpp:165] Memory required for data: 3775380080
I0725 11:30:52.219832  6915 layer_factory.hpp:77] Creating layer conv6_2_mbox_conf_bdc2018_new
I0725 11:30:52.219842  6915 net.cpp:100] Creating Layer conv6_2_mbox_conf_bdc2018_new
I0725 11:30:52.219846  6915 net.cpp:434] conv6_2_mbox_conf_bdc2018_new <- conv6_2_conv6_2_relu_0_split_2
I0725 11:30:52.219853  6915 net.cpp:408] conv6_2_mbox_conf_bdc2018_new -> conv6_2_mbox_conf_bdc2018_new
I0725 11:30:52.222658  6915 net.cpp:150] Setting up conv6_2_mbox_conf_bdc2018_new
I0725 11:30:52.222671  6915 net.cpp:157] Top shape: 2 54 1 1 (108)
I0725 11:30:52.222687  6915 net.cpp:165] Memory required for data: 3775380512
I0725 11:30:52.222692  6915 layer_factory.hpp:77] Creating layer conv6_2_mbox_conf_bdc2018_new_perm_bdc2018_new
I0725 11:30:52.222700  6915 net.cpp:100] Creating Layer conv6_2_mbox_conf_bdc2018_new_perm_bdc2018_new
I0725 11:30:52.222704  6915 net.cpp:434] conv6_2_mbox_conf_bdc2018_new_perm_bdc2018_new <- conv6_2_mbox_conf_bdc2018_new
I0725 11:30:52.222712  6915 net.cpp:408] conv6_2_mbox_conf_bdc2018_new_perm_bdc2018_new -> conv6_2_mbox_conf_bdc2018_new_perm_bdc2018_new
I0725 11:30:52.222823  6915 net.cpp:150] Setting up conv6_2_mbox_conf_bdc2018_new_perm_bdc2018_new
I0725 11:30:52.222831  6915 net.cpp:157] Top shape: 2 1 1 54 (108)
I0725 11:30:52.222834  6915 net.cpp:165] Memory required for data: 3775380944
I0725 11:30:52.222837  6915 layer_factory.hpp:77] Creating layer conv6_2_mbox_conf_bdc2018_new_flat_bdc2018_new
I0725 11:30:52.222856  6915 net.cpp:100] Creating Layer conv6_2_mbox_conf_bdc2018_new_flat_bdc2018_new
I0725 11:30:52.222862  6915 net.cpp:434] conv6_2_mbox_conf_bdc2018_new_flat_bdc2018_new <- conv6_2_mbox_conf_bdc2018_new_perm_bdc2018_new
I0725 11:30:52.222867  6915 net.cpp:408] conv6_2_mbox_conf_bdc2018_new_flat_bdc2018_new -> conv6_2_mbox_conf_bdc2018_new_flat_bdc2018_new
I0725 11:30:52.222905  6915 net.cpp:150] Setting up conv6_2_mbox_conf_bdc2018_new_flat_bdc2018_new
I0725 11:30:52.222911  6915 net.cpp:157] Top shape: 2 54 (108)
I0725 11:30:52.222914  6915 net.cpp:165] Memory required for data: 3775381376
I0725 11:30:52.222918  6915 layer_factory.hpp:77] Creating layer conv6_2_mbox_priorbox
I0725 11:30:52.222925  6915 net.cpp:100] Creating Layer conv6_2_mbox_priorbox
I0725 11:30:52.222929  6915 net.cpp:434] conv6_2_mbox_priorbox <- conv6_2_conv6_2_relu_0_split_3
I0725 11:30:52.222934  6915 net.cpp:434] conv6_2_mbox_priorbox <- data_data_0_split_3
I0725 11:30:52.222940  6915 net.cpp:408] conv6_2_mbox_priorbox -> conv6_2_mbox_priorbox
I0725 11:30:52.222966  6915 net.cpp:150] Setting up conv6_2_mbox_priorbox
I0725 11:30:52.222973  6915 net.cpp:157] Top shape: 1 2 24 (48)
I0725 11:30:52.222975  6915 net.cpp:165] Memory required for data: 3775381568
I0725 11:30:52.222978  6915 layer_factory.hpp:77] Creating layer conv7_2_mbox_loc_bdc2018
I0725 11:30:52.222991  6915 net.cpp:100] Creating Layer conv7_2_mbox_loc_bdc2018
I0725 11:30:52.222995  6915 net.cpp:434] conv7_2_mbox_loc_bdc2018 <- conv7_2_conv7_2_relu_0_split_1
I0725 11:30:52.223001  6915 net.cpp:408] conv7_2_mbox_loc_bdc2018 -> conv7_2_mbox_loc_bdc2018
I0725 11:30:52.224879  6915 net.cpp:150] Setting up conv7_2_mbox_loc_bdc2018
I0725 11:30:52.224894  6915 net.cpp:157] Top shape: 2 24 1 1 (48)
I0725 11:30:52.224896  6915 net.cpp:165] Memory required for data: 3775381760
I0725 11:30:52.224905  6915 layer_factory.hpp:77] Creating layer conv7_2_mbox_loc_bdc2018_perm_bdc2018
I0725 11:30:52.224911  6915 net.cpp:100] Creating Layer conv7_2_mbox_loc_bdc2018_perm_bdc2018
I0725 11:30:52.224915  6915 net.cpp:434] conv7_2_mbox_loc_bdc2018_perm_bdc2018 <- conv7_2_mbox_loc_bdc2018
I0725 11:30:52.224922  6915 net.cpp:408] conv7_2_mbox_loc_bdc2018_perm_bdc2018 -> conv7_2_mbox_loc_bdc2018_perm_bdc2018
I0725 11:30:52.225040  6915 net.cpp:150] Setting up conv7_2_mbox_loc_bdc2018_perm_bdc2018
I0725 11:30:52.225049  6915 net.cpp:157] Top shape: 2 1 1 24 (48)
I0725 11:30:52.225051  6915 net.cpp:165] Memory required for data: 3775381952
I0725 11:30:52.225054  6915 layer_factory.hpp:77] Creating layer conv7_2_mbox_loc_bdc2018_flat_bdc2018
I0725 11:30:52.225061  6915 net.cpp:100] Creating Layer conv7_2_mbox_loc_bdc2018_flat_bdc2018
I0725 11:30:52.225065  6915 net.cpp:434] conv7_2_mbox_loc_bdc2018_flat_bdc2018 <- conv7_2_mbox_loc_bdc2018_perm_bdc2018
I0725 11:30:52.225070  6915 net.cpp:408] conv7_2_mbox_loc_bdc2018_flat_bdc2018 -> conv7_2_mbox_loc_bdc2018_flat_bdc2018
I0725 11:30:52.225096  6915 net.cpp:150] Setting up conv7_2_mbox_loc_bdc2018_flat_bdc2018
I0725 11:30:52.225103  6915 net.cpp:157] Top shape: 2 24 (48)
I0725 11:30:52.225106  6915 net.cpp:165] Memory required for data: 3775382144
I0725 11:30:52.225108  6915 layer_factory.hpp:77] Creating layer conv7_2_mbox_conf_bdc2018_new
I0725 11:30:52.225118  6915 net.cpp:100] Creating Layer conv7_2_mbox_conf_bdc2018_new
I0725 11:30:52.225121  6915 net.cpp:434] conv7_2_mbox_conf_bdc2018_new <- conv7_2_conv7_2_relu_0_split_2
I0725 11:30:52.225129  6915 net.cpp:408] conv7_2_mbox_conf_bdc2018_new -> conv7_2_mbox_conf_bdc2018_new
I0725 11:30:52.227342  6915 net.cpp:150] Setting up conv7_2_mbox_conf_bdc2018_new
I0725 11:30:52.227357  6915 net.cpp:157] Top shape: 2 54 1 1 (108)
I0725 11:30:52.227360  6915 net.cpp:165] Memory required for data: 3775382576
I0725 11:30:52.227368  6915 layer_factory.hpp:77] Creating layer conv7_2_mbox_conf_bdc2018_new_perm_bdc2018_new
I0725 11:30:52.227376  6915 net.cpp:100] Creating Layer conv7_2_mbox_conf_bdc2018_new_perm_bdc2018_new
I0725 11:30:52.227380  6915 net.cpp:434] conv7_2_mbox_conf_bdc2018_new_perm_bdc2018_new <- conv7_2_mbox_conf_bdc2018_new
I0725 11:30:52.227399  6915 net.cpp:408] conv7_2_mbox_conf_bdc2018_new_perm_bdc2018_new -> conv7_2_mbox_conf_bdc2018_new_perm_bdc2018_new
I0725 11:30:52.227519  6915 net.cpp:150] Setting up conv7_2_mbox_conf_bdc2018_new_perm_bdc2018_new
I0725 11:30:52.227529  6915 net.cpp:157] Top shape: 2 1 1 54 (108)
I0725 11:30:52.227530  6915 net.cpp:165] Memory required for data: 3775383008
I0725 11:30:52.227535  6915 layer_factory.hpp:77] Creating layer conv7_2_mbox_conf_bdc2018_new_flat_bdc2018_new
I0725 11:30:52.227540  6915 net.cpp:100] Creating Layer conv7_2_mbox_conf_bdc2018_new_flat_bdc2018_new
I0725 11:30:52.227543  6915 net.cpp:434] conv7_2_mbox_conf_bdc2018_new_flat_bdc2018_new <- conv7_2_mbox_conf_bdc2018_new_perm_bdc2018_new
I0725 11:30:52.227550  6915 net.cpp:408] conv7_2_mbox_conf_bdc2018_new_flat_bdc2018_new -> conv7_2_mbox_conf_bdc2018_new_flat_bdc2018_new
I0725 11:30:52.227577  6915 net.cpp:150] Setting up conv7_2_mbox_conf_bdc2018_new_flat_bdc2018_new
I0725 11:30:52.227583  6915 net.cpp:157] Top shape: 2 54 (108)
I0725 11:30:52.227586  6915 net.cpp:165] Memory required for data: 3775383440
I0725 11:30:52.227589  6915 layer_factory.hpp:77] Creating layer conv7_2_mbox_priorbox
I0725 11:30:52.227596  6915 net.cpp:100] Creating Layer conv7_2_mbox_priorbox
I0725 11:30:52.227598  6915 net.cpp:434] conv7_2_mbox_priorbox <- conv7_2_conv7_2_relu_0_split_3
I0725 11:30:52.227603  6915 net.cpp:434] conv7_2_mbox_priorbox <- data_data_0_split_4
I0725 11:30:52.227609  6915 net.cpp:408] conv7_2_mbox_priorbox -> conv7_2_mbox_priorbox
I0725 11:30:52.227638  6915 net.cpp:150] Setting up conv7_2_mbox_priorbox
I0725 11:30:52.227645  6915 net.cpp:157] Top shape: 1 2 24 (48)
I0725 11:30:52.227648  6915 net.cpp:165] Memory required for data: 3775383632
I0725 11:30:52.227653  6915 layer_factory.hpp:77] Creating layer conv8_2_mbox_loc_bdc2018
I0725 11:30:52.227663  6915 net.cpp:100] Creating Layer conv8_2_mbox_loc_bdc2018
I0725 11:30:52.227669  6915 net.cpp:434] conv8_2_mbox_loc_bdc2018 <- conv8_2_conv8_2_relu_0_split_1
I0725 11:30:52.227675  6915 net.cpp:408] conv8_2_mbox_loc_bdc2018 -> conv8_2_mbox_loc_bdc2018
I0725 11:30:52.229424  6915 net.cpp:150] Setting up conv8_2_mbox_loc_bdc2018
I0725 11:30:52.229450  6915 net.cpp:157] Top shape: 2 16 1 1 (32)
I0725 11:30:52.229454  6915 net.cpp:165] Memory required for data: 3775383760
I0725 11:30:52.229460  6915 layer_factory.hpp:77] Creating layer conv8_2_mbox_loc_bdc2018_perm_bdc2018
I0725 11:30:52.229470  6915 net.cpp:100] Creating Layer conv8_2_mbox_loc_bdc2018_perm_bdc2018
I0725 11:30:52.229475  6915 net.cpp:434] conv8_2_mbox_loc_bdc2018_perm_bdc2018 <- conv8_2_mbox_loc_bdc2018
I0725 11:30:52.229480  6915 net.cpp:408] conv8_2_mbox_loc_bdc2018_perm_bdc2018 -> conv8_2_mbox_loc_bdc2018_perm_bdc2018
I0725 11:30:52.229596  6915 net.cpp:150] Setting up conv8_2_mbox_loc_bdc2018_perm_bdc2018
I0725 11:30:52.229604  6915 net.cpp:157] Top shape: 2 1 1 16 (32)
I0725 11:30:52.229607  6915 net.cpp:165] Memory required for data: 3775383888
I0725 11:30:52.229610  6915 layer_factory.hpp:77] Creating layer conv8_2_mbox_loc_bdc2018_flat_bdc2018
I0725 11:30:52.229617  6915 net.cpp:100] Creating Layer conv8_2_mbox_loc_bdc2018_flat_bdc2018
I0725 11:30:52.229621  6915 net.cpp:434] conv8_2_mbox_loc_bdc2018_flat_bdc2018 <- conv8_2_mbox_loc_bdc2018_perm_bdc2018
I0725 11:30:52.229625  6915 net.cpp:408] conv8_2_mbox_loc_bdc2018_flat_bdc2018 -> conv8_2_mbox_loc_bdc2018_flat_bdc2018
I0725 11:30:52.229651  6915 net.cpp:150] Setting up conv8_2_mbox_loc_bdc2018_flat_bdc2018
I0725 11:30:52.229657  6915 net.cpp:157] Top shape: 2 16 (32)
I0725 11:30:52.229660  6915 net.cpp:165] Memory required for data: 3775384016
I0725 11:30:52.229662  6915 layer_factory.hpp:77] Creating layer conv8_2_mbox_conf_bdc2018_new
I0725 11:30:52.229676  6915 net.cpp:100] Creating Layer conv8_2_mbox_conf_bdc2018_new
I0725 11:30:52.229679  6915 net.cpp:434] conv8_2_mbox_conf_bdc2018_new <- conv8_2_conv8_2_relu_0_split_2
I0725 11:30:52.229684  6915 net.cpp:408] conv8_2_mbox_conf_bdc2018_new -> conv8_2_mbox_conf_bdc2018_new
I0725 11:30:52.231670  6915 net.cpp:150] Setting up conv8_2_mbox_conf_bdc2018_new
I0725 11:30:52.231681  6915 net.cpp:157] Top shape: 2 36 1 1 (72)
I0725 11:30:52.231684  6915 net.cpp:165] Memory required for data: 3775384304
I0725 11:30:52.231690  6915 layer_factory.hpp:77] Creating layer conv8_2_mbox_conf_bdc2018_new_perm_bdc2018_new
I0725 11:30:52.231696  6915 net.cpp:100] Creating Layer conv8_2_mbox_conf_bdc2018_new_perm_bdc2018_new
I0725 11:30:52.231700  6915 net.cpp:434] conv8_2_mbox_conf_bdc2018_new_perm_bdc2018_new <- conv8_2_mbox_conf_bdc2018_new
I0725 11:30:52.231708  6915 net.cpp:408] conv8_2_mbox_conf_bdc2018_new_perm_bdc2018_new -> conv8_2_mbox_conf_bdc2018_new_perm_bdc2018_new
I0725 11:30:52.231823  6915 net.cpp:150] Setting up conv8_2_mbox_conf_bdc2018_new_perm_bdc2018_new
I0725 11:30:52.231830  6915 net.cpp:157] Top shape: 2 1 1 36 (72)
I0725 11:30:52.231832  6915 net.cpp:165] Memory required for data: 3775384592
I0725 11:30:52.231835  6915 layer_factory.hpp:77] Creating layer conv8_2_mbox_conf_bdc2018_new_flat_bdc2018_new
I0725 11:30:52.231842  6915 net.cpp:100] Creating Layer conv8_2_mbox_conf_bdc2018_new_flat_bdc2018_new
I0725 11:30:52.231844  6915 net.cpp:434] conv8_2_mbox_conf_bdc2018_new_flat_bdc2018_new <- conv8_2_mbox_conf_bdc2018_new_perm_bdc2018_new
I0725 11:30:52.231851  6915 net.cpp:408] conv8_2_mbox_conf_bdc2018_new_flat_bdc2018_new -> conv8_2_mbox_conf_bdc2018_new_flat_bdc2018_new
I0725 11:30:52.231876  6915 net.cpp:150] Setting up conv8_2_mbox_conf_bdc2018_new_flat_bdc2018_new
I0725 11:30:52.231881  6915 net.cpp:157] Top shape: 2 36 (72)
I0725 11:30:52.231884  6915 net.cpp:165] Memory required for data: 3775384880
I0725 11:30:52.231887  6915 layer_factory.hpp:77] Creating layer conv8_2_mbox_priorbox
I0725 11:30:52.231894  6915 net.cpp:100] Creating Layer conv8_2_mbox_priorbox
I0725 11:30:52.231899  6915 net.cpp:434] conv8_2_mbox_priorbox <- conv8_2_conv8_2_relu_0_split_3
I0725 11:30:52.231902  6915 net.cpp:434] conv8_2_mbox_priorbox <- data_data_0_split_5
I0725 11:30:52.231907  6915 net.cpp:408] conv8_2_mbox_priorbox -> conv8_2_mbox_priorbox
I0725 11:30:52.231935  6915 net.cpp:150] Setting up conv8_2_mbox_priorbox
I0725 11:30:52.231940  6915 net.cpp:157] Top shape: 1 2 16 (32)
I0725 11:30:52.231942  6915 net.cpp:165] Memory required for data: 3775385008
I0725 11:30:52.231945  6915 layer_factory.hpp:77] Creating layer conv9_2_mbox_loc_bdc2018
I0725 11:30:52.231956  6915 net.cpp:100] Creating Layer conv9_2_mbox_loc_bdc2018
I0725 11:30:52.231958  6915 net.cpp:434] conv9_2_mbox_loc_bdc2018 <- conv9_2_conv9_2_relu_0_split_0
I0725 11:30:52.231966  6915 net.cpp:408] conv9_2_mbox_loc_bdc2018 -> conv9_2_mbox_loc_bdc2018
I0725 11:30:52.233501  6915 net.cpp:150] Setting up conv9_2_mbox_loc_bdc2018
I0725 11:30:52.233515  6915 net.cpp:157] Top shape: 2 16 1 1 (32)
I0725 11:30:52.233518  6915 net.cpp:165] Memory required for data: 3775385136
I0725 11:30:52.233525  6915 layer_factory.hpp:77] Creating layer conv9_2_mbox_loc_bdc2018_perm_bdc2018
I0725 11:30:52.233532  6915 net.cpp:100] Creating Layer conv9_2_mbox_loc_bdc2018_perm_bdc2018
I0725 11:30:52.233537  6915 net.cpp:434] conv9_2_mbox_loc_bdc2018_perm_bdc2018 <- conv9_2_mbox_loc_bdc2018
I0725 11:30:52.233543  6915 net.cpp:408] conv9_2_mbox_loc_bdc2018_perm_bdc2018 -> conv9_2_mbox_loc_bdc2018_perm_bdc2018
I0725 11:30:52.233660  6915 net.cpp:150] Setting up conv9_2_mbox_loc_bdc2018_perm_bdc2018
I0725 11:30:52.233667  6915 net.cpp:157] Top shape: 2 1 1 16 (32)
I0725 11:30:52.233669  6915 net.cpp:165] Memory required for data: 3775385264
I0725 11:30:52.233675  6915 layer_factory.hpp:77] Creating layer conv9_2_mbox_loc_bdc2018_flat_bdc2018
I0725 11:30:52.233681  6915 net.cpp:100] Creating Layer conv9_2_mbox_loc_bdc2018_flat_bdc2018
I0725 11:30:52.233685  6915 net.cpp:434] conv9_2_mbox_loc_bdc2018_flat_bdc2018 <- conv9_2_mbox_loc_bdc2018_perm_bdc2018
I0725 11:30:52.233691  6915 net.cpp:408] conv9_2_mbox_loc_bdc2018_flat_bdc2018 -> conv9_2_mbox_loc_bdc2018_flat_bdc2018
I0725 11:30:52.233716  6915 net.cpp:150] Setting up conv9_2_mbox_loc_bdc2018_flat_bdc2018
I0725 11:30:52.233731  6915 net.cpp:157] Top shape: 2 16 (32)
I0725 11:30:52.233733  6915 net.cpp:165] Memory required for data: 3775385392
I0725 11:30:52.233736  6915 layer_factory.hpp:77] Creating layer conv9_2_mbox_conf_bdc2018_new
I0725 11:30:52.233747  6915 net.cpp:100] Creating Layer conv9_2_mbox_conf_bdc2018_new
I0725 11:30:52.233752  6915 net.cpp:434] conv9_2_mbox_conf_bdc2018_new <- conv9_2_conv9_2_relu_0_split_1
I0725 11:30:52.233757  6915 net.cpp:408] conv9_2_mbox_conf_bdc2018_new -> conv9_2_mbox_conf_bdc2018_new
I0725 11:30:52.235750  6915 net.cpp:150] Setting up conv9_2_mbox_conf_bdc2018_new
I0725 11:30:52.235762  6915 net.cpp:157] Top shape: 2 36 1 1 (72)
I0725 11:30:52.235766  6915 net.cpp:165] Memory required for data: 3775385680
I0725 11:30:52.235774  6915 layer_factory.hpp:77] Creating layer conv9_2_mbox_conf_bdc2018_new_perm_bdc2018_new
I0725 11:30:52.235783  6915 net.cpp:100] Creating Layer conv9_2_mbox_conf_bdc2018_new_perm_bdc2018_new
I0725 11:30:52.235788  6915 net.cpp:434] conv9_2_mbox_conf_bdc2018_new_perm_bdc2018_new <- conv9_2_mbox_conf_bdc2018_new
I0725 11:30:52.235793  6915 net.cpp:408] conv9_2_mbox_conf_bdc2018_new_perm_bdc2018_new -> conv9_2_mbox_conf_bdc2018_new_perm_bdc2018_new
I0725 11:30:52.235918  6915 net.cpp:150] Setting up conv9_2_mbox_conf_bdc2018_new_perm_bdc2018_new
I0725 11:30:52.235925  6915 net.cpp:157] Top shape: 2 1 1 36 (72)
I0725 11:30:52.235940  6915 net.cpp:165] Memory required for data: 3775385968
I0725 11:30:52.235944  6915 layer_factory.hpp:77] Creating layer conv9_2_mbox_conf_bdc2018_new_flat_bdc2018_new
I0725 11:30:52.235950  6915 net.cpp:100] Creating Layer conv9_2_mbox_conf_bdc2018_new_flat_bdc2018_new
I0725 11:30:52.235954  6915 net.cpp:434] conv9_2_mbox_conf_bdc2018_new_flat_bdc2018_new <- conv9_2_mbox_conf_bdc2018_new_perm_bdc2018_new
I0725 11:30:52.235960  6915 net.cpp:408] conv9_2_mbox_conf_bdc2018_new_flat_bdc2018_new -> conv9_2_mbox_conf_bdc2018_new_flat_bdc2018_new
I0725 11:30:52.235986  6915 net.cpp:150] Setting up conv9_2_mbox_conf_bdc2018_new_flat_bdc2018_new
I0725 11:30:52.235991  6915 net.cpp:157] Top shape: 2 36 (72)
I0725 11:30:52.235994  6915 net.cpp:165] Memory required for data: 3775386256
I0725 11:30:52.235997  6915 layer_factory.hpp:77] Creating layer conv9_2_mbox_priorbox
I0725 11:30:52.236004  6915 net.cpp:100] Creating Layer conv9_2_mbox_priorbox
I0725 11:30:52.236008  6915 net.cpp:434] conv9_2_mbox_priorbox <- conv9_2_conv9_2_relu_0_split_2
I0725 11:30:52.236012  6915 net.cpp:434] conv9_2_mbox_priorbox <- data_data_0_split_6
I0725 11:30:52.236023  6915 net.cpp:408] conv9_2_mbox_priorbox -> conv9_2_mbox_priorbox
I0725 11:30:52.236054  6915 net.cpp:150] Setting up conv9_2_mbox_priorbox
I0725 11:30:52.236059  6915 net.cpp:157] Top shape: 1 2 16 (32)
I0725 11:30:52.236063  6915 net.cpp:165] Memory required for data: 3775386384
I0725 11:30:52.236066  6915 layer_factory.hpp:77] Creating layer mbox_loc
I0725 11:30:52.236076  6915 net.cpp:100] Creating Layer mbox_loc
I0725 11:30:52.236080  6915 net.cpp:434] mbox_loc <- res5c_norm_mbox_loc_bdc2018_flat_bdc2018
I0725 11:30:52.236085  6915 net.cpp:434] mbox_loc <- pool5_mbox_loc_bdc2018_flat_bdc2018
I0725 11:30:52.236089  6915 net.cpp:434] mbox_loc <- conv6_2_mbox_loc_bdc2018_flat_bdc2018
I0725 11:30:52.236093  6915 net.cpp:434] mbox_loc <- conv7_2_mbox_loc_bdc2018_flat_bdc2018
I0725 11:30:52.236097  6915 net.cpp:434] mbox_loc <- conv8_2_mbox_loc_bdc2018_flat_bdc2018
I0725 11:30:52.236100  6915 net.cpp:434] mbox_loc <- conv9_2_mbox_loc_bdc2018_flat_bdc2018
I0725 11:30:52.236105  6915 net.cpp:408] mbox_loc -> mbox_loc
I0725 11:30:52.236143  6915 net.cpp:150] Setting up mbox_loc
I0725 11:30:52.236148  6915 net.cpp:157] Top shape: 2 4200 (8400)
I0725 11:30:52.236150  6915 net.cpp:165] Memory required for data: 3775419984
I0725 11:30:52.236153  6915 layer_factory.hpp:77] Creating layer mbox_conf
I0725 11:30:52.236158  6915 net.cpp:100] Creating Layer mbox_conf
I0725 11:30:52.236161  6915 net.cpp:434] mbox_conf <- res5c_norm_mbox_conf_bdc2018_new_flat_bdc2018_new
I0725 11:30:52.236177  6915 net.cpp:434] mbox_conf <- pool5_mbox_conf_bdc2018_new_flat_bdc2018_new
I0725 11:30:52.236181  6915 net.cpp:434] mbox_conf <- conv6_2_mbox_conf_bdc2018_new_flat_bdc2018_new
I0725 11:30:52.236186  6915 net.cpp:434] mbox_conf <- conv7_2_mbox_conf_bdc2018_new_flat_bdc2018_new
I0725 11:30:52.236189  6915 net.cpp:434] mbox_conf <- conv8_2_mbox_conf_bdc2018_new_flat_bdc2018_new
I0725 11:30:52.236192  6915 net.cpp:434] mbox_conf <- conv9_2_mbox_conf_bdc2018_new_flat_bdc2018_new
I0725 11:30:52.236197  6915 net.cpp:408] mbox_conf -> mbox_conf
I0725 11:30:52.236225  6915 net.cpp:150] Setting up mbox_conf
I0725 11:30:52.236230  6915 net.cpp:157] Top shape: 2 9450 (18900)
I0725 11:30:52.236233  6915 net.cpp:165] Memory required for data: 3775495584
I0725 11:30:52.236237  6915 layer_factory.hpp:77] Creating layer mbox_priorbox
I0725 11:30:52.236240  6915 net.cpp:100] Creating Layer mbox_priorbox
I0725 11:30:52.236244  6915 net.cpp:434] mbox_priorbox <- res5c_norm_mbox_priorbox
I0725 11:30:52.236248  6915 net.cpp:434] mbox_priorbox <- pool5_mbox_priorbox
I0725 11:30:52.236253  6915 net.cpp:434] mbox_priorbox <- conv6_2_mbox_priorbox
I0725 11:30:52.236255  6915 net.cpp:434] mbox_priorbox <- conv7_2_mbox_priorbox
I0725 11:30:52.236258  6915 net.cpp:434] mbox_priorbox <- conv8_2_mbox_priorbox
I0725 11:30:52.236261  6915 net.cpp:434] mbox_priorbox <- conv9_2_mbox_priorbox
I0725 11:30:52.236266  6915 net.cpp:408] mbox_priorbox -> mbox_priorbox
I0725 11:30:52.236289  6915 net.cpp:150] Setting up mbox_priorbox
I0725 11:30:52.236294  6915 net.cpp:157] Top shape: 1 2 4200 (8400)
I0725 11:30:52.236295  6915 net.cpp:165] Memory required for data: 3775529184
I0725 11:30:52.236299  6915 layer_factory.hpp:77] Creating layer mbox_conf_reshape
I0725 11:30:52.236308  6915 net.cpp:100] Creating Layer mbox_conf_reshape
I0725 11:30:52.236312  6915 net.cpp:434] mbox_conf_reshape <- mbox_conf
I0725 11:30:52.236316  6915 net.cpp:408] mbox_conf_reshape -> mbox_conf_reshape
I0725 11:30:52.236359  6915 net.cpp:150] Setting up mbox_conf_reshape
I0725 11:30:52.236366  6915 net.cpp:157] Top shape: 2 1050 9 (18900)
I0725 11:30:52.236368  6915 net.cpp:165] Memory required for data: 3775604784
I0725 11:30:52.236371  6915 layer_factory.hpp:77] Creating layer mbox_conf_softmax
I0725 11:30:52.236377  6915 net.cpp:100] Creating Layer mbox_conf_softmax
I0725 11:30:52.236382  6915 net.cpp:434] mbox_conf_softmax <- mbox_conf_reshape
I0725 11:30:52.236387  6915 net.cpp:408] mbox_conf_softmax -> mbox_conf_softmax
I0725 11:30:52.236973  6915 net.cpp:150] Setting up mbox_conf_softmax
I0725 11:30:52.236985  6915 net.cpp:157] Top shape: 2 1050 9 (18900)
I0725 11:30:52.236989  6915 net.cpp:165] Memory required for data: 3775680384
I0725 11:30:52.236992  6915 layer_factory.hpp:77] Creating layer mbox_conf_flatten
I0725 11:30:52.236999  6915 net.cpp:100] Creating Layer mbox_conf_flatten
I0725 11:30:52.237002  6915 net.cpp:434] mbox_conf_flatten <- mbox_conf_softmax
I0725 11:30:52.237010  6915 net.cpp:408] mbox_conf_flatten -> mbox_conf_flatten
I0725 11:30:52.237036  6915 net.cpp:150] Setting up mbox_conf_flatten
I0725 11:30:52.237043  6915 net.cpp:157] Top shape: 2 9450 (18900)
I0725 11:30:52.237046  6915 net.cpp:165] Memory required for data: 3775755984
I0725 11:30:52.237049  6915 layer_factory.hpp:77] Creating layer detection_out
I0725 11:30:52.237067  6915 net.cpp:100] Creating Layer detection_out
I0725 11:30:52.237072  6915 net.cpp:434] detection_out <- mbox_loc
I0725 11:30:52.237076  6915 net.cpp:434] detection_out <- mbox_conf_flatten
I0725 11:30:52.237079  6915 net.cpp:434] detection_out <- mbox_priorbox
I0725 11:30:52.237087  6915 net.cpp:408] detection_out -> detection_out
I0725 11:30:52.237625  6915 net.cpp:150] Setting up detection_out
I0725 11:30:52.237635  6915 net.cpp:157] Top shape: 1 1 1 7 (7)
I0725 11:30:52.237638  6915 net.cpp:165] Memory required for data: 3775756012
I0725 11:30:52.237643  6915 layer_factory.hpp:77] Creating layer detection_eval
I0725 11:30:52.237650  6915 net.cpp:100] Creating Layer detection_eval
I0725 11:30:52.237653  6915 net.cpp:434] detection_eval <- detection_out
I0725 11:30:52.237666  6915 net.cpp:434] detection_eval <- label
I0725 11:30:52.237673  6915 net.cpp:408] detection_eval -> detection_eval
I0725 11:30:52.237862  6915 net.cpp:150] Setting up detection_eval
I0725 11:30:52.237871  6915 net.cpp:157] Top shape: 1 1 9 5 (45)
I0725 11:30:52.237874  6915 net.cpp:165] Memory required for data: 3775756192
I0725 11:30:52.237877  6915 net.cpp:228] detection_eval does not need backward computation.
I0725 11:30:52.237881  6915 net.cpp:228] detection_out does not need backward computation.
I0725 11:30:52.237884  6915 net.cpp:228] mbox_conf_flatten does not need backward computation.
I0725 11:30:52.237887  6915 net.cpp:228] mbox_conf_softmax does not need backward computation.
…
