…
      sampler {
        min_scale: 0.3
        max_scale: 1
        min_aspect_ratio: 0.5
        max_aspect_ratio: 2
      }
      sample_constraint {
        min_jaccard_overlap: 0.9
      }
      max_sample: 1
      max_trials: 50
    }
    batch_sampler {
      sampler {
        min_scale: 0.3
        max_scale: 1
        min_aspect_ratio: 0.5
        max_aspect_ratio: 2
      }
      sample_constraint {
        max_jaccard_overlap: 1
      }
      max_sample: 1
      max_trials: 50
    }
    label_map_file: "data/bdc2018/labelmap_bdc.prototxt"
  }
}
layer {
  name: "conv1"
  type: "Convolution"
  bottom: "data"
  top: "conv1"
  param {
    lr_mult: 1
    decay_mult: 1
  }
  convolution_param {
    num_output: 64
    bias_term: false
    pad: 3
    kernel_size: 7
    stride: 2
    weight_filler {
      type: "gaussian"
      std: 0.01
    }
  }
}
layer {
  name: "bn_conv1"
  type: "BatchNorm"
  bottom: "conv1"
  top: "conv1"
  batch_norm_param {
    moving_average_fraction: 0.999
    eps: 0.001
  }
}
layer {
  name: "scale_conv1"
  type: "Scale"
  bottom: "conv1"
  top: "conv1"
  param {
    lr_mult: 1
    decay_mult: 0
  }
  param {
    lr_mult: 1
    decay_mult: 0
  }
  scale_param {
    filler {
      type: "constant"
      value: 1
    }
    bias_term: true
    bias_filler {
      type: "constant"
      value: 0
    }
  }
}
layer {
  name: "conv1_relu"
  type: "ReLU"
  bottom: "conv1"
  top: "conv1"
}
layer {
  name: "pool1"
  type: "Pooling"
  bottom: "conv1"
  top: "pool1"
  pooling_param {
    pool: MAX
    kernel_size: 3
    stride: 2
  }
}
layer {
  name: "res2a_branch1"
  type: "Convolution"
  bottom: "pool1"
  top: "res2a_branch1"
  param {
    lr_mult: 1
    decay_mult: 1
  }
  convolution_param {
    num_output: 256
    bias_term: false
    pad: 0
    kernel_size: 1
    stride: 1
    weight_filler {
      type: "gaussian"
      std: 0.01
    }
  }
}
layer {
  name: "bn2a_branch1"
  type: "BatchNorm"
  bottom: "res2a_branch1"
  top: "res2a_branch1"
  batch_norm_param {
    moving_average_fraction: 0.999
    eps: 0.001
  }
}
layer {
  name: "scale2a_branch1"
  type: "Scale"
  bottom: "res2a_branch1"
  top: "res2a_branch1"
  param {
    lr_mult: 1
    decay_mult: 0
  }
  param {
    lr_mult: 1
    decay_mult: 0
  }
  scale_param {
    filler {
      type: "constant"
      value: 1
    }
    bias_term: true
    bias_filler {
      type: "constant"
      value: 0
    }
  }
}
layer {
  name: "res2a_branch2a"
  type: "Convolution"
  bottom: "pool1"
  top: "res2a_branch2a"
  param {
    lr_mult: 1
    decay_mult: 1
  }
  convolution_param {
    num_output: 64
    bias_term: false
    pad: 0
    kernel_size: 1
    stride: 1
    weight_filler {
      type: "gaussian"
      std: 0.01
    }
  }
}
layer {
  name: "bn2a_branch2a"
  type: "BatchNorm"
  bottom: "res2a_branch2a"
  top: "res2a_branch2a"
  batch_norm_param {
    moving_average_fraction: 0.999
    eps: 0.001
  }
}
layer {
  name: "scale2a_branch2a"
  type: "Scale"
  bottom: "res2a_branch2a"
  top: "res2a_branch2a"
  param {
    lr_mult: 1
    decay_mult: 0
  }
  param {
    lr_mult: 1
    decay_mult: 0
  }
  scale_param {
    filler {
      type: "constant"
      value: 1
    }
    bias_term: true
    bias_filler {
      type: "constant"
      value: 0
    }
  }
}
layer {
  name: "res2a_branch2a_relu"
  type: "ReLU"
  bottom: "res2a_branch2a"
  top: "res2a_branch2a"
}
layer {
  name: "res2a_branch2b"
  type: "Convolution"
  bottom: "res2a_branch2a"
  top: "res2a_branch2b"
  param {
    lr_mult: 1
    decay_mult: 1
  }
  convolution_param {
    num_output: 64
    bias_term: false
    pad: 1
    kernel_size: 3
    stride: 1
    weight_filler {
      type: "gaussian"
      std: 0.01
    }
  }
}
layer {
  name: "bn2a_branch2b"
  type: "BatchNorm"
  bottom: "res2a_branch2b"
  top: "res2a_branch2b"
  batch_norm_param {
    moving_average_fraction: 0.999
    eps: 0.001
  }
}
layer {
  name: "scale2a_branch2b"
  type: "Scale"
  bottom: "res2a_branch2b"
  top: "res2a_branch2b"
  param {
    lr_mult: 1
    decay_mult: 0
  }
  param {
    lr_mult: 1
    decay_mult: 0
  }
  scale_param {
    filler {
      type: "constant"
      value: 1
    }
    bias_term: true
    bias_filler {
      type: "constant"
      value: 0
    }
  }
}
layer {
  name: "res2a_branch2b_relu"
  type: "ReLU"
  bottom: "res2a_branch2b"
  top: "res2a_branch2b"
}
layer {
  name: "res2a_branch2c"
  type: "Convolution"
  bottom: "res2a_branch2b"
  top: "res2a_branch2c"
  param {
    lr_mult: 1
    decay_mult: 1
  }
  convolution_param {
    num_output: 256
    bias_term: false
    pad: 0
    kernel_size: 1
    stride: 1
    weight_filler {
      type: "gaussian"
      std: 0.01
    }
  }
}
layer {
  name: "bn2a_branch2c"
  type: "BatchNorm"
  bottom: "res2a_branch2c"
  top: "res2a_branch2c"
  batch_norm_param {
    moving_average_fraction: 0.999
    eps: 0.001
  }
}
layer {
  name: "scale2a_branch2c"
  type: "Scale"
  bottom: "res2a_branch2c"
  top: "res2a_branch2c"
  param {
    lr_mult: 1
    decay_mult: 0
  }
  param {
    lr_mult: 1
    decay_mult: 0
  }
  scale_param {
    filler {
      type: "constant"
      value: 1
    }
    bias_term: true
    bias_filler {
      type: "constant"
      value: 0
    }
  }
}
layer {
  name: "res2a"
  type: "Eltwise"
  bottom: "res2a_branch1"
  bottom: "res2a_branch2c"
  top: "res2a"
}
layer {
  name: "res2a_relu"
  type: "ReLU"
  bottom: "res2a"
  top: "res2a"
}
layer {
  name: "res2b_branch2a"
  type: "Convolution"
  bottom: "res2a"
  top: "res2b_branch2a"
  param {
    lr_mult: 1
    decay_mult: 1
  }
  convolution_param {
    num_output: 64
    bias_term: false
    pad: 0
    kernel_size: 1
    stride: 1
    weight_filler {
      type: "gaussian"
      std: 0.01
    }
  }
}
layer {
  name: "bn2b_branch2a"
  type: "BatchNorm"
  bottom: "res2b_branch2a"
  top: "res2b_branch2a"
  batch_norm_param {
    moving_average_fraction: 0.999
    eps: 0.001
  }
}
layer {
  name: "scale2b_branch2a"
  type: "Scale"
  bottom: "res2b_branch2a"
  top: "res2b_branch2a"
  param {
    lr_mult: 1
    decay_mult: 0
  }
  param {
    lr_mult: 1
    decay_mult: 0
  }
  scale_param {
    filler {
      type: "constant"
      value: 1
    }
    bias_term: true
    bias_filler {
      type: "constant"
      value: 0
    }
  }
}
layer {
  name: "res2b_branch2a_relu"
  type: "ReLU"
  bottom: "res2b_branch2a"
  top: "res2b_branch2a"
}
layer {
  name: "res2b_branch2b"
  type: "Convolution"
  bottom: "res2b_branch2a"
  top: "res2b_branch2b"
  param {
    lr_mult: 1
    decay_mult: 1
  }
  convolution_param {
    num_output: 64
    bias_term: false
    pad: 1
    kernel_size: 3
    stride: 1
    weight_filler {
      type: "gaussian"
      std: 0.01
    }
  }
}
layer {
  name: "bn2b_branch2b"
  type: "BatchNorm"
  bottom: "res2b_branch2b"
  top: "res2b_branch2b"
  batch_norm_param {
    moving_average_fraction: 0.999
    eps: 0.001
  }
}
layer {
  name: "scale2b_branch2b"
  type: "Scale"
  bottom: "res2b_branch2b"
  top: "res2b_branch2b"
  param {
    lr_mult: 1
    decay_mult: 0
  }
  param {
    lr_mult: 1
    decay_mult: 0
  }
  scale_param {
    filler {
      type: "constant"
      value: 1
    }
    bias_term: true
    bias_filler {
      type: "constant"
      value: 0
    }
  }
}
layer {
  name: "res2b_branch2b_relu"
  type: "ReLU"
  bottom: "res2b_branch2b"
  top: "res2b_branch2b"
}
layer {
  name: "res2b_branch2c"
  type: "Convolution"
  bottom: "res2b_branch2b"
  top: "res2b_branch2c"
  param {
    lr_mult: 1
    decay_mult: 1
  }
  convolution_param {
    num_output: 256
    bias_term: false
    pad: 0
    kernel_size: 1
    stride: 1
    weight_filler {
      type: "gaussian"
      std: 0.01
    }
  }
}
layer {
  name: "bn2b_branch2c"
  type: "BatchNorm"
  bottom: "res2b_branch2c"
  top: "res2b_branch2c"
  batch_norm_param {
    moving_average_fraction: 0.999
    eps: 0.001
  }
}
layer {
  name: "scale2b_branch2c"
  type: "Scale"
  bottom: "res2b_branch2c"
  top: "res2b_branch2c"
  param {
    lr_mult: 1
    decay_mult: 0
  }
  param {
    lr_mult: 1
    decay_mult: 0
  }
  scale_param {
    filler {
      type: "constant"
      value: 1
    }
    bias_term: true
    bias_filler {
      type: "constant"
      value: 0
    }
  }
}
layer {
  name: "res2b"
  type: "Eltwise"
  bottom: "res2a"
  bottom: "res2b_branch2c"
  top: "res2b"
}
layer {
  name: "res2b_relu"
  type: "ReLU"
  bottom: "res2b"
  top: "res2b"
}
layer {
  name: "res2c_branch2a"
  type: "Convolution"
  bottom: "res2b"
  top: "res2c_branch2a"
  param {
    lr_mult: 1
    decay_mult: 1
  }
  convolution_param {
    num_output: 64
    bias_term: false
    pad: 0
    kernel_size: 1
    stride: 1
    weight_filler {
      type: "gaussian"
      std: 0.01
    }
  }
}
layer {
  name: "bn2c_branch2a"
  type: "BatchNorm"
  bottom: "res2c_branch2a"
  top: "res2c_branch2a"
  batch_norm_param {
    moving_average_fraction: 0.999
    eps: 0.001
  }
}
layer {
  name: "scale2c_branch2a"
  type: "Scale"
  bottom: "res2c_branch2a"
  top: "res2c_branch2a"
  param {
    lr_mult: 1
    decay_mult: 0
  }
  param {
    lr_mult: 1
    decay_mult: 0
  }
  scale_param {
    filler {
      type: "constant"
      value: 1
    }
    bias_term: true
    bias_filler {
      type: "constant"
      value: 0
    }
  }
}
layer {
  name: "res2c_branch2a_relu"
  type: "ReLU"
  bottom: "res2c_branch2a"
  top: "res2c_branch2a"
}
layer {
  name: "res2c_branch2b"
  type: "Convolution"
  bottom: "res2c_branch2a"
  top: "res2c_branch2b"
  param {
    lr_mult: 1
    decay_mult: 1
  }
  convolution_param {
    num_output: 64
    bias_term: false
    pad: 1
    kernel_size: 3
    stride: 1
    weight_filler {
      type: "gaussian"
      std: 0.01
    }
  }
}
layer {
  name: "bn2c_branch2b"
  type: "BatchNorm"
  bottom: "res2c_branch2b"
  top: "res2c_branch2b"
  batch_norm_param {
    moving_average_fraction: 0.999
    eps: 0.001
  }
}
layer {
  name: "scale2c_branch2b"
  type: "Scale"
  bottom: "res2c_branch2b"
  top: "res2c_branch2b"
  param {
    lr_mult: 1
    decay_mult: 0
  }
  param {
    lr_mult: 1
    decay_mult: 0
  }
  scale_param {
    filler {
      type: "constant"
      value: 1
    }
    bias_term: true
    bias_filler {
      type: "constant"
      value: 0
    }
  }
}
layer {
  name: "res2c_branch2b_relu"
  type: "ReLU"
  bottom: "res2c_branch2b"
  top: "res2c_branch2b"
}
layer {
  name: "res2c_branch2c"
  type: "Convolution"
  bottom: "res2c_branch2b"
  top: "res2c_branch2c"
  param {
    lr_mult: 1
    decay_mult: 1
  }
  convolution_param {
    num_output: 256
    bias_term: false
    pad: 0
    kernel_size: 1
    stride: 1
    weight_filler {
      type: "gaussian"
      std: 0.01
    }
  }
}
layer {
  name: "bn2c_branch2c"
  type: "BatchNorm"
  bottom: "res2c_branch2c"
  top: "res2c_branch2c"
  batch_norm_param {
    moving_average_fraction: 0.999
    eps: 0.001
  }
}
layer {
  name: "scale2c_branch2c"
  type: "Scale"
  bottom: "res2c_branch2c"
  top: "res2c_branch2c"
  param {
    lr_mult: 1
    decay_mult: 0
  }
  param {
    lr_mult: 1
    decay_mult: 0
  }
  scale_param {
    filler {
      type: "constant"
      value: 1
    }
    bias_term: true
    bias_filler {
      type: "constant"
      value: 0
    }
  }
}
layer {
  name: "res2c"
  type: "Eltwise"
  bottom: "res2b"
  bottom: "res2c_branch2c"
  top: "res2c"
}
layer {
  name: "res2c_relu"
  type: "ReLU"
  bottom: "res2c"
  top: "res2c"
}
layer {
  name: "res3a_branch1"
  type: "Convolution"
  bottom: "res2c"
  top: "res3a_branch1"
  param {
    lr_mult: 1
    decay_mult: 1
  }
  convolution_param {
    num_output: 512
    bias_term: false
    pad: 0
    kernel_size: 1
    stride: 2
    weight_filler {
      type: "gaussian"
      std: 0.01
    }
  }
}
layer {
  name: "bn3a_branch1"
  type: "BatchNorm"
  bottom: "res3a_branch1"
  top: "res3a_branch1"
  batch_norm_param {
    moving_average_fraction: 0.999
    eps: 0.001
  }
}
layer {
  name: "scale3a_branch1"
  type: "Scale"
  bottom: "res3a_branch1"
  top: "res3a_branch1"
  param {
    lr_mult: 1
    decay_mult: 0
  }
  param {
    lr_mult: 1
    decay_mult: 0
  }
  scale_param {
    filler {
      type: "constant"
      value: 1
    }
    bias_term: true
    bias_filler {
      type: "constant"
      value: 0
    }
  }
}
layer {
  name: "res3a_branch2a"
  type: "Convolution"
  bottom: "res2c"
  top: "res3a_branch2a"
  param {
    lr_mult: 1
    decay_mult: 1
  }
  convolution_param {
    num_output: 128
    bias_term: false
    pad: 0
    kernel_size: 1
    stride: 2
    weight_filler {
      type: "gaussian"
      std: 0.01
    }
  }
}
layer {
  name: "bn3a_branch2a"
  type: "BatchNorm"
  bottom: "res3a_branch2a"
  top: "res3a_branch2a"
  batch_norm_param {
    moving_average_fraction: 0.999
    eps: 0.001
  }
}
layer {
  name: "scale3a_branch2a"
  type: "Scale"
  bottom: "res3a_branch2a"
  top: "res3a_branch2a"
  param {
    lr_mult: 1
    decay_mult: 0
  }
  param {
    lr_mult: 1
    decay_mult: 0
  }
  scale_param {
    filler {
      type: "constant"
      value: 1
    }
    bias_term: true
    bias_filler {
      type: "constant"
      value: 0
    }
  }
}
layer {
  name: "res3a_branch2a_relu"
  type: "ReLU"
  bottom: "res3a_branch2a"
  top: "res3a_branch2a"
}
layer {
  name: "res3a_branch2b"
  type: "Convolution"
  bottom: "res3a_branch2a"
  top: "res3a_branch2b"
  param {
    lr_mult: 1
    decay_mult: 1
  }
  convolution_param {
    num_output: 128
    bias_term: false
    pad: 1
    kernel_size: 3
    stride: 1
    weight_filler {
      type: "gaussian"
      std: 0.01
    }
  }
}
layer {
  name: "bn3a_branch2b"
  type: "BatchNorm"
  bottom: "res3a_branch2b"
  top: "res3a_branch2b"
  batch_norm_param {
    moving_average_fraction: 0.999
    eps: 0.001
  }
}
layer {
  name: "scale3a_branch2b"
  type: "Scale"
  bottom: "res3a_branch2b"
  top: "res3a_branch2b"
  param {
    lr_mult: 1
    decay_mult: 0
  }
  param {
    lr_mult: 1
    decay_mult: 0
  }
  scale_param {
    filler {
      type: "constant"
      value: 1
    }
    bias_term: true
    bias_filler {
      type: "constant"
      value: 0
    }
  }
}
layer {
  name: "res3a_branch2b_relu"
  type: "ReLU"
  bottom: "res3a_branch2b"
  top: "res3a_branch2b"
}
layer {
  name: "res3a_branch2c"
  type: "Convolution"
  bottom: "res3a_branch2b"
  top: "res3a_branch2c"
  param {
    lr_mult: 1
    decay_mult: 1
  }
  convolution_param {
    num_output: 512
    bias_term: false
    pad: 0
    kernel_size: 1
    stride: 1
    weight_filler {
      type: "gaussian"
      std: 0.01
    }
  }
}
layer {
  name: "bn3a_branch2c"
  type: "BatchNorm"
  bottom: "res3a_branch2c"
  top: "res3a_branch2c"
  batch_norm_param {
    moving_average_fraction: 0.999
    eps: 0.001
  }
}
layer {
  name: "scale3a_branch2c"
  type: "Scale"
  bottom: "res3a_branch2c"
  top: "res3a_branch2c"
  param {
    lr_mult: 1
    decay_mult: 0
  }
  param {
    lr_mult: 1
    decay_mult: 0
  }
  scale_param {
    filler {
      type: "constant"
      value: 1
    }
    bias_term: true
    bias_filler {
      type: "constant"
      value: 0
    }
  }
}
layer {
  name: "res3a"
  type: "Eltwise"
  bottom: "res3a_branch1"
  bottom: "res3a_branch2c"
  top: "res3a"
}
layer {
  name: "res3a_relu"
  type: "ReLU"
  bottom: "res3a"
  top: "res3a"
}
layer {
  name: "res3b1_branch2a"
  type: "Convolution"
  bottom: "res3a"
  top: "res3b1_branch2a"
  param {
    lr_mult: 1
    decay_mult: 1
  }
  convolution_param {
    num_output: 128
    bias_term: false
    pad: 0
    kernel_size: 1
    stride: 1
    weight_filler {
      type: "gaussian"
      std: 0.01
    }
  }
}
layer {
  name: "bn3b1_branch2a"
  type: "BatchNorm"
  bottom: "res3b1_branch2a"
  top: "res3b1_branch2a"
  batch_norm_param {
    moving_average_fraction: 0.999
    eps: 0.001
  }
}
layer {
  name: "scale3b1_branch2a"
  type: "Scale"
  bottom: "res3b1_branch2a"
  top: "res3b1_branch2a"
  param {
    lr_mult: 1
    decay_mult: 0
  }
  param {
    lr_mult: 1
    decay_mult: 0
  }
  scale_param {
    filler {
      type: "constant"
      value: 1
    }
    bias_term: true
    bias_filler {
      type: "constant"
      value: 0
    }
  }
}
layer {
  name: "res3b1_branch2a_relu"
  type: "ReLU"
  bottom: "res3b1_branch2a"
  top: "res3b1_branch2a"
}
layer {
  name: "res3b1_branch2b"
  type: "Convolution"
  bottom: "res3b1_branch2a"
  top: "res3b1_branch2b"
  param {
    lr_mult: 1
    decay_mult: 1
  }
  convolution_param {
    num_output: 128
    bias_term: false
    pad: 1
    kernel_size: 3
    stride: 1
    weight_filler {
      type: "gaussian"
      std: 0.01
    }
  }
}
layer {
  name: "bn3b1_branch2b"
  type: "BatchNorm"
  bottom: "res3b1_branch2b"
  top: "res3b1_branch2b"
  batch_norm_param {
    moving_average_fraction: 0.999
    eps: 0.001
  }
}
layer {
  name: "scale3b1_branch2b"
  type: "Scale"
  bottom: "res3b1_branch2b"
  top: "res3b1_branch2b"
  param {
    lr_mult: 1
    decay_mult: 0
  }
  param {
    lr_mult: 1
    decay_mult: 0
  }
  scale_param {
    filler {
      type: "constant"
      value: 1
    }
    bias_term: true
    bias_filler {
      type: "constant"
      value: 0
    }
  }
}
layer {
  name: "res3b1_branch2b_relu"
  type: "ReLU"
  bottom: "res3b1_branch2b"
  top: "res3b1_branch2b"
}
layer {
  name: "res3b1_branch2c"
  type: "Convolution"
  bottom: "res3b1_branch2b"
  top: "res3b1_branch2c"
  param {
    lr_mult: 1
    decay_mult: 1
  }
  convolution_param {
    num_output: 512
    bias_term: false
    pad: 0
    kernel_size: 1
    stride: 1
    weight_filler {
      type: "gaussian"
      std: 0.01
    }
  }
}
layer {
  name: "bn3b1_branch2c"
  type: "BatchNorm"
  bottom: "res3b1_branch2c"
  top: "res3b1_branch2c"
  batch_norm_param {
    moving_average_fraction: 0.999
    eps: 0.001
  }
}
layer {
  name: "scale3b1_branch2c"
  type: "Scale"
  bottom: "res3b1_branch2c"
  top: "res3b1_branch2c"
  param {
    lr_mult: 1
    decay_mult: 0
  }
  param {
    lr_mult: 1
    decay_mult: 0
  }
  scale_param {
    filler {
      type: "constant"
      value: 1
    }
    bias_term: true
    bias_filler {
      type: "constant"
      value: 0
    }
  }
}
layer {
  name: "res3b1"
  type: "Eltwise"
  bottom: "res3a"
  bottom: "res3b1_branch2c"
  top: "res3b1"
}
layer {
  name: "res3b1_relu"
  type: "ReLU"
  bottom: "res3b1"
  top: "res3b1"
}
layer {
  name: "res3b2_branch2a"
  type: "Convolution"
  bottom: "res3b1"
  top: "res3b2_branch2a"
  param {
    lr_mult: 1
    decay_mult: 1
  }
  convolution_param {
    num_output: 128
    bias_term: false
    pad: 0
    kernel_size: 1
    stride: 1
    weight_filler {
      type: "gaussian"
      std: 0.01
    }
  }
}
layer {
  name: "bn3b2_branch2a"
  type: "BatchNorm"
  bottom: "res3b2_branch2a"
  top: "res3b2_branch2a"
  batch_norm_param {
    moving_average_fraction: 0.999
    eps: 0.001
  }
}
layer {
  name: "scale3b2_branch2a"
  type: "Scale"
  bottom: "res3b2_branch2a"
  top: "res3b2_branch2a"
  param {
    lr_mult: 1
    decay_mult: 0
  }
  param {
    lr_mult: 1
    decay_mult: 0
  }
  scale_param {
    filler {
      type: "constant"
      value: 1
    }
    bias_term: true
    bias_filler {
      type: "constant"
      value: 0
    }
  }
}
layer {
  name: "res3b2_branch2a_relu"
  type: "ReLU"
  bottom: "res3b2_branch2a"
  top: "res3b2_branch2a"
}
layer {
  name: "res3b2_branch2b"
  type: "Convolution"
  bottom: "res3b2_branch2a"
  top: "res3b2_branch2b"
  param {
    lr_mult: 1
    decay_mult: 1
  }
  convolution_param {
    num_output: 128
    bias_term: false
    pad: 1
    kernel_size: 3
    stride: 1
    weight_filler {
      type: "gaussian"
      std: 0.01
    }
  }
}
layer {
  name: "bn3b2_branch2b"
  type: "BatchNorm"
  bottom: "res3b2_branch2b"
  top: "res3b2_branch2b"
  batch_norm_param {
    moving_average_fraction: 0.999
    eps: 0.001
  }
}
layer {
  name: "scale3b2_branch2b"
  type: "Scale"
  bottom: "res3b2_branch2b"
  top: "res3b2_branch2b"
  param {
    lr_mult: 1
    decay_mult: 0
  }
  param {
    lr_mult: 1
    decay_mult: 0
  }
  scale_param {
    filler {
      type: "constant"
      value: 1
    }
    bias_term: true
    bias_filler {
      type: "constant"
      value: 0
    }
  }
}
layer {
  name: "res3b2_branch2b_relu"
  type: "ReLU"
  bottom: "res3b2_branch2b"
  top: "res3b2_branch2b"
}
layer {
  name: "res3b2_branch2c"
  type: "Convolution"
  bottom: "res3b2_branch2b"
  top: "res3b2_branch2c"
  param {
    lr_mult: 1
    decay_mult: 1
  }
  convolution_param {
    num_output: 512
    bias_term: false
    pad: 0
    kernel_size: 1
    stride: 1
    weight_filler {
      type: "gaussian"
      std: 0.01
    }
  }
}
layer {
  name: "bn3b2_branch2c"
  type: "BatchNorm"
  bottom: "res3b2_branch2c"
  top: "res3b2_branch2c"
  batch_norm_param {
    moving_average_fraction: 0.999
    eps: 0.001
  }
}
layer {
  name: "scale3b2_branch2c"
  type: "Scale"
  bottom: "res3b2_branch2c"
  top: "res3b2_branch2c"
  param {
    lr_mult: 1
    decay_mult: 0
  }
  param {
    lr_mult: 1
    decay_mult: 0
  }
  scale_param {
    filler {
      type: "constant"
      value: 1
    }
    bias_term: true
    bias_filler {
      type: "constant"
      value: 0
    }
  }
}
layer {
  name: "res3b2"
  type: "Eltwise"
  bottom: "res3b1"
  bottom: "res3b2_branch2c"
  top: "res3b2"
}
layer {
  name: "res3b2_relu"
  type: "ReLU"
  bottom: "res3b2"
  top: "res3b2"
}
layer {
  name: "res3b3_branch2a"
  type: "Convolution"
  bottom: "res3b2"
  top: "res3b3_branch2a"
  param {
    lr_mult: 1
    decay_mult: 1
  }
  convolution_param {
    num_output: 128
    bias_term: false
    pad: 0
    kernel_size: 1
    stride: 1
    weight_filler {
      type: "gaussian"
      std: 0.01
    }
  }
}
layer {
  name: "bn3b3_branch2a"
  type: "BatchNorm"
  bottom: "res3b3_branch2a"
  top: "res3b3_branch2a"
  batch_norm_param {
    moving_average_fraction: 0.999
    eps: 0.001
  }
}
layer {
  name: "scale3b3_branch2a"
  type: "Scale"
  bottom: "res3b3_branch2a"
  top: "res3b3_branch2a"
  param {
    lr_mult: 1
    decay_mult: 0
  }
  param {
    lr_mult: 1
    decay_mult: 0
  }
  scale_param {
    filler {
      type: "constant"
      value: 1
    }
    bias_term: true
    bias_filler {
      type: "constant"
      value: 0
    }
  }
}
layer {
  name: "res3b3_branch2a_relu"
  type: "ReLU"
  bottom: "res3b3_branch2a"
  top: "res3b3_branch2a"
}
layer {
  name: "res3b3_branch2b"
  type: "Convolution"
  bottom: "res3b3_branch2a"
  top: "res3b3_branch2b"
  param {
    lr_mult: 1
    decay_mult: 1
  }
  convolution_param {
    num_output: 128
    bias_term: false
    pad: 1
    kernel_size: 3
    stride: 1
    weight_filler {
      type: "gaussian"
      std: 0.01
    }
  }
}
layer {
  name: "bn3b3_branch2b"
  type: "BatchNorm"
  bottom: "res3b3_branch2b"
  top: "res3b3_branch2b"
  batch_norm_param {
    moving_average_fraction: 0.999
    eps: 0.001
  }
}
layer {
  name: "scale3b3_branch2b"
  type: "Scale"
  bottom: "res3b3_branch2b"
  top: "res3b3_branch2b"
  param {
    lr_mult: 1
    decay_mult: 0
  }
  param {
    lr_mult: 1
    decay_mult: 0
  }
  scale_param {
    filler {
      type: "constant"
      value: 1
    }
    bias_term: true
    bias_filler {
      type: "constant"
      value: 0
    }
  }
}
layer {
  name: "res3b3_branch2b_relu"
  type: "ReLU"
  bottom: "res3b3_branch2b"
  top: "res3b3_branch2b"
}
layer {
  name: "res3b3_branch2c"
  type: "Convolution"
  bottom: "res3b3_branch2b"
  top: "res3b3_branch2c"
  param {
    lr_mult: 1
    decay_mult: 1
  }
  convolution_param {
    num_output: 512
    bias_term: false
    pad: 0
    kernel_size: 1
    stride: 1
    weight_filler {
      type: "gaussian"
      std: 0.01
    }
  }
}
layer {
  name: "bn3b3_branch2c"
  type: "BatchNorm"
  bottom: "res3b3_branch2c"
  top: "res3b3_branch2c"
  batch_norm_param {
    moving_average_fraction: 0.999
    eps: 0.001
  }
}
layer {
  name: "scale3b3_branch2c"
  type: "Scale"
  bottom: "res3b3_branch2c"
  top: "res3b3_branch2c"
  param {
    lr_mult: 1
    decay_mult: 0
  }
  param {
    lr_mult: 1
    decay_mult: 0
  }
  scale_param {
    filler {
      type: "constant"
      value: 1
    }
    bias_term: true
    bias_filler {
      type: "constant"
      value: 0
    }
  }
}
layer {
  name: "res3b3"
  type: "Eltwise"
  bottom: "res3b2"
  bottom: "res3b3_branch2c"
  top: "res3b3"
}
layer {
  name: "res3b3_relu"
  type: "ReLU"
  bottom: "res3b3"
  top: "res3b3"
}
layer {
  name: "res4a_branch1"
  type: "Convolution"
  bottom: "res3b3"
  top: "res4a_branch1"
  param {
    lr_mult: 1
    decay_mult: 1
  }
  convolution_param {
    num_output: 1024
    bias_term: false
    pad: 0
    kernel_size: 1
    stride: 2
    weight_filler {
      type: "gaussian"
      std: 0.01
    }
  }
}
layer {
  name: "bn4a_branch1"
  type: "BatchNorm"
  bottom: "res4a_branch1"
  top: "res4a_branch1"
  batch_norm_param {
    moving_average_fraction: 0.999
    eps: 0.001
  }
}
layer {
  name: "scale4a_branch1"
  type: "Scale"
  bottom: "res4a_branch1"
  top: "res4a_branch1"
  param {
    lr_mult: 1
    decay_mult: 0
  }
  param {
    lr_mult: 1
    decay_mult: 0
  }
  scale_param {
    filler {
      type: "constant"
      value: 1
    }
    bias_term: true
    bias_filler {
      type: "constant"
      value: 0
    }
  }
}
layer {
  name: "res4a_branch2a"
  type: "Convolution"
  bottom: "res3b3"
  top: "res4a_branch2a"
  param {
    lr_mult: 1
    decay_mult: 1
  }
  convolution_param {
    num_output: 256
    bias_term: false
    pad: 0
    kernel_size: 1
    stride: 2
    weight_filler {
      type: "gaussian"
      std: 0.01
    }
  }
}
layer {
  name: "bn4a_branch2a"
  type: "BatchNorm"
  bottom: "res4a_branch2a"
  top: "res4a_branch2a"
  batch_norm_param {
    moving_average_fraction: 0.999
    eps: 0.001
  }
}
layer {
  name: "scale4a_branch2a"
  type: "Scale"
  bottom: "res4a_branch2a"
  top: "res4a_branch2a"
  param {
    lr_mult: 1
    decay_mult: 0
  }
  param {
    lr_mult: 1
    decay_mult: 0
  }
  scale_param {
    filler {
      type: "constant"
      value: 1
    }
    bias_term: true
    bias_filler {
      type: "constant"
      value: 0
    }
  }
}
layer {
  name: "res4a_branch2a_relu"
  type: "ReLU"
  bottom: "res4a_branch2a"
  top: "res4a_branch2a"
}
layer {
  name: "res4a_branch2b"
  type: "Convolution"
  bottom: "res4a_branch2a"
  top: "res4a_branch2b"
  param {
    lr_mult: 1
    decay_mult: 1
  }
  convolution_param {
    num_output: 256
    bias_term: false
    pad: 1
    kernel_size: 3
    stride: 1
    weight_filler {
      type: "gaussian"
      std: 0.01
    }
  }
}
layer {
  name: "bn4a_branch2b"
  type: "BatchNorm"
  bottom: "res4a_branch2b"
  top: "res4a_branch2b"
  batch_norm_param {
    moving_average_fraction: 0.999
    eps: 0.001
  }
}
layer {
  name: "scale4a_branch2b"
  type: "Scale"
  bottom: "res4a_branch2b"
  top: "res4a_branch2b"
  param {
    lr_mult: 1
    decay_mult: 0
  }
  param {
    lr_mult: 1
    decay_mult: 0
  }
  scale_param {
    filler {
      type: "constant"
      value: 1
    }
    bias_term: true
    bias_filler {
      type: "constant"
      value: 0
    }
  }
}
layer {
  name: "res4a_branch2b_relu"
  type: "ReLU"
  bottom: "res4a_branch2b"
  top: "res4a_branch2b"
}
layer {
  name: "res4a_branch2c"
  type: "Convolution"
  bottom: "res4a_branch2b"
  top: "res4a_branch2c"
  param {
    lr_mult: 1
    decay_mult: 1
  }
  convolution_param {
    num_output: 1024
    bias_term: false
    pad: 0
    kernel_size: 1
    stride: 1
    weight_filler {
      type: "gaussian"
      std: 0.01
    }
  }
}
layer {
  name: "bn4a_branch2c"
  type: "BatchNorm"
  bottom: "res4a_branch2c"
  top: "res4a_branch2c"
  batch_norm_param {
    moving_average_fraction: 0.999
    eps: 0.001
  }
}
layer {
  name: "scale4a_branch2c"
  type: 
I0725 16:33:13.421037  9400 layer_factory.hpp:77] Creating layer data
I0725 16:33:13.421197  9400 net.cpp:100] Creating Layer data
I0725 16:33:13.421211  9400 net.cpp:408] data -> data
I0725 16:33:13.421253  9400 net.cpp:408] data -> label
I0725 16:33:13.422557  9411 db_lmdb.cpp:35] Opened lmdb examples/bdc2018/bdc2018_train_name_lmdb
I0725 16:33:13.440362  9400 annotated_data_layer.cpp:62] output data size: 2,3,600,600
I0725 16:33:13.454416  9400 net.cpp:150] Setting up data
I0725 16:33:13.454452  9400 net.cpp:157] Top shape: 2 3 600 600 (2160000)
I0725 16:33:13.454457  9400 net.cpp:157] Top shape: 1 1 1 8 (8)
I0725 16:33:13.454460  9400 net.cpp:165] Memory required for data: 8640032
I0725 16:33:13.454471  9400 layer_factory.hpp:77] Creating layer data_data_0_split
I0725 16:33:13.454485  9400 net.cpp:100] Creating Layer data_data_0_split
I0725 16:33:13.454493  9400 net.cpp:434] data_data_0_split <- data
I0725 16:33:13.454511  9400 net.cpp:408] data_data_0_split -> data_data_0_split_0
I0725 16:33:13.454527  9400 net.cpp:408] data_data_0_split -> data_data_0_split_1
I0725 16:33:13.454533  9400 net.cpp:408] data_data_0_split -> data_data_0_split_2
I0725 16:33:13.454542  9400 net.cpp:408] data_data_0_split -> data_data_0_split_3
I0725 16:33:13.454548  9400 net.cpp:408] data_data_0_split -> data_data_0_split_4
I0725 16:33:13.454569  9400 net.cpp:408] data_data_0_split -> data_data_0_split_5
I0725 16:33:13.454576  9400 net.cpp:408] data_data_0_split -> data_data_0_split_6
I0725 16:33:13.454689  9400 net.cpp:150] Setting up data_data_0_split
I0725 16:33:13.454699  9400 net.cpp:157] Top shape: 2 3 600 600 (2160000)
I0725 16:33:13.454704  9400 net.cpp:157] Top shape: 2 3 600 600 (2160000)
I0725 16:33:13.454708  9400 net.cpp:157] Top shape: 2 3 600 600 (2160000)
I0725 16:33:13.454712  9400 net.cpp:157] Top shape: 2 3 600 600 (2160000)
I0725 16:33:13.454716  9400 net.cpp:157] Top shape: 2 3 600 600 (2160000)
I0725 16:33:13.454720  9400 net.cpp:157] Top shape: 2 3 600 600 (2160000)
I0725 16:33:13.454725  9400 net.cpp:157] Top shape: 2 3 600 600 (2160000)
I0725 16:33:13.454727  9400 net.cpp:165] Memory required for data: 69120032
I0725 16:33:13.454730  9400 layer_factory.hpp:77] Creating layer conv1
I0725 16:33:13.454751  9400 net.cpp:100] Creating Layer conv1
I0725 16:33:13.454756  9400 net.cpp:434] conv1 <- data_data_0_split_0
I0725 16:33:13.454762  9400 net.cpp:408] conv1 -> conv1
I0725 16:33:13.489231  9412 blocking_queue.cpp:50] Waiting for data
I0725 16:33:13.713331  9400 net.cpp:150] Setting up conv1
I0725 16:33:13.713377  9400 net.cpp:157] Top shape: 2 64 300 300 (11520000)
I0725 16:33:13.713382  9400 net.cpp:165] Memory required for data: 115200032
I0725 16:33:13.713402  9400 layer_factory.hpp:77] Creating layer bn_conv1
I0725 16:33:13.713413  9400 net.cpp:100] Creating Layer bn_conv1
I0725 16:33:13.713420  9400 net.cpp:434] bn_conv1 <- conv1
I0725 16:33:13.713426  9400 net.cpp:395] bn_conv1 -> conv1 (in-place)
I0725 16:33:13.714663  9400 net.cpp:150] Setting up bn_conv1
I0725 16:33:13.714678  9400 net.cpp:157] Top shape: 2 64 300 300 (11520000)
I0725 16:33:13.714692  9400 net.cpp:165] Memory required for data: 161280032
I0725 16:33:13.714704  9400 layer_factory.hpp:77] Creating layer scale_conv1
I0725 16:33:13.714715  9400 net.cpp:100] Creating Layer scale_conv1
I0725 16:33:13.714720  9400 net.cpp:434] scale_conv1 <- conv1
I0725 16:33:13.714725  9400 net.cpp:395] scale_conv1 -> conv1 (in-place)
I0725 16:33:13.714768  9400 layer_factory.hpp:77] Creating layer scale_conv1
I0725 16:33:13.714977  9400 net.cpp:150] Setting up scale_conv1
I0725 16:33:13.714985  9400 net.cpp:157] Top shape: 2 64 300 300 (11520000)
I0725 16:33:13.714988  9400 net.cpp:165] Memory required for data: 207360032
I0725 16:33:13.714995  9400 layer_factory.hpp:77] Creating layer conv1_relu
I0725 16:33:13.715003  9400 net.cpp:100] Creating Layer conv1_relu
I0725 16:33:13.715005  9400 net.cpp:434] conv1_relu <- conv1
I0725 16:33:13.715009  9400 net.cpp:395] conv1_relu -> conv1 (in-place)
I0725 16:33:13.715191  9400 net.cpp:150] Setting up conv1_relu
I0725 16:33:13.715204  9400 net.cpp:157] Top shape: 2 64 300 300 (11520000)
I0725 16:33:13.715206  9400 net.cpp:165] Memory required for data: 253440032
I0725 16:33:13.715209  9400 layer_factory.hpp:77] Creating layer pool1
I0725 16:33:13.715219  9400 net.cpp:100] Creating Layer pool1
I0725 16:33:13.715222  9400 net.cpp:434] pool1 <- conv1
I0725 16:33:13.715227  9400 net.cpp:408] pool1 -> pool1
I0725 16:33:13.715291  9400 net.cpp:150] Setting up pool1
I0725 16:33:13.715298  9400 net.cpp:157] Top shape: 2 64 150 150 (2880000)
I0725 16:33:13.715301  9400 net.cpp:165] Memory required for data: 264960032
I0725 16:33:13.715304  9400 layer_factory.hpp:77] Creating layer pool1_pool1_0_split
I0725 16:33:13.715312  9400 net.cpp:100] Creating Layer pool1_pool1_0_split
I0725 16:33:13.715314  9400 net.cpp:434] pool1_pool1_0_split <- pool1
I0725 16:33:13.715330  9400 net.cpp:408] pool1_pool1_0_split -> pool1_pool1_0_split_0
I0725 16:33:13.715337  9400 net.cpp:408] pool1_pool1_0_split -> pool1_pool1_0_split_1
I0725 16:33:13.715373  9400 net.cpp:150] Setting up pool1_pool1_0_split
I0725 16:33:13.715379  9400 net.cpp:157] Top shape: 2 64 150 150 (2880000)
I0725 16:33:13.715384  9400 net.cpp:157] Top shape: 2 64 150 150 (2880000)
I0725 16:33:13.715386  9400 net.cpp:165] Memory required for data: 288000032
I0725 16:33:13.715410  9400 layer_factory.hpp:77] Creating layer res2a_branch1
I0725 16:33:13.715425  9400 net.cpp:100] Creating Layer res2a_branch1
I0725 16:33:13.715428  9400 net.cpp:434] res2a_branch1 <- pool1_pool1_0_split_0
I0725 16:33:13.715435  9400 net.cpp:408] res2a_branch1 -> res2a_branch1
I0725 16:33:13.716513  9400 net.cpp:150] Setting up res2a_branch1
I0725 16:33:13.716528  9400 net.cpp:157] Top shape: 2 256 150 150 (11520000)
I0725 16:33:13.716542  9400 net.cpp:165] Memory required for data: 334080032
I0725 16:33:13.716548  9400 layer_factory.hpp:77] Creating layer bn2a_branch1
I0725 16:33:13.716555  9400 net.cpp:100] Creating Layer bn2a_branch1
I0725 16:33:13.716559  9400 net.cpp:434] bn2a_branch1 <- res2a_branch1
I0725 16:33:13.716564  9400 net.cpp:395] bn2a_branch1 -> res2a_branch1 (in-place)
I0725 16:33:13.717694  9400 net.cpp:150] Setting up bn2a_branch1
I0725 16:33:13.717707  9400 net.cpp:157] Top shape: 2 256 150 150 (11520000)
I0725 16:33:13.717722  9400 net.cpp:165] Memory required for data: 380160032
I0725 16:33:13.717731  9400 layer_factory.hpp:77] Creating layer scale2a_branch1
I0725 16:33:13.717738  9400 net.cpp:100] Creating Layer scale2a_branch1
I0725 16:33:13.717742  9400 net.cpp:434] scale2a_branch1 <- res2a_branch1
I0725 16:33:13.717749  9400 net.cpp:395] scale2a_branch1 -> res2a_branch1 (in-place)
I0725 16:33:13.717789  9400 layer_factory.hpp:77] Creating layer scale2a_branch1
I0725 16:33:13.717922  9400 net.cpp:150] Setting up scale2a_branch1
I0725 16:33:13.717931  9400 net.cpp:157] Top shape: 2 256 150 150 (11520000)
I0725 16:33:13.717934  9400 net.cpp:165] Memory required for data: 426240032
I0725 16:33:13.717939  9400 layer_factory.hpp:77] Creating layer res2a_branch2a
I0725 16:33:13.717948  9400 net.cpp:100] Creating Layer res2a_branch2a
I0725 16:33:13.717952  9400 net.cpp:434] res2a_branch2a <- pool1_pool1_0_split_1
I0725 16:33:13.717959  9400 net.cpp:408] res2a_branch2a -> res2a_branch2a
I0725 16:33:13.719840  9400 net.cpp:150] Setting up res2a_branch2a
I0725 16:33:13.719854  9400 net.cpp:157] Top shape: 2 64 150 150 (2880000)
I0725 16:33:13.719869  9400 net.cpp:165] Memory required for data: 437760032
I0725 16:33:13.719874  9400 layer_factory.hpp:77] Creating layer bn2a_branch2a
I0725 16:33:13.719880  9400 net.cpp:100] Creating Layer bn2a_branch2a
I0725 16:33:13.719883  9400 net.cpp:434] bn2a_branch2a <- res2a_branch2a
I0725 16:33:13.719890  9400 net.cpp:395] bn2a_branch2a -> res2a_branch2a (in-place)
I0725 16:33:13.720103  9400 net.cpp:150] Setting up bn2a_branch2a
I0725 16:33:13.720113  9400 net.cpp:157] Top shape: 2 64 150 150 (2880000)
I0725 16:33:13.720115  9400 net.cpp:165] Memory required for data: 449280032
I0725 16:33:13.720121  9400 layer_factory.hpp:77] Creating layer scale2a_branch2a
I0725 16:33:13.720130  9400 net.cpp:100] Creating Layer scale2a_branch2a
I0725 16:33:13.720134  9400 net.cpp:434] scale2a_branch2a <- res2a_branch2a
I0725 16:33:13.720139  9400 net.cpp:395] scale2a_branch2a -> res2a_branch2a (in-place)
I0725 16:33:13.720177  9400 layer_factory.hpp:77] Creating layer scale2a_branch2a
I0725 16:33:13.720314  9400 net.cpp:150] Setting up scale2a_branch2a
I0725 16:33:13.720324  9400 net.cpp:157] Top shape: 2 64 150 150 (2880000)
I0725 16:33:13.720327  9400 net.cpp:165] Memory required for data: 460800032
I0725 16:33:13.720335  9400 layer_factory.hpp:77] Creating layer res2a_branch2a_relu
I0725 16:33:13.720346  9400 net.cpp:100] Creating Layer res2a_branch2a_relu
I0725 16:33:13.720350  9400 net.cpp:434] res2a_branch2a_relu <- res2a_branch2a
I0725 16:33:13.720353  9400 net.cpp:395] res2a_branch2a_relu -> res2a_branch2a (in-place)
I0725 16:33:13.720525  9400 net.cpp:150] Setting up res2a_branch2a_relu
I0725 16:33:13.720537  9400 net.cpp:157] Top shape: 2 64 150 150 (2880000)
I0725 16:33:13.720541  9400 net.cpp:165] Memory required for data: 472320032
I0725 16:33:13.720543  9400 layer_factory.hpp:77] Creating layer res2a_branch2b
I0725 16:33:13.720552  9400 net.cpp:100] Creating Layer res2a_branch2b
I0725 16:33:13.720556  9400 net.cpp:434] res2a_branch2b <- res2a_branch2a
I0725 16:33:13.720572  9400 net.cpp:408] res2a_branch2b -> res2a_branch2b
I0725 16:33:13.721822  9400 net.cpp:150] Setting up res2a_branch2b
I0725 16:33:13.721835  9400 net.cpp:157] Top shape: 2 64 150 150 (2880000)
I0725 16:33:13.721850  9400 net.cpp:165] Memory required for data: 483840032
I0725 16:33:13.721856  9400 layer_factory.hpp:77] Creating layer bn2a_branch2b
I0725 16:33:13.721865  9400 net.cpp:100] Creating Layer bn2a_branch2b
I0725 16:33:13.721869  9400 net.cpp:434] bn2a_branch2b <- res2a_branch2b
I0725 16:33:13.721875  9400 net.cpp:395] bn2a_branch2b -> res2a_branch2b (in-place)
I0725 16:33:13.722070  9400 net.cpp:150] Setting up bn2a_branch2b
I0725 16:33:13.722079  9400 net.cpp:157] Top shape: 2 64 150 150 (2880000)
I0725 16:33:13.722081  9400 net.cpp:165] Memory required for data: 495360032
I0725 16:33:13.722088  9400 layer_factory.hpp:77] Creating layer scale2a_branch2b
I0725 16:33:13.722097  9400 net.cpp:100] Creating Layer scale2a_branch2b
I0725 16:33:13.722101  9400 net.cpp:434] scale2a_branch2b <- res2a_branch2b
I0725 16:33:13.722105  9400 net.cpp:395] scale2a_branch2b -> res2a_branch2b (in-place)
I0725 16:33:13.722146  9400 layer_factory.hpp:77] Creating layer scale2a_branch2b
I0725 16:33:13.722285  9400 net.cpp:150] Setting up scale2a_branch2b
I0725 16:33:13.722293  9400 net.cpp:157] Top shape: 2 64 150 150 (2880000)
I0725 16:33:13.722296  9400 net.cpp:165] Memory required for data: 506880032
I0725 16:33:13.722301  9400 layer_factory.hpp:77] Creating layer res2a_branch2b_relu
I0725 16:33:13.722306  9400 net.cpp:100] Creating Layer res2a_branch2b_relu
I0725 16:33:13.722309  9400 net.cpp:434] res2a_branch2b_relu <- res2a_branch2b
I0725 16:33:13.722314  9400 net.cpp:395] res2a_branch2b_relu -> res2a_branch2b (in-place)
I0725 16:33:13.722487  9400 net.cpp:150] Setting up res2a_branch2b_relu
I0725 16:33:13.722497  9400 net.cpp:157] Top shape: 2 64 150 150 (2880000)
I0725 16:33:13.722501  9400 net.cpp:165] Memory required for data: 518400032
I0725 16:33:13.722504  9400 layer_factory.hpp:77] Creating layer res2a_branch2c
I0725 16:33:13.722514  9400 net.cpp:100] Creating Layer res2a_branch2c
I0725 16:33:13.722520  9400 net.cpp:434] res2a_branch2c <- res2a_branch2b
I0725 16:33:13.722527  9400 net.cpp:408] res2a_branch2c -> res2a_branch2c
I0725 16:33:13.723583  9400 net.cpp:150] Setting up res2a_branch2c
I0725 16:33:13.723598  9400 net.cpp:157] Top shape: 2 256 150 150 (11520000)
I0725 16:33:13.723614  9400 net.cpp:165] Memory required for data: 564480032
I0725 16:33:13.723619  9400 layer_factory.hpp:77] Creating layer bn2a_branch2c
I0725 16:33:13.723625  9400 net.cpp:100] Creating Layer bn2a_branch2c
I0725 16:33:13.723629  9400 net.cpp:434] bn2a_branch2c <- res2a_branch2c
I0725 16:33:13.723634  9400 net.cpp:395] bn2a_branch2c -> res2a_branch2c (in-place)
I0725 16:33:13.723827  9400 net.cpp:150] Setting up bn2a_branch2c
I0725 16:33:13.723835  9400 net.cpp:157] Top shape: 2 256 150 150 (11520000)
I0725 16:33:13.723839  9400 net.cpp:165] Memory required for data: 610560032
I0725 16:33:13.723845  9400 layer_factory.hpp:77] Creating layer scale2a_branch2c
I0725 16:33:13.723851  9400 net.cpp:100] Creating Layer scale2a_branch2c
I0725 16:33:13.723855  9400 net.cpp:434] scale2a_branch2c <- res2a_branch2c
I0725 16:33:13.723860  9400 net.cpp:395] scale2a_branch2c -> res2a_branch2c (in-place)
I0725 16:33:13.723901  9400 layer_factory.hpp:77] Creating layer scale2a_branch2c
I0725 16:33:13.724038  9400 net.cpp:150] Setting up scale2a_branch2c
I0725 16:33:13.724048  9400 net.cpp:157] Top shape: 2 256 150 150 (11520000)
I0725 16:33:13.724051  9400 net.cpp:165] Memory required for data: 656640032
I0725 16:33:13.724056  9400 layer_factory.hpp:77] Creating layer res2a
I0725 16:33:13.724061  9400 net.cpp:100] Creating Layer res2a
I0725 16:33:13.724066  9400 net.cpp:434] res2a <- res2a_branch1
I0725 16:33:13.724068  9400 net.cpp:434] res2a <- res2a_branch2c
I0725 16:33:13.724073  9400 net.cpp:408] res2a -> res2a
I0725 16:33:13.724102  9400 net.cpp:150] Setting up res2a
I0725 16:33:13.724109  9400 net.cpp:157] Top shape: 2 256 150 150 (11520000)
I0725 16:33:13.724123  9400 net.cpp:165] Memory required for data: 702720032
I0725 16:33:13.724125  9400 layer_factory.hpp:77] Creating layer res2a_relu
I0725 16:33:13.724133  9400 net.cpp:100] Creating Layer res2a_relu
I0725 16:33:13.724135  9400 net.cpp:434] res2a_relu <- res2a
I0725 16:33:13.724140  9400 net.cpp:395] res2a_relu -> res2a (in-place)
I0725 16:33:13.724313  9400 net.cpp:150] Setting up res2a_relu
I0725 16:33:13.724323  9400 net.cpp:157] Top shape: 2 256 150 150 (11520000)
I0725 16:33:13.724325  9400 net.cpp:165] Memory required for data: 748800032
I0725 16:33:13.724328  9400 layer_factory.hpp:77] Creating layer res2a_res2a_relu_0_split
I0725 16:33:13.724334  9400 net.cpp:100] Creating Layer res2a_res2a_relu_0_split
I0725 16:33:13.724337  9400 net.cpp:434] res2a_res2a_relu_0_split <- res2a
I0725 16:33:13.724344  9400 net.cpp:408] res2a_res2a_relu_0_split -> res2a_res2a_relu_0_split_0
I0725 16:33:13.724349  9400 net.cpp:408] res2a_res2a_relu_0_split -> res2a_res2a_relu_0_split_1
I0725 16:33:13.724390  9400 net.cpp:150] Setting up res2a_res2a_relu_0_split
I0725 16:33:13.724397  9400 net.cpp:157] Top shape: 2 256 150 150 (11520000)
I0725 16:33:13.724401  9400 net.cpp:157] Top shape: 2 256 150 150 (11520000)
I0725 16:33:13.724403  9400 net.cpp:165] Memory required for data: 840960032
I0725 16:33:13.724406  9400 layer_factory.hpp:77] Creating layer res2b_branch2a
I0725 16:33:13.724416  9400 net.cpp:100] Creating Layer res2b_branch2a
I0725 16:33:13.724419  9400 net.cpp:434] res2b_branch2a <- res2a_res2a_relu_0_split_0
I0725 16:33:13.724426  9400 net.cpp:408] res2b_branch2a -> res2b_branch2a
I0725 16:33:13.725477  9400 net.cpp:150] Setting up res2b_branch2a
I0725 16:33:13.725492  9400 net.cpp:157] Top shape: 2 64 150 150 (2880000)
I0725 16:33:13.725504  9400 net.cpp:165] Memory required for data: 852480032
I0725 16:33:13.725509  9400 layer_factory.hpp:77] Creating layer bn2b_branch2a
I0725 16:33:13.725515  9400 net.cpp:100] Creating Layer bn2b_branch2a
I0725 16:33:13.725519  9400 net.cpp:434] bn2b_branch2a <- res2b_branch2a
I0725 16:33:13.725525  9400 net.cpp:395] bn2b_branch2a -> res2b_branch2a (in-place)
I0725 16:33:13.725725  9400 net.cpp:150] Setting up bn2b_branch2a
I0725 16:33:13.725734  9400 net.cpp:157] Top shape: 2 64 150 150 (2880000)
I0725 16:33:13.725738  9400 net.cpp:165] Memory required for data: 864000032
I0725 16:33:13.725750  9400 layer_factory.hpp:77] Creating layer scale2b_branch2a
I0725 16:33:13.725759  9400 net.cpp:100] Creating Layer scale2b_branch2a
I0725 16:33:13.725762  9400 net.cpp:434] scale2b_branch2a <- res2b_branch2a
I0725 16:33:13.725769  9400 net.cpp:395] scale2b_branch2a -> res2b_branch2a (in-place)
I0725 16:33:13.725811  9400 layer_factory.hpp:77] Creating layer scale2b_branch2a
I0725 16:33:13.725951  9400 net.cpp:150] Setting up scale2b_branch2a
I0725 16:33:13.725960  9400 net.cpp:157] Top shape: 2 64 150 150 (2880000)
I0725 16:33:13.725962  9400 net.cpp:165] Memory required for data: 875520032
I0725 16:33:13.725973  9400 layer_factory.hpp:77] Creating layer res2b_branch2a_relu
I0725 16:33:13.725978  9400 net.cpp:100] Creating Layer res2b_branch2a_relu
I0725 16:33:13.725981  9400 net.cpp:434] res2b_branch2a_relu <- res2b_branch2a
I0725 16:33:13.725986  9400 net.cpp:395] res2b_branch2a_relu -> res2b_branch2a (in-place)
I0725 16:33:13.726155  9400 net.cpp:150] Setting up res2b_branch2a_relu
I0725 16:33:13.726166  9400 net.cpp:157] Top shape: 2 64 150 150 (2880000)
I0725 16:33:13.726168  9400 net.cpp:165] Memory required for data: 887040032
I0725 16:33:13.726171  9400 layer_factory.hpp:77] Creating layer res2b_branch2b
I0725 16:33:13.726182  9400 net.cpp:100] Creating Layer res2b_branch2b
I0725 16:33:13.726186  9400 net.cpp:434] res2b_branch2b <- res2b_branch2a
I0725 16:33:13.726192  9400 net.cpp:408] res2b_branch2b -> res2b_branch2b
I0725 16:33:13.727389  9400 net.cpp:150] Setting up res2b_branch2b
I0725 16:33:13.727414  9400 net.cpp:157] Top shape: 2 64 150 150 (2880000)
I0725 16:33:13.727417  9400 net.cpp:165] Memory required for data: 898560032
I0725 16:33:13.727443  9400 layer_factory.hpp:77] Creating layer bn2b_branch2b
I0725 16:33:13.727449  9400 net.cpp:100] Creating Layer bn2b_branch2b
I0725 16:33:13.727453  9400 net.cpp:434] bn2b_branch2b <- res2b_branch2b
I0725 16:33:13.727460  9400 net.cpp:395] bn2b_branch2b -> res2b_branch2b (in-place)
I0725 16:33:13.727654  9400 net.cpp:150] Setting up bn2b_branch2b
I0725 16:33:13.727664  9400 net.cpp:157] Top shape: 2 64 150 150 (2880000)
I0725 16:33:13.727668  9400 net.cpp:165] Memory required for data: 910080032
I0725 16:33:13.727674  9400 layer_factory.hpp:77] Creating layer scale2b_branch2b
I0725 16:33:13.727679  9400 net.cpp:100] Creating Layer scale2b_branch2b
I0725 16:33:13.727684  9400 net.cpp:434] scale2b_branch2b <- res2b_branch2b
I0725 16:33:13.727687  9400 net.cpp:395] scale2b_branch2b -> res2b_branch2b (in-place)
I0725 16:33:13.727730  9400 layer_factory.hpp:77] Creating layer scale2b_branch2b
I0725 16:33:13.727872  9400 net.cpp:150] Setting up scale2b_branch2b
I0725 16:33:13.727882  9400 net.cpp:157] Top shape: 2 64 150 150 (2880000)
I0725 16:33:13.727885  9400 net.cpp:165] Memory required for data: 921600032
I0725 16:33:13.727890  9400 layer_factory.hpp:77] Creating layer res2b_branch2b_relu
I0725 16:33:13.727900  9400 net.cpp:100] Creating Layer res2b_branch2b_relu
I0725 16:33:13.727903  9400 net.cpp:434] res2b_branch2b_relu <- res2b_branch2b
I0725 16:33:13.727907  9400 net.cpp:395] res2b_branch2b_relu -> res2b_branch2b (in-place)
I0725 16:33:13.728291  9400 net.cpp:150] Setting up res2b_branch2b_relu
I0725 16:33:13.728314  9400 net.cpp:157] Top shape: 2 64 150 150 (2880000)
I0725 16:33:13.728317  9400 net.cpp:165] Memory required for data: 933120032
I0725 16:33:13.728322  9400 layer_factory.hpp:77] Creating layer res2b_branch2c
I0725 16:33:13.728330  9400 net.cpp:100] Creating Layer res2b_branch2c
I0725 16:33:13.728334  9400 net.cpp:434] res2b_branch2c <- res2b_branch2b
I0725 16:33:13.728341  9400 net.cpp:408] res2b_branch2c -> res2b_branch2c
I0725 16:33:13.729591  9400 net.cpp:150] Setting up res2b_branch2c
I0725 16:33:13.729605  9400 net.cpp:157] Top shape: 2 256 150 150 (11520000)
I0725 16:33:13.729619  9400 net.cpp:165] Memory required for data: 979200032
I0725 16:33:13.729624  9400 layer_factory.hpp:77] Creating layer bn2b_branch2c
I0725 16:33:13.729632  9400 net.cpp:100] Creating Layer bn2b_branch2c
I0725 16:33:13.729636  9400 net.cpp:434] bn2b_branch2c <- res2b_branch2c
I0725 16:33:13.729640  9400 net.cpp:395] bn2b_branch2c -> res2b_branch2c (in-place)
I0725 16:33:13.729849  9400 net.cpp:150] Setting up bn2b_branch2c
I0725 16:33:13.729857  9400 net.cpp:157] Top shape: 2 256 150 150 (11520000)
I0725 16:33:13.729861  9400 net.cpp:165] Memory required for data: 1025280032
I0725 16:33:13.729866  9400 layer_factory.hpp:77] Creating layer scale2b_branch2c
I0725 16:33:13.729874  9400 net.cpp:100] Creating Layer scale2b_branch2c
I0725 16:33:13.729878  9400 net.cpp:434] scale2b_branch2c <- res2b_branch2c
I0725 16:33:13.729882  9400 net.cpp:395] scale2b_branch2c -> res2b_branch2c (in-place)
I0725 16:33:13.729923  9400 layer_factory.hpp:77] Creating layer scale2b_branch2c
I0725 16:33:13.731000  9400 net.cpp:150] Setting up scale2b_branch2c
I0725 16:33:13.731014  9400 net.cpp:157] Top shape: 2 256 150 150 (11520000)
I0725 16:33:13.731025  9400 net.cpp:165] Memory required for data: 1071360032
I0725 16:33:13.731032  9400 layer_factory.hpp:77] Creating layer res2b
I0725 16:33:13.731040  9400 net.cpp:100] Creating Layer res2b
I0725 16:33:13.731043  9400 net.cpp:434] res2b <- res2a_res2a_relu_0_split_1
I0725 16:33:13.731048  9400 net.cpp:434] res2b <- res2b_branch2c
I0725 16:33:13.731052  9400 net.cpp:408] res2b -> res2b
I0725 16:33:13.731083  9400 net.cpp:150] Setting up res2b
I0725 16:33:13.731091  9400 net.cpp:157] Top shape: 2 256 150 150 (11520000)
I0725 16:33:13.731094  9400 net.cpp:165] Memory required for data: 1117440032
I0725 16:33:13.731096  9400 layer_factory.hpp:77] Creating layer res2b_relu
I0725 16:33:13.731101  9400 net.cpp:100] Creating Layer res2b_relu
I0725 16:33:13.731104  9400 net.cpp:434] res2b_relu <- res2b
I0725 16:33:13.731119  9400 net.cpp:395] res2b_relu -> res2b (in-place)
I0725 16:33:13.731298  9400 net.cpp:150] Setting up res2b_relu
I0725 16:33:13.731309  9400 net.cpp:157] Top shape: 2 256 150 150 (11520000)
I0725 16:33:13.731312  9400 net.cpp:165] Memory required for data: 1163520032
I0725 16:33:13.731315  9400 layer_factory.hpp:77] Creating layer res2b_res2b_relu_0_split
I0725 16:33:13.731321  9400 net.cpp:100] Creating Layer res2b_res2b_relu_0_split
I0725 16:33:13.731324  9400 net.cpp:434] res2b_res2b_relu_0_split <- res2b
I0725 16:33:13.731331  9400 net.cpp:408] res2b_res2b_relu_0_split -> res2b_res2b_relu_0_split_0
I0725 16:33:13.731336  9400 net.cpp:408] res2b_res2b_relu_0_split -> res2b_res2b_relu_0_split_1
I0725 16:33:13.731379  9400 net.cpp:150] Setting up res2b_res2b_relu_0_split
I0725 16:33:13.731387  9400 net.cpp:157] Top shape: 2 256 150 150 (11520000)
I0725 16:33:13.731391  9400 net.cpp:157] Top shape: 2 256 150 150 (11520000)
I0725 16:33:13.731393  9400 net.cpp:165] Memory required for data: 1255680032
I0725 16:33:13.731401  9400 layer_factory.hpp:77] Creating layer res2c_branch2a
I0725 16:33:13.731412  9400 net.cpp:100] Creating Layer res2c_branch2a
I0725 16:33:13.731415  9400 net.cpp:434] res2c_branch2a <- res2b_res2b_relu_0_split_0
I0725 16:33:13.731420  9400 net.cpp:408] res2c_branch2a -> res2c_branch2a
I0725 16:33:13.732494  9400 net.cpp:150] Setting up res2c_branch2a
I0725 16:33:13.732519  9400 net.cpp:157] Top shape: 2 64 150 150 (2880000)
I0725 16:33:13.732522  9400 net.cpp:165] Memory required for data: 1267200032
I0725 16:33:13.732528  9400 layer_factory.hpp:77] Creating layer bn2c_branch2a
I0725 16:33:13.732534  9400 net.cpp:100] Creating Layer bn2c_branch2a
I0725 16:33:13.732537  9400 net.cpp:434] bn2c_branch2a <- res2c_branch2a
I0725 16:33:13.732543  9400 net.cpp:395] bn2c_branch2a -> res2c_branch2a (in-place)
I0725 16:33:13.732748  9400 net.cpp:150] Setting up bn2c_branch2a
I0725 16:33:13.732756  9400 net.cpp:157] Top shape: 2 64 150 150 (2880000)
I0725 16:33:13.732759  9400 net.cpp:165] Memory required for data: 1278720032
I0725 16:33:13.732765  9400 layer_factory.hpp:77] Creating layer scale2c_branch2a
I0725 16:33:13.732774  9400 net.cpp:100] Creating Layer scale2c_branch2a
I0725 16:33:13.732777  9400 net.cpp:434] scale2c_branch2a <- res2c_branch2a
I0725 16:33:13.732781  9400 net.cpp:395] scale2c_branch2a -> res2c_branch2a (in-place)
I0725 16:33:13.732820  9400 layer_factory.hpp:77] Creating layer scale2c_branch2a
I0725 16:33:13.732965  9400 net.cpp:150] Setting up scale2c_branch2a
I0725 16:33:13.732975  9400 net.cpp:157] Top shape: 2 64 150 150 (2880000)
I0725 16:33:13.732977  9400 net.cpp:165] Memory required for data: 1290240032
I0725 16:33:13.732982  9400 layer_factory.hpp:77] Creating layer res2c_branch2a_relu
I0725 16:33:13.732987  9400 net.cpp:100] Creating Layer res2c_branch2a_relu
I0725 16:33:13.732990  9400 net.cpp:434] res2c_branch2a_relu <- res2c_branch2a
I0725 16:33:13.732997  9400 net.cpp:395] res2c_branch2a_relu -> res2c_branch2a (in-place)
I0725 16:33:13.733168  9400 net.cpp:150] Setting up res2c_branch2a_relu
I0725 16:33:13.733178  9400 net.cpp:157] Top shape: 2 64 150 150 (2880000)
I0725 16:33:13.733180  9400 net.cpp:165] Memory required for data: 1301760032
I0725 16:33:13.733183  9400 layer_factory.hpp:77] Creating layer res2c_branch2b
I0725 16:33:13.733193  9400 net.cpp:100] Creating Layer res2c_branch2b
I0725 16:33:13.733196  9400 net.cpp:434] res2c_branch2b <- res2c_branch2a
I0725 16:33:13.733201  9400 net.cpp:408] res2c_branch2b -> res2c_branch2b
I0725 16:33:13.734412  9400 net.cpp:150] Setting up res2c_branch2b
I0725 16:33:13.734426  9400 net.cpp:157] Top shape: 2 64 150 150 (2880000)
I0725 16:33:13.734438  9400 net.cpp:165] Memory required for data: 1313280032
I0725 16:33:13.734444  9400 layer_factory.hpp:77] Creating layer bn2c_branch2b
I0725 16:33:13.734452  9400 net.cpp:100] Creating Layer bn2c_branch2b
I0725 16:33:13.734455  9400 net.cpp:434] bn2c_branch2b <- res2c_branch2b
I0725 16:33:13.734459  9400 net.cpp:395] bn2c_branch2b -> res2c_branch2b (in-place)
I0725 16:33:13.734669  9400 net.cpp:150] Setting up bn2c_branch2b
I0725 16:33:13.734678  9400 net.cpp:157] Top shape: 2 64 150 150 (2880000)
I0725 16:33:13.734680  9400 net.cpp:165] Memory required for data: 1324800032
I0725 16:33:13.734688  9400 layer_factory.hpp:77] Creating layer scale2c_branch2b
I0725 16:33:13.734692  9400 net.cpp:100] Creating Layer scale2c_branch2b
I0725 16:33:13.734696  9400 net.cpp:434] scale2c_branch2b <- res2c_branch2b
I0725 16:33:13.734700  9400 net.cpp:395] scale2c_branch2b -> res2c_branch2b (in-place)
I0725 16:33:13.734740  9400 layer_factory.hpp:77] Creating layer scale2c_branch2b
I0725 16:33:13.734879  9400 net.cpp:150] Setting up scale2c_branch2b
I0725 16:33:13.734889  9400 net.cpp:157] Top shape: 2 64 150 150 (2880000)
I0725 16:33:13.734890  9400 net.cpp:165] Memory required for data: 1336320032
I0725 16:33:13.734895  9400 layer_factory.hpp:77] Creating layer res2c_branch2b_relu
I0725 16:33:13.734900  9400 net.cpp:100] Creating Layer res2c_branch2b_relu
I0725 16:33:13.734903  9400 net.cpp:434] res2c_branch2b_relu <- res2c_branch2b
I0725 16:33:13.734910  9400 net.cpp:395] res2c_branch2b_relu -> res2c_branch2b (in-place)
I0725 16:33:13.735082  9400 net.cpp:150] Setting up res2c_branch2b_relu
I0725 16:33:13.735092  9400 net.cpp:157] Top shape: 2 64 150 150 (2880000)
I0725 16:33:13.735095  9400 net.cpp:165] Memory required for data: 1347840032
I0725 16:33:13.735098  9400 layer_factory.hpp:77] Creating layer res2c_branch2c
I0725 16:33:13.735107  9400 net.cpp:100] Creating Layer res2c_branch2c
I0725 16:33:13.735110  9400 net.cpp:434] res2c_branch2c <- res2c_branch2b
I0725 16:33:13.735116  9400 net.cpp:408] res2c_branch2c -> res2c_branch2c
I0725 16:33:13.736166  9400 net.cpp:150] Setting up res2c_branch2c
I0725 16:33:13.736191  9400 net.cpp:157] Top shape: 2 256 150 150 (11520000)
I0725 16:33:13.736196  9400 net.cpp:165] Memory required for data: 1393920032
I0725 16:33:13.736201  9400 layer_factory.hpp:77] Creating layer bn2c_branch2c
I0725 16:33:13.736207  9400 net.cpp:100] Creating Layer bn2c_branch2c
I0725 16:33:13.736209  9400 net.cpp:434] bn2c_branch2c <- res2c_branch2c
I0725 16:33:13.736215  9400 net.cpp:395] bn2c_branch2c -> res2c_branch2c (in-place)
I0725 16:33:13.736413  9400 net.cpp:150] Setting up bn2c_branch2c
I0725 16:33:13.736420  9400 net.cpp:157] Top shape: 2 256 150 150 (11520000)
I0725 16:33:13.736423  9400 net.cpp:165] Memory required for data: 1440000032
I0725 16:33:13.736430  9400 layer_factory.hpp:77] Creating layer scale2c_branch2c
I0725 16:33:13.736435  9400 net.cpp:100] Creating Layer scale2c_branch2c
I0725 16:33:13.736439  9400 net.cpp:434] scale2c_branch2c <- res2c_branch2c
I0725 16:33:13.736445  9400 net.cpp:395] scale2c_branch2c -> res2c_branch2c (in-place)
I0725 16:33:13.736481  9400 layer_factory.hpp:77] Creating layer scale2c_branch2c
I0725 16:33:13.736615  9400 net.cpp:150] Setting up scale2c_branch2c
I0725 16:33:13.736624  9400 net.cpp:157] Top shape: 2 256 150 150 (11520000)
I0725 16:33:13.736626  9400 net.cpp:165] Memory required for data: 1486080032
I0725 16:33:13.736640  9400 layer_factory.hpp:77] Creating layer res2c
I0725 16:33:13.736647  9400 net.cpp:100] Creating Layer res2c
I0725 16:33:13.736651  9400 net.cpp:434] res2c <- res2b_res2b_relu_0_split_1
I0725 16:33:13.736655  9400 net.cpp:434] res2c <- res2c_branch2c
I0725 16:33:13.736660  9400 net.cpp:408] res2c -> res2c
I0725 16:33:13.736699  9400 net.cpp:150] Setting up res2c
I0725 16:33:13.736706  9400 net.cpp:157] Top shape: 2 256 150 150 (11520000)
I0725 16:33:13.736709  9400 net.cpp:165] Memory required for data: 1532160032
I0725 16:33:13.736712  9400 layer_factory.hpp:77] Creating layer res2c_relu
I0725 16:33:13.736716  9400 net.cpp:100] Creating Layer res2c_relu
I0725 16:33:13.736719  9400 net.cpp:434] res2c_relu <- res2c
I0725 16:33:13.736726  9400 net.cpp:395] res2c_relu -> res2c (in-place)
I0725 16:33:13.736902  9400 net.cpp:150] Setting up res2c_relu
I0725 16:33:13.736912  9400 net.cpp:157] Top shape: 2 256 150 150 (11520000)
I0725 16:33:13.736915  9400 net.cpp:165] Memory required for data: 1578240032
I0725 16:33:13.736929  9400 layer_factory.hpp:77] Creating layer res2c_res2c_relu_0_split
I0725 16:33:13.736937  9400 net.cpp:100] Creating Layer res2c_res2c_relu_0_split
I0725 16:33:13.736940  9400 net.cpp:434] res2c_res2c_relu_0_split <- res2c
I0725 16:33:13.736946  9400 net.cpp:408] res2c_res2c_relu_0_split -> res2c_res2c_relu_0_split_0
I0725 16:33:13.736953  9400 net.cpp:408] res2c_res2c_relu_0_split -> res2c_res2c_relu_0_split_1
I0725 16:33:13.736995  9400 net.cpp:150] Setting up res2c_res2c_relu_0_split
I0725 16:33:13.737002  9400 net.cpp:157] Top shape: 2 256 150 150 (11520000)
I0725 16:33:13.737006  9400 net.cpp:157] Top shape: 2 256 150 150 (11520000)
I0725 16:33:13.737009  9400 net.cpp:165] Memory required for data: 1670400032
I0725 16:33:13.737011  9400 layer_factory.hpp:77] Creating layer res3a_branch1
I0725 16:33:13.737020  9400 net.cpp:100] Creating Layer res3a_branch1
I0725 16:33:13.737025  9400 net.cpp:434] res3a_branch1 <- res2c_res2c_relu_0_split_0
I0725 16:33:13.737030  9400 net.cpp:408] res3a_branch1 -> res3a_branch1
I0725 16:33:13.739336  9400 net.cpp:150] Setting up res3a_branch1
I0725 16:33:13.739359  9400 net.cpp:157] Top shape: 2 512 75 75 (5760000)
I0725 16:33:13.739362  9400 net.cpp:165] Memory required for data: 1693440032
I0725 16:33:13.739368  9400 layer_factory.hpp:77] Creating layer bn3a_branch1
I0725 16:33:13.739377  9400 net.cpp:100] Creating Layer bn3a_branch1
I0725 16:33:13.739379  9400 net.cpp:434] bn3a_branch1 <- res3a_branch1
I0725 16:33:13.739387  9400 net.cpp:395] bn3a_branch1 -> res3a_branch1 (in-place)
I0725 16:33:13.740545  9400 net.cpp:150] Setting up bn3a_branch1
I0725 16:33:13.740558  9400 net.cpp:157] Top shape: 2 512 75 75 (5760000)
I0725 16:33:13.740572  9400 net.cpp:165] Memory required for data: 1716480032
I0725 16:33:13.740579  9400 layer_factory.hpp:77] Creating layer scale3a_branch1
I0725 16:33:13.740586  9400 net.cpp:100] Creating Layer scale3a_branch1
I0725 16:33:13.740589  9400 net.cpp:434] scale3a_branch1 <- res3a_branch1
I0725 16:33:13.740597  9400 net.cpp:395] scale3a_branch1 -> res3a_branch1 (in-place)
I0725 16:33:13.740636  9400 layer_factory.hpp:77] Creating layer scale3a_branch1
I0725 16:33:13.740768  9400 net.cpp:150] Setting up scale3a_branch1
I0725 16:33:13.740777  9400 net.cpp:157] Top shape: 2 512 75 75 (5760000)
I0725 16:33:13.740779  9400 net.cpp:165] Memory required for data: 1739520032
I0725 16:33:13.740784  9400 layer_factory.hpp:77] Creating layer res3a_branch2a
I0725 16:33:13.740794  9400 net.cpp:100] Creating Layer res3a_branch2a
I0725 16:33:13.740797  9400 net.cpp:434] res3a_branch2a <- res2c_res2c_relu_0_split_1
I0725 16:33:13.740804  9400 net.cpp:408] res3a_branch2a -> res3a_branch2a
I0725 16:33:13.742044  9400 net.cpp:150] Setting up res3a_branch2a
I0725 16:33:13.742058  9400 net.cpp:157] Top shape: 2 128 75 75 (1440000)
I0725 16:33:13.742071  9400 net.cpp:165] Memory required for data: 1745280032
I0725 16:33:13.742076  9400 layer_factory.hpp:77] Creating layer bn3a_branch2a
I0725 16:33:13.742085  9400 net.cpp:100] Creating Layer bn3a_branch2a
I0725 16:33:13.742089  9400 net.cpp:434] bn3a_branch2a <- res3a_branch2a
I0725 16:33:13.742097  9400 net.cpp:395] bn3a_branch2a -> res3a_branch2a (in-place)
I0725 16:33:13.742295  9400 net.cpp:150] Setting up bn3a_branch2a
I0725 16:33:13.742302  9400 net.cpp:157] Top shape: 2 128 75 75 (1440000)
I0725 16:33:13.742305  9400 net.cpp:165] Memory required for data: 1751040032
I0725 16:33:13.742311  9400 layer_factory.hpp:77] Creating layer scale3a_branch2a
I0725 16:33:13.742317  9400 net.cpp:100] Creating Layer scale3a_branch2a
I0725 16:33:13.742321  9400 net.cpp:434] scale3a_branch2a <- res3a_branch2a
I0725 16:33:13.742326  9400 net.cpp:395] scale3a_branch2a -> res3a_branch2a (in-place)
I0725 16:33:13.742367  9400 layer_factory.hpp:77] Creating layer scale3a_branch2a
I0725 16:33:13.742486  9400 net.cpp:150] Setting up scale3a_branch2a
I0725 16:33:13.742497  9400 net.cpp:157] Top shape: 2 128 75 75 (1440000)
I0725 16:33:13.742499  9400 net.cpp:165] Memory required for data: 1756800032
I0725 16:33:13.742516  9400 layer_factory.hpp:77] Creating layer res3a_branch2a_relu
I0725 16:33:13.742522  9400 net.cpp:100] Creating Layer res3a_branch2a_relu
I0725 16:33:13.742524  9400 net.cpp:434] res3a_branch2a_relu <- res3a_branch2a
I0725 16:33:13.742529  9400 net.cpp:395] res3a_branch2a_relu -> res3a_branch2a (in-place)
I0725 16:33:13.742705  9400 net.cpp:150] Setting up res3a_branch2a_relu
I0725 16:33:13.742715  9400 net.cpp:157] Top shape: 2 128 75 75 (1440000)
I0725 16:33:13.742718  9400 net.cpp:165] Memory required for data: 1762560032
I0725 16:33:13.742722  9400 layer_factory.hpp:77] Creating layer res3a_branch2b
I0725 16:33:13.742732  9400 net.cpp:100] Creating Layer res3a_branch2b
I0725 16:33:13.742735  9400 net.cpp:434] res3a_branch2b <- res3a_branch2a
I0725 16:33:13.742743  9400 net.cpp:408] res3a_branch2b -> res3a_branch2b
I0725 16:33:13.746142  9400 net.cpp:150] Setting up res3a_branch2b
I0725 16:33:13.746157  9400 net.cpp:157] Top shape: 2 128 75 75 (1440000)
I0725 16:33:13.746170  9400 net.cpp:165] Memory required for data: 1768320032
I0725 16:33:13.746176  9400 layer_factory.hpp:77] Creating layer bn3a_branch2b
I0725 16:33:13.746183  9400 net.cpp:100] Creating Layer bn3a_branch2b
I0725 16:33:13.746187  9400 net.cpp:434] bn3a_branch2b <- res3a_branch2b
I0725 16:33:13.746191  9400 net.cpp:395] bn3a_branch2b -> res3a_branch2b (in-place)
I0725 16:33:13.746395  9400 net.cpp:150] Setting up bn3a_branch2b
I0725 16:33:13.746403  9400 net.cpp:157] Top shape: 2 128 75 75 (1440000)
I0725 16:33:13.746407  9400 net.cpp:165] Memory required for data: 1774080032
I0725 16:33:13.746412  9400 layer_factory.hpp:77] Creating layer scale3a_branch2b
I0725 16:33:13.746419  9400 net.cpp:100] Creating Layer scale3a_branch2b
I0725 16:33:13.746423  9400 net.cpp:434] scale3a_branch2b <- res3a_branch2b
I0725 16:33:13.746426  9400 net.cpp:395] scale3a_branch2b -> res3a_branch2b (in-place)
I0725 16:33:13.746474  9400 layer_factory.hpp:77] Creating layer scale3a_branch2b
I0725 16:33:13.746598  9400 net.cpp:150] Setting up scale3a_branch2b
I0725 16:33:13.746608  9400 net.cpp:157] Top shape: 2 128 75 75 (1440000)
I0725 16:33:13.746610  9400 net.cpp:165] Memory required for data: 1779840032
I0725 16:33:13.746615  9400 layer_factory.hpp:77] Creating layer res3a_branch2b_relu
I0725 16:33:13.746620  9400 net.cpp:100] Creating Layer res3a_branch2b_relu
I0725 16:33:13.746623  9400 net.cpp:434] res3a_branch2b_relu <- res3a_branch2b
I0725 16:33:13.746628  9400 net.cpp:395] res3a_branch2b_relu -> res3a_branch2b (in-place)
I0725 16:33:13.747004  9400 net.cpp:150] Setting up res3a_branch2b_relu
I0725 16:33:13.747015  9400 net.cpp:157] Top shape: 2 128 75 75 (1440000)
I0725 16:33:13.747028  9400 net.cpp:165] Memory required for data: 1785600032
I0725 16:33:13.747032  9400 layer_factory.hpp:77] Creating layer res3a_branch2c
I0725 16:33:13.747051  9400 net.cpp:100] Creating Layer res3a_branch2c
I0725 16:33:13.747054  9400 net.cpp:434] res3a_branch2c <- res3a_branch2b
I0725 16:33:13.747061  9400 net.cpp:408] res3a_branch2c -> res3a_branch2c
I0725 16:33:13.748421  9400 net.cpp:150] Setting up res3a_branch2c
I0725 16:33:13.748447  9400 net.cpp:157] Top shape: 2 512 75 75 (5760000)
I0725 16:33:13.748450  9400 net.cpp:165] Memory required for data: 1808640032
I0725 16:33:13.748456  9400 layer_factory.hpp:77] Creating layer bn3a_branch2c
I0725 16:33:13.748462  9400 net.cpp:100] Creating Layer bn3a_branch2c
I0725 16:33:13.748466  9400 net.cpp:434] bn3a_branch2c <- res3a_branch2c
I0725 16:33:13.748471  9400 net.cpp:395] bn3a_branch2c -> res3a_branch2c (in-place)
I0725 16:33:13.748673  9400 net.cpp:150] Setting up bn3a_branch2c
I0725 16:33:13.748682  9400 net.cpp:157] Top shape: 2 512 75 75 (5760000)
I0725 16:33:13.748684  9400 net.cpp:165] Memory required for data: 1831680032
I0725 16:33:13.748690  9400 layer_factory.hpp:77] Creating layer scale3a_branch2c
I0725 16:33:13.748700  9400 net.cpp:100] Creating Layer scale3a_branch2c
I0725 16:33:13.748703  9400 net.cpp:434] scale3a_branch2c <- res3a_branch2c
I0725 16:33:13.748708  9400 net.cpp:395] scale3a_branch2c -> res3a_branch2c (in-place)
I0725 16:33:13.748759  9400 layer_factory.hpp:77] Creating layer scale3a_branch2c
I0725 16:33:13.748893  9400 net.cpp:150] Setting up scale3a_branch2c
I0725 16:33:13.748901  9400 net.cpp:157] Top shape: 2 512 75 75 (5760000)
I0725 16:33:13.748904  9400 net.cpp:165] Memory required for data: 1854720032
I0725 16:33:13.748909  9400 layer_factory.hpp:77] Creating layer res3a
I0725 16:33:13.748914  9400 net.cpp:100] Creating Layer res3a
I0725 16:33:13.748919  9400 net.cpp:434] res3a <- res3a_branch1
I0725 16:33:13.748922  9400 net.cpp:434] res3a <- res3a_branch2c
I0725 16:33:13.748929  9400 net.cpp:408] res3a -> res3a
I0725 16:33:13.748951  9400 net.cpp:150] Setting up res3a
I0725 16:33:13.748958  9400 net.cpp:157] Top shape: 2 512 75 75 (5760000)
I0725 16:33:13.748961  9400 net.cpp:165] Memory required for data: 1877760032
I0725 16:33:13.748965  9400 layer_factory.hpp:77] Creating layer res3a_relu
I0725 16:33:13.748970  9400 net.cpp:100] Creating Layer res3a_relu
I0725 16:33:13.748973  9400 net.cpp:434] res3a_relu <- res3a
I0725 16:33:13.748977  9400 net.cpp:395] res3a_relu -> res3a (in-place)
I0725 16:33:13.749378  9400 net.cpp:150] Setting up res3a_relu
I0725 16:33:13.749390  9400 net.cpp:157] Top shape: 2 512 75 75 (5760000)
I0725 16:33:13.749403  9400 net.cpp:165] Memory required for data: 1900800032
I0725 16:33:13.749406  9400 layer_factory.hpp:77] Creating layer res3a_res3a_relu_0_split
I0725 16:33:13.749414  9400 net.cpp:100] Creating Layer res3a_res3a_relu_0_split
I0725 16:33:13.749418  9400 net.cpp:434] res3a_res3a_relu_0_split <- res3a
I0725 16:33:13.749423  9400 net.cpp:408] res3a_res3a_relu_0_split -> res3a_res3a_relu_0_split_0
I0725 16:33:13.749431  9400 net.cpp:408] res3a_res3a_relu_0_split -> res3a_res3a_relu_0_split_1
I0725 16:33:13.749475  9400 net.cpp:150] Setting up res3a_res3a_relu_0_split
I0725 16:33:13.749481  9400 net.cpp:157] Top shape: 2 512 75 75 (5760000)
I0725 16:33:13.749485  9400 net.cpp:157] Top shape: 2 512 75 75 (5760000)
I0725 16:33:13.749488  9400 net.cpp:165] Memory required for data: 1946880032
I0725 16:33:13.749491  9400 layer_factory.hpp:77] Creating layer res3b1_branch2a
I0725 16:33:13.749501  9400 net.cpp:100] Creating Layer res3b1_branch2a
I0725 16:33:13.749505  9400 net.cpp:434] res3b1_branch2a <- res3a_res3a_relu_0_split_0
I0725 16:33:13.749511  9400 net.cpp:408] res3b1_branch2a -> res3b1_branch2a
I0725 16:33:13.751044  9400 net.cpp:150] Setting up res3b1_branch2a
I0725 16:33:13.751057  9400 net.cpp:157] Top shape: 2 128 75 75 (1440000)
I0725 16:33:13.751070  9400 net.cpp:165] Memory required for data: 1952640032
I0725 16:33:13.751076  9400 layer_factory.hpp:77] Creating layer bn3b1_branch2a
I0725 16:33:13.751083  9400 net.cpp:100] Creating Layer bn3b1_branch2a
I0725 16:33:13.751087  9400 net.cpp:434] bn3b1_branch2a <- res3b1_branch2a
I0725 16:33:13.751092  9400 net.cpp:395] bn3b1_branch2a -> res3b1_branch2a (in-place)
I0725 16:33:13.751294  9400 net.cpp:150] Setting up bn3b1_branch2a
I0725 16:33:13.751302  9400 net.cpp:157] Top shape: 2 128 75 75 (1440000)
I0725 16:33:13.751305  9400 net.cpp:165] Memory required for data: 1958400032
I0725 16:33:13.751312  9400 layer_factory.hpp:77] Creating layer scale3b1_branch2a
I0725 16:33:13.751318  9400 net.cpp:100] Creating Layer scale3b1_branch2a
I0725 16:33:13.751322  9400 net.cpp:434] scale3b1_branch2a <- res3b1_branch2a
I0725 16:33:13.751327  9400 net.cpp:395] scale3b1_branch2a -> res3b1_branch2a (in-place)
I0725 16:33:13.751372  9400 layer_factory.hpp:77] Creating layer scale3b1_branch2a
I0725 16:33:13.751497  9400 net.cpp:150] Setting up scale3b1_branch2a
I0725 16:33:13.751505  9400 net.cpp:157] Top shape: 2 128 75 75 (1440000)
I0725 16:33:13.751508  9400 net.cpp:165] Memory required for data: 1964160032
I0725 16:33:13.751514  9400 layer_factory.hpp:77] Creating layer res3b1_branch2a_relu
I0725 16:33:13.751520  9400 net.cpp:100] Creating Layer res3b1_branch2a_relu
I0725 16:33:13.751523  9400 net.cpp:434] res3b1_branch2a_relu <- res3b1_branch2a
I0725 16:33:13.751528  9400 net.cpp:395] res3b1_branch2a_relu -> res3b1_branch2a (in-place)
I0725 16:33:13.751915  9400 net.cpp:150] Setting up res3b1_branch2a_relu
I0725 16:33:13.751929  9400 net.cpp:157] Top shape: 2 128 75 75 (1440000)
I0725 16:33:13.751941  9400 net.cpp:165] Memory required for data: 1969920032
I0725 16:33:13.751945  9400 layer_factory.hpp:77] Creating layer res3b1_branch2b
I0725 16:33:13.751955  9400 net.cpp:100] Creating Layer res3b1_branch2b
I0725 16:33:13.751958  9400 net.cpp:434] res3b1_branch2b <- res3b1_branch2a
I0725 16:33:13.751965  9400 net.cpp:408] res3b1_branch2b -> res3b1_branch2b
I0725 16:33:13.754421  9400 net.cpp:150] Setting up res3b1_branch2b
I0725 16:33:13.754436  9400 net.cpp:157] Top shape: 2 128 75 75 (1440000)
I0725 16:33:13.754448  9400 net.cpp:165] Memory required for data: 1975680032
I0725 16:33:13.754454  9400 layer_factory.hpp:77] Creating layer bn3b1_branch2b
I0725 16:33:13.754462  9400 net.cpp:100] Creating Layer bn3b1_branch2b
I0725 16:33:13.754465  9400 net.cpp:434] bn3b1_branch2b <- res3b1_branch2b
I0725 16:33:13.754470  9400 net.cpp:395] bn3b1_branch2b -> res3b1_branch2b (in-place)
I0725 16:33:13.754674  9400 net.cpp:150] Setting up bn3b1_branch2b
I0725 16:33:13.754683  9400 net.cpp:157] Top shape: 2 128 75 75 (1440000)
I0725 16:33:13.754685  9400 net.cpp:165] Memory required for data: 1981440032
I0725 16:33:13.754691  9400 layer_factory.hpp:77] Creating layer scale3b1_branch2b
I0725 16:33:13.754699  9400 net.cpp:100] Creating Layer scale3b1_branch2b
I0725 16:33:13.754703  9400 net.cpp:434] scale3b1_branch2b <- res3b1_branch2b
I0725 16:33:13.754707  9400 net.cpp:395] scale3b1_branch2b -> res3b1_branch2b (in-place)
I0725 16:33:13.754747  9400 layer_factory.hpp:77] Creating layer scale3b1_branch2b
I0725 16:33:13.754876  9400 net.cpp:150] Setting up scale3b1_branch2b
I0725 16:33:13.754884  9400 net.cpp:157] Top shape: 2 128 75 75 (1440000)
I0725 16:33:13.754887  9400 net.cpp:165] Memory required for data: 1987200032
I0725 16:33:13.754892  9400 layer_factory.hpp:77] Creating layer res3b1_branch2b_relu
I0725 16:33:13.754899  9400 net.cpp:100] Creating Layer res3b1_branch2b_relu
I0725 16:33:13.754902  9400 net.cpp:434] res3b1_branch2b_relu <- res3b1_branch2b
I0725 16:33:13.754906  9400 net.cpp:395] res3b1_branch2b_relu -> res3b1_branch2b (in-place)
I0725 16:33:13.755087  9400 net.cpp:150] Setting up res3b1_branch2b_relu
I0725 16:33:13.755098  9400 net.cpp:157] Top shape: 2 128 75 75 (1440000)
I0725 16:33:13.755101  9400 net.cpp:165] Memory required for data: 1992960032
I0725 16:33:13.755105  9400 layer_factory.hpp:77] Creating layer res3b1_branch2c
I0725 16:33:13.755115  9400 net.cpp:100] Creating Layer res3b1_branch2c
I0725 16:33:13.755117  9400 net.cpp:434] res3b1_branch2c <- res3b1_branch2b
I0725 16:33:13.755125  9400 net.cpp:408] res3b1_branch2c -> res3b1_branch2c
I0725 16:33:13.756677  9400 net.cpp:150] Setting up res3b1_branch2c
I0725 16:33:13.756702  9400 net.cpp:157] Top shape: 2 512 75 75 (5760000)
I0725 16:33:13.756706  9400 net.cpp:165] Memory required for data: 2016000032
I0725 16:33:13.756711  9400 layer_factory.hpp:77] Creating layer bn3b1_branch2c
I0725 16:33:13.756719  9400 net.cpp:100] Creating Layer bn3b1_branch2c
I0725 16:33:13.756723  9400 net.cpp:434] bn3b1_branch2c <- res3b1_branch2c
I0725 16:33:13.756727  9400 net.cpp:395] bn3b1_branch2c -> res3b1_branch2c (in-place)
I0725 16:33:13.756940  9400 net.cpp:150] Setting up bn3b1_branch2c
I0725 16:33:13.756948  9400 net.cpp:157] Top shape: 2 512 75 75 (5760000)
I0725 16:33:13.756952  9400 net.cpp:165] Memory required for data: 2039040032
I0725 16:33:13.756958  9400 layer_factory.hpp:77] Creating layer scale3b1_branch2c
I0725 16:33:13.756965  9400 net.cpp:100] Creating Layer scale3b1_branch2c
I0725 16:33:13.756968  9400 net.cpp:434] scale3b1_branch2c <- res3b1_branch2c
I0725 16:33:13.756973  9400 net.cpp:395] scale3b1_branch2c -> res3b1_branch2c (in-place)
I0725 16:33:13.757011  9400 layer_factory.hpp:77] Creating layer scale3b1_branch2c
I0725 16:33:13.757143  9400 net.cpp:150] Setting up scale3b1_branch2c
I0725 16:33:13.757153  9400 net.cpp:157] Top shape: 2 512 75 75 (5760000)
I0725 16:33:13.757165  9400 net.cpp:165] Memory required for data: 2062080032
I0725 16:33:13.757171  9400 layer_factory.hpp:77] Creating layer res3b1
I0725 16:33:13.757179  9400 net.cpp:100] Creating Layer res3b1
I0725 16:33:13.757182  9400 net.cpp:434] res3b1 <- res3a_res3a_relu_0_split_1
I0725 16:33:13.757186  9400 net.cpp:434] res3b1 <- res3b1_branch2c
I0725 16:33:13.757190  9400 net.cpp:408] res3b1 -> res3b1
I0725 16:33:13.757218  9400 net.cpp:150] Setting up res3b1
I0725 16:33:13.757226  9400 net.cpp:157] Top shape: 2 512 75 75 (5760000)
I0725 16:33:13.757228  9400 net.cpp:165] Memory required for data: 2085120032
I0725 16:33:13.757231  9400 layer_factory.hpp:77] Creating layer res3b1_relu
I0725 16:33:13.757236  9400 net.cpp:100] Creating Layer res3b1_relu
I0725 16:33:13.757239  9400 net.cpp:434] res3b1_relu <- res3b1
I0725 16:33:13.757246  9400 net.cpp:395] res3b1_relu -> res3b1 (in-place)
I0725 16:33:13.757419  9400 net.cpp:150] Setting up res3b1_relu
I0725 16:33:13.757428  9400 net.cpp:157] Top shape: 2 512 75 75 (5760000)
I0725 16:33:13.757431  9400 net.cpp:165] Memory required for data: 2108160032
I0725 16:33:13.757434  9400 layer_factory.hpp:77] Creating layer res3b1_res3b1_relu_0_split
I0725 16:33:13.757442  9400 net.cpp:100] Creating Layer res3b1_res3b1_relu_0_split
I0725 16:33:13.757445  9400 net.cpp:434] res3b1_res3b1_relu_0_split <- res3b1
I0725 16:33:13.757452  9400 net.cpp:408] res3b1_res3b1_relu_0_split -> res3b1_res3b1_relu_0_split_0
I0725 16:33:13.757458  9400 net.cpp:408] res3b1_res3b1_relu_0_split -> res3b1_res3b1_relu_0_split_1
I0725 16:33:13.757500  9400 net.cpp:150] Setting up res3b1_res3b1_relu_0_split
I0725 16:33:13.757508  9400 net.cpp:157] Top shape: 2 512 75 75 (5760000)
I0725 16:33:13.757511  9400 net.cpp:157] Top shape: 2 512 75 75 (5760000)
I0725 16:33:13.757514  9400 net.cpp:165] Memory required for data: 2154240032
I0725 16:33:13.757517  9400 layer_factory.hpp:77] Creating layer res3b2_branch2a
I0725 16:33:13.757526  9400 net.cpp:100] Creating Layer res3b2_branch2a
I0725 16:33:13.757530  9400 net.cpp:434] res3b2_branch2a <- res3b1_res3b1_relu_0_split_0
I0725 16:33:13.757535  9400 net.cpp:408] res3b2_branch2a -> res3b2_branch2a
I0725 16:33:13.759917  9400 net.cpp:150] Setting up res3b2_branch2a
I0725 16:33:13.759932  9400 net.cpp:157] Top shape: 2 128 75 75 (1440000)
I0725 16:33:13.759945  9400 net.cpp:165] Memory required for data: 2160000032
I0725 16:33:13.759950  9400 layer_factory.hpp:77] Creating layer bn3b2_branch2a
I0725 16:33:13.759956  9400 net.cpp:100] Creating Layer bn3b2_branch2a
I0725 16:33:13.759960  9400 net.cpp:434] bn3b2_branch2a <- res3b2_branch2a
I0725 16:33:13.759966  9400 net.cpp:395] bn3b2_branch2a -> res3b2_branch2a (in-place)
I0725 16:33:13.760200  9400 net.cpp:150] Setting up bn3b2_branch2a
I0725 16:33:13.760210  9400 net.cpp:157] Top shape: 2 128 75 75 (1440000)
I0725 16:33:13.760212  9400 net.cpp:165] Memory required for data: 2165760032
I0725 16:33:13.760218  9400 layer_factory.hpp:77] Creating layer scale3b2_branch2a
I0725 16:33:13.760226  9400 net.cpp:100] Creating Layer scale3b2_branch2a
I0725 16:33:13.760228  9400 net.cpp:434] scale3b2_branch2a <- res3b2_branch2a
I0725 16:33:13.760236  9400 net.cpp:395] scale3b2_branch2a -> res3b2_branch2a (in-place)
I0725 16:33:13.760277  9400 layer_factory.hpp:77] Creating layer scale3b2_branch2a
I0725 16:33:13.760406  9400 net.cpp:150] Setting up scale3b2_branch2a
I0725 16:33:13.760413  9400 net.cpp:157] Top shape: 2 128 75 75 (1440000)
I0725 16:33:13.760416  9400 net.cpp:165] Memory required for data: 2171520032
I0725 16:33:13.760421  9400 layer_factory.hpp:77] Creating layer res3b2_branch2a_relu
I0725 16:33:13.760426  9400 net.cpp:100] Creating Layer res3b2_branch2a_relu
I0725 16:33:13.760429  9400 net.cpp:434] res3b2_branch2a_relu <- res3b2_branch2a
I0725 16:33:13.760435  9400 net.cpp:395] res3b2_branch2a_relu -> res3b2_branch2a (in-place)
I0725 16:33:13.760619  9400 net.cpp:150] Setting up res3b2_branch2a_relu
I0725 16:33:13.760629  9400 net.cpp:157] Top shape: 2 128 75 75 (1440000)
I0725 16:33:13.760632  9400 net.cpp:165] Memory required for data: 2177280032
I0725 16:33:13.760646  9400 layer_factory.hpp:77] Creating layer res3b2_branch2b
I0725 16:33:13.760656  9400 net.cpp:100] Creating Layer res3b2_branch2b
I0725 16:33:13.760660  9400 net.cpp:434] res3b2_branch2b <- res3b2_branch2a
I0725 16:33:13.760668  9400 net.cpp:408] res3b2_branch2b -> res3b2_branch2b
I0725 16:33:13.763147  9400 net.cpp:150] Setting up res3b2_branch2b
I0725 16:33:13.763175  9400 net.cpp:157] Top shape: 2 128 75 75 (1440000)
I0725 16:33:13.763180  9400 net.cpp:165] Memory required for data: 2183040032
I0725 16:33:13.763185  9400 layer_factory.hpp:77] Creating layer bn3b2_branch2b
I0725 16:33:13.763190  9400 net.cpp:100] Creating Layer bn3b2_branch2b
I0725 16:33:13.763195  9400 net.cpp:434] bn3b2_branch2b <- res3b2_branch2b
I0725 16:33:13.763200  9400 net.cpp:395] bn3b2_branch2b -> res3b2_branch2b (in-place)
I0725 16:33:13.763408  9400 net.cpp:150] Setting up bn3b2_branch2b
I0725 16:33:13.763418  9400 net.cpp:157] Top shape: 2 128 75 75 (1440000)
I0725 16:33:13.763422  9400 net.cpp:165] Memory required for data: 2188800032
I0725 16:33:13.763427  9400 layer_factory.hpp:77] Creating layer scale3b2_branch2b
I0725 16:33:13.763434  9400 net.cpp:100] Creating Layer scale3b2_branch2b
I0725 16:33:13.763437  9400 net.cpp:434] scale3b2_branch2b <- res3b2_branch2b
I0725 16:33:13.763442  9400 net.cpp:395] scale3b2_branch2b -> res3b2_branch2b (in-place)
I0725 16:33:13.763485  9400 layer_factory.hpp:77] Creating layer scale3b2_branch2b
I0725 16:33:13.763612  9400 net.cpp:150] Setting up scale3b2_branch2b
I0725 16:33:13.763619  9400 net.cpp:157] Top shape: 2 128 75 75 (1440000)
I0725 16:33:13.763622  9400 net.cpp:165] Memory required for data: 2194560032
I0725 16:33:13.763628  9400 layer_factory.hpp:77] Creating layer res3b2_branch2b_relu
I0725 16:33:13.763634  9400 net.cpp:100] Creating Layer res3b2_branch2b_relu
I0725 16:33:13.763638  9400 net.cpp:434] res3b2_branch2b_relu <- res3b2_branch2b
I0725 16:33:13.763641  9400 net.cpp:395] res3b2_branch2b_relu -> res3b2_branch2b (in-place)
I0725 16:33:13.764039  9400 net.cpp:150] Setting up res3b2_branch2b_relu
I0725 16:33:13.764062  9400 net.cpp:157] Top shape: 2 128 75 75 (1440000)
I0725 16:33:13.764065  9400 net.cpp:165] Memory required for data: 2200320032
I0725 16:33:13.764070  9400 layer_factory.hpp:77] Creating layer res3b2_branch2c
I0725 16:33:13.764081  9400 net.cpp:100] Creating Layer res3b2_branch2c
I0725 16:33:13.764083  9400 net.cpp:434] res3b2_branch2c <- res3b2_branch2b
I0725 16:33:13.764089  9400 net.cpp:408] res3b2_branch2c -> res3b2_branch2c
I0725 16:33:13.765483  9400 net.cpp:150] Setting up res3b2_branch2c
I0725 16:33:13.765508  9400 net.cpp:157] Top shape: 2 512 75 75 (5760000)
I0725 16:33:13.765512  9400 net.cpp:165] Memory required for data: 2223360032
I0725 16:33:13.765517  9400 layer_factory.hpp:77] Creating layer bn3b2_branch2c
I0725 16:33:13.765522  9400 net.cpp:100] Creating Layer bn3b2_branch2c
I0725 16:33:13.765527  9400 net.cpp:434] bn3b2_branch2c <- res3b2_branch2c
I0725 16:33:13.765534  9400 net.cpp:395] bn3b2_branch2c -> res3b2_branch2c (in-place)
I0725 16:33:13.765743  9400 net.cpp:150] Setting up bn3b2_branch2c
I0725 16:33:13.765753  9400 net.cpp:157] Top shape: 2 512 75 75 (5760000)
I0725 16:33:13.765756  9400 net.cpp:165] Memory required for data: 2246400032
I0725 16:33:13.765763  9400 layer_factory.hpp:77] Creating layer scale3b2_branch2c
I0725 16:33:13.765769  9400 net.cpp:100] Creating Layer scale3b2_branch2c
I0725 16:33:13.765771  9400 net.cpp:434] scale3b2_branch2c <- res3b2_branch2c
I0725 16:33:13.765776  9400 net.cpp:395] scale3b2_branch2c -> res3b2_branch2c (in-place)
I0725 16:33:13.765815  9400 layer_factory.hpp:77] Creating layer scale3b2_branch2c
I0725 16:33:13.765955  9400 net.cpp:150] Setting up scale3b2_branch2c
I0725 16:33:13.765964  9400 net.cpp:157] Top shape: 2 512 75 75 (5760000)
I0725 16:33:13.765966  9400 net.cpp:165] Memory required for data: 2269440032
I0725 16:33:13.765971  9400 layer_factory.hpp:77] Creating layer res3b2
I0725 16:33:13.765980  9400 net.cpp:100] Creating Layer res3b2
I0725 16:33:13.765993  9400 net.cpp:434] res3b2 <- res3b1_res3b1_relu_0_split_1
I0725 16:33:13.765997  9400 net.cpp:434] res3b2 <- res3b2_branch2c
I0725 16:33:13.766002  9400 net.cpp:408] res3b2 -> res3b2
I0725 16:33:13.766026  9400 net.cpp:150] Setting up res3b2
I0725 16:33:13.766033  9400 net.cpp:157] Top shape: 2 512 75 75 (5760000)
I0725 16:33:13.766036  9400 net.cpp:165] Memory required for data: 2292480032
I0725 16:33:13.766039  9400 layer_factory.hpp:77] Creating layer res3b2_relu
I0725 16:33:13.766047  9400 net.cpp:100] Creating Layer res3b2_relu
I0725 16:33:13.766049  9400 net.cpp:434] res3b2_relu <- res3b2
I0725 16:33:13.766053  9400 net.cpp:395] res3b2_relu -> res3b2 (in-place)
I0725 16:33:13.766428  9400 net.cpp:150] Setting up res3b2_relu
I0725 16:33:13.766440  9400 net.cpp:157] Top shape: 2 512 75 75 (5760000)
I0725 16:33:13.766454  9400 net.cpp:165] Memory required for data: 2315520032
I0725 16:33:13.766458  9400 layer_factory.hpp:77] Creating layer res3b2_res3b2_relu_0_split
I0725 16:33:13.766465  9400 net.cpp:100] Creating Layer res3b2_res3b2_relu_0_split
I0725 16:33:13.766469  9400 net.cpp:434] res3b2_res3b2_relu_0_split <- res3b2
I0725 16:33:13.766475  9400 net.cpp:408] res3b2_res3b2_relu_0_split -> res3b2_res3b2_relu_0_split_0
I0725 16:33:13.766481  9400 net.cpp:408] res3b2_res3b2_relu_0_split -> res3b2_res3b2_relu_0_split_1
I0725 16:33:13.766536  9400 net.cpp:150] Setting up res3b2_res3b2_relu_0_split
I0725 16:33:13.766546  9400 net.cpp:157] Top shape: 2 512 75 75 (5760000)
I0725 16:33:13.766549  9400 net.cpp:157] Top shape: 2 512 75 75 (5760000)
I0725 16:33:13.766552  9400 net.cpp:165] Memory required for data: 2361600032
I0725 16:33:13.766556  9400 layer_factory.hpp:77] Creating layer res3b3_branch2a
I0725 16:33:13.766562  9400 net.cpp:100] Creating Layer res3b3_branch2a
I0725 16:33:13.766566  9400 net.cpp:434] res3b3_branch2a <- res3b2_res3b2_relu_0_split_0
I0725 16:33:13.766573  9400 net.cpp:408] res3b3_branch2a -> res3b3_branch2a
I0725 16:33:13.768124  9400 net.cpp:150] Setting up res3b3_branch2a
I0725 16:33:13.768149  9400 net.cpp:157] Top shape: 2 128 75 75 (1440000)
I0725 16:33:13.768153  9400 net.cpp:165] Memory required for data: 2367360032
I0725 16:33:13.768158  9400 layer_factory.hpp:77] Creating layer bn3b3_branch2a
I0725 16:33:13.768165  9400 net.cpp:100] Creating Layer bn3b3_branch2a
I0725 16:33:13.768169  9400 net.cpp:434] bn3b3_branch2a <- res3b3_branch2a
I0725 16:33:13.768174  9400 net.cpp:395] bn3b3_branch2a -> res3b3_branch2a (in-place)
I0725 16:33:13.768384  9400 net.cpp:150] Setting up bn3b3_branch2a
I0725 16:33:13.768393  9400 net.cpp:157] Top shape: 2 128 75 75 (1440000)
I0725 16:33:13.768395  9400 net.cpp:165] Memory required for data: 2373120032
I0725 16:33:13.768414  9400 layer_factory.hpp:77] Creating layer scale3b3_branch2a
I0725 16:33:13.768424  9400 net.cpp:100] Creating Layer scale3b3_branch2a
I0725 16:33:13.768429  9400 net.cpp:434] scale3b3_branch2a <- res3b3_branch2a
I0725 16:33:13.768434  9400 net.cpp:395] scale3b3_branch2a -> res3b3_branch2a (in-place)
I0725 16:33:13.768478  9400 layer_factory.hpp:77] Creating layer scale3b3_branch2a
I0725 16:33:13.768605  9400 net.cpp:150] Setting up scale3b3_branch2a
I0725 16:33:13.768613  9400 net.cpp:157] Top shape: 2 128 75 75 (1440000)
I0725 16:33:13.768616  9400 net.cpp:165] Memory required for data: 2378880032
I0725 16:33:13.768621  9400 layer_factory.hpp:77] Creating layer res3b3_branch2a_relu
I0725 16:33:13.768627  9400 net.cpp:100] Creating Layer res3b3_branch2a_relu
I0725 16:33:13.768630  9400 net.cpp:434] res3b3_branch2a_relu <- res3b3_branch2a
I0725 16:33:13.768635  9400 net.cpp:395] res3b3_branch2a_relu -> res3b3_branch2a (in-place)
I0725 16:33:13.768813  9400 net.cpp:150] Setting up res3b3_branch2a_relu
I0725 16:33:13.768824  9400 net.cpp:157] Top shape: 2 128 75 75 (1440000)
I0725 16:33:13.768827  9400 net.cpp:165] Memory required for data: 2384640032
I0725 16:33:13.768831  9400 layer_factory.hpp:77] Creating layer res3b3_branch2b
I0725 16:33:13.768841  9400 net.cpp:100] Creating Layer res3b3_branch2b
I0725 16:33:13.768857  9400 net.cpp:434] res3b3_branch2b <- res3b3_branch2a
I0725 16:33:13.768864  9400 net.cpp:408] res3b3_branch2b -> res3b3_branch2b
I0725 16:33:13.772276  9400 net.cpp:150] Setting up res3b3_branch2b
I0725 16:33:13.772303  9400 net.cpp:157] Top shape: 2 128 75 75 (1440000)
I0725 16:33:13.772307  9400 net.cpp:165] Memory required for data: 2390400032
I0725 16:33:13.772312  9400 layer_factory.hpp:77] Creating layer bn3b3_branch2b
I0725 16:33:13.772318  9400 net.cpp:100] Creating Layer bn3b3_branch2b
I0725 16:33:13.772322  9400 net.cpp:434] bn3b3_branch2b <- res3b3_branch2b
I0725 16:33:13.772328  9400 net.cpp:395] bn3b3_branch2b -> res3b3_branch2b (in-place)
I0725 16:33:13.772543  9400 net.cpp:150] Setting up bn3b3_branch2b
I0725 16:33:13.772552  9400 net.cpp:157] Top shape: 2 128 75 75 (1440000)
I0725 16:33:13.772555  9400 net.cpp:165] Memory required for data: 2396160032
I0725 16:33:13.772562  9400 layer_factory.hpp:77] Creating layer scale3b3_branch2b
I0725 16:33:13.772568  9400 net.cpp:100] Creating Layer scale3b3_branch2b
I0725 16:33:13.772572  9400 net.cpp:434] scale3b3_branch2b <- res3b3_branch2b
I0725 16:33:13.772578  9400 net.cpp:395] scale3b3_branch2b -> res3b3_branch2b (in-place)
I0725 16:33:13.772619  9400 layer_factory.hpp:77] Creating layer scale3b3_branch2b
I0725 16:33:13.772749  9400 net.cpp:150] Setting up scale3b3_branch2b
I0725 16:33:13.772758  9400 net.cpp:157] Top shape: 2 128 75 75 (1440000)
I0725 16:33:13.772760  9400 net.cpp:165] Memory required for data: 2401920032
I0725 16:33:13.772765  9400 layer_factory.hpp:77] Creating layer res3b3_branch2b_relu
I0725 16:33:13.772771  9400 net.cpp:100] Creating Layer res3b3_branch2b_relu
I0725 16:33:13.772774  9400 net.cpp:434] res3b3_branch2b_relu <- res3b3_branch2b
I0725 16:33:13.772780  9400 net.cpp:395] res3b3_branch2b_relu -> res3b3_branch2b (in-place)
I0725 16:33:13.772967  9400 net.cpp:150] Setting up res3b3_branch2b_relu
I0725 16:33:13.772979  9400 net.cpp:157] Top shape: 2 128 75 75 (1440000)
I0725 16:33:13.772981  9400 net.cpp:165] Memory required for data: 2407680032
I0725 16:33:13.772984  9400 layer_factory.hpp:77] Creating layer res3b3_branch2c
I0725 16:33:13.772995  9400 net.cpp:100] Creating Layer res3b3_branch2c
I0725 16:33:13.773001  9400 net.cpp:434] res3b3_branch2c <- res3b3_branch2b
I0725 16:33:13.773006  9400 net.cpp:408] res3b3_branch2c -> res3b3_branch2c
I0725 16:33:13.774567  9400 net.cpp:150] Setting up res3b3_branch2c
I0725 16:33:13.774595  9400 net.cpp:157] Top shape: 2 512 75 75 (5760000)
I0725 16:33:13.774598  9400 net.cpp:165] Memory required for data: 2430720032
I0725 16:33:13.774603  9400 layer_factory.hpp:77] Creating layer bn3b3_branch2c
I0725 16:33:13.774610  9400 net.cpp:100] Creating Layer bn3b3_branch2c
I0725 16:33:13.774612  9400 net.cpp:434] bn3b3_branch2c <- res3b3_branch2c
I0725 16:33:13.774619  9400 net.cpp:395] bn3b3_branch2c -> res3b3_branch2c (in-place)
I0725 16:33:13.774832  9400 net.cpp:150] Setting up bn3b3_branch2c
I0725 16:33:13.774839  9400 net.cpp:157] Top shape: 2 512 75 75 (5760000)
I0725 16:33:13.774842  9400 net.cpp:165] Memory required for data: 2453760032
I0725 16:33:13.774848  9400 layer_factory.hpp:77] Creating layer scale3b3_branch2c
I0725 16:33:13.774854  9400 net.cpp:100] Creating Layer scale3b3_branch2c
I0725 16:33:13.774858  9400 net.cpp:434] scale3b3_branch2c <- res3b3_branch2c
I0725 16:33:13.774865  9400 net.cpp:395] scale3b3_branch2c -> res3b3_branch2c (in-place)
I0725 16:33:13.774902  9400 layer_factory.hpp:77] Creating layer scale3b3_branch2c
I0725 16:33:13.775035  9400 net.cpp:150] Setting up scale3b3_branch2c
I0725 16:33:13.775044  9400 net.cpp:157] Top shape: 2 512 75 75 (5760000)
I0725 16:33:13.775048  9400 net.cpp:165] Memory required for data: 2476800032
I0725 16:33:13.775053  9400 layer_factory.hpp:77] Creating layer res3b3
I0725 16:33:13.775058  9400 net.cpp:100] Creating Layer res3b3
I0725 16:33:13.775061  9400 net.cpp:434] res3b3 <- res3b2_res3b2_relu_0_split_1
I0725 16:33:13.775065  9400 net.cpp:434] res3b3 <- res3b3_branch2c
I0725 16:33:13.775071  9400 net.cpp:408] res3b3 -> res3b3
I0725 16:33:13.775110  9400 net.cpp:150] Setting up res3b3
I0725 16:33:13.775118  9400 net.cpp:157] Top shape: 2 512 75 75 (5760000)
I0725 16:33:13.775121  9400 net.cpp:165] Memory required for data: 2499840032
I0725 16:33:13.775125  9400 layer_factory.hpp:77] Creating layer res3b3_relu
I0725 16:33:13.775130  9400 net.cpp:100] Creating Layer res3b3_relu
I0725 16:33:13.775132  9400 net.cpp:434] res3b3_relu <- res3b3
I0725 16:33:13.775136  9400 net.cpp:395] res3b3_relu -> res3b3 (in-place)
I0725 16:33:13.775323  9400 net.cpp:150] Setting up res3b3_relu
I0725 16:33:13.775334  9400 net.cpp:157] Top shape: 2 512 75 75 (5760000)
I0725 16:33:13.775336  9400 net.cpp:165] Memory required for data: 2522880032
I0725 16:33:13.775341  9400 layer_factory.hpp:77] Creating layer res3b3_res3b3_relu_0_split
I0725 16:33:13.775347  9400 net.cpp:100] Creating Layer res3b3_res3b3_relu_0_split
I0725 16:33:13.775351  9400 net.cpp:434] res3b3_res3b3_relu_0_split <- res3b3
I0725 16:33:13.775357  9400 net.cpp:408] res3b3_res3b3_relu_0_split -> res3b3_res3b3_relu_0_split_0
I0725 16:33:13.775363  9400 net.cpp:408] res3b3_res3b3_relu_0_split -> res3b3_res3b3_relu_0_split_1
I0725 16:33:13.775406  9400 net.cpp:150] Setting up res3b3_res3b3_relu_0_split
I0725 16:33:13.775414  9400 net.cpp:157] Top shape: 2 512 75 75 (5760000)
I0725 16:33:13.775418  9400 net.cpp:157] Top shape: 2 512 75 75 (5760000)
I0725 16:33:13.775420  9400 net.cpp:165] Memory required for data: 2568960032
I0725 16:33:13.775424  9400 layer_factory.hpp:77] Creating layer res4a_branch1
I0725 16:33:13.775434  9400 net.cpp:100] Creating Layer res4a_branch1
I0725 16:33:13.775437  9400 net.cpp:434] res4a_branch1 <- res3b3_res3b3_relu_0_split_0
I0725 16:33:13.775444  9400 net.cpp:408] res4a_branch1 -> res4a_branch1
I0725 16:33:13.782023  9400 net.cpp:150] Setting up res4a_branch1
I0725 16:33:13.782047  9400 net.cpp:157] Top shape: 2 1024 38 38 (2957312)
I0725 16:33:13.782052  9400 net.cpp:165] Memory required for data: 2580789280
I0725 16:33:13.782057  9400 layer_factory.hpp:77] Creating layer bn4a_branch1
I0725 16:33:13.782065  9400 net.cpp:100] Creating Layer bn4a_branch1
I0725 16:33:13.782069  9400 net.cpp:434] bn4a_branch1 <- res4a_branch1
I0725 16:33:13.782073  9400 net.cpp:395] bn4a_branch1 -> res4a_branch1 (in-place)
I0725 16:33:13.782276  9400 net.cpp:150] Setting up bn4a_branch1
I0725 16:33:13.782284  9400 net.cpp:157] Top shape: 2 1024 38 38 (2957312)
I0725 16:33:13.782287  9400 net.cpp:165] Memory required for data: 2592618528
I0725 16:33:13.782294  9400 layer_factory.hpp:77] Creating layer scale4a_branch1
I0725 16:33:13.782302  9400 net.cpp:100] Creating Layer scale4a_branch1
I0725 16:33:13.782305  9400 net.cpp:434] scale4a_branch1 <- res4a_branch1
I0725 16:33:13.782310  9400 net.cpp:395] scale4a_branch1 -> res4a_branch1 (in-place)
I0725 16:33:13.782351  9400 layer_factory.hpp:77] Creating layer scale4a_branch1
I0725 16:33:13.782476  9400 net.cpp:150] Setting up scale4a_branch1
I0725 16:33:13.782485  9400 net.cpp:157] Top shape: 2 1024 38 38 (2957312)
I0725 16:33:13.782487  9400 net.cpp:165] Memory required for data: 2604447776
I0725 16:33:13.782492  9400 layer_factory.hpp:77] Creating layer res4a_branch2a
I0725 16:33:13.782502  9400 net.cpp:100] Creating Layer res4a_branch2a
I0725 16:33:13.782506  9400 net.cpp:434] res4a_branch2a <- res3b3_res3b3_relu_0_split_1
I0725 16:33:13.782511  9400 net.cpp:408] res4a_branch2a -> res4a_branch2a
I0725 16:33:13.784656  9400 net.cpp:150] Setting up res4a_branch2a
I0725 16:33:13.784682  9400 net.cpp:157] Top shape: 2 256 38 38 (739328)
I0725 16:33:13.784687  9400 net.cpp:165] Memory required for data: 2607405088
I0725 16:33:13.784692  9400 layer_factory.hpp:77] Creating layer bn4a_branch2a
I0725 16:33:13.784698  9400 net.cpp:100] Creating Layer bn4a_branch2a
I0725 16:33:13.784701  9400 net.cpp:434] bn4a_branch2a <- res4a_branch2a
I0725 16:33:13.784708  9400 net.cpp:395] bn4a_branch2a -> res4a_branch2a (in-place)
I0725 16:33:13.784919  9400 net.cpp:150] Setting up bn4a_branch2a
I0725 16:33:13.784927  9400 net.cpp:157] Top shape: 2 256 38 38 (739328)
I0725 16:33:13.784941  9400 net.cpp:165] Memory required for data: 2610362400
I0725 16:33:13.784948  9400 layer_factory.hpp:77] Creating layer scale4a_branch2a
I0725 16:33:13.784955  9400 net.cpp:100] Creating Layer scale4a_branch2a
I0725 16:33:13.784957  9400 net.cpp:434] scale4a_branch2a <- res4a_branch2a
I0725 16:33:13.784965  9400 net.cpp:395] scale4a_branch2a -> res4a_branch2a (in-place)
I0725 16:33:13.785010  9400 layer_factory.hpp:77] Creating layer scale4a_branch2a
I0725 16:33:13.785130  9400 net.cpp:150] Setting up scale4a_branch2a
I0725 16:33:13.785137  9400 net.cpp:157] Top shape: 2 256 38 38 (739328)
I0725 16:33:13.785140  9400 net.cpp:165] Memory required for data: 2613319712
I0725 16:33:13.785145  9400 layer_factory.hpp:77] Creating layer res4a_branch2a_relu
I0725 16:33:13.785149  9400 net.cpp:100] Creating Layer res4a_branch2a_relu
I0725 16:33:13.785153  9400 net.cpp:434] res4a_branch2a_relu <- res4a_branch2a
I0725 16:33:13.785159  9400 net.cpp:395] res4a_branch2a_relu -> res4a_branch2a (in-place)
I0725 16:33:13.785346  9400 net.cpp:150] Setting up res4a_branch2a_relu
I0725 16:33:13.785356  9400 net.cpp:157] Top shape: 2 256 38 38 (739328)
I0725 16:33:13.785358  9400 net.cpp:165] Memory required for data: 2616277024
I0725 16:33:13.785362  9400 layer_factory.hpp:77] Creating layer res4a_branch2b
I0725 16:33:13.785372  9400 net.cpp:100] Creating Layer res4a_branch2b
I0725 16:33:13.785375  9400 net.cpp:434] res4a_branch2b <- res4a_branch2a
I0725 16:33:13.785382  9400 net.cpp:408] res4a_branch2b -> res4a_branch2b
I0725 16:33:13.792834  9400 net.cpp:150] Setting up res4a_branch2b
I0725 16:33:13.792850  9400 net.cpp:157] Top shape: 2 256 38 38 (739328)
I0725 16:33:13.792865  9400 net.cpp:165] Memory required for data: 2619234336
I0725 16:33:13.792870  9400 layer_factory.hpp:77] Creating layer bn4a_branch2b
I0725 16:33:13.792876  9400 net.cpp:100] Creating Layer bn4a_branch2b
I0725 16:33:13.792881  9400 net.cpp:434] bn4a_branch2b <- res4a_branch2b
I0725 16:33:13.792887  9400 net.cpp:395] bn4a_branch2b -> res4a_branch2b (in-place)
I0725 16:33:13.793102  9400 net.cpp:150] Setting up bn4a_branch2b
I0725 16:33:13.793114  9400 net.cpp:157] Top shape: 2 256 38 38 (739328)
I0725 16:33:13.793117  9400 net.cpp:165] Memory required for data: 2622191648
I0725 16:33:13.793123  9400 layer_factory.hpp:77] Creating layer scale4a_branch2b
I0725 16:33:13.793129  9400 net.cpp:100] Creating Layer scale4a_branch2b
I0725 16:33:13.793133  9400 net.cpp:434] scale4a_branch2b <- res4a_branch2b
I0725 16:33:13.793138  9400 net.cpp:395] scale4a_branch2b -> res4a_branch2b (in-place)
I0725 16:33:13.793182  9400 layer_factory.hpp:77] Creating layer scale4a_branch2b
I0725 16:33:13.793304  9400 net.cpp:150] Setting up scale4a_branch2b
I0725 16:33:13.793313  9400 net.cpp:157] Top shape: 2 256 38 38 (739328)
I0725 16:33:13.793315  9400 net.cpp:165] Memory required for data: 2625148960
I0725 16:33:13.793320  9400 layer_factory.hpp:77] Creating layer res4a_branch2b_relu
I0725 16:33:13.793325  9400 net.cpp:100] Creating Layer res4a_branch2b_relu
I0725 16:33:13.793329  9400 net.cpp:434] res4a_branch2b_relu <- res4a_branch2b
I0725 16:33:13.793337  9400 net.cpp:395] res4a_branch2b_relu -> res4a_branch2b (in-place)
I0725 16:33:13.793527  9400 net.cpp:150] Setting up res4a_branch2b_relu
I0725 16:33:13.793537  9400 net.cpp:157] Top shape: 2 256 38 38 (739328)
I0725 16:33:13.793540  9400 net.cpp:165] Memory required for data: 2628106272
I0725 16:33:13.793543  9400 layer_factory.hpp:77] Creating layer res4a_branch2c
I0725 16:33:13.793553  9400 net.cpp:100] Creating Layer res4a_branch2c
I0725 16:33:13.793556  9400 net.cpp:434] res4a_branch2c <- res4a_branch2b
I0725 16:33:13.793562  9400 net.cpp:408] res4a_branch2c -> res4a_branch2c
I0725 16:33:13.797847  9400 net.cpp:150] Setting up res4a_branch2c
I0725 16:33:13.797874  9400 net.cpp:157] Top shape: 2 1024 38 38 (2957312)
I0725 16:33:13.797878  9400 net.cpp:165] Memory required for data: 2639935520
I0725 16:33:13.797883  9400 layer_factory.hpp:77] Creating layer bn4a_branch2c
I0725 16:33:13.797901  9400 net.cpp:100] Creating Layer bn4a_branch2c
I0725 16:33:13.797905  9400 net.cpp:434] bn4a_branch2c <- res4a_branch2c
I0725 16:33:13.797911  9400 net.cpp:395] bn4a_branch2c -> res4a_branch2c (in-place)
I0725 16:33:13.798122  9400 net.cpp:150] Setting up bn4a_branch2c
I0725 16:33:13.798133  9400 net.cpp:157] Top shape: 2 1024 38 38 (2957312)
I0725 16:33:13.798136  9400 net.cpp:165] Memory required for data: 2651764768
I0725 16:33:13.798142  9400 layer_factory.hpp:77] Creating layer scale4a_branch2c
I0725 16:33:13.798149  9400 net.cpp:100] Creating Layer scale4a_branch2c
I0725 16:33:13.798152  9400 net.cpp:434] scale4a_branch2c <- res4a_branch2c
I0725 16:33:13.798156  9400 net.cpp:395] scale4a_branch2c -> res4a_branch2c (in-place)
I0725 16:33:13.798198  9400 layer_factory.hpp:77] Creating layer scale4a_branch2c
I0725 16:33:13.798328  9400 net.cpp:150] Setting up scale4a_branch2c
I0725 16:33:13.798336  9400 net.cpp:157] Top shape: 2 1024 38 38 (2957312)
I0725 16:33:13.798339  9400 net.cpp:165] Memory required for data: 2663594016
I0725 16:33:13.798344  9400 layer_factory.hpp:77] Creating layer res4a
I0725 16:33:13.798349  9400 net.cpp:100] Creating Layer res4a
I0725 16:33:13.798354  9400 net.cpp:434] res4a <- res4a_branch1
I0725 16:33:13.798358  9400 net.cpp:434] res4a <- res4a_branch2c
I0725 16:33:13.798363  9400 net.cpp:408] res4a -> res4a
I0725 16:33:13.798388  9400 net.cpp:150] Setting up res4a
I0725 16:33:13.798398  9400 net.cpp:157] Top shape: 2 1024 38 38 (2957312)
I0725 16:33:13.798401  9400 net.cpp:165] Memory required for data: 2675423264
I0725 16:33:13.798404  9400 layer_factory.hpp:77] Creating layer res4a_relu
I0725 16:33:13.798410  9400 net.cpp:100] Creating Layer res4a_relu
I0725 16:33:13.798414  9400 net.cpp:434] res4a_relu <- res4a
I0725 16:33:13.798418  9400 net.cpp:395] res4a_relu -> res4a (in-place)
I0725 16:33:13.798821  9400 net.cpp:150] Setting up res4a_relu
I0725 16:33:13.798833  9400 net.cpp:157] Top shape: 2 1024 38 38 (2957312)
I0725 16:33:13.798848  9400 net.cpp:165] Memory required for data: 2687252512
I0725 16:33:13.798851  9400 layer_factory.hpp:77] Creating layer res4a_res4a_relu_0_split
I0725 16:33:13.798873  9400 net.cpp:100] Creating Layer res4a_res4a_relu_0_split
I0725 16:33:13.798877  9400 net.cpp:434] res4a_res4a_relu_0_split <- res4a
I0725 16:33:13.798882  9400 net.cpp:408] res4a_res4a_relu_0_split -> res4a_res4a_relu_0_split_0
I0725 16:33:13.798889  9400 net.cpp:408] res4a_res4a_relu_0_split -> res4a_res4a_relu_0_split_1
I0725 16:33:13.798933  9400 net.cpp:150] Setting up res4a_res4a_relu_0_split
I0725 16:33:13.798941  9400 net.cpp:157] Top shape: 2 1024 38 38 (2957312)
I0725 16:33:13.798945  9400 net.cpp:157] Top shape: 2 1024 38 38 (2957312)
I0725 16:33:13.798948  9400 net.cpp:165] Memory required for data: 2710911008
I0725 16:33:13.798951  9400 layer_factory.hpp:77] Creating layer res4b1_branch2a
I0725 16:33:13.798960  9400 net.cpp:100] Creating Layer res4b1_branch2a
I0725 16:33:13.798964  9400 net.cpp:434] res4b1_branch2a <- res4a_res4a_relu_0_split_0
I0725 16:33:13.798969  9400 net.cpp:408] res4b1_branch2a -> res4b1_branch2a
I0725 16:33:13.802309  9400 net.cpp:150] Setting up res4b1_branch2a
I0725 16:33:13.802322  9400 net.cpp:157] Top shape: 2 256 38 38 (739328)
I0725 16:33:13.802338  9400 net.cpp:165] Memory required for data: 2713868320
I0725 16:33:13.802343  9400 layer_factory.hpp:77] Creating layer bn4b1_branch2a
I0725 16:33:13.802351  9400 net.cpp:100] Creating Layer bn4b1_branch2a
I0725 16:33:13.802356  9400 net.cpp:434] bn4b1_branch2a <- res4b1_branch2a
I0725 16:33:13.802361  9400 net.cpp:395] bn4b1_branch2a -> res4b1_branch2a (in-place)
I0725 16:33:13.802572  9400 net.cpp:150] Setting up bn4b1_branch2a
I0725 16:33:13.802582  9400 net.cpp:157] Top shape: 2 256 38 38 (739328)
I0725 16:33:13.802584  9400 net.cpp:165] Memory required for data: 2716825632
I0725 16:33:13.802592  9400 layer_factory.hpp:77] Creating layer scale4b1_branch2a
I0725 16:33:13.802598  9400 net.cpp:100] Creating Layer scale4b1_branch2a
I0725 16:33:13.802603  9400 net.cpp:434] scale4b1_branch2a <- res4b1_branch2a
I0725 16:33:13.802618  9400 net.cpp:395] scale4b1_branch2a -> res4b1_branch2a (in-place)
I0725 16:33:13.802666  9400 layer_factory.hpp:77] Creating layer scale4b1_branch2a
I0725 16:33:13.802790  9400 net.cpp:150] Setting up scale4b1_branch2a
I0725 16:33:13.802798  9400 net.cpp:157] Top shape: 2 256 38 38 (739328)
I0725 16:33:13.802800  9400 net.cpp:165] Memory required for data: 2719782944
I0725 16:33:13.802806  9400 layer_factory.hpp:77] Creating layer res4b1_branch2a_relu
I0725 16:33:13.802811  9400 net.cpp:100] Creating Layer res4b1_branch2a_relu
I0725 16:33:13.802814  9400 net.cpp:434] res4b1_branch2a_relu <- res4b1_branch2a
I0725 16:33:13.802820  9400 net.cpp:395] res4b1_branch2a_relu -> res4b1_branch2a (in-place)
I0725 16:33:13.803014  9400 net.cpp:150] Setting up res4b1_branch2a_relu
I0725 16:33:13.803025  9400 net.cpp:157] Top shape: 2 256 38 38 (739328)
I0725 16:33:13.803027  9400 net.cpp:165] Memory required for data: 2722740256
I0725 16:33:13.803031  9400 layer_factory.hpp:77] Creating layer res4b1_branch2b
I0725 16:33:13.803040  9400 net.cpp:100] Creating Layer res4b1_branch2b
I0725 16:33:13.803043  9400 net.cpp:434] res4b1_branch2b <- res4b1_branch2a
I0725 16:33:13.803051  9400 net.cpp:408] res4b1_branch2b -> res4b1_branch2b
I0725 16:33:13.810578  9400 net.cpp:150] Setting up res4b1_branch2b
I0725 16:33:13.810605  9400 net.cpp:157] Top shape: 2 256 38 38 (739328)
I0725 16:33:13.810608  9400 net.cpp:165] Memory required for data: 2725697568
I0725 16:33:13.810613  9400 layer_factory.hpp:77] Creating layer bn4b1_branch2b
I0725 16:33:13.810621  9400 net.cpp:100] Creating Layer bn4b1_branch2b
I0725 16:33:13.810624  9400 net.cpp:434] bn4b1_branch2b <- res4b1_branch2b
I0725 16:33:13.810629  9400 net.cpp:395] bn4b1_branch2b -> res4b1_branch2b (in-place)
I0725 16:33:13.810848  9400 net.cpp:150] Setting up bn4b1_branch2b
I0725 16:33:13.810859  9400 net.cpp:157] Top shape: 2 256 38 38 (739328)
I0725 16:33:13.810863  9400 net.cpp:165] Memory required for data: 2728654880
I0725 16:33:13.810868  9400 layer_factory.hpp:77] Creating layer scale4b1_branch2b
I0725 16:33:13.810875  9400 net.cpp:100] Creating Layer scale4b1_branch2b
I0725 16:33:13.810883  9400 net.cpp:434] scale4b1_branch2b <- res4b1_branch2b
I0725 16:33:13.810889  9400 net.cpp:395] scale4b1_branch2b -> res4b1_branch2b (in-place)
I0725 16:33:13.810932  9400 layer_factory.hpp:77] Creating layer scale4b1_branch2b
I0725 16:33:13.811058  9400 net.cpp:150] Setting up scale4b1_branch2b
I0725 16:33:13.811066  9400 net.cpp:157] Top shape: 2 256 38 38 (739328)
I0725 16:33:13.811069  9400 net.cpp:165] Memory required for data: 2731612192
I0725 16:33:13.811074  9400 layer_factory.hpp:77] Creating layer res4b1_branch2b_relu
I0725 16:33:13.811079  9400 net.cpp:100] Creating Layer res4b1_branch2b_relu
I0725 16:33:13.811084  9400 net.cpp:434] res4b1_branch2b_relu <- res4b1_branch2b
I0725 16:33:13.811089  9400 net.cpp:395] res4b1_branch2b_relu -> res4b1_branch2b (in-place)
I0725 16:33:13.811275  9400 net.cpp:150] Setting up res4b1_branch2b_relu
I0725 16:33:13.811285  9400 net.cpp:157] Top shape: 2 256 38 38 (739328)
I0725 16:33:13.811288  9400 net.cpp:165] Memory required for data: 2734569504
I0725 16:33:13.811291  9400 layer_factory.hpp:77] Creating layer res4b1_branch2c
I0725 16:33:13.811301  9400 net.cpp:100] Creating Layer res4b1_branch2c
I0725 16:33:13.811305  9400 net.cpp:434] res4b1_branch2c <- res4b1_branch2b
I0725 16:33:13.811311  9400 net.cpp:408] res4b1_branch2c -> res4b1_branch2c
I0725 16:33:13.815594  9400 net.cpp:150] Setting up res4b1_branch2c
I0725 16:33:13.815620  9400 net.cpp:157] Top shape: 2 1024 38 38 (2957312)
I0725 16:33:13.815623  9400 net.cpp:165] Memory required for data: 2746398752
I0725 16:33:13.815629  9400 layer_factory.hpp:77] Creating layer bn4b1_branch2c
I0725 16:33:13.815634  9400 net.cpp:100] Creating Layer bn4b1_branch2c
I0725 16:33:13.815639  9400 net.cpp:434] bn4b1_branch2c <- res4b1_branch2c
I0725 16:33:13.815645  9400 net.cpp:395] bn4b1_branch2c -> res4b1_branch2c (in-place)
I0725 16:33:13.815881  9400 net.cpp:150] Setting up bn4b1_branch2c
I0725 16:33:13.815891  9400 net.cpp:157] Top shape: 2 1024 38 38 (2957312)
I0725 16:33:13.815892  9400 net.cpp:165] Memory required for data: 2758228000
I0725 16:33:13.815899  9400 layer_factory.hpp:77] Creating layer scale4b1_branch2c
I0725 16:33:13.815906  9400 net.cpp:100] Creating Layer scale4b1_branch2c
I0725 16:33:13.815909  9400 net.cpp:434] scale4b1_branch2c <- res4b1_branch2c
I0725 16:33:13.815917  9400 net.cpp:395] scale4b1_branch2c -> res4b1_branch2c (in-place)
I0725 16:33:13.815958  9400 layer_factory.hpp:77] Creating layer scale4b1_branch2c
I0725 16:33:13.816100  9400 net.cpp:150] Setting up scale4b1_branch2c
I0725 16:33:13.816110  9400 net.cpp:157] Top shape: 2 1024 38 38 (2957312)
I0725 16:33:13.816118  9400 net.cpp:165] Memory required for data: 2770057248
I0725 16:33:13.816123  9400 layer_factory.hpp:77] Creating layer res4b1
I0725 16:33:13.816128  9400 net.cpp:100] Creating Layer res4b1
I0725 16:33:13.816133  9400 net.cpp:434] res4b1 <- res4a_res4a_relu_0_split_1
I0725 16:33:13.816136  9400 net.cpp:434] res4b1 <- res4b1_branch2c
I0725 16:33:13.816143  9400 net.cpp:408] res4b1 -> res4b1
I0725 16:33:13.816171  9400 net.cpp:150] Setting up res4b1
I0725 16:33:13.816179  9400 net.cpp:157] Top shape: 2 1024 38 38 (2957312)
I0725 16:33:13.816181  9400 net.cpp:165] Memory required for data: 2781886496
I0725 16:33:13.816184  9400 layer_factory.hpp:77] Creating layer res4b1_relu
I0725 16:33:13.816190  9400 net.cpp:100] Creating Layer res4b1_relu
I0725 16:33:13.816192  9400 net.cpp:434] res4b1_relu <- res4b1
I0725 16:33:13.816196  9400 net.cpp:395] res4b1_relu -> res4b1 (in-place)
I0725 16:33:13.816581  9400 net.cpp:150] Setting up res4b1_relu
I0725 16:33:13.816596  9400 net.cpp:157] Top shape: 2 1024 38 38 (2957312)
I0725 16:33:13.816610  9400 net.cpp:165] Memory required for data: 2793715744
I0725 16:33:13.816613  9400 layer_factory.hpp:77] Creating layer res4b1_res4b1_relu_0_split
I0725 16:33:13.816619  9400 net.cpp:100] Creating Layer res4b1_res4b1_relu_0_split
I0725 16:33:13.816623  9400 net.cpp:434] res4b1_res4b1_relu_0_split <- res4b1
I0725 16:33:13.816630  9400 net.cpp:408] res4b1_res4b1_relu_0_split -> res4b1_res4b1_relu_0_split_0
I0725 16:33:13.816637  9400 net.cpp:408] res4b1_res4b1_relu_0_split -> res4b1_res4b1_relu_0_split_1
I0725 16:33:13.816685  9400 net.cpp:150] Setting up res4b1_res4b1_relu_0_split
I0725 16:33:13.816692  9400 net.cpp:157] Top shape: 2 1024 38 38 (2957312)
I0725 16:33:13.816696  9400 net.cpp:157] Top shape: 2 1024 38 38 (2957312)
I0725 16:33:13.816699  9400 net.cpp:165] Memory required for data: 2817374240
I0725 16:33:13.816702  9400 layer_factory.hpp:77] Creating layer res4b2_branch2a
I0725 16:33:13.816714  9400 net.cpp:100] Creating Layer res4b2_branch2a
I0725 16:33:13.816716  9400 net.cpp:434] res4b2_branch2a <- res4b1_res4b1_relu_0_split_0
I0725 16:33:13.816721  9400 net.cpp:408] res4b2_branch2a -> res4b2_branch2a
I0725 16:33:13.819887  9400 net.cpp:150] Setting up res4b2_branch2a
I0725 16:33:13.819900  9400 net.cpp:157] Top shape: 2 256 38 38 (739328)
I0725 16:33:13.819916  9400 net.cpp:165] Memory required for data: 2820331552
I0725 16:33:13.819921  9400 layer_factory.hpp:77] Creating layer bn4b2_branch2a
I0725 16:33:13.819927  9400 net.cpp:100] Creating Layer bn4b2_branch2a
I0725 16:33:13.819931  9400 net.cpp:434] bn4b2_branch2a <- res4b2_branch2a
I0725 16:33:13.819936  9400 net.cpp:395] bn4b2_branch2a -> res4b2_branch2a (in-place)
I0725 16:33:13.820179  9400 net.cpp:150] Setting up bn4b2_branch2a
I0725 16:33:13.820189  9400 net.cpp:157] Top shape: 2 256 38 38 (739328)
I0725 16:33:13.820192  9400 net.cpp:165] Memory required for data: 2823288864
I0725 16:33:13.820199  9400 layer_factory.hpp:77] Creating layer scale4b2_branch2a
I0725 16:33:13.820205  9400 net.cpp:100] Creating Layer scale4b2_branch2a
I0725 16:33:13.820209  9400 net.cpp:434] scale4b2_branch2a <- res4b2_branch2a
I0725 16:33:13.820214  9400 net.cpp:395] scale4b2_branch2a -> res4b2_branch2a (in-place)
I0725 16:33:13.820261  9400 layer_factory.hpp:77] Creating layer scale4b2_branch2a
I0725 16:33:13.820405  9400 net.cpp:150] Setting up scale4b2_branch2a
I0725 16:33:13.820416  9400 net.cpp:157] Top shape: 2 256 38 38 (739328)
I0725 16:33:13.820420  9400 net.cpp:165] Memory required for data: 2826246176
I0725 16:33:13.820425  9400 layer_factory.hpp:77] Creating layer res4b2_branch2a_relu
I0725 16:33:13.820430  9400 net.cpp:100] Creating Layer res4b2_branch2a_relu
I0725 16:33:13.820432  9400 net.cpp:434] res4b2_branch2a_relu <- res4b2_branch2a
I0725 16:33:13.820437  9400 net.cpp:395] res4b2_branch2a_relu -> res4b2_branch2a (in-place)
I0725 16:33:13.820631  9400 net.cpp:150] Setting up res4b2_branch2a_relu
I0725 16:33:13.820641  9400 net.cpp:157] Top shape: 2 256 38 38 (739328)
I0725 16:33:13.820644  9400 net.cpp:165] Memory required for data: 2829203488
I0725 16:33:13.820648  9400 layer_factory.hpp:77] Creating layer res4b2_branch2b
I0725 16:33:13.820657  9400 net.cpp:100] Creating Layer res4b2_branch2b
I0725 16:33:13.820662  9400 net.cpp:434] res4b2_branch2b <- res4b2_branch2a
I0725 16:33:13.820668  9400 net.cpp:408] res4b2_branch2b -> res4b2_branch2b
I0725 16:33:13.827898  9400 net.cpp:150] Setting up res4b2_branch2b
I0725 16:33:13.827924  9400 net.cpp:157] Top shape: 2 256 38 38 (739328)
I0725 16:33:13.827926  9400 net.cpp:165] Memory required for data: 2832160800
I0725 16:33:13.827932  9400 layer_factory.hpp:77] Creating layer bn4b2_branch2b
I0725 16:33:13.827939  9400 net.cpp:100] Creating Layer bn4b2_branch2b
I0725 16:33:13.827944  9400 net.cpp:434] bn4b2_branch2b <- res4b2_branch2b
I0725 16:33:13.827949  9400 net.cpp:395] bn4b2_branch2b -> res4b2_branch2b (in-place)
I0725 16:33:13.828194  9400 net.cpp:150] Setting up bn4b2_branch2b
I0725 16:33:13.828203  9400 net.cpp:157] Top shape: 2 256 38 38 (739328)
I0725 16:33:13.828207  9400 net.cpp:165] Memory required for data: 2835118112
I0725 16:33:13.828213  9400 layer_factory.hpp:77] Creating layer scale4b2_branch2b
I0725 16:33:13.828220  9400 net.cpp:100] Creating Layer scale4b2_branch2b
I0725 16:33:13.828223  9400 net.cpp:434] scale4b2_branch2b <- res4b2_branch2b
I0725 16:33:13.828228  9400 net.cpp:395] scale4b2_branch2b -> res4b2_branch2b (in-place)
I0725 16:33:13.828275  9400 layer_factory.hpp:77] Creating layer scale4b2_branch2b
I0725 16:33:13.828405  9400 net.cpp:150] Setting up scale4b2_branch2b
I0725 16:33:13.828415  9400 net.cpp:157] Top shape: 2 256 38 38 (739328)
I0725 16:33:13.828418  9400 net.cpp:165] Memory required for data: 2838075424
I0725 16:33:13.828423  9400 layer_factory.hpp:77] Creating layer res4b2_branch2b_relu
I0725 16:33:13.828428  9400 net.cpp:100] Creating Layer res4b2_branch2b_relu
I0725 16:33:13.828431  9400 net.cpp:434] res4b2_branch2b_relu <- res4b2_branch2b
I0725 16:33:13.828435  9400 net.cpp:395] res4b2_branch2b_relu -> res4b2_branch2b (in-place)
I0725 16:33:13.828634  9400 net.cpp:150] Setting up res4b2_branch2b_relu
I0725 16:33:13.828645  9400 net.cpp:157] Top shape: 2 256 38 38 (739328)
I0725 16:33:13.828647  9400 net.cpp:165] Memory required for data: 2841032736
I0725 16:33:13.828651  9400 layer_factory.hpp:77] Creating layer res4b2_branch2c
I0725 16:33:13.828660  9400 net.cpp:100] Creating Layer res4b2_branch2c
I0725 16:33:13.828663  9400 net.cpp:434] res4b2_branch2c <- res4b2_branch2b
I0725 16:33:13.828670  9400 net.cpp:408] res4b2_branch2c -> res4b2_branch2c
I0725 16:33:13.832748  9400 net.cpp:150] Setting up res4b2_branch2c
I0725 16:33:13.832762  9400 net.cpp:157] Top shape: 2 1024 38 38 (2957312)
I0725 16:33:13.832777  9400 net.cpp:165] Memory required for data: 2852861984
I0725 16:33:13.832782  9400 layer_factory.hpp:77] Creating layer bn4b2_branch2c
I0725 16:33:13.832789  9400 net.cpp:100] Creating Layer bn4b2_branch2c
I0725 16:33:13.832793  9400 net.cpp:434] bn4b2_branch2c <- res4b2_branch2c
I0725 16:33:13.832798  9400 net.cpp:395] bn4b2_branch2c -> res4b2_branch2c (in-place)
I0725 16:33:13.833034  9400 net.cpp:150] Setting up bn4b2_branch2c
I0725 16:33:13.833042  9400 net.cpp:157] Top shape: 2 1024 38 38 (2957312)
I0725 16:33:13.833045  9400 net.cpp:165] Memory required for data: 2864691232
I0725 16:33:13.833063  9400 layer_factory.hpp:77] Creating layer scale4b2_branch2c
I0725 16:33:13.833072  9400 net.cpp:100] Creating Layer scale4b2_branch2c
I0725 16:33:13.833076  9400 net.cpp:434] scale4b2_branch2c <- res4b2_branch2c
I0725 16:33:13.833081  9400 net.cpp:395] scale4b2_branch2c -> res4b2_branch2c (in-place)
I0725 16:33:13.833125  9400 layer_factory.hpp:77] Creating layer scale4b2_branch2c
I0725 16:33:13.833266  9400 net.cpp:150] Setting up scale4b2_branch2c
I0725 16:33:13.833273  9400 net.cpp:157] Top shape: 2 1024 38 38 (2957312)
I0725 16:33:13.833276  9400 net.cpp:165] Memory required for data: 2876520480
I0725 16:33:13.833281  9400 layer_factory.hpp:77] Creating layer res4b2
I0725 16:33:13.833288  9400 net.cpp:100] Creating Layer res4b2
I0725 16:33:13.833292  9400 net.cpp:434] res4b2 <- res4b1_res4b1_relu_0_split_1
I0725 16:33:13.833295  9400 net.cpp:434] res4b2 <- res4b2_branch2c
I0725 16:33:13.833300  9400 net.cpp:408] res4b2 -> res4b2
I0725 16:33:13.833339  9400 net.cpp:150] Setting up res4b2
I0725 16:33:13.833346  9400 net.cpp:157] Top shape: 2 1024 38 38 (2957312)
I0725 16:33:13.833348  9400 net.cpp:165] Memory required for data: 2888349728
I0725 16:33:13.833351  9400 layer_factory.hpp:77] Creating layer res4b2_relu
I0725 16:33:13.833356  9400 net.cpp:100] Creating Layer res4b2_relu
I0725 16:33:13.833359  9400 net.cpp:434] res4b2_relu <- res4b2
I0725 16:33:13.833364  9400 net.cpp:395] res4b2_relu -> res4b2 (in-place)
I0725 16:33:13.833757  9400 net.cpp:150] Setting up res4b2_relu
I0725 16:33:13.833770  9400 net.cpp:157] Top shape: 2 1024 38 38 (2957312)
I0725 16:33:13.833783  9400 net.cpp:165] Memory required for data: 2900178976
I0725 16:33:13.833787  9400 layer_factory.hpp:77] Creating layer res4b2_res4b2_relu_0_split
I0725 16:33:13.833793  9400 net.cpp:100] Creating Layer res4b2_res4b2_relu_0_split
I0725 16:33:13.833796  9400 net.cpp:434] res4b2_res4b2_relu_0_split <- res4b2
I0725 16:33:13.833804  9400 net.cpp:408] res4b2_res4b2_relu_0_split -> res4b2_res4b2_relu_0_split_0
I0725 16:33:13.833811  9400 net.cpp:408] res4b2_res4b2_relu_0_split -> res4b2_res4b2_relu_0_split_1
I0725 16:33:13.833873  9400 net.cpp:150] Setting up res4b2_res4b2_relu_0_split
I0725 16:33:13.833879  9400 net.cpp:157] Top shape: 2 1024 38 38 (2957312)
I0725 16:33:13.833884  9400 net.cpp:157] Top shape: 2 1024 38 38 (2957312)
I0725 16:33:13.833886  9400 net.cpp:165] Memory required for data: 2923837472
I0725 16:33:13.833889  9400 layer_factory.hpp:77] Creating layer res4b3_branch2a
I0725 16:33:13.833899  9400 net.cpp:100] Creating Layer res4b3_branch2a
I0725 16:33:13.833902  9400 net.cpp:434] res4b3_branch2a <- res4b2_res4b2_relu_0_split_0
I0725 16:33:13.833909  9400 net.cpp:408] res4b3_branch2a -> res4b3_branch2a
I0725 16:33:13.837082  9400 net.cpp:150] Setting up res4b3_branch2a
I0725 16:33:13.837095  9400 net.cpp:157] Top shape: 2 256 38 38 (739328)
I0725 16:33:13.837112  9400 net.cpp:165] Memory required for data: 2926794784
I0725 16:33:13.837117  9400 layer_factory.hpp:77] Creating layer bn4b3_branch2a
I0725 16:33:13.837123  9400 net.cpp:100] Creating Layer bn4b3_branch2a
I0725 16:33:13.837127  9400 net.cpp:434] bn4b3_branch2a <- res4b3_branch2a
I0725 16:33:13.837132  9400 net.cpp:395] bn4b3_branch2a -> res4b3_branch2a (in-place)
I0725 16:33:13.837369  9400 net.cpp:150] Setting up bn4b3_branch2a
I0725 16:33:13.837378  9400 net.cpp:157] Top shape: 2 256 38 38 (739328)
I0725 16:33:13.837381  9400 net.cpp:165] Memory required for data: 2929752096
I0725 16:33:13.837388  9400 layer_factory.hpp:77] Creating layer scale4b3_branch2a
I0725 16:33:13.837394  9400 net.cpp:100] Creating Layer scale4b3_branch2a
I0725 16:33:13.837397  9400 net.cpp:434] scale4b3_branch2a <- res4b3_branch2a
I0725 16:33:13.837404  9400 net.cpp:395] scale4b3_branch2a -> res4b3_branch2a (in-place)
I0725 16:33:13.837450  9400 layer_factory.hpp:77] Creating layer scale4b3_branch2a
I0725 16:33:13.837582  9400 net.cpp:150] Setting up scale4b3_branch2a
I0725 16:33:13.837590  9400 net.cpp:157] Top shape: 2 256 38 38 (739328)
I0725 16:33:13.837594  9400 net.cpp:165] Memory required for data: 2932709408
I0725 16:33:13.837610  9400 layer_factory.hpp:77] Creating layer res4b3_branch2a_relu
I0725 16:33:13.837615  9400 net.cpp:100] Creating Layer res4b3_branch2a_relu
I0725 16:33:13.837618  9400 net.cpp:434] res4b3_branch2a_relu <- res4b3_branch2a
I0725 16:33:13.837622  9400 net.cpp:395] res4b3_branch2a_relu -> res4b3_branch2a (in-place)
I0725 16:33:13.837818  9400 net.cpp:150] Setting up res4b3_branch2a_relu
I0725 16:33:13.837829  9400 net.cpp:157] Top shape: 2 256 38 38 (739328)
I0725 16:33:13.837831  9400 net.cpp:165] Memory required for data: 2935666720
I0725 16:33:13.837836  9400 layer_factory.hpp:77] Creating layer res4b3_branch2b
I0725 16:33:13.837846  9400 net.cpp:100] Creating Layer res4b3_branch2b
I0725 16:33:13.837852  9400 net.cpp:434] res4b3_branch2b <- res4b3_branch2a
I0725 16:33:13.837857  9400 net.cpp:408] res4b3_branch2b -> res4b3_branch2b
I0725 16:33:13.844990  9400 net.cpp:150] Setting up res4b3_branch2b
I0725 16:33:13.845018  9400 net.cpp:157] Top shape: 2 256 38 38 (739328)
I0725 16:33:13.845021  9400 net.cpp:165] Memory required for data: 2938624032
I0725 16:33:13.845026  9400 layer_factory.hpp:77] Creating layer bn4b3_branch2b
I0725 16:33:13.845032  9400 net.cpp:100] Creating Layer bn4b3_branch2b
I0725 16:33:13.845036  9400 net.cpp:434] bn4b3_branch2b <- res4b3_branch2b
I0725 16:33:13.845042  9400 net.cpp:395] bn4b3_branch2b -> res4b3_branch2b (in-place)
I0725 16:33:13.845279  9400 net.cpp:150] Setting up bn4b3_branch2b
I0725 16:33:13.845289  9400 net.cpp:157] Top shape: 2 256 38 38 (739328)
I0725 16:33:13.845293  9400 net.cpp:165] Memory required for data: 2941581344
I0725 16:33:13.845299  9400 layer_factory.hpp:77] Creating layer scale4b3_branch2b
I0725 16:33:13.845305  9400 net.cpp:100] Creating Layer scale4b3_branch2b
I0725 16:33:13.845309  9400 net.cpp:434] scale4b3_branch2b <- res4b3_branch2b
I0725 16:33:13.845315  9400 net.cpp:395] scale4b3_branch2b -> res4b3_branch2b (in-place)
I0725 16:33:13.845360  9400 layer_factory.hpp:77] Creating layer scale4b3_branch2b
I0725 16:33:13.845492  9400 net.cpp:150] Setting up scale4b3_branch2b
I0725 16:33:13.845500  9400 net.cpp:157] Top shape: 2 256 38 38 (739328)
I0725 16:33:13.845504  9400 net.cpp:165] Memory required for data: 2944538656
I0725 16:33:13.845508  9400 layer_factory.hpp:77] Creating layer res4b3_branch2b_relu
I0725 16:33:13.845515  9400 net.cpp:100] Creating Layer res4b3_branch2b_relu
I0725 16:33:13.845517  9400 net.cpp:434] res4b3_branch2b_relu <- res4b3_branch2b
I0725 16:33:13.845523  9400 net.cpp:395] res4b3_branch2b_relu -> res4b3_branch2b (in-place)
I0725 16:33:13.845723  9400 net.cpp:150] Setting up res4b3_branch2b_relu
I0725 16:33:13.845736  9400 net.cpp:157] Top shape: 2 256 38 38 (739328)
I0725 16:33:13.845738  9400 net.cpp:165] Memory required for data: 2947495968
I0725 16:33:13.845741  9400 layer_factory.hpp:77] Creating layer res4b3_branch2c
I0725 16:33:13.845751  9400 net.cpp:100] Creating Layer res4b3_branch2c
I0725 16:33:13.845754  9400 net.cpp:434] res4b3_branch2c <- res4b3_branch2b
I0725 16:33:13.845759  9400 net.cpp:408] res4b3_branch2c -> res4b3_branch2c
I0725 16:33:13.849856  9400 net.cpp:150] Setting up res4b3_branch2c
I0725 16:33:13.849881  9400 net.cpp:157] Top shape: 2 1024 38 38 (2957312)
I0725 16:33:13.849885  9400 net.cpp:165] Memory required for data: 2959325216
I0725 16:33:13.849890  9400 layer_factory.hpp:77] Creating layer bn4b3_branch2c
I0725 16:33:13.849897  9400 net.cpp:100] Creating Layer bn4b3_branch2c
I0725 16:33:13.849901  9400 net.cpp:434] bn4b3_branch2c <- res4b3_branch2c
I0725 16:33:13.849907  9400 net.cpp:395] bn4b3_branch2c -> res4b3_branch2c (in-place)
I0725 16:33:13.850147  9400 net.cpp:150] Setting up bn4b3_branch2c
I0725 16:33:13.850155  9400 net.cpp:157] Top shape: 2 1024 38 38 (2957312)
I0725 16:33:13.850158  9400 net.cpp:165] Memory required for data: 2971154464
I0725 16:33:13.850164  9400 layer_factory.hpp:77] Creating layer scale4b3_branch2c
I0725 16:33:13.850173  9400 net.cpp:100] Creating Layer scale4b3_branch2c
I0725 16:33:13.850177  9400 net.cpp:434] scale4b3_branch2c <- res4b3_branch2c
I0725 16:33:13.850193  9400 net.cpp:395] scale4b3_branch2c -> res4b3_branch2c (in-place)
I0725 16:33:13.850239  9400 layer_factory.hpp:77] Creating layer scale4b3_branch2c
I0725 16:33:13.850379  9400 net.cpp:150] Setting up scale4b3_branch2c
I0725 16:33:13.850387  9400 net.cpp:157] Top shape: 2 1024 38 38 (2957312)
I0725 16:33:13.850390  9400 net.cpp:165] Memory required for data: 2982983712
I0725 16:33:13.850396  9400 layer_factory.hpp:77] Creating layer res4b3
I0725 16:33:13.850401  9400 net.cpp:100] Creating Layer res4b3
I0725 16:33:13.850404  9400 net.cpp:434] res4b3 <- res4b2_res4b2_relu_0_split_1
I0725 16:33:13.850409  9400 net.cpp:434] res4b3 <- res4b3_branch2c
I0725 16:33:13.850415  9400 net.cpp:408] res4b3 -> res4b3
I0725 16:33:13.850453  9400 net.cpp:150] Setting up res4b3
I0725 16:33:13.850461  9400 net.cpp:157] Top shape: 2 1024 38 38 (2957312)
I0725 16:33:13.850463  9400 net.cpp:165] Memory required for data: 2994812960
I0725 16:33:13.850467  9400 layer_factory.hpp:77] Creating layer res4b3_relu
I0725 16:33:13.850473  9400 net.cpp:100] Creating Layer res4b3_relu
I0725 16:33:13.850476  9400 net.cpp:434] res4b3_relu <- res4b3
I0725 16:33:13.850481  9400 net.cpp:395] res4b3_relu -> res4b3 (in-place)
I0725 16:33:13.850674  9400 net.cpp:150] Setting up res4b3_relu
I0725 16:33:13.850687  9400 net.cpp:157] Top shape: 2 1024 38 38 (2957312)
I0725 16:33:13.850689  9400 net.cpp:165] Memory required for data: 3006642208
I0725 16:33:13.850692  9400 layer_factory.hpp:77] Creating layer res4b3_res4b3_relu_0_split
I0725 16:33:13.850698  9400 net.cpp:100] Creating Layer res4b3_res4b3_relu_0_split
I0725 16:33:13.850702  9400 net.cpp:434] res4b3_res4b3_relu_0_split <- res4b3
I0725 16:33:13.850706  9400 net.cpp:408] res4b3_res4b3_relu_0_split -> res4b3_res4b3_relu_0_split_0
I0725 16:33:13.850714  9400 net.cpp:408] res4b3_res4b3_relu_0_split -> res4b3_res4b3_relu_0_split_1
I0725 16:33:13.850761  9400 net.cpp:150] Setting up res4b3_res4b3_relu_0_split
I0725 16:33:13.850769  9400 net.cpp:157] Top shape: 2 1024 38 38 (2957312)
I0725 16:33:13.850772  9400 net.cpp:157] Top shape: 2 1024 38 38 (2957312)
I0725 16:33:13.850775  9400 net.cpp:165] Memory required for data: 3030300704
I0725 16:33:13.850777  9400 layer_factory.hpp:77] Creating layer res4b4_branch2a
I0725 16:33:13.850788  9400 net.cpp:100] Creating Layer res4b4_branch2a
I0725 16:33:13.850792  9400 net.cpp:434] res4b4_branch2a <- res4b3_res4b3_relu_0_split_0
I0725 16:33:13.850797  9400 net.cpp:408] res4b4_branch2a -> res4b4_branch2a
I0725 16:33:13.853973  9400 net.cpp:150] Setting up res4b4_branch2a
I0725 16:33:13.853998  9400 net.cpp:157] Top shape: 2 256 38 38 (739328)
I0725 16:33:13.854002  9400 net.cpp:165] Memory required for data: 3033258016
I0725 16:33:13.854008  9400 layer_factory.hpp:77] Creating layer bn4b4_branch2a
I0725 16:33:13.854014  9400 net.cpp:100] Creating Layer bn4b4_branch2a
I0725 16:33:13.854017  9400 net.cpp:434] bn4b4_branch2a <- res4b4_branch2a
I0725 16:33:13.854023  9400 net.cpp:395] bn4b4_branch2a -> res4b4_branch2a (in-place)
I0725 16:33:13.854259  9400 net.cpp:150] Setting up bn4b4_branch2a
I0725 16:33:13.854269  9400 net.cpp:157] Top shape: 2 256 38 38 (739328)
I0725 16:33:13.854272  9400 net.cpp:165] Memory required for data: 3036215328
I0725 16:33:13.854279  9400 layer_factory.hpp:77] Creating layer scale4b4_branch2a
I0725 16:33:13.854285  9400 net.cpp:100] Creating Layer scale4b4_branch2a
I0725 16:33:13.854288  9400 net.cpp:434] scale4b4_branch2a <- res4b4_branch2a
I0725 16:33:13.854292  9400 net.cpp:395] scale4b4_branch2a -> res4b4_branch2a (in-place)
I0725 16:33:13.854341  9400 layer_factory.hpp:77] Creating layer scale4b4_branch2a
I0725 16:33:13.854471  9400 net.cpp:150] Setting up scale4b4_branch2a
I0725 16:33:13.854480  9400 net.cpp:157] Top shape: 2 256 38 38 (739328)
I0725 16:33:13.854482  9400 net.cpp:165] Memory required for data: 3039172640
I0725 16:33:13.854487  9400 layer_factory.hpp:77] Creating layer res4b4_branch2a_relu
I0725 16:33:13.854495  9400 net.cpp:100] Creating Layer res4b4_branch2a_relu
I0725 16:33:13.854508  9400 net.cpp:434] res4b4_branch2a_relu <- res4b4_branch2a
I0725 16:33:13.854514  9400 net.cpp:395] res4b4_branch2a_relu -> res4b4_branch2a (in-place)
I0725 16:33:13.854712  9400 net.cpp:150] Setting up res4b4_branch2a_relu
I0725 16:33:13.854723  9400 net.cpp:157] Top shape: 2 256 38 38 (739328)
I0725 16:33:13.854727  9400 net.cpp:165] Memory required for data: 3042129952
I0725 16:33:13.854729  9400 layer_factory.hpp:77] Creating layer res4b4_branch2b
I0725 16:33:13.854738  9400 net.cpp:100] Creating Layer res4b4_branch2b
I0725 16:33:13.854743  9400 net.cpp:434] res4b4_branch2b <- res4b4_branch2a
I0725 16:33:13.854748  9400 net.cpp:408] res4b4_branch2b -> res4b4_branch2b
I0725 16:33:13.861888  9400 net.cpp:150] Setting up res4b4_branch2b
I0725 16:33:13.861902  9400 net.cpp:157] Top shape: 2 256 38 38 (739328)
I0725 16:33:13.861915  9400 net.cpp:165] Memory required for data: 3045087264
I0725 16:33:13.861922  9400 layer_factory.hpp:77] Creating layer bn4b4_branch2b
I0725 16:33:13.861929  9400 net.cpp:100] Creating Layer bn4b4_branch2b
I0725 16:33:13.861933  9400 net.cpp:434] bn4b4_branch2b <- res4b4_branch2b
I0725 16:33:13.861937  9400 net.cpp:395] bn4b4_branch2b -> res4b4_branch2b (in-place)
I0725 16:33:13.862160  9400 net.cpp:150] Setting up bn4b4_branch2b
I0725 16:33:13.862174  9400 net.cpp:157] Top shape: 2 256 38 38 (739328)
I0725 16:33:13.862176  9400 net.cpp:165] Memory required for data: 3048044576
I0725 16:33:13.862182  9400 layer_factory.hpp:77] Creating layer scale4b4_branch2b
I0725 16:33:13.862188  9400 net.cpp:100] Creating Layer scale4b4_branch2b
I0725 16:33:13.862192  9400 net.cpp:434] scale4b4_branch2b <- res4b4_branch2b
I0725 16:33:13.862196  9400 net.cpp:395] scale4b4_branch2b -> res4b4_branch2b (in-place)
I0725 16:33:13.862246  9400 layer_factory.hpp:77] Creating layer scale4b4_branch2b
I0725 16:33:13.862373  9400 net.cpp:150] Setting up scale4b4_branch2b
I0725 16:33:13.862382  9400 net.cpp:157] Top shape: 2 256 38 38 (739328)
I0725 16:33:13.862385  9400 net.cpp:165] Memory required for data: 3051001888
I0725 16:33:13.862390  9400 layer_factory.hpp:77] Creating layer res4b4_branch2b_relu
I0725 16:33:13.862397  9400 net.cpp:100] Creating Layer res4b4_branch2b_relu
I0725 16:33:13.862401  9400 net.cpp:434] res4b4_branch2b_relu <- res4b4_branch2b
I0725 16:33:13.862404  9400 net.cpp:395] res4b4_branch2b_relu -> res4b4_branch2b (in-place)
I0725 16:33:13.862592  9400 net.cpp:150] Setting up res4b4_branch2b_relu
I0725 16:33:13.862602  9400 net.cpp:157] Top shape: 2 256 38 38 (739328)
I0725 16:33:13.862606  9400 net.cpp:165] Memory required for data: 3053959200
I0725 16:33:13.862608  9400 layer_factory.hpp:77] Creating layer res4b4_branch2c
I0725 16:33:13.862618  9400 net.cpp:100] Creating Layer res4b4_branch2c
I0725 16:33:13.862622  9400 net.cpp:434] res4b4_branch2c <- res4b4_branch2b
I0725 16:33:13.862628  9400 net.cpp:408] res4b4_branch2c -> res4b4_branch2c
I0725 16:33:13.866766  9400 net.cpp:150] Setting up res4b4_branch2c
I0725 16:33:13.866791  9400 net.cpp:157] Top shape: 2 1024 38 38 (2957312)
I0725 16:33:13.866794  9400 net.cpp:165] Memory required for data: 3065788448
I0725 16:33:13.866799  9400 layer_factory.hpp:77] Creating layer bn4b4_branch2c
I0725 16:33:13.866806  9400 net.cpp:100] Creating Layer bn4b4_branch2c
I0725 16:33:13.866808  9400 net.cpp:434] bn4b4_branch2c <- res4b4_branch2c
I0725 16:33:13.866816  9400 net.cpp:395] bn4b4_branch2c -> res4b4_branch2c (in-place)
I0725 16:33:13.867056  9400 net.cpp:150] Setting up bn4b4_branch2c
I0725 16:33:13.867065  9400 net.cpp:157] Top shape: 2 1024 38 38 (2957312)
I0725 16:33:13.867069  9400 net.cpp:165] Memory required for data: 3077617696
I0725 16:33:13.867075  9400 layer_factory.hpp:77] Creating layer scale4b4_branch2c
I0725 16:33:13.867081  9400 net.cpp:100] Creating Layer scale4b4_branch2c
I0725 16:33:13.867085  9400 net.cpp:434] scale4b4_branch2c <- res4b4_branch2c
I0725 16:33:13.867091  9400 net.cpp:395] scale4b4_branch2c -> res4b4_branch2c (in-place)
I0725 16:33:13.867136  9400 layer_factory.hpp:77] Creating layer scale4b4_branch2c
I0725 16:33:13.867290  9400 net.cpp:150] Setting up scale4b4_branch2c
I0725 16:33:13.867300  9400 net.cpp:157] Top shape: 2 1024 38 38 (2957312)
I0725 16:33:13.867302  9400 net.cpp:165] Memory required for data: 3089446944
I0725 16:33:13.867307  9400 layer_factory.hpp:77] Creating layer res4b4
I0725 16:33:13.867314  9400 net.cpp:100] Creating Layer res4b4
I0725 16:33:13.867318  9400 net.cpp:434] res4b4 <- res4b3_res4b3_relu_0_split_1
I0725 16:33:13.867322  9400 net.cpp:434] res4b4 <- res4b4_branch2c
I0725 16:33:13.867327  9400 net.cpp:408] res4b4 -> res4b4
I0725 16:33:13.867368  9400 net.cpp:150] Setting up res4b4
I0725 16:33:13.867375  9400 net.cpp:157] Top shape: 2 1024 38 38 (2957312)
I0725 16:33:13.867378  9400 net.cpp:165] Memory required for data: 3101276192
I0725 16:33:13.867382  9400 layer_factory.hpp:77] Creating layer res4b4_relu
I0725 16:33:13.867385  9400 net.cpp:100] Creating Layer res4b4_relu
I0725 16:33:13.867388  9400 net.cpp:434] res4b4_relu <- res4b4
I0725 16:33:13.867394  9400 net.cpp:395] res4b4_relu -> res4b4 (in-place)
I0725 16:33:13.867792  9400 net.cpp:150] Setting up res4b4_relu
I0725 16:33:13.867805  9400 net.cpp:157] Top shape: 2 1024 38 38 (2957312)
I0725 16:33:13.867820  9400 net.cpp:165] Memory required for data: 3113105440
I0725 16:33:13.867822  9400 layer_factory.hpp:77] Creating layer res4b4_res4b4_relu_0_split
I0725 16:33:13.867827  9400 net.cpp:100] Creating Layer res4b4_res4b4_relu_0_split
I0725 16:33:13.867831  9400 net.cpp:434] res4b4_res4b4_relu_0_split <- res4b4
I0725 16:33:13.867838  9400 net.cpp:408] res4b4_res4b4_relu_0_split -> res4b4_res4b4_relu_0_split_0
I0725 16:33:13.867844  9400 net.cpp:408] res4b4_res4b4_relu_0_split -> res4b4_res4b4_relu_0_split_1
I0725 16:33:13.867908  9400 net.cpp:150] Setting up res4b4_res4b4_relu_0_split
I0725 16:33:13.867915  9400 net.cpp:157] Top shape: 2 1024 38 38 (2957312)
I0725 16:33:13.867919  9400 net.cpp:157] Top shape: 2 1024 38 38 (2957312)
I0725 16:33:13.867923  9400 net.cpp:165] Memory required for data: 3136763936
I0725 16:33:13.867925  9400 layer_factory.hpp:77] Creating layer res4b5_branch2a
I0725 16:33:13.867935  9400 net.cpp:100] Creating Layer res4b5_branch2a
I0725 16:33:13.867938  9400 net.cpp:434] res4b5_branch2a <- res4b4_res4b4_relu_0_split_0
I0725 16:33:13.867944  9400 net.cpp:408] res4b5_branch2a -> res4b5_branch2a
I0725 16:33:13.871135  9400 net.cpp:150] Setting up res4b5_branch2a
I0725 16:33:13.871150  9400 net.cpp:157] Top shape: 2 256 38 38 (739328)
I0725 16:33:13.871163  9400 net.cpp:165] Memory required for data: 3139721248
I0725 16:33:13.871170  9400 layer_factory.hpp:77] Creating layer bn4b5_branch2a
I0725 16:33:13.871177  9400 net.cpp:100] Creating Layer bn4b5_branch2a
I0725 16:33:13.871181  9400 net.cpp:434] bn4b5_branch2a <- res4b5_branch2a
I0725 16:33:13.871186  9400 net.cpp:395] bn4b5_branch2a -> res4b5_branch2a (in-place)
I0725 16:33:13.871428  9400 net.cpp:150] Setting up bn4b5_branch2a
I0725 16:33:13.871436  9400 net.cpp:157] Top shape: 2 256 38 38 (739328)
I0725 16:33:13.871439  9400 net.cpp:165] Memory required for data: 3142678560
I0725 16:33:13.871445  9400 layer_factory.hpp:77] Creating layer scale4b5_branch2a
I0725 16:33:13.871453  9400 net.cpp:100] Creating Layer scale4b5_branch2a
I0725 16:33:13.871455  9400 net.cpp:434] scale4b5_branch2a <- res4b5_branch2a
I0725 16:33:13.871459  9400 net.cpp:395] scale4b5_branch2a -> res4b5_branch2a (in-place)
I0725 16:33:13.871507  9400 layer_factory.hpp:77] Creating layer scale4b5_branch2a
I0725 16:33:13.871642  9400 net.cpp:150] Setting up scale4b5_branch2a
I0725 16:33:13.871650  9400 net.cpp:157] Top shape: 2 256 38 38 (739328)
I0725 16:33:13.871654  9400 net.cpp:165] Memory required for data: 3145635872
I0725 16:33:13.871659  9400 layer_factory.hpp:77] Creating layer res4b5_branch2a_relu
I0725 16:33:13.871665  9400 net.cpp:100] Creating Layer res4b5_branch2a_relu
I0725 16:33:13.871667  9400 net.cpp:434] res4b5_branch2a_relu <- res4b5_branch2a
I0725 16:33:13.871672  9400 net.cpp:395] res4b5_branch2a_relu -> res4b5_branch2a (in-place)
I0725 16:33:13.871884  9400 net.cpp:150] Setting up res4b5_branch2a_relu
I0725 16:33:13.871894  9400 net.cpp:157] Top shape: 2 256 38 38 (739328)
I0725 16:33:13.871897  9400 net.cpp:165] Memory required for data: 3148593184
I0725 16:33:13.871901  9400 layer_factory.hpp:77] Creating layer res4b5_branch2b
I0725 16:33:13.871912  9400 net.cpp:100] Creating Layer res4b5_branch2b
I0725 16:33:13.871918  9400 net.cpp:434] res4b5_branch2b <- res4b5_branch2a
I0725 16:33:13.871923  9400 net.cpp:408] res4b5_branch2b -> res4b5_branch2b
I0725 16:33:13.879472  9400 net.cpp:150] Setting up res4b5_branch2b
I0725 16:33:13.879496  9400 net.cpp:157] Top shape: 2 256 38 38 (739328)
I0725 16:33:13.879500  9400 net.cpp:165] Memory required for data: 3151550496
I0725 16:33:13.879505  9400 layer_factory.hpp:77] Creating layer bn4b5_branch2b
I0725 16:33:13.879513  9400 net.cpp:100] Creating Layer bn4b5_branch2b
I0725 16:33:13.879518  9400 net.cpp:434] bn4b5_branch2b <- res4b5_branch2b
I0725 16:33:13.879523  9400 net.cpp:395] bn4b5_branch2b -> res4b5_branch2b (in-place)
I0725 16:33:13.879758  9400 net.cpp:150] Setting up bn4b5_branch2b
I0725 16:33:13.879767  9400 net.cpp:157] Top shape: 2 256 38 38 (739328)
I0725 16:33:13.879770  9400 net.cpp:165] Memory required for data: 3154507808
I0725 16:33:13.879776  9400 layer_factory.hpp:77] Creating layer scale4b5_branch2b
I0725 16:33:13.879782  9400 net.cpp:100] Creating Layer scale4b5_branch2b
I0725 16:33:13.879786  9400 net.cpp:434] scale4b5_branch2b <- res4b5_branch2b
I0725 16:33:13.879792  9400 net.cpp:395] scale4b5_branch2b -> res4b5_branch2b (in-place)
I0725 16:33:13.879839  9400 layer_factory.hpp:77] Creating layer scale4b5_branch2b
I0725 16:33:13.879976  9400 net.cpp:150] Setting up scale4b5_branch2b
I0725 16:33:13.879986  9400 net.cpp:157] Top shape: 2 256 38 38 (739328)
I0725 16:33:13.879988  9400 net.cpp:165] Memory required for data: 3157465120
I0725 16:33:13.879993  9400 layer_factory.hpp:77] Creating layer res4b5_branch2b_relu
I0725 16:33:13.879998  9400 net.cpp:100] Creating Layer res4b5_branch2b_relu
I0725 16:33:13.880002  9400 net.cpp:434] res4b5_branch2b_relu <- res4b5_branch2b
I0725 16:33:13.880005  9400 net.cpp:395] res4b5_branch2b_relu -> res4b5_branch2b (in-place)
I0725 16:33:13.880208  9400 net.cpp:150] Setting up res4b5_branch2b_relu
I0725 16:33:13.880219  9400 net.cpp:157] Top shape: 2 256 38 38 (739328)
I0725 16:33:13.880223  9400 net.cpp:165] Memory required for data: 3160422432
I0725 16:33:13.880225  9400 layer_factory.hpp:77] Creating layer res4b5_branch2c
I0725 16:33:13.880235  9400 net.cpp:100] Creating Layer res4b5_branch2c
I0725 16:33:13.880242  9400 net.cpp:434] res4b5_branch2c <- res4b5_branch2b
I0725 16:33:13.880249  9400 net.cpp:408] res4b5_branch2c -> res4b5_branch2c
I0725 16:33:13.884382  9400 net.cpp:150] Setting up res4b5_branch2c
I0725 16:33:13.884395  9400 net.cpp:157] Top shape: 2 1024 38 38 (2957312)
I0725 16:33:13.884409  9400 net.cpp:165] Memory required for data: 3172251680
I0725 16:33:13.884415  9400 layer_factory.hpp:77] Creating layer bn4b5_branch2c
I0725 16:33:13.884423  9400 net.cpp:100] Creating Layer bn4b5_branch2c
I0725 16:33:13.884428  9400 net.cpp:434] bn4b5_branch2c <- res4b5_branch2c
I0725 16:33:13.884431  9400 net.cpp:395] bn4b5_branch2c -> res4b5_branch2c (in-place)
I0725 16:33:13.884685  9400 net.cpp:150] Setting up bn4b5_branch2c
I0725 16:33:13.884692  9400 net.cpp:157] Top shape: 2 1024 38 38 (2957312)
I0725 16:33:13.884696  9400 net.cpp:165] Memory required for data: 3184080928
I0725 16:33:13.884702  9400 layer_factory.hpp:77] Creating layer scale4b5_branch2c
I0725 16:33:13.884711  9400 net.cpp:100] Creating Layer scale4b5_branch2c
I0725 16:33:13.884714  9400 net.cpp:434] scale4b5_branch2c <- res4b5_branch2c
I0725 16:33:13.884718  9400 net.cpp:395] scale4b5_branch2c -> res4b5_branch2c (in-place)
I0725 16:33:13.884765  9400 layer_factory.hpp:77] Creating layer scale4b5_branch2c
I0725 16:33:13.884910  9400 net.cpp:150] Setting up scale4b5_branch2c
I0725 16:33:13.884918  9400 net.cpp:157] Top shape: 2 1024 38 38 (2957312)
I0725 16:33:13.884922  9400 net.cpp:165] Memory required for data: 3195910176
I0725 16:33:13.884966  9400 layer_factory.hpp:77] Creating layer res4b5
I0725 16:33:13.884974  9400 net.cpp:100] Creating Layer res4b5
I0725 16:33:13.884980  9400 net.cpp:434] res4b5 <- res4b4_res4b4_relu_0_split_1
I0725 16:33:13.884984  9400 net.cpp:434] res4b5 <- res4b5_branch2c
I0725 16:33:13.884989  9400 net.cpp:408] res4b5 -> res4b5
I0725 16:33:13.885020  9400 net.cpp:150] Setting up res4b5
I0725 16:33:13.885028  9400 net.cpp:157] Top shape: 2 1024 38 38 (2957312)
I0725 16:33:13.885031  9400 net.cpp:165] Memory required for data: 3207739424
I0725 16:33:13.885035  9400 layer_factory.hpp:77] Creating layer res4b5_relu
I0725 16:33:13.885038  9400 net.cpp:100] Creating Layer res4b5_relu
I0725 16:33:13.885042  9400 net.cpp:434] res4b5_relu <- res4b5
I0725 16:33:13.885046  9400 net.cpp:395] res4b5_relu -> res4b5 (in-place)
I0725 16:33:13.885251  9400 net.cpp:150] Setting up res4b5_relu
I0725 16:33:13.885262  9400 net.cpp:157] Top shape: 2 1024 38 38 (2957312)
I0725 16:33:13.885265  9400 net.cpp:165] Memory required for data: 3219568672
I0725 16:33:13.885268  9400 layer_factory.hpp:77] Creating layer res4b5_res4b5_relu_0_split
I0725 16:33:13.885275  9400 net.cpp:100] Creating Layer res4b5_res4b5_relu_0_split
I0725 16:33:13.885278  9400 net.cpp:434] res4b5_res4b5_relu_0_split <- res4b5
I0725 16:33:13.885283  9400 net.cpp:408] res4b5_res4b5_relu_0_split -> res4b5_res4b5_relu_0_split_0
I0725 16:33:13.885290  9400 net.cpp:408] res4b5_res4b5_relu_0_split -> res4b5_res4b5_relu_0_split_1
I0725 16:33:13.885341  9400 net.cpp:150] Setting up res4b5_res4b5_relu_0_split
I0725 16:33:13.885349  9400 net.cpp:157] Top shape: 2 1024 38 38 (2957312)
I0725 16:33:13.885352  9400 net.cpp:157] Top shape: 2 1024 38 38 (2957312)
I0725 16:33:13.885355  9400 net.cpp:165] Memory required for data: 3243227168
I0725 16:33:13.885359  9400 layer_factory.hpp:77] Creating layer res4b6_branch2a
I0725 16:33:13.885367  9400 net.cpp:100] Creating Layer res4b6_branch2a
I0725 16:33:13.885370  9400 net.cpp:434] res4b6_branch2a <- res4b5_res4b5_relu_0_split_0
I0725 16:33:13.885377  9400 net.cpp:408] res4b6_branch2a -> res4b6_branch2a
I0725 16:33:13.888581  9400 net.cpp:150] Setting up res4b6_branch2a
I0725 16:33:13.888607  9400 net.cpp:157] Top shape: 2 256 38 38 (739328)
I0725 16:33:13.888612  9400 net.cpp:165] Memory required for data: 3246184480
I0725 16:33:13.888617  9400 layer_factory.hpp:77] Creating layer bn4b6_branch2a
I0725 16:33:13.888622  9400 net.cpp:100] Creating Layer bn4b6_branch2a
I0725 16:33:13.888628  9400 net.cpp:434] bn4b6_branch2a <- res4b6_branch2a
I0725 16:33:13.888633  9400 net.cpp:395] bn4b6_branch2a -> res4b6_branch2a (in-place)
I0725 16:33:13.888877  9400 net.cpp:150] Setting up bn4b6_branch2a
I0725 16:33:13.888886  9400 net.cpp:157] Top shape: 2 256 38 38 (739328)
I0725 16:33:13.888890  9400 net.cpp:165] Memory required for data: 3249141792
I0725 16:33:13.888895  9400 layer_factory.hpp:77] Creating layer scale4b6_branch2a
I0725 16:33:13.888906  9400 net.cpp:100] Creating Layer scale4b6_branch2a
I0725 16:33:13.888909  9400 net.cpp:434] scale4b6_branch2a <- res4b6_branch2a
I0725 16:33:13.888913  9400 net.cpp:395] scale4b6_branch2a -> res4b6_branch2a (in-place)
I0725 16:33:13.888963  9400 layer_factory.hpp:77] Creating layer scale4b6_branch2a
I0725 16:33:13.889099  9400 net.cpp:150] Setting up scale4b6_branch2a
I0725 16:33:13.889108  9400 net.cpp:157] Top shape: 2 256 38 38 (739328)
I0725 16:33:13.889111  9400 net.cpp:165] Memory required for data: 3252099104
I0725 16:33:13.889117  9400 layer_factory.hpp:77] Creating layer res4b6_branch2a_relu
I0725 16:33:13.889122  9400 net.cpp:100] Creating Layer res4b6_branch2a_relu
I0725 16:33:13.889125  9400 net.cpp:434] res4b6_branch2a_relu <- res4b6_branch2a
I0725 16:33:13.889132  9400 net.cpp:395] res4b6_branch2a_relu -> res4b6_branch2a (in-place)
I0725 16:33:13.889324  9400 net.cpp:150] Setting up res4b6_branch2a_relu
I0725 16:33:13.889335  9400 net.cpp:157] Top shape: 2 256 38 38 (739328)
I0725 16:33:13.889338  9400 net.cpp:165] Memory required for data: 3255056416
I0725 16:33:13.889353  9400 layer_factory.hpp:77] Creating layer res4b6_branch2b
I0725 16:33:13.889362  9400 net.cpp:100] Creating Layer res4b6_branch2b
I0725 16:33:13.889365  9400 net.cpp:434] res4b6_branch2b <- res4b6_branch2a
I0725 16:33:13.889374  9400 net.cpp:408] res4b6_branch2b -> res4b6_branch2b
I0725 16:33:13.897086  9400 net.cpp:150] Setting up res4b6_branch2b
I0725 16:33:13.897114  9400 net.cpp:157] Top shape: 2 256 38 38 (739328)
I0725 16:33:13.897117  9400 net.cpp:165] Memory required for data: 3258013728
I0725 16:33:13.897123  9400 layer_factory.hpp:77] Creating layer bn4b6_branch2b
I0725 16:33:13.897130  9400 net.cpp:100] Creating Layer bn4b6_branch2b
I0725 16:33:13.897133  9400 net.cpp:434] bn4b6_branch2b <- res4b6_branch2b
I0725 16:33:13.897140  9400 net.cpp:395] bn4b6_branch2b -> res4b6_branch2b (in-place)
I0725 16:33:13.897380  9400 net.cpp:150] Setting up bn4b6_branch2b
I0725 16:33:13.897388  9400 net.cpp:157] Top shape: 2 256 38 38 (739328)
I0725 16:33:13.897392  9400 net.cpp:165] Memory required for data: 3260971040
I0725 16:33:13.897397  9400 layer_factory.hpp:77] Creating layer scale4b6_branch2b
I0725 16:33:13.897404  9400 net.cpp:100] Creating Layer scale4b6_branch2b
I0725 16:33:13.897408  9400 net.cpp:434] scale4b6_branch2b <- res4b6_branch2b
I0725 16:33:13.897414  9400 net.cpp:395] scale4b6_branch2b -> res4b6_branch2b (in-place)
I0725 16:33:13.897462  9400 layer_factory.hpp:77] Creating layer scale4b6_branch2b
I0725 16:33:13.897603  9400 net.cpp:150] Setting up scale4b6_branch2b
I0725 16:33:13.897610  9400 net.cpp:157] Top shape: 2 256 38 38 (739328)
I0725 16:33:13.897614  9400 net.cpp:165] Memory required for data: 3263928352
I0725 16:33:13.897619  9400 layer_factory.hpp:77] Creating layer res4b6_branch2b_relu
I0725 16:33:13.897624  9400 net.cpp:100] Creating Layer res4b6_branch2b_relu
I0725 16:33:13.897627  9400 net.cpp:434] res4b6_branch2b_relu <- res4b6_branch2b
I0725 16:33:13.897634  9400 net.cpp:395] res4b6_branch2b_relu -> res4b6_branch2b (in-place)
I0725 16:33:13.897830  9400 net.cpp:150] Setting up res4b6_branch2b_relu
I0725 16:33:13.897841  9400 net.cpp:157] Top shape: 2 256 38 38 (739328)
I0725 16:33:13.897845  9400 net.cpp:165] Memory required for data: 3266885664
I0725 16:33:13.897847  9400 layer_factory.hpp:77] Creating layer res4b6_branch2c
I0725 16:33:13.897857  9400 net.cpp:100] Creating Layer res4b6_branch2c
I0725 16:33:13.897861  9400 net.cpp:434] res4b6_branch2c <- res4b6_branch2b
I0725 16:33:13.897866  9400 net.cpp:408] res4b6_branch2c -> res4b6_branch2c
I0725 16:33:13.902169  9400 net.cpp:150] Setting up res4b6_branch2c
I0725 16:33:13.902197  9400 net.cpp:157] Top shape: 2 1024 38 38 (2957312)
I0725 16:33:13.902201  9400 net.cpp:165] Memory required for data: 3278714912
I0725 16:33:13.902206  9400 layer_factory.hpp:77] Creating layer bn4b6_branch2c
I0725 16:33:13.902212  9400 net.cpp:100] Creating Layer bn4b6_branch2c
I0725 16:33:13.902216  9400 net.cpp:434] bn4b6_branch2c <- res4b6_branch2c
I0725 16:33:13.902222  9400 net.cpp:395] bn4b6_branch2c -> res4b6_branch2c (in-place)
I0725 16:33:13.902462  9400 net.cpp:150] Setting up bn4b6_branch2c
I0725 16:33:13.902472  9400 net.cpp:157] Top shape: 2 1024 38 38 (2957312)
I0725 16:33:13.902473  9400 net.cpp:165] Memory required for data: 3290544160
I0725 16:33:13.902480  9400 layer_factory.hpp:77] Creating layer scale4b6_branch2c
I0725 16:33:13.902488  9400 net.cpp:100] Creating Layer scale4b6_branch2c
I0725 16:33:13.902492  9400 net.cpp:434] scale4b6_branch2c <- res4b6_branch2c
I0725 16:33:13.902496  9400 net.cpp:395] scale4b6_branch2c -> res4b6_branch2c (in-place)
I0725 16:33:13.902542  9400 layer_factory.hpp:77] Creating layer scale4b6_branch2c
I0725 16:33:13.902689  9400 net.cpp:150] Setting up scale4b6_branch2c
I0725 16:33:13.902698  9400 net.cpp:157] Top shape: 2 1024 38 38 (2957312)
I0725 16:33:13.902700  9400 net.cpp:165] Memory required for data: 3302373408
I0725 16:33:13.902706  9400 layer_factory.hpp:77] Creating layer res4b6
I0725 16:33:13.902711  9400 net.cpp:100] Creating Layer res4b6
I0725 16:33:13.902727  9400 net.cpp:434] res4b6 <- res4b5_res4b5_relu_0_split_1
I0725 16:33:13.902731  9400 net.cpp:434] res4b6 <- res4b6_branch2c
I0725 16:33:13.902739  9400 net.cpp:408] res4b6 -> res4b6
I0725 16:33:13.902768  9400 net.cpp:150] Setting up res4b6
I0725 16:33:13.902776  9400 net.cpp:157] Top shape: 2 1024 38 38 (2957312)
I0725 16:33:13.902778  9400 net.cpp:165] Memory required for data: 3314202656
I0725 16:33:13.902781  9400 layer_factory.hpp:77] Creating layer res4b6_relu
I0725 16:33:13.902788  9400 net.cpp:100] Creating Layer res4b6_relu
I0725 16:33:13.902792  9400 net.cpp:434] res4b6_relu <- res4b6
I0725 16:33:13.902796  9400 net.cpp:395] res4b6_relu -> res4b6 (in-place)
I0725 16:33:13.903203  9400 net.cpp:150] Setting up res4b6_relu
I0725 16:33:13.903215  9400 net.cpp:157] Top shape: 2 1024 38 38 (2957312)
I0725 16:33:13.903230  9400 net.cpp:165] Memory required for data: 3326031904
I0725 16:33:13.903234  9400 layer_factory.hpp:77] Creating layer res4b6_res4b6_relu_0_split
I0725 16:33:13.903241  9400 net.cpp:100] Creating Layer res4b6_res4b6_relu_0_split
I0725 16:33:13.903245  9400 net.cpp:434] res4b6_res4b6_relu_0_split <- res4b6
I0725 16:33:13.903252  9400 net.cpp:408] res4b6_res4b6_relu_0_split -> res4b6_res4b6_relu_0_split_0
I0725 16:33:13.903259  9400 net.cpp:408] res4b6_res4b6_relu_0_split -> res4b6_res4b6_relu_0_split_1
I0725 16:33:13.903311  9400 net.cpp:150] Setting up res4b6_res4b6_relu_0_split
I0725 16:33:13.903321  9400 net.cpp:157] Top shape: 2 1024 38 38 (2957312)
I0725 16:33:13.903324  9400 net.cpp:157] Top shape: 2 1024 38 38 (2957312)
I0725 16:33:13.903326  9400 net.cpp:165] Memory required for data: 3349690400
I0725 16:33:13.903329  9400 layer_factory.hpp:77] Creating layer res4b7_branch2a
I0725 16:33:13.903339  9400 net.cpp:100] Creating Layer res4b7_branch2a
I0725 16:33:13.903343  9400 net.cpp:434] res4b7_branch2a <- res4b6_res4b6_relu_0_split_0
I0725 16:33:13.903348  9400 net.cpp:408] res4b7_branch2a -> res4b7_branch2a
I0725 16:33:13.906544  9400 net.cpp:150] Setting up res4b7_branch2a
I0725 16:33:13.906569  9400 net.cpp:157] Top shape: 2 256 38 38 (739328)
I0725 16:33:13.906574  9400 net.cpp:165] Memory required for data: 3352647712
…
I0725 16:33:19.415845  9400 net.cpp:395] res5c_relu -> res5c (in-place)
I0725 16:33:19.416136  9400 net.cpp:150] Setting up res5c_relu
I0725 16:33:19.416160  9400 net.cpp:157] Top shape: 2 2048 19 19 (1478656)
I0725 16:33:19.416174  9400 net.cpp:165] Memory required for data: 5218711584
I0725 16:33:19.416177  9400 layer_factory.hpp:77] Creating layer res5c_res5c_relu_0_split
I0725 16:33:19.416196  9400 net.cpp:100] Creating Layer res5c_res5c_relu_0_split
I0725 16:33:19.416200  9400 net.cpp:434] res5c_res5c_relu_0_split <- res5c
I0725 16:33:19.416205  9400 net.cpp:408] res5c_res5c_relu_0_split -> res5c_res5c_relu_0_split_0
I0725 16:33:19.416213  9400 net.cpp:408] res5c_res5c_relu_0_split -> res5c_res5c_relu_0_split_1
I0725 16:33:19.416296  9400 net.cpp:150] Setting up res5c_res5c_relu_0_split
I0725 16:33:19.416304  9400 net.cpp:157] Top shape: 2 2048 19 19 (1478656)
I0725 16:33:19.416308  9400 net.cpp:157] Top shape: 2 2048 19 19 (1478656)
I0725 16:33:19.416311  9400 net.cpp:165] Memory required for data: 5230540832
I0725 16:33:19.416314  9400 layer_factory.hpp:77] Creating layer pool5
I0725 16:33:19.416323  9400 net.cpp:100] Creating Layer pool5
I0725 16:33:19.416327  9400 net.cpp:434] pool5 <- res5c_res5c_relu_0_split_0
I0725 16:33:19.416333  9400 net.cpp:408] pool5 -> pool5
I0725 16:33:19.416642  9400 net.cpp:150] Setting up pool5
I0725 16:33:19.416653  9400 net.cpp:157] Top shape: 2 2048 1 1 (4096)
I0725 16:33:19.416669  9400 net.cpp:165] Memory required for data: 5230557216
I0725 16:33:19.416672  9400 layer_factory.hpp:77] Creating layer pool5_pool5_0_split
I0725 16:33:19.416690  9400 net.cpp:100] Creating Layer pool5_pool5_0_split
I0725 16:33:19.416694  9400 net.cpp:434] pool5_pool5_0_split <- pool5
I0725 16:33:19.416699  9400 net.cpp:408] pool5_pool5_0_split -> pool5_pool5_0_split_0
I0725 16:33:19.416709  9400 net.cpp:408] pool5_pool5_0_split -> pool5_pool5_0_split_1
I0725 16:33:19.416715  9400 net.cpp:408] pool5_pool5_0_split -> pool5_pool5_0_split_2
I0725 16:33:19.416721  9400 net.cpp:408] pool5_pool5_0_split -> pool5_pool5_0_split_3
I0725 16:33:19.416826  9400 net.cpp:150] Setting up pool5_pool5_0_split
I0725 16:33:19.416834  9400 net.cpp:157] Top shape: 2 2048 1 1 (4096)
I0725 16:33:19.416838  9400 net.cpp:157] Top shape: 2 2048 1 1 (4096)
I0725 16:33:19.416842  9400 net.cpp:157] Top shape: 2 2048 1 1 (4096)
I0725 16:33:19.416846  9400 net.cpp:157] Top shape: 2 2048 1 1 (4096)
I0725 16:33:19.416849  9400 net.cpp:165] Memory required for data: 5230622752
I0725 16:33:19.416852  9400 layer_factory.hpp:77] Creating layer conv6_1
I0725 16:33:19.416864  9400 net.cpp:100] Creating Layer conv6_1
I0725 16:33:19.416868  9400 net.cpp:434] conv6_1 <- pool5_pool5_0_split_0
I0725 16:33:19.416877  9400 net.cpp:408] conv6_1 -> conv6_1
I0725 16:33:19.422051  9400 net.cpp:150] Setting up conv6_1
I0725 16:33:19.422066  9400 net.cpp:157] Top shape: 2 256 1 1 (512)
I0725 16:33:19.422081  9400 net.cpp:165] Memory required for data: 5230624800
I0725 16:33:19.422088  9400 layer_factory.hpp:77] Creating layer conv6_1_relu
I0725 16:33:19.422094  9400 net.cpp:100] Creating Layer conv6_1_relu
I0725 16:33:19.422099  9400 net.cpp:434] conv6_1_relu <- conv6_1
I0725 16:33:19.422106  9400 net.cpp:395] conv6_1_relu -> conv6_1 (in-place)
I0725 16:33:19.422379  9400 net.cpp:150] Setting up conv6_1_relu
I0725 16:33:19.422390  9400 net.cpp:157] Top shape: 2 256 1 1 (512)
I0725 16:33:19.422394  9400 net.cpp:165] Memory required for data: 5230626848
I0725 16:33:19.422397  9400 layer_factory.hpp:77] Creating layer conv6_2
I0725 16:33:19.422410  9400 net.cpp:100] Creating Layer conv6_2
I0725 16:33:19.422415  9400 net.cpp:434] conv6_2 <- conv6_1
I0725 16:33:19.422420  9400 net.cpp:408] conv6_2 -> conv6_2
I0725 16:33:19.431640  9400 net.cpp:150] Setting up conv6_2
I0725 16:33:19.431668  9400 net.cpp:157] Top shape: 2 512 1 1 (1024)
I0725 16:33:19.431671  9400 net.cpp:165] Memory required for data: 5230630944
I0725 16:33:19.431679  9400 layer_factory.hpp:77] Creating layer conv6_2_relu
I0725 16:33:19.431695  9400 net.cpp:100] Creating Layer conv6_2_relu
I0725 16:33:19.431699  9400 net.cpp:434] conv6_2_relu <- conv6_2
I0725 16:33:19.431706  9400 net.cpp:395] conv6_2_relu -> conv6_2 (in-place)
I0725 16:33:19.432276  9400 net.cpp:150] Setting up conv6_2_relu
I0725 16:33:19.432301  9400 net.cpp:157] Top shape: 2 512 1 1 (1024)
I0725 16:33:19.432303  9400 net.cpp:165] Memory required for data: 5230635040
I0725 16:33:19.432307  9400 layer_factory.hpp:77] Creating layer conv6_2_conv6_2_relu_0_split
I0725 16:33:19.432313  9400 net.cpp:100] Creating Layer conv6_2_conv6_2_relu_0_split
I0725 16:33:19.432317  9400 net.cpp:434] conv6_2_conv6_2_relu_0_split <- conv6_2
I0725 16:33:19.432323  9400 net.cpp:408] conv6_2_conv6_2_relu_0_split -> conv6_2_conv6_2_relu_0_split_0
I0725 16:33:19.432330  9400 net.cpp:408] conv6_2_conv6_2_relu_0_split -> conv6_2_conv6_2_relu_0_split_1
I0725 16:33:19.432348  9400 net.cpp:408] conv6_2_conv6_2_relu_0_split -> conv6_2_conv6_2_relu_0_split_2
I0725 16:33:19.432355  9400 net.cpp:408] conv6_2_conv6_2_relu_0_split -> conv6_2_conv6_2_relu_0_split_3
I0725 16:33:19.432485  9400 net.cpp:150] Setting up conv6_2_conv6_2_relu_0_split
I0725 16:33:19.432495  9400 net.cpp:157] Top shape: 2 512 1 1 (1024)
I0725 16:33:19.432499  9400 net.cpp:157] Top shape: 2 512 1 1 (1024)
I0725 16:33:19.432502  9400 net.cpp:157] Top shape: 2 512 1 1 (1024)
I0725 16:33:19.432507  9400 net.cpp:157] Top shape: 2 512 1 1 (1024)
I0725 16:33:19.432508  9400 net.cpp:165] Memory required for data: 5230651424
I0725 16:33:19.432512  9400 layer_factory.hpp:77] Creating layer conv7_1
I0725 16:33:19.432523  9400 net.cpp:100] Creating Layer conv7_1
I0725 16:33:19.432528  9400 net.cpp:434] conv7_1 <- conv6_2_conv6_2_relu_0_split_0
I0725 16:33:19.432534  9400 net.cpp:408] conv7_1 -> conv7_1
I0725 16:33:19.434201  9400 net.cpp:150] Setting up conv7_1
I0725 16:33:19.434213  9400 net.cpp:157] Top shape: 2 128 1 1 (256)
I0725 16:33:19.434228  9400 net.cpp:165] Memory required for data: 5230652448
I0725 16:33:19.434234  9400 layer_factory.hpp:77] Creating layer conv7_1_relu
I0725 16:33:19.434244  9400 net.cpp:100] Creating Layer conv7_1_relu
I0725 16:33:19.434248  9400 net.cpp:434] conv7_1_relu <- conv7_1
I0725 16:33:19.434255  9400 net.cpp:395] conv7_1_relu -> conv7_1 (in-place)
I0725 16:33:19.434799  9400 net.cpp:150] Setting up conv7_1_relu
I0725 16:33:19.434813  9400 net.cpp:157] Top shape: 2 128 1 1 (256)
I0725 16:33:19.434829  9400 net.cpp:165] Memory required for data: 5230653472
I0725 16:33:19.434833  9400 layer_factory.hpp:77] Creating layer conv7_2
I0725 16:33:19.434844  9400 net.cpp:100] Creating Layer conv7_2
I0725 16:33:19.434847  9400 net.cpp:434] conv7_2 <- conv7_1
I0725 16:33:19.434855  9400 net.cpp:408] conv7_2 -> conv7_2
I0725 16:33:19.438853  9400 net.cpp:150] Setting up conv7_2
I0725 16:33:19.438880  9400 net.cpp:157] Top shape: 2 256 1 1 (512)
I0725 16:33:19.438884  9400 net.cpp:165] Memory required for data: 5230655520
I0725 16:33:19.438890  9400 layer_factory.hpp:77] Creating layer conv7_2_relu
I0725 16:33:19.438896  9400 net.cpp:100] Creating Layer conv7_2_relu
I0725 16:33:19.438900  9400 net.cpp:434] conv7_2_relu <- conv7_2
I0725 16:33:19.438907  9400 net.cpp:395] conv7_2_relu -> conv7_2 (in-place)
I0725 16:33:19.439199  9400 net.cpp:150] Setting up conv7_2_relu
I0725 16:33:19.439210  9400 net.cpp:157] Top shape: 2 256 1 1 (512)
I0725 16:33:19.439213  9400 net.cpp:165] Memory required for data: 5230657568
I0725 16:33:19.439216  9400 layer_factory.hpp:77] Creating layer conv7_2_conv7_2_relu_0_split
I0725 16:33:19.439224  9400 net.cpp:100] Creating Layer conv7_2_conv7_2_relu_0_split
I0725 16:33:19.439229  9400 net.cpp:434] conv7_2_conv7_2_relu_0_split <- conv7_2
I0725 16:33:19.439236  9400 net.cpp:408] conv7_2_conv7_2_relu_0_split -> conv7_2_conv7_2_relu_0_split_0
I0725 16:33:19.439244  9400 net.cpp:408] conv7_2_conv7_2_relu_0_split -> conv7_2_conv7_2_relu_0_split_1
I0725 16:33:19.439249  9400 net.cpp:408] conv7_2_conv7_2_relu_0_split -> conv7_2_conv7_2_relu_0_split_2
I0725 16:33:19.439268  9400 net.cpp:408] conv7_2_conv7_2_relu_0_split -> conv7_2_conv7_2_relu_0_split_3
I0725 16:33:19.439390  9400 net.cpp:150] Setting up conv7_2_conv7_2_relu_0_split
I0725 16:33:19.439399  9400 net.cpp:157] Top shape: 2 256 1 1 (512)
I0725 16:33:19.439402  9400 net.cpp:157] Top shape: 2 256 1 1 (512)
I0725 16:33:19.439406  9400 net.cpp:157] Top shape: 2 256 1 1 (512)
I0725 16:33:19.439409  9400 net.cpp:157] Top shape: 2 256 1 1 (512)
I0725 16:33:19.439412  9400 net.cpp:165] Memory required for data: 5230665760
I0725 16:33:19.439415  9400 layer_factory.hpp:77] Creating layer conv8_1
I0725 16:33:19.439427  9400 net.cpp:100] Creating Layer conv8_1
I0725 16:33:19.439433  9400 net.cpp:434] conv8_1 <- conv7_2_conv7_2_relu_0_split_0
I0725 16:33:19.439441  9400 net.cpp:408] conv8_1 -> conv8_1
I0725 16:33:19.442332  9400 net.cpp:150] Setting up conv8_1
I0725 16:33:19.442348  9400 net.cpp:157] Top shape: 2 128 1 1 (256)
I0725 16:33:19.442363  9400 net.cpp:165] Memory required for data: 5230666784
I0725 16:33:19.442369  9400 layer_factory.hpp:77] Creating layer conv8_1_relu
I0725 16:33:19.442375  9400 net.cpp:100] Creating Layer conv8_1_relu
I0725 16:33:19.442379  9400 net.cpp:434] conv8_1_relu <- conv8_1
I0725 16:33:19.442386  9400 net.cpp:395] conv8_1_relu -> conv8_1 (in-place)
I0725 16:33:19.442664  9400 net.cpp:150] Setting up conv8_1_relu
I0725 16:33:19.442678  9400 net.cpp:157] Top shape: 2 128 1 1 (256)
I0725 16:33:19.442682  9400 net.cpp:165] Memory required for data: 5230667808
I0725 16:33:19.442684  9400 layer_factory.hpp:77] Creating layer conv8_2
I0725 16:33:19.442697  9400 net.cpp:100] Creating Layer conv8_2
I0725 16:33:19.442700  9400 net.cpp:434] conv8_2 <- conv8_1
I0725 16:33:19.442708  9400 net.cpp:408] conv8_2 -> conv8_2
I0725 16:33:19.444298  9400 net.cpp:150] Setting up conv8_2
I0725 16:33:19.444314  9400 net.cpp:157] Top shape: 2 256 1 1 (512)
I0725 16:33:19.444329  9400 net.cpp:165] Memory required for data: 5230669856
I0725 16:33:19.444334  9400 layer_factory.hpp:77] Creating layer conv8_2_relu
I0725 16:33:19.444341  9400 net.cpp:100] Creating Layer conv8_2_relu
I0725 16:33:19.444345  9400 net.cpp:434] conv8_2_relu <- conv8_2
I0725 16:33:19.444352  9400 net.cpp:395] conv8_2_relu -> conv8_2 (in-place)
I0725 16:33:19.444630  9400 net.cpp:150] Setting up conv8_2_relu
I0725 16:33:19.444641  9400 net.cpp:157] Top shape: 2 256 1 1 (512)
I0725 16:33:19.444644  9400 net.cpp:165] Memory required for data: 5230671904
I0725 16:33:19.444648  9400 layer_factory.hpp:77] Creating layer conv8_2_conv8_2_relu_0_split
I0725 16:33:19.444658  9400 net.cpp:100] Creating Layer conv8_2_conv8_2_relu_0_split
I0725 16:33:19.444660  9400 net.cpp:434] conv8_2_conv8_2_relu_0_split <- conv8_2
I0725 16:33:19.444669  9400 net.cpp:408] conv8_2_conv8_2_relu_0_split -> conv8_2_conv8_2_relu_0_split_0
I0725 16:33:19.444675  9400 net.cpp:408] conv8_2_conv8_2_relu_0_split -> conv8_2_conv8_2_relu_0_split_1
I0725 16:33:19.444681  9400 net.cpp:408] conv8_2_conv8_2_relu_0_split -> conv8_2_conv8_2_relu_0_split_2
I0725 16:33:19.444687  9400 net.cpp:408] conv8_2_conv8_2_relu_0_split -> conv8_2_conv8_2_relu_0_split_3
I0725 16:33:19.444761  9400 net.cpp:150] Setting up conv8_2_conv8_2_relu_0_split
I0725 16:33:19.444768  9400 net.cpp:157] Top shape: 2 256 1 1 (512)
I0725 16:33:19.444772  9400 net.cpp:157] Top shape: 2 256 1 1 (512)
I0725 16:33:19.444777  9400 net.cpp:157] Top shape: 2 256 1 1 (512)
I0725 16:33:19.444779  9400 net.cpp:157] Top shape: 2 256 1 1 (512)
I0725 16:33:19.444782  9400 net.cpp:165] Memory required for data: 5230680096
I0725 16:33:19.444785  9400 layer_factory.hpp:77] Creating layer conv9_1
I0725 16:33:19.444795  9400 net.cpp:100] Creating Layer conv9_1
I0725 16:33:19.444799  9400 net.cpp:434] conv9_1 <- conv8_2_conv8_2_relu_0_split_0
I0725 16:33:19.444808  9400 net.cpp:408] conv9_1 -> conv9_1
I0725 16:33:19.446353  9400 net.cpp:150] Setting up conv9_1
I0725 16:33:19.446367  9400 net.cpp:157] Top shape: 2 128 1 1 (256)
I0725 16:33:19.446382  9400 net.cpp:165] Memory required for data: 5230681120
I0725 16:33:19.446388  9400 layer_factory.hpp:77] Creating layer conv9_1_relu
I0725 16:33:19.446405  9400 net.cpp:100] Creating Layer conv9_1_relu
I0725 16:33:19.446410  9400 net.cpp:434] conv9_1_relu <- conv9_1
I0725 16:33:19.446430  9400 net.cpp:395] conv9_1_relu -> conv9_1 (in-place)
I0725 16:33:19.446708  9400 net.cpp:150] Setting up conv9_1_relu
I0725 16:33:19.446719  9400 net.cpp:157] Top shape: 2 128 1 1 (256)
I0725 16:33:19.446722  9400 net.cpp:165] Memory required for data: 5230682144
I0725 16:33:19.446727  9400 layer_factory.hpp:77] Creating layer conv9_2
I0725 16:33:19.446736  9400 net.cpp:100] Creating Layer conv9_2
I0725 16:33:19.446740  9400 net.cpp:434] conv9_2 <- conv9_1
I0725 16:33:19.446749  9400 net.cpp:408] conv9_2 -> conv9_2
I0725 16:33:19.448523  9400 net.cpp:150] Setting up conv9_2
I0725 16:33:19.448537  9400 net.cpp:157] Top shape: 2 256 1 1 (512)
I0725 16:33:19.448551  9400 net.cpp:165] Memory required for data: 5230684192
I0725 16:33:19.448559  9400 layer_factory.hpp:77] Creating layer conv9_2_relu
I0725 16:33:19.448565  9400 net.cpp:100] Creating Layer conv9_2_relu
I0725 16:33:19.448570  9400 net.cpp:434] conv9_2_relu <- conv9_2
I0725 16:33:19.448576  9400 net.cpp:395] conv9_2_relu -> conv9_2 (in-place)
I0725 16:33:19.449141  9400 net.cpp:150] Setting up conv9_2_relu
I0725 16:33:19.449154  9400 net.cpp:157] Top shape: 2 256 1 1 (512)
I0725 16:33:19.449169  9400 net.cpp:165] Memory required for data: 5230686240
I0725 16:33:19.449172  9400 layer_factory.hpp:77] Creating layer conv9_2_conv9_2_relu_0_split
I0725 16:33:19.449179  9400 net.cpp:100] Creating Layer conv9_2_conv9_2_relu_0_split
I0725 16:33:19.449182  9400 net.cpp:434] conv9_2_conv9_2_relu_0_split <- conv9_2
I0725 16:33:19.449193  9400 net.cpp:408] conv9_2_conv9_2_relu_0_split -> conv9_2_conv9_2_relu_0_split_0
I0725 16:33:19.449200  9400 net.cpp:408] conv9_2_conv9_2_relu_0_split -> conv9_2_conv9_2_relu_0_split_1
I0725 16:33:19.449218  9400 net.cpp:408] conv9_2_conv9_2_relu_0_split -> conv9_2_conv9_2_relu_0_split_2
I0725 16:33:19.449283  9400 net.cpp:150] Setting up conv9_2_conv9_2_relu_0_split
I0725 16:33:19.449292  9400 net.cpp:157] Top shape: 2 256 1 1 (512)
I0725 16:33:19.449295  9400 net.cpp:157] Top shape: 2 256 1 1 (512)
I0725 16:33:19.449299  9400 net.cpp:157] Top shape: 2 256 1 1 (512)
I0725 16:33:19.449301  9400 net.cpp:165] Memory required for data: 5230692384
I0725 16:33:19.449306  9400 layer_factory.hpp:77] Creating layer res5c_norm
I0725 16:33:19.449313  9400 net.cpp:100] Creating Layer res5c_norm
I0725 16:33:19.449317  9400 net.cpp:434] res5c_norm <- res5c_res5c_relu_0_split_1
I0725 16:33:19.449323  9400 net.cpp:408] res5c_norm -> res5c_norm
I0725 16:33:19.449533  9400 net.cpp:150] Setting up res5c_norm
I0725 16:33:19.449543  9400 net.cpp:157] Top shape: 2 2048 19 19 (1478656)
I0725 16:33:19.449546  9400 net.cpp:165] Memory required for data: 5236607008
I0725 16:33:19.449551  9400 layer_factory.hpp:77] Creating layer res5c_norm_res5c_norm_0_split
I0725 16:33:19.449558  9400 net.cpp:100] Creating Layer res5c_norm_res5c_norm_0_split
I0725 16:33:19.449561  9400 net.cpp:434] res5c_norm_res5c_norm_0_split <- res5c_norm
I0725 16:33:19.449568  9400 net.cpp:408] res5c_norm_res5c_norm_0_split -> res5c_norm_res5c_norm_0_split_0
I0725 16:33:19.449575  9400 net.cpp:408] res5c_norm_res5c_norm_0_split -> res5c_norm_res5c_norm_0_split_1
I0725 16:33:19.449581  9400 net.cpp:408] res5c_norm_res5c_norm_0_split -> res5c_norm_res5c_norm_0_split_2
I0725 16:33:19.449631  9400 net.cpp:150] Setting up res5c_norm_res5c_norm_0_split
I0725 16:33:19.449640  9400 net.cpp:157] Top shape: 2 2048 19 19 (1478656)
I0725 16:33:19.449643  9400 net.cpp:157] Top shape: 2 2048 19 19 (1478656)
I0725 16:33:19.449646  9400 net.cpp:157] Top shape: 2 2048 19 19 (1478656)
I0725 16:33:19.449650  9400 net.cpp:165] Memory required for data: 5254350880
I0725 16:33:19.449652  9400 layer_factory.hpp:77] Creating layer res5c_norm_mbox_loc_bdc2018
I0725 16:33:19.449663  9400 net.cpp:100] Creating Layer res5c_norm_mbox_loc_bdc2018
I0725 16:33:19.449666  9400 net.cpp:434] res5c_norm_mbox_loc_bdc2018 <- res5c_norm_res5c_norm_0_split_0
I0725 16:33:19.449685  9400 net.cpp:408] res5c_norm_mbox_loc_bdc2018 -> res5c_norm_mbox_loc_bdc2018
I0725 16:33:19.453485  9400 net.cpp:150] Setting up res5c_norm_mbox_loc_bdc2018
I0725 16:33:19.453510  9400 net.cpp:157] Top shape: 2 16 19 19 (11552)
I0725 16:33:19.453514  9400 net.cpp:165] Memory required for data: 5254397088
I0725 16:33:19.453521  9400 layer_factory.hpp:77] Creating layer res5c_norm_mbox_loc_bdc2018_perm_bdc2018
I0725 16:33:19.453528  9400 net.cpp:100] Creating Layer res5c_norm_mbox_loc_bdc2018_perm_bdc2018
I0725 16:33:19.453533  9400 net.cpp:434] res5c_norm_mbox_loc_bdc2018_perm_bdc2018 <- res5c_norm_mbox_loc_bdc2018
I0725 16:33:19.453541  9400 net.cpp:408] res5c_norm_mbox_loc_bdc2018_perm_bdc2018 -> res5c_norm_mbox_loc_bdc2018_perm_bdc2018
I0725 16:33:19.453670  9400 net.cpp:150] Setting up res5c_norm_mbox_loc_bdc2018_perm_bdc2018
I0725 16:33:19.453678  9400 net.cpp:157] Top shape: 2 19 19 16 (11552)
I0725 16:33:19.453681  9400 net.cpp:165] Memory required for data: 5254443296
I0725 16:33:19.453685  9400 layer_factory.hpp:77] Creating layer res5c_norm_mbox_loc_bdc2018_flat_bdc2018
I0725 16:33:19.453691  9400 net.cpp:100] Creating Layer res5c_norm_mbox_loc_bdc2018_flat_bdc2018
I0725 16:33:19.453696  9400 net.cpp:434] res5c_norm_mbox_loc_bdc2018_flat_bdc2018 <- res5c_norm_mbox_loc_bdc2018_perm_bdc2018
I0725 16:33:19.453702  9400 net.cpp:408] res5c_norm_mbox_loc_bdc2018_flat_bdc2018 -> res5c_norm_mbox_loc_bdc2018_flat_bdc2018
I0725 16:33:19.453730  9400 net.cpp:150] Setting up res5c_norm_mbox_loc_bdc2018_flat_bdc2018
I0725 16:33:19.453737  9400 net.cpp:157] Top shape: 2 5776 (11552)
I0725 16:33:19.453739  9400 net.cpp:165] Memory required for data: 5254489504
I0725 16:33:19.453742  9400 layer_factory.hpp:77] Creating layer res5c_norm_mbox_conf_bdc2018_new
I0725 16:33:19.453753  9400 net.cpp:100] Creating Layer res5c_norm_mbox_conf_bdc2018_new
I0725 16:33:19.453758  9400 net.cpp:434] res5c_norm_mbox_conf_bdc2018_new <- res5c_norm_res5c_norm_0_split_1
I0725 16:33:19.453764  9400 net.cpp:408] res5c_norm_mbox_conf_bdc2018_new -> res5c_norm_mbox_conf_bdc2018_new
I0725 16:33:19.459982  9400 net.cpp:150] Setting up res5c_norm_mbox_conf_bdc2018_new
I0725 16:33:19.460009  9400 net.cpp:157] Top shape: 2 36 19 19 (25992)
I0725 16:33:19.460013  9400 net.cpp:165] Memory required for data: 5254593472
I0725 16:33:19.460032  9400 layer_factory.hpp:77] Creating layer res5c_norm_mbox_conf_bdc2018_new_perm_bdc2018_new
I0725 16:33:19.460042  9400 net.cpp:100] Creating Layer res5c_norm_mbox_conf_bdc2018_new_perm_bdc2018_new
I0725 16:33:19.460047  9400 net.cpp:434] res5c_norm_mbox_conf_bdc2018_new_perm_bdc2018_new <- res5c_norm_mbox_conf_bdc2018_new
I0725 16:33:19.460054  9400 net.cpp:408] res5c_norm_mbox_conf_bdc2018_new_perm_bdc2018_new -> res5c_norm_mbox_conf_bdc2018_new_perm_bdc2018_new
I0725 16:33:19.460172  9400 net.cpp:150] Setting up res5c_norm_mbox_conf_bdc2018_new_perm_bdc2018_new
I0725 16:33:19.460182  9400 net.cpp:157] Top shape: 2 19 19 36 (25992)
I0725 16:33:19.460186  9400 net.cpp:165] Memory required for data: 5254697440
I0725 16:33:19.460188  9400 layer_factory.hpp:77] Creating layer res5c_norm_mbox_conf_bdc2018_new_flat_bdc2018_new
I0725 16:33:19.460196  9400 net.cpp:100] Creating Layer res5c_norm_mbox_conf_bdc2018_new_flat_bdc2018_new
I0725 16:33:19.460201  9400 net.cpp:434] res5c_norm_mbox_conf_bdc2018_new_flat_bdc2018_new <- res5c_norm_mbox_conf_bdc2018_new_perm_bdc2018_new
I0725 16:33:19.460206  9400 net.cpp:408] res5c_norm_mbox_conf_bdc2018_new_flat_bdc2018_new -> res5c_norm_mbox_conf_bdc2018_new_flat_bdc2018_new
I0725 16:33:19.460232  9400 net.cpp:150] Setting up res5c_norm_mbox_conf_bdc2018_new_flat_bdc2018_new
I0725 16:33:19.460239  9400 net.cpp:157] Top shape: 2 12996 (25992)
I0725 16:33:19.460242  9400 net.cpp:165] Memory required for data: 5254801408
I0725 16:33:19.460245  9400 layer_factory.hpp:77] Creating layer res5c_norm_mbox_priorbox
I0725 16:33:19.460345  9400 net.cpp:100] Creating Layer res5c_norm_mbox_priorbox
I0725 16:33:19.460350  9400 net.cpp:434] res5c_norm_mbox_priorbox <- res5c_norm_res5c_norm_0_split_2
I0725 16:33:19.460367  9400 net.cpp:434] res5c_norm_mbox_priorbox <- data_data_0_split_1
I0725 16:33:19.460374  9400 net.cpp:408] res5c_norm_mbox_priorbox -> res5c_norm_mbox_priorbox
I0725 16:33:19.460408  9400 net.cpp:150] Setting up res5c_norm_mbox_priorbox
I0725 16:33:19.460417  9400 net.cpp:157] Top shape: 1 2 5776 (11552)
I0725 16:33:19.460419  9400 net.cpp:165] Memory required for data: 5254847616
I0725 16:33:19.460423  9400 layer_factory.hpp:77] Creating layer pool5_mbox_loc_bdc2018
I0725 16:33:19.460433  9400 net.cpp:100] Creating Layer pool5_mbox_loc_bdc2018
I0725 16:33:19.460438  9400 net.cpp:434] pool5_mbox_loc_bdc2018 <- pool5_pool5_0_split_1
I0725 16:33:19.460443  9400 net.cpp:408] pool5_mbox_loc_bdc2018 -> pool5_mbox_loc_bdc2018
I0725 16:33:19.465545  9400 net.cpp:150] Setting up pool5_mbox_loc_bdc2018
I0725 16:33:19.465572  9400 net.cpp:157] Top shape: 2 24 1 1 (48)
I0725 16:33:19.465576  9400 net.cpp:165] Memory required for data: 5254847808
I0725 16:33:19.465584  9400 layer_factory.hpp:77] Creating layer pool5_mbox_loc_bdc2018_perm_bdc2018
I0725 16:33:19.465590  9400 net.cpp:100] Creating Layer pool5_mbox_loc_bdc2018_perm_bdc2018
I0725 16:33:19.465595  9400 net.cpp:434] pool5_mbox_loc_bdc2018_perm_bdc2018 <- pool5_mbox_loc_bdc2018
I0725 16:33:19.465600  9400 net.cpp:408] pool5_mbox_loc_bdc2018_perm_bdc2018 -> pool5_mbox_loc_bdc2018_perm_bdc2018
I0725 16:33:19.465708  9400 net.cpp:150] Setting up pool5_mbox_loc_bdc2018_perm_bdc2018
I0725 16:33:19.465718  9400 net.cpp:157] Top shape: 2 1 1 24 (48)
I0725 16:33:19.465720  9400 net.cpp:165] Memory required for data: 5254848000
I0725 16:33:19.465723  9400 layer_factory.hpp:77] Creating layer pool5_mbox_loc_bdc2018_flat_bdc2018
I0725 16:33:19.465729  9400 net.cpp:100] Creating Layer pool5_mbox_loc_bdc2018_flat_bdc2018
I0725 16:33:19.465734  9400 net.cpp:434] pool5_mbox_loc_bdc2018_flat_bdc2018 <- pool5_mbox_loc_bdc2018_perm_bdc2018
I0725 16:33:19.465739  9400 net.cpp:408] pool5_mbox_loc_bdc2018_flat_bdc2018 -> pool5_mbox_loc_bdc2018_flat_bdc2018
I0725 16:33:19.465806  9400 net.cpp:150] Setting up pool5_mbox_loc_bdc2018_flat_bdc2018
I0725 16:33:19.465814  9400 net.cpp:157] Top shape: 2 24 (48)
I0725 16:33:19.465817  9400 net.cpp:165] Memory required for data: 5254848192
I0725 16:33:19.465821  9400 layer_factory.hpp:77] Creating layer pool5_mbox_conf_bdc2018_new
I0725 16:33:19.465829  9400 net.cpp:100] Creating Layer pool5_mbox_conf_bdc2018_new
I0725 16:33:19.465833  9400 net.cpp:434] pool5_mbox_conf_bdc2018_new <- pool5_pool5_0_split_2
I0725 16:33:19.465839  9400 net.cpp:408] pool5_mbox_conf_bdc2018_new -> pool5_mbox_conf_bdc2018_new
I0725 16:33:19.474354  9400 net.cpp:150] Setting up pool5_mbox_conf_bdc2018_new
I0725 16:33:19.474370  9400 net.cpp:157] Top shape: 2 54 1 1 (108)
I0725 16:33:19.474372  9400 net.cpp:165] Memory required for data: 5254848624
I0725 16:33:19.474381  9400 layer_factory.hpp:77] Creating layer pool5_mbox_conf_bdc2018_new_perm_bdc2018_new
I0725 16:33:19.474390  9400 net.cpp:100] Creating Layer pool5_mbox_conf_bdc2018_new_perm_bdc2018_new
I0725 16:33:19.474395  9400 net.cpp:434] pool5_mbox_conf_bdc2018_new_perm_bdc2018_new <- pool5_mbox_conf_bdc2018_new
I0725 16:33:19.474401  9400 net.cpp:408] pool5_mbox_conf_bdc2018_new_perm_bdc2018_new -> pool5_mbox_conf_bdc2018_new_perm_bdc2018_new
I0725 16:33:19.474519  9400 net.cpp:150] Setting up pool5_mbox_conf_bdc2018_new_perm_bdc2018_new
I0725 16:33:19.474529  9400 net.cpp:157] Top shape: 2 1 1 54 (108)
I0725 16:33:19.474531  9400 net.cpp:165] Memory required for data: 5254849056
I0725 16:33:19.474535  9400 layer_factory.hpp:77] Creating layer pool5_mbox_conf_bdc2018_new_flat_bdc2018_new
I0725 16:33:19.474544  9400 net.cpp:100] Creating Layer pool5_mbox_conf_bdc2018_new_flat_bdc2018_new
I0725 16:33:19.474547  9400 net.cpp:434] pool5_mbox_conf_bdc2018_new_flat_bdc2018_new <- pool5_mbox_conf_bdc2018_new_perm_bdc2018_new
I0725 16:33:19.474552  9400 net.cpp:408] pool5_mbox_conf_bdc2018_new_flat_bdc2018_new -> pool5_mbox_conf_bdc2018_new_flat_bdc2018_new
I0725 16:33:19.474598  9400 net.cpp:150] Setting up pool5_mbox_conf_bdc2018_new_flat_bdc2018_new
I0725 16:33:19.474606  9400 net.cpp:157] Top shape: 2 54 (108)
I0725 16:33:19.474608  9400 net.cpp:165] Memory required for data: 5254849488
I0725 16:33:19.474611  9400 layer_factory.hpp:77] Creating layer pool5_mbox_priorbox
I0725 16:33:19.474620  9400 net.cpp:100] Creating Layer pool5_mbox_priorbox
I0725 16:33:19.474624  9400 net.cpp:434] pool5_mbox_priorbox <- pool5_pool5_0_split_3
I0725 16:33:19.474629  9400 net.cpp:434] pool5_mbox_priorbox <- data_data_0_split_2
I0725 16:33:19.474637  9400 net.cpp:408] pool5_mbox_priorbox -> pool5_mbox_priorbox
I0725 16:33:19.474663  9400 net.cpp:150] Setting up pool5_mbox_priorbox
I0725 16:33:19.474670  9400 net.cpp:157] Top shape: 1 2 24 (48)
I0725 16:33:19.474673  9400 net.cpp:165] Memory required for data: 5254849680
I0725 16:33:19.474676  9400 layer_factory.hpp:77] Creating layer conv6_2_mbox_loc_bdc2018
I0725 16:33:19.474689  9400 net.cpp:100] Creating Layer conv6_2_mbox_loc_bdc2018
I0725 16:33:19.474694  9400 net.cpp:434] conv6_2_mbox_loc_bdc2018 <- conv6_2_conv6_2_relu_0_split_1
I0725 16:33:19.474700  9400 net.cpp:408] conv6_2_mbox_loc_bdc2018 -> conv6_2_mbox_loc_bdc2018
I0725 16:33:19.476864  9400 net.cpp:150] Setting up conv6_2_mbox_loc_bdc2018
I0725 16:33:19.476879  9400 net.cpp:157] Top shape: 2 24 1 1 (48)
I0725 16:33:19.476894  9400 net.cpp:165] Memory required for data: 5254849872
I0725 16:33:19.476902  9400 layer_factory.hpp:77] Creating layer conv6_2_mbox_loc_bdc2018_perm_bdc2018
I0725 16:33:19.476908  9400 net.cpp:100] Creating Layer conv6_2_mbox_loc_bdc2018_perm_bdc2018
I0725 16:33:19.476913  9400 net.cpp:434] conv6_2_mbox_loc_bdc2018_perm_bdc2018 <- conv6_2_mbox_loc_bdc2018
I0725 16:33:19.476920  9400 net.cpp:408] conv6_2_mbox_loc_bdc2018_perm_bdc2018 -> conv6_2_mbox_loc_bdc2018_perm_bdc2018
I0725 16:33:19.477041  9400 net.cpp:150] Setting up conv6_2_mbox_loc_bdc2018_perm_bdc2018
I0725 16:33:19.477051  9400 net.cpp:157] Top shape: 2 1 1 24 (48)
I0725 16:33:19.477053  9400 net.cpp:165] Memory required for data: 5254850064
I0725 16:33:19.477056  9400 layer_factory.hpp:77] Creating layer conv6_2_mbox_loc_bdc2018_flat_bdc2018
I0725 16:33:19.477062  9400 net.cpp:100] Creating Layer conv6_2_mbox_loc_bdc2018_flat_bdc2018
I0725 16:33:19.477066  9400 net.cpp:434] conv6_2_mbox_loc_bdc2018_flat_bdc2018 <- conv6_2_mbox_loc_bdc2018_perm_bdc2018
I0725 16:33:19.477072  9400 net.cpp:408] conv6_2_mbox_loc_bdc2018_flat_bdc2018 -> conv6_2_mbox_loc_bdc2018_flat_bdc2018
I0725 16:33:19.477100  9400 net.cpp:150] Setting up conv6_2_mbox_loc_bdc2018_flat_bdc2018
I0725 16:33:19.477108  9400 net.cpp:157] Top shape: 2 24 (48)
I0725 16:33:19.477110  9400 net.cpp:165] Memory required for data: 5254850256
I0725 16:33:19.477113  9400 layer_factory.hpp:77] Creating layer conv6_2_mbox_conf_bdc2018_new
I0725 16:33:19.477123  9400 net.cpp:100] Creating Layer conv6_2_mbox_conf_bdc2018_new
I0725 16:33:19.477128  9400 net.cpp:434] conv6_2_mbox_conf_bdc2018_new <- conv6_2_conv6_2_relu_0_split_2
I0725 16:33:19.477135  9400 net.cpp:408] conv6_2_mbox_conf_bdc2018_new -> conv6_2_mbox_conf_bdc2018_new
I0725 16:33:19.480165  9400 net.cpp:150] Setting up conv6_2_mbox_conf_bdc2018_new
I0725 16:33:19.480180  9400 net.cpp:157] Top shape: 2 54 1 1 (108)
I0725 16:33:19.480182  9400 net.cpp:165] Memory required for data: 5254850688
I0725 16:33:19.480191  9400 layer_factory.hpp:77] Creating layer conv6_2_mbox_conf_bdc2018_new_perm_bdc2018_new
I0725 16:33:19.480199  9400 net.cpp:100] Creating Layer conv6_2_mbox_conf_bdc2018_new_perm_bdc2018_new
I0725 16:33:19.480203  9400 net.cpp:434] conv6_2_mbox_conf_bdc2018_new_perm_bdc2018_new <- conv6_2_mbox_conf_bdc2018_new
I0725 16:33:19.480209  9400 net.cpp:408] conv6_2_mbox_conf_bdc2018_new_perm_bdc2018_new -> conv6_2_mbox_conf_bdc2018_new_perm_bdc2018_new
I0725 16:33:19.480327  9400 net.cpp:150] Setting up conv6_2_mbox_conf_bdc2018_new_perm_bdc2018_new
I0725 16:33:19.480338  9400 net.cpp:157] Top shape: 2 1 1 54 (108)
I0725 16:33:19.480341  9400 net.cpp:165] Memory required for data: 5254851120
I0725 16:33:19.480355  9400 layer_factory.hpp:77] Creating layer conv6_2_mbox_conf_bdc2018_new_flat_bdc2018_new
I0725 16:33:19.480365  9400 net.cpp:100] Creating Layer conv6_2_mbox_conf_bdc2018_new_flat_bdc2018_new
I0725 16:33:19.480368  9400 net.cpp:434] conv6_2_mbox_conf_bdc2018_new_flat_bdc2018_new <- conv6_2_mbox_conf_bdc2018_new_perm_bdc2018_new
I0725 16:33:19.480373  9400 net.cpp:408] conv6_2_mbox_conf_bdc2018_new_flat_bdc2018_new -> conv6_2_mbox_conf_bdc2018_new_flat_bdc2018_new
I0725 16:33:19.480402  9400 net.cpp:150] Setting up conv6_2_mbox_conf_bdc2018_new_flat_bdc2018_new
I0725 16:33:19.480410  9400 net.cpp:157] Top shape: 2 54 (108)
I0725 16:33:19.480413  9400 net.cpp:165] Memory required for data: 5254851552
I0725 16:33:19.480417  9400 layer_factory.hpp:77] Creating layer conv6_2_mbox_priorbox
I0725 16:33:19.480424  9400 net.cpp:100] Creating Layer conv6_2_mbox_priorbox
I0725 16:33:19.480428  9400 net.cpp:434] conv6_2_mbox_priorbox <- conv6_2_conv6_2_relu_0_split_3
I0725 16:33:19.480432  9400 net.cpp:434] conv6_2_mbox_priorbox <- data_data_0_split_3
I0725 16:33:19.480437  9400 net.cpp:408] conv6_2_mbox_priorbox -> conv6_2_mbox_priorbox
I0725 16:33:19.480466  9400 net.cpp:150] Setting up conv6_2_mbox_priorbox
I0725 16:33:19.480475  9400 net.cpp:157] Top shape: 1 2 24 (48)
I0725 16:33:19.480478  9400 net.cpp:165] Memory required for data: 5254851744
I0725 16:33:19.480482  9400 layer_factory.hpp:77] Creating layer conv7_2_mbox_loc_bdc2018
I0725 16:33:19.480490  9400 net.cpp:100] Creating Layer conv7_2_mbox_loc_bdc2018
I0725 16:33:19.480494  9400 net.cpp:434] conv7_2_mbox_loc_bdc2018 <- conv7_2_conv7_2_relu_0_split_1
I0725 16:33:19.480506  9400 net.cpp:408] conv7_2_mbox_loc_bdc2018 -> conv7_2_mbox_loc_bdc2018
I0725 16:33:19.483471  9400 net.cpp:150] Setting up conv7_2_mbox_loc_bdc2018
I0725 16:33:19.483486  9400 net.cpp:157] Top shape: 2 24 1 1 (48)
I0725 16:33:19.483489  9400 net.cpp:165] Memory required for data: 5254851936
I0725 16:33:19.483497  9400 layer_factory.hpp:77] Creating layer conv7_2_mbox_loc_bdc2018_perm_bdc2018
I0725 16:33:19.483505  9400 net.cpp:100] Creating Layer conv7_2_mbox_loc_bdc2018_perm_bdc2018
I0725 16:33:19.483510  9400 net.cpp:434] conv7_2_mbox_loc_bdc2018_perm_bdc2018 <- conv7_2_mbox_loc_bdc2018
I0725 16:33:19.483516  9400 net.cpp:408] conv7_2_mbox_loc_bdc2018_perm_bdc2018 -> conv7_2_mbox_loc_bdc2018_perm_bdc2018
I0725 16:33:19.483635  9400 net.cpp:150] Setting up conv7_2_mbox_loc_bdc2018_perm_bdc2018
I0725 16:33:19.483644  9400 net.cpp:157] Top shape: 2 1 1 24 (48)
I0725 16:33:19.483647  9400 net.cpp:165] Memory required for data: 5254852128
I0725 16:33:19.483650  9400 layer_factory.hpp:77] Creating layer conv7_2_mbox_loc_bdc2018_flat_bdc2018
I0725 16:33:19.483657  9400 net.cpp:100] Creating Layer conv7_2_mbox_loc_bdc2018_flat_bdc2018
I0725 16:33:19.483661  9400 net.cpp:434] conv7_2_mbox_loc_bdc2018_flat_bdc2018 <- conv7_2_mbox_loc_bdc2018_perm_bdc2018
I0725 16:33:19.483666  9400 net.cpp:408] conv7_2_mbox_loc_bdc2018_flat_bdc2018 -> conv7_2_mbox_loc_bdc2018_flat_bdc2018
I0725 16:33:19.483693  9400 net.cpp:150] Setting up conv7_2_mbox_loc_bdc2018_flat_bdc2018
I0725 16:33:19.483701  9400 net.cpp:157] Top shape: 2 24 (48)
I0725 16:33:19.483703  9400 net.cpp:165] Memory required for data: 5254852320
I0725 16:33:19.483707  9400 layer_factory.hpp:77] Creating layer conv7_2_mbox_conf_bdc2018_new
I0725 16:33:19.483719  9400 net.cpp:100] Creating Layer conv7_2_mbox_conf_bdc2018_new
I0725 16:33:19.483726  9400 net.cpp:434] conv7_2_mbox_conf_bdc2018_new <- conv7_2_conv7_2_relu_0_split_2
I0725 16:33:19.483733  9400 net.cpp:408] conv7_2_mbox_conf_bdc2018_new -> conv7_2_mbox_conf_bdc2018_new
I0725 16:33:19.486050  9400 net.cpp:150] Setting up conv7_2_mbox_conf_bdc2018_new
I0725 16:33:19.486065  9400 net.cpp:157] Top shape: 2 54 1 1 (108)
I0725 16:33:19.486069  9400 net.cpp:165] Memory required for data: 5254852752
I0725 16:33:19.486076  9400 layer_factory.hpp:77] Creating layer conv7_2_mbox_conf_bdc2018_new_perm_bdc2018_new
I0725 16:33:19.486085  9400 net.cpp:100] Creating Layer conv7_2_mbox_conf_bdc2018_new_perm_bdc2018_new
I0725 16:33:19.486101  9400 net.cpp:434] conv7_2_mbox_conf_bdc2018_new_perm_bdc2018_new <- conv7_2_mbox_conf_bdc2018_new
I0725 16:33:19.486109  9400 net.cpp:408] conv7_2_mbox_conf_bdc2018_new_perm_bdc2018_new -> conv7_2_mbox_conf_bdc2018_new_perm_bdc2018_new
I0725 16:33:19.486230  9400 net.cpp:150] Setting up conv7_2_mbox_conf_bdc2018_new_perm_bdc2018_new
I0725 16:33:19.486240  9400 net.cpp:157] Top shape: 2 1 1 54 (108)
I0725 16:33:19.486243  9400 net.cpp:165] Memory required for data: 5254853184
I0725 16:33:19.486246  9400 layer_factory.hpp:77] Creating layer conv7_2_mbox_conf_bdc2018_new_flat_bdc2018_new
I0725 16:33:19.486253  9400 net.cpp:100] Creating Layer conv7_2_mbox_conf_bdc2018_new_flat_bdc2018_new
I0725 16:33:19.486256  9400 net.cpp:434] conv7_2_mbox_conf_bdc2018_new_flat_bdc2018_new <- conv7_2_mbox_conf_bdc2018_new_perm_bdc2018_new
I0725 16:33:19.486263  9400 net.cpp:408] conv7_2_mbox_conf_bdc2018_new_flat_bdc2018_new -> conv7_2_mbox_conf_bdc2018_new_flat_bdc2018_new
I0725 16:33:19.486290  9400 net.cpp:150] Setting up conv7_2_mbox_conf_bdc2018_new_flat_bdc2018_new
I0725 16:33:19.486297  9400 net.cpp:157] Top shape: 2 54 (108)
I0725 16:33:19.486300  9400 net.cpp:165] Memory required for data: 5254853616
I0725 16:33:19.486305  9400 layer_factory.hpp:77] Creating layer conv7_2_mbox_priorbox
I0725 16:33:19.486311  9400 net.cpp:100] Creating Layer conv7_2_mbox_priorbox
I0725 16:33:19.486315  9400 net.cpp:434] conv7_2_mbox_priorbox <- conv7_2_conv7_2_relu_0_split_3
I0725 16:33:19.486320  9400 net.cpp:434] conv7_2_mbox_priorbox <- data_data_0_split_4
I0725 16:33:19.486327  9400 net.cpp:408] conv7_2_mbox_priorbox -> conv7_2_mbox_priorbox
I0725 16:33:19.486356  9400 net.cpp:150] Setting up conv7_2_mbox_priorbox
I0725 16:33:19.486363  9400 net.cpp:157] Top shape: 1 2 24 (48)
I0725 16:33:19.486366  9400 net.cpp:165] Memory required for data: 5254853808
I0725 16:33:19.486369  9400 layer_factory.hpp:77] Creating layer conv8_2_mbox_loc_bdc2018
I0725 16:33:19.486380  9400 net.cpp:100] Creating Layer conv8_2_mbox_loc_bdc2018
I0725 16:33:19.486387  9400 net.cpp:434] conv8_2_mbox_loc_bdc2018 <- conv8_2_conv8_2_relu_0_split_1
I0725 16:33:19.486393  9400 net.cpp:408] conv8_2_mbox_loc_bdc2018 -> conv8_2_mbox_loc_bdc2018
I0725 16:33:19.488209  9400 net.cpp:150] Setting up conv8_2_mbox_loc_bdc2018
I0725 16:33:19.488224  9400 net.cpp:157] Top shape: 2 16 1 1 (32)
I0725 16:33:19.488238  9400 net.cpp:165] Memory required for data: 5254853936
I0725 16:33:19.488245  9400 layer_factory.hpp:77] Creating layer conv8_2_mbox_loc_bdc2018_perm_bdc2018
I0725 16:33:19.488255  9400 net.cpp:100] Creating Layer conv8_2_mbox_loc_bdc2018_perm_bdc2018
I0725 16:33:19.488258  9400 net.cpp:434] conv8_2_mbox_loc_bdc2018_perm_bdc2018 <- conv8_2_mbox_loc_bdc2018
I0725 16:33:19.488265  9400 net.cpp:408] conv8_2_mbox_loc_bdc2018_perm_bdc2018 -> conv8_2_mbox_loc_bdc2018_perm_bdc2018
I0725 16:33:19.488385  9400 net.cpp:150] Setting up conv8_2_mbox_loc_bdc2018_perm_bdc2018
I0725 16:33:19.488394  9400 net.cpp:157] Top shape: 2 1 1 16 (32)
I0725 16:33:19.488397  9400 net.cpp:165] Memory required for data: 5254854064
I0725 16:33:19.488401  9400 layer_factory.hpp:77] Creating layer conv8_2_mbox_loc_bdc2018_flat_bdc2018
I0725 16:33:19.488409  9400 net.cpp:100] Creating Layer conv8_2_mbox_loc_bdc2018_flat_bdc2018
I0725 16:33:19.488412  9400 net.cpp:434] conv8_2_mbox_loc_bdc2018_flat_bdc2018 <- conv8_2_mbox_loc_bdc2018_perm_bdc2018
I0725 16:33:19.488420  9400 net.cpp:408] conv8_2_mbox_loc_bdc2018_flat_bdc2018 -> conv8_2_mbox_loc_bdc2018_flat_bdc2018
I0725 16:33:19.488445  9400 net.cpp:150] Setting up conv8_2_mbox_loc_bdc2018_flat_bdc2018
I0725 16:33:19.488451  9400 net.cpp:157] Top shape: 2 16 (32)
I0725 16:33:19.488454  9400 net.cpp:165] Memory required for data: 5254854192
I0725 16:33:19.488457  9400 layer_factory.hpp:77] Creating layer conv8_2_mbox_conf_bdc2018_new
I0725 16:33:19.488468  9400 net.cpp:100] Creating Layer conv8_2_mbox_conf_bdc2018_new
I0725 16:33:19.488476  9400 net.cpp:434] conv8_2_mbox_conf_bdc2018_new <- conv8_2_conv8_2_relu_0_split_2
I0725 16:33:19.488493  9400 net.cpp:408] conv8_2_mbox_conf_bdc2018_new -> conv8_2_mbox_conf_bdc2018_new
I0725 16:33:19.490535  9400 net.cpp:150] Setting up conv8_2_mbox_conf_bdc2018_new
I0725 16:33:19.490550  9400 net.cpp:157] Top shape: 2 36 1 1 (72)
I0725 16:33:19.490553  9400 net.cpp:165] Memory required for data: 5254854480
I0725 16:33:19.490561  9400 layer_factory.hpp:77] Creating layer conv8_2_mbox_conf_bdc2018_new_perm_bdc2018_new
I0725 16:33:19.490577  9400 net.cpp:100] Creating Layer conv8_2_mbox_conf_bdc2018_new_perm_bdc2018_new
I0725 16:33:19.490581  9400 net.cpp:434] conv8_2_mbox_conf_bdc2018_new_perm_bdc2018_new <- conv8_2_mbox_conf_bdc2018_new
I0725 16:33:19.490594  9400 net.cpp:408] conv8_2_mbox_conf_bdc2018_new_perm_bdc2018_new -> conv8_2_mbox_conf_bdc2018_new_perm_bdc2018_new
I0725 16:33:19.490713  9400 net.cpp:150] Setting up conv8_2_mbox_conf_bdc2018_new_perm_bdc2018_new
I0725 16:33:19.490722  9400 net.cpp:157] Top shape: 2 1 1 36 (72)
I0725 16:33:19.490725  9400 net.cpp:165] Memory required for data: 5254854768
I0725 16:33:19.490731  9400 layer_factory.hpp:77] Creating layer conv8_2_mbox_conf_bdc2018_new_flat_bdc2018_new
I0725 16:33:19.490737  9400 net.cpp:100] Creating Layer conv8_2_mbox_conf_bdc2018_new_flat_bdc2018_new
I0725 16:33:19.490741  9400 net.cpp:434] conv8_2_mbox_conf_bdc2018_new_flat_bdc2018_new <- conv8_2_mbox_conf_bdc2018_new_perm_bdc2018_new
I0725 16:33:19.490746  9400 net.cpp:408] conv8_2_mbox_conf_bdc2018_new_flat_bdc2018_new -> conv8_2_mbox_conf_bdc2018_new_flat_bdc2018_new
I0725 16:33:19.490773  9400 net.cpp:150] Setting up conv8_2_mbox_conf_bdc2018_new_flat_bdc2018_new
I0725 16:33:19.490780  9400 net.cpp:157] Top shape: 2 36 (72)
I0725 16:33:19.490783  9400 net.cpp:165] Memory required for data: 5254855056
I0725 16:33:19.490787  9400 layer_factory.hpp:77] Creating layer conv8_2_mbox_priorbox
I0725 16:33:19.490794  9400 net.cpp:100] Creating Layer conv8_2_mbox_priorbox
I0725 16:33:19.490798  9400 net.cpp:434] conv8_2_mbox_priorbox <- conv8_2_conv8_2_relu_0_split_3
I0725 16:33:19.490803  9400 net.cpp:434] conv8_2_mbox_priorbox <- data_data_0_split_5
I0725 16:33:19.490808  9400 net.cpp:408] conv8_2_mbox_priorbox -> conv8_2_mbox_priorbox
I0725 16:33:19.490837  9400 net.cpp:150] Setting up conv8_2_mbox_priorbox
I0725 16:33:19.490844  9400 net.cpp:157] Top shape: 1 2 16 (32)
I0725 16:33:19.490847  9400 net.cpp:165] Memory required for data: 5254855184
I0725 16:33:19.490850  9400 layer_factory.hpp:77] Creating layer conv9_2_mbox_loc_bdc2018
I0725 16:33:19.490860  9400 net.cpp:100] Creating Layer conv9_2_mbox_loc_bdc2018
I0725 16:33:19.490864  9400 net.cpp:434] conv9_2_mbox_loc_bdc2018 <- conv9_2_conv9_2_relu_0_split_0
I0725 16:33:19.490872  9400 net.cpp:408] conv9_2_mbox_loc_bdc2018 -> conv9_2_mbox_loc_bdc2018
I0725 16:33:19.492444  9400 net.cpp:150] Setting up conv9_2_mbox_loc_bdc2018
I0725 16:33:19.492460  9400 net.cpp:157] Top shape: 2 16 1 1 (32)
I0725 16:33:19.492463  9400 net.cpp:165] Memory required for data: 5254855312
I0725 16:33:19.492470  9400 layer_factory.hpp:77] Creating layer conv9_2_mbox_loc_bdc2018_perm_bdc2018
I0725 16:33:19.492491  9400 net.cpp:100] Creating Layer conv9_2_mbox_loc_bdc2018_perm_bdc2018
I0725 16:33:19.492496  9400 net.cpp:434] conv9_2_mbox_loc_bdc2018_perm_bdc2018 <- conv9_2_mbox_loc_bdc2018
I0725 16:33:19.492503  9400 net.cpp:408] conv9_2_mbox_loc_bdc2018_perm_bdc2018 -> conv9_2_mbox_loc_bdc2018_perm_bdc2018
I0725 16:33:19.492621  9400 net.cpp:150] Setting up conv9_2_mbox_loc_bdc2018_perm_bdc2018
I0725 16:33:19.492630  9400 net.cpp:157] Top shape: 2 1 1 16 (32)
I0725 16:33:19.492632  9400 net.cpp:165] Memory required for data: 5254855440
I0725 16:33:19.492636  9400 layer_factory.hpp:77] Creating layer conv9_2_mbox_loc_bdc2018_flat_bdc2018
I0725 16:33:19.492643  9400 net.cpp:100] Creating Layer conv9_2_mbox_loc_bdc2018_flat_bdc2018
I0725 16:33:19.492646  9400 net.cpp:434] conv9_2_mbox_loc_bdc2018_flat_bdc2018 <- conv9_2_mbox_loc_bdc2018_perm_bdc2018
I0725 16:33:19.492653  9400 net.cpp:408] conv9_2_mbox_loc_bdc2018_flat_bdc2018 -> conv9_2_mbox_loc_bdc2018_flat_bdc2018
I0725 16:33:19.492696  9400 net.cpp:150] Setting up conv9_2_mbox_loc_bdc2018_flat_bdc2018
I0725 16:33:19.492703  9400 net.cpp:157] Top shape: 2 16 (32)
I0725 16:33:19.492707  9400 net.cpp:165] Memory required for data: 5254855568
I0725 16:33:19.492709  9400 layer_factory.hpp:77] Creating layer conv9_2_mbox_conf_bdc2018_new
I0725 16:33:19.492722  9400 net.cpp:100] Creating Layer conv9_2_mbox_conf_bdc2018_new
I0725 16:33:19.492729  9400 net.cpp:434] conv9_2_mbox_conf_bdc2018_new <- conv9_2_conv9_2_relu_0_split_1
I0725 16:33:19.492738  9400 net.cpp:408] conv9_2_mbox_conf_bdc2018_new -> conv9_2_mbox_conf_bdc2018_new
I0725 16:33:19.494768  9400 net.cpp:150] Setting up conv9_2_mbox_conf_bdc2018_new
I0725 16:33:19.494782  9400 net.cpp:157] Top shape: 2 36 1 1 (72)
I0725 16:33:19.494797  9400 net.cpp:165] Memory required for data: 5254855856
I0725 16:33:19.494804  9400 layer_factory.hpp:77] Creating layer conv9_2_mbox_conf_bdc2018_new_perm_bdc2018_new
I0725 16:33:19.494812  9400 net.cpp:100] Creating Layer conv9_2_mbox_conf_bdc2018_new_perm_bdc2018_new
I0725 16:33:19.494817  9400 net.cpp:434] conv9_2_mbox_conf_bdc2018_new_perm_bdc2018_new <- conv9_2_mbox_conf_bdc2018_new
I0725 16:33:19.494823  9400 net.cpp:408] conv9_2_mbox_conf_bdc2018_new_perm_bdc2018_new -> conv9_2_mbox_conf_bdc2018_new_perm_bdc2018_new
I0725 16:33:19.494946  9400 net.cpp:150] Setting up conv9_2_mbox_conf_bdc2018_new_perm_bdc2018_new
I0725 16:33:19.494954  9400 net.cpp:157] Top shape: 2 1 1 36 (72)
I0725 16:33:19.494957  9400 net.cpp:165] Memory required for data: 5254856144
I0725 16:33:19.494961  9400 layer_factory.hpp:77] Creating layer conv9_2_mbox_conf_bdc2018_new_flat_bdc2018_new
I0725 16:33:19.494968  9400 net.cpp:100] Creating Layer conv9_2_mbox_conf_bdc2018_new_flat_bdc2018_new
I0725 16:33:19.494972  9400 net.cpp:434] conv9_2_mbox_conf_bdc2018_new_flat_bdc2018_new <- conv9_2_mbox_conf_bdc2018_new_perm_bdc2018_new
I0725 16:33:19.494977  9400 net.cpp:408] conv9_2_mbox_conf_bdc2018_new_flat_bdc2018_new -> conv9_2_mbox_conf_bdc2018_new_flat_bdc2018_new
I0725 16:33:19.495005  9400 net.cpp:150] Setting up conv9_2_mbox_conf_bdc2018_new_flat_bdc2018_new
I0725 16:33:19.495012  9400 net.cpp:157] Top shape: 2 36 (72)
I0725 16:33:19.495014  9400 net.cpp:165] Memory required for data: 5254856432
I0725 16:33:19.495018  9400 layer_factory.hpp:77] Creating layer conv9_2_mbox_priorbox
I0725 16:33:19.495028  9400 net.cpp:100] Creating Layer conv9_2_mbox_priorbox
I0725 16:33:19.495031  9400 net.cpp:434] conv9_2_mbox_priorbox <- conv9_2_conv9_2_relu_0_split_2
I0725 16:33:19.495035  9400 net.cpp:434] conv9_2_mbox_priorbox <- data_data_0_split_6
I0725 16:33:19.495041  9400 net.cpp:408] conv9_2_mbox_priorbox -> conv9_2_mbox_priorbox
I0725 16:33:19.495070  9400 net.cpp:150] Setting up conv9_2_mbox_priorbox
I0725 16:33:19.495077  9400 net.cpp:157] Top shape: 1 2 16 (32)
I0725 16:33:19.495080  9400 net.cpp:165] Memory required for data: 5254856560
I0725 16:33:19.495084  9400 layer_factory.hpp:77] Creating layer mbox_loc
I0725 16:33:19.495092  9400 net.cpp:100] Creating Layer mbox_loc
I0725 16:33:19.495096  9400 net.cpp:434] mbox_loc <- res5c_norm_mbox_loc_bdc2018_flat_bdc2018
I0725 16:33:19.495101  9400 net.cpp:434] mbox_loc <- pool5_mbox_loc_bdc2018_flat_bdc2018
I0725 16:33:19.495105  9400 net.cpp:434] mbox_loc <- conv6_2_mbox_loc_bdc2018_flat_bdc2018
I0725 16:33:19.495110  9400 net.cpp:434] mbox_loc <- conv7_2_mbox_loc_bdc2018_flat_bdc2018
I0725 16:33:19.495113  9400 net.cpp:434] mbox_loc <- conv8_2_mbox_loc_bdc2018_flat_bdc2018
I0725 16:33:19.495117  9400 net.cpp:434] mbox_loc <- conv9_2_mbox_loc_bdc2018_flat_bdc2018
I0725 16:33:19.495122  9400 net.cpp:408] mbox_loc -> mbox_loc
I0725 16:33:19.495151  9400 net.cpp:150] Setting up mbox_loc
I0725 16:33:19.495158  9400 net.cpp:157] Top shape: 2 5880 (11760)
I0725 16:33:19.495160  9400 net.cpp:165] Memory required for data: 5254903600
I0725 16:33:19.495163  9400 layer_factory.hpp:77] Creating layer mbox_conf
I0725 16:33:19.495169  9400 net.cpp:100] Creating Layer mbox_conf
I0725 16:33:19.495184  9400 net.cpp:434] mbox_conf <- res5c_norm_mbox_conf_bdc2018_new_flat_bdc2018_new
I0725 16:33:19.495190  9400 net.cpp:434] mbox_conf <- pool5_mbox_conf_bdc2018_new_flat_bdc2018_new
I0725 16:33:19.495194  9400 net.cpp:434] mbox_conf <- conv6_2_mbox_conf_bdc2018_new_flat_bdc2018_new
I0725 16:33:19.495198  9400 net.cpp:434] mbox_conf <- conv7_2_mbox_conf_bdc2018_new_flat_bdc2018_new
I0725 16:33:19.495203  9400 net.cpp:434] mbox_conf <- conv8_2_mbox_conf_bdc2018_new_flat_bdc2018_new
I0725 16:33:19.495206  9400 net.cpp:434] mbox_conf <- conv9_2_mbox_conf_bdc2018_new_flat_bdc2018_new
I0725 16:33:19.495211  9400 net.cpp:408] mbox_conf -> mbox_conf
I0725 16:33:19.495240  9400 net.cpp:150] Setting up mbox_conf
I0725 16:33:19.495247  9400 net.cpp:157] Top shape: 2 13230 (26460)
I0725 16:33:19.495250  9400 net.cpp:165] Memory required for data: 5255009440
I0725 16:33:19.495255  9400 layer_factory.hpp:77] Creating layer mbox_priorbox
I0725 16:33:19.495260  9400 net.cpp:100] Creating Layer mbox_priorbox
I0725 16:33:19.495265  9400 net.cpp:434] mbox_priorbox <- res5c_norm_mbox_priorbox
I0725 16:33:19.495268  9400 net.cpp:434] mbox_priorbox <- pool5_mbox_priorbox
I0725 16:33:19.495272  9400 net.cpp:434] mbox_priorbox <- conv6_2_mbox_priorbox
I0725 16:33:19.495276  9400 net.cpp:434] mbox_priorbox <- conv7_2_mbox_priorbox
I0725 16:33:19.495280  9400 net.cpp:434] mbox_priorbox <- conv8_2_mbox_priorbox
I0725 16:33:19.495283  9400 net.cpp:434] mbox_priorbox <- conv9_2_mbox_priorbox
I0725 16:33:19.495288  9400 net.cpp:408] mbox_priorbox -> mbox_priorbox
I0725 16:33:19.495312  9400 net.cpp:150] Setting up mbox_priorbox
I0725 16:33:19.495319  9400 net.cpp:157] Top shape: 1 2 5880 (11760)
I0725 16:33:19.495322  9400 net.cpp:165] Memory required for data: 5255056480
I0725 16:33:19.495326  9400 layer_factory.hpp:77] Creating layer mbox_conf_reshape
I0725 16:33:19.495335  9400 net.cpp:100] Creating Layer mbox_conf_reshape
I0725 16:33:19.495338  9400 net.cpp:434] mbox_conf_reshape <- mbox_conf
I0725 16:33:19.495343  9400 net.cpp:408] mbox_conf_reshape -> mbox_conf_reshape
I0725 16:33:19.495416  9400 net.cpp:150] Setting up mbox_conf_reshape
I0725 16:33:19.495425  9400 net.cpp:157] Top shape: 2 1470 9 (26460)
I0725 16:33:19.495429  9400 net.cpp:165] Memory required for data: 5255162320
I0725 16:33:19.495431  9400 layer_factory.hpp:77] Creating layer mbox_conf_softmax
I0725 16:33:19.495442  9400 net.cpp:100] Creating Layer mbox_conf_softmax
I0725 16:33:19.495446  9400 net.cpp:434] mbox_conf_softmax <- mbox_conf_reshape
I0725 16:33:19.495451  9400 net.cpp:408] mbox_conf_softmax -> mbox_conf_softmax
I0725 16:33:19.496091  9400 net.cpp:150] Setting up mbox_conf_softmax
I0725 16:33:19.496106  9400 net.cpp:157] Top shape: 2 1470 9 (26460)
I0725 16:33:19.496110  9400 net.cpp:165] Memory required for data: 5255268160
I0725 16:33:19.496114  9400 layer_factory.hpp:77] Creating layer mbox_conf_flatten
I0725 16:33:19.496119  9400 net.cpp:100] Creating Layer mbox_conf_flatten
I0725 16:33:19.496124  9400 net.cpp:434] mbox_conf_flatten <- mbox_conf_softmax
I0725 16:33:19.496131  9400 net.cpp:408] mbox_conf_flatten -> mbox_conf_flatten
I0725 16:33:19.496161  9400 net.cpp:150] Setting up mbox_conf_flatten
I0725 16:33:19.496171  9400 net.cpp:157] Top shape: 2 13230 (26460)
I0725 16:33:19.496174  9400 net.cpp:165] Memory required for data: 5255374000
I0725 16:33:19.496177  9400 layer_factory.hpp:77] Creating layer detection_out
I0725 16:33:19.496203  9400 net.cpp:100] Creating Layer detection_out
I0725 16:33:19.496209  9400 net.cpp:434] detection_out <- mbox_loc
I0725 16:33:19.496214  9400 net.cpp:434] detection_out <- mbox_conf_flatten
I0725 16:33:19.496218  9400 net.cpp:434] detection_out <- mbox_priorbox
I0725 16:33:19.496225  9400 net.cpp:408] detection_out -> detection_out
W0725 16:33:19.496304  9400 detection_output_layer.cpp:49] Failed to create directory: /home/user/data/bdc2018/results/SSD_ResNet600x600/Main
I0725 16:33:19.496922  9400 net.cpp:150] Setting up detection_out
I0725 16:33:19.496937  9400 net.cpp:157] Top shape: 1 1 1 7 (7)
I0725 16:33:19.496950  9400 net.cpp:165] Memory required for data: 5255374028
I0725 16:33:19.496954  9400 layer_factory.hpp:77] Creating layer detection_eval
I0725 16:33:19.496963  9400 net.cpp:100] Creating Layer detection_eval
I0725 16:33:19.496966  9400 net.cpp:434] detection_eval <- detection_out
I0725 16:33:19.496973  9400 net.cpp:434] detection_eval <- label
I0725 16:33:19.496978  9400 net.cpp:408] detection_eval -> detection_eval
I0725 16:33:19.497180  9400 net.cpp:150] Setting up detection_eval
I0725 16:33:19.497192  9400 net.cpp:157] Top shape: 1 1 9 5 (45)
I0725 16:33:19.497195  9400 net.cpp:165] Memory required for data: 5255374208
I0725 16:33:19.497200  9400 net.cpp:228] detection_eval does not need backward computation.
I0725 16:33:19.497203  9400 net.cpp:228] detection_out does not need backward computation.
I0725 16:33:19.497207  9400 net.cpp:228] mbox_conf_flatten does not need backward computation.
I0725 16:33:19.497211  9400 net.cpp:228] mbox_conf_softmax does not need backward computation.
…
