…
      sampler {
        min_scale: 0.3
        max_scale: 1
        min_aspect_ratio: 0.5
        max_aspect_ratio: 2
      }
      sample_constraint {
        min_jaccard_overlap: 0.9
      }
      max_sample: 1
      max_trials: 50
    }
    batch_sampler {
      sampler {
        min_scale: 0.3
        max_scale: 1
        min_aspect_ratio: 0.5
        max_aspect_ratio: 2
      }
      sample_constraint {
        max_jaccard_overlap: 1
      }
      max_sample: 1
      max_trials: 50
    }
    label_map_file: "data/bdc2018/labelmap_bdc.prototxt"
  }
}
layer {
  name: "conv1"
  type: "Convolution"
  bottom: "data"
  top: "conv1"
  param {
    lr_mult: 1
    decay_mult: 1
  }
  convolution_param {
    num_output: 64
    bias_term: false
    pad: 3
    kernel_size: 7
    stride: 2
    weight_filler {
      type: "gaussian"
      std: 0.01
    }
  }
}
layer {
  name: "bn_conv1"
  type: "BatchNorm"
  bottom: "conv1"
  top: "conv1"
  batch_norm_param {
    moving_average_fraction: 0.999
    eps: 0.001
  }
}
layer {
  name: "scale_conv1"
  type: "Scale"
  bottom: "conv1"
  top: "conv1"
  param {
    lr_mult: 1
    decay_mult: 0
  }
  param {
    lr_mult: 1
    decay_mult: 0
  }
  scale_param {
    filler {
      type: "constant"
      value: 1
    }
    bias_term: true
    bias_filler {
      type: "constant"
      value: 0
    }
  }
}
layer {
  name: "conv1_relu"
  type: "ReLU"
  bottom: "conv1"
  top: "conv1"
}
layer {
  name: "pool1"
  type: "Pooling"
  bottom: "conv1"
  top: "pool1"
  pooling_param {
    pool: MAX
    kernel_size: 3
    stride: 2
  }
}
layer {
  name: "res2a_branch1"
  type: "Convolution"
  bottom: "pool1"
  top: "res2a_branch1"
  param {
    lr_mult: 1
    decay_mult: 1
  }
  convolution_param {
    num_output: 256
    bias_term: false
    pad: 0
    kernel_size: 1
    stride: 1
    weight_filler {
      type: "gaussian"
      std: 0.01
    }
  }
}
layer {
  name: "bn2a_branch1"
  type: "BatchNorm"
  bottom: "res2a_branch1"
  top: "res2a_branch1"
  batch_norm_param {
    moving_average_fraction: 0.999
    eps: 0.001
  }
}
layer {
  name: "scale2a_branch1"
  type: "Scale"
  bottom: "res2a_branch1"
  top: "res2a_branch1"
  param {
    lr_mult: 1
    decay_mult: 0
  }
  param {
    lr_mult: 1
    decay_mult: 0
  }
  scale_param {
    filler {
      type: "constant"
      value: 1
    }
    bias_term: true
    bias_filler {
      type: "constant"
      value: 0
    }
  }
}
layer {
  name: "res2a_branch2a"
  type: "Convolution"
  bottom: "pool1"
  top: "res2a_branch2a"
  param {
    lr_mult: 1
    decay_mult: 1
  }
  convolution_param {
    num_output: 64
    bias_term: false
    pad: 0
    kernel_size: 1
    stride: 1
    weight_filler {
      type: "gaussian"
      std: 0.01
    }
  }
}
layer {
  name: "bn2a_branch2a"
  type: "BatchNorm"
  bottom: "res2a_branch2a"
  top: "res2a_branch2a"
  batch_norm_param {
    moving_average_fraction: 0.999
    eps: 0.001
  }
}
layer {
  name: "scale2a_branch2a"
  type: "Scale"
  bottom: "res2a_branch2a"
  top: "res2a_branch2a"
  param {
    lr_mult: 1
    decay_mult: 0
  }
  param {
    lr_mult: 1
    decay_mult: 0
  }
  scale_param {
    filler {
      type: "constant"
      value: 1
    }
    bias_term: true
    bias_filler {
      type: "constant"
      value: 0
    }
  }
}
layer {
  name: "res2a_branch2a_relu"
  type: "ReLU"
  bottom: "res2a_branch2a"
  top: "res2a_branch2a"
}
layer {
  name: "res2a_branch2b"
  type: "Convolution"
  bottom: "res2a_branch2a"
  top: "res2a_branch2b"
  param {
    lr_mult: 1
    decay_mult: 1
  }
  convolution_param {
    num_output: 64
    bias_term: false
    pad: 1
    kernel_size: 3
    stride: 1
    weight_filler {
      type: "gaussian"
      std: 0.01
    }
  }
}
layer {
  name: "bn2a_branch2b"
  type: "BatchNorm"
  bottom: "res2a_branch2b"
  top: "res2a_branch2b"
  batch_norm_param {
    moving_average_fraction: 0.999
    eps: 0.001
  }
}
layer {
  name: "scale2a_branch2b"
  type: "Scale"
  bottom: "res2a_branch2b"
  top: "res2a_branch2b"
  param {
    lr_mult: 1
    decay_mult: 0
  }
  param {
    lr_mult: 1
    decay_mult: 0
  }
  scale_param {
    filler {
      type: "constant"
      value: 1
    }
    bias_term: true
    bias_filler {
      type: "constant"
      value: 0
    }
  }
}
layer {
  name: "res2a_branch2b_relu"
  type: "ReLU"
  bottom: "res2a_branch2b"
  top: "res2a_branch2b"
}
layer {
  name: "res2a_branch2c"
  type: "Convolution"
  bottom: "res2a_branch2b"
  top: "res2a_branch2c"
  param {
    lr_mult: 1
    decay_mult: 1
  }
  convolution_param {
    num_output: 256
    bias_term: false
    pad: 0
    kernel_size: 1
    stride: 1
    weight_filler {
      type: "gaussian"
      std: 0.01
    }
  }
}
layer {
  name: "bn2a_branch2c"
  type: "BatchNorm"
  bottom: "res2a_branch2c"
  top: "res2a_branch2c"
  batch_norm_param {
    moving_average_fraction: 0.999
    eps: 0.001
  }
}
layer {
  name: "scale2a_branch2c"
  type: "Scale"
  bottom: "res2a_branch2c"
  top: "res2a_branch2c"
  param {
    lr_mult: 1
    decay_mult: 0
  }
  param {
    lr_mult: 1
    decay_mult: 0
  }
  scale_param {
    filler {
      type: "constant"
      value: 1
    }
    bias_term: true
    bias_filler {
      type: "constant"
      value: 0
    }
  }
}
layer {
  name: "res2a"
  type: "Eltwise"
  bottom: "res2a_branch1"
  bottom: "res2a_branch2c"
  top: "res2a"
}
layer {
  name: "res2a_relu"
  type: "ReLU"
  bottom: "res2a"
  top: "res2a"
}
layer {
  name: "res2b_branch2a"
  type: "Convolution"
  bottom: "res2a"
  top: "res2b_branch2a"
  param {
    lr_mult: 1
    decay_mult: 1
  }
  convolution_param {
    num_output: 64
    bias_term: false
    pad: 0
    kernel_size: 1
    stride: 1
    weight_filler {
      type: "gaussian"
      std: 0.01
    }
  }
}
layer {
  name: "bn2b_branch2a"
  type: "BatchNorm"
  bottom: "res2b_branch2a"
  top: "res2b_branch2a"
  batch_norm_param {
    moving_average_fraction: 0.999
    eps: 0.001
  }
}
layer {
  name: "scale2b_branch2a"
  type: "Scale"
  bottom: "res2b_branch2a"
  top: "res2b_branch2a"
  param {
    lr_mult: 1
    decay_mult: 0
  }
  param {
    lr_mult: 1
    decay_mult: 0
  }
  scale_param {
    filler {
      type: "constant"
      value: 1
    }
    bias_term: true
    bias_filler {
      type: "constant"
      value: 0
    }
  }
}
layer {
  name: "res2b_branch2a_relu"
  type: "ReLU"
  bottom: "res2b_branch2a"
  top: "res2b_branch2a"
}
layer {
  name: "res2b_branch2b"
  type: "Convolution"
  bottom: "res2b_branch2a"
  top: "res2b_branch2b"
  param {
    lr_mult: 1
    decay_mult: 1
  }
  convolution_param {
    num_output: 64
    bias_term: false
    pad: 1
    kernel_size: 3
    stride: 1
    weight_filler {
      type: "gaussian"
      std: 0.01
    }
  }
}
layer {
  name: "bn2b_branch2b"
  type: "BatchNorm"
  bottom: "res2b_branch2b"
  top: "res2b_branch2b"
  batch_norm_param {
    moving_average_fraction: 0.999
    eps: 0.001
  }
}
layer {
  name: "scale2b_branch2b"
  type: "Scale"
  bottom: "res2b_branch2b"
  top: "res2b_branch2b"
  param {
    lr_mult: 1
    decay_mult: 0
  }
  param {
    lr_mult: 1
    decay_mult: 0
  }
  scale_param {
    filler {
      type: "constant"
      value: 1
    }
    bias_term: true
    bias_filler {
      type: "constant"
      value: 0
    }
  }
}
layer {
  name: "res2b_branch2b_relu"
  type: "ReLU"
  bottom: "res2b_branch2b"
  top: "res2b_branch2b"
}
layer {
  name: "res2b_branch2c"
  type: "Convolution"
  bottom: "res2b_branch2b"
  top: "res2b_branch2c"
  param {
    lr_mult: 1
    decay_mult: 1
  }
  convolution_param {
    num_output: 256
    bias_term: false
    pad: 0
    kernel_size: 1
    stride: 1
    weight_filler {
      type: "gaussian"
      std: 0.01
    }
  }
}
layer {
  name: "bn2b_branch2c"
  type: "BatchNorm"
  bottom: "res2b_branch2c"
  top: "res2b_branch2c"
  batch_norm_param {
    moving_average_fraction: 0.999
    eps: 0.001
  }
}
layer {
  name: "scale2b_branch2c"
  type: "Scale"
  bottom: "res2b_branch2c"
  top: "res2b_branch2c"
  param {
    lr_mult: 1
    decay_mult: 0
  }
  param {
    lr_mult: 1
    decay_mult: 0
  }
  scale_param {
    filler {
      type: "constant"
      value: 1
    }
    bias_term: true
    bias_filler {
      type: "constant"
      value: 0
    }
  }
}
layer {
  name: "res2b"
  type: "Eltwise"
  bottom: "res2a"
  bottom: "res2b_branch2c"
  top: "res2b"
}
layer {
  name: "res2b_relu"
  type: "ReLU"
  bottom: "res2b"
  top: "res2b"
}
layer {
  name: "res2c_branch2a"
  type: "Convolution"
  bottom: "res2b"
  top: "res2c_branch2a"
  param {
    lr_mult: 1
    decay_mult: 1
  }
  convolution_param {
    num_output: 64
    bias_term: false
    pad: 0
    kernel_size: 1
    stride: 1
    weight_filler {
      type: "gaussian"
      std: 0.01
    }
  }
}
layer {
  name: "bn2c_branch2a"
  type: "BatchNorm"
  bottom: "res2c_branch2a"
  top: "res2c_branch2a"
  batch_norm_param {
    moving_average_fraction: 0.999
    eps: 0.001
  }
}
layer {
  name: "scale2c_branch2a"
  type: "Scale"
  bottom: "res2c_branch2a"
  top: "res2c_branch2a"
  param {
    lr_mult: 1
    decay_mult: 0
  }
  param {
    lr_mult: 1
    decay_mult: 0
  }
  scale_param {
    filler {
      type: "constant"
      value: 1
    }
    bias_term: true
    bias_filler {
      type: "constant"
      value: 0
    }
  }
}
layer {
  name: "res2c_branch2a_relu"
  type: "ReLU"
  bottom: "res2c_branch2a"
  top: "res2c_branch2a"
}
layer {
  name: "res2c_branch2b"
  type: "Convolution"
  bottom: "res2c_branch2a"
  top: "res2c_branch2b"
  param {
    lr_mult: 1
    decay_mult: 1
  }
  convolution_param {
    num_output: 64
    bias_term: false
    pad: 1
    kernel_size: 3
    stride: 1
    weight_filler {
      type: "gaussian"
      std: 0.01
    }
  }
}
layer {
  name: "bn2c_branch2b"
  type: "BatchNorm"
  bottom: "res2c_branch2b"
  top: "res2c_branch2b"
  batch_norm_param {
    moving_average_fraction: 0.999
    eps: 0.001
  }
}
layer {
  name: "scale2c_branch2b"
  type: "Scale"
  bottom: "res2c_branch2b"
  top: "res2c_branch2b"
  param {
    lr_mult: 1
    decay_mult: 0
  }
  param {
    lr_mult: 1
    decay_mult: 0
  }
  scale_param {
    filler {
      type: "constant"
      value: 1
    }
    bias_term: true
    bias_filler {
      type: "constant"
      value: 0
    }
  }
}
layer {
  name: "res2c_branch2b_relu"
  type: "ReLU"
  bottom: "res2c_branch2b"
  top: "res2c_branch2b"
}
layer {
  name: "res2c_branch2c"
  type: "Convolution"
  bottom: "res2c_branch2b"
  top: "res2c_branch2c"
  param {
    lr_mult: 1
    decay_mult: 1
  }
  convolution_param {
    num_output: 256
    bias_term: false
    pad: 0
    kernel_size: 1
    stride: 1
    weight_filler {
      type: "gaussian"
      std: 0.01
    }
  }
}
layer {
  name: "bn2c_branch2c"
  type: "BatchNorm"
  bottom: "res2c_branch2c"
  top: "res2c_branch2c"
  batch_norm_param {
    moving_average_fraction: 0.999
    eps: 0.001
  }
}
layer {
  name: "scale2c_branch2c"
  type: "Scale"
  bottom: "res2c_branch2c"
  top: "res2c_branch2c"
  param {
    lr_mult: 1
    decay_mult: 0
  }
  param {
    lr_mult: 1
    decay_mult: 0
  }
  scale_param {
    filler {
      type: "constant"
      value: 1
    }
    bias_term: true
    bias_filler {
      type: "constant"
      value: 0
    }
  }
}
layer {
  name: "res2c"
  type: "Eltwise"
  bottom: "res2b"
  bottom: "res2c_branch2c"
  top: "res2c"
}
layer {
  name: "res2c_relu"
  type: "ReLU"
  bottom: "res2c"
  top: "res2c"
}
layer {
  name: "res3a_branch1"
  type: "Convolution"
  bottom: "res2c"
  top: "res3a_branch1"
  param {
    lr_mult: 1
    decay_mult: 1
  }
  convolution_param {
    num_output: 512
    bias_term: false
    pad: 0
    kernel_size: 1
    stride: 2
    weight_filler {
      type: "gaussian"
      std: 0.01
    }
  }
}
layer {
  name: "bn3a_branch1"
  type: "BatchNorm"
  bottom: "res3a_branch1"
  top: "res3a_branch1"
  batch_norm_param {
    moving_average_fraction: 0.999
    eps: 0.001
  }
}
layer {
  name: "scale3a_branch1"
  type: "Scale"
  bottom: "res3a_branch1"
  top: "res3a_branch1"
  param {
    lr_mult: 1
    decay_mult: 0
  }
  param {
    lr_mult: 1
    decay_mult: 0
  }
  scale_param {
    filler {
      type: "constant"
      value: 1
    }
    bias_term: true
    bias_filler {
      type: "constant"
      value: 0
    }
  }
}
layer {
  name: "res3a_branch2a"
  type: "Convolution"
  bottom: "res2c"
  top: "res3a_branch2a"
  param {
    lr_mult: 1
    decay_mult: 1
  }
  convolution_param {
    num_output: 128
    bias_term: false
    pad: 0
    kernel_size: 1
    stride: 2
    weight_filler {
      type: "gaussian"
      std: 0.01
    }
  }
}
layer {
  name: "bn3a_branch2a"
  type: "BatchNorm"
  bottom: "res3a_branch2a"
  top: "res3a_branch2a"
  batch_norm_param {
    moving_average_fraction: 0.999
    eps: 0.001
  }
}
layer {
  name: "scale3a_branch2a"
  type: "Scale"
  bottom: "res3a_branch2a"
  top: "res3a_branch2a"
  param {
    lr_mult: 1
    decay_mult: 0
  }
  param {
    lr_mult: 1
    decay_mult: 0
  }
  scale_param {
    filler {
      type: "constant"
      value: 1
    }
    bias_term: true
    bias_filler {
      type: "constant"
      value: 0
    }
  }
}
layer {
  name: "res3a_branch2a_relu"
  type: "ReLU"
  bottom: "res3a_branch2a"
  top: "res3a_branch2a"
}
layer {
  name: "res3a_branch2b"
  type: "Convolution"
  bottom: "res3a_branch2a"
  top: "res3a_branch2b"
  param {
    lr_mult: 1
    decay_mult: 1
  }
  convolution_param {
    num_output: 128
    bias_term: false
    pad: 1
    kernel_size: 3
    stride: 1
    weight_filler {
      type: "gaussian"
      std: 0.01
    }
  }
}
layer {
  name: "bn3a_branch2b"
  type: "BatchNorm"
  bottom: "res3a_branch2b"
  top: "res3a_branch2b"
  batch_norm_param {
    moving_average_fraction: 0.999
    eps: 0.001
  }
}
layer {
  name: "scale3a_branch2b"
  type: "Scale"
  bottom: "res3a_branch2b"
  top: "res3a_branch2b"
  param {
    lr_mult: 1
    decay_mult: 0
  }
  param {
    lr_mult: 1
    decay_mult: 0
  }
  scale_param {
    filler {
      type: "constant"
      value: 1
    }
    bias_term: true
    bias_filler {
      type: "constant"
      value: 0
    }
  }
}
layer {
  name: "res3a_branch2b_relu"
  type: "ReLU"
  bottom: "res3a_branch2b"
  top: "res3a_branch2b"
}
layer {
  name: "res3a_branch2c"
  type: "Convolution"
  bottom: "res3a_branch2b"
  top: "res3a_branch2c"
  param {
    lr_mult: 1
    decay_mult: 1
  }
  convolution_param {
    num_output: 512
    bias_term: false
    pad: 0
    kernel_size: 1
    stride: 1
    weight_filler {
      type: "gaussian"
      std: 0.01
    }
  }
}
layer {
  name: "bn3a_branch2c"
  type: "BatchNorm"
  bottom: "res3a_branch2c"
  top: "res3a_branch2c"
  batch_norm_param {
    moving_average_fraction: 0.999
    eps: 0.001
  }
}
layer {
  name: "scale3a_branch2c"
  type: "Scale"
  bottom: "res3a_branch2c"
  top: "res3a_branch2c"
  param {
    lr_mult: 1
    decay_mult: 0
  }
  param {
    lr_mult: 1
    decay_mult: 0
  }
  scale_param {
    filler {
      type: "constant"
      value: 1
    }
    bias_term: true
    bias_filler {
      type: "constant"
      value: 0
    }
  }
}
layer {
  name: "res3a"
  type: "Eltwise"
  bottom: "res3a_branch1"
  bottom: "res3a_branch2c"
  top: "res3a"
}
layer {
  name: "res3a_relu"
  type: "ReLU"
  bottom: "res3a"
  top: "res3a"
}
layer {
  name: "res3b1_branch2a"
  type: "Convolution"
  bottom: "res3a"
  top: "res3b1_branch2a"
  param {
    lr_mult: 1
    decay_mult: 1
  }
  convolution_param {
    num_output: 128
    bias_term: false
    pad: 0
    kernel_size: 1
    stride: 1
    weight_filler {
      type: "gaussian"
      std: 0.01
    }
  }
}
layer {
  name: "bn3b1_branch2a"
  type: "BatchNorm"
  bottom: "res3b1_branch2a"
  top: "res3b1_branch2a"
  batch_norm_param {
    moving_average_fraction: 0.999
    eps: 0.001
  }
}
layer {
  name: "scale3b1_branch2a"
  type: "Scale"
  bottom: "res3b1_branch2a"
  top: "res3b1_branch2a"
  param {
    lr_mult: 1
    decay_mult: 0
  }
  param {
    lr_mult: 1
    decay_mult: 0
  }
  scale_param {
    filler {
      type: "constant"
      value: 1
    }
    bias_term: true
    bias_filler {
      type: "constant"
      value: 0
    }
  }
}
layer {
  name: "res3b1_branch2a_relu"
  type: "ReLU"
  bottom: "res3b1_branch2a"
  top: "res3b1_branch2a"
}
layer {
  name: "res3b1_branch2b"
  type: "Convolution"
  bottom: "res3b1_branch2a"
  top: "res3b1_branch2b"
  param {
    lr_mult: 1
    decay_mult: 1
  }
  convolution_param {
    num_output: 128
    bias_term: false
    pad: 1
    kernel_size: 3
    stride: 1
    weight_filler {
      type: "gaussian"
      std: 0.01
    }
  }
}
layer {
  name: "bn3b1_branch2b"
  type: "BatchNorm"
  bottom: "res3b1_branch2b"
  top: "res3b1_branch2b"
  batch_norm_param {
    moving_average_fraction: 0.999
    eps: 0.001
  }
}
layer {
  name: "scale3b1_branch2b"
  type: "Scale"
  bottom: "res3b1_branch2b"
  top: "res3b1_branch2b"
  param {
    lr_mult: 1
    decay_mult: 0
  }
  param {
    lr_mult: 1
    decay_mult: 0
  }
  scale_param {
    filler {
      type: "constant"
      value: 1
    }
    bias_term: true
    bias_filler {
      type: "constant"
      value: 0
    }
  }
}
layer {
  name: "res3b1_branch2b_relu"
  type: "ReLU"
  bottom: "res3b1_branch2b"
  top: "res3b1_branch2b"
}
layer {
  name: "res3b1_branch2c"
  type: "Convolution"
  bottom: "res3b1_branch2b"
  top: "res3b1_branch2c"
  param {
    lr_mult: 1
    decay_mult: 1
  }
  convolution_param {
    num_output: 512
    bias_term: false
    pad: 0
    kernel_size: 1
    stride: 1
    weight_filler {
      type: "gaussian"
      std: 0.01
    }
  }
}
layer {
  name: "bn3b1_branch2c"
  type: "BatchNorm"
  bottom: "res3b1_branch2c"
  top: "res3b1_branch2c"
  batch_norm_param {
    moving_average_fraction: 0.999
    eps: 0.001
  }
}
layer {
  name: "scale3b1_branch2c"
  type: "Scale"
  bottom: "res3b1_branch2c"
  top: "res3b1_branch2c"
  param {
    lr_mult: 1
    decay_mult: 0
  }
  param {
    lr_mult: 1
    decay_mult: 0
  }
  scale_param {
    filler {
      type: "constant"
      value: 1
    }
    bias_term: true
    bias_filler {
      type: "constant"
      value: 0
    }
  }
}
layer {
  name: "res3b1"
  type: "Eltwise"
  bottom: "res3a"
  bottom: "res3b1_branch2c"
  top: "res3b1"
}
layer {
  name: "res3b1_relu"
  type: "ReLU"
  bottom: "res3b1"
  top: "res3b1"
}
layer {
  name: "res3b2_branch2a"
  type: "Convolution"
  bottom: "res3b1"
  top: "res3b2_branch2a"
  param {
    lr_mult: 1
    decay_mult: 1
  }
  convolution_param {
    num_output: 128
    bias_term: false
    pad: 0
    kernel_size: 1
    stride: 1
    weight_filler {
      type: "gaussian"
      std: 0.01
    }
  }
}
layer {
  name: "bn3b2_branch2a"
  type: "BatchNorm"
  bottom: "res3b2_branch2a"
  top: "res3b2_branch2a"
  batch_norm_param {
    moving_average_fraction: 0.999
    eps: 0.001
  }
}
layer {
  name: "scale3b2_branch2a"
  type: "Scale"
  bottom: "res3b2_branch2a"
  top: "res3b2_branch2a"
  param {
    lr_mult: 1
    decay_mult: 0
  }
  param {
    lr_mult: 1
    decay_mult: 0
  }
  scale_param {
    filler {
      type: "constant"
      value: 1
    }
    bias_term: true
    bias_filler {
      type: "constant"
      value: 0
    }
  }
}
layer {
  name: "res3b2_branch2a_relu"
  type: "ReLU"
  bottom: "res3b2_branch2a"
  top: "res3b2_branch2a"
}
layer {
  name: "res3b2_branch2b"
  type: "Convolution"
  bottom: "res3b2_branch2a"
  top: "res3b2_branch2b"
  param {
    lr_mult: 1
    decay_mult: 1
  }
  convolution_param {
    num_output: 128
    bias_term: false
    pad: 1
    kernel_size: 3
    stride: 1
    weight_filler {
      type: "gaussian"
      std: 0.01
    }
  }
}
layer {
  name: "bn3b2_branch2b"
  type: "BatchNorm"
  bottom: "res3b2_branch2b"
  top: "res3b2_branch2b"
  batch_norm_param {
    moving_average_fraction: 0.999
    eps: 0.001
  }
}
layer {
  name: "scale3b2_branch2b"
  type: "Scale"
  bottom: "res3b2_branch2b"
  top: "res3b2_branch2b"
  param {
    lr_mult: 1
    decay_mult: 0
  }
  param {
    lr_mult: 1
    decay_mult: 0
  }
  scale_param {
    filler {
      type: "constant"
      value: 1
    }
    bias_term: true
    bias_filler {
      type: "constant"
      value: 0
    }
  }
}
layer {
  name: "res3b2_branch2b_relu"
  type: "ReLU"
  bottom: "res3b2_branch2b"
  top: "res3b2_branch2b"
}
layer {
  name: "res3b2_branch2c"
  type: "Convolution"
  bottom: "res3b2_branch2b"
  top: "res3b2_branch2c"
  param {
    lr_mult: 1
    decay_mult: 1
  }
  convolution_param {
    num_output: 512
    bias_term: false
    pad: 0
    kernel_size: 1
    stride: 1
    weight_filler {
      type: "gaussian"
      std: 0.01
    }
  }
}
layer {
  name: "bn3b2_branch2c"
  type: "BatchNorm"
  bottom: "res3b2_branch2c"
  top: "res3b2_branch2c"
  batch_norm_param {
    moving_average_fraction: 0.999
    eps: 0.001
  }
}
layer {
  name: "scale3b2_branch2c"
  type: "Scale"
  bottom: "res3b2_branch2c"
  top: "res3b2_branch2c"
  param {
    lr_mult: 1
    decay_mult: 0
  }
  param {
    lr_mult: 1
    decay_mult: 0
  }
  scale_param {
    filler {
      type: "constant"
      value: 1
    }
    bias_term: true
    bias_filler {
      type: "constant"
      value: 0
    }
  }
}
layer {
  name: "res3b2"
  type: "Eltwise"
  bottom: "res3b1"
  bottom: "res3b2_branch2c"
  top: "res3b2"
}
layer {
  name: "res3b2_relu"
  type: "ReLU"
  bottom: "res3b2"
  top: "res3b2"
}
layer {
  name: "res3b3_branch2a"
  type: "Convolution"
  bottom: "res3b2"
  top: "res3b3_branch2a"
  param {
    lr_mult: 1
    decay_mult: 1
  }
  convolution_param {
    num_output: 128
    bias_term: false
    pad: 0
    kernel_size: 1
    stride: 1
    weight_filler {
      type: "gaussian"
      std: 0.01
    }
  }
}
layer {
  name: "bn3b3_branch2a"
  type: "BatchNorm"
  bottom: "res3b3_branch2a"
  top: "res3b3_branch2a"
  batch_norm_param {
    moving_average_fraction: 0.999
    eps: 0.001
  }
}
layer {
  name: "scale3b3_branch2a"
  type: "Scale"
  bottom: "res3b3_branch2a"
  top: "res3b3_branch2a"
  param {
    lr_mult: 1
    decay_mult: 0
  }
  param {
    lr_mult: 1
    decay_mult: 0
  }
  scale_param {
    filler {
      type: "constant"
      value: 1
    }
    bias_term: true
    bias_filler {
      type: "constant"
      value: 0
    }
  }
}
layer {
  name: "res3b3_branch2a_relu"
  type: "ReLU"
  bottom: "res3b3_branch2a"
  top: "res3b3_branch2a"
}
layer {
  name: "res3b3_branch2b"
  type: "Convolution"
  bottom: "res3b3_branch2a"
  top: "res3b3_branch2b"
  param {
    lr_mult: 1
    decay_mult: 1
  }
  convolution_param {
    num_output: 128
    bias_term: false
    pad: 1
    kernel_size: 3
    stride: 1
    weight_filler {
      type: "gaussian"
      std: 0.01
    }
  }
}
layer {
  name: "bn3b3_branch2b"
  type: "BatchNorm"
  bottom: "res3b3_branch2b"
  top: "res3b3_branch2b"
  batch_norm_param {
    moving_average_fraction: 0.999
    eps: 0.001
  }
}
layer {
  name: "scale3b3_branch2b"
  type: "Scale"
  bottom: "res3b3_branch2b"
  top: "res3b3_branch2b"
  param {
    lr_mult: 1
    decay_mult: 0
  }
  param {
    lr_mult: 1
    decay_mult: 0
  }
  scale_param {
    filler {
      type: "constant"
      value: 1
    }
    bias_term: true
    bias_filler {
      type: "constant"
      value: 0
    }
  }
}
layer {
  name: "res3b3_branch2b_relu"
  type: "ReLU"
  bottom: "res3b3_branch2b"
  top: "res3b3_branch2b"
}
layer {
  name: "res3b3_branch2c"
  type: "Convolution"
  bottom: "res3b3_branch2b"
  top: "res3b3_branch2c"
  param {
    lr_mult: 1
    decay_mult: 1
  }
  convolution_param {
    num_output: 512
    bias_term: false
    pad: 0
    kernel_size: 1
    stride: 1
    weight_filler {
      type: "gaussian"
      std: 0.01
    }
  }
}
layer {
  name: "bn3b3_branch2c"
  type: "BatchNorm"
  bottom: "res3b3_branch2c"
  top: "res3b3_branch2c"
  batch_norm_param {
    moving_average_fraction: 0.999
    eps: 0.001
  }
}
layer {
  name: "scale3b3_branch2c"
  type: "Scale"
  bottom: "res3b3_branch2c"
  top: "res3b3_branch2c"
  param {
    lr_mult: 1
    decay_mult: 0
  }
  param {
    lr_mult: 1
    decay_mult: 0
  }
  scale_param {
    filler {
      type: "constant"
      value: 1
    }
    bias_term: true
    bias_filler {
      type: "constant"
      value: 0
    }
  }
}
layer {
  name: "res3b3"
  type: "Eltwise"
  bottom: "res3b2"
  bottom: "res3b3_branch2c"
  top: "res3b3"
}
layer {
  name: "res3b3_relu"
  type: "ReLU"
  bottom: "res3b3"
  top: "res3b3"
}
layer {
  name: "res4a_branch1"
  type: "Convolution"
  bottom: "res3b3"
  top: "res4a_branch1"
  param {
    lr_mult: 1
    decay_mult: 1
  }
  convolution_param {
    num_output: 1024
    bias_term: false
    pad: 0
    kernel_size: 1
    stride: 2
    weight_filler {
      type: "gaussian"
      std: 0.01
    }
  }
}
layer {
  name: "bn4a_branch1"
  type: "BatchNorm"
  bottom: "res4a_branch1"
  top: "res4a_branch1"
  batch_norm_param {
    moving_average_fraction: 0.999
    eps: 0.001
  }
}
layer {
  name: "scale4a_branch1"
  type: "Scale"
  bottom: "res4a_branch1"
  top: "res4a_branch1"
  param {
    lr_mult: 1
    decay_mult: 0
  }
  param {
    lr_mult: 1
    decay_mult: 0
  }
  scale_param {
    filler {
      type: "constant"
      value: 1
    }
    bias_term: true
    bias_filler {
      type: "constant"
      value: 0
    }
  }
}
layer {
  name: "res4a_branch2a"
  type: "Convolution"
  bottom: "res3b3"
  top: "res4a_branch2a"
  param {
    lr_mult: 1
    decay_mult: 1
  }
  convolution_param {
    num_output: 256
    bias_term: false
    pad: 0
    kernel_size: 1
    stride: 2
    weight_filler {
      type: "gaussian"
      std: 0.01
    }
  }
}
layer {
  name: "bn4a_branch2a"
  type: "BatchNorm"
  bottom: "res4a_branch2a"
  top: "res4a_branch2a"
  batch_norm_param {
    moving_average_fraction: 0.999
    eps: 0.001
  }
}
layer {
  name: "scale4a_branch2a"
  type: "Scale"
  bottom: "res4a_branch2a"
  top: "res4a_branch2a"
  param {
    lr_mult: 1
    decay_mult: 0
  }
  param {
    lr_mult: 1
    decay_mult: 0
  }
  scale_param {
    filler {
      type: "constant"
      value: 1
    }
    bias_term: true
    bias_filler {
      type: "constant"
      value: 0
    }
  }
}
layer {
  name: "res4a_branch2a_relu"
  type: "ReLU"
  bottom: "res4a_branch2a"
  top: "res4a_branch2a"
}
layer {
  name: "res4a_branch2b"
  type: "Convolution"
  bottom: "res4a_branch2a"
  top: "res4a_branch2b"
  param {
    lr_mult: 1
    decay_mult: 1
  }
  convolution_param {
    num_output: 256
    bias_term: false
    pad: 1
    kernel_size: 3
    stride: 1
    weight_filler {
      type: "gaussian"
      std: 0.01
    }
  }
}
layer {
  name: "bn4a_branch2b"
  type: "BatchNorm"
  bottom: "res4a_branch2b"
  top: "res4a_branch2b"
  batch_norm_param {
    moving_average_fraction: 0.999
    eps: 0.001
  }
}
layer {
  name: "scale4a_branch2b"
  type: "Scale"
  bottom: "res4a_branch2b"
  top: "res4a_branch2b"
  param {
    lr_mult: 1
    decay_mult: 0
  }
  param {
    lr_mult: 1
    decay_mult: 0
  }
  scale_param {
    filler {
      type: "constant"
      value: 1
    }
    bias_term: true
    bias_filler {
      type: "constant"
      value: 0
    }
  }
}
layer {
  name: "res4a_branch2b_relu"
  type: "ReLU"
  bottom: "res4a_branch2b"
  top: "res4a_branch2b"
}
layer {
  name: "res4a_branch2c"
  type: "Convolution"
  bottom: "res4a_branch2b"
  top: "res4a_branch2c"
  param {
    lr_mult: 1
    decay_mult: 1
  }
  convolution_param {
    num_output: 1024
    bias_term: false
    pad: 0
    kernel_size: 1
    stride: 1
    weight_filler {
      type: "gaussian"
      std: 0.01
    }
  }
}
layer {
  name: "bn4a_branch2c"
  type: "BatchNorm"
  bottom: "res4a_branch2c"
  top: "res4a_branch2c"
  batch_norm_param {
    moving_average_fraction: 0.999
    eps: 0.001
  }
}
layer {
  name: "scale4a_branch2c"
  type: 
I0725 11:43:55.378180  7554 layer_factory.hpp:77] Creating layer data
I0725 11:43:55.378353  7554 net.cpp:100] Creating Layer data
I0725 11:43:55.378373  7554 net.cpp:408] data -> data
I0725 11:43:55.378408  7554 net.cpp:408] data -> label
I0725 11:43:55.379601  7564 db_lmdb.cpp:35] Opened lmdb examples/bdc2018/bdc2018_train_name_lmdb
I0725 11:43:55.396747  7554 annotated_data_layer.cpp:62] output data size: 2,3,640,640
I0725 11:43:55.411713  7554 net.cpp:150] Setting up data
I0725 11:43:55.411753  7554 net.cpp:157] Top shape: 2 3 640 640 (2457600)
I0725 11:43:55.411758  7554 net.cpp:157] Top shape: 1 1 1 8 (8)
I0725 11:43:55.411761  7554 net.cpp:165] Memory required for data: 9830432
I0725 11:43:55.411772  7554 layer_factory.hpp:77] Creating layer data_data_0_split
I0725 11:43:55.411787  7554 net.cpp:100] Creating Layer data_data_0_split
I0725 11:43:55.411804  7554 net.cpp:434] data_data_0_split <- data
I0725 11:43:55.411820  7554 net.cpp:408] data_data_0_split -> data_data_0_split_0
I0725 11:43:55.411833  7554 net.cpp:408] data_data_0_split -> data_data_0_split_1
I0725 11:43:55.411839  7554 net.cpp:408] data_data_0_split -> data_data_0_split_2
I0725 11:43:55.411846  7554 net.cpp:408] data_data_0_split -> data_data_0_split_3
I0725 11:43:55.411852  7554 net.cpp:408] data_data_0_split -> data_data_0_split_4
I0725 11:43:55.411880  7554 net.cpp:408] data_data_0_split -> data_data_0_split_5
I0725 11:43:55.411887  7554 net.cpp:408] data_data_0_split -> data_data_0_split_6
I0725 11:43:55.412014  7554 net.cpp:150] Setting up data_data_0_split
I0725 11:43:55.412034  7554 net.cpp:157] Top shape: 2 3 640 640 (2457600)
I0725 11:43:55.412039  7554 net.cpp:157] Top shape: 2 3 640 640 (2457600)
I0725 11:43:55.412042  7554 net.cpp:157] Top shape: 2 3 640 640 (2457600)
I0725 11:43:55.412046  7554 net.cpp:157] Top shape: 2 3 640 640 (2457600)
I0725 11:43:55.412050  7554 net.cpp:157] Top shape: 2 3 640 640 (2457600)
I0725 11:43:55.412055  7554 net.cpp:157] Top shape: 2 3 640 640 (2457600)
I0725 11:43:55.412058  7554 net.cpp:157] Top shape: 2 3 640 640 (2457600)
I0725 11:43:55.412061  7554 net.cpp:165] Memory required for data: 78643232
I0725 11:43:55.412065  7554 layer_factory.hpp:77] Creating layer conv1
I0725 11:43:55.412082  7554 net.cpp:100] Creating Layer conv1
I0725 11:43:55.412086  7554 net.cpp:434] conv1 <- data_data_0_split_0
I0725 11:43:55.412093  7554 net.cpp:408] conv1 -> conv1
I0725 11:43:55.524972  7565 blocking_queue.cpp:50] Waiting for data
I0725 11:43:55.666677  7554 net.cpp:150] Setting up conv1
I0725 11:43:55.666728  7554 net.cpp:157] Top shape: 2 64 320 320 (13107200)
I0725 11:43:55.666731  7554 net.cpp:165] Memory required for data: 131072032
I0725 11:43:55.666751  7554 layer_factory.hpp:77] Creating layer bn_conv1
I0725 11:43:55.666764  7554 net.cpp:100] Creating Layer bn_conv1
I0725 11:43:55.666769  7554 net.cpp:434] bn_conv1 <- conv1
I0725 11:43:55.666785  7554 net.cpp:395] bn_conv1 -> conv1 (in-place)
I0725 11:43:55.668056  7554 net.cpp:150] Setting up bn_conv1
I0725 11:43:55.668079  7554 net.cpp:157] Top shape: 2 64 320 320 (13107200)
I0725 11:43:55.668094  7554 net.cpp:165] Memory required for data: 183500832
I0725 11:43:55.668105  7554 layer_factory.hpp:77] Creating layer scale_conv1
I0725 11:43:55.668117  7554 net.cpp:100] Creating Layer scale_conv1
I0725 11:43:55.668120  7554 net.cpp:434] scale_conv1 <- conv1
I0725 11:43:55.668126  7554 net.cpp:395] scale_conv1 -> conv1 (in-place)
I0725 11:43:55.668170  7554 layer_factory.hpp:77] Creating layer scale_conv1
I0725 11:43:55.668390  7554 net.cpp:150] Setting up scale_conv1
I0725 11:43:55.668400  7554 net.cpp:157] Top shape: 2 64 320 320 (13107200)
I0725 11:43:55.668402  7554 net.cpp:165] Memory required for data: 235929632
I0725 11:43:55.668411  7554 layer_factory.hpp:77] Creating layer conv1_relu
I0725 11:43:55.668417  7554 net.cpp:100] Creating Layer conv1_relu
I0725 11:43:55.668421  7554 net.cpp:434] conv1_relu <- conv1
I0725 11:43:55.668424  7554 net.cpp:395] conv1_relu -> conv1 (in-place)
I0725 11:43:55.668596  7554 net.cpp:150] Setting up conv1_relu
I0725 11:43:55.668608  7554 net.cpp:157] Top shape: 2 64 320 320 (13107200)
I0725 11:43:55.668612  7554 net.cpp:165] Memory required for data: 288358432
I0725 11:43:55.668614  7554 layer_factory.hpp:77] Creating layer pool1
I0725 11:43:55.668622  7554 net.cpp:100] Creating Layer pool1
I0725 11:43:55.668625  7554 net.cpp:434] pool1 <- conv1
I0725 11:43:55.668632  7554 net.cpp:408] pool1 -> pool1
I0725 11:43:55.668679  7554 net.cpp:150] Setting up pool1
I0725 11:43:55.668687  7554 net.cpp:157] Top shape: 2 64 160 160 (3276800)
I0725 11:43:55.668690  7554 net.cpp:165] Memory required for data: 301465632
I0725 11:43:55.668694  7554 layer_factory.hpp:77] Creating layer pool1_pool1_0_split
I0725 11:43:55.668699  7554 net.cpp:100] Creating Layer pool1_pool1_0_split
I0725 11:43:55.668704  7554 net.cpp:434] pool1_pool1_0_split <- pool1
I0725 11:43:55.668709  7554 net.cpp:408] pool1_pool1_0_split -> pool1_pool1_0_split_0
I0725 11:43:55.668715  7554 net.cpp:408] pool1_pool1_0_split -> pool1_pool1_0_split_1
I0725 11:43:55.668745  7554 net.cpp:150] Setting up pool1_pool1_0_split
I0725 11:43:55.668751  7554 net.cpp:157] Top shape: 2 64 160 160 (3276800)
I0725 11:43:55.668756  7554 net.cpp:157] Top shape: 2 64 160 160 (3276800)
I0725 11:43:55.668758  7554 net.cpp:165] Memory required for data: 327680032
I0725 11:43:55.668761  7554 layer_factory.hpp:77] Creating layer res2a_branch1
I0725 11:43:55.668795  7554 net.cpp:100] Creating Layer res2a_branch1
I0725 11:43:55.668802  7554 net.cpp:434] res2a_branch1 <- pool1_pool1_0_split_0
I0725 11:43:55.668807  7554 net.cpp:408] res2a_branch1 -> res2a_branch1
I0725 11:43:55.669852  7554 net.cpp:150] Setting up res2a_branch1
I0725 11:43:55.669865  7554 net.cpp:157] Top shape: 2 256 160 160 (13107200)
I0725 11:43:55.669879  7554 net.cpp:165] Memory required for data: 380108832
I0725 11:43:55.669885  7554 layer_factory.hpp:77] Creating layer bn2a_branch1
I0725 11:43:55.669891  7554 net.cpp:100] Creating Layer bn2a_branch1
I0725 11:43:55.669896  7554 net.cpp:434] bn2a_branch1 <- res2a_branch1
I0725 11:43:55.669901  7554 net.cpp:395] bn2a_branch1 -> res2a_branch1 (in-place)
I0725 11:43:55.671047  7554 net.cpp:150] Setting up bn2a_branch1
I0725 11:43:55.671061  7554 net.cpp:157] Top shape: 2 256 160 160 (13107200)
I0725 11:43:55.671075  7554 net.cpp:165] Memory required for data: 432537632
I0725 11:43:55.671085  7554 layer_factory.hpp:77] Creating layer scale2a_branch1
I0725 11:43:55.671093  7554 net.cpp:100] Creating Layer scale2a_branch1
I0725 11:43:55.671097  7554 net.cpp:434] scale2a_branch1 <- res2a_branch1
I0725 11:43:55.671103  7554 net.cpp:395] scale2a_branch1 -> res2a_branch1 (in-place)
I0725 11:43:55.671151  7554 layer_factory.hpp:77] Creating layer scale2a_branch1
I0725 11:43:55.671267  7554 net.cpp:150] Setting up scale2a_branch1
I0725 11:43:55.671275  7554 net.cpp:157] Top shape: 2 256 160 160 (13107200)
I0725 11:43:55.671278  7554 net.cpp:165] Memory required for data: 484966432
I0725 11:43:55.671284  7554 layer_factory.hpp:77] Creating layer res2a_branch2a
I0725 11:43:55.671293  7554 net.cpp:100] Creating Layer res2a_branch2a
I0725 11:43:55.671296  7554 net.cpp:434] res2a_branch2a <- pool1_pool1_0_split_1
I0725 11:43:55.671301  7554 net.cpp:408] res2a_branch2a -> res2a_branch2a
I0725 11:43:55.673151  7554 net.cpp:150] Setting up res2a_branch2a
I0725 11:43:55.673164  7554 net.cpp:157] Top shape: 2 64 160 160 (3276800)
I0725 11:43:55.673179  7554 net.cpp:165] Memory required for data: 498073632
I0725 11:43:55.673185  7554 layer_factory.hpp:77] Creating layer bn2a_branch2a
I0725 11:43:55.673192  7554 net.cpp:100] Creating Layer bn2a_branch2a
I0725 11:43:55.673197  7554 net.cpp:434] bn2a_branch2a <- res2a_branch2a
I0725 11:43:55.673202  7554 net.cpp:395] bn2a_branch2a -> res2a_branch2a (in-place)
I0725 11:43:55.673398  7554 net.cpp:150] Setting up bn2a_branch2a
I0725 11:43:55.673405  7554 net.cpp:157] Top shape: 2 64 160 160 (3276800)
I0725 11:43:55.673408  7554 net.cpp:165] Memory required for data: 511180832
I0725 11:43:55.673415  7554 layer_factory.hpp:77] Creating layer scale2a_branch2a
I0725 11:43:55.673424  7554 net.cpp:100] Creating Layer scale2a_branch2a
I0725 11:43:55.673426  7554 net.cpp:434] scale2a_branch2a <- res2a_branch2a
I0725 11:43:55.673431  7554 net.cpp:395] scale2a_branch2a -> res2a_branch2a (in-place)
I0725 11:43:55.673467  7554 layer_factory.hpp:77] Creating layer scale2a_branch2a
I0725 11:43:55.673588  7554 net.cpp:150] Setting up scale2a_branch2a
I0725 11:43:55.673597  7554 net.cpp:157] Top shape: 2 64 160 160 (3276800)
I0725 11:43:55.673599  7554 net.cpp:165] Memory required for data: 524288032
I0725 11:43:55.673609  7554 layer_factory.hpp:77] Creating layer res2a_branch2a_relu
I0725 11:43:55.673614  7554 net.cpp:100] Creating Layer res2a_branch2a_relu
I0725 11:43:55.673617  7554 net.cpp:434] res2a_branch2a_relu <- res2a_branch2a
I0725 11:43:55.673622  7554 net.cpp:395] res2a_branch2a_relu -> res2a_branch2a (in-place)
I0725 11:43:55.673784  7554 net.cpp:150] Setting up res2a_branch2a_relu
I0725 11:43:55.673795  7554 net.cpp:157] Top shape: 2 64 160 160 (3276800)
I0725 11:43:55.673799  7554 net.cpp:165] Memory required for data: 537395232
I0725 11:43:55.673802  7554 layer_factory.hpp:77] Creating layer res2a_branch2b
I0725 11:43:55.673811  7554 net.cpp:100] Creating Layer res2a_branch2b
I0725 11:43:55.673815  7554 net.cpp:434] res2a_branch2b <- res2a_branch2a
I0725 11:43:55.673820  7554 net.cpp:408] res2a_branch2b -> res2a_branch2b
I0725 11:43:55.675210  7554 net.cpp:150] Setting up res2a_branch2b
I0725 11:43:55.675236  7554 net.cpp:157] Top shape: 2 64 160 160 (3276800)
I0725 11:43:55.675240  7554 net.cpp:165] Memory required for data: 550502432
I0725 11:43:55.675246  7554 layer_factory.hpp:77] Creating layer bn2a_branch2b
I0725 11:43:55.675254  7554 net.cpp:100] Creating Layer bn2a_branch2b
I0725 11:43:55.675258  7554 net.cpp:434] bn2a_branch2b <- res2a_branch2b
I0725 11:43:55.675262  7554 net.cpp:395] bn2a_branch2b -> res2a_branch2b (in-place)
I0725 11:43:55.675454  7554 net.cpp:150] Setting up bn2a_branch2b
I0725 11:43:55.675462  7554 net.cpp:157] Top shape: 2 64 160 160 (3276800)
I0725 11:43:55.675467  7554 net.cpp:165] Memory required for data: 563609632
I0725 11:43:55.675472  7554 layer_factory.hpp:77] Creating layer scale2a_branch2b
I0725 11:43:55.675480  7554 net.cpp:100] Creating Layer scale2a_branch2b
I0725 11:43:55.675483  7554 net.cpp:434] scale2a_branch2b <- res2a_branch2b
I0725 11:43:55.675488  7554 net.cpp:395] scale2a_branch2b -> res2a_branch2b (in-place)
I0725 11:43:55.675525  7554 layer_factory.hpp:77] Creating layer scale2a_branch2b
I0725 11:43:55.675652  7554 net.cpp:150] Setting up scale2a_branch2b
I0725 11:43:55.675659  7554 net.cpp:157] Top shape: 2 64 160 160 (3276800)
I0725 11:43:55.675662  7554 net.cpp:165] Memory required for data: 576716832
I0725 11:43:55.675668  7554 layer_factory.hpp:77] Creating layer res2a_branch2b_relu
I0725 11:43:55.675673  7554 net.cpp:100] Creating Layer res2a_branch2b_relu
I0725 11:43:55.675676  7554 net.cpp:434] res2a_branch2b_relu <- res2a_branch2b
I0725 11:43:55.675680  7554 net.cpp:395] res2a_branch2b_relu -> res2a_branch2b (in-place)
I0725 11:43:55.675848  7554 net.cpp:150] Setting up res2a_branch2b_relu
I0725 11:43:55.675859  7554 net.cpp:157] Top shape: 2 64 160 160 (3276800)
I0725 11:43:55.675863  7554 net.cpp:165] Memory required for data: 589824032
I0725 11:43:55.675865  7554 layer_factory.hpp:77] Creating layer res2a_branch2c
I0725 11:43:55.675874  7554 net.cpp:100] Creating Layer res2a_branch2c
I0725 11:43:55.675878  7554 net.cpp:434] res2a_branch2c <- res2a_branch2b
I0725 11:43:55.675882  7554 net.cpp:408] res2a_branch2c -> res2a_branch2c
I0725 11:43:55.676910  7554 net.cpp:150] Setting up res2a_branch2c
I0725 11:43:55.676936  7554 net.cpp:157] Top shape: 2 256 160 160 (13107200)
I0725 11:43:55.676939  7554 net.cpp:165] Memory required for data: 642252832
I0725 11:43:55.676945  7554 layer_factory.hpp:77] Creating layer bn2a_branch2c
I0725 11:43:55.676951  7554 net.cpp:100] Creating Layer bn2a_branch2c
I0725 11:43:55.676955  7554 net.cpp:434] bn2a_branch2c <- res2a_branch2c
I0725 11:43:55.676960  7554 net.cpp:395] bn2a_branch2c -> res2a_branch2c (in-place)
I0725 11:43:55.677146  7554 net.cpp:150] Setting up bn2a_branch2c
I0725 11:43:55.677155  7554 net.cpp:157] Top shape: 2 256 160 160 (13107200)
I0725 11:43:55.677158  7554 net.cpp:165] Memory required for data: 694681632
I0725 11:43:55.677165  7554 layer_factory.hpp:77] Creating layer scale2a_branch2c
I0725 11:43:55.677171  7554 net.cpp:100] Creating Layer scale2a_branch2c
I0725 11:43:55.677175  7554 net.cpp:434] scale2a_branch2c <- res2a_branch2c
I0725 11:43:55.677179  7554 net.cpp:395] scale2a_branch2c -> res2a_branch2c (in-place)
I0725 11:43:55.677214  7554 layer_factory.hpp:77] Creating layer scale2a_branch2c
I0725 11:43:55.677331  7554 net.cpp:150] Setting up scale2a_branch2c
I0725 11:43:55.677340  7554 net.cpp:157] Top shape: 2 256 160 160 (13107200)
I0725 11:43:55.677343  7554 net.cpp:165] Memory required for data: 747110432
I0725 11:43:55.677348  7554 layer_factory.hpp:77] Creating layer res2a
I0725 11:43:55.677353  7554 net.cpp:100] Creating Layer res2a
I0725 11:43:55.677356  7554 net.cpp:434] res2a <- res2a_branch1
I0725 11:43:55.677361  7554 net.cpp:434] res2a <- res2a_branch2c
I0725 11:43:55.677366  7554 net.cpp:408] res2a -> res2a
I0725 11:43:55.677390  7554 net.cpp:150] Setting up res2a
I0725 11:43:55.677397  7554 net.cpp:157] Top shape: 2 256 160 160 (13107200)
I0725 11:43:55.677412  7554 net.cpp:165] Memory required for data: 799539232
I0725 11:43:55.677415  7554 layer_factory.hpp:77] Creating layer res2a_relu
I0725 11:43:55.677420  7554 net.cpp:100] Creating Layer res2a_relu
I0725 11:43:55.677423  7554 net.cpp:434] res2a_relu <- res2a
I0725 11:43:55.677428  7554 net.cpp:395] res2a_relu -> res2a (in-place)
I0725 11:43:55.677592  7554 net.cpp:150] Setting up res2a_relu
I0725 11:43:55.677603  7554 net.cpp:157] Top shape: 2 256 160 160 (13107200)
I0725 11:43:55.677606  7554 net.cpp:165] Memory required for data: 851968032
I0725 11:43:55.677609  7554 layer_factory.hpp:77] Creating layer res2a_res2a_relu_0_split
I0725 11:43:55.677615  7554 net.cpp:100] Creating Layer res2a_res2a_relu_0_split
I0725 11:43:55.677619  7554 net.cpp:434] res2a_res2a_relu_0_split <- res2a
I0725 11:43:55.677624  7554 net.cpp:408] res2a_res2a_relu_0_split -> res2a_res2a_relu_0_split_0
I0725 11:43:55.677630  7554 net.cpp:408] res2a_res2a_relu_0_split -> res2a_res2a_relu_0_split_1
I0725 11:43:55.677667  7554 net.cpp:150] Setting up res2a_res2a_relu_0_split
I0725 11:43:55.677675  7554 net.cpp:157] Top shape: 2 256 160 160 (13107200)
I0725 11:43:55.677678  7554 net.cpp:157] Top shape: 2 256 160 160 (13107200)
I0725 11:43:55.677681  7554 net.cpp:165] Memory required for data: 956825632
I0725 11:43:55.677685  7554 layer_factory.hpp:77] Creating layer res2b_branch2a
I0725 11:43:55.677692  7554 net.cpp:100] Creating Layer res2b_branch2a
I0725 11:43:55.677695  7554 net.cpp:434] res2b_branch2a <- res2a_res2a_relu_0_split_0
I0725 11:43:55.677700  7554 net.cpp:408] res2b_branch2a -> res2b_branch2a
I0725 11:43:55.678716  7554 net.cpp:150] Setting up res2b_branch2a
I0725 11:43:55.678730  7554 net.cpp:157] Top shape: 2 64 160 160 (3276800)
I0725 11:43:55.678745  7554 net.cpp:165] Memory required for data: 969932832
I0725 11:43:55.678750  7554 layer_factory.hpp:77] Creating layer bn2b_branch2a
I0725 11:43:55.678756  7554 net.cpp:100] Creating Layer bn2b_branch2a
I0725 11:43:55.678761  7554 net.cpp:434] bn2b_branch2a <- res2b_branch2a
I0725 11:43:55.678766  7554 net.cpp:395] bn2b_branch2a -> res2b_branch2a (in-place)
I0725 11:43:55.678963  7554 net.cpp:150] Setting up bn2b_branch2a
I0725 11:43:55.678972  7554 net.cpp:157] Top shape: 2 64 160 160 (3276800)
I0725 11:43:55.678975  7554 net.cpp:165] Memory required for data: 983040032
I0725 11:43:55.678985  7554 layer_factory.hpp:77] Creating layer scale2b_branch2a
I0725 11:43:55.678992  7554 net.cpp:100] Creating Layer scale2b_branch2a
I0725 11:43:55.678997  7554 net.cpp:434] scale2b_branch2a <- res2b_branch2a
I0725 11:43:55.679000  7554 net.cpp:395] scale2b_branch2a -> res2b_branch2a (in-place)
I0725 11:43:55.679039  7554 layer_factory.hpp:77] Creating layer scale2b_branch2a
I0725 11:43:55.679163  7554 net.cpp:150] Setting up scale2b_branch2a
I0725 11:43:55.679172  7554 net.cpp:157] Top shape: 2 64 160 160 (3276800)
I0725 11:43:55.679175  7554 net.cpp:165] Memory required for data: 996147232
I0725 11:43:55.679180  7554 layer_factory.hpp:77] Creating layer res2b_branch2a_relu
I0725 11:43:55.679186  7554 net.cpp:100] Creating Layer res2b_branch2a_relu
I0725 11:43:55.679189  7554 net.cpp:434] res2b_branch2a_relu <- res2b_branch2a
I0725 11:43:55.679193  7554 net.cpp:395] res2b_branch2a_relu -> res2b_branch2a (in-place)
I0725 11:43:55.679361  7554 net.cpp:150] Setting up res2b_branch2a_relu
I0725 11:43:55.679373  7554 net.cpp:157] Top shape: 2 64 160 160 (3276800)
I0725 11:43:55.679375  7554 net.cpp:165] Memory required for data: 1009254432
I0725 11:43:55.679379  7554 layer_factory.hpp:77] Creating layer res2b_branch2b
I0725 11:43:55.679388  7554 net.cpp:100] Creating Layer res2b_branch2b
I0725 11:43:55.679391  7554 net.cpp:434] res2b_branch2b <- res2b_branch2a
I0725 11:43:55.679396  7554 net.cpp:408] res2b_branch2b -> res2b_branch2b
I0725 11:43:55.680811  7554 net.cpp:150] Setting up res2b_branch2b
I0725 11:43:55.680840  7554 net.cpp:157] Top shape: 2 64 160 160 (3276800)
I0725 11:43:55.680845  7554 net.cpp:165] Memory required for data: 1022361632
I0725 11:43:55.680850  7554 layer_factory.hpp:77] Creating layer bn2b_branch2b
I0725 11:43:55.680866  7554 net.cpp:100] Creating Layer bn2b_branch2b
I0725 11:43:55.680871  7554 net.cpp:434] bn2b_branch2b <- res2b_branch2b
I0725 11:43:55.680876  7554 net.cpp:395] bn2b_branch2b -> res2b_branch2b (in-place)
I0725 11:43:55.681097  7554 net.cpp:150] Setting up bn2b_branch2b
I0725 11:43:55.681109  7554 net.cpp:157] Top shape: 2 64 160 160 (3276800)
I0725 11:43:55.681113  7554 net.cpp:165] Memory required for data: 1035468832
I0725 11:43:55.681119  7554 layer_factory.hpp:77] Creating layer scale2b_branch2b
I0725 11:43:55.681126  7554 net.cpp:100] Creating Layer scale2b_branch2b
I0725 11:43:55.681130  7554 net.cpp:434] scale2b_branch2b <- res2b_branch2b
I0725 11:43:55.681134  7554 net.cpp:395] scale2b_branch2b -> res2b_branch2b (in-place)
I0725 11:43:55.681177  7554 layer_factory.hpp:77] Creating layer scale2b_branch2b
I0725 11:43:55.682276  7554 net.cpp:150] Setting up scale2b_branch2b
I0725 11:43:55.682289  7554 net.cpp:157] Top shape: 2 64 160 160 (3276800)
I0725 11:43:55.682304  7554 net.cpp:165] Memory required for data: 1048576032
I0725 11:43:55.682310  7554 layer_factory.hpp:77] Creating layer res2b_branch2b_relu
I0725 11:43:55.682322  7554 net.cpp:100] Creating Layer res2b_branch2b_relu
I0725 11:43:55.682325  7554 net.cpp:434] res2b_branch2b_relu <- res2b_branch2b
I0725 11:43:55.682330  7554 net.cpp:395] res2b_branch2b_relu -> res2b_branch2b (in-place)
I0725 11:43:55.682745  7554 net.cpp:150] Setting up res2b_branch2b_relu
I0725 11:43:55.682759  7554 net.cpp:157] Top shape: 2 64 160 160 (3276800)
I0725 11:43:55.682773  7554 net.cpp:165] Memory required for data: 1061683232
I0725 11:43:55.682776  7554 layer_factory.hpp:77] Creating layer res2b_branch2c
I0725 11:43:55.682786  7554 net.cpp:100] Creating Layer res2b_branch2c
I0725 11:43:55.682790  7554 net.cpp:434] res2b_branch2c <- res2b_branch2b
I0725 11:43:55.682798  7554 net.cpp:408] res2b_branch2c -> res2b_branch2c
I0725 11:43:55.683902  7554 net.cpp:150] Setting up res2b_branch2c
I0725 11:43:55.683914  7554 net.cpp:157] Top shape: 2 256 160 160 (13107200)
I0725 11:43:55.683929  7554 net.cpp:165] Memory required for data: 1114112032
I0725 11:43:55.683934  7554 layer_factory.hpp:77] Creating layer bn2b_branch2c
I0725 11:43:55.683940  7554 net.cpp:100] Creating Layer bn2b_branch2c
I0725 11:43:55.683943  7554 net.cpp:434] bn2b_branch2c <- res2b_branch2c
I0725 11:43:55.683950  7554 net.cpp:395] bn2b_branch2c -> res2b_branch2c (in-place)
I0725 11:43:55.684177  7554 net.cpp:150] Setting up bn2b_branch2c
I0725 11:43:55.684187  7554 net.cpp:157] Top shape: 2 256 160 160 (13107200)
I0725 11:43:55.684190  7554 net.cpp:165] Memory required for data: 1166540832
I0725 11:43:55.684196  7554 layer_factory.hpp:77] Creating layer scale2b_branch2c
I0725 11:43:55.684203  7554 net.cpp:100] Creating Layer scale2b_branch2c
I0725 11:43:55.684207  7554 net.cpp:434] scale2b_branch2c <- res2b_branch2c
I0725 11:43:55.684213  7554 net.cpp:395] scale2b_branch2c -> res2b_branch2c (in-place)
I0725 11:43:55.684250  7554 layer_factory.hpp:77] Creating layer scale2b_branch2c
I0725 11:43:55.684383  7554 net.cpp:150] Setting up scale2b_branch2c
I0725 11:43:55.684392  7554 net.cpp:157] Top shape: 2 256 160 160 (13107200)
I0725 11:43:55.684396  7554 net.cpp:165] Memory required for data: 1218969632
I0725 11:43:55.684401  7554 layer_factory.hpp:77] Creating layer res2b
I0725 11:43:55.684407  7554 net.cpp:100] Creating Layer res2b
I0725 11:43:55.684412  7554 net.cpp:434] res2b <- res2a_res2a_relu_0_split_1
I0725 11:43:55.684415  7554 net.cpp:434] res2b <- res2b_branch2c
I0725 11:43:55.684419  7554 net.cpp:408] res2b -> res2b
I0725 11:43:55.684445  7554 net.cpp:150] Setting up res2b
I0725 11:43:55.684453  7554 net.cpp:157] Top shape: 2 256 160 160 (13107200)
I0725 11:43:55.684455  7554 net.cpp:165] Memory required for data: 1271398432
I0725 11:43:55.684458  7554 layer_factory.hpp:77] Creating layer res2b_relu
I0725 11:43:55.684463  7554 net.cpp:100] Creating Layer res2b_relu
I0725 11:43:55.684466  7554 net.cpp:434] res2b_relu <- res2b
I0725 11:43:55.684484  7554 net.cpp:395] res2b_relu -> res2b (in-place)
I0725 11:43:55.684661  7554 net.cpp:150] Setting up res2b_relu
I0725 11:43:55.684674  7554 net.cpp:157] Top shape: 2 256 160 160 (13107200)
I0725 11:43:55.684676  7554 net.cpp:165] Memory required for data: 1323827232
I0725 11:43:55.684680  7554 layer_factory.hpp:77] Creating layer res2b_res2b_relu_0_split
I0725 11:43:55.684685  7554 net.cpp:100] Creating Layer res2b_res2b_relu_0_split
I0725 11:43:55.684689  7554 net.cpp:434] res2b_res2b_relu_0_split <- res2b
I0725 11:43:55.684697  7554 net.cpp:408] res2b_res2b_relu_0_split -> res2b_res2b_relu_0_split_0
I0725 11:43:55.684705  7554 net.cpp:408] res2b_res2b_relu_0_split -> res2b_res2b_relu_0_split_1
I0725 11:43:55.684744  7554 net.cpp:150] Setting up res2b_res2b_relu_0_split
I0725 11:43:55.684751  7554 net.cpp:157] Top shape: 2 256 160 160 (13107200)
I0725 11:43:55.684756  7554 net.cpp:157] Top shape: 2 256 160 160 (13107200)
I0725 11:43:55.684758  7554 net.cpp:165] Memory required for data: 1428684832
I0725 11:43:55.684762  7554 layer_factory.hpp:77] Creating layer res2c_branch2a
I0725 11:43:55.684772  7554 net.cpp:100] Creating Layer res2c_branch2a
I0725 11:43:55.684775  7554 net.cpp:434] res2c_branch2a <- res2b_res2b_relu_0_split_0
I0725 11:43:55.684780  7554 net.cpp:408] res2c_branch2a -> res2c_branch2a
I0725 11:43:55.685879  7554 net.cpp:150] Setting up res2c_branch2a
I0725 11:43:55.685909  7554 net.cpp:157] Top shape: 2 64 160 160 (3276800)
I0725 11:43:55.685911  7554 net.cpp:165] Memory required for data: 1441792032
I0725 11:43:55.685917  7554 layer_factory.hpp:77] Creating layer bn2c_branch2a
I0725 11:43:55.685922  7554 net.cpp:100] Creating Layer bn2c_branch2a
I0725 11:43:55.685927  7554 net.cpp:434] bn2c_branch2a <- res2c_branch2a
I0725 11:43:55.685933  7554 net.cpp:395] bn2c_branch2a -> res2c_branch2a (in-place)
I0725 11:43:55.686151  7554 net.cpp:150] Setting up bn2c_branch2a
I0725 11:43:55.686159  7554 net.cpp:157] Top shape: 2 64 160 160 (3276800)
I0725 11:43:55.686162  7554 net.cpp:165] Memory required for data: 1454899232
I0725 11:43:55.686168  7554 layer_factory.hpp:77] Creating layer scale2c_branch2a
I0725 11:43:55.686175  7554 net.cpp:100] Creating Layer scale2c_branch2a
I0725 11:43:55.686178  7554 net.cpp:434] scale2c_branch2a <- res2c_branch2a
I0725 11:43:55.686184  7554 net.cpp:395] scale2c_branch2a -> res2c_branch2a (in-place)
I0725 11:43:55.686223  7554 layer_factory.hpp:77] Creating layer scale2c_branch2a
I0725 11:43:55.686362  7554 net.cpp:150] Setting up scale2c_branch2a
I0725 11:43:55.686370  7554 net.cpp:157] Top shape: 2 64 160 160 (3276800)
I0725 11:43:55.686373  7554 net.cpp:165] Memory required for data: 1468006432
I0725 11:43:55.686378  7554 layer_factory.hpp:77] Creating layer res2c_branch2a_relu
I0725 11:43:55.686383  7554 net.cpp:100] Creating Layer res2c_branch2a_relu
I0725 11:43:55.686386  7554 net.cpp:434] res2c_branch2a_relu <- res2c_branch2a
I0725 11:43:55.686393  7554 net.cpp:395] res2c_branch2a_relu -> res2c_branch2a (in-place)
I0725 11:43:55.686574  7554 net.cpp:150] Setting up res2c_branch2a_relu
I0725 11:43:55.686586  7554 net.cpp:157] Top shape: 2 64 160 160 (3276800)
I0725 11:43:55.686589  7554 net.cpp:165] Memory required for data: 1481113632
I0725 11:43:55.686592  7554 layer_factory.hpp:77] Creating layer res2c_branch2b
I0725 11:43:55.686602  7554 net.cpp:100] Creating Layer res2c_branch2b
I0725 11:43:55.686605  7554 net.cpp:434] res2c_branch2b <- res2c_branch2a
I0725 11:43:55.686611  7554 net.cpp:408] res2c_branch2b -> res2c_branch2b
I0725 11:43:55.688073  7554 net.cpp:150] Setting up res2c_branch2b
I0725 11:43:55.688099  7554 net.cpp:157] Top shape: 2 64 160 160 (3276800)
I0725 11:43:55.688103  7554 net.cpp:165] Memory required for data: 1494220832
I0725 11:43:55.688109  7554 layer_factory.hpp:77] Creating layer bn2c_branch2b
I0725 11:43:55.688115  7554 net.cpp:100] Creating Layer bn2c_branch2b
I0725 11:43:55.688118  7554 net.cpp:434] bn2c_branch2b <- res2c_branch2b
I0725 11:43:55.688125  7554 net.cpp:395] bn2c_branch2b -> res2c_branch2b (in-place)
I0725 11:43:55.688346  7554 net.cpp:150] Setting up bn2c_branch2b
I0725 11:43:55.688357  7554 net.cpp:157] Top shape: 2 64 160 160 (3276800)
I0725 11:43:55.688360  7554 net.cpp:165] Memory required for data: 1507328032
I0725 11:43:55.688367  7554 layer_factory.hpp:77] Creating layer scale2c_branch2b
I0725 11:43:55.688374  7554 net.cpp:100] Creating Layer scale2c_branch2b
I0725 11:43:55.688377  7554 net.cpp:434] scale2c_branch2b <- res2c_branch2b
I0725 11:43:55.688381  7554 net.cpp:395] scale2c_branch2b -> res2c_branch2b (in-place)
I0725 11:43:55.688424  7554 layer_factory.hpp:77] Creating layer scale2c_branch2b
I0725 11:43:55.688565  7554 net.cpp:150] Setting up scale2c_branch2b
I0725 11:43:55.688575  7554 net.cpp:157] Top shape: 2 64 160 160 (3276800)
I0725 11:43:55.688578  7554 net.cpp:165] Memory required for data: 1520435232
I0725 11:43:55.688585  7554 layer_factory.hpp:77] Creating layer res2c_branch2b_relu
I0725 11:43:55.688590  7554 net.cpp:100] Creating Layer res2c_branch2b_relu
I0725 11:43:55.688592  7554 net.cpp:434] res2c_branch2b_relu <- res2c_branch2b
I0725 11:43:55.688597  7554 net.cpp:395] res2c_branch2b_relu -> res2c_branch2b (in-place)
I0725 11:43:55.688782  7554 net.cpp:150] Setting up res2c_branch2b_relu
I0725 11:43:55.688793  7554 net.cpp:157] Top shape: 2 64 160 160 (3276800)
I0725 11:43:55.688796  7554 net.cpp:165] Memory required for data: 1533542432
I0725 11:43:55.688799  7554 layer_factory.hpp:77] Creating layer res2c_branch2c
I0725 11:43:55.688809  7554 net.cpp:100] Creating Layer res2c_branch2c
I0725 11:43:55.688813  7554 net.cpp:434] res2c_branch2c <- res2c_branch2b
I0725 11:43:55.688820  7554 net.cpp:408] res2c_branch2c -> res2c_branch2c
I0725 11:43:55.689934  7554 net.cpp:150] Setting up res2c_branch2c
I0725 11:43:55.689960  7554 net.cpp:157] Top shape: 2 256 160 160 (13107200)
I0725 11:43:55.689965  7554 net.cpp:165] Memory required for data: 1585971232
I0725 11:43:55.689970  7554 layer_factory.hpp:77] Creating layer bn2c_branch2c
I0725 11:43:55.689975  7554 net.cpp:100] Creating Layer bn2c_branch2c
I0725 11:43:55.689980  7554 net.cpp:434] bn2c_branch2c <- res2c_branch2c
I0725 11:43:55.689985  7554 net.cpp:395] bn2c_branch2c -> res2c_branch2c (in-place)
I0725 11:43:55.690201  7554 net.cpp:150] Setting up bn2c_branch2c
I0725 11:43:55.690210  7554 net.cpp:157] Top shape: 2 256 160 160 (13107200)
I0725 11:43:55.690213  7554 net.cpp:165] Memory required for data: 1638400032
I0725 11:43:55.690219  7554 layer_factory.hpp:77] Creating layer scale2c_branch2c
I0725 11:43:55.690227  7554 net.cpp:100] Creating Layer scale2c_branch2c
I0725 11:43:55.690230  7554 net.cpp:434] scale2c_branch2c <- res2c_branch2c
I0725 11:43:55.690235  7554 net.cpp:395] scale2c_branch2c -> res2c_branch2c (in-place)
I0725 11:43:55.690274  7554 layer_factory.hpp:77] Creating layer scale2c_branch2c
I0725 11:43:55.690405  7554 net.cpp:150] Setting up scale2c_branch2c
I0725 11:43:55.690413  7554 net.cpp:157] Top shape: 2 256 160 160 (13107200)
I0725 11:43:55.690416  7554 net.cpp:165] Memory required for data: 1690828832
I0725 11:43:55.690430  7554 layer_factory.hpp:77] Creating layer res2c
I0725 11:43:55.690438  7554 net.cpp:100] Creating Layer res2c
I0725 11:43:55.690441  7554 net.cpp:434] res2c <- res2b_res2b_relu_0_split_1
I0725 11:43:55.690445  7554 net.cpp:434] res2c <- res2c_branch2c
I0725 11:43:55.690449  7554 net.cpp:408] res2c -> res2c
I0725 11:43:55.690474  7554 net.cpp:150] Setting up res2c
I0725 11:43:55.690481  7554 net.cpp:157] Top shape: 2 256 160 160 (13107200)
I0725 11:43:55.690485  7554 net.cpp:165] Memory required for data: 1743257632
I0725 11:43:55.690487  7554 layer_factory.hpp:77] Creating layer res2c_relu
I0725 11:43:55.690491  7554 net.cpp:100] Creating Layer res2c_relu
I0725 11:43:55.690495  7554 net.cpp:434] res2c_relu <- res2c
I0725 11:43:55.690500  7554 net.cpp:395] res2c_relu -> res2c (in-place)
I0725 11:43:55.690680  7554 net.cpp:150] Setting up res2c_relu
I0725 11:43:55.690690  7554 net.cpp:157] Top shape: 2 256 160 160 (13107200)
I0725 11:43:55.690693  7554 net.cpp:165] Memory required for data: 1795686432
I0725 11:43:55.690706  7554 layer_factory.hpp:77] Creating layer res2c_res2c_relu_0_split
I0725 11:43:55.690713  7554 net.cpp:100] Creating Layer res2c_res2c_relu_0_split
I0725 11:43:55.690716  7554 net.cpp:434] res2c_res2c_relu_0_split <- res2c
I0725 11:43:55.690723  7554 net.cpp:408] res2c_res2c_relu_0_split -> res2c_res2c_relu_0_split_0
I0725 11:43:55.690731  7554 net.cpp:408] res2c_res2c_relu_0_split -> res2c_res2c_relu_0_split_1
I0725 11:43:55.690773  7554 net.cpp:150] Setting up res2c_res2c_relu_0_split
I0725 11:43:55.690780  7554 net.cpp:157] Top shape: 2 256 160 160 (13107200)
I0725 11:43:55.690784  7554 net.cpp:157] Top shape: 2 256 160 160 (13107200)
I0725 11:43:55.690786  7554 net.cpp:165] Memory required for data: 1900544032
I0725 11:43:55.690789  7554 layer_factory.hpp:77] Creating layer res3a_branch1
I0725 11:43:55.690799  7554 net.cpp:100] Creating Layer res3a_branch1
I0725 11:43:55.690802  7554 net.cpp:434] res3a_branch1 <- res2c_res2c_relu_0_split_0
I0725 11:43:55.690809  7554 net.cpp:408] res3a_branch1 -> res3a_branch1
I0725 11:43:55.693116  7554 net.cpp:150] Setting up res3a_branch1
I0725 11:43:55.693141  7554 net.cpp:157] Top shape: 2 512 80 80 (6553600)
I0725 11:43:55.693145  7554 net.cpp:165] Memory required for data: 1926758432
I0725 11:43:55.693150  7554 layer_factory.hpp:77] Creating layer bn3a_branch1
I0725 11:43:55.693158  7554 net.cpp:100] Creating Layer bn3a_branch1
I0725 11:43:55.693162  7554 net.cpp:434] bn3a_branch1 <- res3a_branch1
I0725 11:43:55.693168  7554 net.cpp:395] bn3a_branch1 -> res3a_branch1 (in-place)
I0725 11:43:55.694326  7554 net.cpp:150] Setting up bn3a_branch1
I0725 11:43:55.694339  7554 net.cpp:157] Top shape: 2 512 80 80 (6553600)
I0725 11:43:55.694355  7554 net.cpp:165] Memory required for data: 1952972832
I0725 11:43:55.694361  7554 layer_factory.hpp:77] Creating layer scale3a_branch1
I0725 11:43:55.694368  7554 net.cpp:100] Creating Layer scale3a_branch1
I0725 11:43:55.694371  7554 net.cpp:434] scale3a_branch1 <- res3a_branch1
I0725 11:43:55.694380  7554 net.cpp:395] scale3a_branch1 -> res3a_branch1 (in-place)
I0725 11:43:55.694429  7554 layer_factory.hpp:77] Creating layer scale3a_branch1
I0725 11:43:55.694553  7554 net.cpp:150] Setting up scale3a_branch1
I0725 11:43:55.694563  7554 net.cpp:157] Top shape: 2 512 80 80 (6553600)
I0725 11:43:55.694566  7554 net.cpp:165] Memory required for data: 1979187232
I0725 11:43:55.694572  7554 layer_factory.hpp:77] Creating layer res3a_branch2a
I0725 11:43:55.694581  7554 net.cpp:100] Creating Layer res3a_branch2a
I0725 11:43:55.694583  7554 net.cpp:434] res3a_branch2a <- res2c_res2c_relu_0_split_1
I0725 11:43:55.694591  7554 net.cpp:408] res3a_branch2a -> res3a_branch2a
I0725 11:43:55.695858  7554 net.cpp:150] Setting up res3a_branch2a
I0725 11:43:55.695871  7554 net.cpp:157] Top shape: 2 128 80 80 (1638400)
I0725 11:43:55.695886  7554 net.cpp:165] Memory required for data: 1985740832
I0725 11:43:55.695893  7554 layer_factory.hpp:77] Creating layer bn3a_branch2a
I0725 11:43:55.695900  7554 net.cpp:100] Creating Layer bn3a_branch2a
I0725 11:43:55.695905  7554 net.cpp:434] bn3a_branch2a <- res3a_branch2a
I0725 11:43:55.695909  7554 net.cpp:395] bn3a_branch2a -> res3a_branch2a (in-place)
I0725 11:43:55.696112  7554 net.cpp:150] Setting up bn3a_branch2a
I0725 11:43:55.696121  7554 net.cpp:157] Top shape: 2 128 80 80 (1638400)
I0725 11:43:55.696125  7554 net.cpp:165] Memory required for data: 1992294432
I0725 11:43:55.696131  7554 layer_factory.hpp:77] Creating layer scale3a_branch2a
I0725 11:43:55.696138  7554 net.cpp:100] Creating Layer scale3a_branch2a
I0725 11:43:55.696141  7554 net.cpp:434] scale3a_branch2a <- res3a_branch2a
I0725 11:43:55.696147  7554 net.cpp:395] scale3a_branch2a -> res3a_branch2a (in-place)
I0725 11:43:55.696188  7554 layer_factory.hpp:77] Creating layer scale3a_branch2a
I0725 11:43:55.696303  7554 net.cpp:150] Setting up scale3a_branch2a
I0725 11:43:55.696311  7554 net.cpp:157] Top shape: 2 128 80 80 (1638400)
I0725 11:43:55.696314  7554 net.cpp:165] Memory required for data: 1998848032
I0725 11:43:55.696319  7554 layer_factory.hpp:77] Creating layer res3a_branch2a_relu
I0725 11:43:55.696336  7554 net.cpp:100] Creating Layer res3a_branch2a_relu
I0725 11:43:55.696341  7554 net.cpp:434] res3a_branch2a_relu <- res3a_branch2a
I0725 11:43:55.696344  7554 net.cpp:395] res3a_branch2a_relu -> res3a_branch2a (in-place)
I0725 11:43:55.696527  7554 net.cpp:150] Setting up res3a_branch2a_relu
I0725 11:43:55.696537  7554 net.cpp:157] Top shape: 2 128 80 80 (1638400)
I0725 11:43:55.696540  7554 net.cpp:165] Memory required for data: 2005401632
I0725 11:43:55.696544  7554 layer_factory.hpp:77] Creating layer res3a_branch2b
I0725 11:43:55.696555  7554 net.cpp:100] Creating Layer res3a_branch2b
I0725 11:43:55.696559  7554 net.cpp:434] res3a_branch2b <- res3a_branch2a
I0725 11:43:55.696564  7554 net.cpp:408] res3a_branch2b -> res3a_branch2b
I0725 11:43:55.699996  7554 net.cpp:150] Setting up res3a_branch2b
I0725 11:43:55.700031  7554 net.cpp:157] Top shape: 2 128 80 80 (1638400)
I0725 11:43:55.700037  7554 net.cpp:165] Memory required for data: 2011955232
I0725 11:43:55.700042  7554 layer_factory.hpp:77] Creating layer bn3a_branch2b
I0725 11:43:55.700048  7554 net.cpp:100] Creating Layer bn3a_branch2b
I0725 11:43:55.700052  7554 net.cpp:434] bn3a_branch2b <- res3a_branch2b
I0725 11:43:55.700059  7554 net.cpp:395] bn3a_branch2b -> res3a_branch2b (in-place)
I0725 11:43:55.700263  7554 net.cpp:150] Setting up bn3a_branch2b
I0725 11:43:55.700273  7554 net.cpp:157] Top shape: 2 128 80 80 (1638400)
I0725 11:43:55.700275  7554 net.cpp:165] Memory required for data: 2018508832
I0725 11:43:55.700282  7554 layer_factory.hpp:77] Creating layer scale3a_branch2b
I0725 11:43:55.700289  7554 net.cpp:100] Creating Layer scale3a_branch2b
I0725 11:43:55.700291  7554 net.cpp:434] scale3a_branch2b <- res3a_branch2b
I0725 11:43:55.700299  7554 net.cpp:395] scale3a_branch2b -> res3a_branch2b (in-place)
I0725 11:43:55.700338  7554 layer_factory.hpp:77] Creating layer scale3a_branch2b
I0725 11:43:55.700459  7554 net.cpp:150] Setting up scale3a_branch2b
I0725 11:43:55.700466  7554 net.cpp:157] Top shape: 2 128 80 80 (1638400)
I0725 11:43:55.700469  7554 net.cpp:165] Memory required for data: 2025062432
I0725 11:43:55.700474  7554 layer_factory.hpp:77] Creating layer res3a_branch2b_relu
I0725 11:43:55.700480  7554 net.cpp:100] Creating Layer res3a_branch2b_relu
I0725 11:43:55.700484  7554 net.cpp:434] res3a_branch2b_relu <- res3a_branch2b
I0725 11:43:55.700489  7554 net.cpp:395] res3a_branch2b_relu -> res3a_branch2b (in-place)
I0725 11:43:55.700872  7554 net.cpp:150] Setting up res3a_branch2b_relu
I0725 11:43:55.700886  7554 net.cpp:157] Top shape: 2 128 80 80 (1638400)
I0725 11:43:55.700888  7554 net.cpp:165] Memory required for data: 2031616032
I0725 11:43:55.700892  7554 layer_factory.hpp:77] Creating layer res3a_branch2c
I0725 11:43:55.700912  7554 net.cpp:100] Creating Layer res3a_branch2c
I0725 11:43:55.700917  7554 net.cpp:434] res3a_branch2c <- res3a_branch2b
I0725 11:43:55.700923  7554 net.cpp:408] res3a_branch2c -> res3a_branch2c
I0725 11:43:55.702312  7554 net.cpp:150] Setting up res3a_branch2c
I0725 11:43:55.702325  7554 net.cpp:157] Top shape: 2 512 80 80 (6553600)
I0725 11:43:55.702340  7554 net.cpp:165] Memory required for data: 2057830432
I0725 11:43:55.702345  7554 layer_factory.hpp:77] Creating layer bn3a_branch2c
I0725 11:43:55.702353  7554 net.cpp:100] Creating Layer bn3a_branch2c
I0725 11:43:55.702358  7554 net.cpp:434] bn3a_branch2c <- res3a_branch2c
I0725 11:43:55.702361  7554 net.cpp:395] bn3a_branch2c -> res3a_branch2c (in-place)
I0725 11:43:55.702561  7554 net.cpp:150] Setting up bn3a_branch2c
I0725 11:43:55.702569  7554 net.cpp:157] Top shape: 2 512 80 80 (6553600)
I0725 11:43:55.702572  7554 net.cpp:165] Memory required for data: 2084044832
I0725 11:43:55.702579  7554 layer_factory.hpp:77] Creating layer scale3a_branch2c
I0725 11:43:55.702584  7554 net.cpp:100] Creating Layer scale3a_branch2c
I0725 11:43:55.702587  7554 net.cpp:434] scale3a_branch2c <- res3a_branch2c
I0725 11:43:55.702594  7554 net.cpp:395] scale3a_branch2c -> res3a_branch2c (in-place)
I0725 11:43:55.702646  7554 layer_factory.hpp:77] Creating layer scale3a_branch2c
I0725 11:43:55.702772  7554 net.cpp:150] Setting up scale3a_branch2c
I0725 11:43:55.702780  7554 net.cpp:157] Top shape: 2 512 80 80 (6553600)
I0725 11:43:55.702783  7554 net.cpp:165] Memory required for data: 2110259232
I0725 11:43:55.702788  7554 layer_factory.hpp:77] Creating layer res3a
I0725 11:43:55.702793  7554 net.cpp:100] Creating Layer res3a
I0725 11:43:55.702797  7554 net.cpp:434] res3a <- res3a_branch1
I0725 11:43:55.702801  7554 net.cpp:434] res3a <- res3a_branch2c
I0725 11:43:55.702805  7554 net.cpp:408] res3a -> res3a
I0725 11:43:55.702831  7554 net.cpp:150] Setting up res3a
I0725 11:43:55.702837  7554 net.cpp:157] Top shape: 2 512 80 80 (6553600)
I0725 11:43:55.702841  7554 net.cpp:165] Memory required for data: 2136473632
I0725 11:43:55.702843  7554 layer_factory.hpp:77] Creating layer res3a_relu
I0725 11:43:55.702849  7554 net.cpp:100] Creating Layer res3a_relu
I0725 11:43:55.702853  7554 net.cpp:434] res3a_relu <- res3a
I0725 11:43:55.702857  7554 net.cpp:395] res3a_relu -> res3a (in-place)
I0725 11:43:55.703260  7554 net.cpp:150] Setting up res3a_relu
I0725 11:43:55.703274  7554 net.cpp:157] Top shape: 2 512 80 80 (6553600)
I0725 11:43:55.703289  7554 net.cpp:165] Memory required for data: 2162688032
I0725 11:43:55.703292  7554 layer_factory.hpp:77] Creating layer res3a_res3a_relu_0_split
I0725 11:43:55.703300  7554 net.cpp:100] Creating Layer res3a_res3a_relu_0_split
I0725 11:43:55.703303  7554 net.cpp:434] res3a_res3a_relu_0_split <- res3a
I0725 11:43:55.703310  7554 net.cpp:408] res3a_res3a_relu_0_split -> res3a_res3a_relu_0_split_0
I0725 11:43:55.703316  7554 net.cpp:408] res3a_res3a_relu_0_split -> res3a_res3a_relu_0_split_1
I0725 11:43:55.703361  7554 net.cpp:150] Setting up res3a_res3a_relu_0_split
I0725 11:43:55.703369  7554 net.cpp:157] Top shape: 2 512 80 80 (6553600)
I0725 11:43:55.703372  7554 net.cpp:157] Top shape: 2 512 80 80 (6553600)
I0725 11:43:55.703375  7554 net.cpp:165] Memory required for data: 2215116832
I0725 11:43:55.703378  7554 layer_factory.hpp:77] Creating layer res3b1_branch2a
I0725 11:43:55.703388  7554 net.cpp:100] Creating Layer res3b1_branch2a
I0725 11:43:55.703392  7554 net.cpp:434] res3b1_branch2a <- res3a_res3a_relu_0_split_0
I0725 11:43:55.703399  7554 net.cpp:408] res3b1_branch2a -> res3b1_branch2a
I0725 11:43:55.705932  7554 net.cpp:150] Setting up res3b1_branch2a
I0725 11:43:55.705946  7554 net.cpp:157] Top shape: 2 128 80 80 (1638400)
I0725 11:43:55.705960  7554 net.cpp:165] Memory required for data: 2221670432
I0725 11:43:55.705965  7554 layer_factory.hpp:77] Creating layer bn3b1_branch2a
I0725 11:43:55.705971  7554 net.cpp:100] Creating Layer bn3b1_branch2a
I0725 11:43:55.705976  7554 net.cpp:434] bn3b1_branch2a <- res3b1_branch2a
I0725 11:43:55.705981  7554 net.cpp:395] bn3b1_branch2a -> res3b1_branch2a (in-place)
I0725 11:43:55.706197  7554 net.cpp:150] Setting up bn3b1_branch2a
I0725 11:43:55.706205  7554 net.cpp:157] Top shape: 2 128 80 80 (1638400)
I0725 11:43:55.706208  7554 net.cpp:165] Memory required for data: 2228224032
I0725 11:43:55.706214  7554 layer_factory.hpp:77] Creating layer scale3b1_branch2a
I0725 11:43:55.706221  7554 net.cpp:100] Creating Layer scale3b1_branch2a
I0725 11:43:55.706224  7554 net.cpp:434] scale3b1_branch2a <- res3b1_branch2a
I0725 11:43:55.706231  7554 net.cpp:395] scale3b1_branch2a -> res3b1_branch2a (in-place)
I0725 11:43:55.706274  7554 layer_factory.hpp:77] Creating layer scale3b1_branch2a
I0725 11:43:55.706390  7554 net.cpp:150] Setting up scale3b1_branch2a
I0725 11:43:55.706400  7554 net.cpp:157] Top shape: 2 128 80 80 (1638400)
I0725 11:43:55.706403  7554 net.cpp:165] Memory required for data: 2234777632
I0725 11:43:55.706408  7554 layer_factory.hpp:77] Creating layer res3b1_branch2a_relu
I0725 11:43:55.706414  7554 net.cpp:100] Creating Layer res3b1_branch2a_relu
I0725 11:43:55.706418  7554 net.cpp:434] res3b1_branch2a_relu <- res3b1_branch2a
I0725 11:43:55.706421  7554 net.cpp:395] res3b1_branch2a_relu -> res3b1_branch2a (in-place)
I0725 11:43:55.706811  7554 net.cpp:150] Setting up res3b1_branch2a_relu
I0725 11:43:55.706825  7554 net.cpp:157] Top shape: 2 128 80 80 (1638400)
I0725 11:43:55.706840  7554 net.cpp:165] Memory required for data: 2241331232
I0725 11:43:55.706842  7554 layer_factory.hpp:77] Creating layer res3b1_branch2b
I0725 11:43:55.706853  7554 net.cpp:100] Creating Layer res3b1_branch2b
I0725 11:43:55.706857  7554 net.cpp:434] res3b1_branch2b <- res3b1_branch2a
I0725 11:43:55.706864  7554 net.cpp:408] res3b1_branch2b -> res3b1_branch2b
I0725 11:43:55.709460  7554 net.cpp:150] Setting up res3b1_branch2b
I0725 11:43:55.709489  7554 net.cpp:157] Top shape: 2 128 80 80 (1638400)
I0725 11:43:55.709492  7554 net.cpp:165] Memory required for data: 2247884832
I0725 11:43:55.709498  7554 layer_factory.hpp:77] Creating layer bn3b1_branch2b
I0725 11:43:55.709506  7554 net.cpp:100] Creating Layer bn3b1_branch2b
I0725 11:43:55.709509  7554 net.cpp:434] bn3b1_branch2b <- res3b1_branch2b
I0725 11:43:55.709514  7554 net.cpp:395] bn3b1_branch2b -> res3b1_branch2b (in-place)
I0725 11:43:55.709733  7554 net.cpp:150] Setting up bn3b1_branch2b
I0725 11:43:55.709743  7554 net.cpp:157] Top shape: 2 128 80 80 (1638400)
I0725 11:43:55.709746  7554 net.cpp:165] Memory required for data: 2254438432
I0725 11:43:55.709753  7554 layer_factory.hpp:77] Creating layer scale3b1_branch2b
I0725 11:43:55.709759  7554 net.cpp:100] Creating Layer scale3b1_branch2b
I0725 11:43:55.709762  7554 net.cpp:434] scale3b1_branch2b <- res3b1_branch2b
I0725 11:43:55.709767  7554 net.cpp:395] scale3b1_branch2b -> res3b1_branch2b (in-place)
I0725 11:43:55.709810  7554 layer_factory.hpp:77] Creating layer scale3b1_branch2b
I0725 11:43:55.709933  7554 net.cpp:150] Setting up scale3b1_branch2b
I0725 11:43:55.709940  7554 net.cpp:157] Top shape: 2 128 80 80 (1638400)
I0725 11:43:55.709944  7554 net.cpp:165] Memory required for data: 2260992032
I0725 11:43:55.709949  7554 layer_factory.hpp:77] Creating layer res3b1_branch2b_relu
I0725 11:43:55.709954  7554 net.cpp:100] Creating Layer res3b1_branch2b_relu
I0725 11:43:55.709956  7554 net.cpp:434] res3b1_branch2b_relu <- res3b1_branch2b
I0725 11:43:55.709964  7554 net.cpp:395] res3b1_branch2b_relu -> res3b1_branch2b (in-place)
I0725 11:43:55.710146  7554 net.cpp:150] Setting up res3b1_branch2b_relu
I0725 11:43:55.710157  7554 net.cpp:157] Top shape: 2 128 80 80 (1638400)
I0725 11:43:55.710161  7554 net.cpp:165] Memory required for data: 2267545632
I0725 11:43:55.710165  7554 layer_factory.hpp:77] Creating layer res3b1_branch2c
I0725 11:43:55.710175  7554 net.cpp:100] Creating Layer res3b1_branch2c
I0725 11:43:55.710178  7554 net.cpp:434] res3b1_branch2c <- res3b1_branch2b
I0725 11:43:55.710186  7554 net.cpp:408] res3b1_branch2c -> res3b1_branch2c
I0725 11:43:55.711771  7554 net.cpp:150] Setting up res3b1_branch2c
I0725 11:43:55.711784  7554 net.cpp:157] Top shape: 2 512 80 80 (6553600)
I0725 11:43:55.711799  7554 net.cpp:165] Memory required for data: 2293760032
I0725 11:43:55.711804  7554 layer_factory.hpp:77] Creating layer bn3b1_branch2c
I0725 11:43:55.711814  7554 net.cpp:100] Creating Layer bn3b1_branch2c
I0725 11:43:55.711818  7554 net.cpp:434] bn3b1_branch2c <- res3b1_branch2c
I0725 11:43:55.711822  7554 net.cpp:395] bn3b1_branch2c -> res3b1_branch2c (in-place)
I0725 11:43:55.712038  7554 net.cpp:150] Setting up bn3b1_branch2c
I0725 11:43:55.712047  7554 net.cpp:157] Top shape: 2 512 80 80 (6553600)
I0725 11:43:55.712050  7554 net.cpp:165] Memory required for data: 2319974432
I0725 11:43:55.712056  7554 layer_factory.hpp:77] Creating layer scale3b1_branch2c
I0725 11:43:55.712065  7554 net.cpp:100] Creating Layer scale3b1_branch2c
I0725 11:43:55.712069  7554 net.cpp:434] scale3b1_branch2c <- res3b1_branch2c
I0725 11:43:55.712074  7554 net.cpp:395] scale3b1_branch2c -> res3b1_branch2c (in-place)
I0725 11:43:55.712116  7554 layer_factory.hpp:77] Creating layer scale3b1_branch2c
I0725 11:43:55.712242  7554 net.cpp:150] Setting up scale3b1_branch2c
I0725 11:43:55.712250  7554 net.cpp:157] Top shape: 2 512 80 80 (6553600)
I0725 11:43:55.712263  7554 net.cpp:165] Memory required for data: 2346188832
I0725 11:43:55.712270  7554 layer_factory.hpp:77] Creating layer res3b1
I0725 11:43:55.712275  7554 net.cpp:100] Creating Layer res3b1
I0725 11:43:55.712280  7554 net.cpp:434] res3b1 <- res3a_res3a_relu_0_split_1
I0725 11:43:55.712283  7554 net.cpp:434] res3b1 <- res3b1_branch2c
I0725 11:43:55.712291  7554 net.cpp:408] res3b1 -> res3b1
I0725 11:43:55.712316  7554 net.cpp:150] Setting up res3b1
I0725 11:43:55.712326  7554 net.cpp:157] Top shape: 2 512 80 80 (6553600)
I0725 11:43:55.712328  7554 net.cpp:165] Memory required for data: 2372403232
I0725 11:43:55.712332  7554 layer_factory.hpp:77] Creating layer res3b1_relu
I0725 11:43:55.712337  7554 net.cpp:100] Creating Layer res3b1_relu
I0725 11:43:55.712339  7554 net.cpp:434] res3b1_relu <- res3b1
I0725 11:43:55.712343  7554 net.cpp:395] res3b1_relu -> res3b1 (in-place)
I0725 11:43:55.712527  7554 net.cpp:150] Setting up res3b1_relu
I0725 11:43:55.712536  7554 net.cpp:157] Top shape: 2 512 80 80 (6553600)
I0725 11:43:55.712540  7554 net.cpp:165] Memory required for data: 2398617632
I0725 11:43:55.712543  7554 layer_factory.hpp:77] Creating layer res3b1_res3b1_relu_0_split
I0725 11:43:55.712551  7554 net.cpp:100] Creating Layer res3b1_res3b1_relu_0_split
I0725 11:43:55.712554  7554 net.cpp:434] res3b1_res3b1_relu_0_split <- res3b1
I0725 11:43:55.712559  7554 net.cpp:408] res3b1_res3b1_relu_0_split -> res3b1_res3b1_relu_0_split_0
I0725 11:43:55.712568  7554 net.cpp:408] res3b1_res3b1_relu_0_split -> res3b1_res3b1_relu_0_split_1
I0725 11:43:55.712613  7554 net.cpp:150] Setting up res3b1_res3b1_relu_0_split
I0725 11:43:55.712620  7554 net.cpp:157] Top shape: 2 512 80 80 (6553600)
I0725 11:43:55.712625  7554 net.cpp:157] Top shape: 2 512 80 80 (6553600)
I0725 11:43:55.712627  7554 net.cpp:165] Memory required for data: 2451046432
I0725 11:43:55.712630  7554 layer_factory.hpp:77] Creating layer res3b2_branch2a
I0725 11:43:55.712641  7554 net.cpp:100] Creating Layer res3b2_branch2a
I0725 11:43:55.712643  7554 net.cpp:434] res3b2_branch2a <- res3b1_res3b1_relu_0_split_0
I0725 11:43:55.712651  7554 net.cpp:408] res3b2_branch2a -> res3b2_branch2a
I0725 11:43:55.714216  7554 net.cpp:150] Setting up res3b2_branch2a
I0725 11:43:55.714231  7554 net.cpp:157] Top shape: 2 128 80 80 (1638400)
I0725 11:43:55.714243  7554 net.cpp:165] Memory required for data: 2457600032
I0725 11:43:55.714248  7554 layer_factory.hpp:77] Creating layer bn3b2_branch2a
I0725 11:43:55.714257  7554 net.cpp:100] Creating Layer bn3b2_branch2a
I0725 11:43:55.714262  7554 net.cpp:434] bn3b2_branch2a <- res3b2_branch2a
I0725 11:43:55.714267  7554 net.cpp:395] bn3b2_branch2a -> res3b2_branch2a (in-place)
I0725 11:43:55.714486  7554 net.cpp:150] Setting up bn3b2_branch2a
I0725 11:43:55.714494  7554 net.cpp:157] Top shape: 2 128 80 80 (1638400)
I0725 11:43:55.714498  7554 net.cpp:165] Memory required for data: 2464153632
I0725 11:43:55.714504  7554 layer_factory.hpp:77] Creating layer scale3b2_branch2a
I0725 11:43:55.714509  7554 net.cpp:100] Creating Layer scale3b2_branch2a
I0725 11:43:55.714514  7554 net.cpp:434] scale3b2_branch2a <- res3b2_branch2a
I0725 11:43:55.714519  7554 net.cpp:395] scale3b2_branch2a -> res3b2_branch2a (in-place)
I0725 11:43:55.714560  7554 layer_factory.hpp:77] Creating layer scale3b2_branch2a
I0725 11:43:55.714681  7554 net.cpp:150] Setting up scale3b2_branch2a
I0725 11:43:55.714691  7554 net.cpp:157] Top shape: 2 128 80 80 (1638400)
I0725 11:43:55.714694  7554 net.cpp:165] Memory required for data: 2470707232
I0725 11:43:55.714699  7554 layer_factory.hpp:77] Creating layer res3b2_branch2a_relu
I0725 11:43:55.714704  7554 net.cpp:100] Creating Layer res3b2_branch2a_relu
I0725 11:43:55.714707  7554 net.cpp:434] res3b2_branch2a_relu <- res3b2_branch2a
I0725 11:43:55.714712  7554 net.cpp:395] res3b2_branch2a_relu -> res3b2_branch2a (in-place)
I0725 11:43:55.714898  7554 net.cpp:150] Setting up res3b2_branch2a_relu
I0725 11:43:55.714908  7554 net.cpp:157] Top shape: 2 128 80 80 (1638400)
I0725 11:43:55.714912  7554 net.cpp:165] Memory required for data: 2477260832
I0725 11:43:55.714926  7554 layer_factory.hpp:77] Creating layer res3b2_branch2b
I0725 11:43:55.714936  7554 net.cpp:100] Creating Layer res3b2_branch2b
I0725 11:43:55.714939  7554 net.cpp:434] res3b2_branch2b <- res3b2_branch2a
I0725 11:43:55.714946  7554 net.cpp:408] res3b2_branch2b -> res3b2_branch2b
I0725 11:43:55.717456  7554 net.cpp:150] Setting up res3b2_branch2b
I0725 11:43:55.717471  7554 net.cpp:157] Top shape: 2 128 80 80 (1638400)
I0725 11:43:55.717484  7554 net.cpp:165] Memory required for data: 2483814432
I0725 11:43:55.717489  7554 layer_factory.hpp:77] Creating layer bn3b2_branch2b
I0725 11:43:55.717496  7554 net.cpp:100] Creating Layer bn3b2_branch2b
I0725 11:43:55.717500  7554 net.cpp:434] bn3b2_branch2b <- res3b2_branch2b
I0725 11:43:55.717516  7554 net.cpp:395] bn3b2_branch2b -> res3b2_branch2b (in-place)
I0725 11:43:55.717730  7554 net.cpp:150] Setting up bn3b2_branch2b
I0725 11:43:55.717739  7554 net.cpp:157] Top shape: 2 128 80 80 (1638400)
I0725 11:43:55.717742  7554 net.cpp:165] Memory required for data: 2490368032
I0725 11:43:55.717748  7554 layer_factory.hpp:77] Creating layer scale3b2_branch2b
I0725 11:43:55.717756  7554 net.cpp:100] Creating Layer scale3b2_branch2b
I0725 11:43:55.717758  7554 net.cpp:434] scale3b2_branch2b <- res3b2_branch2b
I0725 11:43:55.717764  7554 net.cpp:395] scale3b2_branch2b -> res3b2_branch2b (in-place)
I0725 11:43:55.717806  7554 layer_factory.hpp:77] Creating layer scale3b2_branch2b
I0725 11:43:55.717929  7554 net.cpp:150] Setting up scale3b2_branch2b
I0725 11:43:55.717937  7554 net.cpp:157] Top shape: 2 128 80 80 (1638400)
I0725 11:43:55.717941  7554 net.cpp:165] Memory required for data: 2496921632
I0725 11:43:55.717945  7554 layer_factory.hpp:77] Creating layer res3b2_branch2b_relu
I0725 11:43:55.717950  7554 net.cpp:100] Creating Layer res3b2_branch2b_relu
I0725 11:43:55.717953  7554 net.cpp:434] res3b2_branch2b_relu <- res3b2_branch2b
I0725 11:43:55.717958  7554 net.cpp:395] res3b2_branch2b_relu -> res3b2_branch2b (in-place)
I0725 11:43:55.718348  7554 net.cpp:150] Setting up res3b2_branch2b_relu
I0725 11:43:55.718363  7554 net.cpp:157] Top shape: 2 128 80 80 (1638400)
I0725 11:43:55.718376  7554 net.cpp:165] Memory required for data: 2503475232
I0725 11:43:55.718380  7554 layer_factory.hpp:77] Creating layer res3b2_branch2c
I0725 11:43:55.718390  7554 net.cpp:100] Creating Layer res3b2_branch2c
I0725 11:43:55.718394  7554 net.cpp:434] res3b2_branch2c <- res3b2_branch2b
I0725 11:43:55.718401  7554 net.cpp:408] res3b2_branch2c -> res3b2_branch2c
I0725 11:43:55.719782  7554 net.cpp:150] Setting up res3b2_branch2c
I0725 11:43:55.719794  7554 net.cpp:157] Top shape: 2 512 80 80 (6553600)
I0725 11:43:55.719810  7554 net.cpp:165] Memory required for data: 2529689632
I0725 11:43:55.719815  7554 layer_factory.hpp:77] Creating layer bn3b2_branch2c
I0725 11:43:55.719822  7554 net.cpp:100] Creating Layer bn3b2_branch2c
I0725 11:43:55.719826  7554 net.cpp:434] bn3b2_branch2c <- res3b2_branch2c
I0725 11:43:55.719830  7554 net.cpp:395] bn3b2_branch2c -> res3b2_branch2c (in-place)
I0725 11:43:55.720062  7554 net.cpp:150] Setting up bn3b2_branch2c
I0725 11:43:55.720074  7554 net.cpp:157] Top shape: 2 512 80 80 (6553600)
I0725 11:43:55.720077  7554 net.cpp:165] Memory required for data: 2555904032
I0725 11:43:55.720084  7554 layer_factory.hpp:77] Creating layer scale3b2_branch2c
I0725 11:43:55.720090  7554 net.cpp:100] Creating Layer scale3b2_branch2c
I0725 11:43:55.720093  7554 net.cpp:434] scale3b2_branch2c <- res3b2_branch2c
I0725 11:43:55.720098  7554 net.cpp:395] scale3b2_branch2c -> res3b2_branch2c (in-place)
I0725 11:43:55.720139  7554 layer_factory.hpp:77] Creating layer scale3b2_branch2c
I0725 11:43:55.720268  7554 net.cpp:150] Setting up scale3b2_branch2c
I0725 11:43:55.720276  7554 net.cpp:157] Top shape: 2 512 80 80 (6553600)
I0725 11:43:55.720279  7554 net.cpp:165] Memory required for data: 2582118432
I0725 11:43:55.720284  7554 layer_factory.hpp:77] Creating layer res3b2
I0725 11:43:55.720289  7554 net.cpp:100] Creating Layer res3b2
I0725 11:43:55.720304  7554 net.cpp:434] res3b2 <- res3b1_res3b1_relu_0_split_1
I0725 11:43:55.720309  7554 net.cpp:434] res3b2 <- res3b2_branch2c
I0725 11:43:55.720315  7554 net.cpp:408] res3b2 -> res3b2
I0725 11:43:55.720340  7554 net.cpp:150] Setting up res3b2
I0725 11:43:55.720347  7554 net.cpp:157] Top shape: 2 512 80 80 (6553600)
I0725 11:43:55.720350  7554 net.cpp:165] Memory required for data: 2608332832
I0725 11:43:55.720353  7554 layer_factory.hpp:77] Creating layer res3b2_relu
I0725 11:43:55.720360  7554 net.cpp:100] Creating Layer res3b2_relu
I0725 11:43:55.720363  7554 net.cpp:434] res3b2_relu <- res3b2
I0725 11:43:55.720367  7554 net.cpp:395] res3b2_relu -> res3b2 (in-place)
I0725 11:43:55.720746  7554 net.cpp:150] Setting up res3b2_relu
I0725 11:43:55.720758  7554 net.cpp:157] Top shape: 2 512 80 80 (6553600)
I0725 11:43:55.720762  7554 net.cpp:165] Memory required for data: 2634547232
I0725 11:43:55.720764  7554 layer_factory.hpp:77] Creating layer res3b2_res3b2_relu_0_split
I0725 11:43:55.720770  7554 net.cpp:100] Creating Layer res3b2_res3b2_relu_0_split
I0725 11:43:55.720775  7554 net.cpp:434] res3b2_res3b2_relu_0_split <- res3b2
I0725 11:43:55.720782  7554 net.cpp:408] res3b2_res3b2_relu_0_split -> res3b2_res3b2_relu_0_split_0
I0725 11:43:55.720788  7554 net.cpp:408] res3b2_res3b2_relu_0_split -> res3b2_res3b2_relu_0_split_1
I0725 11:43:55.720835  7554 net.cpp:150] Setting up res3b2_res3b2_relu_0_split
I0725 11:43:55.720842  7554 net.cpp:157] Top shape: 2 512 80 80 (6553600)
I0725 11:43:55.720846  7554 net.cpp:157] Top shape: 2 512 80 80 (6553600)
I0725 11:43:55.720849  7554 net.cpp:165] Memory required for data: 2686976032
I0725 11:43:55.720851  7554 layer_factory.hpp:77] Creating layer res3b3_branch2a
I0725 11:43:55.720861  7554 net.cpp:100] Creating Layer res3b3_branch2a
I0725 11:43:55.720865  7554 net.cpp:434] res3b3_branch2a <- res3b2_res3b2_relu_0_split_0
I0725 11:43:55.720871  7554 net.cpp:408] res3b3_branch2a -> res3b3_branch2a
I0725 11:43:55.722443  7554 net.cpp:150] Setting up res3b3_branch2a
I0725 11:43:55.722457  7554 net.cpp:157] Top shape: 2 128 80 80 (1638400)
I0725 11:43:55.722470  7554 net.cpp:165] Memory required for data: 2693529632
I0725 11:43:55.722476  7554 layer_factory.hpp:77] Creating layer bn3b3_branch2a
I0725 11:43:55.722481  7554 net.cpp:100] Creating Layer bn3b3_branch2a
I0725 11:43:55.722486  7554 net.cpp:434] bn3b3_branch2a <- res3b3_branch2a
I0725 11:43:55.722491  7554 net.cpp:395] bn3b3_branch2a -> res3b3_branch2a (in-place)
I0725 11:43:55.722715  7554 net.cpp:150] Setting up bn3b3_branch2a
I0725 11:43:55.722724  7554 net.cpp:157] Top shape: 2 128 80 80 (1638400)
I0725 11:43:55.722728  7554 net.cpp:165] Memory required for data: 2700083232
I0725 11:43:55.722746  7554 layer_factory.hpp:77] Creating layer scale3b3_branch2a
I0725 11:43:55.722754  7554 net.cpp:100] Creating Layer scale3b3_branch2a
I0725 11:43:55.722759  7554 net.cpp:434] scale3b3_branch2a <- res3b3_branch2a
I0725 11:43:55.722764  7554 net.cpp:395] scale3b3_branch2a -> res3b3_branch2a (in-place)
I0725 11:43:55.722810  7554 layer_factory.hpp:77] Creating layer scale3b3_branch2a
I0725 11:43:55.722930  7554 net.cpp:150] Setting up scale3b3_branch2a
I0725 11:43:55.722939  7554 net.cpp:157] Top shape: 2 128 80 80 (1638400)
I0725 11:43:55.722940  7554 net.cpp:165] Memory required for data: 2706636832
I0725 11:43:55.722946  7554 layer_factory.hpp:77] Creating layer res3b3_branch2a_relu
I0725 11:43:55.722954  7554 net.cpp:100] Creating Layer res3b3_branch2a_relu
I0725 11:43:55.722956  7554 net.cpp:434] res3b3_branch2a_relu <- res3b3_branch2a
I0725 11:43:55.722960  7554 net.cpp:395] res3b3_branch2a_relu -> res3b3_branch2a (in-place)
I0725 11:43:55.723141  7554 net.cpp:150] Setting up res3b3_branch2a_relu
I0725 11:43:55.723152  7554 net.cpp:157] Top shape: 2 128 80 80 (1638400)
I0725 11:43:55.723155  7554 net.cpp:165] Memory required for data: 2713190432
I0725 11:43:55.723158  7554 layer_factory.hpp:77] Creating layer res3b3_branch2b
I0725 11:43:55.723168  7554 net.cpp:100] Creating Layer res3b3_branch2b
I0725 11:43:55.723182  7554 net.cpp:434] res3b3_branch2b <- res3b3_branch2a
I0725 11:43:55.723191  7554 net.cpp:408] res3b3_branch2b -> res3b3_branch2b
I0725 11:43:55.726635  7554 net.cpp:150] Setting up res3b3_branch2b
I0725 11:43:55.726660  7554 net.cpp:157] Top shape: 2 128 80 80 (1638400)
I0725 11:43:55.726663  7554 net.cpp:165] Memory required for data: 2719744032
I0725 11:43:55.726670  7554 layer_factory.hpp:77] Creating layer bn3b3_branch2b
I0725 11:43:55.726676  7554 net.cpp:100] Creating Layer bn3b3_branch2b
I0725 11:43:55.726680  7554 net.cpp:434] bn3b3_branch2b <- res3b3_branch2b
I0725 11:43:55.726686  7554 net.cpp:395] bn3b3_branch2b -> res3b3_branch2b (in-place)
I0725 11:43:55.726907  7554 net.cpp:150] Setting up bn3b3_branch2b
I0725 11:43:55.726915  7554 net.cpp:157] Top shape: 2 128 80 80 (1638400)
I0725 11:43:55.726918  7554 net.cpp:165] Memory required for data: 2726297632
I0725 11:43:55.726924  7554 layer_factory.hpp:77] Creating layer scale3b3_branch2b
I0725 11:43:55.726933  7554 net.cpp:100] Creating Layer scale3b3_branch2b
I0725 11:43:55.726936  7554 net.cpp:434] scale3b3_branch2b <- res3b3_branch2b
I0725 11:43:55.726940  7554 net.cpp:395] scale3b3_branch2b -> res3b3_branch2b (in-place)
I0725 11:43:55.726984  7554 layer_factory.hpp:77] Creating layer scale3b3_branch2b
I0725 11:43:55.727111  7554 net.cpp:150] Setting up scale3b3_branch2b
I0725 11:43:55.727119  7554 net.cpp:157] Top shape: 2 128 80 80 (1638400)
I0725 11:43:55.727123  7554 net.cpp:165] Memory required for data: 2732851232
I0725 11:43:55.727128  7554 layer_factory.hpp:77] Creating layer res3b3_branch2b_relu
I0725 11:43:55.727134  7554 net.cpp:100] Creating Layer res3b3_branch2b_relu
I0725 11:43:55.727138  7554 net.cpp:434] res3b3_branch2b_relu <- res3b3_branch2b
I0725 11:43:55.727144  7554 net.cpp:395] res3b3_branch2b_relu -> res3b3_branch2b (in-place)
I0725 11:43:55.727334  7554 net.cpp:150] Setting up res3b3_branch2b_relu
I0725 11:43:55.727344  7554 net.cpp:157] Top shape: 2 128 80 80 (1638400)
I0725 11:43:55.727347  7554 net.cpp:165] Memory required for data: 2739404832
I0725 11:43:55.727351  7554 layer_factory.hpp:77] Creating layer res3b3_branch2c
I0725 11:43:55.727365  7554 net.cpp:100] Creating Layer res3b3_branch2c
I0725 11:43:55.727368  7554 net.cpp:434] res3b3_branch2c <- res3b3_branch2b
I0725 11:43:55.727375  7554 net.cpp:408] res3b3_branch2c -> res3b3_branch2c
I0725 11:43:55.728965  7554 net.cpp:150] Setting up res3b3_branch2c
I0725 11:43:55.728992  7554 net.cpp:157] Top shape: 2 512 80 80 (6553600)
I0725 11:43:55.728996  7554 net.cpp:165] Memory required for data: 2765619232
I0725 11:43:55.729001  7554 layer_factory.hpp:77] Creating layer bn3b3_branch2c
I0725 11:43:55.729007  7554 net.cpp:100] Creating Layer bn3b3_branch2c
I0725 11:43:55.729012  7554 net.cpp:434] bn3b3_branch2c <- res3b3_branch2c
I0725 11:43:55.729017  7554 net.cpp:395] bn3b3_branch2c -> res3b3_branch2c (in-place)
I0725 11:43:55.729243  7554 net.cpp:150] Setting up bn3b3_branch2c
I0725 11:43:55.729252  7554 net.cpp:157] Top shape: 2 512 80 80 (6553600)
I0725 11:43:55.729255  7554 net.cpp:165] Memory required for data: 2791833632
I0725 11:43:55.729261  7554 layer_factory.hpp:77] Creating layer scale3b3_branch2c
I0725 11:43:55.729267  7554 net.cpp:100] Creating Layer scale3b3_branch2c
I0725 11:43:55.729271  7554 net.cpp:434] scale3b3_branch2c <- res3b3_branch2c
I0725 11:43:55.729275  7554 net.cpp:395] scale3b3_branch2c -> res3b3_branch2c (in-place)
I0725 11:43:55.729315  7554 layer_factory.hpp:77] Creating layer scale3b3_branch2c
I0725 11:43:55.729449  7554 net.cpp:150] Setting up scale3b3_branch2c
I0725 11:43:55.729456  7554 net.cpp:157] Top shape: 2 512 80 80 (6553600)
I0725 11:43:55.729460  7554 net.cpp:165] Memory required for data: 2818048032
I0725 11:43:55.729465  7554 layer_factory.hpp:77] Creating layer res3b3
I0725 11:43:55.729470  7554 net.cpp:100] Creating Layer res3b3
I0725 11:43:55.729473  7554 net.cpp:434] res3b3 <- res3b2_res3b2_relu_0_split_1
I0725 11:43:55.729477  7554 net.cpp:434] res3b3 <- res3b3_branch2c
I0725 11:43:55.729483  7554 net.cpp:408] res3b3 -> res3b3
I0725 11:43:55.729522  7554 net.cpp:150] Setting up res3b3
I0725 11:43:55.729531  7554 net.cpp:157] Top shape: 2 512 80 80 (6553600)
I0725 11:43:55.729533  7554 net.cpp:165] Memory required for data: 2844262432
I0725 11:43:55.729537  7554 layer_factory.hpp:77] Creating layer res3b3_relu
I0725 11:43:55.729543  7554 net.cpp:100] Creating Layer res3b3_relu
I0725 11:43:55.729547  7554 net.cpp:434] res3b3_relu <- res3b3
I0725 11:43:55.729552  7554 net.cpp:395] res3b3_relu -> res3b3 (in-place)
I0725 11:43:55.729743  7554 net.cpp:150] Setting up res3b3_relu
I0725 11:43:55.729754  7554 net.cpp:157] Top shape: 2 512 80 80 (6553600)
I0725 11:43:55.729758  7554 net.cpp:165] Memory required for data: 2870476832
I0725 11:43:55.729760  7554 layer_factory.hpp:77] Creating layer res3b3_res3b3_relu_0_split
I0725 11:43:55.729768  7554 net.cpp:100] Creating Layer res3b3_res3b3_relu_0_split
I0725 11:43:55.729771  7554 net.cpp:434] res3b3_res3b3_relu_0_split <- res3b3
I0725 11:43:55.729775  7554 net.cpp:408] res3b3_res3b3_relu_0_split -> res3b3_res3b3_relu_0_split_0
I0725 11:43:55.729784  7554 net.cpp:408] res3b3_res3b3_relu_0_split -> res3b3_res3b3_relu_0_split_1
I0725 11:43:55.729828  7554 net.cpp:150] Setting up res3b3_res3b3_relu_0_split
I0725 11:43:55.729835  7554 net.cpp:157] Top shape: 2 512 80 80 (6553600)
I0725 11:43:55.729840  7554 net.cpp:157] Top shape: 2 512 80 80 (6553600)
I0725 11:43:55.729842  7554 net.cpp:165] Memory required for data: 2922905632
I0725 11:43:55.729846  7554 layer_factory.hpp:77] Creating layer res4a_branch1
I0725 11:43:55.729854  7554 net.cpp:100] Creating Layer res4a_branch1
I0725 11:43:55.729861  7554 net.cpp:434] res4a_branch1 <- res3b3_res3b3_relu_0_split_0
I0725 11:43:55.729866  7554 net.cpp:408] res4a_branch1 -> res4a_branch1
I0725 11:43:55.736658  7554 net.cpp:150] Setting up res4a_branch1
I0725 11:43:55.736673  7554 net.cpp:157] Top shape: 2 1024 40 40 (3276800)
I0725 11:43:55.736688  7554 net.cpp:165] Memory required for data: 2936012832
I0725 11:43:55.736693  7554 layer_factory.hpp:77] Creating layer bn4a_branch1
I0725 11:43:55.736701  7554 net.cpp:100] Creating Layer bn4a_branch1
I0725 11:43:55.736704  7554 net.cpp:434] bn4a_branch1 <- res4a_branch1
I0725 11:43:55.736711  7554 net.cpp:395] bn4a_branch1 -> res4a_branch1 (in-place)
I0725 11:43:55.736922  7554 net.cpp:150] Setting up bn4a_branch1
I0725 11:43:55.736929  7554 net.cpp:157] Top shape: 2 1024 40 40 (3276800)
I0725 11:43:55.736932  7554 net.cpp:165] Memory required for data: 2949120032
I0725 11:43:55.736939  7554 layer_factory.hpp:77] Creating layer scale4a_branch1
I0725 11:43:55.736946  7554 net.cpp:100] Creating Layer scale4a_branch1
I0725 11:43:55.736950  7554 net.cpp:434] scale4a_branch1 <- res4a_branch1
I0725 11:43:55.736956  7554 net.cpp:395] scale4a_branch1 -> res4a_branch1 (in-place)
I0725 11:43:55.736994  7554 layer_factory.hpp:77] Creating layer scale4a_branch1
I0725 11:43:55.737126  7554 net.cpp:150] Setting up scale4a_branch1
I0725 11:43:55.737135  7554 net.cpp:157] Top shape: 2 1024 40 40 (3276800)
I0725 11:43:55.737138  7554 net.cpp:165] Memory required for data: 2962227232
I0725 11:43:55.737143  7554 layer_factory.hpp:77] Creating layer res4a_branch2a
I0725 11:43:55.737154  7554 net.cpp:100] Creating Layer res4a_branch2a
I0725 11:43:55.737157  7554 net.cpp:434] res4a_branch2a <- res3b3_res3b3_relu_0_split_1
I0725 11:43:55.737164  7554 net.cpp:408] res4a_branch2a -> res4a_branch2a
I0725 11:43:55.739377  7554 net.cpp:150] Setting up res4a_branch2a
I0725 11:43:55.739392  7554 net.cpp:157] Top shape: 2 256 40 40 (819200)
I0725 11:43:55.739406  7554 net.cpp:165] Memory required for data: 2965504032
I0725 11:43:55.739413  7554 layer_factory.hpp:77] Creating layer bn4a_branch2a
I0725 11:43:55.739418  7554 net.cpp:100] Creating Layer bn4a_branch2a
I0725 11:43:55.739423  7554 net.cpp:434] bn4a_branch2a <- res4a_branch2a
I0725 11:43:55.739428  7554 net.cpp:395] bn4a_branch2a -> res4a_branch2a (in-place)
I0725 11:43:55.739640  7554 net.cpp:150] Setting up bn4a_branch2a
I0725 11:43:55.739650  7554 net.cpp:157] Top shape: 2 256 40 40 (819200)
I0725 11:43:55.739665  7554 net.cpp:165] Memory required for data: 2968780832
I0725 11:43:55.739671  7554 layer_factory.hpp:77] Creating layer scale4a_branch2a
I0725 11:43:55.739679  7554 net.cpp:100] Creating Layer scale4a_branch2a
I0725 11:43:55.739682  7554 net.cpp:434] scale4a_branch2a <- res4a_branch2a
I0725 11:43:55.739687  7554 net.cpp:395] scale4a_branch2a -> res4a_branch2a (in-place)
I0725 11:43:55.739735  7554 layer_factory.hpp:77] Creating layer scale4a_branch2a
I0725 11:43:55.739857  7554 net.cpp:150] Setting up scale4a_branch2a
I0725 11:43:55.739866  7554 net.cpp:157] Top shape: 2 256 40 40 (819200)
I0725 11:43:55.739868  7554 net.cpp:165] Memory required for data: 2972057632
I0725 11:43:55.739874  7554 layer_factory.hpp:77] Creating layer res4a_branch2a_relu
I0725 11:43:55.739879  7554 net.cpp:100] Creating Layer res4a_branch2a_relu
I0725 11:43:55.739884  7554 net.cpp:434] res4a_branch2a_relu <- res4a_branch2a
I0725 11:43:55.739888  7554 net.cpp:395] res4a_branch2a_relu -> res4a_branch2a (in-place)
I0725 11:43:55.740094  7554 net.cpp:150] Setting up res4a_branch2a_relu
I0725 11:43:55.740106  7554 net.cpp:157] Top shape: 2 256 40 40 (819200)
I0725 11:43:55.740109  7554 net.cpp:165] Memory required for data: 2975334432
I0725 11:43:55.740113  7554 layer_factory.hpp:77] Creating layer res4a_branch2b
I0725 11:43:55.740123  7554 net.cpp:100] Creating Layer res4a_branch2b
I0725 11:43:55.740126  7554 net.cpp:434] res4a_branch2b <- res4a_branch2a
I0725 11:43:55.740135  7554 net.cpp:408] res4a_branch2b -> res4a_branch2b
I0725 11:43:55.747879  7554 net.cpp:150] Setting up res4a_branch2b
I0725 11:43:55.747906  7554 net.cpp:157] Top shape: 2 256 40 40 (819200)
I0725 11:43:55.747910  7554 net.cpp:165] Memory required for data: 2978611232
I0725 11:43:55.747916  7554 layer_factory.hpp:77] Creating layer bn4a_branch2b
I0725 11:43:55.747922  7554 net.cpp:100] Creating Layer bn4a_branch2b
I0725 11:43:55.747926  7554 net.cpp:434] bn4a_branch2b <- res4a_branch2b
I0725 11:43:55.747932  7554 net.cpp:395] bn4a_branch2b -> res4a_branch2b (in-place)
I0725 11:43:55.748162  7554 net.cpp:150] Setting up bn4a_branch2b
I0725 11:43:55.748172  7554 net.cpp:157] Top shape: 2 256 40 40 (819200)
I0725 11:43:55.748175  7554 net.cpp:165] Memory required for data: 2981888032
I0725 11:43:55.748183  7554 layer_factory.hpp:77] Creating layer scale4a_branch2b
I0725 11:43:55.748189  7554 net.cpp:100] Creating Layer scale4a_branch2b
I0725 11:43:55.748193  7554 net.cpp:434] scale4a_branch2b <- res4a_branch2b
I0725 11:43:55.748198  7554 net.cpp:395] scale4a_branch2b -> res4a_branch2b (in-place)
I0725 11:43:55.748244  7554 layer_factory.hpp:77] Creating layer scale4a_branch2b
I0725 11:43:55.748368  7554 net.cpp:150] Setting up scale4a_branch2b
I0725 11:43:55.748375  7554 net.cpp:157] Top shape: 2 256 40 40 (819200)
I0725 11:43:55.748378  7554 net.cpp:165] Memory required for data: 2985164832
I0725 11:43:55.748383  7554 layer_factory.hpp:77] Creating layer res4a_branch2b_relu
I0725 11:43:55.748389  7554 net.cpp:100] Creating Layer res4a_branch2b_relu
I0725 11:43:55.748394  7554 net.cpp:434] res4a_branch2b_relu <- res4a_branch2b
I0725 11:43:55.748397  7554 net.cpp:395] res4a_branch2b_relu -> res4a_branch2b (in-place)
I0725 11:43:55.748596  7554 net.cpp:150] Setting up res4a_branch2b_relu
I0725 11:43:55.748607  7554 net.cpp:157] Top shape: 2 256 40 40 (819200)
I0725 11:43:55.748610  7554 net.cpp:165] Memory required for data: 2988441632
I0725 11:43:55.748613  7554 layer_factory.hpp:77] Creating layer res4a_branch2c
I0725 11:43:55.748623  7554 net.cpp:100] Creating Layer res4a_branch2c
I0725 11:43:55.748627  7554 net.cpp:434] res4a_branch2c <- res4a_branch2b
I0725 11:43:55.748634  7554 net.cpp:408] res4a_branch2c -> res4a_branch2c
I0725 11:43:55.752981  7554 net.cpp:150] Setting up res4a_branch2c
I0725 11:43:55.753007  7554 net.cpp:157] Top shape: 2 1024 40 40 (3276800)
I0725 11:43:55.753011  7554 net.cpp:165] Memory required for data: 3001548832
I0725 11:43:55.753017  7554 layer_factory.hpp:77] Creating layer bn4a_branch2c
I0725 11:43:55.753034  7554 net.cpp:100] Creating Layer bn4a_branch2c
I0725 11:43:55.753038  7554 net.cpp:434] bn4a_branch2c <- res4a_branch2c
I0725 11:43:55.753046  7554 net.cpp:395] bn4a_branch2c -> res4a_branch2c (in-place)
I0725 11:43:55.753267  7554 net.cpp:150] Setting up bn4a_branch2c
I0725 11:43:55.753275  7554 net.cpp:157] Top shape: 2 1024 40 40 (3276800)
I0725 11:43:55.753278  7554 net.cpp:165] Memory required for data: 3014656032
I0725 11:43:55.753285  7554 layer_factory.hpp:77] Creating layer scale4a_branch2c
I0725 11:43:55.753291  7554 net.cpp:100] Creating Layer scale4a_branch2c
I0725 11:43:55.753294  7554 net.cpp:434] scale4a_branch2c <- res4a_branch2c
I0725 11:43:55.753301  7554 net.cpp:395] scale4a_branch2c -> res4a_branch2c (in-place)
I0725 11:43:55.753341  7554 layer_factory.hpp:77] Creating layer scale4a_branch2c
I0725 11:43:55.753475  7554 net.cpp:150] Setting up scale4a_branch2c
I0725 11:43:55.753484  7554 net.cpp:157] Top shape: 2 1024 40 40 (3276800)
I0725 11:43:55.753487  7554 net.cpp:165] Memory required for data: 3027763232
I0725 11:43:55.753492  7554 layer_factory.hpp:77] Creating layer res4a
I0725 11:43:55.753497  7554 net.cpp:100] Creating Layer res4a
I0725 11:43:55.753501  7554 net.cpp:434] res4a <- res4a_branch1
I0725 11:43:55.753505  7554 net.cpp:434] res4a <- res4a_branch2c
I0725 11:43:55.753511  7554 net.cpp:408] res4a -> res4a
I0725 11:43:55.753540  7554 net.cpp:150] Setting up res4a
I0725 11:43:55.753546  7554 net.cpp:157] Top shape: 2 1024 40 40 (3276800)
I0725 11:43:55.753549  7554 net.cpp:165] Memory required for data: 3040870432
I0725 11:43:55.753551  7554 layer_factory.hpp:77] Creating layer res4a_relu
I0725 11:43:55.753556  7554 net.cpp:100] Creating Layer res4a_relu
I0725 11:43:55.753559  7554 net.cpp:434] res4a_relu <- res4a
I0725 11:43:55.753566  7554 net.cpp:395] res4a_relu -> res4a (in-place)
I0725 11:43:55.753955  7554 net.cpp:150] Setting up res4a_relu
I0725 11:43:55.753969  7554 net.cpp:157] Top shape: 2 1024 40 40 (3276800)
I0725 11:43:55.753973  7554 net.cpp:165] Memory required for data: 3053977632
I0725 11:43:55.753976  7554 layer_factory.hpp:77] Creating layer res4a_res4a_relu_0_split
I0725 11:43:55.754000  7554 net.cpp:100] Creating Layer res4a_res4a_relu_0_split
I0725 11:43:55.754004  7554 net.cpp:434] res4a_res4a_relu_0_split <- res4a
I0725 11:43:55.754010  7554 net.cpp:408] res4a_res4a_relu_0_split -> res4a_res4a_relu_0_split_0
I0725 11:43:55.754016  7554 net.cpp:408] res4a_res4a_relu_0_split -> res4a_res4a_relu_0_split_1
I0725 11:43:55.754062  7554 net.cpp:150] Setting up res4a_res4a_relu_0_split
I0725 11:43:55.754070  7554 net.cpp:157] Top shape: 2 1024 40 40 (3276800)
I0725 11:43:55.754073  7554 net.cpp:157] Top shape: 2 1024 40 40 (3276800)
I0725 11:43:55.754076  7554 net.cpp:165] Memory required for data: 3080192032
I0725 11:43:55.754079  7554 layer_factory.hpp:77] Creating layer res4b1_branch2a
I0725 11:43:55.754089  7554 net.cpp:100] Creating Layer res4b1_branch2a
I0725 11:43:55.754093  7554 net.cpp:434] res4b1_branch2a <- res4a_res4a_relu_0_split_0
I0725 11:43:55.754098  7554 net.cpp:408] res4b1_branch2a -> res4b1_branch2a
I0725 11:43:55.757529  7554 net.cpp:150] Setting up res4b1_branch2a
I0725 11:43:55.757557  7554 net.cpp:157] Top shape: 2 256 40 40 (819200)
I0725 11:43:55.757560  7554 net.cpp:165] Memory required for data: 3083468832
I0725 11:43:55.757566  7554 layer_factory.hpp:77] Creating layer bn4b1_branch2a
I0725 11:43:55.757572  7554 net.cpp:100] Creating Layer bn4b1_branch2a
I0725 11:43:55.757576  7554 net.cpp:434] bn4b1_branch2a <- res4b1_branch2a
I0725 11:43:55.757583  7554 net.cpp:395] bn4b1_branch2a -> res4b1_branch2a (in-place)
I0725 11:43:55.757798  7554 net.cpp:150] Setting up bn4b1_branch2a
I0725 11:43:55.757807  7554 net.cpp:157] Top shape: 2 256 40 40 (819200)
I0725 11:43:55.757810  7554 net.cpp:165] Memory required for data: 3086745632
I0725 11:43:55.757817  7554 layer_factory.hpp:77] Creating layer scale4b1_branch2a
I0725 11:43:55.757822  7554 net.cpp:100] Creating Layer scale4b1_branch2a
I0725 11:43:55.757827  7554 net.cpp:434] scale4b1_branch2a <- res4b1_branch2a
I0725 11:43:55.757844  7554 net.cpp:395] scale4b1_branch2a -> res4b1_branch2a (in-place)
I0725 11:43:55.757891  7554 layer_factory.hpp:77] Creating layer scale4b1_branch2a
I0725 11:43:55.758020  7554 net.cpp:150] Setting up scale4b1_branch2a
I0725 11:43:55.758029  7554 net.cpp:157] Top shape: 2 256 40 40 (819200)
I0725 11:43:55.758033  7554 net.cpp:165] Memory required for data: 3090022432
I0725 11:43:55.758038  7554 layer_factory.hpp:77] Creating layer res4b1_branch2a_relu
I0725 11:43:55.758044  7554 net.cpp:100] Creating Layer res4b1_branch2a_relu
I0725 11:43:55.758046  7554 net.cpp:434] res4b1_branch2a_relu <- res4b1_branch2a
I0725 11:43:55.758052  7554 net.cpp:395] res4b1_branch2a_relu -> res4b1_branch2a (in-place)
I0725 11:43:55.758244  7554 net.cpp:150] Setting up res4b1_branch2a_relu
I0725 11:43:55.758255  7554 net.cpp:157] Top shape: 2 256 40 40 (819200)
I0725 11:43:55.758257  7554 net.cpp:165] Memory required for data: 3093299232
I0725 11:43:55.758260  7554 layer_factory.hpp:77] Creating layer res4b1_branch2b
I0725 11:43:55.758270  7554 net.cpp:100] Creating Layer res4b1_branch2b
I0725 11:43:55.758275  7554 net.cpp:434] res4b1_branch2b <- res4b1_branch2a
I0725 11:43:55.758282  7554 net.cpp:408] res4b1_branch2b -> res4b1_branch2b
I0725 11:43:55.766021  7554 net.cpp:150] Setting up res4b1_branch2b
I0725 11:43:55.766047  7554 net.cpp:157] Top shape: 2 256 40 40 (819200)
I0725 11:43:55.766050  7554 net.cpp:165] Memory required for data: 3096576032
I0725 11:43:55.766055  7554 layer_factory.hpp:77] Creating layer bn4b1_branch2b
I0725 11:43:55.766062  7554 net.cpp:100] Creating Layer bn4b1_branch2b
I0725 11:43:55.766067  7554 net.cpp:434] bn4b1_branch2b <- res4b1_branch2b
I0725 11:43:55.766072  7554 net.cpp:395] bn4b1_branch2b -> res4b1_branch2b (in-place)
I0725 11:43:55.766294  7554 net.cpp:150] Setting up bn4b1_branch2b
I0725 11:43:55.766304  7554 net.cpp:157] Top shape: 2 256 40 40 (819200)
I0725 11:43:55.766306  7554 net.cpp:165] Memory required for data: 3099852832
I0725 11:43:55.766312  7554 layer_factory.hpp:77] Creating layer scale4b1_branch2b
I0725 11:43:55.766319  7554 net.cpp:100] Creating Layer scale4b1_branch2b
I0725 11:43:55.766322  7554 net.cpp:434] scale4b1_branch2b <- res4b1_branch2b
I0725 11:43:55.766328  7554 net.cpp:395] scale4b1_branch2b -> res4b1_branch2b (in-place)
I0725 11:43:55.766374  7554 layer_factory.hpp:77] Creating layer scale4b1_branch2b
I0725 11:43:55.766505  7554 net.cpp:150] Setting up scale4b1_branch2b
I0725 11:43:55.766515  7554 net.cpp:157] Top shape: 2 256 40 40 (819200)
I0725 11:43:55.766517  7554 net.cpp:165] Memory required for data: 3103129632
I0725 11:43:55.766522  7554 layer_factory.hpp:77] Creating layer res4b1_branch2b_relu
I0725 11:43:55.766527  7554 net.cpp:100] Creating Layer res4b1_branch2b_relu
I0725 11:43:55.766530  7554 net.cpp:434] res4b1_branch2b_relu <- res4b1_branch2b
I0725 11:43:55.766537  7554 net.cpp:395] res4b1_branch2b_relu -> res4b1_branch2b (in-place)
I0725 11:43:55.766726  7554 net.cpp:150] Setting up res4b1_branch2b_relu
I0725 11:43:55.766736  7554 net.cpp:157] Top shape: 2 256 40 40 (819200)
I0725 11:43:55.766739  7554 net.cpp:165] Memory required for data: 3106406432
I0725 11:43:55.766743  7554 layer_factory.hpp:77] Creating layer res4b1_branch2c
I0725 11:43:55.766752  7554 net.cpp:100] Creating Layer res4b1_branch2c
I0725 11:43:55.766757  7554 net.cpp:434] res4b1_branch2c <- res4b1_branch2b
I0725 11:43:55.766762  7554 net.cpp:408] res4b1_branch2c -> res4b1_branch2c
I0725 11:43:55.771337  7554 net.cpp:150] Setting up res4b1_branch2c
I0725 11:43:55.771363  7554 net.cpp:157] Top shape: 2 1024 40 40 (3276800)
I0725 11:43:55.771368  7554 net.cpp:165] Memory required for data: 3119513632
I0725 11:43:55.771373  7554 layer_factory.hpp:77] Creating layer bn4b1_branch2c
I0725 11:43:55.771381  7554 net.cpp:100] Creating Layer bn4b1_branch2c
I0725 11:43:55.771385  7554 net.cpp:434] bn4b1_branch2c <- res4b1_branch2c
I0725 11:43:55.771390  7554 net.cpp:395] bn4b1_branch2c -> res4b1_branch2c (in-place)
I0725 11:43:55.771617  7554 net.cpp:150] Setting up bn4b1_branch2c
I0725 11:43:55.771637  7554 net.cpp:157] Top shape: 2 1024 40 40 (3276800)
I0725 11:43:55.771641  7554 net.cpp:165] Memory required for data: 3132620832
I0725 11:43:55.771648  7554 layer_factory.hpp:77] Creating layer scale4b1_branch2c
I0725 11:43:55.771656  7554 net.cpp:100] Creating Layer scale4b1_branch2c
I0725 11:43:55.771661  7554 net.cpp:434] scale4b1_branch2c <- res4b1_branch2c
I0725 11:43:55.771665  7554 net.cpp:395] scale4b1_branch2c -> res4b1_branch2c (in-place)
I0725 11:43:55.771709  7554 layer_factory.hpp:77] Creating layer scale4b1_branch2c
I0725 11:43:55.771845  7554 net.cpp:150] Setting up scale4b1_branch2c
I0725 11:43:55.771853  7554 net.cpp:157] Top shape: 2 1024 40 40 (3276800)
I0725 11:43:55.771857  7554 net.cpp:165] Memory required for data: 3145728032
I0725 11:43:55.771862  7554 layer_factory.hpp:77] Creating layer res4b1
I0725 11:43:55.771870  7554 net.cpp:100] Creating Layer res4b1
I0725 11:43:55.771874  7554 net.cpp:434] res4b1 <- res4a_res4a_relu_0_split_1
I0725 11:43:55.771878  7554 net.cpp:434] res4b1 <- res4b1_branch2c
I0725 11:43:55.771883  7554 net.cpp:408] res4b1 -> res4b1
I0725 11:43:55.771911  7554 net.cpp:150] Setting up res4b1
I0725 11:43:55.771919  7554 net.cpp:157] Top shape: 2 1024 40 40 (3276800)
I0725 11:43:55.771921  7554 net.cpp:165] Memory required for data: 3158835232
I0725 11:43:55.771924  7554 layer_factory.hpp:77] Creating layer res4b1_relu
I0725 11:43:55.771929  7554 net.cpp:100] Creating Layer res4b1_relu
I0725 11:43:55.771932  7554 net.cpp:434] res4b1_relu <- res4b1
I0725 11:43:55.771937  7554 net.cpp:395] res4b1_relu -> res4b1 (in-place)
I0725 11:43:55.772152  7554 net.cpp:150] Setting up res4b1_relu
I0725 11:43:55.772164  7554 net.cpp:157] Top shape: 2 1024 40 40 (3276800)
I0725 11:43:55.772167  7554 net.cpp:165] Memory required for data: 3171942432
I0725 11:43:55.772171  7554 layer_factory.hpp:77] Creating layer res4b1_res4b1_relu_0_split
I0725 11:43:55.772177  7554 net.cpp:100] Creating Layer res4b1_res4b1_relu_0_split
I0725 11:43:55.772181  7554 net.cpp:434] res4b1_res4b1_relu_0_split <- res4b1
I0725 11:43:55.772187  7554 net.cpp:408] res4b1_res4b1_relu_0_split -> res4b1_res4b1_relu_0_split_0
I0725 11:43:55.772194  7554 net.cpp:408] res4b1_res4b1_relu_0_split -> res4b1_res4b1_relu_0_split_1
I0725 11:43:55.772243  7554 net.cpp:150] Setting up res4b1_res4b1_relu_0_split
I0725 11:43:55.772251  7554 net.cpp:157] Top shape: 2 1024 40 40 (3276800)
I0725 11:43:55.772255  7554 net.cpp:157] Top shape: 2 1024 40 40 (3276800)
I0725 11:43:55.772258  7554 net.cpp:165] Memory required for data: 3198156832
I0725 11:43:55.772260  7554 layer_factory.hpp:77] Creating layer res4b2_branch2a
I0725 11:43:55.772270  7554 net.cpp:100] Creating Layer res4b2_branch2a
I0725 11:43:55.772274  7554 net.cpp:434] res4b2_branch2a <- res4b1_res4b1_relu_0_split_0
I0725 11:43:55.772280  7554 net.cpp:408] res4b2_branch2a -> res4b2_branch2a
I0725 11:43:55.775630  7554 net.cpp:150] Setting up res4b2_branch2a
I0725 11:43:55.775643  7554 net.cpp:157] Top shape: 2 256 40 40 (819200)
I0725 11:43:55.775658  7554 net.cpp:165] Memory required for data: 3201433632
I0725 11:43:55.775663  7554 layer_factory.hpp:77] Creating layer bn4b2_branch2a
I0725 11:43:55.775671  7554 net.cpp:100] Creating Layer bn4b2_branch2a
I0725 11:43:55.775676  7554 net.cpp:434] bn4b2_branch2a <- res4b2_branch2a
I0725 11:43:55.775681  7554 net.cpp:395] bn4b2_branch2a -> res4b2_branch2a (in-place)
I0725 11:43:55.775913  7554 net.cpp:150] Setting up bn4b2_branch2a
I0725 11:43:55.775923  7554 net.cpp:157] Top shape: 2 256 40 40 (819200)
I0725 11:43:55.775924  7554 net.cpp:165] Memory required for data: 3204710432
I0725 11:43:55.775931  7554 layer_factory.hpp:77] Creating layer scale4b2_branch2a
I0725 11:43:55.775939  7554 net.cpp:100] Creating Layer scale4b2_branch2a
I0725 11:43:55.775943  7554 net.cpp:434] scale4b2_branch2a <- res4b2_branch2a
I0725 11:43:55.775948  7554 net.cpp:395] scale4b2_branch2a -> res4b2_branch2a (in-place)
I0725 11:43:55.775991  7554 layer_factory.hpp:77] Creating layer scale4b2_branch2a
I0725 11:43:55.776144  7554 net.cpp:150] Setting up scale4b2_branch2a
I0725 11:43:55.776154  7554 net.cpp:157] Top shape: 2 256 40 40 (819200)
I0725 11:43:55.776157  7554 net.cpp:165] Memory required for data: 3207987232
I0725 11:43:55.776163  7554 layer_factory.hpp:77] Creating layer res4b2_branch2a_relu
I0725 11:43:55.776168  7554 net.cpp:100] Creating Layer res4b2_branch2a_relu
I0725 11:43:55.776171  7554 net.cpp:434] res4b2_branch2a_relu <- res4b2_branch2a
I0725 11:43:55.776180  7554 net.cpp:395] res4b2_branch2a_relu -> res4b2_branch2a (in-place)
I0725 11:43:55.776371  7554 net.cpp:150] Setting up res4b2_branch2a_relu
I0725 11:43:55.776384  7554 net.cpp:157] Top shape: 2 256 40 40 (819200)
I0725 11:43:55.776387  7554 net.cpp:165] Memory required for data: 3211264032
I0725 11:43:55.776391  7554 layer_factory.hpp:77] Creating layer res4b2_branch2b
I0725 11:43:55.776401  7554 net.cpp:100] Creating Layer res4b2_branch2b
I0725 11:43:55.776404  7554 net.cpp:434] res4b2_branch2b <- res4b2_branch2a
I0725 11:43:55.776410  7554 net.cpp:408] res4b2_branch2b -> res4b2_branch2b
I0725 11:43:55.784122  7554 net.cpp:150] Setting up res4b2_branch2b
I0725 11:43:55.784148  7554 net.cpp:157] Top shape: 2 256 40 40 (819200)
I0725 11:43:55.784152  7554 net.cpp:165] Memory required for data: 3214540832
I0725 11:43:55.784158  7554 layer_factory.hpp:77] Creating layer bn4b2_branch2b
I0725 11:43:55.784168  7554 net.cpp:100] Creating Layer bn4b2_branch2b
I0725 11:43:55.784173  7554 net.cpp:434] bn4b2_branch2b <- res4b2_branch2b
I0725 11:43:55.784178  7554 net.cpp:395] bn4b2_branch2b -> res4b2_branch2b (in-place)
I0725 11:43:55.784407  7554 net.cpp:150] Setting up bn4b2_branch2b
I0725 11:43:55.784416  7554 net.cpp:157] Top shape: 2 256 40 40 (819200)
I0725 11:43:55.784420  7554 net.cpp:165] Memory required for data: 3217817632
I0725 11:43:55.784426  7554 layer_factory.hpp:77] Creating layer scale4b2_branch2b
I0725 11:43:55.784435  7554 net.cpp:100] Creating Layer scale4b2_branch2b
I0725 11:43:55.784437  7554 net.cpp:434] scale4b2_branch2b <- res4b2_branch2b
I0725 11:43:55.784441  7554 net.cpp:395] scale4b2_branch2b -> res4b2_branch2b (in-place)
I0725 11:43:55.784489  7554 layer_factory.hpp:77] Creating layer scale4b2_branch2b
I0725 11:43:55.784622  7554 net.cpp:150] Setting up scale4b2_branch2b
I0725 11:43:55.784631  7554 net.cpp:157] Top shape: 2 256 40 40 (819200)
I0725 11:43:55.784633  7554 net.cpp:165] Memory required for data: 3221094432
I0725 11:43:55.784639  7554 layer_factory.hpp:77] Creating layer res4b2_branch2b_relu
I0725 11:43:55.784644  7554 net.cpp:100] Creating Layer res4b2_branch2b_relu
I0725 11:43:55.784647  7554 net.cpp:434] res4b2_branch2b_relu <- res4b2_branch2b
I0725 11:43:55.784653  7554 net.cpp:395] res4b2_branch2b_relu -> res4b2_branch2b (in-place)
I0725 11:43:55.784842  7554 net.cpp:150] Setting up res4b2_branch2b_relu
I0725 11:43:55.784855  7554 net.cpp:157] Top shape: 2 256 40 40 (819200)
I0725 11:43:55.784858  7554 net.cpp:165] Memory required for data: 3224371232
I0725 11:43:55.784862  7554 layer_factory.hpp:77] Creating layer res4b2_branch2c
I0725 11:43:55.784870  7554 net.cpp:100] Creating Layer res4b2_branch2c
I0725 11:43:55.784873  7554 net.cpp:434] res4b2_branch2c <- res4b2_branch2b
I0725 11:43:55.784880  7554 net.cpp:408] res4b2_branch2c -> res4b2_branch2c
I0725 11:43:55.789317  7554 net.cpp:150] Setting up res4b2_branch2c
I0725 11:43:55.789346  7554 net.cpp:157] Top shape: 2 1024 40 40 (3276800)
I0725 11:43:55.789350  7554 net.cpp:165] Memory required for data: 3237478432
I0725 11:43:55.789355  7554 layer_factory.hpp:77] Creating layer bn4b2_branch2c
I0725 11:43:55.789361  7554 net.cpp:100] Creating Layer bn4b2_branch2c
I0725 11:43:55.789366  7554 net.cpp:434] bn4b2_branch2c <- res4b2_branch2c
I0725 11:43:55.789372  7554 net.cpp:395] bn4b2_branch2c -> res4b2_branch2c (in-place)
I0725 11:43:55.789599  7554 net.cpp:150] Setting up bn4b2_branch2c
I0725 11:43:55.789608  7554 net.cpp:157] Top shape: 2 1024 40 40 (3276800)
I0725 11:43:55.789611  7554 net.cpp:165] Memory required for data: 3250585632
I0725 11:43:55.789629  7554 layer_factory.hpp:77] Creating layer scale4b2_branch2c
I0725 11:43:55.789636  7554 net.cpp:100] Creating Layer scale4b2_branch2c
I0725 11:43:55.789640  7554 net.cpp:434] scale4b2_branch2c <- res4b2_branch2c
I0725 11:43:55.789647  7554 net.cpp:395] scale4b2_branch2c -> res4b2_branch2c (in-place)
I0725 11:43:55.789691  7554 layer_factory.hpp:77] Creating layer scale4b2_branch2c
I0725 11:43:55.789831  7554 net.cpp:150] Setting up scale4b2_branch2c
I0725 11:43:55.789839  7554 net.cpp:157] Top shape: 2 1024 40 40 (3276800)
I0725 11:43:55.789842  7554 net.cpp:165] Memory required for data: 3263692832
I0725 11:43:55.789849  7554 layer_factory.hpp:77] Creating layer res4b2
I0725 11:43:55.789854  7554 net.cpp:100] Creating Layer res4b2
I0725 11:43:55.789857  7554 net.cpp:434] res4b2 <- res4b1_res4b1_relu_0_split_1
I0725 11:43:55.789861  7554 net.cpp:434] res4b2 <- res4b2_branch2c
I0725 11:43:55.789867  7554 net.cpp:408] res4b2 -> res4b2
I0725 11:43:55.789894  7554 net.cpp:150] Setting up res4b2
I0725 11:43:55.789902  7554 net.cpp:157] Top shape: 2 1024 40 40 (3276800)
I0725 11:43:55.789906  7554 net.cpp:165] Memory required for data: 3276800032
I0725 11:43:55.789908  7554 layer_factory.hpp:77] Creating layer res4b2_relu
I0725 11:43:55.789913  7554 net.cpp:100] Creating Layer res4b2_relu
I0725 11:43:55.789916  7554 net.cpp:434] res4b2_relu <- res4b2
I0725 11:43:55.789921  7554 net.cpp:395] res4b2_relu -> res4b2 (in-place)
I0725 11:43:55.790336  7554 net.cpp:150] Setting up res4b2_relu
I0725 11:43:55.790349  7554 net.cpp:157] Top shape: 2 1024 40 40 (3276800)
I0725 11:43:55.790354  7554 net.cpp:165] Memory required for data: 3289907232
I0725 11:43:55.790356  7554 layer_factory.hpp:77] Creating layer res4b2_res4b2_relu_0_split
I0725 11:43:55.790364  7554 net.cpp:100] Creating Layer res4b2_res4b2_relu_0_split
I0725 11:43:55.790369  7554 net.cpp:434] res4b2_res4b2_relu_0_split <- res4b2
I0725 11:43:55.790374  7554 net.cpp:408] res4b2_res4b2_relu_0_split -> res4b2_res4b2_relu_0_split_0
I0725 11:43:55.790383  7554 net.cpp:408] res4b2_res4b2_relu_0_split -> res4b2_res4b2_relu_0_split_1
I0725 11:43:55.790432  7554 net.cpp:150] Setting up res4b2_res4b2_relu_0_split
I0725 11:43:55.790441  7554 net.cpp:157] Top shape: 2 1024 40 40 (3276800)
I0725 11:43:55.790444  7554 net.cpp:157] Top shape: 2 1024 40 40 (3276800)
I0725 11:43:55.790446  7554 net.cpp:165] Memory required for data: 3316121632
I0725 11:43:55.790449  7554 layer_factory.hpp:77] Creating layer res4b3_branch2a
I0725 11:43:55.790459  7554 net.cpp:100] Creating Layer res4b3_branch2a
I0725 11:43:55.790464  7554 net.cpp:434] res4b3_branch2a <- res4b2_res4b2_relu_0_split_0
I0725 11:43:55.790469  7554 net.cpp:408] res4b3_branch2a -> res4b3_branch2a
I0725 11:43:55.793870  7554 net.cpp:150] Setting up res4b3_branch2a
I0725 11:43:55.793896  7554 net.cpp:157] Top shape: 2 256 40 40 (819200)
I0725 11:43:55.793900  7554 net.cpp:165] Memory required for data: 3319398432
I0725 11:43:55.793905  7554 layer_factory.hpp:77] Creating layer bn4b3_branch2a
I0725 11:43:55.793911  7554 net.cpp:100] Creating Layer bn4b3_branch2a
I0725 11:43:55.793915  7554 net.cpp:434] bn4b3_branch2a <- res4b3_branch2a
I0725 11:43:55.793922  7554 net.cpp:395] bn4b3_branch2a -> res4b3_branch2a (in-place)
I0725 11:43:55.794158  7554 net.cpp:150] Setting up bn4b3_branch2a
I0725 11:43:55.794167  7554 net.cpp:157] Top shape: 2 256 40 40 (819200)
I0725 11:43:55.794170  7554 net.cpp:165] Memory required for data: 3322675232
I0725 11:43:55.794176  7554 layer_factory.hpp:77] Creating layer scale4b3_branch2a
I0725 11:43:55.794184  7554 net.cpp:100] Creating Layer scale4b3_branch2a
I0725 11:43:55.794188  7554 net.cpp:434] scale4b3_branch2a <- res4b3_branch2a
I0725 11:43:55.794193  7554 net.cpp:395] scale4b3_branch2a -> res4b3_branch2a (in-place)
I0725 11:43:55.794240  7554 layer_factory.hpp:77] Creating layer scale4b3_branch2a
I0725 11:43:55.794373  7554 net.cpp:150] Setting up scale4b3_branch2a
I0725 11:43:55.794380  7554 net.cpp:157] Top shape: 2 256 40 40 (819200)
I0725 11:43:55.794384  7554 net.cpp:165] Memory required for data: 3325952032
I0725 11:43:55.794399  7554 layer_factory.hpp:77] Creating layer res4b3_branch2a_relu
I0725 11:43:55.794405  7554 net.cpp:100] Creating Layer res4b3_branch2a_relu
I0725 11:43:55.794409  7554 net.cpp:434] res4b3_branch2a_relu <- res4b3_branch2a
I0725 11:43:55.794415  7554 net.cpp:395] res4b3_branch2a_relu -> res4b3_branch2a (in-place)
I0725 11:43:55.794618  7554 net.cpp:150] Setting up res4b3_branch2a_relu
I0725 11:43:55.794629  7554 net.cpp:157] Top shape: 2 256 40 40 (819200)
I0725 11:43:55.794632  7554 net.cpp:165] Memory required for data: 3329228832
I0725 11:43:55.794636  7554 layer_factory.hpp:77] Creating layer res4b3_branch2b
I0725 11:43:55.794646  7554 net.cpp:100] Creating Layer res4b3_branch2b
I0725 11:43:55.794651  7554 net.cpp:434] res4b3_branch2b <- res4b3_branch2a
I0725 11:43:55.794657  7554 net.cpp:408] res4b3_branch2b -> res4b3_branch2b
I0725 11:43:55.802235  7554 net.cpp:150] Setting up res4b3_branch2b
I0725 11:43:55.802263  7554 net.cpp:157] Top shape: 2 256 40 40 (819200)
I0725 11:43:55.802266  7554 net.cpp:165] Memory required for data: 3332505632
I0725 11:43:55.802273  7554 layer_factory.hpp:77] Creating layer bn4b3_branch2b
I0725 11:43:55.802278  7554 net.cpp:100] Creating Layer bn4b3_branch2b
I0725 11:43:55.802283  7554 net.cpp:434] bn4b3_branch2b <- res4b3_branch2b
I0725 11:43:55.802289  7554 net.cpp:395] bn4b3_branch2b -> res4b3_branch2b (in-place)
I0725 11:43:55.802527  7554 net.cpp:150] Setting up bn4b3_branch2b
I0725 11:43:55.802537  7554 net.cpp:157] Top shape: 2 256 40 40 (819200)
I0725 11:43:55.802541  7554 net.cpp:165] Memory required for data: 3335782432
I0725 11:43:55.802547  7554 layer_factory.hpp:77] Creating layer scale4b3_branch2b
I0725 11:43:55.802553  7554 net.cpp:100] Creating Layer scale4b3_branch2b
I0725 11:43:55.802557  7554 net.cpp:434] scale4b3_branch2b <- res4b3_branch2b
I0725 11:43:55.802561  7554 net.cpp:395] scale4b3_branch2b -> res4b3_branch2b (in-place)
I0725 11:43:55.802609  7554 layer_factory.hpp:77] Creating layer scale4b3_branch2b
I0725 11:43:55.802743  7554 net.cpp:150] Setting up scale4b3_branch2b
I0725 11:43:55.802752  7554 net.cpp:157] Top shape: 2 256 40 40 (819200)
I0725 11:43:55.802755  7554 net.cpp:165] Memory required for data: 3339059232
I0725 11:43:55.802760  7554 layer_factory.hpp:77] Creating layer res4b3_branch2b_relu
I0725 11:43:55.802767  7554 net.cpp:100] Creating Layer res4b3_branch2b_relu
I0725 11:43:55.802770  7554 net.cpp:434] res4b3_branch2b_relu <- res4b3_branch2b
I0725 11:43:55.802775  7554 net.cpp:395] res4b3_branch2b_relu -> res4b3_branch2b (in-place)
I0725 11:43:55.802968  7554 net.cpp:150] Setting up res4b3_branch2b_relu
I0725 11:43:55.802979  7554 net.cpp:157] Top shape: 2 256 40 40 (819200)
I0725 11:43:55.802983  7554 net.cpp:165] Memory required for data: 3342336032
I0725 11:43:55.802986  7554 layer_factory.hpp:77] Creating layer res4b3_branch2c
I0725 11:43:55.802996  7554 net.cpp:100] Creating Layer res4b3_branch2c
I0725 11:43:55.803000  7554 net.cpp:434] res4b3_branch2c <- res4b3_branch2b
I0725 11:43:55.803007  7554 net.cpp:408] res4b3_branch2c -> res4b3_branch2c
I0725 11:43:55.807354  7554 net.cpp:150] Setting up res4b3_branch2c
I0725 11:43:55.807368  7554 net.cpp:157] Top shape: 2 1024 40 40 (3276800)
I0725 11:43:55.807384  7554 net.cpp:165] Memory required for data: 3355443232
I0725 11:43:55.807389  7554 layer_factory.hpp:77] Creating layer bn4b3_branch2c
I0725 11:43:55.807395  7554 net.cpp:100] Creating Layer bn4b3_branch2c
I0725 11:43:55.807399  7554 net.cpp:434] bn4b3_branch2c <- res4b3_branch2c
I0725 11:43:55.807405  7554 net.cpp:395] bn4b3_branch2c -> res4b3_branch2c (in-place)
I0725 11:43:55.807654  7554 net.cpp:150] Setting up bn4b3_branch2c
I0725 11:43:55.807663  7554 net.cpp:157] Top shape: 2 1024 40 40 (3276800)
I0725 11:43:55.807667  7554 net.cpp:165] Memory required for data: 3368550432
I0725 11:43:55.807673  7554 layer_factory.hpp:77] Creating layer scale4b3_branch2c
I0725 11:43:55.807680  7554 net.cpp:100] Creating Layer scale4b3_branch2c
I0725 11:43:55.807683  7554 net.cpp:434] scale4b3_branch2c <- res4b3_branch2c
I0725 11:43:55.807703  7554 net.cpp:395] scale4b3_branch2c -> res4b3_branch2c (in-place)
I0725 11:43:55.807747  7554 layer_factory.hpp:77] Creating layer scale4b3_branch2c
I0725 11:43:55.807888  7554 net.cpp:150] Setting up scale4b3_branch2c
I0725 11:43:55.807896  7554 net.cpp:157] Top shape: 2 1024 40 40 (3276800)
I0725 11:43:55.807899  7554 net.cpp:165] Memory required for data: 3381657632
I0725 11:43:55.807905  7554 layer_factory.hpp:77] Creating layer res4b3
I0725 11:43:55.807910  7554 net.cpp:100] Creating Layer res4b3
I0725 11:43:55.807914  7554 net.cpp:434] res4b3 <- res4b2_res4b2_relu_0_split_1
I0725 11:43:55.807919  7554 net.cpp:434] res4b3 <- res4b3_branch2c
I0725 11:43:55.807924  7554 net.cpp:408] res4b3 -> res4b3
I0725 11:43:55.807952  7554 net.cpp:150] Setting up res4b3
I0725 11:43:55.807960  7554 net.cpp:157] Top shape: 2 1024 40 40 (3276800)
I0725 11:43:55.807963  7554 net.cpp:165] Memory required for data: 3394764832
I0725 11:43:55.807966  7554 layer_factory.hpp:77] Creating layer res4b3_relu
I0725 11:43:55.807971  7554 net.cpp:100] Creating Layer res4b3_relu
I0725 11:43:55.807973  7554 net.cpp:434] res4b3_relu <- res4b3
I0725 11:43:55.807979  7554 net.cpp:395] res4b3_relu -> res4b3 (in-place)
I0725 11:43:55.808205  7554 net.cpp:150] Setting up res4b3_relu
I0725 11:43:55.808218  7554 net.cpp:157] Top shape: 2 1024 40 40 (3276800)
I0725 11:43:55.808221  7554 net.cpp:165] Memory required for data: 3407872032
I0725 11:43:55.808224  7554 layer_factory.hpp:77] Creating layer res4b3_res4b3_relu_0_split
I0725 11:43:55.808233  7554 net.cpp:100] Creating Layer res4b3_res4b3_relu_0_split
I0725 11:43:55.808238  7554 net.cpp:434] res4b3_res4b3_relu_0_split <- res4b3
I0725 11:43:55.808243  7554 net.cpp:408] res4b3_res4b3_relu_0_split -> res4b3_res4b3_relu_0_split_0
I0725 11:43:55.808251  7554 net.cpp:408] res4b3_res4b3_relu_0_split -> res4b3_res4b3_relu_0_split_1
I0725 11:43:55.808302  7554 net.cpp:150] Setting up res4b3_res4b3_relu_0_split
I0725 11:43:55.808310  7554 net.cpp:157] Top shape: 2 1024 40 40 (3276800)
I0725 11:43:55.808313  7554 net.cpp:157] Top shape: 2 1024 40 40 (3276800)
I0725 11:43:55.808316  7554 net.cpp:165] Memory required for data: 3434086432
I0725 11:43:55.808320  7554 layer_factory.hpp:77] Creating layer res4b4_branch2a
I0725 11:43:55.808328  7554 net.cpp:100] Creating Layer res4b4_branch2a
I0725 11:43:55.808332  7554 net.cpp:434] res4b4_branch2a <- res4b3_res4b3_relu_0_split_0
I0725 11:43:55.808339  7554 net.cpp:408] res4b4_branch2a -> res4b4_branch2a
I0725 11:43:55.811805  7554 net.cpp:150] Setting up res4b4_branch2a
I0725 11:43:55.811820  7554 net.cpp:157] Top shape: 2 256 40 40 (819200)
I0725 11:43:55.811834  7554 net.cpp:165] Memory required for data: 3437363232
I0725 11:43:55.811839  7554 layer_factory.hpp:77] Creating layer bn4b4_branch2a
I0725 11:43:55.811846  7554 net.cpp:100] Creating Layer bn4b4_branch2a
I0725 11:43:55.811851  7554 net.cpp:434] bn4b4_branch2a <- res4b4_branch2a
I0725 11:43:55.811856  7554 net.cpp:395] bn4b4_branch2a -> res4b4_branch2a (in-place)
I0725 11:43:55.812117  7554 net.cpp:150] Setting up bn4b4_branch2a
I0725 11:43:55.812126  7554 net.cpp:157] Top shape: 2 256 40 40 (819200)
I0725 11:43:55.812129  7554 net.cpp:165] Memory required for data: 3440640032
I0725 11:43:55.812136  7554 layer_factory.hpp:77] Creating layer scale4b4_branch2a
I0725 11:43:55.812144  7554 net.cpp:100] Creating Layer scale4b4_branch2a
I0725 11:43:55.812149  7554 net.cpp:434] scale4b4_branch2a <- res4b4_branch2a
I0725 11:43:55.812152  7554 net.cpp:395] scale4b4_branch2a -> res4b4_branch2a (in-place)
I0725 11:43:55.812201  7554 layer_factory.hpp:77] Creating layer scale4b4_branch2a
I0725 11:43:55.812338  7554 net.cpp:150] Setting up scale4b4_branch2a
I0725 11:43:55.812347  7554 net.cpp:157] Top shape: 2 256 40 40 (819200)
I0725 11:43:55.812350  7554 net.cpp:165] Memory required for data: 3443916832
I0725 11:43:55.812355  7554 layer_factory.hpp:77] Creating layer res4b4_branch2a_relu
I0725 11:43:55.812362  7554 net.cpp:100] Creating Layer res4b4_branch2a_relu
I0725 11:43:55.812376  7554 net.cpp:434] res4b4_branch2a_relu <- res4b4_branch2a
I0725 11:43:55.812381  7554 net.cpp:395] res4b4_branch2a_relu -> res4b4_branch2a (in-place)
I0725 11:43:55.812582  7554 net.cpp:150] Setting up res4b4_branch2a_relu
I0725 11:43:55.812593  7554 net.cpp:157] Top shape: 2 256 40 40 (819200)
I0725 11:43:55.812597  7554 net.cpp:165] Memory required for data: 3447193632
I0725 11:43:55.812599  7554 layer_factory.hpp:77] Creating layer res4b4_branch2b
I0725 11:43:55.812609  7554 net.cpp:100] Creating Layer res4b4_branch2b
I0725 11:43:55.812613  7554 net.cpp:434] res4b4_branch2b <- res4b4_branch2a
I0725 11:43:55.812620  7554 net.cpp:408] res4b4_branch2b -> res4b4_branch2b
I0725 11:43:55.820271  7554 net.cpp:150] Setting up res4b4_branch2b
I0725 11:43:55.820297  7554 net.cpp:157] Top shape: 2 256 40 40 (819200)
I0725 11:43:55.820300  7554 net.cpp:165] Memory required for data: 3450470432
I0725 11:43:55.820307  7554 layer_factory.hpp:77] Creating layer bn4b4_branch2b
I0725 11:43:55.820313  7554 net.cpp:100] Creating Layer bn4b4_branch2b
I0725 11:43:55.820318  7554 net.cpp:434] bn4b4_branch2b <- res4b4_branch2b
I0725 11:43:55.820322  7554 net.cpp:395] bn4b4_branch2b -> res4b4_branch2b (in-place)
I0725 11:43:55.820583  7554 net.cpp:150] Setting up bn4b4_branch2b
I0725 11:43:55.820592  7554 net.cpp:157] Top shape: 2 256 40 40 (819200)
I0725 11:43:55.820595  7554 net.cpp:165] Memory required for data: 3453747232
I0725 11:43:55.820602  7554 layer_factory.hpp:77] Creating layer scale4b4_branch2b
I0725 11:43:55.820611  7554 net.cpp:100] Creating Layer scale4b4_branch2b
I0725 11:43:55.820614  7554 net.cpp:434] scale4b4_branch2b <- res4b4_branch2b
I0725 11:43:55.820618  7554 net.cpp:395] scale4b4_branch2b -> res4b4_branch2b (in-place)
I0725 11:43:55.820667  7554 layer_factory.hpp:77] Creating layer scale4b4_branch2b
I0725 11:43:55.820801  7554 net.cpp:150] Setting up scale4b4_branch2b
I0725 11:43:55.820809  7554 net.cpp:157] Top shape: 2 256 40 40 (819200)
I0725 11:43:55.820812  7554 net.cpp:165] Memory required for data: 3457024032
I0725 11:43:55.820818  7554 layer_factory.hpp:77] Creating layer res4b4_branch2b_relu
I0725 11:43:55.820824  7554 net.cpp:100] Creating Layer res4b4_branch2b_relu
I0725 11:43:55.820828  7554 net.cpp:434] res4b4_branch2b_relu <- res4b4_branch2b
I0725 11:43:55.820832  7554 net.cpp:395] res4b4_branch2b_relu -> res4b4_branch2b (in-place)
I0725 11:43:55.821029  7554 net.cpp:150] Setting up res4b4_branch2b_relu
I0725 11:43:55.821041  7554 net.cpp:157] Top shape: 2 256 40 40 (819200)
I0725 11:43:55.821044  7554 net.cpp:165] Memory required for data: 3460300832
I0725 11:43:55.821048  7554 layer_factory.hpp:77] Creating layer res4b4_branch2c
I0725 11:43:55.821058  7554 net.cpp:100] Creating Layer res4b4_branch2c
I0725 11:43:55.821061  7554 net.cpp:434] res4b4_branch2c <- res4b4_branch2b
I0725 11:43:55.821069  7554 net.cpp:408] res4b4_branch2c -> res4b4_branch2c
I0725 11:43:55.825402  7554 net.cpp:150] Setting up res4b4_branch2c
I0725 11:43:55.825418  7554 net.cpp:157] Top shape: 2 1024 40 40 (3276800)
I0725 11:43:55.825433  7554 net.cpp:165] Memory required for data: 3473408032
I0725 11:43:55.825438  7554 layer_factory.hpp:77] Creating layer bn4b4_branch2c
I0725 11:43:55.825446  7554 net.cpp:100] Creating Layer bn4b4_branch2c
I0725 11:43:55.825450  7554 net.cpp:434] bn4b4_branch2c <- res4b4_branch2c
I0725 11:43:55.825455  7554 net.cpp:395] bn4b4_branch2c -> res4b4_branch2c (in-place)
I0725 11:43:55.825704  7554 net.cpp:150] Setting up bn4b4_branch2c
I0725 11:43:55.825713  7554 net.cpp:157] Top shape: 2 1024 40 40 (3276800)
I0725 11:43:55.825716  7554 net.cpp:165] Memory required for data: 3486515232
I0725 11:43:55.825722  7554 layer_factory.hpp:77] Creating layer scale4b4_branch2c
I0725 11:43:55.825729  7554 net.cpp:100] Creating Layer scale4b4_branch2c
I0725 11:43:55.825732  7554 net.cpp:434] scale4b4_branch2c <- res4b4_branch2c
I0725 11:43:55.825737  7554 net.cpp:395] scale4b4_branch2c -> res4b4_branch2c (in-place)
I0725 11:43:55.825783  7554 layer_factory.hpp:77] Creating layer scale4b4_branch2c
I0725 11:43:55.825942  7554 net.cpp:150] Setting up scale4b4_branch2c
I0725 11:43:55.825950  7554 net.cpp:157] Top shape: 2 1024 40 40 (3276800)
I0725 11:43:55.825954  7554 net.cpp:165] Memory required for data: 3499622432
I0725 11:43:55.825959  7554 layer_factory.hpp:77] Creating layer res4b4
I0725 11:43:55.825964  7554 net.cpp:100] Creating Layer res4b4
I0725 11:43:55.825968  7554 net.cpp:434] res4b4 <- res4b3_res4b3_relu_0_split_1
I0725 11:43:55.825973  7554 net.cpp:434] res4b4 <- res4b4_branch2c
I0725 11:43:55.825978  7554 net.cpp:408] res4b4 -> res4b4
I0725 11:43:55.826006  7554 net.cpp:150] Setting up res4b4
I0725 11:43:55.826014  7554 net.cpp:157] Top shape: 2 1024 40 40 (3276800)
I0725 11:43:55.826016  7554 net.cpp:165] Memory required for data: 3512729632
I0725 11:43:55.826020  7554 layer_factory.hpp:77] Creating layer res4b4_relu
I0725 11:43:55.826025  7554 net.cpp:100] Creating Layer res4b4_relu
I0725 11:43:55.826027  7554 net.cpp:434] res4b4_relu <- res4b4
I0725 11:43:55.826031  7554 net.cpp:395] res4b4_relu -> res4b4 (in-place)
I0725 11:43:55.826442  7554 net.cpp:150] Setting up res4b4_relu
I0725 11:43:55.826455  7554 net.cpp:157] Top shape: 2 1024 40 40 (3276800)
I0725 11:43:55.826469  7554 net.cpp:165] Memory required for data: 3525836832
I0725 11:43:55.826473  7554 layer_factory.hpp:77] Creating layer res4b4_res4b4_relu_0_split
I0725 11:43:55.826480  7554 net.cpp:100] Creating Layer res4b4_res4b4_relu_0_split
I0725 11:43:55.826484  7554 net.cpp:434] res4b4_res4b4_relu_0_split <- res4b4
I0725 11:43:55.826489  7554 net.cpp:408] res4b4_res4b4_relu_0_split -> res4b4_res4b4_relu_0_split_0
I0725 11:43:55.826496  7554 net.cpp:408] res4b4_res4b4_relu_0_split -> res4b4_res4b4_relu_0_split_1
I0725 11:43:55.826550  7554 net.cpp:150] Setting up res4b4_res4b4_relu_0_split
I0725 11:43:55.826557  7554 net.cpp:157] Top shape: 2 1024 40 40 (3276800)
I0725 11:43:55.826561  7554 net.cpp:157] Top shape: 2 1024 40 40 (3276800)
I0725 11:43:55.826565  7554 net.cpp:165] Memory required for data: 3552051232
I0725 11:43:55.826567  7554 layer_factory.hpp:77] Creating layer res4b5_branch2a
I0725 11:43:55.826577  7554 net.cpp:100] Creating Layer res4b5_branch2a
I0725 11:43:55.826581  7554 net.cpp:434] res4b5_branch2a <- res4b4_res4b4_relu_0_split_0
I0725 11:43:55.826587  7554 net.cpp:408] res4b5_branch2a -> res4b5_branch2a
I0725 11:43:55.830013  7554 net.cpp:150] Setting up res4b5_branch2a
I0725 11:43:55.830029  7554 net.cpp:157] Top shape: 2 256 40 40 (819200)
I0725 11:43:55.830044  7554 net.cpp:165] Memory required for data: 3555328032
I0725 11:43:55.830049  7554 layer_factory.hpp:77] Creating layer bn4b5_branch2a
I0725 11:43:55.830056  7554 net.cpp:100] Creating Layer bn4b5_branch2a
I0725 11:43:55.830061  7554 net.cpp:434] bn4b5_branch2a <- res4b5_branch2a
I0725 11:43:55.830067  7554 net.cpp:395] bn4b5_branch2a -> res4b5_branch2a (in-place)
I0725 11:43:55.830312  7554 net.cpp:150] Setting up bn4b5_branch2a
I0725 11:43:55.830320  7554 net.cpp:157] Top shape: 2 256 40 40 (819200)
I0725 11:43:55.830323  7554 net.cpp:165] Memory required for data: 3558604832
I0725 11:43:55.830330  7554 layer_factory.hpp:77] Creating layer scale4b5_branch2a
I0725 11:43:55.830339  7554 net.cpp:100] Creating Layer scale4b5_branch2a
I0725 11:43:55.830343  7554 net.cpp:434] scale4b5_branch2a <- res4b5_branch2a
I0725 11:43:55.830348  7554 net.cpp:395] scale4b5_branch2a -> res4b5_branch2a (in-place)
I0725 11:43:55.830396  7554 layer_factory.hpp:77] Creating layer scale4b5_branch2a
I0725 11:43:55.830531  7554 net.cpp:150] Setting up scale4b5_branch2a
I0725 11:43:55.830539  7554 net.cpp:157] Top shape: 2 256 40 40 (819200)
I0725 11:43:55.830543  7554 net.cpp:165] Memory required for data: 3561881632
I0725 11:43:55.830548  7554 layer_factory.hpp:77] Creating layer res4b5_branch2a_relu
I0725 11:43:55.830554  7554 net.cpp:100] Creating Layer res4b5_branch2a_relu
I0725 11:43:55.830556  7554 net.cpp:434] res4b5_branch2a_relu <- res4b5_branch2a
I0725 11:43:55.830562  7554 net.cpp:395] res4b5_branch2a_relu -> res4b5_branch2a (in-place)
I0725 11:43:55.830760  7554 net.cpp:150] Setting up res4b5_branch2a_relu
I0725 11:43:55.830782  7554 net.cpp:157] Top shape: 2 256 40 40 (819200)
I0725 11:43:55.830786  7554 net.cpp:165] Memory required for data: 3565158432
I0725 11:43:55.830790  7554 layer_factory.hpp:77] Creating layer res4b5_branch2b
I0725 11:43:55.830799  7554 net.cpp:100] Creating Layer res4b5_branch2b
I0725 11:43:55.830803  7554 net.cpp:434] res4b5_branch2b <- res4b5_branch2a
I0725 11:43:55.830808  7554 net.cpp:408] res4b5_branch2b -> res4b5_branch2b
I0725 11:43:55.838634  7554 net.cpp:150] Setting up res4b5_branch2b
I0725 11:43:55.838661  7554 net.cpp:157] Top shape: 2 256 40 40 (819200)
I0725 11:43:55.838665  7554 net.cpp:165] Memory required for data: 3568435232
I0725 11:43:55.838670  7554 layer_factory.hpp:77] Creating layer bn4b5_branch2b
I0725 11:43:55.838676  7554 net.cpp:100] Creating Layer bn4b5_branch2b
I0725 11:43:55.838680  7554 net.cpp:434] bn4b5_branch2b <- res4b5_branch2b
I0725 11:43:55.838687  7554 net.cpp:395] bn4b5_branch2b -> res4b5_branch2b (in-place)
I0725 11:43:55.838925  7554 net.cpp:150] Setting up bn4b5_branch2b
I0725 11:43:55.838933  7554 net.cpp:157] Top shape: 2 256 40 40 (819200)
I0725 11:43:55.838937  7554 net.cpp:165] Memory required for data: 3571712032
I0725 11:43:55.838943  7554 layer_factory.hpp:77] Creating layer scale4b5_branch2b
I0725 11:43:55.838951  7554 net.cpp:100] Creating Layer scale4b5_branch2b
I0725 11:43:55.838955  7554 net.cpp:434] scale4b5_branch2b <- res4b5_branch2b
I0725 11:43:55.838959  7554 net.cpp:395] scale4b5_branch2b -> res4b5_branch2b (in-place)
I0725 11:43:55.839009  7554 layer_factory.hpp:77] Creating layer scale4b5_branch2b
I0725 11:43:55.839146  7554 net.cpp:150] Setting up scale4b5_branch2b
I0725 11:43:55.839155  7554 net.cpp:157] Top shape: 2 256 40 40 (819200)
I0725 11:43:55.839159  7554 net.cpp:165] Memory required for data: 3574988832
I0725 11:43:55.839164  7554 layer_factory.hpp:77] Creating layer res4b5_branch2b_relu
I0725 11:43:55.839169  7554 net.cpp:100] Creating Layer res4b5_branch2b_relu
I0725 11:43:55.839172  7554 net.cpp:434] res4b5_branch2b_relu <- res4b5_branch2b
I0725 11:43:55.839179  7554 net.cpp:395] res4b5_branch2b_relu -> res4b5_branch2b (in-place)
I0725 11:43:55.839373  7554 net.cpp:150] Setting up res4b5_branch2b_relu
I0725 11:43:55.839386  7554 net.cpp:157] Top shape: 2 256 40 40 (819200)
I0725 11:43:55.839390  7554 net.cpp:165] Memory required for data: 3578265632
I0725 11:43:55.839393  7554 layer_factory.hpp:77] Creating layer res4b5_branch2c
I0725 11:43:55.839402  7554 net.cpp:100] Creating Layer res4b5_branch2c
I0725 11:43:55.839406  7554 net.cpp:434] res4b5_branch2c <- res4b5_branch2b
I0725 11:43:55.839411  7554 net.cpp:408] res4b5_branch2c -> res4b5_branch2c
I0725 11:43:55.843859  7554 net.cpp:150] Setting up res4b5_branch2c
I0725 11:43:55.843888  7554 net.cpp:157] Top shape: 2 1024 40 40 (3276800)
I0725 11:43:55.843891  7554 net.cpp:165] Memory required for data: 3591372832
I0725 11:43:55.843897  7554 layer_factory.hpp:77] Creating layer bn4b5_branch2c
I0725 11:43:55.843904  7554 net.cpp:100] Creating Layer bn4b5_branch2c
I0725 11:43:55.843907  7554 net.cpp:434] bn4b5_branch2c <- res4b5_branch2c
I0725 11:43:55.843914  7554 net.cpp:395] bn4b5_branch2c -> res4b5_branch2c (in-place)
I0725 11:43:55.844166  7554 net.cpp:150] Setting up bn4b5_branch2c
I0725 11:43:55.844177  7554 net.cpp:157] Top shape: 2 1024 40 40 (3276800)
I0725 11:43:55.844179  7554 net.cpp:165] Memory required for data: 3604480032
I0725 11:43:55.844187  7554 layer_factory.hpp:77] Creating layer scale4b5_branch2c
I0725 11:43:55.844193  7554 net.cpp:100] Creating Layer scale4b5_branch2c
I0725 11:43:55.844197  7554 net.cpp:434] scale4b5_branch2c <- res4b5_branch2c
I0725 11:43:55.844204  7554 net.cpp:395] scale4b5_branch2c -> res4b5_branch2c (in-place)
I0725 11:43:55.844249  7554 layer_factory.hpp:77] Creating layer scale4b5_branch2c
I0725 11:43:55.844394  7554 net.cpp:150] Setting up scale4b5_branch2c
I0725 11:43:55.844403  7554 net.cpp:157] Top shape: 2 1024 40 40 (3276800)
I0725 11:43:55.844405  7554 net.cpp:165] Memory required for data: 3617587232
I0725 11:43:55.844456  7554 layer_factory.hpp:77] Creating layer res4b5
I0725 11:43:55.844465  7554 net.cpp:100] Creating Layer res4b5
I0725 11:43:55.844468  7554 net.cpp:434] res4b5 <- res4b4_res4b4_relu_0_split_1
I0725 11:43:55.844472  7554 net.cpp:434] res4b5 <- res4b5_branch2c
I0725 11:43:55.844477  7554 net.cpp:408] res4b5 -> res4b5
I0725 11:43:55.844508  7554 net.cpp:150] Setting up res4b5
I0725 11:43:55.844516  7554 net.cpp:157] Top shape: 2 1024 40 40 (3276800)
I0725 11:43:55.844519  7554 net.cpp:165] Memory required for data: 3630694432
I0725 11:43:55.844522  7554 layer_factory.hpp:77] Creating layer res4b5_relu
I0725 11:43:55.844527  7554 net.cpp:100] Creating Layer res4b5_relu
I0725 11:43:55.844530  7554 net.cpp:434] res4b5_relu <- res4b5
I0725 11:43:55.844534  7554 net.cpp:395] res4b5_relu -> res4b5 (in-place)
I0725 11:43:55.844753  7554 net.cpp:150] Setting up res4b5_relu
I0725 11:43:55.844764  7554 net.cpp:157] Top shape: 2 1024 40 40 (3276800)
I0725 11:43:55.844768  7554 net.cpp:165] Memory required for data: 3643801632
I0725 11:43:55.844771  7554 layer_factory.hpp:77] Creating layer res4b5_res4b5_relu_0_split
I0725 11:43:55.844779  7554 net.cpp:100] Creating Layer res4b5_res4b5_relu_0_split
I0725 11:43:55.844782  7554 net.cpp:434] res4b5_res4b5_relu_0_split <- res4b5
I0725 11:43:55.844789  7554 net.cpp:408] res4b5_res4b5_relu_0_split -> res4b5_res4b5_relu_0_split_0
I0725 11:43:55.844795  7554 net.cpp:408] res4b5_res4b5_relu_0_split -> res4b5_res4b5_relu_0_split_1
I0725 11:43:55.844851  7554 net.cpp:150] Setting up res4b5_res4b5_relu_0_split
I0725 11:43:55.844859  7554 net.cpp:157] Top shape: 2 1024 40 40 (3276800)
I0725 11:43:55.844863  7554 net.cpp:157] Top shape: 2 1024 40 40 (3276800)
I0725 11:43:55.844866  7554 net.cpp:165] Memory required for data: 3670016032
I0725 11:43:55.844869  7554 layer_factory.hpp:77] Creating layer res4b6_branch2a
I0725 11:43:55.844878  7554 net.cpp:100] Creating Layer res4b6_branch2a
I0725 11:43:55.844882  7554 net.cpp:434] res4b6_branch2a <- res4b5_res4b5_relu_0_split_0
I0725 11:43:55.844887  7554 net.cpp:408] res4b6_branch2a -> res4b6_branch2a
I0725 11:43:55.848373  7554 net.cpp:150] Setting up res4b6_branch2a
I0725 11:43:55.848388  7554 net.cpp:157] Top shape: 2 256 40 40 (819200)
I0725 11:43:55.848403  7554 net.cpp:165] Memory required for data: 3673292832
I0725 11:43:55.848408  7554 layer_factory.hpp:77] Creating layer bn4b6_branch2a
I0725 11:43:55.848414  7554 net.cpp:100] Creating Layer bn4b6_branch2a
I0725 11:43:55.848419  7554 net.cpp:434] bn4b6_branch2a <- res4b6_branch2a
I0725 11:43:55.848426  7554 net.cpp:395] bn4b6_branch2a -> res4b6_branch2a (in-place)
I0725 11:43:55.848664  7554 net.cpp:150] Setting up bn4b6_branch2a
I0725 11:43:55.848671  7554 net.cpp:157] Top shape: 2 256 40 40 (819200)
I0725 11:43:55.848675  7554 net.cpp:165] Memory required for data: 3676569632
I0725 11:43:55.848681  7554 layer_factory.hpp:77] Creating layer scale4b6_branch2a
I0725 11:43:55.848687  7554 net.cpp:100] Creating Layer scale4b6_branch2a
I0725 11:43:55.848690  7554 net.cpp:434] scale4b6_branch2a <- res4b6_branch2a
I0725 11:43:55.848696  7554 net.cpp:395] scale4b6_branch2a -> res4b6_branch2a (in-place)
I0725 11:43:55.848743  7554 layer_factory.hpp:77] Creating layer scale4b6_branch2a
I0725 11:43:55.848881  7554 net.cpp:150] Setting up scale4b6_branch2a
I0725 11:43:55.848889  7554 net.cpp:157] Top shape: 2 256 40 40 (819200)
I0725 11:43:55.848892  7554 net.cpp:165] Memory required for data: 3679846432
I0725 11:43:55.848897  7554 layer_factory.hpp:77] Creating layer res4b6_branch2a_relu
I0725 11:43:55.848904  7554 net.cpp:100] Creating Layer res4b6_branch2a_relu
I0725 11:43:55.848907  7554 net.cpp:434] res4b6_branch2a_relu <- res4b6_branch2a
I0725 11:43:55.848912  7554 net.cpp:395] res4b6_branch2a_relu -> res4b6_branch2a (in-place)
I0725 11:43:55.849112  7554 net.cpp:150] Setting up res4b6_branch2a_relu
I0725 11:43:55.849123  7554 net.cpp:157] Top shape: 2 256 40 40 (819200)
I0725 11:43:55.849128  7554 net.cpp:165] Memory required for data: 3683123232
I0725 11:43:55.849141  7554 layer_factory.hpp:77] Creating layer res4b6_branch2b
I0725 11:43:55.849151  7554 net.cpp:100] Creating Layer res4b6_branch2b
I0725 11:43:55.849155  7554 net.cpp:434] res4b6_branch2b <- res4b6_branch2a
I0725 11:43:55.849162  7554 net.cpp:408] res4b6_branch2b -> res4b6_branch2b
I0725 11:43:55.857194  7554 net.cpp:150] Setting up res4b6_branch2b
I0725 11:43:55.857220  7554 net.cpp:157] Top shape: 2 256 40 40 (819200)
I0725 11:43:55.857224  7554 net.cpp:165] Memory required for data: 3686400032
I0725 11:43:55.857229  7554 layer_factory.hpp:77] Creating layer bn4b6_branch2b
I0725 11:43:55.857237  7554 net.cpp:100] Creating Layer bn4b6_branch2b
I0725 11:43:55.857241  7554 net.cpp:434] bn4b6_branch2b <- res4b6_branch2b
I0725 11:43:55.857246  7554 net.cpp:395] bn4b6_branch2b -> res4b6_branch2b (in-place)
I0725 11:43:55.857496  7554 net.cpp:150] Setting up bn4b6_branch2b
I0725 11:43:55.857504  7554 net.cpp:157] Top shape: 2 256 40 40 (819200)
I0725 11:43:55.857507  7554 net.cpp:165] Memory required for data: 3689676832
I0725 11:43:55.857514  7554 layer_factory.hpp:77] Creating layer scale4b6_branch2b
I0725 11:43:55.857522  7554 net.cpp:100] Creating Layer scale4b6_branch2b
I0725 11:43:55.857524  7554 net.cpp:434] scale4b6_branch2b <- res4b6_branch2b
I0725 11:43:55.857528  7554 net.cpp:395] scale4b6_branch2b -> res4b6_branch2b (in-place)
I0725 11:43:55.857579  7554 layer_factory.hpp:77] Creating layer scale4b6_branch2b
I0725 11:43:55.857719  7554 net.cpp:150] Setting up scale4b6_branch2b
I0725 11:43:55.857728  7554 net.cpp:157] Top shape: 2 256 40 40 (819200)
I0725 11:43:55.857731  7554 net.cpp:165] Memory required for data: 3692953632
I0725 11:43:55.857736  7554 layer_factory.hpp:77] Creating layer res4b6_branch2b_relu
I0725 11:43:55.857743  7554 net.cpp:100] Creating Layer res4b6_branch2b_relu
I0725 11:43:55.857745  7554 net.cpp:434] res4b6_branch2b_relu <- res4b6_branch2b
I0725 11:43:55.857749  7554 net.cpp:395] res4b6_branch2b_relu -> res4b6_branch2b (in-place)
I0725 11:43:55.857950  7554 net.cpp:150] Setting up res4b6_branch2b_relu
I0725 11:43:55.857962  7554 net.cpp:157] Top shape: 2 256 40 40 (819200)
I0725 11:43:55.857965  7554 net.cpp:165] Memory required for data: 3696230432
I0725 11:43:55.857969  7554 layer_factory.hpp:77] Creating layer res4b6_branch2c
I0725 11:43:55.857978  7554 net.cpp:100] Creating Layer res4b6_branch2c
I0725 11:43:55.857982  7554 net.cpp:434] res4b6_branch2c <- res4b6_branch2b
I0725 11:43:55.857990  7554 net.cpp:408] res4b6_branch2c -> res4b6_branch2c
I0725 11:43:55.862468  7554 net.cpp:150] Setting up res4b6_branch2c
I0725 11:43:55.862494  7554 net.cpp:157] Top shape: 2 1024 40 40 (3276800)
I0725 11:43:55.862498  7554 net.cpp:165] Memory required for data: 3709337632
I0725 11:43:55.862504  7554 layer_factory.hpp:77] Creating layer bn4b6_branch2c
I0725 11:43:55.862511  7554 net.cpp:100] Creating Layer bn4b6_branch2c
I0725 11:43:55.862516  7554 net.cpp:434] bn4b6_branch2c <- res4b6_branch2c
I0725 11:43:55.862520  7554 net.cpp:395] bn4b6_branch2c -> res4b6_branch2c (in-place)
I0725 11:43:55.862768  7554 net.cpp:150] Setting up bn4b6_branch2c
I0725 11:43:55.862777  7554 net.cpp:157] Top shape: 2 1024 40 40 (3276800)
I0725 11:43:55.862781  7554 net.cpp:165] Memory required for data: 3722444832
I0725 11:43:55.862787  7554 layer_factory.hpp:77] Creating layer scale4b6_branch2c
I0725 11:43:55.862795  7554 net.cpp:100] Creating Layer scale4b6_branch2c
I0725 11:43:55.862799  7554 net.cpp:434] scale4b6_branch2c <- res4b6_branch2c
I0725 11:43:55.862803  7554 net.cpp:395] scale4b6_branch2c -> res4b6_branch2c (in-place)
I0725 11:43:55.862850  7554 layer_factory.hpp:77] Creating layer scale4b6_branch2c
I0725 11:43:55.863000  7554 net.cpp:150] Setting up scale4b6_branch2c
I0725 11:43:55.863009  7554 net.cpp:157] Top shape: 2 1024 40 40 (3276800)
I0725 11:43:55.863013  7554 net.cpp:165] Memory required for data: 3735552032
I0725 11:43:55.863018  7554 layer_factory.hpp:77] Creating layer res4b6
I0725 11:43:55.863024  7554 net.cpp:100] Creating Layer res4b6
I0725 11:43:55.863029  7554 net.cpp:434] res4b6 <- res4b5_res4b5_relu_0_split_1
I0725 11:43:55.863044  7554 net.cpp:434] res4b6 <- res4b6_branch2c
I0725 11:43:55.863049  7554 net.cpp:408] res4b6 -> res4b6
I0725 11:43:55.863081  7554 net.cpp:150] Setting up res4b6
I0725 11:43:55.863088  7554 net.cpp:157] Top shape: 2 1024 40 40 (3276800)
I0725 11:43:55.863091  7554 net.cpp:165] Memory required for data: 3748659232
I0725 11:43:55.863095  7554 layer_factory.hpp:77] Creating layer res4b6_relu
I0725 11:43:55.863099  7554 net.cpp:100] Creating Layer res4b6_relu
I0725 11:43:55.863102  7554 net.cpp:434] res4b6_relu <- res4b6
I0725 11:43:55.863108  7554 net.cpp:395] res4b6_relu -> res4b6 (in-place)
I0725 11:43:55.863512  7554 net.cpp:150] Setting up res4b6_relu
I0725 11:43:55.863525  7554 net.cpp:157] Top shape: 2 1024 40 40 (3276800)
I0725 11:43:55.863528  7554 net.cpp:165] Memory required for data: 3761766432
I0725 11:43:55.863533  7554 layer_factory.hpp:77] Creating layer res4b6_res4b6_relu_0_split
I0725 11:43:55.863538  7554 net.cpp:100] Creating Layer res4b6_res4b6_relu_0_split
I0725 11:43:55.863543  7554 net.cpp:434] res4b6_res4b6_relu_0_split <- res4b6
I0725 11:43:55.863549  7554 net.cpp:408] res4b6_res4b6_relu_0_split -> res4b6_res4b6_relu_0_split_0
I0725 11:43:55.863557  7554 net.cpp:408] res4b6_res4b6_relu_0_split -> res4b6_res4b6_relu_0_split_1
I0725 11:43:55.863611  7554 net.cpp:150] Setting up res4b6_res4b6_relu_0_split
I0725 11:43:55.863620  7554 net.cpp:157] Top shape: 2 1024 40 40 (3276800)
I0725 11:43:55.863623  7554 net.cpp:157] Top shape: 2 1024 40 40 (3276800)
I0725 11:43:55.863626  7554 net.cpp:165] Memory required for data: 3787980832
I0725 11:43:55.863629  7554 layer_factory.hpp:77] Creating layer res4b7_branch2a
I0725 11:43:55.863639  7554 net.cpp:100] Creating Layer res4b7_branch2a
I0725 11:43:55.863642  7554 net.cpp:434] res4b7_branch2a <- res4b6_res4b6_relu_0_split_0
I0725 11:43:55.863649  7554 net.cpp:408] res4b7_branch2a -> res4b7_branch2a
I0725 11:43:55.867112  7554 net.cpp:150] Setting up res4b7_branch2a
I0725 11:43:55.867139  7554 net.cpp:157] Top shape: 2 256 40 40 (819200)
I0725 11:43:55.867143  7554 net.cpp:165] Memory required for data: 3791257632
…
I0725 11:43:57.130946  7554 net.cpp:395] res5c_relu -> res5c (in-place)
I0725 11:43:57.131213  7554 net.cpp:150] Setting up res5c_relu
I0725 11:43:57.131224  7554 net.cpp:157] Top shape: 2 2048 20 20 (1638400)
I0725 11:43:57.131227  7554 net.cpp:165] Memory required for data: 5858918432
I0725 11:43:57.131230  7554 layer_factory.hpp:77] Creating layer res5c_res5c_relu_0_split
I0725 11:43:57.131237  7554 net.cpp:100] Creating Layer res5c_res5c_relu_0_split
I0725 11:43:57.131240  7554 net.cpp:434] res5c_res5c_relu_0_split <- res5c
I0725 11:43:57.131247  7554 net.cpp:408] res5c_res5c_relu_0_split -> res5c_res5c_relu_0_split_0
I0725 11:43:57.131253  7554 net.cpp:408] res5c_res5c_relu_0_split -> res5c_res5c_relu_0_split_1
I0725 11:43:57.131321  7554 net.cpp:150] Setting up res5c_res5c_relu_0_split
I0725 11:43:57.131330  7554 net.cpp:157] Top shape: 2 2048 20 20 (1638400)
I0725 11:43:57.131333  7554 net.cpp:157] Top shape: 2 2048 20 20 (1638400)
I0725 11:43:57.131336  7554 net.cpp:165] Memory required for data: 5872025632
I0725 11:43:57.131340  7554 layer_factory.hpp:77] Creating layer pool5
I0725 11:43:57.131347  7554 net.cpp:100] Creating Layer pool5
I0725 11:43:57.131350  7554 net.cpp:434] pool5 <- res5c_res5c_relu_0_split_0
I0725 11:43:57.131357  7554 net.cpp:408] pool5 -> pool5
I0725 11:43:57.131676  7554 net.cpp:150] Setting up pool5
I0725 11:43:57.131686  7554 net.cpp:157] Top shape: 2 2048 1 1 (4096)
I0725 11:43:57.131700  7554 net.cpp:165] Memory required for data: 5872042016
I0725 11:43:57.131703  7554 layer_factory.hpp:77] Creating layer pool5_pool5_0_split
I0725 11:43:57.131711  7554 net.cpp:100] Creating Layer pool5_pool5_0_split
I0725 11:43:57.131714  7554 net.cpp:434] pool5_pool5_0_split <- pool5
I0725 11:43:57.131721  7554 net.cpp:408] pool5_pool5_0_split -> pool5_pool5_0_split_0
I0725 11:43:57.131728  7554 net.cpp:408] pool5_pool5_0_split -> pool5_pool5_0_split_1
I0725 11:43:57.131733  7554 net.cpp:408] pool5_pool5_0_split -> pool5_pool5_0_split_2
I0725 11:43:57.131749  7554 net.cpp:408] pool5_pool5_0_split -> pool5_pool5_0_split_3
I0725 11:43:57.131851  7554 net.cpp:150] Setting up pool5_pool5_0_split
I0725 11:43:57.131858  7554 net.cpp:157] Top shape: 2 2048 1 1 (4096)
I0725 11:43:57.131862  7554 net.cpp:157] Top shape: 2 2048 1 1 (4096)
I0725 11:43:57.131866  7554 net.cpp:157] Top shape: 2 2048 1 1 (4096)
I0725 11:43:57.131870  7554 net.cpp:157] Top shape: 2 2048 1 1 (4096)
I0725 11:43:57.131872  7554 net.cpp:165] Memory required for data: 5872107552
I0725 11:43:57.131875  7554 layer_factory.hpp:77] Creating layer conv6_1
I0725 11:43:57.131886  7554 net.cpp:100] Creating Layer conv6_1
I0725 11:43:57.131888  7554 net.cpp:434] conv6_1 <- pool5_pool5_0_split_0
I0725 11:43:57.131896  7554 net.cpp:408] conv6_1 -> conv6_1
I0725 11:43:57.136945  7554 net.cpp:150] Setting up conv6_1
I0725 11:43:57.136960  7554 net.cpp:157] Top shape: 2 256 1 1 (512)
I0725 11:43:57.136973  7554 net.cpp:165] Memory required for data: 5872109600
I0725 11:43:57.136981  7554 layer_factory.hpp:77] Creating layer conv6_1_relu
I0725 11:43:57.136986  7554 net.cpp:100] Creating Layer conv6_1_relu
I0725 11:43:57.136992  7554 net.cpp:434] conv6_1_relu <- conv6_1
I0725 11:43:57.136996  7554 net.cpp:395] conv6_1_relu -> conv6_1 (in-place)
I0725 11:43:57.137265  7554 net.cpp:150] Setting up conv6_1_relu
I0725 11:43:57.137277  7554 net.cpp:157] Top shape: 2 256 1 1 (512)
I0725 11:43:57.137280  7554 net.cpp:165] Memory required for data: 5872111648
I0725 11:43:57.137284  7554 layer_factory.hpp:77] Creating layer conv6_2
I0725 11:43:57.137293  7554 net.cpp:100] Creating Layer conv6_2
I0725 11:43:57.137297  7554 net.cpp:434] conv6_2 <- conv6_1
I0725 11:43:57.137305  7554 net.cpp:408] conv6_2 -> conv6_2
I0725 11:43:57.146525  7554 net.cpp:150] Setting up conv6_2
I0725 11:43:57.146553  7554 net.cpp:157] Top shape: 2 512 1 1 (1024)
I0725 11:43:57.146558  7554 net.cpp:165] Memory required for data: 5872115744
I0725 11:43:57.146564  7554 layer_factory.hpp:77] Creating layer conv6_2_relu
I0725 11:43:57.146579  7554 net.cpp:100] Creating Layer conv6_2_relu
I0725 11:43:57.146584  7554 net.cpp:434] conv6_2_relu <- conv6_2
I0725 11:43:57.146589  7554 net.cpp:395] conv6_2_relu -> conv6_2 (in-place)
I0725 11:43:57.147105  7554 net.cpp:150] Setting up conv6_2_relu
I0725 11:43:57.147119  7554 net.cpp:157] Top shape: 2 512 1 1 (1024)
I0725 11:43:57.147133  7554 net.cpp:165] Memory required for data: 5872119840
I0725 11:43:57.147137  7554 layer_factory.hpp:77] Creating layer conv6_2_conv6_2_relu_0_split
I0725 11:43:57.147145  7554 net.cpp:100] Creating Layer conv6_2_conv6_2_relu_0_split
I0725 11:43:57.147150  7554 net.cpp:434] conv6_2_conv6_2_relu_0_split <- conv6_2
I0725 11:43:57.147156  7554 net.cpp:408] conv6_2_conv6_2_relu_0_split -> conv6_2_conv6_2_relu_0_split_0
I0725 11:43:57.147164  7554 net.cpp:408] conv6_2_conv6_2_relu_0_split -> conv6_2_conv6_2_relu_0_split_1
I0725 11:43:57.147171  7554 net.cpp:408] conv6_2_conv6_2_relu_0_split -> conv6_2_conv6_2_relu_0_split_2
I0725 11:43:57.147176  7554 net.cpp:408] conv6_2_conv6_2_relu_0_split -> conv6_2_conv6_2_relu_0_split_3
I0725 11:43:57.147286  7554 net.cpp:150] Setting up conv6_2_conv6_2_relu_0_split
I0725 11:43:57.147295  7554 net.cpp:157] Top shape: 2 512 1 1 (1024)
I0725 11:43:57.147300  7554 net.cpp:157] Top shape: 2 512 1 1 (1024)
I0725 11:43:57.147302  7554 net.cpp:157] Top shape: 2 512 1 1 (1024)
I0725 11:43:57.147305  7554 net.cpp:157] Top shape: 2 512 1 1 (1024)
I0725 11:43:57.147308  7554 net.cpp:165] Memory required for data: 5872136224
I0725 11:43:57.147311  7554 layer_factory.hpp:77] Creating layer conv7_1
I0725 11:43:57.147322  7554 net.cpp:100] Creating Layer conv7_1
I0725 11:43:57.147325  7554 net.cpp:434] conv7_1 <- conv6_2_conv6_2_relu_0_split_0
I0725 11:43:57.147331  7554 net.cpp:408] conv7_1 -> conv7_1
I0725 11:43:57.149912  7554 net.cpp:150] Setting up conv7_1
I0725 11:43:57.149926  7554 net.cpp:157] Top shape: 2 128 1 1 (256)
I0725 11:43:57.149940  7554 net.cpp:165] Memory required for data: 5872137248
I0725 11:43:57.149947  7554 layer_factory.hpp:77] Creating layer conv7_1_relu
I0725 11:43:57.149952  7554 net.cpp:100] Creating Layer conv7_1_relu
I0725 11:43:57.149956  7554 net.cpp:434] conv7_1_relu <- conv7_1
I0725 11:43:57.149962  7554 net.cpp:395] conv7_1_relu -> conv7_1 (in-place)
I0725 11:43:57.150465  7554 net.cpp:150] Setting up conv7_1_relu
I0725 11:43:57.150478  7554 net.cpp:157] Top shape: 2 128 1 1 (256)
I0725 11:43:57.150492  7554 net.cpp:165] Memory required for data: 5872138272
I0725 11:43:57.150496  7554 layer_factory.hpp:77] Creating layer conv7_2
I0725 11:43:57.150507  7554 net.cpp:100] Creating Layer conv7_2
I0725 11:43:57.150511  7554 net.cpp:434] conv7_2 <- conv7_1
I0725 11:43:57.150518  7554 net.cpp:408] conv7_2 -> conv7_2
I0725 11:43:57.154258  7554 net.cpp:150] Setting up conv7_2
I0725 11:43:57.154271  7554 net.cpp:157] Top shape: 2 256 1 1 (512)
I0725 11:43:57.154285  7554 net.cpp:165] Memory required for data: 5872140320
I0725 11:43:57.154292  7554 layer_factory.hpp:77] Creating layer conv7_2_relu
I0725 11:43:57.154299  7554 net.cpp:100] Creating Layer conv7_2_relu
I0725 11:43:57.154304  7554 net.cpp:434] conv7_2_relu <- conv7_2
I0725 11:43:57.154307  7554 net.cpp:395] conv7_2_relu -> conv7_2 (in-place)
I0725 11:43:57.154587  7554 net.cpp:150] Setting up conv7_2_relu
I0725 11:43:57.154599  7554 net.cpp:157] Top shape: 2 256 1 1 (512)
I0725 11:43:57.154603  7554 net.cpp:165] Memory required for data: 5872142368
I0725 11:43:57.154605  7554 layer_factory.hpp:77] Creating layer conv7_2_conv7_2_relu_0_split
I0725 11:43:57.154613  7554 net.cpp:100] Creating Layer conv7_2_conv7_2_relu_0_split
I0725 11:43:57.154616  7554 net.cpp:434] conv7_2_conv7_2_relu_0_split <- conv7_2
I0725 11:43:57.154621  7554 net.cpp:408] conv7_2_conv7_2_relu_0_split -> conv7_2_conv7_2_relu_0_split_0
I0725 11:43:57.154628  7554 net.cpp:408] conv7_2_conv7_2_relu_0_split -> conv7_2_conv7_2_relu_0_split_1
I0725 11:43:57.154635  7554 net.cpp:408] conv7_2_conv7_2_relu_0_split -> conv7_2_conv7_2_relu_0_split_2
I0725 11:43:57.154654  7554 net.cpp:408] conv7_2_conv7_2_relu_0_split -> conv7_2_conv7_2_relu_0_split_3
I0725 11:43:57.154772  7554 net.cpp:150] Setting up conv7_2_conv7_2_relu_0_split
I0725 11:43:57.154780  7554 net.cpp:157] Top shape: 2 256 1 1 (512)
I0725 11:43:57.154783  7554 net.cpp:157] Top shape: 2 256 1 1 (512)
I0725 11:43:57.154788  7554 net.cpp:157] Top shape: 2 256 1 1 (512)
I0725 11:43:57.154790  7554 net.cpp:157] Top shape: 2 256 1 1 (512)
I0725 11:43:57.154793  7554 net.cpp:165] Memory required for data: 5872150560
I0725 11:43:57.154795  7554 layer_factory.hpp:77] Creating layer conv8_1
I0725 11:43:57.154809  7554 net.cpp:100] Creating Layer conv8_1
I0725 11:43:57.154816  7554 net.cpp:434] conv8_1 <- conv7_2_conv7_2_relu_0_split_0
I0725 11:43:57.154822  7554 net.cpp:408] conv8_1 -> conv8_1
I0725 11:43:57.157567  7554 net.cpp:150] Setting up conv8_1
I0725 11:43:57.157582  7554 net.cpp:157] Top shape: 2 128 1 1 (256)
I0725 11:43:57.157596  7554 net.cpp:165] Memory required for data: 5872151584
I0725 11:43:57.157603  7554 layer_factory.hpp:77] Creating layer conv8_1_relu
I0725 11:43:57.157609  7554 net.cpp:100] Creating Layer conv8_1_relu
I0725 11:43:57.157613  7554 net.cpp:434] conv8_1_relu <- conv8_1
I0725 11:43:57.157619  7554 net.cpp:395] conv8_1_relu -> conv8_1 (in-place)
I0725 11:43:57.157893  7554 net.cpp:150] Setting up conv8_1_relu
I0725 11:43:57.157907  7554 net.cpp:157] Top shape: 2 128 1 1 (256)
I0725 11:43:57.157909  7554 net.cpp:165] Memory required for data: 5872152608
I0725 11:43:57.157913  7554 layer_factory.hpp:77] Creating layer conv8_2
I0725 11:43:57.157923  7554 net.cpp:100] Creating Layer conv8_2
I0725 11:43:57.157927  7554 net.cpp:434] conv8_2 <- conv8_1
I0725 11:43:57.157932  7554 net.cpp:408] conv8_2 -> conv8_2
I0725 11:43:57.159363  7554 net.cpp:150] Setting up conv8_2
I0725 11:43:57.159374  7554 net.cpp:157] Top shape: 2 256 1 1 (512)
I0725 11:43:57.159376  7554 net.cpp:165] Memory required for data: 5872154656
I0725 11:43:57.159382  7554 layer_factory.hpp:77] Creating layer conv8_2_relu
I0725 11:43:57.159387  7554 net.cpp:100] Creating Layer conv8_2_relu
I0725 11:43:57.159390  7554 net.cpp:434] conv8_2_relu <- conv8_2
I0725 11:43:57.159396  7554 net.cpp:395] conv8_2_relu -> conv8_2 (in-place)
I0725 11:43:57.159644  7554 net.cpp:150] Setting up conv8_2_relu
I0725 11:43:57.159653  7554 net.cpp:157] Top shape: 2 256 1 1 (512)
I0725 11:43:57.159656  7554 net.cpp:165] Memory required for data: 5872156704
I0725 11:43:57.159658  7554 layer_factory.hpp:77] Creating layer conv8_2_conv8_2_relu_0_split
I0725 11:43:57.159667  7554 net.cpp:100] Creating Layer conv8_2_conv8_2_relu_0_split
I0725 11:43:57.159669  7554 net.cpp:434] conv8_2_conv8_2_relu_0_split <- conv8_2
I0725 11:43:57.159675  7554 net.cpp:408] conv8_2_conv8_2_relu_0_split -> conv8_2_conv8_2_relu_0_split_0
I0725 11:43:57.159682  7554 net.cpp:408] conv8_2_conv8_2_relu_0_split -> conv8_2_conv8_2_relu_0_split_1
I0725 11:43:57.159687  7554 net.cpp:408] conv8_2_conv8_2_relu_0_split -> conv8_2_conv8_2_relu_0_split_2
I0725 11:43:57.159692  7554 net.cpp:408] conv8_2_conv8_2_relu_0_split -> conv8_2_conv8_2_relu_0_split_3
I0725 11:43:57.159754  7554 net.cpp:150] Setting up conv8_2_conv8_2_relu_0_split
I0725 11:43:57.159759  7554 net.cpp:157] Top shape: 2 256 1 1 (512)
I0725 11:43:57.159761  7554 net.cpp:157] Top shape: 2 256 1 1 (512)
I0725 11:43:57.159765  7554 net.cpp:157] Top shape: 2 256 1 1 (512)
I0725 11:43:57.159767  7554 net.cpp:157] Top shape: 2 256 1 1 (512)
I0725 11:43:57.159770  7554 net.cpp:165] Memory required for data: 5872164896
I0725 11:43:57.159772  7554 layer_factory.hpp:77] Creating layer conv9_1
I0725 11:43:57.159781  7554 net.cpp:100] Creating Layer conv9_1
I0725 11:43:57.159785  7554 net.cpp:434] conv9_1 <- conv8_2_conv8_2_relu_0_split_0
I0725 11:43:57.159790  7554 net.cpp:408] conv9_1 -> conv9_1
I0725 11:43:57.161213  7554 net.cpp:150] Setting up conv9_1
I0725 11:43:57.161224  7554 net.cpp:157] Top shape: 2 128 1 1 (256)
I0725 11:43:57.161227  7554 net.cpp:165] Memory required for data: 5872165920
I0725 11:43:57.161232  7554 layer_factory.hpp:77] Creating layer conv9_1_relu
I0725 11:43:57.161247  7554 net.cpp:100] Creating Layer conv9_1_relu
I0725 11:43:57.161252  7554 net.cpp:434] conv9_1_relu <- conv9_1
I0725 11:43:57.161258  7554 net.cpp:395] conv9_1_relu -> conv9_1 (in-place)
I0725 11:43:57.161505  7554 net.cpp:150] Setting up conv9_1_relu
I0725 11:43:57.161514  7554 net.cpp:157] Top shape: 2 128 1 1 (256)
I0725 11:43:57.161516  7554 net.cpp:165] Memory required for data: 5872166944
I0725 11:43:57.161520  7554 layer_factory.hpp:77] Creating layer conv9_2
I0725 11:43:57.161528  7554 net.cpp:100] Creating Layer conv9_2
I0725 11:43:57.161532  7554 net.cpp:434] conv9_2 <- conv9_1
I0725 11:43:57.161540  7554 net.cpp:408] conv9_2 -> conv9_2
I0725 11:43:57.162925  7554 net.cpp:150] Setting up conv9_2
I0725 11:43:57.162935  7554 net.cpp:157] Top shape: 2 256 1 1 (512)
I0725 11:43:57.162938  7554 net.cpp:165] Memory required for data: 5872168992
I0725 11:43:57.162943  7554 layer_factory.hpp:77] Creating layer conv9_2_relu
I0725 11:43:57.162948  7554 net.cpp:100] Creating Layer conv9_2_relu
I0725 11:43:57.162952  7554 net.cpp:434] conv9_2_relu <- conv9_2
I0725 11:43:57.162958  7554 net.cpp:395] conv9_2_relu -> conv9_2 (in-place)
I0725 11:43:57.163431  7554 net.cpp:150] Setting up conv9_2_relu
I0725 11:43:57.163441  7554 net.cpp:157] Top shape: 2 256 1 1 (512)
I0725 11:43:57.163444  7554 net.cpp:165] Memory required for data: 5872171040
I0725 11:43:57.163447  7554 layer_factory.hpp:77] Creating layer conv9_2_conv9_2_relu_0_split
I0725 11:43:57.163453  7554 net.cpp:100] Creating Layer conv9_2_conv9_2_relu_0_split
I0725 11:43:57.163456  7554 net.cpp:434] conv9_2_conv9_2_relu_0_split <- conv9_2
I0725 11:43:57.163463  7554 net.cpp:408] conv9_2_conv9_2_relu_0_split -> conv9_2_conv9_2_relu_0_split_0
I0725 11:43:57.163470  7554 net.cpp:408] conv9_2_conv9_2_relu_0_split -> conv9_2_conv9_2_relu_0_split_1
I0725 11:43:57.163475  7554 net.cpp:408] conv9_2_conv9_2_relu_0_split -> conv9_2_conv9_2_relu_0_split_2
I0725 11:43:57.163529  7554 net.cpp:150] Setting up conv9_2_conv9_2_relu_0_split
I0725 11:43:57.163534  7554 net.cpp:157] Top shape: 2 256 1 1 (512)
I0725 11:43:57.163537  7554 net.cpp:157] Top shape: 2 256 1 1 (512)
I0725 11:43:57.163540  7554 net.cpp:157] Top shape: 2 256 1 1 (512)
I0725 11:43:57.163542  7554 net.cpp:165] Memory required for data: 5872177184
I0725 11:43:57.163545  7554 layer_factory.hpp:77] Creating layer res5c_norm
I0725 11:43:57.163553  7554 net.cpp:100] Creating Layer res5c_norm
I0725 11:43:57.163556  7554 net.cpp:434] res5c_norm <- res5c_res5c_relu_0_split_1
I0725 11:43:57.163561  7554 net.cpp:408] res5c_norm -> res5c_norm
I0725 11:43:57.163743  7554 net.cpp:150] Setting up res5c_norm
I0725 11:43:57.163750  7554 net.cpp:157] Top shape: 2 2048 20 20 (1638400)
I0725 11:43:57.163753  7554 net.cpp:165] Memory required for data: 5878730784
I0725 11:43:57.163758  7554 layer_factory.hpp:77] Creating layer res5c_norm_res5c_norm_0_split
I0725 11:43:57.163761  7554 net.cpp:100] Creating Layer res5c_norm_res5c_norm_0_split
I0725 11:43:57.163765  7554 net.cpp:434] res5c_norm_res5c_norm_0_split <- res5c_norm
I0725 11:43:57.163769  7554 net.cpp:408] res5c_norm_res5c_norm_0_split -> res5c_norm_res5c_norm_0_split_0
I0725 11:43:57.163775  7554 net.cpp:408] res5c_norm_res5c_norm_0_split -> res5c_norm_res5c_norm_0_split_1
I0725 11:43:57.163782  7554 net.cpp:408] res5c_norm_res5c_norm_0_split -> res5c_norm_res5c_norm_0_split_2
I0725 11:43:57.163825  7554 net.cpp:150] Setting up res5c_norm_res5c_norm_0_split
I0725 11:43:57.163830  7554 net.cpp:157] Top shape: 2 2048 20 20 (1638400)
I0725 11:43:57.163833  7554 net.cpp:157] Top shape: 2 2048 20 20 (1638400)
I0725 11:43:57.163836  7554 net.cpp:157] Top shape: 2 2048 20 20 (1638400)
I0725 11:43:57.163838  7554 net.cpp:165] Memory required for data: 5898391584
I0725 11:43:57.163841  7554 layer_factory.hpp:77] Creating layer res5c_norm_mbox_loc_bdc2018
I0725 11:43:57.163848  7554 net.cpp:100] Creating Layer res5c_norm_mbox_loc_bdc2018
I0725 11:43:57.163851  7554 net.cpp:434] res5c_norm_mbox_loc_bdc2018 <- res5c_norm_res5c_norm_0_split_0
I0725 11:43:57.163868  7554 net.cpp:408] res5c_norm_mbox_loc_bdc2018 -> res5c_norm_mbox_loc_bdc2018
I0725 11:43:57.167454  7554 net.cpp:150] Setting up res5c_norm_mbox_loc_bdc2018
I0725 11:43:57.167465  7554 net.cpp:157] Top shape: 2 16 20 20 (12800)
I0725 11:43:57.167469  7554 net.cpp:165] Memory required for data: 5898442784
I0725 11:43:57.167474  7554 layer_factory.hpp:77] Creating layer res5c_norm_mbox_loc_bdc2018_perm_bdc2018
I0725 11:43:57.167484  7554 net.cpp:100] Creating Layer res5c_norm_mbox_loc_bdc2018_perm_bdc2018
I0725 11:43:57.167488  7554 net.cpp:434] res5c_norm_mbox_loc_bdc2018_perm_bdc2018 <- res5c_norm_mbox_loc_bdc2018
I0725 11:43:57.167493  7554 net.cpp:408] res5c_norm_mbox_loc_bdc2018_perm_bdc2018 -> res5c_norm_mbox_loc_bdc2018_perm_bdc2018
I0725 11:43:57.167592  7554 net.cpp:150] Setting up res5c_norm_mbox_loc_bdc2018_perm_bdc2018
I0725 11:43:57.167598  7554 net.cpp:157] Top shape: 2 20 20 16 (12800)
I0725 11:43:57.167599  7554 net.cpp:165] Memory required for data: 5898493984
I0725 11:43:57.167603  7554 layer_factory.hpp:77] Creating layer res5c_norm_mbox_loc_bdc2018_flat_bdc2018
I0725 11:43:57.167609  7554 net.cpp:100] Creating Layer res5c_norm_mbox_loc_bdc2018_flat_bdc2018
I0725 11:43:57.167613  7554 net.cpp:434] res5c_norm_mbox_loc_bdc2018_flat_bdc2018 <- res5c_norm_mbox_loc_bdc2018_perm_bdc2018
I0725 11:43:57.167618  7554 net.cpp:408] res5c_norm_mbox_loc_bdc2018_flat_bdc2018 -> res5c_norm_mbox_loc_bdc2018_flat_bdc2018
I0725 11:43:57.167640  7554 net.cpp:150] Setting up res5c_norm_mbox_loc_bdc2018_flat_bdc2018
I0725 11:43:57.167644  7554 net.cpp:157] Top shape: 2 6400 (12800)
I0725 11:43:57.167646  7554 net.cpp:165] Memory required for data: 5898545184
I0725 11:43:57.167649  7554 layer_factory.hpp:77] Creating layer res5c_norm_mbox_conf_bdc2018_new
I0725 11:43:57.167660  7554 net.cpp:100] Creating Layer res5c_norm_mbox_conf_bdc2018_new
I0725 11:43:57.167663  7554 net.cpp:434] res5c_norm_mbox_conf_bdc2018_new <- res5c_norm_res5c_norm_0_split_1
I0725 11:43:57.167670  7554 net.cpp:408] res5c_norm_mbox_conf_bdc2018_new -> res5c_norm_mbox_conf_bdc2018_new
I0725 11:43:57.173425  7554 net.cpp:150] Setting up res5c_norm_mbox_conf_bdc2018_new
I0725 11:43:57.173437  7554 net.cpp:157] Top shape: 2 36 20 20 (28800)
I0725 11:43:57.173440  7554 net.cpp:165] Memory required for data: 5898660384
I0725 11:43:57.173446  7554 layer_factory.hpp:77] Creating layer res5c_norm_mbox_conf_bdc2018_new_perm_bdc2018_new
I0725 11:43:57.173454  7554 net.cpp:100] Creating Layer res5c_norm_mbox_conf_bdc2018_new_perm_bdc2018_new
I0725 11:43:57.173458  7554 net.cpp:434] res5c_norm_mbox_conf_bdc2018_new_perm_bdc2018_new <- res5c_norm_mbox_conf_bdc2018_new
I0725 11:43:57.173465  7554 net.cpp:408] res5c_norm_mbox_conf_bdc2018_new_perm_bdc2018_new -> res5c_norm_mbox_conf_bdc2018_new_perm_bdc2018_new
I0725 11:43:57.173561  7554 net.cpp:150] Setting up res5c_norm_mbox_conf_bdc2018_new_perm_bdc2018_new
I0725 11:43:57.173569  7554 net.cpp:157] Top shape: 2 20 20 36 (28800)
I0725 11:43:57.173571  7554 net.cpp:165] Memory required for data: 5898775584
I0725 11:43:57.173574  7554 layer_factory.hpp:77] Creating layer res5c_norm_mbox_conf_bdc2018_new_flat_bdc2018_new
I0725 11:43:57.173579  7554 net.cpp:100] Creating Layer res5c_norm_mbox_conf_bdc2018_new_flat_bdc2018_new
I0725 11:43:57.173583  7554 net.cpp:434] res5c_norm_mbox_conf_bdc2018_new_flat_bdc2018_new <- res5c_norm_mbox_conf_bdc2018_new_perm_bdc2018_new
I0725 11:43:57.173589  7554 net.cpp:408] res5c_norm_mbox_conf_bdc2018_new_flat_bdc2018_new -> res5c_norm_mbox_conf_bdc2018_new_flat_bdc2018_new
I0725 11:43:57.173609  7554 net.cpp:150] Setting up res5c_norm_mbox_conf_bdc2018_new_flat_bdc2018_new
I0725 11:43:57.173615  7554 net.cpp:157] Top shape: 2 14400 (28800)
I0725 11:43:57.173617  7554 net.cpp:165] Memory required for data: 5898890784
I0725 11:43:57.173620  7554 layer_factory.hpp:77] Creating layer res5c_norm_mbox_priorbox
I0725 11:43:57.173707  7554 net.cpp:100] Creating Layer res5c_norm_mbox_priorbox
I0725 11:43:57.173712  7554 net.cpp:434] res5c_norm_mbox_priorbox <- res5c_norm_res5c_norm_0_split_2
I0725 11:43:57.173727  7554 net.cpp:434] res5c_norm_mbox_priorbox <- data_data_0_split_1
I0725 11:43:57.173732  7554 net.cpp:408] res5c_norm_mbox_priorbox -> res5c_norm_mbox_priorbox
I0725 11:43:57.173760  7554 net.cpp:150] Setting up res5c_norm_mbox_priorbox
I0725 11:43:57.173766  7554 net.cpp:157] Top shape: 1 2 6400 (12800)
I0725 11:43:57.173768  7554 net.cpp:165] Memory required for data: 5898941984
I0725 11:43:57.173771  7554 layer_factory.hpp:77] Creating layer pool5_mbox_loc_bdc2018
I0725 11:43:57.173779  7554 net.cpp:100] Creating Layer pool5_mbox_loc_bdc2018
I0725 11:43:57.173782  7554 net.cpp:434] pool5_mbox_loc_bdc2018 <- pool5_pool5_0_split_1
I0725 11:43:57.173787  7554 net.cpp:408] pool5_mbox_loc_bdc2018 -> pool5_mbox_loc_bdc2018
I0725 11:43:57.178478  7554 net.cpp:150] Setting up pool5_mbox_loc_bdc2018
I0725 11:43:57.178489  7554 net.cpp:157] Top shape: 2 24 1 1 (48)
I0725 11:43:57.178493  7554 net.cpp:165] Memory required for data: 5898942176
I0725 11:43:57.178498  7554 layer_factory.hpp:77] Creating layer pool5_mbox_loc_bdc2018_perm_bdc2018
I0725 11:43:57.178504  7554 net.cpp:100] Creating Layer pool5_mbox_loc_bdc2018_perm_bdc2018
I0725 11:43:57.178508  7554 net.cpp:434] pool5_mbox_loc_bdc2018_perm_bdc2018 <- pool5_mbox_loc_bdc2018
I0725 11:43:57.178514  7554 net.cpp:408] pool5_mbox_loc_bdc2018_perm_bdc2018 -> pool5_mbox_loc_bdc2018_perm_bdc2018
I0725 11:43:57.178601  7554 net.cpp:150] Setting up pool5_mbox_loc_bdc2018_perm_bdc2018
I0725 11:43:57.178606  7554 net.cpp:157] Top shape: 2 1 1 24 (48)
I0725 11:43:57.178608  7554 net.cpp:165] Memory required for data: 5898942368
I0725 11:43:57.178612  7554 layer_factory.hpp:77] Creating layer pool5_mbox_loc_bdc2018_flat_bdc2018
I0725 11:43:57.178617  7554 net.cpp:100] Creating Layer pool5_mbox_loc_bdc2018_flat_bdc2018
I0725 11:43:57.178620  7554 net.cpp:434] pool5_mbox_loc_bdc2018_flat_bdc2018 <- pool5_mbox_loc_bdc2018_perm_bdc2018
I0725 11:43:57.178624  7554 net.cpp:408] pool5_mbox_loc_bdc2018_flat_bdc2018 -> pool5_mbox_loc_bdc2018_flat_bdc2018
I0725 11:43:57.178680  7554 net.cpp:150] Setting up pool5_mbox_loc_bdc2018_flat_bdc2018
I0725 11:43:57.178686  7554 net.cpp:157] Top shape: 2 24 (48)
I0725 11:43:57.178689  7554 net.cpp:165] Memory required for data: 5898942560
I0725 11:43:57.178691  7554 layer_factory.hpp:77] Creating layer pool5_mbox_conf_bdc2018_new
I0725 11:43:57.178699  7554 net.cpp:100] Creating Layer pool5_mbox_conf_bdc2018_new
I0725 11:43:57.178702  7554 net.cpp:434] pool5_mbox_conf_bdc2018_new <- pool5_pool5_0_split_2
I0725 11:43:57.178707  7554 net.cpp:408] pool5_mbox_conf_bdc2018_new -> pool5_mbox_conf_bdc2018_new
I0725 11:43:57.186373  7554 net.cpp:150] Setting up pool5_mbox_conf_bdc2018_new
I0725 11:43:57.186384  7554 net.cpp:157] Top shape: 2 54 1 1 (108)
I0725 11:43:57.186388  7554 net.cpp:165] Memory required for data: 5898942992
I0725 11:43:57.186394  7554 layer_factory.hpp:77] Creating layer pool5_mbox_conf_bdc2018_new_perm_bdc2018_new
I0725 11:43:57.186403  7554 net.cpp:100] Creating Layer pool5_mbox_conf_bdc2018_new_perm_bdc2018_new
I0725 11:43:57.186406  7554 net.cpp:434] pool5_mbox_conf_bdc2018_new_perm_bdc2018_new <- pool5_mbox_conf_bdc2018_new
I0725 11:43:57.186414  7554 net.cpp:408] pool5_mbox_conf_bdc2018_new_perm_bdc2018_new -> pool5_mbox_conf_bdc2018_new_perm_bdc2018_new
I0725 11:43:57.186509  7554 net.cpp:150] Setting up pool5_mbox_conf_bdc2018_new_perm_bdc2018_new
I0725 11:43:57.186517  7554 net.cpp:157] Top shape: 2 1 1 54 (108)
I0725 11:43:57.186519  7554 net.cpp:165] Memory required for data: 5898943424
I0725 11:43:57.186522  7554 layer_factory.hpp:77] Creating layer pool5_mbox_conf_bdc2018_new_flat_bdc2018_new
I0725 11:43:57.186527  7554 net.cpp:100] Creating Layer pool5_mbox_conf_bdc2018_new_flat_bdc2018_new
I0725 11:43:57.186532  7554 net.cpp:434] pool5_mbox_conf_bdc2018_new_flat_bdc2018_new <- pool5_mbox_conf_bdc2018_new_perm_bdc2018_new
I0725 11:43:57.186535  7554 net.cpp:408] pool5_mbox_conf_bdc2018_new_flat_bdc2018_new -> pool5_mbox_conf_bdc2018_new_flat_bdc2018_new
I0725 11:43:57.186570  7554 net.cpp:150] Setting up pool5_mbox_conf_bdc2018_new_flat_bdc2018_new
I0725 11:43:57.186578  7554 net.cpp:157] Top shape: 2 54 (108)
I0725 11:43:57.186579  7554 net.cpp:165] Memory required for data: 5898943856
I0725 11:43:57.186583  7554 layer_factory.hpp:77] Creating layer pool5_mbox_priorbox
I0725 11:43:57.186588  7554 net.cpp:100] Creating Layer pool5_mbox_priorbox
I0725 11:43:57.186590  7554 net.cpp:434] pool5_mbox_priorbox <- pool5_pool5_0_split_3
I0725 11:43:57.186595  7554 net.cpp:434] pool5_mbox_priorbox <- data_data_0_split_2
I0725 11:43:57.186600  7554 net.cpp:408] pool5_mbox_priorbox -> pool5_mbox_priorbox
I0725 11:43:57.186625  7554 net.cpp:150] Setting up pool5_mbox_priorbox
I0725 11:43:57.186631  7554 net.cpp:157] Top shape: 1 2 24 (48)
I0725 11:43:57.186633  7554 net.cpp:165] Memory required for data: 5898944048
I0725 11:43:57.186636  7554 layer_factory.hpp:77] Creating layer conv6_2_mbox_loc_bdc2018
I0725 11:43:57.186646  7554 net.cpp:100] Creating Layer conv6_2_mbox_loc_bdc2018
I0725 11:43:57.186650  7554 net.cpp:434] conv6_2_mbox_loc_bdc2018 <- conv6_2_conv6_2_relu_0_split_1
I0725 11:43:57.186655  7554 net.cpp:408] conv6_2_mbox_loc_bdc2018 -> conv6_2_mbox_loc_bdc2018
I0725 11:43:57.188639  7554 net.cpp:150] Setting up conv6_2_mbox_loc_bdc2018
I0725 11:43:57.188650  7554 net.cpp:157] Top shape: 2 24 1 1 (48)
I0725 11:43:57.188653  7554 net.cpp:165] Memory required for data: 5898944240
I0725 11:43:57.188660  7554 layer_factory.hpp:77] Creating layer conv6_2_mbox_loc_bdc2018_perm_bdc2018
I0725 11:43:57.188668  7554 net.cpp:100] Creating Layer conv6_2_mbox_loc_bdc2018_perm_bdc2018
I0725 11:43:57.188671  7554 net.cpp:434] conv6_2_mbox_loc_bdc2018_perm_bdc2018 <- conv6_2_mbox_loc_bdc2018
I0725 11:43:57.188678  7554 net.cpp:408] conv6_2_mbox_loc_bdc2018_perm_bdc2018 -> conv6_2_mbox_loc_bdc2018_perm_bdc2018
I0725 11:43:57.188776  7554 net.cpp:150] Setting up conv6_2_mbox_loc_bdc2018_perm_bdc2018
I0725 11:43:57.188782  7554 net.cpp:157] Top shape: 2 1 1 24 (48)
I0725 11:43:57.188786  7554 net.cpp:165] Memory required for data: 5898944432
I0725 11:43:57.188787  7554 layer_factory.hpp:77] Creating layer conv6_2_mbox_loc_bdc2018_flat_bdc2018
I0725 11:43:57.188792  7554 net.cpp:100] Creating Layer conv6_2_mbox_loc_bdc2018_flat_bdc2018
I0725 11:43:57.188796  7554 net.cpp:434] conv6_2_mbox_loc_bdc2018_flat_bdc2018 <- conv6_2_mbox_loc_bdc2018_perm_bdc2018
I0725 11:43:57.188802  7554 net.cpp:408] conv6_2_mbox_loc_bdc2018_flat_bdc2018 -> conv6_2_mbox_loc_bdc2018_flat_bdc2018
I0725 11:43:57.188824  7554 net.cpp:150] Setting up conv6_2_mbox_loc_bdc2018_flat_bdc2018
I0725 11:43:57.188828  7554 net.cpp:157] Top shape: 2 24 (48)
I0725 11:43:57.188830  7554 net.cpp:165] Memory required for data: 5898944624
I0725 11:43:57.188833  7554 layer_factory.hpp:77] Creating layer conv6_2_mbox_conf_bdc2018_new
I0725 11:43:57.188841  7554 net.cpp:100] Creating Layer conv6_2_mbox_conf_bdc2018_new
I0725 11:43:57.188844  7554 net.cpp:434] conv6_2_mbox_conf_bdc2018_new <- conv6_2_conv6_2_relu_0_split_2
I0725 11:43:57.188851  7554 net.cpp:408] conv6_2_mbox_conf_bdc2018_new -> conv6_2_mbox_conf_bdc2018_new
I0725 11:43:57.191574  7554 net.cpp:150] Setting up conv6_2_mbox_conf_bdc2018_new
I0725 11:43:57.191584  7554 net.cpp:157] Top shape: 2 54 1 1 (108)
I0725 11:43:57.191587  7554 net.cpp:165] Memory required for data: 5898945056
I0725 11:43:57.191594  7554 layer_factory.hpp:77] Creating layer conv6_2_mbox_conf_bdc2018_new_perm_bdc2018_new
I0725 11:43:57.191602  7554 net.cpp:100] Creating Layer conv6_2_mbox_conf_bdc2018_new_perm_bdc2018_new
I0725 11:43:57.191606  7554 net.cpp:434] conv6_2_mbox_conf_bdc2018_new_perm_bdc2018_new <- conv6_2_mbox_conf_bdc2018_new
I0725 11:43:57.191612  7554 net.cpp:408] conv6_2_mbox_conf_bdc2018_new_perm_bdc2018_new -> conv6_2_mbox_conf_bdc2018_new_perm_bdc2018_new
I0725 11:43:57.191712  7554 net.cpp:150] Setting up conv6_2_mbox_conf_bdc2018_new_perm_bdc2018_new
I0725 11:43:57.191718  7554 net.cpp:157] Top shape: 2 1 1 54 (108)
I0725 11:43:57.191720  7554 net.cpp:165] Memory required for data: 5898945488
I0725 11:43:57.191733  7554 layer_factory.hpp:77] Creating layer conv6_2_mbox_conf_bdc2018_new_flat_bdc2018_new
I0725 11:43:57.191740  7554 net.cpp:100] Creating Layer conv6_2_mbox_conf_bdc2018_new_flat_bdc2018_new
I0725 11:43:57.191743  7554 net.cpp:434] conv6_2_mbox_conf_bdc2018_new_flat_bdc2018_new <- conv6_2_mbox_conf_bdc2018_new_perm_bdc2018_new
I0725 11:43:57.191750  7554 net.cpp:408] conv6_2_mbox_conf_bdc2018_new_flat_bdc2018_new -> conv6_2_mbox_conf_bdc2018_new_flat_bdc2018_new
I0725 11:43:57.191772  7554 net.cpp:150] Setting up conv6_2_mbox_conf_bdc2018_new_flat_bdc2018_new
I0725 11:43:57.191777  7554 net.cpp:157] Top shape: 2 54 (108)
I0725 11:43:57.191779  7554 net.cpp:165] Memory required for data: 5898945920
I0725 11:43:57.191782  7554 layer_factory.hpp:77] Creating layer conv6_2_mbox_priorbox
I0725 11:43:57.191789  7554 net.cpp:100] Creating Layer conv6_2_mbox_priorbox
I0725 11:43:57.191792  7554 net.cpp:434] conv6_2_mbox_priorbox <- conv6_2_conv6_2_relu_0_split_3
I0725 11:43:57.191795  7554 net.cpp:434] conv6_2_mbox_priorbox <- data_data_0_split_3
I0725 11:43:57.191802  7554 net.cpp:408] conv6_2_mbox_priorbox -> conv6_2_mbox_priorbox
I0725 11:43:57.191824  7554 net.cpp:150] Setting up conv6_2_mbox_priorbox
I0725 11:43:57.191829  7554 net.cpp:157] Top shape: 1 2 24 (48)
I0725 11:43:57.191831  7554 net.cpp:165] Memory required for data: 5898946112
I0725 11:43:57.191835  7554 layer_factory.hpp:77] Creating layer conv7_2_mbox_loc_bdc2018
I0725 11:43:57.191845  7554 net.cpp:100] Creating Layer conv7_2_mbox_loc_bdc2018
I0725 11:43:57.191848  7554 net.cpp:434] conv7_2_mbox_loc_bdc2018 <- conv7_2_conv7_2_relu_0_split_1
I0725 11:43:57.191854  7554 net.cpp:408] conv7_2_mbox_loc_bdc2018 -> conv7_2_mbox_loc_bdc2018
I0725 11:43:57.193576  7554 net.cpp:150] Setting up conv7_2_mbox_loc_bdc2018
I0725 11:43:57.193588  7554 net.cpp:157] Top shape: 2 24 1 1 (48)
I0725 11:43:57.193591  7554 net.cpp:165] Memory required for data: 5898946304
I0725 11:43:57.193598  7554 layer_factory.hpp:77] Creating layer conv7_2_mbox_loc_bdc2018_perm_bdc2018
I0725 11:43:57.193603  7554 net.cpp:100] Creating Layer conv7_2_mbox_loc_bdc2018_perm_bdc2018
I0725 11:43:57.193608  7554 net.cpp:434] conv7_2_mbox_loc_bdc2018_perm_bdc2018 <- conv7_2_mbox_loc_bdc2018
I0725 11:43:57.193614  7554 net.cpp:408] conv7_2_mbox_loc_bdc2018_perm_bdc2018 -> conv7_2_mbox_loc_bdc2018_perm_bdc2018
I0725 11:43:57.193714  7554 net.cpp:150] Setting up conv7_2_mbox_loc_bdc2018_perm_bdc2018
I0725 11:43:57.193719  7554 net.cpp:157] Top shape: 2 1 1 24 (48)
I0725 11:43:57.193722  7554 net.cpp:165] Memory required for data: 5898946496
I0725 11:43:57.193725  7554 layer_factory.hpp:77] Creating layer conv7_2_mbox_loc_bdc2018_flat_bdc2018
I0725 11:43:57.193729  7554 net.cpp:100] Creating Layer conv7_2_mbox_loc_bdc2018_flat_bdc2018
I0725 11:43:57.193732  7554 net.cpp:434] conv7_2_mbox_loc_bdc2018_flat_bdc2018 <- conv7_2_mbox_loc_bdc2018_perm_bdc2018
I0725 11:43:57.193738  7554 net.cpp:408] conv7_2_mbox_loc_bdc2018_flat_bdc2018 -> conv7_2_mbox_loc_bdc2018_flat_bdc2018
I0725 11:43:57.193760  7554 net.cpp:150] Setting up conv7_2_mbox_loc_bdc2018_flat_bdc2018
I0725 11:43:57.193764  7554 net.cpp:157] Top shape: 2 24 (48)
I0725 11:43:57.193766  7554 net.cpp:165] Memory required for data: 5898946688
I0725 11:43:57.193769  7554 layer_factory.hpp:77] Creating layer conv7_2_mbox_conf_bdc2018_new
I0725 11:43:57.193779  7554 net.cpp:100] Creating Layer conv7_2_mbox_conf_bdc2018_new
I0725 11:43:57.193783  7554 net.cpp:434] conv7_2_mbox_conf_bdc2018_new <- conv7_2_conv7_2_relu_0_split_2
I0725 11:43:57.193789  7554 net.cpp:408] conv7_2_mbox_conf_bdc2018_new -> conv7_2_mbox_conf_bdc2018_new
I0725 11:43:57.195852  7554 net.cpp:150] Setting up conv7_2_mbox_conf_bdc2018_new
I0725 11:43:57.195863  7554 net.cpp:157] Top shape: 2 54 1 1 (108)
I0725 11:43:57.195865  7554 net.cpp:165] Memory required for data: 5898947120
I0725 11:43:57.195871  7554 layer_factory.hpp:77] Creating layer conv7_2_mbox_conf_bdc2018_new_perm_bdc2018_new
I0725 11:43:57.195878  7554 net.cpp:100] Creating Layer conv7_2_mbox_conf_bdc2018_new_perm_bdc2018_new
I0725 11:43:57.195893  7554 net.cpp:434] conv7_2_mbox_conf_bdc2018_new_perm_bdc2018_new <- conv7_2_mbox_conf_bdc2018_new
I0725 11:43:57.195900  7554 net.cpp:408] conv7_2_mbox_conf_bdc2018_new_perm_bdc2018_new -> conv7_2_mbox_conf_bdc2018_new_perm_bdc2018_new
I0725 11:43:57.196002  7554 net.cpp:150] Setting up conv7_2_mbox_conf_bdc2018_new_perm_bdc2018_new
I0725 11:43:57.196008  7554 net.cpp:157] Top shape: 2 1 1 54 (108)
I0725 11:43:57.196010  7554 net.cpp:165] Memory required for data: 5898947552
I0725 11:43:57.196013  7554 layer_factory.hpp:77] Creating layer conv7_2_mbox_conf_bdc2018_new_flat_bdc2018_new
I0725 11:43:57.196024  7554 net.cpp:100] Creating Layer conv7_2_mbox_conf_bdc2018_new_flat_bdc2018_new
I0725 11:43:57.196039  7554 net.cpp:434] conv7_2_mbox_conf_bdc2018_new_flat_bdc2018_new <- conv7_2_mbox_conf_bdc2018_new_perm_bdc2018_new
I0725 11:43:57.196046  7554 net.cpp:408] conv7_2_mbox_conf_bdc2018_new_flat_bdc2018_new -> conv7_2_mbox_conf_bdc2018_new_flat_bdc2018_new
I0725 11:43:57.196069  7554 net.cpp:150] Setting up conv7_2_mbox_conf_bdc2018_new_flat_bdc2018_new
I0725 11:43:57.196076  7554 net.cpp:157] Top shape: 2 54 (108)
I0725 11:43:57.196079  7554 net.cpp:165] Memory required for data: 5898947984
I0725 11:43:57.196081  7554 layer_factory.hpp:77] Creating layer conv7_2_mbox_priorbox
I0725 11:43:57.196089  7554 net.cpp:100] Creating Layer conv7_2_mbox_priorbox
I0725 11:43:57.196092  7554 net.cpp:434] conv7_2_mbox_priorbox <- conv7_2_conv7_2_relu_0_split_3
I0725 11:43:57.196096  7554 net.cpp:434] conv7_2_mbox_priorbox <- data_data_0_split_4
I0725 11:43:57.196104  7554 net.cpp:408] conv7_2_mbox_priorbox -> conv7_2_mbox_priorbox
I0725 11:43:57.196130  7554 net.cpp:150] Setting up conv7_2_mbox_priorbox
I0725 11:43:57.196135  7554 net.cpp:157] Top shape: 1 2 24 (48)
I0725 11:43:57.196137  7554 net.cpp:165] Memory required for data: 5898948176
I0725 11:43:57.196141  7554 layer_factory.hpp:77] Creating layer conv8_2_mbox_loc_bdc2018
I0725 11:43:57.196151  7554 net.cpp:100] Creating Layer conv8_2_mbox_loc_bdc2018
I0725 11:43:57.196153  7554 net.cpp:434] conv8_2_mbox_loc_bdc2018 <- conv8_2_conv8_2_relu_0_split_1
I0725 11:43:57.196159  7554 net.cpp:408] conv8_2_mbox_loc_bdc2018 -> conv8_2_mbox_loc_bdc2018
I0725 11:43:57.197818  7554 net.cpp:150] Setting up conv8_2_mbox_loc_bdc2018
I0725 11:43:57.197829  7554 net.cpp:157] Top shape: 2 16 1 1 (32)
I0725 11:43:57.197831  7554 net.cpp:165] Memory required for data: 5898948304
I0725 11:43:57.197837  7554 layer_factory.hpp:77] Creating layer conv8_2_mbox_loc_bdc2018_perm_bdc2018
I0725 11:43:57.197844  7554 net.cpp:100] Creating Layer conv8_2_mbox_loc_bdc2018_perm_bdc2018
I0725 11:43:57.197849  7554 net.cpp:434] conv8_2_mbox_loc_bdc2018_perm_bdc2018 <- conv8_2_mbox_loc_bdc2018
I0725 11:43:57.197854  7554 net.cpp:408] conv8_2_mbox_loc_bdc2018_perm_bdc2018 -> conv8_2_mbox_loc_bdc2018_perm_bdc2018
I0725 11:43:57.197953  7554 net.cpp:150] Setting up conv8_2_mbox_loc_bdc2018_perm_bdc2018
I0725 11:43:57.197959  7554 net.cpp:157] Top shape: 2 1 1 16 (32)
I0725 11:43:57.197962  7554 net.cpp:165] Memory required for data: 5898948432
I0725 11:43:57.197965  7554 layer_factory.hpp:77] Creating layer conv8_2_mbox_loc_bdc2018_flat_bdc2018
I0725 11:43:57.197971  7554 net.cpp:100] Creating Layer conv8_2_mbox_loc_bdc2018_flat_bdc2018
I0725 11:43:57.197974  7554 net.cpp:434] conv8_2_mbox_loc_bdc2018_flat_bdc2018 <- conv8_2_mbox_loc_bdc2018_perm_bdc2018
I0725 11:43:57.197978  7554 net.cpp:408] conv8_2_mbox_loc_bdc2018_flat_bdc2018 -> conv8_2_mbox_loc_bdc2018_flat_bdc2018
I0725 11:43:57.198000  7554 net.cpp:150] Setting up conv8_2_mbox_loc_bdc2018_flat_bdc2018
I0725 11:43:57.198004  7554 net.cpp:157] Top shape: 2 16 (32)
I0725 11:43:57.198007  7554 net.cpp:165] Memory required for data: 5898948560
I0725 11:43:57.198009  7554 layer_factory.hpp:77] Creating layer conv8_2_mbox_conf_bdc2018_new
I0725 11:43:57.198019  7554 net.cpp:100] Creating Layer conv8_2_mbox_conf_bdc2018_new
I0725 11:43:57.198024  7554 net.cpp:434] conv8_2_mbox_conf_bdc2018_new <- conv8_2_conv8_2_relu_0_split_2
I0725 11:43:57.198038  7554 net.cpp:408] conv8_2_mbox_conf_bdc2018_new -> conv8_2_mbox_conf_bdc2018_new
I0725 11:43:57.199925  7554 net.cpp:150] Setting up conv8_2_mbox_conf_bdc2018_new
I0725 11:43:57.199937  7554 net.cpp:157] Top shape: 2 36 1 1 (72)
I0725 11:43:57.199940  7554 net.cpp:165] Memory required for data: 5898948848
I0725 11:43:57.199946  7554 layer_factory.hpp:77] Creating layer conv8_2_mbox_conf_bdc2018_new_perm_bdc2018_new
I0725 11:43:57.199952  7554 net.cpp:100] Creating Layer conv8_2_mbox_conf_bdc2018_new_perm_bdc2018_new
I0725 11:43:57.199955  7554 net.cpp:434] conv8_2_mbox_conf_bdc2018_new_perm_bdc2018_new <- conv8_2_mbox_conf_bdc2018_new
I0725 11:43:57.199962  7554 net.cpp:408] conv8_2_mbox_conf_bdc2018_new_perm_bdc2018_new -> conv8_2_mbox_conf_bdc2018_new_perm_bdc2018_new
I0725 11:43:57.200073  7554 net.cpp:150] Setting up conv8_2_mbox_conf_bdc2018_new_perm_bdc2018_new
I0725 11:43:57.200080  7554 net.cpp:157] Top shape: 2 1 1 36 (72)
I0725 11:43:57.200083  7554 net.cpp:165] Memory required for data: 5898949136
I0725 11:43:57.200086  7554 layer_factory.hpp:77] Creating layer conv8_2_mbox_conf_bdc2018_new_flat_bdc2018_new
I0725 11:43:57.200093  7554 net.cpp:100] Creating Layer conv8_2_mbox_conf_bdc2018_new_flat_bdc2018_new
I0725 11:43:57.200095  7554 net.cpp:434] conv8_2_mbox_conf_bdc2018_new_flat_bdc2018_new <- conv8_2_mbox_conf_bdc2018_new_perm_bdc2018_new
I0725 11:43:57.200101  7554 net.cpp:408] conv8_2_mbox_conf_bdc2018_new_flat_bdc2018_new -> conv8_2_mbox_conf_bdc2018_new_flat_bdc2018_new
I0725 11:43:57.200125  7554 net.cpp:150] Setting up conv8_2_mbox_conf_bdc2018_new_flat_bdc2018_new
I0725 11:43:57.200129  7554 net.cpp:157] Top shape: 2 36 (72)
I0725 11:43:57.200132  7554 net.cpp:165] Memory required for data: 5898949424
I0725 11:43:57.200134  7554 layer_factory.hpp:77] Creating layer conv8_2_mbox_priorbox
I0725 11:43:57.200140  7554 net.cpp:100] Creating Layer conv8_2_mbox_priorbox
I0725 11:43:57.200143  7554 net.cpp:434] conv8_2_mbox_priorbox <- conv8_2_conv8_2_relu_0_split_3
I0725 11:43:57.200146  7554 net.cpp:434] conv8_2_mbox_priorbox <- data_data_0_split_5
I0725 11:43:57.200152  7554 net.cpp:408] conv8_2_mbox_priorbox -> conv8_2_mbox_priorbox
I0725 11:43:57.200177  7554 net.cpp:150] Setting up conv8_2_mbox_priorbox
I0725 11:43:57.200182  7554 net.cpp:157] Top shape: 1 2 16 (32)
I0725 11:43:57.200184  7554 net.cpp:165] Memory required for data: 5898949552
I0725 11:43:57.200186  7554 layer_factory.hpp:77] Creating layer conv9_2_mbox_loc_bdc2018
I0725 11:43:57.200196  7554 net.cpp:100] Creating Layer conv9_2_mbox_loc_bdc2018
I0725 11:43:57.200199  7554 net.cpp:434] conv9_2_mbox_loc_bdc2018 <- conv9_2_conv9_2_relu_0_split_0
I0725 11:43:57.200207  7554 net.cpp:408] conv9_2_mbox_loc_bdc2018 -> conv9_2_mbox_loc_bdc2018
I0725 11:43:57.201614  7554 net.cpp:150] Setting up conv9_2_mbox_loc_bdc2018
I0725 11:43:57.201624  7554 net.cpp:157] Top shape: 2 16 1 1 (32)
I0725 11:43:57.201627  7554 net.cpp:165] Memory required for data: 5898949680
I0725 11:43:57.201633  7554 layer_factory.hpp:77] Creating layer conv9_2_mbox_loc_bdc2018_perm_bdc2018
I0725 11:43:57.201642  7554 net.cpp:100] Creating Layer conv9_2_mbox_loc_bdc2018_perm_bdc2018
I0725 11:43:57.201645  7554 net.cpp:434] conv9_2_mbox_loc_bdc2018_perm_bdc2018 <- conv9_2_mbox_loc_bdc2018
I0725 11:43:57.201651  7554 net.cpp:408] conv9_2_mbox_loc_bdc2018_perm_bdc2018 -> conv9_2_mbox_loc_bdc2018_perm_bdc2018
I0725 11:43:57.201751  7554 net.cpp:150] Setting up conv9_2_mbox_loc_bdc2018_perm_bdc2018
I0725 11:43:57.201756  7554 net.cpp:157] Top shape: 2 1 1 16 (32)
I0725 11:43:57.201759  7554 net.cpp:165] Memory required for data: 5898949808
I0725 11:43:57.201761  7554 layer_factory.hpp:77] Creating layer conv9_2_mbox_loc_bdc2018_flat_bdc2018
I0725 11:43:57.201768  7554 net.cpp:100] Creating Layer conv9_2_mbox_loc_bdc2018_flat_bdc2018
I0725 11:43:57.201771  7554 net.cpp:434] conv9_2_mbox_loc_bdc2018_flat_bdc2018 <- conv9_2_mbox_loc_bdc2018_perm_bdc2018
I0725 11:43:57.201777  7554 net.cpp:408] conv9_2_mbox_loc_bdc2018_flat_bdc2018 -> conv9_2_mbox_loc_bdc2018_flat_bdc2018
I0725 11:43:57.201809  7554 net.cpp:150] Setting up conv9_2_mbox_loc_bdc2018_flat_bdc2018
I0725 11:43:57.201815  7554 net.cpp:157] Top shape: 2 16 (32)
I0725 11:43:57.201817  7554 net.cpp:165] Memory required for data: 5898949936
I0725 11:43:57.201820  7554 layer_factory.hpp:77] Creating layer conv9_2_mbox_conf_bdc2018_new
I0725 11:43:57.201833  7554 net.cpp:100] Creating Layer conv9_2_mbox_conf_bdc2018_new
I0725 11:43:57.201835  7554 net.cpp:434] conv9_2_mbox_conf_bdc2018_new <- conv9_2_conv9_2_relu_0_split_1
I0725 11:43:57.201841  7554 net.cpp:408] conv9_2_mbox_conf_bdc2018_new -> conv9_2_mbox_conf_bdc2018_new
I0725 11:43:57.203662  7554 net.cpp:150] Setting up conv9_2_mbox_conf_bdc2018_new
I0725 11:43:57.203673  7554 net.cpp:157] Top shape: 2 36 1 1 (72)
I0725 11:43:57.203676  7554 net.cpp:165] Memory required for data: 5898950224
I0725 11:43:57.203682  7554 layer_factory.hpp:77] Creating layer conv9_2_mbox_conf_bdc2018_new_perm_bdc2018_new
I0725 11:43:57.203688  7554 net.cpp:100] Creating Layer conv9_2_mbox_conf_bdc2018_new_perm_bdc2018_new
I0725 11:43:57.203692  7554 net.cpp:434] conv9_2_mbox_conf_bdc2018_new_perm_bdc2018_new <- conv9_2_mbox_conf_bdc2018_new
I0725 11:43:57.203699  7554 net.cpp:408] conv9_2_mbox_conf_bdc2018_new_perm_bdc2018_new -> conv9_2_mbox_conf_bdc2018_new_perm_bdc2018_new
I0725 11:43:57.203800  7554 net.cpp:150] Setting up conv9_2_mbox_conf_bdc2018_new_perm_bdc2018_new
I0725 11:43:57.203806  7554 net.cpp:157] Top shape: 2 1 1 36 (72)
I0725 11:43:57.203809  7554 net.cpp:165] Memory required for data: 5898950512
I0725 11:43:57.203811  7554 layer_factory.hpp:77] Creating layer conv9_2_mbox_conf_bdc2018_new_flat_bdc2018_new
I0725 11:43:57.203819  7554 net.cpp:100] Creating Layer conv9_2_mbox_conf_bdc2018_new_flat_bdc2018_new
I0725 11:43:57.203821  7554 net.cpp:434] conv9_2_mbox_conf_bdc2018_new_flat_bdc2018_new <- conv9_2_mbox_conf_bdc2018_new_perm_bdc2018_new
I0725 11:43:57.203826  7554 net.cpp:408] conv9_2_mbox_conf_bdc2018_new_flat_bdc2018_new -> conv9_2_mbox_conf_bdc2018_new_flat_bdc2018_new
I0725 11:43:57.203848  7554 net.cpp:150] Setting up conv9_2_mbox_conf_bdc2018_new_flat_bdc2018_new
I0725 11:43:57.203852  7554 net.cpp:157] Top shape: 2 36 (72)
I0725 11:43:57.203855  7554 net.cpp:165] Memory required for data: 5898950800
I0725 11:43:57.203857  7554 layer_factory.hpp:77] Creating layer conv9_2_mbox_priorbox
I0725 11:43:57.203866  7554 net.cpp:100] Creating Layer conv9_2_mbox_priorbox
I0725 11:43:57.203868  7554 net.cpp:434] conv9_2_mbox_priorbox <- conv9_2_conv9_2_relu_0_split_2
I0725 11:43:57.203872  7554 net.cpp:434] conv9_2_mbox_priorbox <- data_data_0_split_6
I0725 11:43:57.203877  7554 net.cpp:408] conv9_2_mbox_priorbox -> conv9_2_mbox_priorbox
I0725 11:43:57.203902  7554 net.cpp:150] Setting up conv9_2_mbox_priorbox
I0725 11:43:57.203907  7554 net.cpp:157] Top shape: 1 2 16 (32)
I0725 11:43:57.203909  7554 net.cpp:165] Memory required for data: 5898950928
I0725 11:43:57.203912  7554 layer_factory.hpp:77] Creating layer mbox_loc
I0725 11:43:57.203920  7554 net.cpp:100] Creating Layer mbox_loc
I0725 11:43:57.203924  7554 net.cpp:434] mbox_loc <- res5c_norm_mbox_loc_bdc2018_flat_bdc2018
I0725 11:43:57.203928  7554 net.cpp:434] mbox_loc <- pool5_mbox_loc_bdc2018_flat_bdc2018
I0725 11:43:57.203932  7554 net.cpp:434] mbox_loc <- conv6_2_mbox_loc_bdc2018_flat_bdc2018
I0725 11:43:57.203935  7554 net.cpp:434] mbox_loc <- conv7_2_mbox_loc_bdc2018_flat_bdc2018
I0725 11:43:57.203938  7554 net.cpp:434] mbox_loc <- conv8_2_mbox_loc_bdc2018_flat_bdc2018
I0725 11:43:57.203941  7554 net.cpp:434] mbox_loc <- conv9_2_mbox_loc_bdc2018_flat_bdc2018
I0725 11:43:57.203946  7554 net.cpp:408] mbox_loc -> mbox_loc
I0725 11:43:57.203971  7554 net.cpp:150] Setting up mbox_loc
I0725 11:43:57.203975  7554 net.cpp:157] Top shape: 2 6504 (13008)
I0725 11:43:57.203977  7554 net.cpp:165] Memory required for data: 5899002960
I0725 11:43:57.203980  7554 layer_factory.hpp:77] Creating layer mbox_conf
I0725 11:43:57.203984  7554 net.cpp:100] Creating Layer mbox_conf
I0725 11:43:57.203997  7554 net.cpp:434] mbox_conf <- res5c_norm_mbox_conf_bdc2018_new_flat_bdc2018_new
I0725 11:43:57.204002  7554 net.cpp:434] mbox_conf <- pool5_mbox_conf_bdc2018_new_flat_bdc2018_new
I0725 11:43:57.204006  7554 net.cpp:434] mbox_conf <- conv6_2_mbox_conf_bdc2018_new_flat_bdc2018_new
I0725 11:43:57.204010  7554 net.cpp:434] mbox_conf <- conv7_2_mbox_conf_bdc2018_new_flat_bdc2018_new
I0725 11:43:57.204012  7554 net.cpp:434] mbox_conf <- conv8_2_mbox_conf_bdc2018_new_flat_bdc2018_new
I0725 11:43:57.204016  7554 net.cpp:434] mbox_conf <- conv9_2_mbox_conf_bdc2018_new_flat_bdc2018_new
I0725 11:43:57.204026  7554 net.cpp:408] mbox_conf -> mbox_conf
I0725 11:43:57.204051  7554 net.cpp:150] Setting up mbox_conf
I0725 11:43:57.204056  7554 net.cpp:157] Top shape: 2 14634 (29268)
I0725 11:43:57.204058  7554 net.cpp:165] Memory required for data: 5899120032
I0725 11:43:57.204061  7554 layer_factory.hpp:77] Creating layer mbox_priorbox
I0725 11:43:57.204069  7554 net.cpp:100] Creating Layer mbox_priorbox
I0725 11:43:57.204072  7554 net.cpp:434] mbox_priorbox <- res5c_norm_mbox_priorbox
I0725 11:43:57.204077  7554 net.cpp:434] mbox_priorbox <- pool5_mbox_priorbox
I0725 11:43:57.204079  7554 net.cpp:434] mbox_priorbox <- conv6_2_mbox_priorbox
I0725 11:43:57.204082  7554 net.cpp:434] mbox_priorbox <- conv7_2_mbox_priorbox
I0725 11:43:57.204085  7554 net.cpp:434] mbox_priorbox <- conv8_2_mbox_priorbox
I0725 11:43:57.204089  7554 net.cpp:434] mbox_priorbox <- conv9_2_mbox_priorbox
I0725 11:43:57.204093  7554 net.cpp:408] mbox_priorbox -> mbox_priorbox
I0725 11:43:57.204113  7554 net.cpp:150] Setting up mbox_priorbox
I0725 11:43:57.204118  7554 net.cpp:157] Top shape: 1 2 6504 (13008)
I0725 11:43:57.204120  7554 net.cpp:165] Memory required for data: 5899172064
I0725 11:43:57.204123  7554 layer_factory.hpp:77] Creating layer mbox_conf_reshape
I0725 11:43:57.204131  7554 net.cpp:100] Creating Layer mbox_conf_reshape
I0725 11:43:57.204134  7554 net.cpp:434] mbox_conf_reshape <- mbox_conf
I0725 11:43:57.204138  7554 net.cpp:408] mbox_conf_reshape -> mbox_conf_reshape
I0725 11:43:57.204179  7554 net.cpp:150] Setting up mbox_conf_reshape
I0725 11:43:57.204183  7554 net.cpp:157] Top shape: 2 1626 9 (29268)
I0725 11:43:57.204186  7554 net.cpp:165] Memory required for data: 5899289136
I0725 11:43:57.204190  7554 layer_factory.hpp:77] Creating layer mbox_conf_softmax
I0725 11:43:57.204195  7554 net.cpp:100] Creating Layer mbox_conf_softmax
I0725 11:43:57.204197  7554 net.cpp:434] mbox_conf_softmax <- mbox_conf_reshape
I0725 11:43:57.204203  7554 net.cpp:408] mbox_conf_softmax -> mbox_conf_softmax
I0725 11:43:57.204756  7554 net.cpp:150] Setting up mbox_conf_softmax
I0725 11:43:57.204768  7554 net.cpp:157] Top shape: 2 1626 9 (29268)
I0725 11:43:57.204771  7554 net.cpp:165] Memory required for data: 5899406208
I0725 11:43:57.204776  7554 layer_factory.hpp:77] Creating layer mbox_conf_flatten
I0725 11:43:57.204782  7554 net.cpp:100] Creating Layer mbox_conf_flatten
I0725 11:43:57.204785  7554 net.cpp:434] mbox_conf_flatten <- mbox_conf_softmax
I0725 11:43:57.204790  7554 net.cpp:408] mbox_conf_flatten -> mbox_conf_flatten
I0725 11:43:57.204815  7554 net.cpp:150] Setting up mbox_conf_flatten
I0725 11:43:57.204821  7554 net.cpp:157] Top shape: 2 14634 (29268)
I0725 11:43:57.204823  7554 net.cpp:165] Memory required for data: 5899523280
I0725 11:43:57.204826  7554 layer_factory.hpp:77] Creating layer detection_out
I0725 11:43:57.204838  7554 net.cpp:100] Creating Layer detection_out
I0725 11:43:57.204841  7554 net.cpp:434] detection_out <- mbox_loc
I0725 11:43:57.204847  7554 net.cpp:434] detection_out <- mbox_conf_flatten
I0725 11:43:57.204850  7554 net.cpp:434] detection_out <- mbox_priorbox
I0725 11:43:57.204856  7554 net.cpp:408] detection_out -> detection_out
W0725 11:43:57.204898  7554 detection_output_layer.cpp:49] Failed to create directory: /home/user/data/bdc2018/results/SSD_ResNet640x640/Main
I0725 11:43:57.205355  7554 net.cpp:150] Setting up detection_out
I0725 11:43:57.205364  7554 net.cpp:157] Top shape: 1 1 1 7 (7)
I0725 11:43:57.205375  7554 net.cpp:165] Memory required for data: 5899523308
I0725 11:43:57.205379  7554 layer_factory.hpp:77] Creating layer detection_eval
I0725 11:43:57.205386  7554 net.cpp:100] Creating Layer detection_eval
I0725 11:43:57.205389  7554 net.cpp:434] detection_eval <- detection_out
I0725 11:43:57.205394  7554 net.cpp:434] detection_eval <- label
I0725 11:43:57.205399  7554 net.cpp:408] detection_eval -> detection_eval
I0725 11:43:57.205570  7554 net.cpp:150] Setting up detection_eval
I0725 11:43:57.205577  7554 net.cpp:157] Top shape: 1 1 9 5 (45)
I0725 11:43:57.205580  7554 net.cpp:165] Memory required for data: 5899523488
I0725 11:43:57.205584  7554 net.cpp:228] detection_eval does not need backward computation.
I0725 11:43:57.205587  7554 net.cpp:228] detection_out does not need backward computation.
I0725 11:43:57.205591  7554 net.cpp:228] mbox_conf_flatten does not need backward computation.
I0725 11:43:57.205595  7554 net.cpp:228] mbox_conf_softmax does not need backward computation.
…
