…
      sampler {
        min_scale: 0.3
        max_scale: 1
        min_aspect_ratio: 0.5
        max_aspect_ratio: 2
      }
      sample_constraint {
        min_jaccard_overlap: 0.9
      }
      max_sample: 1
      max_trials: 50
    }
    batch_sampler {
      sampler {
        min_scale: 0.3
        max_scale: 1
        min_aspect_ratio: 0.5
        max_aspect_ratio: 2
      }
      sample_constraint {
        max_jaccard_overlap: 1
      }
      max_sample: 1
      max_trials: 50
    }
    label_map_file: "data/bdc2018/labelmap_bdc.prototxt"
  }
}
layer {
  name: "conv1"
  type: "Convolution"
  bottom: "data"
  top: "conv1"
  param {
    lr_mult: 1
    decay_mult: 1
  }
  convolution_param {
    num_output: 64
    bias_term: false
    pad: 3
    kernel_size: 7
    stride: 2
    weight_filler {
      type: "gaussian"
      std: 0.01
    }
  }
}
layer {
  name: "bn_conv1"
  type: "BatchNorm"
  bottom: "conv1"
  top: "conv1"
  batch_norm_param {
    moving_average_fraction: 0.999
    eps: 0.001
  }
}
layer {
  name: "scale_conv1"
  type: "Scale"
  bottom: "conv1"
  top: "conv1"
  param {
    lr_mult: 1
    decay_mult: 0
  }
  param {
    lr_mult: 1
    decay_mult: 0
  }
  scale_param {
    filler {
      type: "constant"
      value: 1
    }
    bias_term: true
    bias_filler {
      type: "constant"
      value: 0
    }
  }
}
layer {
  name: "conv1_relu"
  type: "ReLU"
  bottom: "conv1"
  top: "conv1"
}
layer {
  name: "pool1"
  type: "Pooling"
  bottom: "conv1"
  top: "pool1"
  pooling_param {
    pool: MAX
    kernel_size: 3
    stride: 2
  }
}
layer {
  name: "res2a_branch1"
  type: "Convolution"
  bottom: "pool1"
  top: "res2a_branch1"
  param {
    lr_mult: 1
    decay_mult: 1
  }
  convolution_param {
    num_output: 256
    bias_term: false
    pad: 0
    kernel_size: 1
    stride: 1
    weight_filler {
      type: "gaussian"
      std: 0.01
    }
  }
}
layer {
  name: "bn2a_branch1"
  type: "BatchNorm"
  bottom: "res2a_branch1"
  top: "res2a_branch1"
  batch_norm_param {
    moving_average_fraction: 0.999
    eps: 0.001
  }
}
layer {
  name: "scale2a_branch1"
  type: "Scale"
  bottom: "res2a_branch1"
  top: "res2a_branch1"
  param {
    lr_mult: 1
    decay_mult: 0
  }
  param {
    lr_mult: 1
    decay_mult: 0
  }
  scale_param {
    filler {
      type: "constant"
      value: 1
    }
    bias_term: true
    bias_filler {
      type: "constant"
      value: 0
    }
  }
}
layer {
  name: "res2a_branch2a"
  type: "Convolution"
  bottom: "pool1"
  top: "res2a_branch2a"
  param {
    lr_mult: 1
    decay_mult: 1
  }
  convolution_param {
    num_output: 64
    bias_term: false
    pad: 0
    kernel_size: 1
    stride: 1
    weight_filler {
      type: "gaussian"
      std: 0.01
    }
  }
}
layer {
  name: "bn2a_branch2a"
  type: "BatchNorm"
  bottom: "res2a_branch2a"
  top: "res2a_branch2a"
  batch_norm_param {
    moving_average_fraction: 0.999
    eps: 0.001
  }
}
layer {
  name: "scale2a_branch2a"
  type: "Scale"
  bottom: "res2a_branch2a"
  top: "res2a_branch2a"
  param {
    lr_mult: 1
    decay_mult: 0
  }
  param {
    lr_mult: 1
    decay_mult: 0
  }
  scale_param {
    filler {
      type: "constant"
      value: 1
    }
    bias_term: true
    bias_filler {
      type: "constant"
      value: 0
    }
  }
}
layer {
  name: "res2a_branch2a_relu"
  type: "ReLU"
  bottom: "res2a_branch2a"
  top: "res2a_branch2a"
}
layer {
  name: "res2a_branch2b"
  type: "Convolution"
  bottom: "res2a_branch2a"
  top: "res2a_branch2b"
  param {
    lr_mult: 1
    decay_mult: 1
  }
  convolution_param {
    num_output: 64
    bias_term: false
    pad: 1
    kernel_size: 3
    stride: 1
    weight_filler {
      type: "gaussian"
      std: 0.01
    }
  }
}
layer {
  name: "bn2a_branch2b"
  type: "BatchNorm"
  bottom: "res2a_branch2b"
  top: "res2a_branch2b"
  batch_norm_param {
    moving_average_fraction: 0.999
    eps: 0.001
  }
}
layer {
  name: "scale2a_branch2b"
  type: "Scale"
  bottom: "res2a_branch2b"
  top: "res2a_branch2b"
  param {
    lr_mult: 1
    decay_mult: 0
  }
  param {
    lr_mult: 1
    decay_mult: 0
  }
  scale_param {
    filler {
      type: "constant"
      value: 1
    }
    bias_term: true
    bias_filler {
      type: "constant"
      value: 0
    }
  }
}
layer {
  name: "res2a_branch2b_relu"
  type: "ReLU"
  bottom: "res2a_branch2b"
  top: "res2a_branch2b"
}
layer {
  name: "res2a_branch2c"
  type: "Convolution"
  bottom: "res2a_branch2b"
  top: "res2a_branch2c"
  param {
    lr_mult: 1
    decay_mult: 1
  }
  convolution_param {
    num_output: 256
    bias_term: false
    pad: 0
    kernel_size: 1
    stride: 1
    weight_filler {
      type: "gaussian"
      std: 0.01
    }
  }
}
layer {
  name: "bn2a_branch2c"
  type: "BatchNorm"
  bottom: "res2a_branch2c"
  top: "res2a_branch2c"
  batch_norm_param {
    moving_average_fraction: 0.999
    eps: 0.001
  }
}
layer {
  name: "scale2a_branch2c"
  type: "Scale"
  bottom: "res2a_branch2c"
  top: "res2a_branch2c"
  param {
    lr_mult: 1
    decay_mult: 0
  }
  param {
    lr_mult: 1
    decay_mult: 0
  }
  scale_param {
    filler {
      type: "constant"
      value: 1
    }
    bias_term: true
    bias_filler {
      type: "constant"
      value: 0
    }
  }
}
layer {
  name: "res2a"
  type: "Eltwise"
  bottom: "res2a_branch1"
  bottom: "res2a_branch2c"
  top: "res2a"
}
layer {
  name: "res2a_relu"
  type: "ReLU"
  bottom: "res2a"
  top: "res2a"
}
layer {
  name: "res2b_branch2a"
  type: "Convolution"
  bottom: "res2a"
  top: "res2b_branch2a"
  param {
    lr_mult: 1
    decay_mult: 1
  }
  convolution_param {
    num_output: 64
    bias_term: false
    pad: 0
    kernel_size: 1
    stride: 1
    weight_filler {
      type: "gaussian"
      std: 0.01
    }
  }
}
layer {
  name: "bn2b_branch2a"
  type: "BatchNorm"
  bottom: "res2b_branch2a"
  top: "res2b_branch2a"
  batch_norm_param {
    moving_average_fraction: 0.999
    eps: 0.001
  }
}
layer {
  name: "scale2b_branch2a"
  type: "Scale"
  bottom: "res2b_branch2a"
  top: "res2b_branch2a"
  param {
    lr_mult: 1
    decay_mult: 0
  }
  param {
    lr_mult: 1
    decay_mult: 0
  }
  scale_param {
    filler {
      type: "constant"
      value: 1
    }
    bias_term: true
    bias_filler {
      type: "constant"
      value: 0
    }
  }
}
layer {
  name: "res2b_branch2a_relu"
  type: "ReLU"
  bottom: "res2b_branch2a"
  top: "res2b_branch2a"
}
layer {
  name: "res2b_branch2b"
  type: "Convolution"
  bottom: "res2b_branch2a"
  top: "res2b_branch2b"
  param {
    lr_mult: 1
    decay_mult: 1
  }
  convolution_param {
    num_output: 64
    bias_term: false
    pad: 1
    kernel_size: 3
    stride: 1
    weight_filler {
      type: "gaussian"
      std: 0.01
    }
  }
}
layer {
  name: "bn2b_branch2b"
  type: "BatchNorm"
  bottom: "res2b_branch2b"
  top: "res2b_branch2b"
  batch_norm_param {
    moving_average_fraction: 0.999
    eps: 0.001
  }
}
layer {
  name: "scale2b_branch2b"
  type: "Scale"
  bottom: "res2b_branch2b"
  top: "res2b_branch2b"
  param {
    lr_mult: 1
    decay_mult: 0
  }
  param {
    lr_mult: 1
    decay_mult: 0
  }
  scale_param {
    filler {
      type: "constant"
      value: 1
    }
    bias_term: true
    bias_filler {
      type: "constant"
      value: 0
    }
  }
}
layer {
  name: "res2b_branch2b_relu"
  type: "ReLU"
  bottom: "res2b_branch2b"
  top: "res2b_branch2b"
}
layer {
  name: "res2b_branch2c"
  type: "Convolution"
  bottom: "res2b_branch2b"
  top: "res2b_branch2c"
  param {
    lr_mult: 1
    decay_mult: 1
  }
  convolution_param {
    num_output: 256
    bias_term: false
    pad: 0
    kernel_size: 1
    stride: 1
    weight_filler {
      type: "gaussian"
      std: 0.01
    }
  }
}
layer {
  name: "bn2b_branch2c"
  type: "BatchNorm"
  bottom: "res2b_branch2c"
  top: "res2b_branch2c"
  batch_norm_param {
    moving_average_fraction: 0.999
    eps: 0.001
  }
}
layer {
  name: "scale2b_branch2c"
  type: "Scale"
  bottom: "res2b_branch2c"
  top: "res2b_branch2c"
  param {
    lr_mult: 1
    decay_mult: 0
  }
  param {
    lr_mult: 1
    decay_mult: 0
  }
  scale_param {
    filler {
      type: "constant"
      value: 1
    }
    bias_term: true
    bias_filler {
      type: "constant"
      value: 0
    }
  }
}
layer {
  name: "res2b"
  type: "Eltwise"
  bottom: "res2a"
  bottom: "res2b_branch2c"
  top: "res2b"
}
layer {
  name: "res2b_relu"
  type: "ReLU"
  bottom: "res2b"
  top: "res2b"
}
layer {
  name: "res2c_branch2a"
  type: "Convolution"
  bottom: "res2b"
  top: "res2c_branch2a"
  param {
    lr_mult: 1
    decay_mult: 1
  }
  convolution_param {
    num_output: 64
    bias_term: false
    pad: 0
    kernel_size: 1
    stride: 1
    weight_filler {
      type: "gaussian"
      std: 0.01
    }
  }
}
layer {
  name: "bn2c_branch2a"
  type: "BatchNorm"
  bottom: "res2c_branch2a"
  top: "res2c_branch2a"
  batch_norm_param {
    moving_average_fraction: 0.999
    eps: 0.001
  }
}
layer {
  name: "scale2c_branch2a"
  type: "Scale"
  bottom: "res2c_branch2a"
  top: "res2c_branch2a"
  param {
    lr_mult: 1
    decay_mult: 0
  }
  param {
    lr_mult: 1
    decay_mult: 0
  }
  scale_param {
    filler {
      type: "constant"
      value: 1
    }
    bias_term: true
    bias_filler {
      type: "constant"
      value: 0
    }
  }
}
layer {
  name: "res2c_branch2a_relu"
  type: "ReLU"
  bottom: "res2c_branch2a"
  top: "res2c_branch2a"
}
layer {
  name: "res2c_branch2b"
  type: "Convolution"
  bottom: "res2c_branch2a"
  top: "res2c_branch2b"
  param {
    lr_mult: 1
    decay_mult: 1
  }
  convolution_param {
    num_output: 64
    bias_term: false
    pad: 1
    kernel_size: 3
    stride: 1
    weight_filler {
      type: "gaussian"
      std: 0.01
    }
  }
}
layer {
  name: "bn2c_branch2b"
  type: "BatchNorm"
  bottom: "res2c_branch2b"
  top: "res2c_branch2b"
  batch_norm_param {
    moving_average_fraction: 0.999
    eps: 0.001
  }
}
layer {
  name: "scale2c_branch2b"
  type: "Scale"
  bottom: "res2c_branch2b"
  top: "res2c_branch2b"
  param {
    lr_mult: 1
    decay_mult: 0
  }
  param {
    lr_mult: 1
    decay_mult: 0
  }
  scale_param {
    filler {
      type: "constant"
      value: 1
    }
    bias_term: true
    bias_filler {
      type: "constant"
      value: 0
    }
  }
}
layer {
  name: "res2c_branch2b_relu"
  type: "ReLU"
  bottom: "res2c_branch2b"
  top: "res2c_branch2b"
}
layer {
  name: "res2c_branch2c"
  type: "Convolution"
  bottom: "res2c_branch2b"
  top: "res2c_branch2c"
  param {
    lr_mult: 1
    decay_mult: 1
  }
  convolution_param {
    num_output: 256
    bias_term: false
    pad: 0
    kernel_size: 1
    stride: 1
    weight_filler {
      type: "gaussian"
      std: 0.01
    }
  }
}
layer {
  name: "bn2c_branch2c"
  type: "BatchNorm"
  bottom: "res2c_branch2c"
  top: "res2c_branch2c"
  batch_norm_param {
    moving_average_fraction: 0.999
    eps: 0.001
  }
}
layer {
  name: "scale2c_branch2c"
  type: "Scale"
  bottom: "res2c_branch2c"
  top: "res2c_branch2c"
  param {
    lr_mult: 1
    decay_mult: 0
  }
  param {
    lr_mult: 1
    decay_mult: 0
  }
  scale_param {
    filler {
      type: "constant"
      value: 1
    }
    bias_term: true
    bias_filler {
      type: "constant"
      value: 0
    }
  }
}
layer {
  name: "res2c"
  type: "Eltwise"
  bottom: "res2b"
  bottom: "res2c_branch2c"
  top: "res2c"
}
layer {
  name: "res2c_relu"
  type: "ReLU"
  bottom: "res2c"
  top: "res2c"
}
layer {
  name: "res3a_branch1"
  type: "Convolution"
  bottom: "res2c"
  top: "res3a_branch1"
  param {
    lr_mult: 1
    decay_mult: 1
  }
  convolution_param {
    num_output: 512
    bias_term: false
    pad: 0
    kernel_size: 1
    stride: 2
    weight_filler {
      type: "gaussian"
      std: 0.01
    }
  }
}
layer {
  name: "bn3a_branch1"
  type: "BatchNorm"
  bottom: "res3a_branch1"
  top: "res3a_branch1"
  batch_norm_param {
    moving_average_fraction: 0.999
    eps: 0.001
  }
}
layer {
  name: "scale3a_branch1"
  type: "Scale"
  bottom: "res3a_branch1"
  top: "res3a_branch1"
  param {
    lr_mult: 1
    decay_mult: 0
  }
  param {
    lr_mult: 1
    decay_mult: 0
  }
  scale_param {
    filler {
      type: "constant"
      value: 1
    }
    bias_term: true
    bias_filler {
      type: "constant"
      value: 0
    }
  }
}
layer {
  name: "res3a_branch2a"
  type: "Convolution"
  bottom: "res2c"
  top: "res3a_branch2a"
  param {
    lr_mult: 1
    decay_mult: 1
  }
  convolution_param {
    num_output: 128
    bias_term: false
    pad: 0
    kernel_size: 1
    stride: 2
    weight_filler {
      type: "gaussian"
      std: 0.01
    }
  }
}
layer {
  name: "bn3a_branch2a"
  type: "BatchNorm"
  bottom: "res3a_branch2a"
  top: "res3a_branch2a"
  batch_norm_param {
    moving_average_fraction: 0.999
    eps: 0.001
  }
}
layer {
  name: "scale3a_branch2a"
  type: "Scale"
  bottom: "res3a_branch2a"
  top: "res3a_branch2a"
  param {
    lr_mult: 1
    decay_mult: 0
  }
  param {
    lr_mult: 1
    decay_mult: 0
  }
  scale_param {
    filler {
      type: "constant"
      value: 1
    }
    bias_term: true
    bias_filler {
      type: "constant"
      value: 0
    }
  }
}
layer {
  name: "res3a_branch2a_relu"
  type: "ReLU"
  bottom: "res3a_branch2a"
  top: "res3a_branch2a"
}
layer {
  name: "res3a_branch2b"
  type: "Convolution"
  bottom: "res3a_branch2a"
  top: "res3a_branch2b"
  param {
    lr_mult: 1
    decay_mult: 1
  }
  convolution_param {
    num_output: 128
    bias_term: false
    pad: 1
    kernel_size: 3
    stride: 1
    weight_filler {
      type: "gaussian"
      std: 0.01
    }
  }
}
layer {
  name: "bn3a_branch2b"
  type: "BatchNorm"
  bottom: "res3a_branch2b"
  top: "res3a_branch2b"
  batch_norm_param {
    moving_average_fraction: 0.999
    eps: 0.001
  }
}
layer {
  name: "scale3a_branch2b"
  type: "Scale"
  bottom: "res3a_branch2b"
  top: "res3a_branch2b"
  param {
    lr_mult: 1
    decay_mult: 0
  }
  param {
    lr_mult: 1
    decay_mult: 0
  }
  scale_param {
    filler {
      type: "constant"
      value: 1
    }
    bias_term: true
    bias_filler {
      type: "constant"
      value: 0
    }
  }
}
layer {
  name: "res3a_branch2b_relu"
  type: "ReLU"
  bottom: "res3a_branch2b"
  top: "res3a_branch2b"
}
layer {
  name: "res3a_branch2c"
  type: "Convolution"
  bottom: "res3a_branch2b"
  top: "res3a_branch2c"
  param {
    lr_mult: 1
    decay_mult: 1
  }
  convolution_param {
    num_output: 512
    bias_term: false
    pad: 0
    kernel_size: 1
    stride: 1
    weight_filler {
      type: "gaussian"
      std: 0.01
    }
  }
}
layer {
  name: "bn3a_branch2c"
  type: "BatchNorm"
  bottom: "res3a_branch2c"
  top: "res3a_branch2c"
  batch_norm_param {
    moving_average_fraction: 0.999
    eps: 0.001
  }
}
layer {
  name: "scale3a_branch2c"
  type: "Scale"
  bottom: "res3a_branch2c"
  top: "res3a_branch2c"
  param {
    lr_mult: 1
    decay_mult: 0
  }
  param {
    lr_mult: 1
    decay_mult: 0
  }
  scale_param {
    filler {
      type: "constant"
      value: 1
    }
    bias_term: true
    bias_filler {
      type: "constant"
      value: 0
    }
  }
}
layer {
  name: "res3a"
  type: "Eltwise"
  bottom: "res3a_branch1"
  bottom: "res3a_branch2c"
  top: "res3a"
}
layer {
  name: "res3a_relu"
  type: "ReLU"
  bottom: "res3a"
  top: "res3a"
}
layer {
  name: "res3b1_branch2a"
  type: "Convolution"
  bottom: "res3a"
  top: "res3b1_branch2a"
  param {
    lr_mult: 1
    decay_mult: 1
  }
  convolution_param {
    num_output: 128
    bias_term: false
    pad: 0
    kernel_size: 1
    stride: 1
    weight_filler {
      type: "gaussian"
      std: 0.01
    }
  }
}
layer {
  name: "bn3b1_branch2a"
  type: "BatchNorm"
  bottom: "res3b1_branch2a"
  top: "res3b1_branch2a"
  batch_norm_param {
    moving_average_fraction: 0.999
    eps: 0.001
  }
}
layer {
  name: "scale3b1_branch2a"
  type: "Scale"
  bottom: "res3b1_branch2a"
  top: "res3b1_branch2a"
  param {
    lr_mult: 1
    decay_mult: 0
  }
  param {
    lr_mult: 1
    decay_mult: 0
  }
  scale_param {
    filler {
      type: "constant"
      value: 1
    }
    bias_term: true
    bias_filler {
      type: "constant"
      value: 0
    }
  }
}
layer {
  name: "res3b1_branch2a_relu"
  type: "ReLU"
  bottom: "res3b1_branch2a"
  top: "res3b1_branch2a"
}
layer {
  name: "res3b1_branch2b"
  type: "Convolution"
  bottom: "res3b1_branch2a"
  top: "res3b1_branch2b"
  param {
    lr_mult: 1
    decay_mult: 1
  }
  convolution_param {
    num_output: 128
    bias_term: false
    pad: 1
    kernel_size: 3
    stride: 1
    weight_filler {
      type: "gaussian"
      std: 0.01
    }
  }
}
layer {
  name: "bn3b1_branch2b"
  type: "BatchNorm"
  bottom: "res3b1_branch2b"
  top: "res3b1_branch2b"
  batch_norm_param {
    moving_average_fraction: 0.999
    eps: 0.001
  }
}
layer {
  name: "scale3b1_branch2b"
  type: "Scale"
  bottom: "res3b1_branch2b"
  top: "res3b1_branch2b"
  param {
    lr_mult: 1
    decay_mult: 0
  }
  param {
    lr_mult: 1
    decay_mult: 0
  }
  scale_param {
    filler {
      type: "constant"
      value: 1
    }
    bias_term: true
    bias_filler {
      type: "constant"
      value: 0
    }
  }
}
layer {
  name: "res3b1_branch2b_relu"
  type: "ReLU"
  bottom: "res3b1_branch2b"
  top: "res3b1_branch2b"
}
layer {
  name: "res3b1_branch2c"
  type: "Convolution"
  bottom: "res3b1_branch2b"
  top: "res3b1_branch2c"
  param {
    lr_mult: 1
    decay_mult: 1
  }
  convolution_param {
    num_output: 512
    bias_term: false
    pad: 0
    kernel_size: 1
    stride: 1
    weight_filler {
      type: "gaussian"
      std: 0.01
    }
  }
}
layer {
  name: "bn3b1_branch2c"
  type: "BatchNorm"
  bottom: "res3b1_branch2c"
  top: "res3b1_branch2c"
  batch_norm_param {
    moving_average_fraction: 0.999
    eps: 0.001
  }
}
layer {
  name: "scale3b1_branch2c"
  type: "Scale"
  bottom: "res3b1_branch2c"
  top: "res3b1_branch2c"
  param {
    lr_mult: 1
    decay_mult: 0
  }
  param {
    lr_mult: 1
    decay_mult: 0
  }
  scale_param {
    filler {
      type: "constant"
      value: 1
    }
    bias_term: true
    bias_filler {
      type: "constant"
      value: 0
    }
  }
}
layer {
  name: "res3b1"
  type: "Eltwise"
  bottom: "res3a"
  bottom: "res3b1_branch2c"
  top: "res3b1"
}
layer {
  name: "res3b1_relu"
  type: "ReLU"
  bottom: "res3b1"
  top: "res3b1"
}
layer {
  name: "res3b2_branch2a"
  type: "Convolution"
  bottom: "res3b1"
  top: "res3b2_branch2a"
  param {
    lr_mult: 1
    decay_mult: 1
  }
  convolution_param {
    num_output: 128
    bias_term: false
    pad: 0
    kernel_size: 1
    stride: 1
    weight_filler {
      type: "gaussian"
      std: 0.01
    }
  }
}
layer {
  name: "bn3b2_branch2a"
  type: "BatchNorm"
  bottom: "res3b2_branch2a"
  top: "res3b2_branch2a"
  batch_norm_param {
    moving_average_fraction: 0.999
    eps: 0.001
  }
}
layer {
  name: "scale3b2_branch2a"
  type: "Scale"
  bottom: "res3b2_branch2a"
  top: "res3b2_branch2a"
  param {
    lr_mult: 1
    decay_mult: 0
  }
  param {
    lr_mult: 1
    decay_mult: 0
  }
  scale_param {
    filler {
      type: "constant"
      value: 1
    }
    bias_term: true
    bias_filler {
      type: "constant"
      value: 0
    }
  }
}
layer {
  name: "res3b2_branch2a_relu"
  type: "ReLU"
  bottom: "res3b2_branch2a"
  top: "res3b2_branch2a"
}
layer {
  name: "res3b2_branch2b"
  type: "Convolution"
  bottom: "res3b2_branch2a"
  top: "res3b2_branch2b"
  param {
    lr_mult: 1
    decay_mult: 1
  }
  convolution_param {
    num_output: 128
    bias_term: false
    pad: 1
    kernel_size: 3
    stride: 1
    weight_filler {
      type: "gaussian"
      std: 0.01
    }
  }
}
layer {
  name: "bn3b2_branch2b"
  type: "BatchNorm"
  bottom: "res3b2_branch2b"
  top: "res3b2_branch2b"
  batch_norm_param {
    moving_average_fraction: 0.999
    eps: 0.001
  }
}
layer {
  name: "scale3b2_branch2b"
  type: "Scale"
  bottom: "res3b2_branch2b"
  top: "res3b2_branch2b"
  param {
    lr_mult: 1
    decay_mult: 0
  }
  param {
    lr_mult: 1
    decay_mult: 0
  }
  scale_param {
    filler {
      type: "constant"
      value: 1
    }
    bias_term: true
    bias_filler {
      type: "constant"
      value: 0
    }
  }
}
layer {
  name: "res3b2_branch2b_relu"
  type: "ReLU"
  bottom: "res3b2_branch2b"
  top: "res3b2_branch2b"
}
layer {
  name: "res3b2_branch2c"
  type: "Convolution"
  bottom: "res3b2_branch2b"
  top: "res3b2_branch2c"
  param {
    lr_mult: 1
    decay_mult: 1
  }
  convolution_param {
    num_output: 512
    bias_term: false
    pad: 0
    kernel_size: 1
    stride: 1
    weight_filler {
      type: "gaussian"
      std: 0.01
    }
  }
}
layer {
  name: "bn3b2_branch2c"
  type: "BatchNorm"
  bottom: "res3b2_branch2c"
  top: "res3b2_branch2c"
  batch_norm_param {
    moving_average_fraction: 0.999
    eps: 0.001
  }
}
layer {
  name: "scale3b2_branch2c"
  type: "Scale"
  bottom: "res3b2_branch2c"
  top: "res3b2_branch2c"
  param {
    lr_mult: 1
    decay_mult: 0
  }
  param {
    lr_mult: 1
    decay_mult: 0
  }
  scale_param {
    filler {
      type: "constant"
      value: 1
    }
    bias_term: true
    bias_filler {
      type: "constant"
      value: 0
    }
  }
}
layer {
  name: "res3b2"
  type: "Eltwise"
  bottom: "res3b1"
  bottom: "res3b2_branch2c"
  top: "res3b2"
}
layer {
  name: "res3b2_relu"
  type: "ReLU"
  bottom: "res3b2"
  top: "res3b2"
}
layer {
  name: "res3b3_branch2a"
  type: "Convolution"
  bottom: "res3b2"
  top: "res3b3_branch2a"
  param {
    lr_mult: 1
    decay_mult: 1
  }
  convolution_param {
    num_output: 128
    bias_term: false
    pad: 0
    kernel_size: 1
    stride: 1
    weight_filler {
      type: "gaussian"
      std: 0.01
    }
  }
}
layer {
  name: "bn3b3_branch2a"
  type: "BatchNorm"
  bottom: "res3b3_branch2a"
  top: "res3b3_branch2a"
  batch_norm_param {
    moving_average_fraction: 0.999
    eps: 0.001
  }
}
layer {
  name: "scale3b3_branch2a"
  type: "Scale"
  bottom: "res3b3_branch2a"
  top: "res3b3_branch2a"
  param {
    lr_mult: 1
    decay_mult: 0
  }
  param {
    lr_mult: 1
    decay_mult: 0
  }
  scale_param {
    filler {
      type: "constant"
      value: 1
    }
    bias_term: true
    bias_filler {
      type: "constant"
      value: 0
    }
  }
}
layer {
  name: "res3b3_branch2a_relu"
  type: "ReLU"
  bottom: "res3b3_branch2a"
  top: "res3b3_branch2a"
}
layer {
  name: "res3b3_branch2b"
  type: "Convolution"
  bottom: "res3b3_branch2a"
  top: "res3b3_branch2b"
  param {
    lr_mult: 1
    decay_mult: 1
  }
  convolution_param {
    num_output: 128
    bias_term: false
    pad: 1
    kernel_size: 3
    stride: 1
    weight_filler {
      type: "gaussian"
      std: 0.01
    }
  }
}
layer {
  name: "bn3b3_branch2b"
  type: "BatchNorm"
  bottom: "res3b3_branch2b"
  top: "res3b3_branch2b"
  batch_norm_param {
    moving_average_fraction: 0.999
    eps: 0.001
  }
}
layer {
  name: "scale3b3_branch2b"
  type: "Scale"
  bottom: "res3b3_branch2b"
  top: "res3b3_branch2b"
  param {
    lr_mult: 1
    decay_mult: 0
  }
  param {
    lr_mult: 1
    decay_mult: 0
  }
  scale_param {
    filler {
      type: "constant"
      value: 1
    }
    bias_term: true
    bias_filler {
      type: "constant"
      value: 0
    }
  }
}
layer {
  name: "res3b3_branch2b_relu"
  type: "ReLU"
  bottom: "res3b3_branch2b"
  top: "res3b3_branch2b"
}
layer {
  name: "res3b3_branch2c"
  type: "Convolution"
  bottom: "res3b3_branch2b"
  top: "res3b3_branch2c"
  param {
    lr_mult: 1
    decay_mult: 1
  }
  convolution_param {
    num_output: 512
    bias_term: false
    pad: 0
    kernel_size: 1
    stride: 1
    weight_filler {
      type: "gaussian"
      std: 0.01
    }
  }
}
layer {
  name: "bn3b3_branch2c"
  type: "BatchNorm"
  bottom: "res3b3_branch2c"
  top: "res3b3_branch2c"
  batch_norm_param {
    moving_average_fraction: 0.999
    eps: 0.001
  }
}
layer {
  name: "scale3b3_branch2c"
  type: "Scale"
  bottom: "res3b3_branch2c"
  top: "res3b3_branch2c"
  param {
    lr_mult: 1
    decay_mult: 0
  }
  param {
    lr_mult: 1
    decay_mult: 0
  }
  scale_param {
    filler {
      type: "constant"
      value: 1
    }
    bias_term: true
    bias_filler {
      type: "constant"
      value: 0
    }
  }
}
layer {
  name: "res3b3"
  type: "Eltwise"
  bottom: "res3b2"
  bottom: "res3b3_branch2c"
  top: "res3b3"
}
layer {
  name: "res3b3_relu"
  type: "ReLU"
  bottom: "res3b3"
  top: "res3b3"
}
layer {
  name: "res4a_branch1"
  type: "Convolution"
  bottom: "res3b3"
  top: "res4a_branch1"
  param {
    lr_mult: 1
    decay_mult: 1
  }
  convolution_param {
    num_output: 1024
    bias_term: false
    pad: 0
    kernel_size: 1
    stride: 2
    weight_filler {
      type: "gaussian"
      std: 0.01
    }
  }
}
layer {
  name: "bn4a_branch1"
  type: "BatchNorm"
  bottom: "res4a_branch1"
  top: "res4a_branch1"
  batch_norm_param {
    moving_average_fraction: 0.999
    eps: 0.001
  }
}
layer {
  name: "scale4a_branch1"
  type: "Scale"
  bottom: "res4a_branch1"
  top: "res4a_branch1"
  param {
    lr_mult: 1
    decay_mult: 0
  }
  param {
    lr_mult: 1
    decay_mult: 0
  }
  scale_param {
    filler {
      type: "constant"
      value: 1
    }
    bias_term: true
    bias_filler {
      type: "constant"
      value: 0
    }
  }
}
layer {
  name: "res4a_branch2a"
  type: "Convolution"
  bottom: "res3b3"
  top: "res4a_branch2a"
  param {
    lr_mult: 1
    decay_mult: 1
  }
  convolution_param {
    num_output: 256
    bias_term: false
    pad: 0
    kernel_size: 1
    stride: 2
    weight_filler {
      type: "gaussian"
      std: 0.01
    }
  }
}
layer {
  name: "bn4a_branch2a"
  type: "BatchNorm"
  bottom: "res4a_branch2a"
  top: "res4a_branch2a"
  batch_norm_param {
    moving_average_fraction: 0.999
    eps: 0.001
  }
}
layer {
  name: "scale4a_branch2a"
  type: "Scale"
  bottom: "res4a_branch2a"
  top: "res4a_branch2a"
  param {
    lr_mult: 1
    decay_mult: 0
  }
  param {
    lr_mult: 1
    decay_mult: 0
  }
  scale_param {
    filler {
      type: "constant"
      value: 1
    }
    bias_term: true
    bias_filler {
      type: "constant"
      value: 0
    }
  }
}
layer {
  name: "res4a_branch2a_relu"
  type: "ReLU"
  bottom: "res4a_branch2a"
  top: "res4a_branch2a"
}
layer {
  name: "res4a_branch2b"
  type: "Convolution"
  bottom: "res4a_branch2a"
  top: "res4a_branch2b"
  param {
    lr_mult: 1
    decay_mult: 1
  }
  convolution_param {
    num_output: 256
    bias_term: false
    pad: 1
    kernel_size: 3
    stride: 1
    weight_filler {
      type: "gaussian"
      std: 0.01
    }
  }
}
layer {
  name: "bn4a_branch2b"
  type: "BatchNorm"
  bottom: "res4a_branch2b"
  top: "res4a_branch2b"
  batch_norm_param {
    moving_average_fraction: 0.999
    eps: 0.001
  }
}
layer {
  name: "scale4a_branch2b"
  type: "Scale"
  bottom: "res4a_branch2b"
  top: "res4a_branch2b"
  param {
    lr_mult: 1
    decay_mult: 0
  }
  param {
    lr_mult: 1
    decay_mult: 0
  }
  scale_param {
    filler {
      type: "constant"
      value: 1
    }
    bias_term: true
    bias_filler {
      type: "constant"
      value: 0
    }
  }
}
layer {
  name: "res4a_branch2b_relu"
  type: "ReLU"
  bottom: "res4a_branch2b"
  top: "res4a_branch2b"
}
layer {
  name: "res4a_branch2c"
  type: "Convolution"
  bottom: "res4a_branch2b"
  top: "res4a_branch2c"
  param {
    lr_mult: 1
    decay_mult: 1
  }
  convolution_param {
    num_output: 1024
    bias_term: false
    pad: 0
    kernel_size: 1
    stride: 1
    weight_filler {
      type: "gaussian"
      std: 0.01
    }
  }
}
layer {
  name: "bn4a_branch2c"
  type: "BatchNorm"
  bottom: "res4a_branch2c"
  top: "res4a_branch2c"
  batch_norm_param {
    moving_average_fraction: 0.999
    eps: 0.001
  }
}
layer {
  name: "scale4a_branch2c"
  t
I0725 11:38:54.953723  7251 layer_factory.hpp:77] Creating layer data
I0725 11:38:54.953893  7251 net.cpp:100] Creating Layer data
I0725 11:38:54.953909  7251 net.cpp:408] data -> data
I0725 11:38:54.953943  7251 net.cpp:408] data -> label
I0725 11:38:54.955235  7261 db_lmdb.cpp:35] Opened lmdb examples/bdc2018/bdc2018_train_name_lmdb
I0725 11:38:54.973062  7251 annotated_data_layer.cpp:62] output data size: 2,3,1024,1024
I0725 11:38:55.012313  7251 net.cpp:150] Setting up data
I0725 11:38:55.012358  7251 net.cpp:157] Top shape: 2 3 1024 1024 (6291456)
I0725 11:38:55.012364  7251 net.cpp:157] Top shape: 1 1 1 8 (8)
I0725 11:38:55.012367  7251 net.cpp:165] Memory required for data: 25165856
I0725 11:38:55.012378  7251 layer_factory.hpp:77] Creating layer data_data_0_split
I0725 11:38:55.012398  7251 net.cpp:100] Creating Layer data_data_0_split
I0725 11:38:55.012404  7251 net.cpp:434] data_data_0_split <- data
I0725 11:38:55.012420  7251 net.cpp:408] data_data_0_split -> data_data_0_split_0
I0725 11:38:55.012432  7251 net.cpp:408] data_data_0_split -> data_data_0_split_1
I0725 11:38:55.012439  7251 net.cpp:408] data_data_0_split -> data_data_0_split_2
I0725 11:38:55.012445  7251 net.cpp:408] data_data_0_split -> data_data_0_split_3
I0725 11:38:55.012451  7251 net.cpp:408] data_data_0_split -> data_data_0_split_4
I0725 11:38:55.012480  7251 net.cpp:408] data_data_0_split -> data_data_0_split_5
I0725 11:38:55.012485  7251 net.cpp:408] data_data_0_split -> data_data_0_split_6
I0725 11:38:55.012639  7251 net.cpp:150] Setting up data_data_0_split
I0725 11:38:55.012648  7251 net.cpp:157] Top shape: 2 3 1024 1024 (6291456)
I0725 11:38:55.012653  7251 net.cpp:157] Top shape: 2 3 1024 1024 (6291456)
I0725 11:38:55.012657  7251 net.cpp:157] Top shape: 2 3 1024 1024 (6291456)
I0725 11:38:55.012661  7251 net.cpp:157] Top shape: 2 3 1024 1024 (6291456)
I0725 11:38:55.012665  7251 net.cpp:157] Top shape: 2 3 1024 1024 (6291456)
I0725 11:38:55.012670  7251 net.cpp:157] Top shape: 2 3 1024 1024 (6291456)
I0725 11:38:55.012675  7251 net.cpp:157] Top shape: 2 3 1024 1024 (6291456)
I0725 11:38:55.012677  7251 net.cpp:165] Memory required for data: 201326624
I0725 11:38:55.012681  7251 layer_factory.hpp:77] Creating layer conv1
I0725 11:38:55.012701  7251 net.cpp:100] Creating Layer conv1
I0725 11:38:55.012706  7251 net.cpp:434] conv1 <- data_data_0_split_0
I0725 11:38:55.012717  7251 net.cpp:408] conv1 -> conv1
I0725 11:38:55.088438  7262 blocking_queue.cpp:50] Waiting for data
I0725 11:38:55.260582  7251 net.cpp:150] Setting up conv1
I0725 11:38:55.260637  7251 net.cpp:157] Top shape: 2 64 512 512 (33554432)
I0725 11:38:55.260640  7251 net.cpp:165] Memory required for data: 335544352
I0725 11:38:55.260659  7251 layer_factory.hpp:77] Creating layer bn_conv1
I0725 11:38:55.260671  7251 net.cpp:100] Creating Layer bn_conv1
I0725 11:38:55.260676  7251 net.cpp:434] bn_conv1 <- conv1
I0725 11:38:55.260684  7251 net.cpp:395] bn_conv1 -> conv1 (in-place)
I0725 11:38:55.262058  7251 net.cpp:150] Setting up bn_conv1
I0725 11:38:55.262071  7251 net.cpp:157] Top shape: 2 64 512 512 (33554432)
I0725 11:38:55.262086  7251 net.cpp:165] Memory required for data: 469762080
I0725 11:38:55.262097  7251 layer_factory.hpp:77] Creating layer scale_conv1
I0725 11:38:55.262110  7251 net.cpp:100] Creating Layer scale_conv1
I0725 11:38:55.262115  7251 net.cpp:434] scale_conv1 <- conv1
I0725 11:38:55.262130  7251 net.cpp:395] scale_conv1 -> conv1 (in-place)
I0725 11:38:55.262173  7251 layer_factory.hpp:77] Creating layer scale_conv1
I0725 11:38:55.263564  7251 net.cpp:150] Setting up scale_conv1
I0725 11:38:55.263577  7251 net.cpp:157] Top shape: 2 64 512 512 (33554432)
I0725 11:38:55.263592  7251 net.cpp:165] Memory required for data: 603979808
I0725 11:38:55.263602  7251 layer_factory.hpp:77] Creating layer conv1_relu
I0725 11:38:55.263607  7251 net.cpp:100] Creating Layer conv1_relu
I0725 11:38:55.263612  7251 net.cpp:434] conv1_relu <- conv1
I0725 11:38:55.263615  7251 net.cpp:395] conv1_relu -> conv1 (in-place)
I0725 11:38:55.263804  7251 net.cpp:150] Setting up conv1_relu
I0725 11:38:55.263815  7251 net.cpp:157] Top shape: 2 64 512 512 (33554432)
I0725 11:38:55.263818  7251 net.cpp:165] Memory required for data: 738197536
I0725 11:38:55.263823  7251 layer_factory.hpp:77] Creating layer pool1
I0725 11:38:55.263830  7251 net.cpp:100] Creating Layer pool1
I0725 11:38:55.263833  7251 net.cpp:434] pool1 <- conv1
I0725 11:38:55.263840  7251 net.cpp:408] pool1 -> pool1
I0725 11:38:55.263888  7251 net.cpp:150] Setting up pool1
I0725 11:38:55.263896  7251 net.cpp:157] Top shape: 2 64 256 256 (8388608)
I0725 11:38:55.263900  7251 net.cpp:165] Memory required for data: 771751968
I0725 11:38:55.263902  7251 layer_factory.hpp:77] Creating layer pool1_pool1_0_split
I0725 11:38:55.263909  7251 net.cpp:100] Creating Layer pool1_pool1_0_split
I0725 11:38:55.263912  7251 net.cpp:434] pool1_pool1_0_split <- pool1
I0725 11:38:55.263918  7251 net.cpp:408] pool1_pool1_0_split -> pool1_pool1_0_split_0
I0725 11:38:55.263924  7251 net.cpp:408] pool1_pool1_0_split -> pool1_pool1_0_split_1
I0725 11:38:55.263955  7251 net.cpp:150] Setting up pool1_pool1_0_split
I0725 11:38:55.263962  7251 net.cpp:157] Top shape: 2 64 256 256 (8388608)
I0725 11:38:55.263967  7251 net.cpp:157] Top shape: 2 64 256 256 (8388608)
I0725 11:38:55.263969  7251 net.cpp:165] Memory required for data: 838860832
I0725 11:38:55.263991  7251 layer_factory.hpp:77] Creating layer res2a_branch1
I0725 11:38:55.264009  7251 net.cpp:100] Creating Layer res2a_branch1
I0725 11:38:55.264014  7251 net.cpp:434] res2a_branch1 <- pool1_pool1_0_split_0
I0725 11:38:55.264030  7251 net.cpp:408] res2a_branch1 -> res2a_branch1
I0725 11:38:55.265169  7251 net.cpp:150] Setting up res2a_branch1
I0725 11:38:55.265187  7251 net.cpp:157] Top shape: 2 256 256 256 (33554432)
I0725 11:38:55.265189  7251 net.cpp:165] Memory required for data: 973078560
I0725 11:38:55.265195  7251 layer_factory.hpp:77] Creating layer bn2a_branch1
I0725 11:38:55.265200  7251 net.cpp:100] Creating Layer bn2a_branch1
I0725 11:38:55.265204  7251 net.cpp:434] bn2a_branch1 <- res2a_branch1
I0725 11:38:55.265211  7251 net.cpp:395] bn2a_branch1 -> res2a_branch1 (in-place)
I0725 11:38:55.266427  7251 net.cpp:150] Setting up bn2a_branch1
I0725 11:38:55.266439  7251 net.cpp:157] Top shape: 2 256 256 256 (33554432)
I0725 11:38:55.266454  7251 net.cpp:165] Memory required for data: 1107296288
I0725 11:38:55.266464  7251 layer_factory.hpp:77] Creating layer scale2a_branch1
I0725 11:38:55.266474  7251 net.cpp:100] Creating Layer scale2a_branch1
I0725 11:38:55.266479  7251 net.cpp:434] scale2a_branch1 <- res2a_branch1
I0725 11:38:55.266482  7251 net.cpp:395] scale2a_branch1 -> res2a_branch1 (in-place)
I0725 11:38:55.266525  7251 layer_factory.hpp:77] Creating layer scale2a_branch1
I0725 11:38:55.266711  7251 net.cpp:150] Setting up scale2a_branch1
I0725 11:38:55.266721  7251 net.cpp:157] Top shape: 2 256 256 256 (33554432)
I0725 11:38:55.266724  7251 net.cpp:165] Memory required for data: 1241514016
I0725 11:38:55.266729  7251 layer_factory.hpp:77] Creating layer res2a_branch2a
I0725 11:38:55.266741  7251 net.cpp:100] Creating Layer res2a_branch2a
I0725 11:38:55.266744  7251 net.cpp:434] res2a_branch2a <- pool1_pool1_0_split_1
I0725 11:38:55.266749  7251 net.cpp:408] res2a_branch2a -> res2a_branch2a
I0725 11:38:55.268831  7251 net.cpp:150] Setting up res2a_branch2a
I0725 11:38:55.268857  7251 net.cpp:157] Top shape: 2 64 256 256 (8388608)
I0725 11:38:55.268860  7251 net.cpp:165] Memory required for data: 1275068448
I0725 11:38:55.268867  7251 layer_factory.hpp:77] Creating layer bn2a_branch2a
I0725 11:38:55.268872  7251 net.cpp:100] Creating Layer bn2a_branch2a
I0725 11:38:55.268877  7251 net.cpp:434] bn2a_branch2a <- res2a_branch2a
I0725 11:38:55.268882  7251 net.cpp:395] bn2a_branch2a -> res2a_branch2a (in-place)
I0725 11:38:55.269120  7251 net.cpp:150] Setting up bn2a_branch2a
I0725 11:38:55.269130  7251 net.cpp:157] Top shape: 2 64 256 256 (8388608)
I0725 11:38:55.269134  7251 net.cpp:165] Memory required for data: 1308622880
I0725 11:38:55.269140  7251 layer_factory.hpp:77] Creating layer scale2a_branch2a
I0725 11:38:55.269146  7251 net.cpp:100] Creating Layer scale2a_branch2a
I0725 11:38:55.269150  7251 net.cpp:434] scale2a_branch2a <- res2a_branch2a
I0725 11:38:55.269156  7251 net.cpp:395] scale2a_branch2a -> res2a_branch2a (in-place)
I0725 11:38:55.269196  7251 layer_factory.hpp:77] Creating layer scale2a_branch2a
I0725 11:38:55.269379  7251 net.cpp:150] Setting up scale2a_branch2a
I0725 11:38:55.269388  7251 net.cpp:157] Top shape: 2 64 256 256 (8388608)
I0725 11:38:55.269392  7251 net.cpp:165] Memory required for data: 1342177312
I0725 11:38:55.269402  7251 layer_factory.hpp:77] Creating layer res2a_branch2a_relu
I0725 11:38:55.269407  7251 net.cpp:100] Creating Layer res2a_branch2a_relu
I0725 11:38:55.269410  7251 net.cpp:434] res2a_branch2a_relu <- res2a_branch2a
I0725 11:38:55.269417  7251 net.cpp:395] res2a_branch2a_relu -> res2a_branch2a (in-place)
I0725 11:38:55.269592  7251 net.cpp:150] Setting up res2a_branch2a_relu
I0725 11:38:55.269603  7251 net.cpp:157] Top shape: 2 64 256 256 (8388608)
I0725 11:38:55.269608  7251 net.cpp:165] Memory required for data: 1375731744
I0725 11:38:55.269610  7251 layer_factory.hpp:77] Creating layer res2a_branch2b
I0725 11:38:55.269618  7251 net.cpp:100] Creating Layer res2a_branch2b
I0725 11:38:55.269621  7251 net.cpp:434] res2a_branch2b <- res2a_branch2a
I0725 11:38:55.269640  7251 net.cpp:408] res2a_branch2b -> res2a_branch2b
I0725 11:38:55.270956  7251 net.cpp:150] Setting up res2a_branch2b
I0725 11:38:55.270972  7251 net.cpp:157] Top shape: 2 64 256 256 (8388608)
I0725 11:38:55.270984  7251 net.cpp:165] Memory required for data: 1409286176
I0725 11:38:55.270989  7251 layer_factory.hpp:77] Creating layer bn2a_branch2b
I0725 11:38:55.271001  7251 net.cpp:100] Creating Layer bn2a_branch2b
I0725 11:38:55.271005  7251 net.cpp:434] bn2a_branch2b <- res2a_branch2b
I0725 11:38:55.271009  7251 net.cpp:395] bn2a_branch2b -> res2a_branch2b (in-place)
I0725 11:38:55.271251  7251 net.cpp:150] Setting up bn2a_branch2b
I0725 11:38:55.271261  7251 net.cpp:157] Top shape: 2 64 256 256 (8388608)
I0725 11:38:55.271265  7251 net.cpp:165] Memory required for data: 1442840608
I0725 11:38:55.271271  7251 layer_factory.hpp:77] Creating layer scale2a_branch2b
I0725 11:38:55.271278  7251 net.cpp:100] Creating Layer scale2a_branch2b
I0725 11:38:55.271282  7251 net.cpp:434] scale2a_branch2b <- res2a_branch2b
I0725 11:38:55.271286  7251 net.cpp:395] scale2a_branch2b -> res2a_branch2b (in-place)
I0725 11:38:55.271328  7251 layer_factory.hpp:77] Creating layer scale2a_branch2b
I0725 11:38:55.272476  7251 net.cpp:150] Setting up scale2a_branch2b
I0725 11:38:55.272490  7251 net.cpp:157] Top shape: 2 64 256 256 (8388608)
I0725 11:38:55.272495  7251 net.cpp:165] Memory required for data: 1476395040
I0725 11:38:55.272500  7251 layer_factory.hpp:77] Creating layer res2a_branch2b_relu
I0725 11:38:55.272509  7251 net.cpp:100] Creating Layer res2a_branch2b_relu
I0725 11:38:55.272512  7251 net.cpp:434] res2a_branch2b_relu <- res2a_branch2b
I0725 11:38:55.272517  7251 net.cpp:395] res2a_branch2b_relu -> res2a_branch2b (in-place)
I0725 11:38:55.272716  7251 net.cpp:150] Setting up res2a_branch2b_relu
I0725 11:38:55.272727  7251 net.cpp:157] Top shape: 2 64 256 256 (8388608)
I0725 11:38:55.272729  7251 net.cpp:165] Memory required for data: 1509949472
I0725 11:38:55.272732  7251 layer_factory.hpp:77] Creating layer res2a_branch2c
I0725 11:38:55.272742  7251 net.cpp:100] Creating Layer res2a_branch2c
I0725 11:38:55.272747  7251 net.cpp:434] res2a_branch2c <- res2a_branch2b
I0725 11:38:55.272753  7251 net.cpp:408] res2a_branch2c -> res2a_branch2c
I0725 11:38:55.274036  7251 net.cpp:150] Setting up res2a_branch2c
I0725 11:38:55.274062  7251 net.cpp:157] Top shape: 2 256 256 256 (33554432)
I0725 11:38:55.274066  7251 net.cpp:165] Memory required for data: 1644167200
I0725 11:38:55.274072  7251 layer_factory.hpp:77] Creating layer bn2a_branch2c
I0725 11:38:55.274078  7251 net.cpp:100] Creating Layer bn2a_branch2c
I0725 11:38:55.274082  7251 net.cpp:434] bn2a_branch2c <- res2a_branch2c
I0725 11:38:55.274089  7251 net.cpp:395] bn2a_branch2c -> res2a_branch2c (in-place)
I0725 11:38:55.274322  7251 net.cpp:150] Setting up bn2a_branch2c
I0725 11:38:55.274332  7251 net.cpp:157] Top shape: 2 256 256 256 (33554432)
I0725 11:38:55.274334  7251 net.cpp:165] Memory required for data: 1778384928
I0725 11:38:55.274340  7251 layer_factory.hpp:77] Creating layer scale2a_branch2c
I0725 11:38:55.274348  7251 net.cpp:100] Creating Layer scale2a_branch2c
I0725 11:38:55.274350  7251 net.cpp:434] scale2a_branch2c <- res2a_branch2c
I0725 11:38:55.274358  7251 net.cpp:395] scale2a_branch2c -> res2a_branch2c (in-place)
I0725 11:38:55.274399  7251 layer_factory.hpp:77] Creating layer scale2a_branch2c
I0725 11:38:55.274575  7251 net.cpp:150] Setting up scale2a_branch2c
I0725 11:38:55.274585  7251 net.cpp:157] Top shape: 2 256 256 256 (33554432)
I0725 11:38:55.274587  7251 net.cpp:165] Memory required for data: 1912602656
I0725 11:38:55.274592  7251 layer_factory.hpp:77] Creating layer res2a
I0725 11:38:55.274600  7251 net.cpp:100] Creating Layer res2a
I0725 11:38:55.274605  7251 net.cpp:434] res2a <- res2a_branch1
I0725 11:38:55.274608  7251 net.cpp:434] res2a <- res2a_branch2c
I0725 11:38:55.274613  7251 net.cpp:408] res2a -> res2a
I0725 11:38:55.274641  7251 net.cpp:150] Setting up res2a
I0725 11:38:55.274647  7251 net.cpp:157] Top shape: 2 256 256 256 (33554432)
I0725 11:38:55.274662  7251 net.cpp:165] Memory required for data: 2046820384
I0725 11:38:55.274665  7251 layer_factory.hpp:77] Creating layer res2a_relu
I0725 11:38:55.274673  7251 net.cpp:100] Creating Layer res2a_relu
I0725 11:38:55.274677  7251 net.cpp:434] res2a_relu <- res2a
I0725 11:38:55.274682  7251 net.cpp:395] res2a_relu -> res2a (in-place)
I0725 11:38:55.274864  7251 net.cpp:150] Setting up res2a_relu
I0725 11:38:55.274878  7251 net.cpp:157] Top shape: 2 256 256 256 (33554432)
I0725 11:38:55.274880  7251 net.cpp:165] Memory required for data: 2181038112
I0725 11:38:55.274883  7251 layer_factory.hpp:77] Creating layer res2a_res2a_relu_0_split
I0725 11:38:55.274889  7251 net.cpp:100] Creating Layer res2a_res2a_relu_0_split
I0725 11:38:55.274893  7251 net.cpp:434] res2a_res2a_relu_0_split <- res2a
I0725 11:38:55.274899  7251 net.cpp:408] res2a_res2a_relu_0_split -> res2a_res2a_relu_0_split_0
I0725 11:38:55.274909  7251 net.cpp:408] res2a_res2a_relu_0_split -> res2a_res2a_relu_0_split_1
I0725 11:38:55.274948  7251 net.cpp:150] Setting up res2a_res2a_relu_0_split
I0725 11:38:55.274956  7251 net.cpp:157] Top shape: 2 256 256 256 (33554432)
I0725 11:38:55.274960  7251 net.cpp:157] Top shape: 2 256 256 256 (33554432)
I0725 11:38:55.274963  7251 net.cpp:165] Memory required for data: 2449473568
I0725 11:38:55.274966  7251 layer_factory.hpp:77] Creating layer res2b_branch2a
I0725 11:38:55.274978  7251 net.cpp:100] Creating Layer res2b_branch2a
I0725 11:38:55.274982  7251 net.cpp:434] res2b_branch2a <- res2a_res2a_relu_0_split_0
I0725 11:38:55.274987  7251 net.cpp:408] res2b_branch2a -> res2b_branch2a
I0725 11:38:55.276289  7251 net.cpp:150] Setting up res2b_branch2a
I0725 11:38:55.276314  7251 net.cpp:157] Top shape: 2 64 256 256 (8388608)
I0725 11:38:55.276316  7251 net.cpp:165] Memory required for data: 2483028000
I0725 11:38:55.276322  7251 layer_factory.hpp:77] Creating layer bn2b_branch2a
I0725 11:38:55.276330  7251 net.cpp:100] Creating Layer bn2b_branch2a
I0725 11:38:55.276334  7251 net.cpp:434] bn2b_branch2a <- res2b_branch2a
I0725 11:38:55.276340  7251 net.cpp:395] bn2b_branch2a -> res2b_branch2a (in-place)
I0725 11:38:55.276579  7251 net.cpp:150] Setting up bn2b_branch2a
I0725 11:38:55.276589  7251 net.cpp:157] Top shape: 2 64 256 256 (8388608)
I0725 11:38:55.276592  7251 net.cpp:165] Memory required for data: 2516582432
I0725 11:38:55.276605  7251 layer_factory.hpp:77] Creating layer scale2b_branch2a
I0725 11:38:55.276614  7251 net.cpp:100] Creating Layer scale2b_branch2a
I0725 11:38:55.276618  7251 net.cpp:434] scale2b_branch2a <- res2b_branch2a
I0725 11:38:55.276624  7251 net.cpp:395] scale2b_branch2a -> res2b_branch2a (in-place)
I0725 11:38:55.276669  7251 layer_factory.hpp:77] Creating layer scale2b_branch2a
I0725 11:38:55.276850  7251 net.cpp:150] Setting up scale2b_branch2a
I0725 11:38:55.276859  7251 net.cpp:157] Top shape: 2 64 256 256 (8388608)
I0725 11:38:55.276862  7251 net.cpp:165] Memory required for data: 2550136864
I0725 11:38:55.276867  7251 layer_factory.hpp:77] Creating layer res2b_branch2a_relu
I0725 11:38:55.276873  7251 net.cpp:100] Creating Layer res2b_branch2a_relu
I0725 11:38:55.276876  7251 net.cpp:434] res2b_branch2a_relu <- res2b_branch2a
I0725 11:38:55.276882  7251 net.cpp:395] res2b_branch2a_relu -> res2b_branch2a (in-place)
I0725 11:38:55.277067  7251 net.cpp:150] Setting up res2b_branch2a_relu
I0725 11:38:55.277078  7251 net.cpp:157] Top shape: 2 64 256 256 (8388608)
I0725 11:38:55.277081  7251 net.cpp:165] Memory required for data: 2583691296
I0725 11:38:55.277086  7251 layer_factory.hpp:77] Creating layer res2b_branch2b
I0725 11:38:55.277096  7251 net.cpp:100] Creating Layer res2b_branch2b
I0725 11:38:55.277101  7251 net.cpp:434] res2b_branch2b <- res2b_branch2a
I0725 11:38:55.277107  7251 net.cpp:408] res2b_branch2b -> res2b_branch2b
I0725 11:38:55.279311  7251 net.cpp:150] Setting up res2b_branch2b
I0725 11:38:55.279325  7251 net.cpp:157] Top shape: 2 64 256 256 (8388608)
I0725 11:38:55.279338  7251 net.cpp:165] Memory required for data: 2617245728
I0725 11:38:55.279355  7251 layer_factory.hpp:77] Creating layer bn2b_branch2b
I0725 11:38:55.279361  7251 net.cpp:100] Creating Layer bn2b_branch2b
I0725 11:38:55.279366  7251 net.cpp:434] bn2b_branch2b <- res2b_branch2b
I0725 11:38:55.279371  7251 net.cpp:395] bn2b_branch2b -> res2b_branch2b (in-place)
I0725 11:38:55.279613  7251 net.cpp:150] Setting up bn2b_branch2b
I0725 11:38:55.279623  7251 net.cpp:157] Top shape: 2 64 256 256 (8388608)
I0725 11:38:55.279625  7251 net.cpp:165] Memory required for data: 2650800160
I0725 11:38:55.279633  7251 layer_factory.hpp:77] Creating layer scale2b_branch2b
I0725 11:38:55.279639  7251 net.cpp:100] Creating Layer scale2b_branch2b
I0725 11:38:55.279642  7251 net.cpp:434] scale2b_branch2b <- res2b_branch2b
I0725 11:38:55.279647  7251 net.cpp:395] scale2b_branch2b -> res2b_branch2b (in-place)
I0725 11:38:55.279691  7251 layer_factory.hpp:77] Creating layer scale2b_branch2b
I0725 11:38:55.279876  7251 net.cpp:150] Setting up scale2b_branch2b
I0725 11:38:55.279888  7251 net.cpp:157] Top shape: 2 64 256 256 (8388608)
I0725 11:38:55.279892  7251 net.cpp:165] Memory required for data: 2684354592
I0725 11:38:55.279897  7251 layer_factory.hpp:77] Creating layer res2b_branch2b_relu
I0725 11:38:55.279908  7251 net.cpp:100] Creating Layer res2b_branch2b_relu
I0725 11:38:55.279911  7251 net.cpp:434] res2b_branch2b_relu <- res2b_branch2b
I0725 11:38:55.279927  7251 net.cpp:395] res2b_branch2b_relu -> res2b_branch2b (in-place)
I0725 11:38:55.280308  7251 net.cpp:150] Setting up res2b_branch2b_relu
I0725 11:38:55.280323  7251 net.cpp:157] Top shape: 2 64 256 256 (8388608)
I0725 11:38:55.280325  7251 net.cpp:165] Memory required for data: 2717909024
I0725 11:38:55.280329  7251 layer_factory.hpp:77] Creating layer res2b_branch2c
I0725 11:38:55.280339  7251 net.cpp:100] Creating Layer res2b_branch2c
I0725 11:38:55.280345  7251 net.cpp:434] res2b_branch2c <- res2b_branch2b
I0725 11:38:55.280354  7251 net.cpp:408] res2b_branch2c -> res2b_branch2c
I0725 11:38:55.281611  7251 net.cpp:150] Setting up res2b_branch2c
I0725 11:38:55.281625  7251 net.cpp:157] Top shape: 2 256 256 256 (33554432)
I0725 11:38:55.281637  7251 net.cpp:165] Memory required for data: 2852126752
I0725 11:38:55.281644  7251 layer_factory.hpp:77] Creating layer bn2b_branch2c
I0725 11:38:55.281651  7251 net.cpp:100] Creating Layer bn2b_branch2c
I0725 11:38:55.281653  7251 net.cpp:434] bn2b_branch2c <- res2b_branch2c
I0725 11:38:55.281661  7251 net.cpp:395] bn2b_branch2c -> res2b_branch2c (in-place)
I0725 11:38:55.281893  7251 net.cpp:150] Setting up bn2b_branch2c
I0725 11:38:55.281903  7251 net.cpp:157] Top shape: 2 256 256 256 (33554432)
I0725 11:38:55.281905  7251 net.cpp:165] Memory required for data: 2986344480
I0725 11:38:55.281911  7251 layer_factory.hpp:77] Creating layer scale2b_branch2c
I0725 11:38:55.281918  7251 net.cpp:100] Creating Layer scale2b_branch2c
I0725 11:38:55.281921  7251 net.cpp:434] scale2b_branch2c <- res2b_branch2c
I0725 11:38:55.281930  7251 net.cpp:395] scale2b_branch2c -> res2b_branch2c (in-place)
I0725 11:38:55.281967  7251 layer_factory.hpp:77] Creating layer scale2b_branch2c
I0725 11:38:55.282142  7251 net.cpp:150] Setting up scale2b_branch2c
I0725 11:38:55.282152  7251 net.cpp:157] Top shape: 2 256 256 256 (33554432)
I0725 11:38:55.282155  7251 net.cpp:165] Memory required for data: 3120562208
I0725 11:38:55.282160  7251 layer_factory.hpp:77] Creating layer res2b
I0725 11:38:55.282166  7251 net.cpp:100] Creating Layer res2b
I0725 11:38:55.282169  7251 net.cpp:434] res2b <- res2a_res2a_relu_0_split_1
I0725 11:38:55.282173  7251 net.cpp:434] res2b <- res2b_branch2c
I0725 11:38:55.282177  7251 net.cpp:408] res2b -> res2b
I0725 11:38:55.282203  7251 net.cpp:150] Setting up res2b
I0725 11:38:55.282210  7251 net.cpp:157] Top shape: 2 256 256 256 (33554432)
I0725 11:38:55.282213  7251 net.cpp:165] Memory required for data: 3254779936
I0725 11:38:55.282217  7251 layer_factory.hpp:77] Creating layer res2b_relu
I0725 11:38:55.282222  7251 net.cpp:100] Creating Layer res2b_relu
I0725 11:38:55.282224  7251 net.cpp:434] res2b_relu <- res2b
I0725 11:38:55.282241  7251 net.cpp:395] res2b_relu -> res2b (in-place)
I0725 11:38:55.282413  7251 net.cpp:150] Setting up res2b_relu
I0725 11:38:55.282424  7251 net.cpp:157] Top shape: 2 256 256 256 (33554432)
I0725 11:38:55.282428  7251 net.cpp:165] Memory required for data: 3388997664
I0725 11:38:55.282430  7251 layer_factory.hpp:77] Creating layer res2b_res2b_relu_0_split
I0725 11:38:55.282435  7251 net.cpp:100] Creating Layer res2b_res2b_relu_0_split
I0725 11:38:55.282439  7251 net.cpp:434] res2b_res2b_relu_0_split <- res2b
I0725 11:38:55.282445  7251 net.cpp:408] res2b_res2b_relu_0_split -> res2b_res2b_relu_0_split_0
I0725 11:38:55.282452  7251 net.cpp:408] res2b_res2b_relu_0_split -> res2b_res2b_relu_0_split_1
I0725 11:38:55.282492  7251 net.cpp:150] Setting up res2b_res2b_relu_0_split
I0725 11:38:55.282500  7251 net.cpp:157] Top shape: 2 256 256 256 (33554432)
I0725 11:38:55.282502  7251 net.cpp:157] Top shape: 2 256 256 256 (33554432)
I0725 11:38:55.282505  7251 net.cpp:165] Memory required for data: 3657433120
I0725 11:38:55.282508  7251 layer_factory.hpp:77] Creating layer res2c_branch2a
I0725 11:38:55.282521  7251 net.cpp:100] Creating Layer res2c_branch2a
I0725 11:38:55.282526  7251 net.cpp:434] res2c_branch2a <- res2b_res2b_relu_0_split_0
I0725 11:38:55.282531  7251 net.cpp:408] res2c_branch2a -> res2c_branch2a
I0725 11:38:55.283774  7251 net.cpp:150] Setting up res2c_branch2a
I0725 11:38:55.283787  7251 net.cpp:157] Top shape: 2 64 256 256 (8388608)
I0725 11:38:55.283800  7251 net.cpp:165] Memory required for data: 3690987552
I0725 11:38:55.283807  7251 layer_factory.hpp:77] Creating layer bn2c_branch2a
I0725 11:38:55.283814  7251 net.cpp:100] Creating Layer bn2c_branch2a
I0725 11:38:55.283818  7251 net.cpp:434] bn2c_branch2a <- res2c_branch2a
I0725 11:38:55.283823  7251 net.cpp:395] bn2c_branch2a -> res2c_branch2a (in-place)
I0725 11:38:55.284087  7251 net.cpp:150] Setting up bn2c_branch2a
I0725 11:38:55.284099  7251 net.cpp:157] Top shape: 2 64 256 256 (8388608)
I0725 11:38:55.284102  7251 net.cpp:165] Memory required for data: 3724541984
I0725 11:38:55.284109  7251 layer_factory.hpp:77] Creating layer scale2c_branch2a
I0725 11:38:55.284116  7251 net.cpp:100] Creating Layer scale2c_branch2a
I0725 11:38:55.284119  7251 net.cpp:434] scale2c_branch2a <- res2c_branch2a
I0725 11:38:55.284124  7251 net.cpp:395] scale2c_branch2a -> res2c_branch2a (in-place)
I0725 11:38:55.284168  7251 layer_factory.hpp:77] Creating layer scale2c_branch2a
I0725 11:38:55.285297  7251 net.cpp:150] Setting up scale2c_branch2a
I0725 11:38:55.285310  7251 net.cpp:157] Top shape: 2 64 256 256 (8388608)
I0725 11:38:55.285323  7251 net.cpp:165] Memory required for data: 3758096416
I0725 11:38:55.285328  7251 layer_factory.hpp:77] Creating layer res2c_branch2a_relu
I0725 11:38:55.285336  7251 net.cpp:100] Creating Layer res2c_branch2a_relu
I0725 11:38:55.285339  7251 net.cpp:434] res2c_branch2a_relu <- res2c_branch2a
I0725 11:38:55.285346  7251 net.cpp:395] res2c_branch2a_relu -> res2c_branch2a (in-place)
I0725 11:38:55.285538  7251 net.cpp:150] Setting up res2c_branch2a_relu
I0725 11:38:55.285549  7251 net.cpp:157] Top shape: 2 64 256 256 (8388608)
I0725 11:38:55.285552  7251 net.cpp:165] Memory required for data: 3791650848
I0725 11:38:55.285557  7251 layer_factory.hpp:77] Creating layer res2c_branch2b
I0725 11:38:55.285565  7251 net.cpp:100] Creating Layer res2c_branch2b
I0725 11:38:55.285569  7251 net.cpp:434] res2c_branch2b <- res2c_branch2a
I0725 11:38:55.285576  7251 net.cpp:408] res2c_branch2b -> res2c_branch2b
I0725 11:38:55.286835  7251 net.cpp:150] Setting up res2c_branch2b
I0725 11:38:55.286849  7251 net.cpp:157] Top shape: 2 64 256 256 (8388608)
I0725 11:38:55.286861  7251 net.cpp:165] Memory required for data: 3825205280
I0725 11:38:55.286866  7251 layer_factory.hpp:77] Creating layer bn2c_branch2b
I0725 11:38:55.286875  7251 net.cpp:100] Creating Layer bn2c_branch2b
I0725 11:38:55.286878  7251 net.cpp:434] bn2c_branch2b <- res2c_branch2b
I0725 11:38:55.286883  7251 net.cpp:395] bn2c_branch2b -> res2c_branch2b (in-place)
I0725 11:38:55.287139  7251 net.cpp:150] Setting up bn2c_branch2b
I0725 11:38:55.287149  7251 net.cpp:157] Top shape: 2 64 256 256 (8388608)
I0725 11:38:55.287153  7251 net.cpp:165] Memory required for data: 3858759712
I0725 11:38:55.287158  7251 layer_factory.hpp:77] Creating layer scale2c_branch2b
I0725 11:38:55.287168  7251 net.cpp:100] Creating Layer scale2c_branch2b
I0725 11:38:55.287173  7251 net.cpp:434] scale2c_branch2b <- res2c_branch2b
I0725 11:38:55.287176  7251 net.cpp:395] scale2c_branch2b -> res2c_branch2b (in-place)
I0725 11:38:55.287216  7251 layer_factory.hpp:77] Creating layer scale2c_branch2b
I0725 11:38:55.287403  7251 net.cpp:150] Setting up scale2c_branch2b
I0725 11:38:55.287412  7251 net.cpp:157] Top shape: 2 64 256 256 (8388608)
I0725 11:38:55.287415  7251 net.cpp:165] Memory required for data: 3892314144
I0725 11:38:55.287420  7251 layer_factory.hpp:77] Creating layer res2c_branch2b_relu
I0725 11:38:55.287427  7251 net.cpp:100] Creating Layer res2c_branch2b_relu
I0725 11:38:55.287431  7251 net.cpp:434] res2c_branch2b_relu <- res2c_branch2b
I0725 11:38:55.287436  7251 net.cpp:395] res2c_branch2b_relu -> res2c_branch2b (in-place)
I0725 11:38:55.287618  7251 net.cpp:150] Setting up res2c_branch2b_relu
I0725 11:38:55.287629  7251 net.cpp:157] Top shape: 2 64 256 256 (8388608)
I0725 11:38:55.287632  7251 net.cpp:165] Memory required for data: 3925868576
I0725 11:38:55.287636  7251 layer_factory.hpp:77] Creating layer res2c_branch2c
I0725 11:38:55.287645  7251 net.cpp:100] Creating Layer res2c_branch2c
I0725 11:38:55.287649  7251 net.cpp:434] res2c_branch2c <- res2c_branch2b
I0725 11:38:55.287657  7251 net.cpp:408] res2c_branch2c -> res2c_branch2c
I0725 11:38:55.288903  7251 net.cpp:150] Setting up res2c_branch2c
I0725 11:38:55.288918  7251 net.cpp:157] Top shape: 2 256 256 256 (33554432)
I0725 11:38:55.288933  7251 net.cpp:165] Memory required for data: 4060086304
I0725 11:38:55.288939  7251 layer_factory.hpp:77] Creating layer bn2c_branch2c
I0725 11:38:55.288946  7251 net.cpp:100] Creating Layer bn2c_branch2c
I0725 11:38:55.288950  7251 net.cpp:434] bn2c_branch2c <- res2c_branch2c
I0725 11:38:55.288955  7251 net.cpp:395] bn2c_branch2c -> res2c_branch2c (in-place)
I0725 11:38:55.289193  7251 net.cpp:150] Setting up bn2c_branch2c
I0725 11:38:55.289204  7251 net.cpp:157] Top shape: 2 256 256 256 (33554432)
I0725 11:38:55.289206  7251 net.cpp:165] Memory required for data: 4194304032
I0725 11:38:55.289213  7251 layer_factory.hpp:77] Creating layer scale2c_branch2c
I0725 11:38:55.289221  7251 net.cpp:100] Creating Layer scale2c_branch2c
I0725 11:38:55.289223  7251 net.cpp:434] scale2c_branch2c <- res2c_branch2c
I0725 11:38:55.289228  7251 net.cpp:395] scale2c_branch2c -> res2c_branch2c (in-place)
I0725 11:38:55.289269  7251 layer_factory.hpp:77] Creating layer scale2c_branch2c
I0725 11:38:55.290388  7251 net.cpp:150] Setting up scale2c_branch2c
I0725 11:38:55.290401  7251 net.cpp:157] Top shape: 2 256 256 256 (33554432)
I0725 11:38:55.290416  7251 net.cpp:165] Memory required for data: 4328521760
I0725 11:38:55.290431  7251 layer_factory.hpp:77] Creating layer res2c
I0725 11:38:55.290437  7251 net.cpp:100] Creating Layer res2c
I0725 11:38:55.290441  7251 net.cpp:434] res2c <- res2b_res2b_relu_0_split_1
I0725 11:38:55.290444  7251 net.cpp:434] res2c <- res2c_branch2c
I0725 11:38:55.290449  7251 net.cpp:408] res2c -> res2c
I0725 11:38:55.290490  7251 net.cpp:150] Setting up res2c
I0725 11:38:55.290509  7251 net.cpp:157] Top shape: 2 256 256 256 (33554432)
I0725 11:38:55.290513  7251 net.cpp:165] Memory required for data: 4462739488
I0725 11:38:55.290515  7251 layer_factory.hpp:77] Creating layer res2c_relu
I0725 11:38:55.290520  7251 net.cpp:100] Creating Layer res2c_relu
I0725 11:38:55.290524  7251 net.cpp:434] res2c_relu <- res2c
I0725 11:38:55.290530  7251 net.cpp:395] res2c_relu -> res2c (in-place)
I0725 11:38:55.290720  7251 net.cpp:150] Setting up res2c_relu
I0725 11:38:55.290731  7251 net.cpp:157] Top shape: 2 256 256 256 (33554432)
I0725 11:38:55.290735  7251 net.cpp:165] Memory required for data: 4596957216
I0725 11:38:55.290755  7251 layer_factory.hpp:77] Creating layer res2c_res2c_relu_0_split
I0725 11:38:55.290760  7251 net.cpp:100] Creating Layer res2c_res2c_relu_0_split
I0725 11:38:55.290763  7251 net.cpp:434] res2c_res2c_relu_0_split <- res2c
I0725 11:38:55.290771  7251 net.cpp:408] res2c_res2c_relu_0_split -> res2c_res2c_relu_0_split_0
I0725 11:38:55.290777  7251 net.cpp:408] res2c_res2c_relu_0_split -> res2c_res2c_relu_0_split_1
I0725 11:38:55.290823  7251 net.cpp:150] Setting up res2c_res2c_relu_0_split
I0725 11:38:55.290832  7251 net.cpp:157] Top shape: 2 256 256 256 (33554432)
I0725 11:38:55.290835  7251 net.cpp:157] Top shape: 2 256 256 256 (33554432)
I0725 11:38:55.290838  7251 net.cpp:165] Memory required for data: 4865392672
I0725 11:38:55.290840  7251 layer_factory.hpp:77] Creating layer res3a_branch1
I0725 11:38:55.290851  7251 net.cpp:100] Creating Layer res3a_branch1
I0725 11:38:55.290854  7251 net.cpp:434] res3a_branch1 <- res2c_res2c_relu_0_split_0
I0725 11:38:55.290861  7251 net.cpp:408] res3a_branch1 -> res3a_branch1
I0725 11:38:55.292963  7251 net.cpp:150] Setting up res3a_branch1
I0725 11:38:55.292990  7251 net.cpp:157] Top shape: 2 512 128 128 (16777216)
I0725 11:38:55.292994  7251 net.cpp:165] Memory required for data: 4932501536
I0725 11:38:55.292999  7251 layer_factory.hpp:77] Creating layer bn3a_branch1
I0725 11:38:55.293005  7251 net.cpp:100] Creating Layer bn3a_branch1
I0725 11:38:55.293009  7251 net.cpp:434] bn3a_branch1 <- res3a_branch1
I0725 11:38:55.293015  7251 net.cpp:395] bn3a_branch1 -> res3a_branch1 (in-place)
I0725 11:38:55.294173  7251 net.cpp:150] Setting up bn3a_branch1
I0725 11:38:55.294185  7251 net.cpp:157] Top shape: 2 512 128 128 (16777216)
I0725 11:38:55.294200  7251 net.cpp:165] Memory required for data: 4999610400
I0725 11:38:55.294208  7251 layer_factory.hpp:77] Creating layer scale3a_branch1
I0725 11:38:55.294216  7251 net.cpp:100] Creating Layer scale3a_branch1
I0725 11:38:55.294220  7251 net.cpp:434] scale3a_branch1 <- res3a_branch1
I0725 11:38:55.294225  7251 net.cpp:395] scale3a_branch1 -> res3a_branch1 (in-place)
I0725 11:38:55.294275  7251 layer_factory.hpp:77] Creating layer scale3a_branch1
I0725 11:38:55.294436  7251 net.cpp:150] Setting up scale3a_branch1
I0725 11:38:55.294445  7251 net.cpp:157] Top shape: 2 512 128 128 (16777216)
I0725 11:38:55.294448  7251 net.cpp:165] Memory required for data: 5066719264
I0725 11:38:55.294454  7251 layer_factory.hpp:77] Creating layer res3a_branch2a
I0725 11:38:55.294464  7251 net.cpp:100] Creating Layer res3a_branch2a
I0725 11:38:55.294467  7251 net.cpp:434] res3a_branch2a <- res2c_res2c_relu_0_split_1
I0725 11:38:55.294474  7251 net.cpp:408] res3a_branch2a -> res3a_branch2a
I0725 11:38:55.295701  7251 net.cpp:150] Setting up res3a_branch2a
I0725 11:38:55.295713  7251 net.cpp:157] Top shape: 2 128 128 128 (4194304)
I0725 11:38:55.295727  7251 net.cpp:165] Memory required for data: 5083496480
I0725 11:38:55.295732  7251 layer_factory.hpp:77] Creating layer bn3a_branch2a
I0725 11:38:55.295739  7251 net.cpp:100] Creating Layer bn3a_branch2a
I0725 11:38:55.295754  7251 net.cpp:434] bn3a_branch2a <- res3a_branch2a
I0725 11:38:55.295759  7251 net.cpp:395] bn3a_branch2a -> res3a_branch2a (in-place)
I0725 11:38:55.295981  7251 net.cpp:150] Setting up bn3a_branch2a
I0725 11:38:55.295992  7251 net.cpp:157] Top shape: 2 128 128 128 (4194304)
I0725 11:38:55.295996  7251 net.cpp:165] Memory required for data: 5100273696
I0725 11:38:55.296002  7251 layer_factory.hpp:77] Creating layer scale3a_branch2a
I0725 11:38:55.296010  7251 net.cpp:100] Creating Layer scale3a_branch2a
I0725 11:38:55.296012  7251 net.cpp:434] scale3a_branch2a <- res3a_branch2a
I0725 11:38:55.296025  7251 net.cpp:395] scale3a_branch2a -> res3a_branch2a (in-place)
I0725 11:38:55.296072  7251 layer_factory.hpp:77] Creating layer scale3a_branch2a
I0725 11:38:55.296211  7251 net.cpp:150] Setting up scale3a_branch2a
I0725 11:38:55.296221  7251 net.cpp:157] Top shape: 2 128 128 128 (4194304)
I0725 11:38:55.296223  7251 net.cpp:165] Memory required for data: 5117050912
I0725 11:38:55.296241  7251 layer_factory.hpp:77] Creating layer res3a_branch2a_relu
I0725 11:38:55.296248  7251 net.cpp:100] Creating Layer res3a_branch2a_relu
I0725 11:38:55.296252  7251 net.cpp:434] res3a_branch2a_relu <- res3a_branch2a
I0725 11:38:55.296257  7251 net.cpp:395] res3a_branch2a_relu -> res3a_branch2a (in-place)
I0725 11:38:55.296438  7251 net.cpp:150] Setting up res3a_branch2a_relu
I0725 11:38:55.296449  7251 net.cpp:157] Top shape: 2 128 128 128 (4194304)
I0725 11:38:55.296452  7251 net.cpp:165] Memory required for data: 5133828128
I0725 11:38:55.296455  7251 layer_factory.hpp:77] Creating layer res3a_branch2b
I0725 11:38:55.296465  7251 net.cpp:100] Creating Layer res3a_branch2b
I0725 11:38:55.296469  7251 net.cpp:434] res3a_branch2b <- res3a_branch2a
I0725 11:38:55.296476  7251 net.cpp:408] res3a_branch2b -> res3a_branch2b
I0725 11:38:55.299763  7251 net.cpp:150] Setting up res3a_branch2b
I0725 11:38:55.299788  7251 net.cpp:157] Top shape: 2 128 128 128 (4194304)
I0725 11:38:55.299793  7251 net.cpp:165] Memory required for data: 5150605344
I0725 11:38:55.299798  7251 layer_factory.hpp:77] Creating layer bn3a_branch2b
I0725 11:38:55.299805  7251 net.cpp:100] Creating Layer bn3a_branch2b
I0725 11:38:55.299810  7251 net.cpp:434] bn3a_branch2b <- res3a_branch2b
I0725 11:38:55.299816  7251 net.cpp:395] bn3a_branch2b -> res3a_branch2b (in-place)
I0725 11:38:55.300062  7251 net.cpp:150] Setting up bn3a_branch2b
I0725 11:38:55.300072  7251 net.cpp:157] Top shape: 2 128 128 128 (4194304)
I0725 11:38:55.300076  7251 net.cpp:165] Memory required for data: 5167382560
I0725 11:38:55.300082  7251 layer_factory.hpp:77] Creating layer scale3a_branch2b
I0725 11:38:55.300091  7251 net.cpp:100] Creating Layer scale3a_branch2b
I0725 11:38:55.300096  7251 net.cpp:434] scale3a_branch2b <- res3a_branch2b
I0725 11:38:55.300101  7251 net.cpp:395] scale3a_branch2b -> res3a_branch2b (in-place)
I0725 11:38:55.300143  7251 layer_factory.hpp:77] Creating layer scale3a_branch2b
I0725 11:38:55.300288  7251 net.cpp:150] Setting up scale3a_branch2b
I0725 11:38:55.300297  7251 net.cpp:157] Top shape: 2 128 128 128 (4194304)
I0725 11:38:55.300299  7251 net.cpp:165] Memory required for data: 5184159776
I0725 11:38:55.300305  7251 layer_factory.hpp:77] Creating layer res3a_branch2b_relu
I0725 11:38:55.300312  7251 net.cpp:100] Creating Layer res3a_branch2b_relu
I0725 11:38:55.300314  7251 net.cpp:434] res3a_branch2b_relu <- res3a_branch2b
I0725 11:38:55.300320  7251 net.cpp:395] res3a_branch2b_relu -> res3a_branch2b (in-place)
I0725 11:38:55.300734  7251 net.cpp:150] Setting up res3a_branch2b_relu
I0725 11:38:55.300760  7251 net.cpp:157] Top shape: 2 128 128 128 (4194304)
I0725 11:38:55.300762  7251 net.cpp:165] Memory required for data: 5200936992
I0725 11:38:55.300765  7251 layer_factory.hpp:77] Creating layer res3a_branch2c
I0725 11:38:55.300783  7251 net.cpp:100] Creating Layer res3a_branch2c
I0725 11:38:55.300788  7251 net.cpp:434] res3a_branch2c <- res3a_branch2b
I0725 11:38:55.300793  7251 net.cpp:408] res3a_branch2c -> res3a_branch2c
I0725 11:38:55.302181  7251 net.cpp:150] Setting up res3a_branch2c
I0725 11:38:55.302192  7251 net.cpp:157] Top shape: 2 512 128 128 (16777216)
I0725 11:38:55.302207  7251 net.cpp:165] Memory required for data: 5268045856
I0725 11:38:55.302213  7251 layer_factory.hpp:77] Creating layer bn3a_branch2c
I0725 11:38:55.302218  7251 net.cpp:100] Creating Layer bn3a_branch2c
I0725 11:38:55.302224  7251 net.cpp:434] bn3a_branch2c <- res3a_branch2c
I0725 11:38:55.302229  7251 net.cpp:395] bn3a_branch2c -> res3a_branch2c (in-place)
I0725 11:38:55.302464  7251 net.cpp:150] Setting up bn3a_branch2c
I0725 11:38:55.302474  7251 net.cpp:157] Top shape: 2 512 128 128 (16777216)
I0725 11:38:55.302476  7251 net.cpp:165] Memory required for data: 5335154720
I0725 11:38:55.302484  7251 layer_factory.hpp:77] Creating layer scale3a_branch2c
I0725 11:38:55.302495  7251 net.cpp:100] Creating Layer scale3a_branch2c
I0725 11:38:55.302498  7251 net.cpp:434] scale3a_branch2c <- res3a_branch2c
I0725 11:38:55.302515  7251 net.cpp:395] scale3a_branch2c -> res3a_branch2c (in-place)
I0725 11:38:55.302557  7251 layer_factory.hpp:77] Creating layer scale3a_branch2c
I0725 11:38:55.302708  7251 net.cpp:150] Setting up scale3a_branch2c
I0725 11:38:55.302717  7251 net.cpp:157] Top shape: 2 512 128 128 (16777216)
I0725 11:38:55.302721  7251 net.cpp:165] Memory required for data: 5402263584
I0725 11:38:55.302726  7251 layer_factory.hpp:77] Creating layer res3a
I0725 11:38:55.302732  7251 net.cpp:100] Creating Layer res3a
I0725 11:38:55.302736  7251 net.cpp:434] res3a <- res3a_branch1
I0725 11:38:55.302740  7251 net.cpp:434] res3a <- res3a_branch2c
I0725 11:38:55.302745  7251 net.cpp:408] res3a -> res3a
I0725 11:38:55.302772  7251 net.cpp:150] Setting up res3a
I0725 11:38:55.302779  7251 net.cpp:157] Top shape: 2 512 128 128 (16777216)
I0725 11:38:55.302783  7251 net.cpp:165] Memory required for data: 5469372448
I0725 11:38:55.302785  7251 layer_factory.hpp:77] Creating layer res3a_relu
I0725 11:38:55.302790  7251 net.cpp:100] Creating Layer res3a_relu
I0725 11:38:55.302793  7251 net.cpp:434] res3a_relu <- res3a
I0725 11:38:55.302799  7251 net.cpp:395] res3a_relu -> res3a (in-place)
I0725 11:38:55.303207  7251 net.cpp:150] Setting up res3a_relu
I0725 11:38:55.303234  7251 net.cpp:157] Top shape: 2 512 128 128 (16777216)
I0725 11:38:55.303237  7251 net.cpp:165] Memory required for data: 5536481312
I0725 11:38:55.303241  7251 layer_factory.hpp:77] Creating layer res3a_res3a_relu_0_split
I0725 11:38:55.303247  7251 net.cpp:100] Creating Layer res3a_res3a_relu_0_split
I0725 11:38:55.303252  7251 net.cpp:434] res3a_res3a_relu_0_split <- res3a
I0725 11:38:55.303259  7251 net.cpp:408] res3a_res3a_relu_0_split -> res3a_res3a_relu_0_split_0
I0725 11:38:55.303267  7251 net.cpp:408] res3a_res3a_relu_0_split -> res3a_res3a_relu_0_split_1
I0725 11:38:55.303313  7251 net.cpp:150] Setting up res3a_res3a_relu_0_split
I0725 11:38:55.303320  7251 net.cpp:157] Top shape: 2 512 128 128 (16777216)
I0725 11:38:55.303324  7251 net.cpp:157] Top shape: 2 512 128 128 (16777216)
I0725 11:38:55.303328  7251 net.cpp:165] Memory required for data: 5670699040
I0725 11:38:55.303330  7251 layer_factory.hpp:77] Creating layer res3b1_branch2a
I0725 11:38:55.303342  7251 net.cpp:100] Creating Layer res3b1_branch2a
I0725 11:38:55.303345  7251 net.cpp:434] res3b1_branch2a <- res3a_res3a_relu_0_split_0
I0725 11:38:55.303351  7251 net.cpp:408] res3b1_branch2a -> res3b1_branch2a
I0725 11:38:55.304955  7251 net.cpp:150] Setting up res3b1_branch2a
I0725 11:38:55.304980  7251 net.cpp:157] Top shape: 2 128 128 128 (4194304)
I0725 11:38:55.304985  7251 net.cpp:165] Memory required for data: 5687476256
I0725 11:38:55.304989  7251 layer_factory.hpp:77] Creating layer bn3b1_branch2a
I0725 11:38:55.304997  7251 net.cpp:100] Creating Layer bn3b1_branch2a
I0725 11:38:55.305001  7251 net.cpp:434] bn3b1_branch2a <- res3b1_branch2a
I0725 11:38:55.305006  7251 net.cpp:395] bn3b1_branch2a -> res3b1_branch2a (in-place)
I0725 11:38:55.305236  7251 net.cpp:150] Setting up bn3b1_branch2a
I0725 11:38:55.305245  7251 net.cpp:157] Top shape: 2 128 128 128 (4194304)
I0725 11:38:55.305248  7251 net.cpp:165] Memory required for data: 5704253472
I0725 11:38:55.305255  7251 layer_factory.hpp:77] Creating layer scale3b1_branch2a
I0725 11:38:55.305263  7251 net.cpp:100] Creating Layer scale3b1_branch2a
I0725 11:38:55.305266  7251 net.cpp:434] scale3b1_branch2a <- res3b1_branch2a
I0725 11:38:55.305271  7251 net.cpp:395] scale3b1_branch2a -> res3b1_branch2a (in-place)
I0725 11:38:55.305315  7251 layer_factory.hpp:77] Creating layer scale3b1_branch2a
I0725 11:38:55.305464  7251 net.cpp:150] Setting up scale3b1_branch2a
I0725 11:38:55.305474  7251 net.cpp:157] Top shape: 2 128 128 128 (4194304)
I0725 11:38:55.305476  7251 net.cpp:165] Memory required for data: 5721030688
I0725 11:38:55.305481  7251 layer_factory.hpp:77] Creating layer res3b1_branch2a_relu
I0725 11:38:55.305487  7251 net.cpp:100] Creating Layer res3b1_branch2a_relu
I0725 11:38:55.305490  7251 net.cpp:434] res3b1_branch2a_relu <- res3b1_branch2a
I0725 11:38:55.305511  7251 net.cpp:395] res3b1_branch2a_relu -> res3b1_branch2a (in-place)
I0725 11:38:55.305900  7251 net.cpp:150] Setting up res3b1_branch2a_relu
I0725 11:38:55.305912  7251 net.cpp:157] Top shape: 2 128 128 128 (4194304)
I0725 11:38:55.305927  7251 net.cpp:165] Memory required for data: 5737807904
I0725 11:38:55.305930  7251 layer_factory.hpp:77] Creating layer res3b1_branch2b
I0725 11:38:55.305943  7251 net.cpp:100] Creating Layer res3b1_branch2b
I0725 11:38:55.305946  7251 net.cpp:434] res3b1_branch2b <- res3b1_branch2a
I0725 11:38:55.305953  7251 net.cpp:408] res3b1_branch2b -> res3b1_branch2b
I0725 11:38:55.308462  7251 net.cpp:150] Setting up res3b1_branch2b
I0725 11:38:55.308490  7251 net.cpp:157] Top shape: 2 128 128 128 (4194304)
I0725 11:38:55.308493  7251 net.cpp:165] Memory required for data: 5754585120
I0725 11:38:55.308499  7251 layer_factory.hpp:77] Creating layer bn3b1_branch2b
I0725 11:38:55.308504  7251 net.cpp:100] Creating Layer bn3b1_branch2b
I0725 11:38:55.308508  7251 net.cpp:434] bn3b1_branch2b <- res3b1_branch2b
I0725 11:38:55.308516  7251 net.cpp:395] bn3b1_branch2b -> res3b1_branch2b (in-place)
I0725 11:38:55.308748  7251 net.cpp:150] Setting up bn3b1_branch2b
I0725 11:38:55.308756  7251 net.cpp:157] Top shape: 2 128 128 128 (4194304)
I0725 11:38:55.308759  7251 net.cpp:165] Memory required for data: 5771362336
I0725 11:38:55.308766  7251 layer_factory.hpp:77] Creating layer scale3b1_branch2b
I0725 11:38:55.308774  7251 net.cpp:100] Creating Layer scale3b1_branch2b
I0725 11:38:55.308779  7251 net.cpp:434] scale3b1_branch2b <- res3b1_branch2b
I0725 11:38:55.308784  7251 net.cpp:395] scale3b1_branch2b -> res3b1_branch2b (in-place)
I0725 11:38:55.308835  7251 layer_factory.hpp:77] Creating layer scale3b1_branch2b
I0725 11:38:55.308982  7251 net.cpp:150] Setting up scale3b1_branch2b
I0725 11:38:55.308990  7251 net.cpp:157] Top shape: 2 128 128 128 (4194304)
I0725 11:38:55.308993  7251 net.cpp:165] Memory required for data: 5788139552
I0725 11:38:55.308998  7251 layer_factory.hpp:77] Creating layer res3b1_branch2b_relu
I0725 11:38:55.309005  7251 net.cpp:100] Creating Layer res3b1_branch2b_relu
I0725 11:38:55.309007  7251 net.cpp:434] res3b1_branch2b_relu <- res3b1_branch2b
I0725 11:38:55.309013  7251 net.cpp:395] res3b1_branch2b_relu -> res3b1_branch2b (in-place)
I0725 11:38:55.309206  7251 net.cpp:150] Setting up res3b1_branch2b_relu
I0725 11:38:55.309216  7251 net.cpp:157] Top shape: 2 128 128 128 (4194304)
I0725 11:38:55.309218  7251 net.cpp:165] Memory required for data: 5804916768
I0725 11:38:55.309221  7251 layer_factory.hpp:77] Creating layer res3b1_branch2c
I0725 11:38:55.309232  7251 net.cpp:100] Creating Layer res3b1_branch2c
I0725 11:38:55.309236  7251 net.cpp:434] res3b1_branch2c <- res3b1_branch2b
I0725 11:38:55.309242  7251 net.cpp:408] res3b1_branch2c -> res3b1_branch2c
I0725 11:38:55.310770  7251 net.cpp:150] Setting up res3b1_branch2c
I0725 11:38:55.310796  7251 net.cpp:157] Top shape: 2 512 128 128 (16777216)
I0725 11:38:55.310799  7251 net.cpp:165] Memory required for data: 5872025632
I0725 11:38:55.310806  7251 layer_factory.hpp:77] Creating layer bn3b1_branch2c
I0725 11:38:55.310811  7251 net.cpp:100] Creating Layer bn3b1_branch2c
I0725 11:38:55.310814  7251 net.cpp:434] bn3b1_branch2c <- res3b1_branch2c
I0725 11:38:55.310820  7251 net.cpp:395] bn3b1_branch2c -> res3b1_branch2c (in-place)
I0725 11:38:55.311071  7251 net.cpp:150] Setting up bn3b1_branch2c
I0725 11:38:55.311080  7251 net.cpp:157] Top shape: 2 512 128 128 (16777216)
I0725 11:38:55.311084  7251 net.cpp:165] Memory required for data: 5939134496
I0725 11:38:55.311090  7251 layer_factory.hpp:77] Creating layer scale3b1_branch2c
I0725 11:38:55.311096  7251 net.cpp:100] Creating Layer scale3b1_branch2c
I0725 11:38:55.311100  7251 net.cpp:434] scale3b1_branch2c <- res3b1_branch2c
I0725 11:38:55.311105  7251 net.cpp:395] scale3b1_branch2c -> res3b1_branch2c (in-place)
I0725 11:38:55.311146  7251 layer_factory.hpp:77] Creating layer scale3b1_branch2c
I0725 11:38:55.311296  7251 net.cpp:150] Setting up scale3b1_branch2c
I0725 11:38:55.311316  7251 net.cpp:157] Top shape: 2 512 128 128 (16777216)
I0725 11:38:55.311319  7251 net.cpp:165] Memory required for data: 6006243360
I0725 11:38:55.311324  7251 layer_factory.hpp:77] Creating layer res3b1
I0725 11:38:55.311331  7251 net.cpp:100] Creating Layer res3b1
I0725 11:38:55.311333  7251 net.cpp:434] res3b1 <- res3a_res3a_relu_0_split_1
I0725 11:38:55.311338  7251 net.cpp:434] res3b1 <- res3b1_branch2c
I0725 11:38:55.311344  7251 net.cpp:408] res3b1 -> res3b1
I0725 11:38:55.311383  7251 net.cpp:150] Setting up res3b1
I0725 11:38:55.311390  7251 net.cpp:157] Top shape: 2 512 128 128 (16777216)
I0725 11:38:55.311393  7251 net.cpp:165] Memory required for data: 6073352224
I0725 11:38:55.311395  7251 layer_factory.hpp:77] Creating layer res3b1_relu
I0725 11:38:55.311404  7251 net.cpp:100] Creating Layer res3b1_relu
I0725 11:38:55.311408  7251 net.cpp:434] res3b1_relu <- res3b1
I0725 11:38:55.311411  7251 net.cpp:395] res3b1_relu -> res3b1 (in-place)
I0725 11:38:55.311596  7251 net.cpp:150] Setting up res3b1_relu
I0725 11:38:55.311606  7251 net.cpp:157] Top shape: 2 512 128 128 (16777216)
I0725 11:38:55.311609  7251 net.cpp:165] Memory required for data: 6140461088
I0725 11:38:55.311612  7251 layer_factory.hpp:77] Creating layer res3b1_res3b1_relu_0_split
I0725 11:38:55.311620  7251 net.cpp:100] Creating Layer res3b1_res3b1_relu_0_split
I0725 11:38:55.311623  7251 net.cpp:434] res3b1_res3b1_relu_0_split <- res3b1
I0725 11:38:55.311628  7251 net.cpp:408] res3b1_res3b1_relu_0_split -> res3b1_res3b1_relu_0_split_0
I0725 11:38:55.311638  7251 net.cpp:408] res3b1_res3b1_relu_0_split -> res3b1_res3b1_relu_0_split_1
I0725 11:38:55.311681  7251 net.cpp:150] Setting up res3b1_res3b1_relu_0_split
I0725 11:38:55.311688  7251 net.cpp:157] Top shape: 2 512 128 128 (16777216)
I0725 11:38:55.311692  7251 net.cpp:157] Top shape: 2 512 128 128 (16777216)
I0725 11:38:55.311694  7251 net.cpp:165] Memory required for data: 6274678816
I0725 11:38:55.311697  7251 layer_factory.hpp:77] Creating layer res3b2_branch2a
I0725 11:38:55.311718  7251 net.cpp:100] Creating Layer res3b2_branch2a
I0725 11:38:55.311724  7251 net.cpp:434] res3b2_branch2a <- res3b1_res3b1_relu_0_split_0
I0725 11:38:55.311729  7251 net.cpp:408] res3b2_branch2a -> res3b2_branch2a
I0725 11:38:55.313290  7251 net.cpp:150] Setting up res3b2_branch2a
I0725 11:38:55.313314  7251 net.cpp:157] Top shape: 2 128 128 128 (4194304)
I0725 11:38:55.313318  7251 net.cpp:165] Memory required for data: 6291456032
I0725 11:38:55.313323  7251 layer_factory.hpp:77] Creating layer bn3b2_branch2a
I0725 11:38:55.313331  7251 net.cpp:100] Creating Layer bn3b2_branch2a
I0725 11:38:55.313346  7251 net.cpp:434] bn3b2_branch2a <- res3b2_branch2a
I0725 11:38:55.313351  7251 net.cpp:395] bn3b2_branch2a -> res3b2_branch2a (in-place)
I0725 11:38:55.313588  7251 net.cpp:150] Setting up bn3b2_branch2a
I0725 11:38:55.313599  7251 net.cpp:157] Top shape: 2 128 128 128 (4194304)
I0725 11:38:55.313602  7251 net.cpp:165] Memory required for data: 6308233248
I0725 11:38:55.313609  7251 layer_factory.hpp:77] Creating layer scale3b2_branch2a
I0725 11:38:55.313616  7251 net.cpp:100] Creating Layer scale3b2_branch2a
I0725 11:38:55.313619  7251 net.cpp:434] scale3b2_branch2a <- res3b2_branch2a
I0725 11:38:55.313623  7251 net.cpp:395] scale3b2_branch2a -> res3b2_branch2a (in-place)
I0725 11:38:55.313669  7251 layer_factory.hpp:77] Creating layer scale3b2_branch2a
I0725 11:38:55.313815  7251 net.cpp:150] Setting up scale3b2_branch2a
I0725 11:38:55.313824  7251 net.cpp:157] Top shape: 2 128 128 128 (4194304)
I0725 11:38:55.313827  7251 net.cpp:165] Memory required for data: 6325010464
I0725 11:38:55.313833  7251 layer_factory.hpp:77] Creating layer res3b2_branch2a_relu
I0725 11:38:55.313838  7251 net.cpp:100] Creating Layer res3b2_branch2a_relu
I0725 11:38:55.313841  7251 net.cpp:434] res3b2_branch2a_relu <- res3b2_branch2a
I0725 11:38:55.313848  7251 net.cpp:395] res3b2_branch2a_relu -> res3b2_branch2a (in-place)
I0725 11:38:55.314038  7251 net.cpp:150] Setting up res3b2_branch2a_relu
I0725 11:38:55.314059  7251 net.cpp:157] Top shape: 2 128 128 128 (4194304)
I0725 11:38:55.314061  7251 net.cpp:165] Memory required for data: 6341787680
I0725 11:38:55.314065  7251 layer_factory.hpp:77] Creating layer res3b2_branch2b
I0725 11:38:55.314075  7251 net.cpp:100] Creating Layer res3b2_branch2b
I0725 11:38:55.314079  7251 net.cpp:434] res3b2_branch2b <- res3b2_branch2a
I0725 11:38:55.314086  7251 net.cpp:408] res3b2_branch2b -> res3b2_branch2b
I0725 11:38:55.316586  7251 net.cpp:150] Setting up res3b2_branch2b
I0725 11:38:55.316609  7251 net.cpp:157] Top shape: 2 128 128 128 (4194304)
I0725 11:38:55.316612  7251 net.cpp:165] Memory required for data: 6358564896
I0725 11:38:55.316618  7251 layer_factory.hpp:77] Creating layer bn3b2_branch2b
I0725 11:38:55.316627  7251 net.cpp:100] Creating Layer bn3b2_branch2b
I0725 11:38:55.316630  7251 net.cpp:434] bn3b2_branch2b <- res3b2_branch2b
I0725 11:38:55.316634  7251 net.cpp:395] bn3b2_branch2b -> res3b2_branch2b (in-place)
I0725 11:38:55.316869  7251 net.cpp:150] Setting up bn3b2_branch2b
I0725 11:38:55.316880  7251 net.cpp:157] Top shape: 2 128 128 128 (4194304)
I0725 11:38:55.316884  7251 net.cpp:165] Memory required for data: 6375342112
I0725 11:38:55.316890  7251 layer_factory.hpp:77] Creating layer scale3b2_branch2b
I0725 11:38:55.316897  7251 net.cpp:100] Creating Layer scale3b2_branch2b
I0725 11:38:55.316900  7251 net.cpp:434] scale3b2_branch2b <- res3b2_branch2b
I0725 11:38:55.316905  7251 net.cpp:395] scale3b2_branch2b -> res3b2_branch2b (in-place)
I0725 11:38:55.316951  7251 layer_factory.hpp:77] Creating layer scale3b2_branch2b
I0725 11:38:55.318049  7251 net.cpp:150] Setting up scale3b2_branch2b
I0725 11:38:55.318063  7251 net.cpp:157] Top shape: 2 128 128 128 (4194304)
I0725 11:38:55.318078  7251 net.cpp:165] Memory required for data: 6392119328
I0725 11:38:55.318084  7251 layer_factory.hpp:77] Creating layer res3b2_branch2b_relu
I0725 11:38:55.318089  7251 net.cpp:100] Creating Layer res3b2_branch2b_relu
I0725 11:38:55.318094  7251 net.cpp:434] res3b2_branch2b_relu <- res3b2_branch2b
I0725 11:38:55.318100  7251 net.cpp:395] res3b2_branch2b_relu -> res3b2_branch2b (in-place)
I0725 11:38:55.318507  7251 net.cpp:150] Setting up res3b2_branch2b_relu
I0725 11:38:55.318521  7251 net.cpp:157] Top shape: 2 128 128 128 (4194304)
I0725 11:38:55.318536  7251 net.cpp:165] Memory required for data: 6408896544
I0725 11:38:55.318539  7251 layer_factory.hpp:77] Creating layer res3b2_branch2c
I0725 11:38:55.318552  7251 net.cpp:100] Creating Layer res3b2_branch2c
I0725 11:38:55.318557  7251 net.cpp:434] res3b2_branch2c <- res3b2_branch2b
I0725 11:38:55.318562  7251 net.cpp:408] res3b2_branch2c -> res3b2_branch2c
I0725 11:38:55.319970  7251 net.cpp:150] Setting up res3b2_branch2c
I0725 11:38:55.319996  7251 net.cpp:157] Top shape: 2 512 128 128 (16777216)
I0725 11:38:55.320000  7251 net.cpp:165] Memory required for data: 6476005408
I0725 11:38:55.320005  7251 layer_factory.hpp:77] Creating layer bn3b2_branch2c
I0725 11:38:55.320011  7251 net.cpp:100] Creating Layer bn3b2_branch2c
I0725 11:38:55.320014  7251 net.cpp:434] bn3b2_branch2c <- res3b2_branch2c
I0725 11:38:55.320027  7251 net.cpp:395] bn3b2_branch2c -> res3b2_branch2c (in-place)
I0725 11:38:55.320258  7251 net.cpp:150] Setting up bn3b2_branch2c
I0725 11:38:55.320268  7251 net.cpp:157] Top shape: 2 512 128 128 (16777216)
I0725 11:38:55.320271  7251 net.cpp:165] Memory required for data: 6543114272
I0725 11:38:55.320278  7251 layer_factory.hpp:77] Creating layer scale3b2_branch2c
I0725 11:38:55.320284  7251 net.cpp:100] Creating Layer scale3b2_branch2c
I0725 11:38:55.320289  7251 net.cpp:434] scale3b2_branch2c <- res3b2_branch2c
I0725 11:38:55.320293  7251 net.cpp:395] scale3b2_branch2c -> res3b2_branch2c (in-place)
I0725 11:38:55.320334  7251 layer_factory.hpp:77] Creating layer scale3b2_branch2c
I0725 11:38:55.320468  7251 net.cpp:150] Setting up scale3b2_branch2c
I0725 11:38:55.320477  7251 net.cpp:157] Top shape: 2 512 128 128 (16777216)
I0725 11:38:55.320479  7251 net.cpp:165] Memory required for data: 6610223136
I0725 11:38:55.320495  7251 layer_factory.hpp:77] Creating layer res3b2
I0725 11:38:55.320502  7251 net.cpp:100] Creating Layer res3b2
I0725 11:38:55.320507  7251 net.cpp:434] res3b2 <- res3b1_res3b1_relu_0_split_1
I0725 11:38:55.320510  7251 net.cpp:434] res3b2 <- res3b2_branch2c
I0725 11:38:55.320518  7251 net.cpp:408] res3b2 -> res3b2
I0725 11:38:55.320546  7251 net.cpp:150] Setting up res3b2
I0725 11:38:55.320554  7251 net.cpp:157] Top shape: 2 512 128 128 (16777216)
I0725 11:38:55.320556  7251 net.cpp:165] Memory required for data: 6677332000
I0725 11:38:55.320559  7251 layer_factory.hpp:77] Creating layer res3b2_relu
I0725 11:38:55.320566  7251 net.cpp:100] Creating Layer res3b2_relu
I0725 11:38:55.320570  7251 net.cpp:434] res3b2_relu <- res3b2
I0725 11:38:55.320574  7251 net.cpp:395] res3b2_relu -> res3b2 (in-place)
I0725 11:38:55.320971  7251 net.cpp:150] Setting up res3b2_relu
I0725 11:38:55.320982  7251 net.cpp:157] Top shape: 2 512 128 128 (16777216)
I0725 11:38:55.320996  7251 net.cpp:165] Memory required for data: 6744440864
I0725 11:38:55.320999  7251 layer_factory.hpp:77] Creating layer res3b2_res3b2_relu_0_split
I0725 11:38:55.321007  7251 net.cpp:100] Creating Layer res3b2_res3b2_relu_0_split
I0725 11:38:55.321012  7251 net.cpp:434] res3b2_res3b2_relu_0_split <- res3b2
I0725 11:38:55.321017  7251 net.cpp:408] res3b2_res3b2_relu_0_split -> res3b2_res3b2_relu_0_split_0
I0725 11:38:55.321024  7251 net.cpp:408] res3b2_res3b2_relu_0_split -> res3b2_res3b2_relu_0_split_1
I0725 11:38:55.321071  7251 net.cpp:150] Setting up res3b2_res3b2_relu_0_split
I0725 11:38:55.321079  7251 net.cpp:157] Top shape: 2 512 128 128 (16777216)
I0725 11:38:55.321082  7251 net.cpp:157] Top shape: 2 512 128 128 (16777216)
I0725 11:38:55.321085  7251 net.cpp:165] Memory required for data: 6878658592
I0725 11:38:55.321089  7251 layer_factory.hpp:77] Creating layer res3b3_branch2a
I0725 11:38:55.321099  7251 net.cpp:100] Creating Layer res3b3_branch2a
I0725 11:38:55.321101  7251 net.cpp:434] res3b3_branch2a <- res3b2_res3b2_relu_0_split_0
I0725 11:38:55.321108  7251 net.cpp:408] res3b3_branch2a -> res3b3_branch2a
I0725 11:38:55.322700  7251 net.cpp:150] Setting up res3b3_branch2a
I0725 11:38:55.322713  7251 net.cpp:157] Top shape: 2 128 128 128 (4194304)
I0725 11:38:55.322726  7251 net.cpp:165] Memory required for data: 6895435808
I0725 11:38:55.322731  7251 layer_factory.hpp:77] Creating layer bn3b3_branch2a
I0725 11:38:55.322739  7251 net.cpp:100] Creating Layer bn3b3_branch2a
I0725 11:38:55.322743  7251 net.cpp:434] bn3b3_branch2a <- res3b3_branch2a
I0725 11:38:55.322747  7251 net.cpp:395] bn3b3_branch2a -> res3b3_branch2a (in-place)
I0725 11:38:55.322976  7251 net.cpp:150] Setting up bn3b3_branch2a
I0725 11:38:55.322985  7251 net.cpp:157] Top shape: 2 128 128 128 (4194304)
I0725 11:38:55.322988  7251 net.cpp:165] Memory required for data: 6912213024
I0725 11:38:55.323007  7251 layer_factory.hpp:77] Creating layer scale3b3_branch2a
I0725 11:38:55.323015  7251 net.cpp:100] Creating Layer scale3b3_branch2a
I0725 11:38:55.323019  7251 net.cpp:434] scale3b3_branch2a <- res3b3_branch2a
I0725 11:38:55.323026  7251 net.cpp:395] scale3b3_branch2a -> res3b3_branch2a (in-place)
I0725 11:38:55.323072  7251 layer_factory.hpp:77] Creating layer scale3b3_branch2a
I0725 11:38:55.323202  7251 net.cpp:150] Setting up scale3b3_branch2a
I0725 11:38:55.323211  7251 net.cpp:157] Top shape: 2 128 128 128 (4194304)
I0725 11:38:55.323215  7251 net.cpp:165] Memory required for data: 6928990240
I0725 11:38:55.323220  7251 layer_factory.hpp:77] Creating layer res3b3_branch2a_relu
I0725 11:38:55.323225  7251 net.cpp:100] Creating Layer res3b3_branch2a_relu
I0725 11:38:55.323228  7251 net.cpp:434] res3b3_branch2a_relu <- res3b3_branch2a
I0725 11:38:55.323233  7251 net.cpp:395] res3b3_branch2a_relu -> res3b3_branch2a (in-place)
I0725 11:38:55.323424  7251 net.cpp:150] Setting up res3b3_branch2a_relu
I0725 11:38:55.323436  7251 net.cpp:157] Top shape: 2 128 128 128 (4194304)
I0725 11:38:55.323438  7251 net.cpp:165] Memory required for data: 6945767456
I0725 11:38:55.323451  7251 layer_factory.hpp:77] Creating layer res3b3_branch2b
I0725 11:38:55.323462  7251 net.cpp:100] Creating Layer res3b3_branch2b
I0725 11:38:55.323465  7251 net.cpp:434] res3b3_branch2b <- res3b3_branch2a
I0725 11:38:55.323472  7251 net.cpp:408] res3b3_branch2b -> res3b3_branch2b
I0725 11:38:55.326933  7251 net.cpp:150] Setting up res3b3_branch2b
I0725 11:38:55.326957  7251 net.cpp:157] Top shape: 2 128 128 128 (4194304)
I0725 11:38:55.326961  7251 net.cpp:165] Memory required for data: 6962544672
I0725 11:38:55.326967  7251 layer_factory.hpp:77] Creating layer bn3b3_branch2b
I0725 11:38:55.326974  7251 net.cpp:100] Creating Layer bn3b3_branch2b
I0725 11:38:55.326978  7251 net.cpp:434] bn3b3_branch2b <- res3b3_branch2b
I0725 11:38:55.326985  7251 net.cpp:395] bn3b3_branch2b -> res3b3_branch2b (in-place)
I0725 11:38:55.327219  7251 net.cpp:150] Setting up bn3b3_branch2b
I0725 11:38:55.327229  7251 net.cpp:157] Top shape: 2 128 128 128 (4194304)
I0725 11:38:55.327231  7251 net.cpp:165] Memory required for data: 6979321888
I0725 11:38:55.327239  7251 layer_factory.hpp:77] Creating layer scale3b3_branch2b
I0725 11:38:55.327246  7251 net.cpp:100] Creating Layer scale3b3_branch2b
I0725 11:38:55.327250  7251 net.cpp:434] scale3b3_branch2b <- res3b3_branch2b
I0725 11:38:55.327255  7251 net.cpp:395] scale3b3_branch2b -> res3b3_branch2b (in-place)
I0725 11:38:55.327301  7251 layer_factory.hpp:77] Creating layer scale3b3_branch2b
I0725 11:38:55.327435  7251 net.cpp:150] Setting up scale3b3_branch2b
I0725 11:38:55.327445  7251 net.cpp:157] Top shape: 2 128 128 128 (4194304)
I0725 11:38:55.327447  7251 net.cpp:165] Memory required for data: 6996099104
I0725 11:38:55.327452  7251 layer_factory.hpp:77] Creating layer res3b3_branch2b_relu
I0725 11:38:55.327458  7251 net.cpp:100] Creating Layer res3b3_branch2b_relu
I0725 11:38:55.327461  7251 net.cpp:434] res3b3_branch2b_relu <- res3b3_branch2b
I0725 11:38:55.327467  7251 net.cpp:395] res3b3_branch2b_relu -> res3b3_branch2b (in-place)
I0725 11:38:55.327666  7251 net.cpp:150] Setting up res3b3_branch2b_relu
I0725 11:38:55.327677  7251 net.cpp:157] Top shape: 2 128 128 128 (4194304)
I0725 11:38:55.327679  7251 net.cpp:165] Memory required for data: 7012876320
I0725 11:38:55.327682  7251 layer_factory.hpp:77] Creating layer res3b3_branch2c
I0725 11:38:55.327695  7251 net.cpp:100] Creating Layer res3b3_branch2c
I0725 11:38:55.327699  7251 net.cpp:434] res3b3_branch2c <- res3b3_branch2b
I0725 11:38:55.327704  7251 net.cpp:408] res3b3_branch2c -> res3b3_branch2c
I0725 11:38:55.330238  7251 net.cpp:150] Setting up res3b3_branch2c
I0725 11:38:55.330265  7251 net.cpp:157] Top shape: 2 512 128 128 (16777216)
I0725 11:38:55.330268  7251 net.cpp:165] Memory required for data: 7079985184
I0725 11:38:55.330274  7251 layer_factory.hpp:77] Creating layer bn3b3_branch2c
I0725 11:38:55.330279  7251 net.cpp:100] Creating Layer bn3b3_branch2c
I0725 11:38:55.330283  7251 net.cpp:434] bn3b3_branch2c <- res3b3_branch2c
I0725 11:38:55.330291  7251 net.cpp:395] bn3b3_branch2c -> res3b3_branch2c (in-place)
I0725 11:38:55.330521  7251 net.cpp:150] Setting up bn3b3_branch2c
I0725 11:38:55.330530  7251 net.cpp:157] Top shape: 2 512 128 128 (16777216)
I0725 11:38:55.330533  7251 net.cpp:165] Memory required for data: 7147094048
I0725 11:38:55.330540  7251 layer_factory.hpp:77] Creating layer scale3b3_branch2c
I0725 11:38:55.330549  7251 net.cpp:100] Creating Layer scale3b3_branch2c
I0725 11:38:55.330554  7251 net.cpp:434] scale3b3_branch2c <- res3b3_branch2c
I0725 11:38:55.330559  7251 net.cpp:395] scale3b3_branch2c -> res3b3_branch2c (in-place)
I0725 11:38:55.330600  7251 layer_factory.hpp:77] Creating layer scale3b3_branch2c
I0725 11:38:55.330739  7251 net.cpp:150] Setting up scale3b3_branch2c
I0725 11:38:55.330746  7251 net.cpp:157] Top shape: 2 512 128 128 (16777216)
I0725 11:38:55.330749  7251 net.cpp:165] Memory required for data: 7214202912
I0725 11:38:55.330754  7251 layer_factory.hpp:77] Creating layer res3b3
I0725 11:38:55.330762  7251 net.cpp:100] Creating Layer res3b3
I0725 11:38:55.330776  7251 net.cpp:434] res3b3 <- res3b2_res3b2_relu_0_split_1
I0725 11:38:55.330781  7251 net.cpp:434] res3b3 <- res3b3_branch2c
I0725 11:38:55.330786  7251 net.cpp:408] res3b3 -> res3b3
I0725 11:38:55.330817  7251 net.cpp:150] Setting up res3b3
I0725 11:38:55.330826  7251 net.cpp:157] Top shape: 2 512 128 128 (16777216)
I0725 11:38:55.330827  7251 net.cpp:165] Memory required for data: 7281311776
I0725 11:38:55.330830  7251 layer_factory.hpp:77] Creating layer res3b3_relu
I0725 11:38:55.330835  7251 net.cpp:100] Creating Layer res3b3_relu
I0725 11:38:55.330838  7251 net.cpp:434] res3b3_relu <- res3b3
I0725 11:38:55.330844  7251 net.cpp:395] res3b3_relu -> res3b3 (in-place)
I0725 11:38:55.331040  7251 net.cpp:150] Setting up res3b3_relu
I0725 11:38:55.331053  7251 net.cpp:157] Top shape: 2 512 128 128 (16777216)
I0725 11:38:55.331056  7251 net.cpp:165] Memory required for data: 7348420640
I0725 11:38:55.331059  7251 layer_factory.hpp:77] Creating layer res3b3_res3b3_relu_0_split
I0725 11:38:55.331065  7251 net.cpp:100] Creating Layer res3b3_res3b3_relu_0_split
I0725 11:38:55.331068  7251 net.cpp:434] res3b3_res3b3_relu_0_split <- res3b3
I0725 11:38:55.331075  7251 net.cpp:408] res3b3_res3b3_relu_0_split -> res3b3_res3b3_relu_0_split_0
I0725 11:38:55.331082  7251 net.cpp:408] res3b3_res3b3_relu_0_split -> res3b3_res3b3_relu_0_split_1
I0725 11:38:55.331128  7251 net.cpp:150] Setting up res3b3_res3b3_relu_0_split
I0725 11:38:55.331137  7251 net.cpp:157] Top shape: 2 512 128 128 (16777216)
I0725 11:38:55.331141  7251 net.cpp:157] Top shape: 2 512 128 128 (16777216)
I0725 11:38:55.331143  7251 net.cpp:165] Memory required for data: 7482638368
I0725 11:38:55.331146  7251 layer_factory.hpp:77] Creating layer res4a_branch1
I0725 11:38:55.331156  7251 net.cpp:100] Creating Layer res4a_branch1
I0725 11:38:55.331161  7251 net.cpp:434] res4a_branch1 <- res3b3_res3b3_relu_0_split_0
I0725 11:38:55.331166  7251 net.cpp:408] res4a_branch1 -> res4a_branch1
I0725 11:38:55.337998  7251 net.cpp:150] Setting up res4a_branch1
I0725 11:38:55.338023  7251 net.cpp:157] Top shape: 2 1024 64 64 (8388608)
I0725 11:38:55.338027  7251 net.cpp:165] Memory required for data: 7516192800
I0725 11:38:55.338032  7251 layer_factory.hpp:77] Creating layer bn4a_branch1
I0725 11:38:55.338040  7251 net.cpp:100] Creating Layer bn4a_branch1
I0725 11:38:55.338044  7251 net.cpp:434] bn4a_branch1 <- res4a_branch1
I0725 11:38:55.338052  7251 net.cpp:395] bn4a_branch1 -> res4a_branch1 (in-place)
I0725 11:38:55.338282  7251 net.cpp:150] Setting up bn4a_branch1
I0725 11:38:55.338292  7251 net.cpp:157] Top shape: 2 1024 64 64 (8388608)
I0725 11:38:55.338295  7251 net.cpp:165] Memory required for data: 7549747232
I0725 11:38:55.338302  7251 layer_factory.hpp:77] Creating layer scale4a_branch1
I0725 11:38:55.338310  7251 net.cpp:100] Creating Layer scale4a_branch1
I0725 11:38:55.338315  7251 net.cpp:434] scale4a_branch1 <- res4a_branch1
I0725 11:38:55.338320  7251 net.cpp:395] scale4a_branch1 -> res4a_branch1 (in-place)
I0725 11:38:55.338361  7251 layer_factory.hpp:77] Creating layer scale4a_branch1
I0725 11:38:55.338490  7251 net.cpp:150] Setting up scale4a_branch1
I0725 11:38:55.338497  7251 net.cpp:157] Top shape: 2 1024 64 64 (8388608)
I0725 11:38:55.338500  7251 net.cpp:165] Memory required for data: 7583301664
I0725 11:38:55.338505  7251 layer_factory.hpp:77] Creating layer res4a_branch2a
I0725 11:38:55.338515  7251 net.cpp:100] Creating Layer res4a_branch2a
I0725 11:38:55.338518  7251 net.cpp:434] res4a_branch2a <- res3b3_res3b3_relu_0_split_1
I0725 11:38:55.338524  7251 net.cpp:408] res4a_branch2a -> res4a_branch2a
I0725 11:38:55.340714  7251 net.cpp:150] Setting up res4a_branch2a
I0725 11:38:55.340741  7251 net.cpp:157] Top shape: 2 256 64 64 (2097152)
I0725 11:38:55.340745  7251 net.cpp:165] Memory required for data: 7591690272
I0725 11:38:55.340750  7251 layer_factory.hpp:77] Creating layer bn4a_branch2a
I0725 11:38:55.340756  7251 net.cpp:100] Creating Layer bn4a_branch2a
I0725 11:38:55.340761  7251 net.cpp:434] bn4a_branch2a <- res4a_branch2a
I0725 11:38:55.340778  7251 net.cpp:395] bn4a_branch2a -> res4a_branch2a (in-place)
I0725 11:38:55.341012  7251 net.cpp:150] Setting up bn4a_branch2a
I0725 11:38:55.341020  7251 net.cpp:157] Top shape: 2 256 64 64 (2097152)
I0725 11:38:55.341024  7251 net.cpp:165] Memory required for data: 7600078880
I0725 11:38:55.341032  7251 layer_factory.hpp:77] Creating layer scale4a_branch2a
I0725 11:38:55.341039  7251 net.cpp:100] Creating Layer scale4a_branch2a
I0725 11:38:55.341043  7251 net.cpp:434] scale4a_branch2a <- res4a_branch2a
I0725 11:38:55.341048  7251 net.cpp:395] scale4a_branch2a -> res4a_branch2a (in-place)
I0725 11:38:55.341094  7251 layer_factory.hpp:77] Creating layer scale4a_branch2a
I0725 11:38:55.341217  7251 net.cpp:150] Setting up scale4a_branch2a
I0725 11:38:55.341225  7251 net.cpp:157] Top shape: 2 256 64 64 (2097152)
I0725 11:38:55.341228  7251 net.cpp:165] Memory required for data: 7608467488
I0725 11:38:55.341233  7251 layer_factory.hpp:77] Creating layer res4a_branch2a_relu
I0725 11:38:55.341238  7251 net.cpp:100] Creating Layer res4a_branch2a_relu
I0725 11:38:55.341243  7251 net.cpp:434] res4a_branch2a_relu <- res4a_branch2a
I0725 11:38:55.341248  7251 net.cpp:395] res4a_branch2a_relu -> res4a_branch2a (in-place)
I0725 11:38:55.341442  7251 net.cpp:150] Setting up res4a_branch2a_relu
I0725 11:38:55.341452  7251 net.cpp:157] Top shape: 2 256 64 64 (2097152)
I0725 11:38:55.341455  7251 net.cpp:165] Memory required for data: 7616856096
I0725 11:38:55.341459  7251 layer_factory.hpp:77] Creating layer res4a_branch2b
I0725 11:38:55.341470  7251 net.cpp:100] Creating Layer res4a_branch2b
I0725 11:38:55.341472  7251 net.cpp:434] res4a_branch2b <- res4a_branch2a
I0725 11:38:55.341478  7251 net.cpp:408] res4a_branch2b -> res4a_branch2b
I0725 11:38:55.349004  7251 net.cpp:150] Setting up res4a_branch2b
I0725 11:38:55.349032  7251 net.cpp:157] Top shape: 2 256 64 64 (2097152)
I0725 11:38:55.349035  7251 net.cpp:165] Memory required for data: 7625244704
I0725 11:38:55.349041  7251 layer_factory.hpp:77] Creating layer bn4a_branch2b
I0725 11:38:55.349047  7251 net.cpp:100] Creating Layer bn4a_branch2b
I0725 11:38:55.349051  7251 net.cpp:434] bn4a_branch2b <- res4a_branch2b
I0725 11:38:55.349058  7251 net.cpp:395] bn4a_branch2b -> res4a_branch2b (in-place)
I0725 11:38:55.349287  7251 net.cpp:150] Setting up bn4a_branch2b
I0725 11:38:55.349297  7251 net.cpp:157] Top shape: 2 256 64 64 (2097152)
I0725 11:38:55.349299  7251 net.cpp:165] Memory required for data: 7633633312
I0725 11:38:55.349306  7251 layer_factory.hpp:77] Creating layer scale4a_branch2b
I0725 11:38:55.349313  7251 net.cpp:100] Creating Layer scale4a_branch2b
I0725 11:38:55.349316  7251 net.cpp:434] scale4a_branch2b <- res4a_branch2b
I0725 11:38:55.349323  7251 net.cpp:395] scale4a_branch2b -> res4a_branch2b (in-place)
I0725 11:38:55.349367  7251 layer_factory.hpp:77] Creating layer scale4a_branch2b
I0725 11:38:55.349489  7251 net.cpp:150] Setting up scale4a_branch2b
I0725 11:38:55.349498  7251 net.cpp:157] Top shape: 2 256 64 64 (2097152)
I0725 11:38:55.349501  7251 net.cpp:165] Memory required for data: 7642021920
I0725 11:38:55.349506  7251 layer_factory.hpp:77] Creating layer res4a_branch2b_relu
I0725 11:38:55.349514  7251 net.cpp:100] Creating Layer res4a_branch2b_relu
I0725 11:38:55.349517  7251 net.cpp:434] res4a_branch2b_relu <- res4a_branch2b
I0725 11:38:55.349522  7251 net.cpp:395] res4a_branch2b_relu -> res4a_branch2b (in-place)
I0725 11:38:55.349725  7251 net.cpp:150] Setting up res4a_branch2b_relu
I0725 11:38:55.349736  7251 net.cpp:157] Top shape: 2 256 64 64 (2097152)
I0725 11:38:55.349740  7251 net.cpp:165] Memory required for data: 7650410528
I0725 11:38:55.349743  7251 layer_factory.hpp:77] Creating layer res4a_branch2c
I0725 11:38:55.349755  7251 net.cpp:100] Creating Layer res4a_branch2c
I0725 11:38:55.349758  7251 net.cpp:434] res4a_branch2c <- res4a_branch2b
I0725 11:38:55.349766  7251 net.cpp:408] res4a_branch2c -> res4a_branch2c
I0725 11:38:55.354065  7251 net.cpp:150] Setting up res4a_branch2c
I0725 11:38:55.354090  7251 net.cpp:157] Top shape: 2 1024 64 64 (8388608)
I0725 11:38:55.354104  7251 net.cpp:165] Memory required for data: 7683964960
I0725 11:38:55.354110  7251 layer_factory.hpp:77] Creating layer bn4a_branch2c
I0725 11:38:55.354118  7251 net.cpp:100] Creating Layer bn4a_branch2c
I0725 11:38:55.354122  7251 net.cpp:434] bn4a_branch2c <- res4a_branch2c
I0725 11:38:55.354127  7251 net.cpp:395] bn4a_branch2c -> res4a_branch2c (in-place)
I0725 11:38:55.354360  7251 net.cpp:150] Setting up bn4a_branch2c
I0725 11:38:55.354369  7251 net.cpp:157] Top shape: 2 1024 64 64 (8388608)
I0725 11:38:55.354372  7251 net.cpp:165] Memory required for data: 7717519392
I0725 11:38:55.354379  7251 layer_factory.hpp:77] Creating layer scale4a_branch2c
I0725 11:38:55.354387  7251 net.cpp:100] Creating Layer scale4a_branch2c
I0725 11:38:55.354390  7251 net.cpp:434] scale4a_branch2c <- res4a_branch2c
I0725 11:38:55.354398  7251 net.cpp:395] scale4a_branch2c -> res4a_branch2c (in-place)
I0725 11:38:55.354440  7251 layer_factory.hpp:77] Creating layer scale4a_branch2c
I0725 11:38:55.354570  7251 net.cpp:150] Setting up scale4a_branch2c
I0725 11:38:55.354580  7251 net.cpp:157] Top shape: 2 1024 64 64 (8388608)
I0725 11:38:55.354583  7251 net.cpp:165] Memory required for data: 7751073824
I0725 11:38:55.354588  7251 layer_factory.hpp:77] Creating layer res4a
I0725 11:38:55.354593  7251 net.cpp:100] Creating Layer res4a
I0725 11:38:55.354598  7251 net.cpp:434] res4a <- res4a_branch1
I0725 11:38:55.354601  7251 net.cpp:434] res4a <- res4a_branch2c
I0725 11:38:55.354605  7251 net.cpp:408] res4a -> res4a
I0725 11:38:55.354635  7251 net.cpp:150] Setting up res4a
I0725 11:38:55.354641  7251 net.cpp:157] Top shape: 2 1024 64 64 (8388608)
I0725 11:38:55.354645  7251 net.cpp:165] Memory required for data: 7784628256
I0725 11:38:55.354647  7251 layer_factory.hpp:77] Creating layer res4a_relu
I0725 11:38:55.354651  7251 net.cpp:100] Creating Layer res4a_relu
I0725 11:38:55.354656  7251 net.cpp:434] res4a_relu <- res4a
I0725 11:38:55.354660  7251 net.cpp:395] res4a_relu -> res4a (in-place)
I0725 11:38:55.355067  7251 net.cpp:150] Setting up res4a_relu
I0725 11:38:55.355079  7251 net.cpp:157] Top shape: 2 1024 64 64 (8388608)
I0725 11:38:55.355094  7251 net.cpp:165] Memory required for data: 7818182688
I0725 11:38:55.355098  7251 layer_factory.hpp:77] Creating layer res4a_res4a_relu_0_split
I0725 11:38:55.355121  7251 net.cpp:100] Creating Layer res4a_res4a_relu_0_split
I0725 11:38:55.355125  7251 net.cpp:434] res4a_res4a_relu_0_split <- res4a
I0725 11:38:55.355131  7251 net.cpp:408] res4a_res4a_relu_0_split -> res4a_res4a_relu_0_split_0
I0725 11:38:55.355139  7251 net.cpp:408] res4a_res4a_relu_0_split -> res4a_res4a_relu_0_split_1
I0725 11:38:55.355186  7251 net.cpp:150] Setting up res4a_res4a_relu_0_split
I0725 11:38:55.355195  7251 net.cpp:157] Top shape: 2 1024 64 64 (8388608)
I0725 11:38:55.355197  7251 net.cpp:157] Top shape: 2 1024 64 64 (8388608)
I0725 11:38:55.355201  7251 net.cpp:165] Memory required for data: 7885291552
I0725 11:38:55.355204  7251 layer_factory.hpp:77] Creating layer res4b1_branch2a
I0725 11:38:55.355214  7251 net.cpp:100] Creating Layer res4b1_branch2a
I0725 11:38:55.355218  7251 net.cpp:434] res4b1_branch2a <- res4a_res4a_relu_0_split_0
I0725 11:38:55.355226  7251 net.cpp:408] res4b1_branch2a -> res4b1_branch2a
I0725 11:38:55.358604  7251 net.cpp:150] Setting up res4b1_branch2a
I0725 11:38:55.358630  7251 net.cpp:157] Top shape: 2 256 64 64 (2097152)
I0725 11:38:55.358634  7251 net.cpp:165] Memory required for data: 7893680160
I0725 11:38:55.358639  7251 layer_factory.hpp:77] Creating layer bn4b1_branch2a
I0725 11:38:55.358647  7251 net.cpp:100] Creating Layer bn4b1_branch2a
I0725 11:38:55.358651  7251 net.cpp:434] bn4b1_branch2a <- res4b1_branch2a
I0725 11:38:55.358656  7251 net.cpp:395] bn4b1_branch2a -> res4b1_branch2a (in-place)
I0725 11:38:55.358883  7251 net.cpp:150] Setting up bn4b1_branch2a
I0725 11:38:55.358896  7251 net.cpp:157] Top shape: 2 256 64 64 (2097152)
I0725 11:38:55.358899  7251 net.cpp:165] Memory required for data: 7902068768
I0725 11:38:55.358916  7251 layer_factory.hpp:77] Creating layer scale4b1_branch2a
I0725 11:38:55.358924  7251 net.cpp:100] Creating Layer scale4b1_branch2a
I0725 11:38:55.358927  7251 net.cpp:434] scale4b1_branch2a <- res4b1_branch2a
I0725 11:38:55.358932  7251 net.cpp:395] scale4b1_branch2a -> res4b1_branch2a (in-place)
I0725 11:38:55.358983  7251 layer_factory.hpp:77] Creating layer scale4b1_branch2a
I0725 11:38:55.359109  7251 net.cpp:150] Setting up scale4b1_branch2a
I0725 11:38:55.359117  7251 net.cpp:157] Top shape: 2 256 64 64 (2097152)
I0725 11:38:55.359120  7251 net.cpp:165] Memory required for data: 7910457376
I0725 11:38:55.359125  7251 layer_factory.hpp:77] Creating layer res4b1_branch2a_relu
I0725 11:38:55.359133  7251 net.cpp:100] Creating Layer res4b1_branch2a_relu
I0725 11:38:55.359135  7251 net.cpp:434] res4b1_branch2a_relu <- res4b1_branch2a
I0725 11:38:55.359140  7251 net.cpp:395] res4b1_branch2a_relu -> res4b1_branch2a (in-place)
I0725 11:38:55.359334  7251 net.cpp:150] Setting up res4b1_branch2a_relu
I0725 11:38:55.359345  7251 net.cpp:157] Top shape: 2 256 64 64 (2097152)
I0725 11:38:55.359347  7251 net.cpp:165] Memory required for data: 7918845984
I0725 11:38:55.359351  7251 layer_factory.hpp:77] Creating layer res4b1_branch2b
I0725 11:38:55.359361  7251 net.cpp:100] Creating Layer res4b1_branch2b
I0725 11:38:55.359364  7251 net.cpp:434] res4b1_branch2b <- res4b1_branch2a
I0725 11:38:55.359372  7251 net.cpp:408] res4b1_branch2b -> res4b1_branch2b
I0725 11:38:55.366981  7251 net.cpp:150] Setting up res4b1_branch2b
I0725 11:38:55.367005  7251 net.cpp:157] Top shape: 2 256 64 64 (2097152)
I0725 11:38:55.367009  7251 net.cpp:165] Memory required for data: 7927234592
I0725 11:38:55.367015  7251 layer_factory.hpp:77] Creating layer bn4b1_branch2b
I0725 11:38:55.367022  7251 net.cpp:100] Creating Layer bn4b1_branch2b
I0725 11:38:55.367027  7251 net.cpp:434] bn4b1_branch2b <- res4b1_branch2b
I0725 11:38:55.367030  7251 net.cpp:395] bn4b1_branch2b -> res4b1_branch2b (in-place)
I0725 11:38:55.367264  7251 net.cpp:150] Setting up bn4b1_branch2b
I0725 11:38:55.367275  7251 net.cpp:157] Top shape: 2 256 64 64 (2097152)
I0725 11:38:55.367278  7251 net.cpp:165] Memory required for data: 7935623200
I0725 11:38:55.367286  7251 layer_factory.hpp:77] Creating layer scale4b1_branch2b
I0725 11:38:55.367292  7251 net.cpp:100] Creating Layer scale4b1_branch2b
I0725 11:38:55.367296  7251 net.cpp:434] scale4b1_branch2b <- res4b1_branch2b
I0725 11:38:55.367302  7251 net.cpp:395] scale4b1_branch2b -> res4b1_branch2b (in-place)
I0725 11:38:55.367352  7251 layer_factory.hpp:77] Creating layer scale4b1_branch2b
I0725 11:38:55.367478  7251 net.cpp:150] Setting up scale4b1_branch2b
I0725 11:38:55.367486  7251 net.cpp:157] Top shape: 2 256 64 64 (2097152)
I0725 11:38:55.367489  7251 net.cpp:165] Memory required for data: 7944011808
I0725 11:38:55.367496  7251 layer_factory.hpp:77] Creating layer res4b1_branch2b_relu
I0725 11:38:55.367501  7251 net.cpp:100] Creating Layer res4b1_branch2b_relu
I0725 11:38:55.367503  7251 net.cpp:434] res4b1_branch2b_relu <- res4b1_branch2b
I0725 11:38:55.367508  7251 net.cpp:395] res4b1_branch2b_relu -> res4b1_branch2b (in-place)
I0725 11:38:55.367707  7251 net.cpp:150] Setting up res4b1_branch2b_relu
I0725 11:38:55.367717  7251 net.cpp:157] Top shape: 2 256 64 64 (2097152)
I0725 11:38:55.367722  7251 net.cpp:165] Memory required for data: 7952400416
I0725 11:38:55.367724  7251 layer_factory.hpp:77] Creating layer res4b1_branch2c
I0725 11:38:55.367734  7251 net.cpp:100] Creating Layer res4b1_branch2c
I0725 11:38:55.367738  7251 net.cpp:434] res4b1_branch2c <- res4b1_branch2b
I0725 11:38:55.367745  7251 net.cpp:408] res4b1_branch2c -> res4b1_branch2c
I0725 11:38:55.372078  7251 net.cpp:150] Setting up res4b1_branch2c
I0725 11:38:55.372093  7251 net.cpp:157] Top shape: 2 1024 64 64 (8388608)
I0725 11:38:55.372108  7251 net.cpp:165] Memory required for data: 7985954848
I0725 11:38:55.372114  7251 layer_factory.hpp:77] Creating layer bn4b1_branch2c
I0725 11:38:55.372123  7251 net.cpp:100] Creating Layer bn4b1_branch2c
I0725 11:38:55.372136  7251 net.cpp:434] bn4b1_branch2c <- res4b1_branch2c
I0725 11:38:55.372146  7251 net.cpp:395] bn4b1_branch2c -> res4b1_branch2c (in-place)
I0725 11:38:55.372382  7251 net.cpp:150] Setting up bn4b1_branch2c
I0725 11:38:55.372392  7251 net.cpp:157] Top shape: 2 1024 64 64 (8388608)
I0725 11:38:55.372395  7251 net.cpp:165] Memory required for data: 8019509280
I0725 11:38:55.372401  7251 layer_factory.hpp:77] Creating layer scale4b1_branch2c
I0725 11:38:55.372411  7251 net.cpp:100] Creating Layer scale4b1_branch2c
I0725 11:38:55.372414  7251 net.cpp:434] scale4b1_branch2c <- res4b1_branch2c
I0725 11:38:55.372418  7251 net.cpp:395] scale4b1_branch2c -> res4b1_branch2c (in-place)
I0725 11:38:55.372463  7251 layer_factory.hpp:77] Creating layer scale4b1_branch2c
I0725 11:38:55.372601  7251 net.cpp:150] Setting up scale4b1_branch2c
I0725 11:38:55.372609  7251 net.cpp:157] Top shape: 2 1024 64 64 (8388608)
I0725 11:38:55.372612  7251 net.cpp:165] Memory required for data: 8053063712
I0725 11:38:55.372617  7251 layer_factory.hpp:77] Creating layer res4b1
I0725 11:38:55.372623  7251 net.cpp:100] Creating Layer res4b1
I0725 11:38:55.372627  7251 net.cpp:434] res4b1 <- res4a_res4a_relu_0_split_1
I0725 11:38:55.372632  7251 net.cpp:434] res4b1 <- res4b1_branch2c
I0725 11:38:55.372637  7251 net.cpp:408] res4b1 -> res4b1
I0725 11:38:55.372664  7251 net.cpp:150] Setting up res4b1
I0725 11:38:55.372673  7251 net.cpp:157] Top shape: 2 1024 64 64 (8388608)
I0725 11:38:55.372676  7251 net.cpp:165] Memory required for data: 8086618144
I0725 11:38:55.372679  7251 layer_factory.hpp:77] Creating layer res4b1_relu
I0725 11:38:55.372684  7251 net.cpp:100] Creating Layer res4b1_relu
I0725 11:38:55.372687  7251 net.cpp:434] res4b1_relu <- res4b1
I0725 11:38:55.372692  7251 net.cpp:395] res4b1_relu -> res4b1 (in-place)
I0725 11:38:55.372896  7251 net.cpp:150] Setting up res4b1_relu
I0725 11:38:55.372907  7251 net.cpp:157] Top shape: 2 1024 64 64 (8388608)
I0725 11:38:55.372910  7251 net.cpp:165] Memory required for data: 8120172576
I0725 11:38:55.372913  7251 layer_factory.hpp:77] Creating layer res4b1_res4b1_relu_0_split
I0725 11:38:55.372921  7251 net.cpp:100] Creating Layer res4b1_res4b1_relu_0_split
I0725 11:38:55.372925  7251 net.cpp:434] res4b1_res4b1_relu_0_split <- res4b1
I0725 11:38:55.372931  7251 net.cpp:408] res4b1_res4b1_relu_0_split -> res4b1_res4b1_relu_0_split_0
I0725 11:38:55.372939  7251 net.cpp:408] res4b1_res4b1_relu_0_split -> res4b1_res4b1_relu_0_split_1
I0725 11:38:55.372987  7251 net.cpp:150] Setting up res4b1_res4b1_relu_0_split
I0725 11:38:55.372994  7251 net.cpp:157] Top shape: 2 1024 64 64 (8388608)
I0725 11:38:55.372998  7251 net.cpp:157] Top shape: 2 1024 64 64 (8388608)
I0725 11:38:55.373001  7251 net.cpp:165] Memory required for data: 8187281440
I0725 11:38:55.373004  7251 layer_factory.hpp:77] Creating layer res4b2_branch2a
I0725 11:38:55.373013  7251 net.cpp:100] Creating Layer res4b2_branch2a
I0725 11:38:55.373018  7251 net.cpp:434] res4b2_branch2a <- res4b1_res4b1_relu_0_split_0
I0725 11:38:55.373024  7251 net.cpp:408] res4b2_branch2a -> res4b2_branch2a
I0725 11:38:55.376399  7251 net.cpp:150] Setting up res4b2_branch2a
I0725 11:38:55.376423  7251 net.cpp:157] Top shape: 2 256 64 64 (2097152)
I0725 11:38:55.376427  7251 net.cpp:165] Memory required for data: 8195670048
I0725 11:38:55.376432  7251 layer_factory.hpp:77] Creating layer bn4b2_branch2a
I0725 11:38:55.376441  7251 net.cpp:100] Creating Layer bn4b2_branch2a
I0725 11:38:55.376444  7251 net.cpp:434] bn4b2_branch2a <- res4b2_branch2a
I0725 11:38:55.376448  7251 net.cpp:395] bn4b2_branch2a -> res4b2_branch2a (in-place)
I0725 11:38:55.376684  7251 net.cpp:150] Setting up bn4b2_branch2a
I0725 11:38:55.376694  7251 net.cpp:157] Top shape: 2 256 64 64 (2097152)
I0725 11:38:55.376698  7251 net.cpp:165] Memory required for data: 8204058656
I0725 11:38:55.376703  7251 layer_factory.hpp:77] Creating layer scale4b2_branch2a
I0725 11:38:55.376710  7251 net.cpp:100] Creating Layer scale4b2_branch2a
I0725 11:38:55.376713  7251 net.cpp:434] scale4b2_branch2a <- res4b2_branch2a
I0725 11:38:55.376732  7251 net.cpp:395] scale4b2_branch2a -> res4b2_branch2a (in-place)
I0725 11:38:55.376781  7251 layer_factory.hpp:77] Creating layer scale4b2_branch2a
I0725 11:38:55.376906  7251 net.cpp:150] Setting up scale4b2_branch2a
I0725 11:38:55.376916  7251 net.cpp:157] Top shape: 2 256 64 64 (2097152)
I0725 11:38:55.376919  7251 net.cpp:165] Memory required for data: 8212447264
I0725 11:38:55.376924  7251 layer_factory.hpp:77] Creating layer res4b2_branch2a_relu
I0725 11:38:55.376929  7251 net.cpp:100] Creating Layer res4b2_branch2a_relu
I0725 11:38:55.376933  7251 net.cpp:434] res4b2_branch2a_relu <- res4b2_branch2a
I0725 11:38:55.376937  7251 net.cpp:395] res4b2_branch2a_relu -> res4b2_branch2a (in-place)
I0725 11:38:55.377132  7251 net.cpp:150] Setting up res4b2_branch2a_relu
I0725 11:38:55.377142  7251 net.cpp:157] Top shape: 2 256 64 64 (2097152)
I0725 11:38:55.377146  7251 net.cpp:165] Memory required for data: 8220835872
I0725 11:38:55.377149  7251 layer_factory.hpp:77] Creating layer res4b2_branch2b
I0725 11:38:55.377158  7251 net.cpp:100] Creating Layer res4b2_branch2b
I0725 11:38:55.377162  7251 net.cpp:434] res4b2_branch2b <- res4b2_branch2a
I0725 11:38:55.377169  7251 net.cpp:408] res4b2_branch2b -> res4b2_branch2b
I0725 11:38:55.384901  7251 net.cpp:150] Setting up res4b2_branch2b
I0725 11:38:55.384924  7251 net.cpp:157] Top shape: 2 256 64 64 (2097152)
I0725 11:38:55.384928  7251 net.cpp:165] Memory required for data: 8229224480
I0725 11:38:55.384934  7251 layer_factory.hpp:77] Creating layer bn4b2_branch2b
I0725 11:38:55.384940  7251 net.cpp:100] Creating Layer bn4b2_branch2b
I0725 11:38:55.384944  7251 net.cpp:434] bn4b2_branch2b <- res4b2_branch2b
I0725 11:38:55.384951  7251 net.cpp:395] bn4b2_branch2b -> res4b2_branch2b (in-place)
I0725 11:38:55.385190  7251 net.cpp:150] Setting up bn4b2_branch2b
I0725 11:38:55.385200  7251 net.cpp:157] Top shape: 2 256 64 64 (2097152)
I0725 11:38:55.385203  7251 net.cpp:165] Memory required for data: 8237613088
I0725 11:38:55.385210  7251 layer_factory.hpp:77] Creating layer scale4b2_branch2b
I0725 11:38:55.385217  7251 net.cpp:100] Creating Layer scale4b2_branch2b
I0725 11:38:55.385221  7251 net.cpp:434] scale4b2_branch2b <- res4b2_branch2b
I0725 11:38:55.385227  7251 net.cpp:395] scale4b2_branch2b -> res4b2_branch2b (in-place)
I0725 11:38:55.385274  7251 layer_factory.hpp:77] Creating layer scale4b2_branch2b
I0725 11:38:55.385403  7251 net.cpp:150] Setting up scale4b2_branch2b
I0725 11:38:55.385413  7251 net.cpp:157] Top shape: 2 256 64 64 (2097152)
I0725 11:38:55.385416  7251 net.cpp:165] Memory required for data: 8246001696
I0725 11:38:55.385421  7251 layer_factory.hpp:77] Creating layer res4b2_branch2b_relu
I0725 11:38:55.385427  7251 net.cpp:100] Creating Layer res4b2_branch2b_relu
I0725 11:38:55.385430  7251 net.cpp:434] res4b2_branch2b_relu <- res4b2_branch2b
I0725 11:38:55.385435  7251 net.cpp:395] res4b2_branch2b_relu -> res4b2_branch2b (in-place)
I0725 11:38:55.385637  7251 net.cpp:150] Setting up res4b2_branch2b_relu
I0725 11:38:55.385649  7251 net.cpp:157] Top shape: 2 256 64 64 (2097152)
I0725 11:38:55.385653  7251 net.cpp:165] Memory required for data: 8254390304
I0725 11:38:55.385655  7251 layer_factory.hpp:77] Creating layer res4b2_branch2c
I0725 11:38:55.385665  7251 net.cpp:100] Creating Layer res4b2_branch2c
I0725 11:38:55.385669  7251 net.cpp:434] res4b2_branch2c <- res4b2_branch2b
I0725 11:38:55.385676  7251 net.cpp:408] res4b2_branch2c -> res4b2_branch2c
I0725 11:38:55.390067  7251 net.cpp:150] Setting up res4b2_branch2c
I0725 11:38:55.390094  7251 net.cpp:157] Top shape: 2 1024 64 64 (8388608)
I0725 11:38:55.390096  7251 net.cpp:165] Memory required for data: 8287944736
I0725 11:38:55.390102  7251 layer_factory.hpp:77] Creating layer bn4b2_branch2c
I0725 11:38:55.390110  7251 net.cpp:100] Creating Layer bn4b2_branch2c
I0725 11:38:55.390115  7251 net.cpp:434] bn4b2_branch2c <- res4b2_branch2c
I0725 11:38:55.390120  7251 net.cpp:395] bn4b2_branch2c -> res4b2_branch2c (in-place)
I0725 11:38:55.390373  7251 net.cpp:150] Setting up bn4b2_branch2c
I0725 11:38:55.390383  7251 net.cpp:157] Top shape: 2 1024 64 64 (8388608)
I0725 11:38:55.390386  7251 net.cpp:165] Memory required for data: 8321499168
I0725 11:38:55.390393  7251 layer_factory.hpp:77] Creating layer scale4b2_branch2c
I0725 11:38:55.390403  7251 net.cpp:100] Creating Layer scale4b2_branch2c
I0725 11:38:55.390406  7251 net.cpp:434] scale4b2_branch2c <- res4b2_branch2c
I0725 11:38:55.390413  7251 net.cpp:395] scale4b2_branch2c -> res4b2_branch2c (in-place)
I0725 11:38:55.390458  7251 layer_factory.hpp:77] Creating layer scale4b2_branch2c
I0725 11:38:55.390595  7251 net.cpp:150] Setting up scale4b2_branch2c
I0725 11:38:55.390604  7251 net.cpp:157] Top shape: 2 1024 64 64 (8388608)
I0725 11:38:55.390606  7251 net.cpp:165] Memory required for data: 8355053600
I0725 11:38:55.390612  7251 layer_factory.hpp:77] Creating layer res4b2
I0725 11:38:55.390617  7251 net.cpp:100] Creating Layer res4b2
I0725 11:38:55.390621  7251 net.cpp:434] res4b2 <- res4b1_res4b1_relu_0_split_1
I0725 11:38:55.390625  7251 net.cpp:434] res4b2 <- res4b2_branch2c
I0725 11:38:55.390632  7251 net.cpp:408] res4b2 -> res4b2
I0725 11:38:55.390660  7251 net.cpp:150] Setting up res4b2
I0725 11:38:55.390668  7251 net.cpp:157] Top shape: 2 1024 64 64 (8388608)
I0725 11:38:55.390671  7251 net.cpp:165] Memory required for data: 8388608032
I0725 11:38:55.390674  7251 layer_factory.hpp:77] Creating layer res4b2_relu
I0725 11:38:55.390679  7251 net.cpp:100] Creating Layer res4b2_relu
I0725 11:38:55.390682  7251 net.cpp:434] res4b2_relu <- res4b2
I0725 11:38:55.390686  7251 net.cpp:395] res4b2_relu -> res4b2 (in-place)
I0725 11:38:55.391090  7251 net.cpp:150] Setting up res4b2_relu
I0725 11:38:55.391103  7251 net.cpp:157] Top shape: 2 1024 64 64 (8388608)
I0725 11:38:55.391119  7251 net.cpp:165] Memory required for data: 8422162464
I0725 11:38:55.391121  7251 layer_factory.hpp:77] Creating layer res4b2_res4b2_relu_0_split
I0725 11:38:55.391129  7251 net.cpp:100] Creating Layer res4b2_res4b2_relu_0_split
I0725 11:38:55.391134  7251 net.cpp:434] res4b2_res4b2_relu_0_split <- res4b2
I0725 11:38:55.391139  7251 net.cpp:408] res4b2_res4b2_relu_0_split -> res4b2_res4b2_relu_0_split_0
I0725 11:38:55.391146  7251 net.cpp:408] res4b2_res4b2_relu_0_split -> res4b2_res4b2_relu_0_split_1
I0725 11:38:55.391198  7251 net.cpp:150] Setting up res4b2_res4b2_relu_0_split
I0725 11:38:55.391206  7251 net.cpp:157] Top shape: 2 1024 64 64 (8388608)
I0725 11:38:55.391209  7251 net.cpp:157] Top shape: 2 1024 64 64 (8388608)
I0725 11:38:55.391212  7251 net.cpp:165] Memory required for data: 8489271328
I0725 11:38:55.391216  7251 layer_factory.hpp:77] Creating layer res4b3_branch2a
I0725 11:38:55.391225  7251 net.cpp:100] Creating Layer res4b3_branch2a
I0725 11:38:55.391228  7251 net.cpp:434] res4b3_branch2a <- res4b2_res4b2_relu_0_split_0
I0725 11:38:55.391235  7251 net.cpp:408] res4b3_branch2a -> res4b3_branch2a
I0725 11:38:55.394659  7251 net.cpp:150] Setting up res4b3_branch2a
I0725 11:38:55.394686  7251 net.cpp:157] Top shape: 2 256 64 64 (2097152)
I0725 11:38:55.394690  7251 net.cpp:165] Memory required for data: 8497659936
I0725 11:38:55.394695  7251 layer_factory.hpp:77] Creating layer bn4b3_branch2a
I0725 11:38:55.394701  7251 net.cpp:100] Creating Layer bn4b3_branch2a
I0725 11:38:55.394706  7251 net.cpp:434] bn4b3_branch2a <- res4b3_branch2a
I0725 11:38:55.394711  7251 net.cpp:395] bn4b3_branch2a -> res4b3_branch2a (in-place)
I0725 11:38:55.394949  7251 net.cpp:150] Setting up bn4b3_branch2a
I0725 11:38:55.394958  7251 net.cpp:157] Top shape: 2 256 64 64 (2097152)
I0725 11:38:55.394961  7251 net.cpp:165] Memory required for data: 8506048544
I0725 11:38:55.394968  7251 layer_factory.hpp:77] Creating layer scale4b3_branch2a
I0725 11:38:55.394982  7251 net.cpp:100] Creating Layer scale4b3_branch2a
I0725 11:38:55.394991  7251 net.cpp:434] scale4b3_branch2a <- res4b3_branch2a
I0725 11:38:55.394996  7251 net.cpp:395] scale4b3_branch2a -> res4b3_branch2a (in-place)
I0725 11:38:55.395047  7251 layer_factory.hpp:77] Creating layer scale4b3_branch2a
I0725 11:38:55.395195  7251 net.cpp:150] Setting up scale4b3_branch2a
I0725 11:38:55.395205  7251 net.cpp:157] Top shape: 2 256 64 64 (2097152)
I0725 11:38:55.395207  7251 net.cpp:165] Memory required for data: 8514437152
I0725 11:38:55.395213  7251 layer_factory.hpp:77] Creating layer res4b3_branch2a_relu
I0725 11:38:55.395218  7251 net.cpp:100] Creating Layer res4b3_branch2a_relu
I0725 11:38:55.395222  7251 net.cpp:434] res4b3_branch2a_relu <- res4b3_branch2a
I0725 11:38:55.395231  7251 net.cpp:395] res4b3_branch2a_relu -> res4b3_branch2a (in-place)
I0725 11:38:55.395429  7251 net.cpp:150] Setting up res4b3_branch2a_relu
I0725 11:38:55.395440  7251 net.cpp:157] Top shape: 2 256 64 64 (2097152)
I0725 11:38:55.395443  7251 net.cpp:165] Memory required for data: 8522825760
I0725 11:38:55.395447  7251 layer_factory.hpp:77] Creating layer res4b3_branch2b
I0725 11:38:55.395457  7251 net.cpp:100] Creating Layer res4b3_branch2b
I0725 11:38:55.395462  7251 net.cpp:434] res4b3_branch2b <- res4b3_branch2a
I0725 11:38:55.395468  7251 net.cpp:408] res4b3_branch2b -> res4b3_branch2b
I0725 11:38:55.403028  7251 net.cpp:150] Setting up res4b3_branch2b
I0725 11:38:55.403054  7251 net.cpp:157] Top shape: 2 256 64 64 (2097152)
I0725 11:38:55.403057  7251 net.cpp:165] Memory required for data: 8531214368
I0725 11:38:55.403064  7251 layer_factory.hpp:77] Creating layer bn4b3_branch2b
I0725 11:38:55.403069  7251 net.cpp:100] Creating Layer bn4b3_branch2b
I0725 11:38:55.403074  7251 net.cpp:434] bn4b3_branch2b <- res4b3_branch2b
I0725 11:38:55.403080  7251 net.cpp:395] bn4b3_branch2b -> res4b3_branch2b (in-place)
I0725 11:38:55.403323  7251 net.cpp:150] Setting up bn4b3_branch2b
I0725 11:38:55.403333  7251 net.cpp:157] Top shape: 2 256 64 64 (2097152)
I0725 11:38:55.403337  7251 net.cpp:165] Memory required for data: 8539602976
I0725 11:38:55.403343  7251 layer_factory.hpp:77] Creating layer scale4b3_branch2b
I0725 11:38:55.403349  7251 net.cpp:100] Creating Layer scale4b3_branch2b
I0725 11:38:55.403353  7251 net.cpp:434] scale4b3_branch2b <- res4b3_branch2b
I0725 11:38:55.403360  7251 net.cpp:395] scale4b3_branch2b -> res4b3_branch2b (in-place)
I0725 11:38:55.403405  7251 layer_factory.hpp:77] Creating layer scale4b3_branch2b
I0725 11:38:55.403537  7251 net.cpp:150] Setting up scale4b3_branch2b
I0725 11:38:55.403544  7251 net.cpp:157] Top shape: 2 256 64 64 (2097152)
I0725 11:38:55.403548  7251 net.cpp:165] Memory required for data: 8547991584
I0725 11:38:55.403553  7251 layer_factory.hpp:77] Creating layer res4b3_branch2b_relu
I0725 11:38:55.403559  7251 net.cpp:100] Creating Layer res4b3_branch2b_relu
I0725 11:38:55.403563  7251 net.cpp:434] res4b3_branch2b_relu <- res4b3_branch2b
I0725 11:38:55.403568  7251 net.cpp:395] res4b3_branch2b_relu -> res4b3_branch2b (in-place)
I0725 11:38:55.403779  7251 net.cpp:150] Setting up res4b3_branch2b_relu
I0725 11:38:55.403789  7251 net.cpp:157] Top shape: 2 256 64 64 (2097152)
I0725 11:38:55.403792  7251 net.cpp:165] Memory required for data: 8556380192
I0725 11:38:55.403796  7251 layer_factory.hpp:77] Creating layer res4b3_branch2c
I0725 11:38:55.403806  7251 net.cpp:100] Creating Layer res4b3_branch2c
I0725 11:38:55.403810  7251 net.cpp:434] res4b3_branch2c <- res4b3_branch2b
I0725 11:38:55.403817  7251 net.cpp:408] res4b3_branch2c -> res4b3_branch2c
I0725 11:38:55.408191  7251 net.cpp:150] Setting up res4b3_branch2c
I0725 11:38:55.408217  7251 net.cpp:157] Top shape: 2 1024 64 64 (8388608)
I0725 11:38:55.408221  7251 net.cpp:165] Memory required for data: 8589934624
I0725 11:38:55.408226  7251 layer_factory.hpp:77] Creating layer bn4b3_branch2c
I0725 11:38:55.408234  7251 net.cpp:100] Creating Layer bn4b3_branch2c
I0725 11:38:55.408238  7251 net.cpp:434] bn4b3_branch2c <- res4b3_branch2c
I0725 11:38:55.408243  7251 net.cpp:395] bn4b3_branch2c -> res4b3_branch2c (in-place)
I0725 11:38:55.408486  7251 net.cpp:150] Setting up bn4b3_branch2c
I0725 11:38:55.408495  7251 net.cpp:157] Top shape: 2 1024 64 64 (8388608)
I0725 11:38:55.408499  7251 net.cpp:165] Memory required for data: 8623489056
I0725 11:38:55.408517  7251 layer_factory.hpp:77] Creating layer scale4b3_branch2c
I0725 11:38:55.408524  7251 net.cpp:100] Creating Layer scale4b3_branch2c
I0725 11:38:55.408529  7251 net.cpp:434] scale4b3_branch2c <- res4b3_branch2c
I0725 11:38:55.408536  7251 net.cpp:395] scale4b3_branch2c -> res4b3_branch2c (in-place)
I0725 11:38:55.408582  7251 layer_factory.hpp:77] Creating layer scale4b3_branch2c
I0725 11:38:55.408720  7251 net.cpp:150] Setting up scale4b3_branch2c
I0725 11:38:55.408727  7251 net.cpp:157] Top shape: 2 1024 64 64 (8388608)
I0725 11:38:55.408730  7251 net.cpp:165] Memory required for data: 8657043488
I0725 11:38:55.408735  7251 layer_factory.hpp:77] Creating layer res4b3
I0725 11:38:55.408741  7251 net.cpp:100] Creating Layer res4b3
I0725 11:38:55.408746  7251 net.cpp:434] res4b3 <- res4b2_res4b2_relu_0_split_1
I0725 11:38:55.408749  7251 net.cpp:434] res4b3 <- res4b3_branch2c
I0725 11:38:55.408753  7251 net.cpp:408] res4b3 -> res4b3
I0725 11:38:55.408783  7251 net.cpp:150] Setting up res4b3
I0725 11:38:55.408790  7251 net.cpp:157] Top shape: 2 1024 64 64 (8388608)
I0725 11:38:55.408793  7251 net.cpp:165] Memory required for data: 8690597920
I0725 11:38:55.408797  7251 layer_factory.hpp:77] Creating layer res4b3_relu
I0725 11:38:55.408803  7251 net.cpp:100] Creating Layer res4b3_relu
I0725 11:38:55.408807  7251 net.cpp:434] res4b3_relu <- res4b3
I0725 11:38:55.408810  7251 net.cpp:395] res4b3_relu -> res4b3 (in-place)
I0725 11:38:55.409014  7251 net.cpp:150] Setting up res4b3_relu
I0725 11:38:55.409025  7251 net.cpp:157] Top shape: 2 1024 64 64 (8388608)
I0725 11:38:55.409029  7251 net.cpp:165] Memory required for data: 8724152352
I0725 11:38:55.409031  7251 layer_factory.hpp:77] Creating layer res4b3_res4b3_relu_0_split
I0725 11:38:55.409037  7251 net.cpp:100] Creating Layer res4b3_res4b3_relu_0_split
I0725 11:38:55.409040  7251 net.cpp:434] res4b3_res4b3_relu_0_split <- res4b3
I0725 11:38:55.409049  7251 net.cpp:408] res4b3_res4b3_relu_0_split -> res4b3_res4b3_relu_0_split_0
I0725 11:38:55.409055  7251 net.cpp:408] res4b3_res4b3_relu_0_split -> res4b3_res4b3_relu_0_split_1
I0725 11:38:55.409106  7251 net.cpp:150] Setting up res4b3_res4b3_relu_0_split
I0725 11:38:55.409113  7251 net.cpp:157] Top shape: 2 1024 64 64 (8388608)
I0725 11:38:55.409116  7251 net.cpp:157] Top shape: 2 1024 64 64 (8388608)
I0725 11:38:55.409119  7251 net.cpp:165] Memory required for data: 8791261216
I0725 11:38:55.409122  7251 layer_factory.hpp:77] Creating layer res4b4_branch2a
I0725 11:38:55.409132  7251 net.cpp:100] Creating Layer res4b4_branch2a
I0725 11:38:55.409135  7251 net.cpp:434] res4b4_branch2a <- res4b3_res4b3_relu_0_split_0
I0725 11:38:55.409142  7251 net.cpp:408] res4b4_branch2a -> res4b4_branch2a
I0725 11:38:55.412534  7251 net.cpp:150] Setting up res4b4_branch2a
I0725 11:38:55.412561  7251 net.cpp:157] Top shape: 2 256 64 64 (2097152)
I0725 11:38:55.412565  7251 net.cpp:165] Memory required for data: 8799649824
I0725 11:38:55.412570  7251 layer_factory.hpp:77] Creating layer bn4b4_branch2a
I0725 11:38:55.412576  7251 net.cpp:100] Creating Layer bn4b4_branch2a
I0725 11:38:55.412580  7251 net.cpp:434] bn4b4_branch2a <- res4b4_branch2a
I0725 11:38:55.412586  7251 net.cpp:395] bn4b4_branch2a -> res4b4_branch2a (in-place)
I0725 11:38:55.412832  7251 net.cpp:150] Setting up bn4b4_branch2a
I0725 11:38:55.412842  7251 net.cpp:157] Top shape: 2 256 64 64 (2097152)
I0725 11:38:55.412844  7251 net.cpp:165] Memory required for data: 8808038432
I0725 11:38:55.412852  7251 layer_factory.hpp:77] Creating layer scale4b4_branch2a
I0725 11:38:55.412858  7251 net.cpp:100] Creating Layer scale4b4_branch2a
I0725 11:38:55.412861  7251 net.cpp:434] scale4b4_branch2a <- res4b4_branch2a
I0725 11:38:55.412869  7251 net.cpp:395] scale4b4_branch2a -> res4b4_branch2a (in-place)
I0725 11:38:55.412915  7251 layer_factory.hpp:77] Creating layer scale4b4_branch2a
I0725 11:38:55.413046  7251 net.cpp:150] Setting up scale4b4_branch2a
I0725 11:38:55.413054  7251 net.cpp:157] Top shape: 2 256 64 64 (2097152)
I0725 11:38:55.413069  7251 net.cpp:165] Memory required for data: 8816427040
I0725 11:38:55.413074  7251 layer_factory.hpp:77] Creating layer res4b4_branch2a_relu
I0725 11:38:55.413079  7251 net.cpp:100] Creating Layer res4b4_branch2a_relu
I0725 11:38:55.413082  7251 net.cpp:434] res4b4_branch2a_relu <- res4b4_branch2a
I0725 11:38:55.413089  7251 net.cpp:395] res4b4_branch2a_relu -> res4b4_branch2a (in-place)
I0725 11:38:55.413288  7251 net.cpp:150] Setting up res4b4_branch2a_relu
I0725 11:38:55.413300  7251 net.cpp:157] Top shape: 2 256 64 64 (2097152)
I0725 11:38:55.413302  7251 net.cpp:165] Memory required for data: 8824815648
I0725 11:38:55.413305  7251 layer_factory.hpp:77] Creating layer res4b4_branch2b
I0725 11:38:55.413316  7251 net.cpp:100] Creating Layer res4b4_branch2b
I0725 11:38:55.413319  7251 net.cpp:434] res4b4_branch2b <- res4b4_branch2a
I0725 11:38:55.413326  7251 net.cpp:408] res4b4_branch2b -> res4b4_branch2b
I0725 11:38:55.420958  7251 net.cpp:150] Setting up res4b4_branch2b
I0725 11:38:55.420986  7251 net.cpp:157] Top shape: 2 256 64 64 (2097152)
I0725 11:38:55.420989  7251 net.cpp:165] Memory required for data: 8833204256
I0725 11:38:55.420995  7251 layer_factory.hpp:77] Creating layer bn4b4_branch2b
I0725 11:38:55.421001  7251 net.cpp:100] Creating Layer bn4b4_branch2b
I0725 11:38:55.421005  7251 net.cpp:434] bn4b4_branch2b <- res4b4_branch2b
I0725 11:38:55.421011  7251 net.cpp:395] bn4b4_branch2b -> res4b4_branch2b (in-place)
I0725 11:38:55.421257  7251 net.cpp:150] Setting up bn4b4_branch2b
I0725 11:38:55.421265  7251 net.cpp:157] Top shape: 2 256 64 64 (2097152)
I0725 11:38:55.421268  7251 net.cpp:165] Memory required for data: 8841592864
I0725 11:38:55.421275  7251 layer_factory.hpp:77] Creating layer scale4b4_branch2b
I0725 11:38:55.421284  7251 net.cpp:100] Creating Layer scale4b4_branch2b
I0725 11:38:55.421288  7251 net.cpp:434] scale4b4_branch2b <- res4b4_branch2b
I0725 11:38:55.421293  7251 net.cpp:395] scale4b4_branch2b -> res4b4_branch2b (in-place)
I0725 11:38:55.421341  7251 layer_factory.hpp:77] Creating layer scale4b4_branch2b
I0725 11:38:55.421476  7251 net.cpp:150] Setting up scale4b4_branch2b
I0725 11:38:55.421484  7251 net.cpp:157] Top shape: 2 256 64 64 (2097152)
I0725 11:38:55.421488  7251 net.cpp:165] Memory required for data: 8849981472
I0725 11:38:55.421494  7251 layer_factory.hpp:77] Creating layer res4b4_branch2b_relu
I0725 11:38:55.421499  7251 net.cpp:100] Creating Layer res4b4_branch2b_relu
I0725 11:38:55.421501  7251 net.cpp:434] res4b4_branch2b_relu <- res4b4_branch2b
I0725 11:38:55.421507  7251 net.cpp:395] res4b4_branch2b_relu -> res4b4_branch2b (in-place)
I0725 11:38:55.421713  7251 net.cpp:150] Setting up res4b4_branch2b_relu
I0725 11:38:55.421725  7251 net.cpp:157] Top shape: 2 256 64 64 (2097152)
I0725 11:38:55.421727  7251 net.cpp:165] Memory required for data: 8858370080
I0725 11:38:55.421731  7251 layer_factory.hpp:77] Creating layer res4b4_branch2c
I0725 11:38:55.421741  7251 net.cpp:100] Creating Layer res4b4_branch2c
I0725 11:38:55.421744  7251 net.cpp:434] res4b4_branch2c <- res4b4_branch2b
I0725 11:38:55.421749  7251 net.cpp:408] res4b4_branch2c -> res4b4_branch2c
I0725 11:38:55.426183  7251 net.cpp:150] Setting up res4b4_branch2c
I0725 11:38:55.426211  7251 net.cpp:157] Top shape: 2 1024 64 64 (8388608)
I0725 11:38:55.426215  7251 net.cpp:165] Memory required for data: 8891924512
I0725 11:38:55.426220  7251 layer_factory.hpp:77] Creating layer bn4b4_branch2c
I0725 11:38:55.426229  7251 net.cpp:100] Creating Layer bn4b4_branch2c
I0725 11:38:55.426232  7251 net.cpp:434] bn4b4_branch2c <- res4b4_branch2c
I0725 11:38:55.426237  7251 net.cpp:395] bn4b4_branch2c -> res4b4_branch2c (in-place)
I0725 11:38:55.426482  7251 net.cpp:150] Setting up bn4b4_branch2c
I0725 11:38:55.426491  7251 net.cpp:157] Top shape: 2 1024 64 64 (8388608)
I0725 11:38:55.426494  7251 net.cpp:165] Memory required for data: 8925478944
I0725 11:38:55.426501  7251 layer_factory.hpp:77] Creating layer scale4b4_branch2c
I0725 11:38:55.426511  7251 net.cpp:100] Creating Layer scale4b4_branch2c
I0725 11:38:55.426525  7251 net.cpp:434] scale4b4_branch2c <- res4b4_branch2c
I0725 11:38:55.426532  7251 net.cpp:395] scale4b4_branch2c -> res4b4_branch2c (in-place)
I0725 11:38:55.426579  7251 layer_factory.hpp:77] Creating layer scale4b4_branch2c
I0725 11:38:55.426723  7251 net.cpp:150] Setting up scale4b4_branch2c
I0725 11:38:55.426733  7251 net.cpp:157] Top shape: 2 1024 64 64 (8388608)
I0725 11:38:55.426735  7251 net.cpp:165] Memory required for data: 8959033376
I0725 11:38:55.426740  7251 layer_factory.hpp:77] Creating layer res4b4
I0725 11:38:55.426748  7251 net.cpp:100] Creating Layer res4b4
I0725 11:38:55.426751  7251 net.cpp:434] res4b4 <- res4b3_res4b3_relu_0_split_1
I0725 11:38:55.426756  7251 net.cpp:434] res4b4 <- res4b4_branch2c
I0725 11:38:55.426761  7251 net.cpp:408] res4b4 -> res4b4
I0725 11:38:55.426791  7251 net.cpp:150] Setting up res4b4
I0725 11:38:55.426798  7251 net.cpp:157] Top shape: 2 1024 64 64 (8388608)
I0725 11:38:55.426801  7251 net.cpp:165] Memory required for data: 8992587808
I0725 11:38:55.426805  7251 layer_factory.hpp:77] Creating layer res4b4_relu
I0725 11:38:55.426810  7251 net.cpp:100] Creating Layer res4b4_relu
I0725 11:38:55.426812  7251 net.cpp:434] res4b4_relu <- res4b4
I0725 11:38:55.426818  7251 net.cpp:395] res4b4_relu -> res4b4 (in-place)
I0725 11:38:55.427227  7251 net.cpp:150] Setting up res4b4_relu
I0725 11:38:55.427240  7251 net.cpp:157] Top shape: 2 1024 64 64 (8388608)
I0725 11:38:55.427255  7251 net.cpp:165] Memory required for data: 9026142240
I0725 11:38:55.427258  7251 layer_factory.hpp:77] Creating layer res4b4_res4b4_relu_0_split
I0725 11:38:55.427264  7251 net.cpp:100] Creating Layer res4b4_res4b4_relu_0_split
I0725 11:38:55.427268  7251 net.cpp:434] res4b4_res4b4_relu_0_split <- res4b4
I0725 11:38:55.427275  7251 net.cpp:408] res4b4_res4b4_relu_0_split -> res4b4_res4b4_relu_0_split_0
I0725 11:38:55.427283  7251 net.cpp:408] res4b4_res4b4_relu_0_split -> res4b4_res4b4_relu_0_split_1
I0725 11:38:55.427336  7251 net.cpp:150] Setting up res4b4_res4b4_relu_0_split
I0725 11:38:55.427345  7251 net.cpp:157] Top shape: 2 1024 64 64 (8388608)
I0725 11:38:55.427348  7251 net.cpp:157] Top shape: 2 1024 64 64 (8388608)
I0725 11:38:55.427350  7251 net.cpp:165] Memory required for data: 9093251104
I0725 11:38:55.427353  7251 layer_factory.hpp:77] Creating layer res4b5_branch2a
I0725 11:38:55.427363  7251 net.cpp:100] Creating Layer res4b5_branch2a
I0725 11:38:55.427367  7251 net.cpp:434] res4b5_branch2a <- res4b4_res4b4_relu_0_split_0
I0725 11:38:55.427372  7251 net.cpp:408] res4b5_branch2a -> res4b5_branch2a
I0725 11:38:55.430869  7251 net.cpp:150] Setting up res4b5_branch2a
I0725 11:38:55.430883  7251 net.cpp:157] Top shape: 2 256 64 64 (2097152)
I0725 11:38:55.430899  7251 net.cpp:165] Memory required for data: 9101639712
I0725 11:38:55.430904  7251 layer_factory.hpp:77] Creating layer bn4b5_branch2a
I0725 11:38:55.430910  7251 net.cpp:100] Creating Layer bn4b5_branch2a
I0725 11:38:55.430914  7251 net.cpp:434] bn4b5_branch2a <- res4b5_branch2a
I0725 11:38:55.430922  7251 net.cpp:395] bn4b5_branch2a -> res4b5_branch2a (in-place)
I0725 11:38:55.431169  7251 net.cpp:150] Setting up bn4b5_branch2a
I0725 11:38:55.431179  7251 net.cpp:157] Top shape: 2 256 64 64 (2097152)
I0725 11:38:55.431181  7251 net.cpp:165] Memory required for data: 9110028320
I0725 11:38:55.431188  7251 layer_factory.hpp:77] Creating layer scale4b5_branch2a
I0725 11:38:55.431195  7251 net.cpp:100] Creating Layer scale4b5_branch2a
I0725 11:38:55.431198  7251 net.cpp:434] scale4b5_branch2a <- res4b5_branch2a
I0725 11:38:55.431203  7251 net.cpp:395] scale4b5_branch2a -> res4b5_branch2a (in-place)
I0725 11:38:55.431252  7251 layer_factory.hpp:77] Creating layer scale4b5_branch2a
I0725 11:38:55.431386  7251 net.cpp:150] Setting up scale4b5_branch2a
I0725 11:38:55.431394  7251 net.cpp:157] Top shape: 2 256 64 64 (2097152)
I0725 11:38:55.431397  7251 net.cpp:165] Memory required for data: 9118416928
I0725 11:38:55.431402  7251 layer_factory.hpp:77] Creating layer res4b5_branch2a_relu
I0725 11:38:55.431408  7251 net.cpp:100] Creating Layer res4b5_branch2a_relu
I0725 11:38:55.431422  7251 net.cpp:434] res4b5_branch2a_relu <- res4b5_branch2a
I0725 11:38:55.431429  7251 net.cpp:395] res4b5_branch2a_relu -> res4b5_branch2a (in-place)
I0725 11:38:55.431632  7251 net.cpp:150] Setting up res4b5_branch2a_relu
I0725 11:38:55.431643  7251 net.cpp:157] Top shape: 2 256 64 64 (2097152)
I0725 11:38:55.431646  7251 net.cpp:165] Memory required for data: 9126805536
I0725 11:38:55.431650  7251 layer_factory.hpp:77] Creating layer res4b5_branch2b
I0725 11:38:55.431659  7251 net.cpp:100] Creating Layer res4b5_branch2b
I0725 11:38:55.431663  7251 net.cpp:434] res4b5_branch2b <- res4b5_branch2a
I0725 11:38:55.431669  7251 net.cpp:408] res4b5_branch2b -> res4b5_branch2b
I0725 11:38:55.439235  7251 net.cpp:150] Setting up res4b5_branch2b
I0725 11:38:55.439260  7251 net.cpp:157] Top shape: 2 256 64 64 (2097152)
I0725 11:38:55.439263  7251 net.cpp:165] Memory required for data: 9135194144
I0725 11:38:55.439270  7251 layer_factory.hpp:77] Creating layer bn4b5_branch2b
I0725 11:38:55.439276  7251 net.cpp:100] Creating Layer bn4b5_branch2b
I0725 11:38:55.439280  7251 net.cpp:434] bn4b5_branch2b <- res4b5_branch2b
I0725 11:38:55.439287  7251 net.cpp:395] bn4b5_branch2b -> res4b5_branch2b (in-place)
I0725 11:38:55.439537  7251 net.cpp:150] Setting up bn4b5_branch2b
I0725 11:38:55.439545  7251 net.cpp:157] Top shape: 2 256 64 64 (2097152)
I0725 11:38:55.439548  7251 net.cpp:165] Memory required for data: 9143582752
I0725 11:38:55.439555  7251 layer_factory.hpp:77] Creating layer scale4b5_branch2b
I0725 11:38:55.439564  7251 net.cpp:100] Creating Layer scale4b5_branch2b
I0725 11:38:55.439568  7251 net.cpp:434] scale4b5_branch2b <- res4b5_branch2b
I0725 11:38:55.439573  7251 net.cpp:395] scale4b5_branch2b -> res4b5_branch2b (in-place)
I0725 11:38:55.439622  7251 layer_factory.hpp:77] Creating layer scale4b5_branch2b
I0725 11:38:55.439759  7251 net.cpp:150] Setting up scale4b5_branch2b
I0725 11:38:55.439766  7251 net.cpp:157] Top shape: 2 256 64 64 (2097152)
I0725 11:38:55.439769  7251 net.cpp:165] Memory required for data: 9151971360
I0725 11:38:55.439775  7251 layer_factory.hpp:77] Creating layer res4b5_branch2b_relu
I0725 11:38:55.439780  7251 net.cpp:100] Creating Layer res4b5_branch2b_relu
I0725 11:38:55.439783  7251 net.cpp:434] res4b5_branch2b_relu <- res4b5_branch2b
I0725 11:38:55.439790  7251 net.cpp:395] res4b5_branch2b_relu -> res4b5_branch2b (in-place)
I0725 11:38:55.439991  7251 net.cpp:150] Setting up res4b5_branch2b_relu
I0725 11:38:55.440002  7251 net.cpp:157] Top shape: 2 256 64 64 (2097152)
I0725 11:38:55.440006  7251 net.cpp:165] Memory required for data: 9160359968
I0725 11:38:55.440008  7251 layer_factory.hpp:77] Creating layer res4b5_branch2c
I0725 11:38:55.440027  7251 net.cpp:100] Creating Layer res4b5_branch2c
I0725 11:38:55.440032  7251 net.cpp:434] res4b5_branch2c <- res4b5_branch2b
I0725 11:38:55.440037  7251 net.cpp:408] res4b5_branch2c -> res4b5_branch2c
I0725 11:38:55.444259  7251 net.cpp:150] Setting up res4b5_branch2c
I0725 11:38:55.444277  7251 net.cpp:157] Top shape: 2 1024 64 64 (8388608)
I0725 11:38:55.444279  7251 net.cpp:165] Memory required for data: 9193914400
I0725 11:38:55.444285  7251 layer_factory.hpp:77] Creating layer bn4b5_branch2c
I0725 11:38:55.444291  7251 net.cpp:100] Creating Layer bn4b5_branch2c
I0725 11:38:55.444294  7251 net.cpp:434] bn4b5_branch2c <- res4b5_branch2c
I0725 11:38:55.444313  7251 net.cpp:395] bn4b5_branch2c -> res4b5_branch2c (in-place)
I0725 11:38:55.444581  7251 net.cpp:150] Setting up bn4b5_branch2c
I0725 11:38:55.444591  7251 net.cpp:157] Top shape: 2 1024 64 64 (8388608)
I0725 11:38:55.444593  7251 net.cpp:165] Memory required for data: 9227468832
I0725 11:38:55.444600  7251 layer_factory.hpp:77] Creating layer scale4b5_branch2c
I0725 11:38:55.444609  7251 net.cpp:100] Creating Layer scale4b5_branch2c
I0725 11:38:55.444613  7251 net.cpp:434] scale4b5_branch2c <- res4b5_branch2c
I0725 11:38:55.444618  7251 net.cpp:395] scale4b5_branch2c -> res4b5_branch2c (in-place)
I0725 11:38:55.444666  7251 layer_factory.hpp:77] Creating layer scale4b5_branch2c
I0725 11:38:55.444825  7251 net.cpp:150] Setting up scale4b5_branch2c
I0725 11:38:55.444835  7251 net.cpp:157] Top shape: 2 1024 64 64 (8388608)
I0725 11:38:55.444839  7251 net.cpp:165] Memory required for data: 9261023264
I0725 11:38:55.444872  7251 layer_factory.hpp:77] Creating layer res4b5
I0725 11:38:55.444880  7251 net.cpp:100] Creating Layer res4b5
I0725 11:38:55.444883  7251 net.cpp:434] res4b5 <- res4b4_res4b4_relu_0_split_1
I0725 11:38:55.444888  7251 net.cpp:434] res4b5 <- res4b5_branch2c
I0725 11:38:55.444892  7251 net.cpp:408] res4b5 -> res4b5
I0725 11:38:55.444924  7251 net.cpp:150] Setting up res4b5
I0725 11:38:55.444932  7251 net.cpp:157] Top shape: 2 1024 64 64 (8388608)
I0725 11:38:55.444934  7251 net.cpp:165] Memory required for data: 9294577696
I0725 11:38:55.444937  7251 layer_factory.hpp:77] Creating layer res4b5_relu
I0725 11:38:55.444942  7251 net.cpp:100] Creating Layer res4b5_relu
I0725 11:38:55.444947  7251 net.cpp:434] res4b5_relu <- res4b5
I0725 11:38:55.444952  7251 net.cpp:395] res4b5_relu -> res4b5 (in-place)
I0725 11:38:55.445165  7251 net.cpp:150] Setting up res4b5_relu
I0725 11:38:55.445178  7251 net.cpp:157] Top shape: 2 1024 64 64 (8388608)
I0725 11:38:55.445180  7251 net.cpp:165] Memory required for data: 9328132128
I0725 11:38:55.445183  7251 layer_factory.hpp:77] Creating layer res4b5_res4b5_relu_0_split
I0725 11:38:55.445189  7251 net.cpp:100] Creating Layer res4b5_res4b5_relu_0_split
I0725 11:38:55.445192  7251 net.cpp:434] res4b5_res4b5_relu_0_split <- res4b5
I0725 11:38:55.445200  7251 net.cpp:408] res4b5_res4b5_relu_0_split -> res4b5_res4b5_relu_0_split_0
I0725 11:38:55.445206  7251 net.cpp:408] res4b5_res4b5_relu_0_split -> res4b5_res4b5_relu_0_split_1
I0725 11:38:55.445258  7251 net.cpp:150] Setting up res4b5_res4b5_relu_0_split
I0725 11:38:55.445266  7251 net.cpp:157] Top shape: 2 1024 64 64 (8388608)
I0725 11:38:55.445269  7251 net.cpp:157] Top shape: 2 1024 64 64 (8388608)
I0725 11:38:55.445272  7251 net.cpp:165] Memory required for data: 9395240992
I0725 11:38:55.445276  7251 layer_factory.hpp:77] Creating layer res4b6_branch2a
I0725 11:38:55.445286  7251 net.cpp:100] Creating Layer res4b6_branch2a
I0725 11:38:55.445288  7251 net.cpp:434] res4b6_branch2a <- res4b5_res4b5_relu_0_split_0
I0725 11:38:55.445296  7251 net.cpp:408] res4b6_branch2a -> res4b6_branch2a
I0725 11:38:55.448798  7251 net.cpp:150] Setting up res4b6_branch2a
I0725 11:38:55.448813  7251 net.cpp:157] Top shape: 2 256 64 64 (2097152)
I0725 11:38:55.448827  7251 net.cpp:165] Memory required for data: 9403629600
I0725 11:38:55.448832  7251 layer_factory.hpp:77] Creating layer bn4b6_branch2a
I0725 11:38:55.448843  7251 net.cpp:100] Creating Layer bn4b6_branch2a
I0725 11:38:55.448846  7251 net.cpp:434] bn4b6_branch2a <- res4b6_branch2a
I0725 11:38:55.448864  7251 net.cpp:395] bn4b6_branch2a -> res4b6_branch2a (in-place)
I0725 11:38:55.449105  7251 net.cpp:150] Setting up bn4b6_branch2a
I0725 11:38:55.449115  7251 net.cpp:157] Top shape: 2 256 64 64 (2097152)
I0725 11:38:55.449117  7251 net.cpp:165] Memory required for data: 9412018208
I0725 11:38:55.449123  7251 layer_factory.hpp:77] Creating layer scale4b6_branch2a
I0725 11:38:55.449132  7251 net.cpp:100] Creating Layer scale4b6_branch2a
I0725 11:38:55.449136  7251 net.cpp:434] scale4b6_branch2a <- res4b6_branch2a
I0725 11:38:55.449141  7251 net.cpp:395] scale4b6_branch2a -> res4b6_branch2a (in-place)
I0725 11:38:55.449189  7251 layer_factory.hpp:77] Creating layer scale4b6_branch2a
I0725 11:38:55.449327  7251 net.cpp:150] Setting up scale4b6_branch2a
I0725 11:38:55.449335  7251 net.cpp:157] Top shape: 2 256 64 64 (2097152)
I0725 11:38:55.449338  7251 net.cpp:165] Memory required for data: 9420406816
I0725 11:38:55.449344  7251 layer_factory.hpp:77] Creating layer res4b6_branch2a_relu
I0725 11:38:55.449349  7251 net.cpp:100] Creating Layer res4b6_branch2a_relu
I0725 11:38:55.449352  7251 net.cpp:434] res4b6_branch2a_relu <- res4b6_branch2a
I0725 11:38:55.449358  7251 net.cpp:395] res4b6_branch2a_relu -> res4b6_branch2a (in-place)
I0725 11:38:55.449573  7251 net.cpp:150] Setting up res4b6_branch2a_relu
I0725 11:38:55.449584  7251 net.cpp:157] Top shape: 2 256 64 64 (2097152)
I0725 11:38:55.449586  7251 net.cpp:165] Memory required for data: 9428795424
I0725 11:38:55.449590  7251 layer_factory.hpp:77] Creating layer res4b6_branch2b
I0725 11:38:55.449601  7251 net.cpp:100] Creating Layer res4b6_branch2b
I0725 11:38:55.449605  7251 net.cpp:434] res4b6_branch2b <- res4b6_branch2a
I0725 11:38:55.449610  7251 net.cpp:408] res4b6_branch2b -> res4b6_branch2b
I0725 11:38:55.457176  7251 net.cpp:150] Setting up res4b6_branch2b
I0725 11:38:55.457202  7251 net.cpp:157] Top shape: 2 256 64 64 (2097152)
I0725 11:38:55.457206  7251 net.cpp:165] Memory required for data: 9437184032
I0725 11:38:55.457212  7251 layer_factory.hpp:77] Creating layer bn4b6_branch2b
I0725 11:38:55.457218  7251 net.cpp:100] Creating Layer bn4b6_branch2b
I0725 11:38:55.457222  7251 net.cpp:434] bn4b6_branch2b <- res4b6_branch2b
I0725 11:38:55.457240  7251 net.cpp:395] bn4b6_branch2b -> res4b6_branch2b (in-place)
I0725 11:38:55.457489  7251 net.cpp:150] Setting up bn4b6_branch2b
I0725 11:38:55.457497  7251 net.cpp:157] Top shape: 2 256 64 64 (2097152)
I0725 11:38:55.457500  7251 net.cpp:165] Memory required for data: 9445572640
I0725 11:38:55.457507  7251 layer_factory.hpp:77] Creating layer scale4b6_branch2b
I0725 11:38:55.457515  7251 net.cpp:100] Creating Layer scale4b6_branch2b
I0725 11:38:55.457517  7251 net.cpp:434] scale4b6_branch2b <- res4b6_branch2b
I0725 11:38:55.457522  7251 net.cpp:395] scale4b6_branch2b -> res4b6_branch2b (in-place)
I0725 11:38:55.457576  7251 layer_factory.hpp:77] Creating layer scale4b6_branch2b
I0725 11:38:55.457715  7251 net.cpp:150] Setting up scale4b6_branch2b
I0725 11:38:55.457723  7251 net.cpp:157] Top shape: 2 256 64 64 (2097152)
I0725 11:38:55.457726  7251 net.cpp:165] Memory required for data: 9453961248
I0725 11:38:55.457731  7251 layer_factory.hpp:77] Creating layer res4b6_branch2b_relu
I0725 11:38:55.457737  7251 net.cpp:100] Creating Layer res4b6_branch2b_relu
I0725 11:38:55.457741  7251 net.cpp:434] res4b6_branch2b_relu <- res4b6_branch2b
I0725 11:38:55.457746  7251 net.cpp:395] res4b6_branch2b_relu -> res4b6_branch2b (in-place)
I0725 11:38:55.457953  7251 net.cpp:150] Setting up res4b6_branch2b_relu
I0725 11:38:55.457967  7251 net.cpp:157] Top shape: 2 256 64 64 (2097152)
I0725 11:38:55.457969  7251 net.cpp:165] Memory required for data: 9462349856
I0725 11:38:55.457973  7251 layer_factory.hpp:77] Creating layer res4b6_branch2c
I0725 11:38:55.457983  7251 net.cpp:100] Creating Layer res4b6_branch2c
I0725 11:38:55.457986  7251 net.cpp:434] res4b6_branch2c <- res4b6_branch2b
I0725 11:38:55.457991  7251 net.cpp:408] res4b6_branch2c -> res4b6_branch2c
I0725 11:38:55.462412  7251 net.cpp:150] Setting up res4b6_branch2c
I0725 11:38:55.462427  7251 net.cpp:157] Top shape: 2 1024 64 64 (8388608)
I0725 11:38:55.462440  7251 net.cpp:165] Memory required for data: 9495904288
I0725 11:38:55.462446  7251 layer_factory.hpp:77] Creating layer bn4b6_branch2c
I0725 11:38:55.462452  7251 net.cpp:100] Creating Layer bn4b6_branch2c
I0725 11:38:55.462455  7251 net.cpp:434] bn4b6_branch2c <- res4b6_branch2c
I0725 11:38:55.462473  7251 net.cpp:395] bn4b6_branch2c -> res4b6_branch2c (in-place)
I0725 11:38:55.462720  7251 net.cpp:150] Setting up bn4b6_branch2c
I0725 11:38:55.462729  7251 net.cpp:157] Top shape: 2 1024 64 64 (8388608)
I0725 11:38:55.462733  7251 net.cpp:165] Memory required for data: 9529458720
I0725 11:38:55.462739  7251 layer_factory.hpp:77] Creating layer scale4b6_branch2c
I0725 11:38:55.462745  7251 net.cpp:100] Creating Layer scale4b6_branch2c
I0725 11:38:55.462749  7251 net.cpp:434] scale4b6_branch2c <- res4b6_branch2c
I0725 11:38:55.462756  7251 net.cpp:395] scale4b6_branch2c -> res4b6_branch2c (in-place)
I0725 11:38:55.462802  7251 layer_factory.hpp:77] Creating layer scale4b6_branch2c
I0725 11:38:55.462950  7251 net.cpp:150] Setting up scale4b6_branch2c
I0725 11:38:55.462960  7251 net.cpp:157] Top shape: 2 1024 64 64 (8388608)
I0725 11:38:55.462973  7251 net.cpp:165] Memory required for data: 9563013152
I0725 11:38:55.462980  7251 layer_factory.hpp:77] Creating layer res4b6
I0725 11:38:55.462987  7251 net.cpp:100] Creating Layer res4b6
I0725 11:38:55.462991  7251 net.cpp:434] res4b6 <- res4b5_res4b5_relu_0_split_1
I0725 11:38:55.462996  7251 net.cpp:434] res4b6 <- res4b6_branch2c
I0725 11:38:55.463001  7251 net.cpp:408] res4b6 -> res4b6
I0725 11:38:55.463033  7251 net.cpp:150] Setting up res4b6
I0725 11:38:55.463042  7251 net.cpp:157] Top shape: 2 1024 64 64 (8388608)
I0725 11:38:55.463044  7251 net.cpp:165] Memory required for data: 9596567584
I0725 11:38:55.463047  7251 layer_factory.hpp:77] Creating layer res4b6_relu
I0725 11:38:55.463052  7251 net.cpp:100] Creating Layer res4b6_relu
I0725 11:38:55.463055  7251 net.cpp:434] res4b6_relu <- res4b6
I0725 11:38:55.463062  7251 net.cpp:395] res4b6_relu -> res4b6 (in-place)
I0725 11:38:55.463477  7251 net.cpp:150] Setting up res4b6_relu
I0725 11:38:55.463493  7251 net.cpp:157] Top shape: 2 1024 64 64 (8388608)
I0725 11:38:55.463496  7251 net.cpp:165] Memory required for data: 9630122016
I0725 11:38:55.463500  7251 layer_factory.hpp:77] Creating layer res4b6_res4b6_relu_0_split
I0725 11:38:55.463505  7251 net.cpp:100] Creating Layer res4b6_res4b6_relu_0_split
I0725 11:38:55.463510  7251 net.cpp:434] res4b6_res4b6_relu_0_split <- res4b6
I0725 11:38:55.463516  7251 net.cpp:408] res4b6_res4b6_relu_0_split -> res4b6_res4b6_relu_0_split_0
I0725 11:38:55.463523  7251 net.cpp:408] res4b6_res4b6_relu_0_split -> res4b6_res4b6_relu_0_split_1
I0725 11:38:55.463577  7251 net.cpp:150] Setting up res4b6_res4b6_relu_0_split
I0725 11:38:55.463587  7251 net.cpp:157] Top shape: 2 1024 64 64 (8388608)
I0725 11:38:55.463590  7251 net.cpp:157] Top shape: 2 1024 64 64 (8388608)
I0725 11:38:55.463593  7251 net.cpp:165] Memory required for data: 9697230880
I0725 11:38:55.463596  7251 layer_factory.hpp:77] Creating layer res4b7_branch2a
I0725 11:38:55.463606  7251 net.cpp:100] Creating Layer res4b7_branch2a
I0725 11:38:55.463610  7251 net.cpp:434] res4b7_branch2a <- res4b6_res4b6_relu_0_split_0
…
I0725 11:38:56.830345  7251 net.cpp:157] Top shape: 2 2048 32 32 (4194304)
I0725 11:38:56.830348  7251 net.cpp:165] Memory required for data: 14998831136
I0725 11:38:56.830351  7251 layer_factory.hpp:77] Creating layer res5c_res5c_relu_0_split
I0725 11:38:56.830356  7251 net.cpp:100] Creating Layer res5c_res5c_relu_0_split
I0725 11:38:56.830359  7251 net.cpp:434] res5c_res5c_relu_0_split <- res5c
I0725 11:38:56.830365  7251 net.cpp:408] res5c_res5c_relu_0_split -> res5c_res5c_relu_0_split_0
I0725 11:38:56.830371  7251 net.cpp:408] res5c_res5c_relu_0_split -> res5c_res5c_relu_0_split_1
I0725 11:38:56.830440  7251 net.cpp:150] Setting up res5c_res5c_relu_0_split
I0725 11:38:56.830446  7251 net.cpp:157] Top shape: 2 2048 32 32 (4194304)
I0725 11:38:56.830448  7251 net.cpp:157] Top shape: 2 2048 32 32 (4194304)
I0725 11:38:56.830451  7251 net.cpp:165] Memory required for data: 15032385568
I0725 11:38:56.830453  7251 layer_factory.hpp:77] Creating layer pool5
I0725 11:38:56.830461  7251 net.cpp:100] Creating Layer pool5
I0725 11:38:56.830464  7251 net.cpp:434] pool5 <- res5c_res5c_relu_0_split_0
I0725 11:38:56.830471  7251 net.cpp:408] pool5 -> pool5
I0725 11:38:56.830755  7251 net.cpp:150] Setting up pool5
I0725 11:38:56.830763  7251 net.cpp:157] Top shape: 2 2048 1 1 (4096)
I0725 11:38:56.830766  7251 net.cpp:165] Memory required for data: 15032401952
I0725 11:38:56.830770  7251 layer_factory.hpp:77] Creating layer pool5_pool5_0_split
I0725 11:38:56.830775  7251 net.cpp:100] Creating Layer pool5_pool5_0_split
I0725 11:38:56.830780  7251 net.cpp:434] pool5_pool5_0_split <- pool5
I0725 11:38:56.830785  7251 net.cpp:408] pool5_pool5_0_split -> pool5_pool5_0_split_0
I0725 11:38:56.830791  7251 net.cpp:408] pool5_pool5_0_split -> pool5_pool5_0_split_1
I0725 11:38:56.830796  7251 net.cpp:408] pool5_pool5_0_split -> pool5_pool5_0_split_2
I0725 11:38:56.830803  7251 net.cpp:408] pool5_pool5_0_split -> pool5_pool5_0_split_3
I0725 11:38:56.830905  7251 net.cpp:150] Setting up pool5_pool5_0_split
I0725 11:38:56.830910  7251 net.cpp:157] Top shape: 2 2048 1 1 (4096)
I0725 11:38:56.830914  7251 net.cpp:157] Top shape: 2 2048 1 1 (4096)
I0725 11:38:56.830917  7251 net.cpp:157] Top shape: 2 2048 1 1 (4096)
I0725 11:38:56.830920  7251 net.cpp:157] Top shape: 2 2048 1 1 (4096)
I0725 11:38:56.830922  7251 net.cpp:165] Memory required for data: 15032467488
I0725 11:38:56.830925  7251 layer_factory.hpp:77] Creating layer conv6_1
I0725 11:38:56.830943  7251 net.cpp:100] Creating Layer conv6_1
I0725 11:38:56.830947  7251 net.cpp:434] conv6_1 <- pool5_pool5_0_split_0
I0725 11:38:56.830953  7251 net.cpp:408] conv6_1 -> conv6_1
I0725 11:38:56.835758  7251 net.cpp:150] Setting up conv6_1
I0725 11:38:56.835769  7251 net.cpp:157] Top shape: 2 256 1 1 (512)
I0725 11:38:56.835772  7251 net.cpp:165] Memory required for data: 15032469536
I0725 11:38:56.835778  7251 layer_factory.hpp:77] Creating layer conv6_1_relu
I0725 11:38:56.835784  7251 net.cpp:100] Creating Layer conv6_1_relu
I0725 11:38:56.835788  7251 net.cpp:434] conv6_1_relu <- conv6_1
I0725 11:38:56.835795  7251 net.cpp:395] conv6_1_relu -> conv6_1 (in-place)
I0725 11:38:56.836058  7251 net.cpp:150] Setting up conv6_1_relu
I0725 11:38:56.836068  7251 net.cpp:157] Top shape: 2 256 1 1 (512)
I0725 11:38:56.836071  7251 net.cpp:165] Memory required for data: 15032471584
I0725 11:38:56.836073  7251 layer_factory.hpp:77] Creating layer conv6_2
I0725 11:38:56.836083  7251 net.cpp:100] Creating Layer conv6_2
I0725 11:38:56.836086  7251 net.cpp:434] conv6_2 <- conv6_1
I0725 11:38:56.836093  7251 net.cpp:408] conv6_2 -> conv6_2
I0725 11:38:56.844759  7251 net.cpp:150] Setting up conv6_2
I0725 11:38:56.844771  7251 net.cpp:157] Top shape: 2 512 1 1 (1024)
I0725 11:38:56.844774  7251 net.cpp:165] Memory required for data: 15032475680
I0725 11:38:56.844780  7251 layer_factory.hpp:77] Creating layer conv6_2_relu
I0725 11:38:56.844785  7251 net.cpp:100] Creating Layer conv6_2_relu
I0725 11:38:56.844789  7251 net.cpp:434] conv6_2_relu <- conv6_2
I0725 11:38:56.844794  7251 net.cpp:395] conv6_2_relu -> conv6_2 (in-place)
I0725 11:38:56.845284  7251 net.cpp:150] Setting up conv6_2_relu
I0725 11:38:56.845295  7251 net.cpp:157] Top shape: 2 512 1 1 (1024)
I0725 11:38:56.845299  7251 net.cpp:165] Memory required for data: 15032479776
I0725 11:38:56.845301  7251 layer_factory.hpp:77] Creating layer conv6_2_conv6_2_relu_0_split
I0725 11:38:56.845307  7251 net.cpp:100] Creating Layer conv6_2_conv6_2_relu_0_split
I0725 11:38:56.845310  7251 net.cpp:434] conv6_2_conv6_2_relu_0_split <- conv6_2
I0725 11:38:56.845317  7251 net.cpp:408] conv6_2_conv6_2_relu_0_split -> conv6_2_conv6_2_relu_0_split_0
I0725 11:38:56.845324  7251 net.cpp:408] conv6_2_conv6_2_relu_0_split -> conv6_2_conv6_2_relu_0_split_1
I0725 11:38:56.845329  7251 net.cpp:408] conv6_2_conv6_2_relu_0_split -> conv6_2_conv6_2_relu_0_split_2
I0725 11:38:56.845335  7251 net.cpp:408] conv6_2_conv6_2_relu_0_split -> conv6_2_conv6_2_relu_0_split_3
I0725 11:38:56.845446  7251 net.cpp:150] Setting up conv6_2_conv6_2_relu_0_split
I0725 11:38:56.845453  7251 net.cpp:157] Top shape: 2 512 1 1 (1024)
I0725 11:38:56.845456  7251 net.cpp:157] Top shape: 2 512 1 1 (1024)
I0725 11:38:56.845459  7251 net.cpp:157] Top shape: 2 512 1 1 (1024)
I0725 11:38:56.845463  7251 net.cpp:157] Top shape: 2 512 1 1 (1024)
I0725 11:38:56.845464  7251 net.cpp:165] Memory required for data: 15032496160
I0725 11:38:56.845468  7251 layer_factory.hpp:77] Creating layer conv7_1
I0725 11:38:56.845479  7251 net.cpp:100] Creating Layer conv7_1
I0725 11:38:56.845482  7251 net.cpp:434] conv7_1 <- conv6_2_conv6_2_relu_0_split_0
I0725 11:38:56.845489  7251 net.cpp:408] conv7_1 -> conv7_1
I0725 11:38:56.847013  7251 net.cpp:150] Setting up conv7_1
I0725 11:38:56.847023  7251 net.cpp:157] Top shape: 2 128 1 1 (256)
I0725 11:38:56.847025  7251 net.cpp:165] Memory required for data: 15032497184
I0725 11:38:56.847033  7251 layer_factory.hpp:77] Creating layer conv7_1_relu
I0725 11:38:56.847038  7251 net.cpp:100] Creating Layer conv7_1_relu
I0725 11:38:56.847041  7251 net.cpp:434] conv7_1_relu <- conv7_1
I0725 11:38:56.847046  7251 net.cpp:395] conv7_1_relu -> conv7_1 (in-place)
I0725 11:38:56.847519  7251 net.cpp:150] Setting up conv7_1_relu
I0725 11:38:56.847529  7251 net.cpp:157] Top shape: 2 128 1 1 (256)
I0725 11:38:56.847532  7251 net.cpp:165] Memory required for data: 15032498208
I0725 11:38:56.847534  7251 layer_factory.hpp:77] Creating layer conv7_2
I0725 11:38:56.847544  7251 net.cpp:100] Creating Layer conv7_2
I0725 11:38:56.847558  7251 net.cpp:434] conv7_2 <- conv7_1
I0725 11:38:56.847566  7251 net.cpp:408] conv7_2 -> conv7_2
I0725 11:38:56.851320  7251 net.cpp:150] Setting up conv7_2
I0725 11:38:56.851331  7251 net.cpp:157] Top shape: 2 256 1 1 (512)
I0725 11:38:56.851335  7251 net.cpp:165] Memory required for data: 15032500256
I0725 11:38:56.851341  7251 layer_factory.hpp:77] Creating layer conv7_2_relu
I0725 11:38:56.851347  7251 net.cpp:100] Creating Layer conv7_2_relu
I0725 11:38:56.851351  7251 net.cpp:434] conv7_2_relu <- conv7_2
I0725 11:38:56.851356  7251 net.cpp:395] conv7_2_relu -> conv7_2 (in-place)
I0725 11:38:56.851608  7251 net.cpp:150] Setting up conv7_2_relu
I0725 11:38:56.851616  7251 net.cpp:157] Top shape: 2 256 1 1 (512)
I0725 11:38:56.851619  7251 net.cpp:165] Memory required for data: 15032502304
I0725 11:38:56.851622  7251 layer_factory.hpp:77] Creating layer conv7_2_conv7_2_relu_0_split
I0725 11:38:56.851629  7251 net.cpp:100] Creating Layer conv7_2_conv7_2_relu_0_split
I0725 11:38:56.851632  7251 net.cpp:434] conv7_2_conv7_2_relu_0_split <- conv7_2
I0725 11:38:56.851636  7251 net.cpp:408] conv7_2_conv7_2_relu_0_split -> conv7_2_conv7_2_relu_0_split_0
I0725 11:38:56.851644  7251 net.cpp:408] conv7_2_conv7_2_relu_0_split -> conv7_2_conv7_2_relu_0_split_1
I0725 11:38:56.851650  7251 net.cpp:408] conv7_2_conv7_2_relu_0_split -> conv7_2_conv7_2_relu_0_split_2
I0725 11:38:56.851655  7251 net.cpp:408] conv7_2_conv7_2_relu_0_split -> conv7_2_conv7_2_relu_0_split_3
I0725 11:38:56.851771  7251 net.cpp:150] Setting up conv7_2_conv7_2_relu_0_split
I0725 11:38:56.851778  7251 net.cpp:157] Top shape: 2 256 1 1 (512)
I0725 11:38:56.851780  7251 net.cpp:157] Top shape: 2 256 1 1 (512)
I0725 11:38:56.851783  7251 net.cpp:157] Top shape: 2 256 1 1 (512)
I0725 11:38:56.851786  7251 net.cpp:157] Top shape: 2 256 1 1 (512)
I0725 11:38:56.851788  7251 net.cpp:165] Memory required for data: 15032510496
I0725 11:38:56.851791  7251 layer_factory.hpp:77] Creating layer conv8_1
I0725 11:38:56.851802  7251 net.cpp:100] Creating Layer conv8_1
I0725 11:38:56.851806  7251 net.cpp:434] conv8_1 <- conv7_2_conv7_2_relu_0_split_0
I0725 11:38:56.851811  7251 net.cpp:408] conv8_1 -> conv8_1
I0725 11:38:56.854353  7251 net.cpp:150] Setting up conv8_1
I0725 11:38:56.854367  7251 net.cpp:157] Top shape: 2 128 1 1 (256)
I0725 11:38:56.854369  7251 net.cpp:165] Memory required for data: 15032511520
I0725 11:38:56.854375  7251 layer_factory.hpp:77] Creating layer conv8_1_relu
I0725 11:38:56.854380  7251 net.cpp:100] Creating Layer conv8_1_relu
I0725 11:38:56.854384  7251 net.cpp:434] conv8_1_relu <- conv8_1
I0725 11:38:56.854388  7251 net.cpp:395] conv8_1_relu -> conv8_1 (in-place)
I0725 11:38:56.854638  7251 net.cpp:150] Setting up conv8_1_relu
I0725 11:38:56.854647  7251 net.cpp:157] Top shape: 2 128 1 1 (256)
I0725 11:38:56.854650  7251 net.cpp:165] Memory required for data: 15032512544
I0725 11:38:56.854652  7251 layer_factory.hpp:77] Creating layer conv8_2
I0725 11:38:56.854665  7251 net.cpp:100] Creating Layer conv8_2
I0725 11:38:56.854668  7251 net.cpp:434] conv8_2 <- conv8_1
I0725 11:38:56.854674  7251 net.cpp:408] conv8_2 -> conv8_2
I0725 11:38:56.856137  7251 net.cpp:150] Setting up conv8_2
I0725 11:38:56.856149  7251 net.cpp:157] Top shape: 2 256 1 1 (512)
I0725 11:38:56.856151  7251 net.cpp:165] Memory required for data: 15032514592
I0725 11:38:56.856158  7251 layer_factory.hpp:77] Creating layer conv8_2_relu
I0725 11:38:56.856168  7251 net.cpp:100] Creating Layer conv8_2_relu
I0725 11:38:56.856170  7251 net.cpp:434] conv8_2_relu <- conv8_2
I0725 11:38:56.856175  7251 net.cpp:395] conv8_2_relu -> conv8_2 (in-place)
I0725 11:38:56.856428  7251 net.cpp:150] Setting up conv8_2_relu
I0725 11:38:56.856436  7251 net.cpp:157] Top shape: 2 256 1 1 (512)
I0725 11:38:56.856439  7251 net.cpp:165] Memory required for data: 15032516640
I0725 11:38:56.856442  7251 layer_factory.hpp:77] Creating layer conv8_2_conv8_2_relu_0_split
I0725 11:38:56.856449  7251 net.cpp:100] Creating Layer conv8_2_conv8_2_relu_0_split
I0725 11:38:56.856452  7251 net.cpp:434] conv8_2_conv8_2_relu_0_split <- conv8_2
I0725 11:38:56.856467  7251 net.cpp:408] conv8_2_conv8_2_relu_0_split -> conv8_2_conv8_2_relu_0_split_0
I0725 11:38:56.856477  7251 net.cpp:408] conv8_2_conv8_2_relu_0_split -> conv8_2_conv8_2_relu_0_split_1
I0725 11:38:56.856482  7251 net.cpp:408] conv8_2_conv8_2_relu_0_split -> conv8_2_conv8_2_relu_0_split_2
I0725 11:38:56.856487  7251 net.cpp:408] conv8_2_conv8_2_relu_0_split -> conv8_2_conv8_2_relu_0_split_3
I0725 11:38:56.856554  7251 net.cpp:150] Setting up conv8_2_conv8_2_relu_0_split
I0725 11:38:56.856559  7251 net.cpp:157] Top shape: 2 256 1 1 (512)
I0725 11:38:56.856562  7251 net.cpp:157] Top shape: 2 256 1 1 (512)
I0725 11:38:56.856565  7251 net.cpp:157] Top shape: 2 256 1 1 (512)
I0725 11:38:56.856568  7251 net.cpp:157] Top shape: 2 256 1 1 (512)
I0725 11:38:56.856570  7251 net.cpp:165] Memory required for data: 15032524832
I0725 11:38:56.856573  7251 layer_factory.hpp:77] Creating layer conv9_1
I0725 11:38:56.856583  7251 net.cpp:100] Creating Layer conv9_1
I0725 11:38:56.856587  7251 net.cpp:434] conv9_1 <- conv8_2_conv8_2_relu_0_split_0
I0725 11:38:56.856592  7251 net.cpp:408] conv9_1 -> conv9_1
I0725 11:38:56.858927  7251 net.cpp:150] Setting up conv9_1
I0725 11:38:56.858938  7251 net.cpp:157] Top shape: 2 128 1 1 (256)
I0725 11:38:56.858942  7251 net.cpp:165] Memory required for data: 15032525856
I0725 11:38:56.858947  7251 layer_factory.hpp:77] Creating layer conv9_1_relu
I0725 11:38:56.858952  7251 net.cpp:100] Creating Layer conv9_1_relu
I0725 11:38:56.858956  7251 net.cpp:434] conv9_1_relu <- conv9_1
I0725 11:38:56.858963  7251 net.cpp:395] conv9_1_relu -> conv9_1 (in-place)
I0725 11:38:56.859220  7251 net.cpp:150] Setting up conv9_1_relu
I0725 11:38:56.859228  7251 net.cpp:157] Top shape: 2 128 1 1 (256)
I0725 11:38:56.859230  7251 net.cpp:165] Memory required for data: 15032526880
I0725 11:38:56.859233  7251 layer_factory.hpp:77] Creating layer conv9_2
I0725 11:38:56.859242  7251 net.cpp:100] Creating Layer conv9_2
I0725 11:38:56.859246  7251 net.cpp:434] conv9_2 <- conv9_1
I0725 11:38:56.859253  7251 net.cpp:408] conv9_2 -> conv9_2
I0725 11:38:56.860674  7251 net.cpp:150] Setting up conv9_2
I0725 11:38:56.860685  7251 net.cpp:157] Top shape: 2 256 1 1 (512)
I0725 11:38:56.860688  7251 net.cpp:165] Memory required for data: 15032528928
I0725 11:38:56.860694  7251 layer_factory.hpp:77] Creating layer conv9_2_relu
I0725 11:38:56.860699  7251 net.cpp:100] Creating Layer conv9_2_relu
I0725 11:38:56.860703  7251 net.cpp:434] conv9_2_relu <- conv9_2
I0725 11:38:56.860709  7251 net.cpp:395] conv9_2_relu -> conv9_2 (in-place)
I0725 11:38:56.861204  7251 net.cpp:150] Setting up conv9_2_relu
I0725 11:38:56.861215  7251 net.cpp:157] Top shape: 2 256 1 1 (512)
I0725 11:38:56.861217  7251 net.cpp:165] Memory required for data: 15032530976
I0725 11:38:56.861220  7251 layer_factory.hpp:77] Creating layer conv9_2_conv9_2_relu_0_split
I0725 11:38:56.861227  7251 net.cpp:100] Creating Layer conv9_2_conv9_2_relu_0_split
I0725 11:38:56.861230  7251 net.cpp:434] conv9_2_conv9_2_relu_0_split <- conv9_2
I0725 11:38:56.861238  7251 net.cpp:408] conv9_2_conv9_2_relu_0_split -> conv9_2_conv9_2_relu_0_split_0
I0725 11:38:56.861243  7251 net.cpp:408] conv9_2_conv9_2_relu_0_split -> conv9_2_conv9_2_relu_0_split_1
I0725 11:38:56.861248  7251 net.cpp:408] conv9_2_conv9_2_relu_0_split -> conv9_2_conv9_2_relu_0_split_2
I0725 11:38:56.861306  7251 net.cpp:150] Setting up conv9_2_conv9_2_relu_0_split
I0725 11:38:56.861311  7251 net.cpp:157] Top shape: 2 256 1 1 (512)
I0725 11:38:56.861315  7251 net.cpp:157] Top shape: 2 256 1 1 (512)
I0725 11:38:56.861317  7251 net.cpp:157] Top shape: 2 256 1 1 (512)
I0725 11:38:56.861320  7251 net.cpp:165] Memory required for data: 15032537120
I0725 11:38:56.861322  7251 layer_factory.hpp:77] Creating layer res5c_norm
I0725 11:38:56.861330  7251 net.cpp:100] Creating Layer res5c_norm
I0725 11:38:56.861333  7251 net.cpp:434] res5c_norm <- res5c_res5c_relu_0_split_1
I0725 11:38:56.861338  7251 net.cpp:408] res5c_norm -> res5c_norm
I0725 11:38:56.861533  7251 net.cpp:150] Setting up res5c_norm
I0725 11:38:56.861541  7251 net.cpp:157] Top shape: 2 2048 32 32 (4194304)
I0725 11:38:56.861543  7251 net.cpp:165] Memory required for data: 15049314336
I0725 11:38:56.861547  7251 layer_factory.hpp:77] Creating layer res5c_norm_res5c_norm_0_split
I0725 11:38:56.861552  7251 net.cpp:100] Creating Layer res5c_norm_res5c_norm_0_split
I0725 11:38:56.861557  7251 net.cpp:434] res5c_norm_res5c_norm_0_split <- res5c_norm
I0725 11:38:56.861560  7251 net.cpp:408] res5c_norm_res5c_norm_0_split -> res5c_norm_res5c_norm_0_split_0
I0725 11:38:56.861567  7251 net.cpp:408] res5c_norm_res5c_norm_0_split -> res5c_norm_res5c_norm_0_split_1
I0725 11:38:56.861572  7251 net.cpp:408] res5c_norm_res5c_norm_0_split -> res5c_norm_res5c_norm_0_split_2
I0725 11:38:56.861613  7251 net.cpp:150] Setting up res5c_norm_res5c_norm_0_split
I0725 11:38:56.861618  7251 net.cpp:157] Top shape: 2 2048 32 32 (4194304)
I0725 11:38:56.861621  7251 net.cpp:157] Top shape: 2 2048 32 32 (4194304)
I0725 11:38:56.861624  7251 net.cpp:157] Top shape: 2 2048 32 32 (4194304)
I0725 11:38:56.861627  7251 net.cpp:165] Memory required for data: 15099645984
I0725 11:38:56.861629  7251 layer_factory.hpp:77] Creating layer res5c_norm_mbox_loc_bdc2018
I0725 11:38:56.861637  7251 net.cpp:100] Creating Layer res5c_norm_mbox_loc_bdc2018
I0725 11:38:56.861640  7251 net.cpp:434] res5c_norm_mbox_loc_bdc2018 <- res5c_norm_res5c_norm_0_split_0
I0725 11:38:56.861647  7251 net.cpp:408] res5c_norm_mbox_loc_bdc2018 -> res5c_norm_mbox_loc_bdc2018
I0725 11:38:56.865185  7251 net.cpp:150] Setting up res5c_norm_mbox_loc_bdc2018
I0725 11:38:56.865196  7251 net.cpp:157] Top shape: 2 16 32 32 (32768)
I0725 11:38:56.865200  7251 net.cpp:165] Memory required for data: 15099777056
I0725 11:38:56.865206  7251 layer_factory.hpp:77] Creating layer res5c_norm_mbox_loc_bdc2018_perm_bdc2018
I0725 11:38:56.865213  7251 net.cpp:100] Creating Layer res5c_norm_mbox_loc_bdc2018_perm_bdc2018
I0725 11:38:56.865218  7251 net.cpp:434] res5c_norm_mbox_loc_bdc2018_perm_bdc2018 <- res5c_norm_mbox_loc_bdc2018
I0725 11:38:56.865224  7251 net.cpp:408] res5c_norm_mbox_loc_bdc2018_perm_bdc2018 -> res5c_norm_mbox_loc_bdc2018_perm_bdc2018
I0725 11:38:56.865325  7251 net.cpp:150] Setting up res5c_norm_mbox_loc_bdc2018_perm_bdc2018
I0725 11:38:56.865332  7251 net.cpp:157] Top shape: 2 32 32 16 (32768)
I0725 11:38:56.865334  7251 net.cpp:165] Memory required for data: 15099908128
I0725 11:38:56.865337  7251 layer_factory.hpp:77] Creating layer res5c_norm_mbox_loc_bdc2018_flat_bdc2018
I0725 11:38:56.865344  7251 net.cpp:100] Creating Layer res5c_norm_mbox_loc_bdc2018_flat_bdc2018
I0725 11:38:56.865347  7251 net.cpp:434] res5c_norm_mbox_loc_bdc2018_flat_bdc2018 <- res5c_norm_mbox_loc_bdc2018_perm_bdc2018
I0725 11:38:56.865353  7251 net.cpp:408] res5c_norm_mbox_loc_bdc2018_flat_bdc2018 -> res5c_norm_mbox_loc_bdc2018_flat_bdc2018
I0725 11:38:56.865376  7251 net.cpp:150] Setting up res5c_norm_mbox_loc_bdc2018_flat_bdc2018
I0725 11:38:56.865381  7251 net.cpp:157] Top shape: 2 16384 (32768)
I0725 11:38:56.865383  7251 net.cpp:165] Memory required for data: 15100039200
I0725 11:38:56.865386  7251 layer_factory.hpp:77] Creating layer res5c_norm_mbox_conf_bdc2018_new
I0725 11:38:56.865396  7251 net.cpp:100] Creating Layer res5c_norm_mbox_conf_bdc2018_new
I0725 11:38:56.865398  7251 net.cpp:434] res5c_norm_mbox_conf_bdc2018_new <- res5c_norm_res5c_norm_0_split_1
I0725 11:38:56.865406  7251 net.cpp:408] res5c_norm_mbox_conf_bdc2018_new -> res5c_norm_mbox_conf_bdc2018_new
I0725 11:38:56.871109  7251 net.cpp:150] Setting up res5c_norm_mbox_conf_bdc2018_new
I0725 11:38:56.871120  7251 net.cpp:157] Top shape: 2 36 32 32 (73728)
I0725 11:38:56.871124  7251 net.cpp:165] Memory required for data: 15100334112
I0725 11:38:56.871129  7251 layer_factory.hpp:77] Creating layer res5c_norm_mbox_conf_bdc2018_new_perm_bdc2018_new
I0725 11:38:56.871135  7251 net.cpp:100] Creating Layer res5c_norm_mbox_conf_bdc2018_new_perm_bdc2018_new
I0725 11:38:56.871140  7251 net.cpp:434] res5c_norm_mbox_conf_bdc2018_new_perm_bdc2018_new <- res5c_norm_mbox_conf_bdc2018_new
I0725 11:38:56.871156  7251 net.cpp:408] res5c_norm_mbox_conf_bdc2018_new_perm_bdc2018_new -> res5c_norm_mbox_conf_bdc2018_new_perm_bdc2018_new
I0725 11:38:56.871261  7251 net.cpp:150] Setting up res5c_norm_mbox_conf_bdc2018_new_perm_bdc2018_new
I0725 11:38:56.871268  7251 net.cpp:157] Top shape: 2 32 32 36 (73728)
I0725 11:38:56.871270  7251 net.cpp:165] Memory required for data: 15100629024
I0725 11:38:56.871273  7251 layer_factory.hpp:77] Creating layer res5c_norm_mbox_conf_bdc2018_new_flat_bdc2018_new
I0725 11:38:56.871279  7251 net.cpp:100] Creating Layer res5c_norm_mbox_conf_bdc2018_new_flat_bdc2018_new
I0725 11:38:56.871282  7251 net.cpp:434] res5c_norm_mbox_conf_bdc2018_new_flat_bdc2018_new <- res5c_norm_mbox_conf_bdc2018_new_perm_bdc2018_new
I0725 11:38:56.871289  7251 net.cpp:408] res5c_norm_mbox_conf_bdc2018_new_flat_bdc2018_new -> res5c_norm_mbox_conf_bdc2018_new_flat_bdc2018_new
I0725 11:38:56.871311  7251 net.cpp:150] Setting up res5c_norm_mbox_conf_bdc2018_new_flat_bdc2018_new
I0725 11:38:56.871316  7251 net.cpp:157] Top shape: 2 36864 (73728)
I0725 11:38:56.871320  7251 net.cpp:165] Memory required for data: 15100923936
I0725 11:38:56.871321  7251 layer_factory.hpp:77] Creating layer res5c_norm_mbox_priorbox
I0725 11:38:56.871414  7251 net.cpp:100] Creating Layer res5c_norm_mbox_priorbox
I0725 11:38:56.871419  7251 net.cpp:434] res5c_norm_mbox_priorbox <- res5c_norm_res5c_norm_0_split_2
I0725 11:38:56.871423  7251 net.cpp:434] res5c_norm_mbox_priorbox <- data_data_0_split_1
I0725 11:38:56.871428  7251 net.cpp:408] res5c_norm_mbox_priorbox -> res5c_norm_mbox_priorbox
I0725 11:38:56.871456  7251 net.cpp:150] Setting up res5c_norm_mbox_priorbox
I0725 11:38:56.871462  7251 net.cpp:157] Top shape: 1 2 16384 (32768)
I0725 11:38:56.871464  7251 net.cpp:165] Memory required for data: 15101055008
I0725 11:38:56.871467  7251 layer_factory.hpp:77] Creating layer pool5_mbox_loc_bdc2018
I0725 11:38:56.871475  7251 net.cpp:100] Creating Layer pool5_mbox_loc_bdc2018
I0725 11:38:56.871479  7251 net.cpp:434] pool5_mbox_loc_bdc2018 <- pool5_pool5_0_split_1
I0725 11:38:56.871484  7251 net.cpp:408] pool5_mbox_loc_bdc2018 -> pool5_mbox_loc_bdc2018
I0725 11:38:56.876168  7251 net.cpp:150] Setting up pool5_mbox_loc_bdc2018
I0725 11:38:56.876179  7251 net.cpp:157] Top shape: 2 24 1 1 (48)
I0725 11:38:56.876183  7251 net.cpp:165] Memory required for data: 15101055200
I0725 11:38:56.876189  7251 layer_factory.hpp:77] Creating layer pool5_mbox_loc_bdc2018_perm_bdc2018
I0725 11:38:56.876195  7251 net.cpp:100] Creating Layer pool5_mbox_loc_bdc2018_perm_bdc2018
I0725 11:38:56.876199  7251 net.cpp:434] pool5_mbox_loc_bdc2018_perm_bdc2018 <- pool5_mbox_loc_bdc2018
I0725 11:38:56.876204  7251 net.cpp:408] pool5_mbox_loc_bdc2018_perm_bdc2018 -> pool5_mbox_loc_bdc2018_perm_bdc2018
I0725 11:38:56.876296  7251 net.cpp:150] Setting up pool5_mbox_loc_bdc2018_perm_bdc2018
I0725 11:38:56.876302  7251 net.cpp:157] Top shape: 2 1 1 24 (48)
I0725 11:38:56.876304  7251 net.cpp:165] Memory required for data: 15101055392
I0725 11:38:56.876307  7251 layer_factory.hpp:77] Creating layer pool5_mbox_loc_bdc2018_flat_bdc2018
I0725 11:38:56.876312  7251 net.cpp:100] Creating Layer pool5_mbox_loc_bdc2018_flat_bdc2018
I0725 11:38:56.876315  7251 net.cpp:434] pool5_mbox_loc_bdc2018_flat_bdc2018 <- pool5_mbox_loc_bdc2018_perm_bdc2018
I0725 11:38:56.876319  7251 net.cpp:408] pool5_mbox_loc_bdc2018_flat_bdc2018 -> pool5_mbox_loc_bdc2018_flat_bdc2018
I0725 11:38:56.876379  7251 net.cpp:150] Setting up pool5_mbox_loc_bdc2018_flat_bdc2018
I0725 11:38:56.876384  7251 net.cpp:157] Top shape: 2 24 (48)
I0725 11:38:56.876387  7251 net.cpp:165] Memory required for data: 15101055584
I0725 11:38:56.876390  7251 layer_factory.hpp:77] Creating layer pool5_mbox_conf_bdc2018_new
I0725 11:38:56.876399  7251 net.cpp:100] Creating Layer pool5_mbox_conf_bdc2018_new
I0725 11:38:56.876401  7251 net.cpp:434] pool5_mbox_conf_bdc2018_new <- pool5_pool5_0_split_2
I0725 11:38:56.876406  7251 net.cpp:408] pool5_mbox_conf_bdc2018_new -> pool5_mbox_conf_bdc2018_new
I0725 11:38:56.884186  7251 net.cpp:150] Setting up pool5_mbox_conf_bdc2018_new
I0725 11:38:56.884197  7251 net.cpp:157] Top shape: 2 54 1 1 (108)
I0725 11:38:56.884201  7251 net.cpp:165] Memory required for data: 15101056016
I0725 11:38:56.884209  7251 layer_factory.hpp:77] Creating layer pool5_mbox_conf_bdc2018_new_perm_bdc2018_new
I0725 11:38:56.884215  7251 net.cpp:100] Creating Layer pool5_mbox_conf_bdc2018_new_perm_bdc2018_new
I0725 11:38:56.884219  7251 net.cpp:434] pool5_mbox_conf_bdc2018_new_perm_bdc2018_new <- pool5_mbox_conf_bdc2018_new
I0725 11:38:56.884227  7251 net.cpp:408] pool5_mbox_conf_bdc2018_new_perm_bdc2018_new -> pool5_mbox_conf_bdc2018_new_perm_bdc2018_new
I0725 11:38:56.884327  7251 net.cpp:150] Setting up pool5_mbox_conf_bdc2018_new_perm_bdc2018_new
I0725 11:38:56.884333  7251 net.cpp:157] Top shape: 2 1 1 54 (108)
I0725 11:38:56.884335  7251 net.cpp:165] Memory required for data: 15101056448
I0725 11:38:56.884338  7251 layer_factory.hpp:77] Creating layer pool5_mbox_conf_bdc2018_new_flat_bdc2018_new
I0725 11:38:56.884343  7251 net.cpp:100] Creating Layer pool5_mbox_conf_bdc2018_new_flat_bdc2018_new
I0725 11:38:56.884346  7251 net.cpp:434] pool5_mbox_conf_bdc2018_new_flat_bdc2018_new <- pool5_mbox_conf_bdc2018_new_perm_bdc2018_new
I0725 11:38:56.884352  7251 net.cpp:408] pool5_mbox_conf_bdc2018_new_flat_bdc2018_new -> pool5_mbox_conf_bdc2018_new_flat_bdc2018_new
I0725 11:38:56.884377  7251 net.cpp:150] Setting up pool5_mbox_conf_bdc2018_new_flat_bdc2018_new
I0725 11:38:56.884380  7251 net.cpp:157] Top shape: 2 54 (108)
I0725 11:38:56.884382  7251 net.cpp:165] Memory required for data: 15101056880
I0725 11:38:56.884385  7251 layer_factory.hpp:77] Creating layer pool5_mbox_priorbox
I0725 11:38:56.884392  7251 net.cpp:100] Creating Layer pool5_mbox_priorbox
I0725 11:38:56.884394  7251 net.cpp:434] pool5_mbox_priorbox <- pool5_pool5_0_split_3
I0725 11:38:56.884398  7251 net.cpp:434] pool5_mbox_priorbox <- data_data_0_split_2
I0725 11:38:56.884404  7251 net.cpp:408] pool5_mbox_priorbox -> pool5_mbox_priorbox
I0725 11:38:56.884429  7251 net.cpp:150] Setting up pool5_mbox_priorbox
I0725 11:38:56.884434  7251 net.cpp:157] Top shape: 1 2 24 (48)
I0725 11:38:56.884436  7251 net.cpp:165] Memory required for data: 15101057072
I0725 11:38:56.884440  7251 layer_factory.hpp:77] Creating layer conv6_2_mbox_loc_bdc2018
I0725 11:38:56.884449  7251 net.cpp:100] Creating Layer conv6_2_mbox_loc_bdc2018
I0725 11:38:56.884454  7251 net.cpp:434] conv6_2_mbox_loc_bdc2018 <- conv6_2_conv6_2_relu_0_split_1
I0725 11:38:56.884459  7251 net.cpp:408] conv6_2_mbox_loc_bdc2018 -> conv6_2_mbox_loc_bdc2018
I0725 11:38:56.886420  7251 net.cpp:150] Setting up conv6_2_mbox_loc_bdc2018
I0725 11:38:56.886432  7251 net.cpp:157] Top shape: 2 24 1 1 (48)
I0725 11:38:56.886435  7251 net.cpp:165] Memory required for data: 15101057264
I0725 11:38:56.886441  7251 layer_factory.hpp:77] Creating layer conv6_2_mbox_loc_bdc2018_perm_bdc2018
I0725 11:38:56.886446  7251 net.cpp:100] Creating Layer conv6_2_mbox_loc_bdc2018_perm_bdc2018
I0725 11:38:56.886451  7251 net.cpp:434] conv6_2_mbox_loc_bdc2018_perm_bdc2018 <- conv6_2_mbox_loc_bdc2018
I0725 11:38:56.886458  7251 net.cpp:408] conv6_2_mbox_loc_bdc2018_perm_bdc2018 -> conv6_2_mbox_loc_bdc2018_perm_bdc2018
I0725 11:38:56.886564  7251 net.cpp:150] Setting up conv6_2_mbox_loc_bdc2018_perm_bdc2018
I0725 11:38:56.886570  7251 net.cpp:157] Top shape: 2 1 1 24 (48)
I0725 11:38:56.886572  7251 net.cpp:165] Memory required for data: 15101057456
I0725 11:38:56.886575  7251 layer_factory.hpp:77] Creating layer conv6_2_mbox_loc_bdc2018_flat_bdc2018
I0725 11:38:56.886582  7251 net.cpp:100] Creating Layer conv6_2_mbox_loc_bdc2018_flat_bdc2018
I0725 11:38:56.886585  7251 net.cpp:434] conv6_2_mbox_loc_bdc2018_flat_bdc2018 <- conv6_2_mbox_loc_bdc2018_perm_bdc2018
I0725 11:38:56.886591  7251 net.cpp:408] conv6_2_mbox_loc_bdc2018_flat_bdc2018 -> conv6_2_mbox_loc_bdc2018_flat_bdc2018
I0725 11:38:56.886615  7251 net.cpp:150] Setting up conv6_2_mbox_loc_bdc2018_flat_bdc2018
I0725 11:38:56.886628  7251 net.cpp:157] Top shape: 2 24 (48)
I0725 11:38:56.886631  7251 net.cpp:165] Memory required for data: 15101057648
I0725 11:38:56.886636  7251 layer_factory.hpp:77] Creating layer conv6_2_mbox_conf_bdc2018_new
I0725 11:38:56.886646  7251 net.cpp:100] Creating Layer conv6_2_mbox_conf_bdc2018_new
I0725 11:38:56.886651  7251 net.cpp:434] conv6_2_mbox_conf_bdc2018_new <- conv6_2_conv6_2_relu_0_split_2
I0725 11:38:56.971423  7251 net.cpp:408] conv6_2_mbox_conf_bdc2018_new -> conv6_2_mbox_conf_bdc2018_new
I0725 11:38:56.976392  7251 net.cpp:150] Setting up conv6_2_mbox_conf_bdc2018_new
I0725 11:38:56.976418  7251 net.cpp:157] Top shape: 2 54 1 1 (108)
I0725 11:38:56.976423  7251 net.cpp:165] Memory required for data: 15101058080
I0725 11:38:56.976435  7251 layer_factory.hpp:77] Creating layer conv6_2_mbox_conf_bdc2018_new_perm_bdc2018_new
I0725 11:38:56.976447  7251 net.cpp:100] Creating Layer conv6_2_mbox_conf_bdc2018_new_perm_bdc2018_new
I0725 11:38:56.976454  7251 net.cpp:434] conv6_2_mbox_conf_bdc2018_new_perm_bdc2018_new <- conv6_2_mbox_conf_bdc2018_new
I0725 11:38:56.976469  7251 net.cpp:408] conv6_2_mbox_conf_bdc2018_new_perm_bdc2018_new -> conv6_2_mbox_conf_bdc2018_new_perm_bdc2018_new
I0725 11:38:56.976680  7251 net.cpp:150] Setting up conv6_2_mbox_conf_bdc2018_new_perm_bdc2018_new
I0725 11:38:56.976693  7251 net.cpp:157] Top shape: 2 1 1 54 (108)
I0725 11:38:56.976697  7251 net.cpp:165] Memory required for data: 15101058512
I0725 11:38:56.976703  7251 layer_factory.hpp:77] Creating layer conv6_2_mbox_conf_bdc2018_new_flat_bdc2018_new
I0725 11:38:56.976713  7251 net.cpp:100] Creating Layer conv6_2_mbox_conf_bdc2018_new_flat_bdc2018_new
I0725 11:38:56.976719  7251 net.cpp:434] conv6_2_mbox_conf_bdc2018_new_flat_bdc2018_new <- conv6_2_mbox_conf_bdc2018_new_perm_bdc2018_new
I0725 11:38:56.976732  7251 net.cpp:408] conv6_2_mbox_conf_bdc2018_new_flat_bdc2018_new -> conv6_2_mbox_conf_bdc2018_new_flat_bdc2018_new
I0725 11:38:56.976776  7251 net.cpp:150] Setting up conv6_2_mbox_conf_bdc2018_new_flat_bdc2018_new
I0725 11:38:56.976788  7251 net.cpp:157] Top shape: 2 54 (108)
I0725 11:38:56.976792  7251 net.cpp:165] Memory required for data: 15101058944
I0725 11:38:56.976800  7251 layer_factory.hpp:77] Creating layer conv6_2_mbox_priorbox
I0725 11:38:56.976814  7251 net.cpp:100] Creating Layer conv6_2_mbox_priorbox
I0725 11:38:56.976821  7251 net.cpp:434] conv6_2_mbox_priorbox <- conv6_2_conv6_2_relu_0_split_3
I0725 11:38:56.976828  7251 net.cpp:434] conv6_2_mbox_priorbox <- data_data_0_split_3
I0725 11:38:56.976840  7251 net.cpp:408] conv6_2_mbox_priorbox -> conv6_2_mbox_priorbox
I0725 11:38:56.976887  7251 net.cpp:150] Setting up conv6_2_mbox_priorbox
I0725 11:38:56.976899  7251 net.cpp:157] Top shape: 1 2 24 (48)
I0725 11:38:56.976903  7251 net.cpp:165] Memory required for data: 15101059136
I0725 11:38:56.976909  7251 layer_factory.hpp:77] Creating layer conv7_2_mbox_loc_bdc2018
I0725 11:38:56.976927  7251 net.cpp:100] Creating Layer conv7_2_mbox_loc_bdc2018
I0725 11:38:56.976935  7251 net.cpp:434] conv7_2_mbox_loc_bdc2018 <- conv7_2_conv7_2_relu_0_split_1
I0725 11:38:56.976950  7251 net.cpp:408] conv7_2_mbox_loc_bdc2018 -> conv7_2_mbox_loc_bdc2018
I0725 11:38:56.980237  7251 net.cpp:150] Setting up conv7_2_mbox_loc_bdc2018
I0725 11:38:56.980262  7251 net.cpp:157] Top shape: 2 24 1 1 (48)
I0725 11:38:56.980268  7251 net.cpp:165] Memory required for data: 15101059328
I0725 11:38:56.980283  7251 layer_factory.hpp:77] Creating layer conv7_2_mbox_loc_bdc2018_perm_bdc2018
I0725 11:38:56.980298  7251 net.cpp:100] Creating Layer conv7_2_mbox_loc_bdc2018_perm_bdc2018
I0725 11:38:56.980309  7251 net.cpp:434] conv7_2_mbox_loc_bdc2018_perm_bdc2018 <- conv7_2_mbox_loc_bdc2018
I0725 11:38:56.980322  7251 net.cpp:408] conv7_2_mbox_loc_bdc2018_perm_bdc2018 -> conv7_2_mbox_loc_bdc2018_perm_bdc2018
I0725 11:38:56.980530  7251 net.cpp:150] Setting up conv7_2_mbox_loc_bdc2018_perm_bdc2018
I0725 11:38:56.980546  7251 net.cpp:157] Top shape: 2 1 1 24 (48)
I0725 11:38:56.980551  7251 net.cpp:165] Memory required for data: 15101059520
I0725 11:38:56.980578  7251 layer_factory.hpp:77] Creating layer conv7_2_mbox_loc_bdc2018_flat_bdc2018
I0725 11:38:56.980589  7251 net.cpp:100] Creating Layer conv7_2_mbox_loc_bdc2018_flat_bdc2018
I0725 11:38:56.980597  7251 net.cpp:434] conv7_2_mbox_loc_bdc2018_flat_bdc2018 <- conv7_2_mbox_loc_bdc2018_perm_bdc2018
I0725 11:38:56.980608  7251 net.cpp:408] conv7_2_mbox_loc_bdc2018_flat_bdc2018 -> conv7_2_mbox_loc_bdc2018_flat_bdc2018
I0725 11:38:56.980656  7251 net.cpp:150] Setting up conv7_2_mbox_loc_bdc2018_flat_bdc2018
I0725 11:38:56.980670  7251 net.cpp:157] Top shape: 2 24 (48)
I0725 11:38:56.980675  7251 net.cpp:165] Memory required for data: 15101059712
I0725 11:38:56.980680  7251 layer_factory.hpp:77] Creating layer conv7_2_mbox_conf_bdc2018_new
I0725 11:38:56.980697  7251 net.cpp:100] Creating Layer conv7_2_mbox_conf_bdc2018_new
I0725 11:38:56.980706  7251 net.cpp:434] conv7_2_mbox_conf_bdc2018_new <- conv7_2_conv7_2_relu_0_split_2
I0725 11:38:56.980716  7251 net.cpp:408] conv7_2_mbox_conf_bdc2018_new -> conv7_2_mbox_conf_bdc2018_new
I0725 11:38:56.984454  7251 net.cpp:150] Setting up conv7_2_mbox_conf_bdc2018_new
I0725 11:38:56.984472  7251 net.cpp:157] Top shape: 2 54 1 1 (108)
I0725 11:38:56.984486  7251 net.cpp:165] Memory required for data: 15101060144
I0725 11:38:56.984498  7251 layer_factory.hpp:77] Creating layer conv7_2_mbox_conf_bdc2018_new_perm_bdc2018_new
I0725 11:38:56.984506  7251 net.cpp:100] Creating Layer conv7_2_mbox_conf_bdc2018_new_perm_bdc2018_new
I0725 11:38:56.984511  7251 net.cpp:434] conv7_2_mbox_conf_bdc2018_new_perm_bdc2018_new <- conv7_2_mbox_conf_bdc2018_new
I0725 11:38:56.984517  7251 net.cpp:408] conv7_2_mbox_conf_bdc2018_new_perm_bdc2018_new -> conv7_2_mbox_conf_bdc2018_new_perm_bdc2018_new
I0725 11:38:56.984643  7251 net.cpp:150] Setting up conv7_2_mbox_conf_bdc2018_new_perm_bdc2018_new
I0725 11:38:56.984653  7251 net.cpp:157] Top shape: 2 1 1 54 (108)
I0725 11:38:56.984657  7251 net.cpp:165] Memory required for data: 15101060576
I0725 11:38:56.984659  7251 layer_factory.hpp:77] Creating layer conv7_2_mbox_conf_bdc2018_new_flat_bdc2018_new
I0725 11:38:56.984668  7251 net.cpp:100] Creating Layer conv7_2_mbox_conf_bdc2018_new_flat_bdc2018_new
I0725 11:38:56.984671  7251 net.cpp:434] conv7_2_mbox_conf_bdc2018_new_flat_bdc2018_new <- conv7_2_mbox_conf_bdc2018_new_perm_bdc2018_new
I0725 11:38:56.984678  7251 net.cpp:408] conv7_2_mbox_conf_bdc2018_new_flat_bdc2018_new -> conv7_2_mbox_conf_bdc2018_new_flat_bdc2018_new
I0725 11:38:56.984707  7251 net.cpp:150] Setting up conv7_2_mbox_conf_bdc2018_new_flat_bdc2018_new
I0725 11:38:56.984714  7251 net.cpp:157] Top shape: 2 54 (108)
I0725 11:38:56.984717  7251 net.cpp:165] Memory required for data: 15101061008
I0725 11:38:56.984720  7251 layer_factory.hpp:77] Creating layer conv7_2_mbox_priorbox
I0725 11:38:56.984728  7251 net.cpp:100] Creating Layer conv7_2_mbox_priorbox
I0725 11:38:56.984732  7251 net.cpp:434] conv7_2_mbox_priorbox <- conv7_2_conv7_2_relu_0_split_3
I0725 11:38:56.984737  7251 net.cpp:434] conv7_2_mbox_priorbox <- data_data_0_split_4
I0725 11:38:56.984742  7251 net.cpp:408] conv7_2_mbox_priorbox -> conv7_2_mbox_priorbox
I0725 11:38:56.984772  7251 net.cpp:150] Setting up conv7_2_mbox_priorbox
I0725 11:38:56.984779  7251 net.cpp:157] Top shape: 1 2 24 (48)
I0725 11:38:56.984782  7251 net.cpp:165] Memory required for data: 15101061200
I0725 11:38:56.984786  7251 layer_factory.hpp:77] Creating layer conv8_2_mbox_loc_bdc2018
I0725 11:38:56.984798  7251 net.cpp:100] Creating Layer conv8_2_mbox_loc_bdc2018
I0725 11:38:56.984804  7251 net.cpp:434] conv8_2_mbox_loc_bdc2018 <- conv8_2_conv8_2_relu_0_split_1
I0725 11:38:56.984810  7251 net.cpp:408] conv8_2_mbox_loc_bdc2018 -> conv8_2_mbox_loc_bdc2018
I0725 11:38:56.986721  7251 net.cpp:150] Setting up conv8_2_mbox_loc_bdc2018
I0725 11:38:56.986748  7251 net.cpp:157] Top shape: 2 16 1 1 (32)
I0725 11:38:56.986752  7251 net.cpp:165] Memory required for data: 15101061328
I0725 11:38:56.986759  7251 layer_factory.hpp:77] Creating layer conv8_2_mbox_loc_bdc2018_perm_bdc2018
I0725 11:38:56.986778  7251 net.cpp:100] Creating Layer conv8_2_mbox_loc_bdc2018_perm_bdc2018
I0725 11:38:56.986783  7251 net.cpp:434] conv8_2_mbox_loc_bdc2018_perm_bdc2018 <- conv8_2_mbox_loc_bdc2018
I0725 11:38:56.986793  7251 net.cpp:408] conv8_2_mbox_loc_bdc2018_perm_bdc2018 -> conv8_2_mbox_loc_bdc2018_perm_bdc2018
I0725 11:38:56.986917  7251 net.cpp:150] Setting up conv8_2_mbox_loc_bdc2018_perm_bdc2018
I0725 11:38:56.986927  7251 net.cpp:157] Top shape: 2 1 1 16 (32)
I0725 11:38:56.986929  7251 net.cpp:165] Memory required for data: 15101061456
I0725 11:38:56.986932  7251 layer_factory.hpp:77] Creating layer conv8_2_mbox_loc_bdc2018_flat_bdc2018
I0725 11:38:56.986938  7251 net.cpp:100] Creating Layer conv8_2_mbox_loc_bdc2018_flat_bdc2018
I0725 11:38:56.986943  7251 net.cpp:434] conv8_2_mbox_loc_bdc2018_flat_bdc2018 <- conv8_2_mbox_loc_bdc2018_perm_bdc2018
I0725 11:38:56.986951  7251 net.cpp:408] conv8_2_mbox_loc_bdc2018_flat_bdc2018 -> conv8_2_mbox_loc_bdc2018_flat_bdc2018
I0725 11:38:56.986980  7251 net.cpp:150] Setting up conv8_2_mbox_loc_bdc2018_flat_bdc2018
I0725 11:38:56.986989  7251 net.cpp:157] Top shape: 2 16 (32)
I0725 11:38:56.986990  7251 net.cpp:165] Memory required for data: 15101061584
I0725 11:38:56.986994  7251 layer_factory.hpp:77] Creating layer conv8_2_mbox_conf_bdc2018_new
I0725 11:38:56.987005  7251 net.cpp:100] Creating Layer conv8_2_mbox_conf_bdc2018_new
I0725 11:38:56.987012  7251 net.cpp:434] conv8_2_mbox_conf_bdc2018_new <- conv8_2_conv8_2_relu_0_split_2
I0725 11:38:56.987021  7251 net.cpp:408] conv8_2_mbox_conf_bdc2018_new -> conv8_2_mbox_conf_bdc2018_new
I0725 11:38:56.989228  7251 net.cpp:150] Setting up conv8_2_mbox_conf_bdc2018_new
I0725 11:38:56.989244  7251 net.cpp:157] Top shape: 2 36 1 1 (72)
I0725 11:38:56.989259  7251 net.cpp:165] Memory required for data: 15101061872
I0725 11:38:56.989266  7251 layer_factory.hpp:77] Creating layer conv8_2_mbox_conf_bdc2018_new_perm_bdc2018_new
I0725 11:38:56.989276  7251 net.cpp:100] Creating Layer conv8_2_mbox_conf_bdc2018_new_perm_bdc2018_new
I0725 11:38:56.989280  7251 net.cpp:434] conv8_2_mbox_conf_bdc2018_new_perm_bdc2018_new <- conv8_2_mbox_conf_bdc2018_new
I0725 11:38:56.989289  7251 net.cpp:408] conv8_2_mbox_conf_bdc2018_new_perm_bdc2018_new -> conv8_2_mbox_conf_bdc2018_new_perm_bdc2018_new
I0725 11:38:56.989408  7251 net.cpp:150] Setting up conv8_2_mbox_conf_bdc2018_new_perm_bdc2018_new
I0725 11:38:56.989419  7251 net.cpp:157] Top shape: 2 1 1 36 (72)
I0725 11:38:56.989423  7251 net.cpp:165] Memory required for data: 15101062160
I0725 11:38:56.989425  7251 layer_factory.hpp:77] Creating layer conv8_2_mbox_conf_bdc2018_new_flat_bdc2018_new
I0725 11:38:56.989431  7251 net.cpp:100] Creating Layer conv8_2_mbox_conf_bdc2018_new_flat_bdc2018_new
I0725 11:38:56.989435  7251 net.cpp:434] conv8_2_mbox_conf_bdc2018_new_flat_bdc2018_new <- conv8_2_mbox_conf_bdc2018_new_perm_bdc2018_new
I0725 11:38:56.989440  7251 net.cpp:408] conv8_2_mbox_conf_bdc2018_new_flat_bdc2018_new -> conv8_2_mbox_conf_bdc2018_new_flat_bdc2018_new
I0725 11:38:56.989470  7251 net.cpp:150] Setting up conv8_2_mbox_conf_bdc2018_new_flat_bdc2018_new
I0725 11:38:56.989480  7251 net.cpp:157] Top shape: 2 36 (72)
I0725 11:38:56.989482  7251 net.cpp:165] Memory required for data: 15101062448
I0725 11:38:56.989485  7251 layer_factory.hpp:77] Creating layer conv8_2_mbox_priorbox
I0725 11:38:56.989492  7251 net.cpp:100] Creating Layer conv8_2_mbox_priorbox
I0725 11:38:56.989496  7251 net.cpp:434] conv8_2_mbox_priorbox <- conv8_2_conv8_2_relu_0_split_3
I0725 11:38:56.989500  7251 net.cpp:434] conv8_2_mbox_priorbox <- data_data_0_split_5
I0725 11:38:56.989508  7251 net.cpp:408] conv8_2_mbox_priorbox -> conv8_2_mbox_priorbox
I0725 11:38:56.989537  7251 net.cpp:150] Setting up conv8_2_mbox_priorbox
I0725 11:38:56.989547  7251 net.cpp:157] Top shape: 1 2 16 (32)
I0725 11:38:56.989549  7251 net.cpp:165] Memory required for data: 15101062576
I0725 11:38:56.989552  7251 layer_factory.hpp:77] Creating layer conv9_2_mbox_loc_bdc2018
I0725 11:38:56.989564  7251 net.cpp:100] Creating Layer conv9_2_mbox_loc_bdc2018
I0725 11:38:56.989583  7251 net.cpp:434] conv9_2_mbox_loc_bdc2018 <- conv9_2_conv9_2_relu_0_split_0
I0725 11:38:56.989589  7251 net.cpp:408] conv9_2_mbox_loc_bdc2018 -> conv9_2_mbox_loc_bdc2018
I0725 11:38:56.991227  7251 net.cpp:150] Setting up conv9_2_mbox_loc_bdc2018
I0725 11:38:56.991243  7251 net.cpp:157] Top shape: 2 16 1 1 (32)
I0725 11:38:56.991258  7251 net.cpp:165] Memory required for data: 15101062704
I0725 11:38:56.991266  7251 layer_factory.hpp:77] Creating layer conv9_2_mbox_loc_bdc2018_perm_bdc2018
I0725 11:38:56.991272  7251 net.cpp:100] Creating Layer conv9_2_mbox_loc_bdc2018_perm_bdc2018
I0725 11:38:56.991276  7251 net.cpp:434] conv9_2_mbox_loc_bdc2018_perm_bdc2018 <- conv9_2_mbox_loc_bdc2018
I0725 11:38:56.991284  7251 net.cpp:408] conv9_2_mbox_loc_bdc2018_perm_bdc2018 -> conv9_2_mbox_loc_bdc2018_perm_bdc2018
I0725 11:38:56.991422  7251 net.cpp:150] Setting up conv9_2_mbox_loc_bdc2018_perm_bdc2018
I0725 11:38:56.991431  7251 net.cpp:157] Top shape: 2 1 1 16 (32)
I0725 11:38:56.991434  7251 net.cpp:165] Memory required for data: 15101062832
I0725 11:38:56.991439  7251 layer_factory.hpp:77] Creating layer conv9_2_mbox_loc_bdc2018_flat_bdc2018
I0725 11:38:56.991448  7251 net.cpp:100] Creating Layer conv9_2_mbox_loc_bdc2018_flat_bdc2018
I0725 11:38:56.991452  7251 net.cpp:434] conv9_2_mbox_loc_bdc2018_flat_bdc2018 <- conv9_2_mbox_loc_bdc2018_perm_bdc2018
I0725 11:38:56.991457  7251 net.cpp:408] conv9_2_mbox_loc_bdc2018_flat_bdc2018 -> conv9_2_mbox_loc_bdc2018_flat_bdc2018
I0725 11:38:56.991488  7251 net.cpp:150] Setting up conv9_2_mbox_loc_bdc2018_flat_bdc2018
I0725 11:38:56.991495  7251 net.cpp:157] Top shape: 2 16 (32)
I0725 11:38:56.991498  7251 net.cpp:165] Memory required for data: 15101062960
I0725 11:38:56.991502  7251 layer_factory.hpp:77] Creating layer conv9_2_mbox_conf_bdc2018_new
I0725 11:38:56.991513  7251 net.cpp:100] Creating Layer conv9_2_mbox_conf_bdc2018_new
I0725 11:38:56.991516  7251 net.cpp:434] conv9_2_mbox_conf_bdc2018_new <- conv9_2_conv9_2_relu_0_split_1
I0725 11:38:56.991524  7251 net.cpp:408] conv9_2_mbox_conf_bdc2018_new -> conv9_2_mbox_conf_bdc2018_new
I0725 11:38:56.993651  7251 net.cpp:150] Setting up conv9_2_mbox_conf_bdc2018_new
I0725 11:38:56.993680  7251 net.cpp:157] Top shape: 2 36 1 1 (72)
I0725 11:38:56.993682  7251 net.cpp:165] Memory required for data: 15101063248
I0725 11:38:56.993690  7251 layer_factory.hpp:77] Creating layer conv9_2_mbox_conf_bdc2018_new_perm_bdc2018_new
I0725 11:38:56.993698  7251 net.cpp:100] Creating Layer conv9_2_mbox_conf_bdc2018_new_perm_bdc2018_new
I0725 11:38:56.993703  7251 net.cpp:434] conv9_2_mbox_conf_bdc2018_new_perm_bdc2018_new <- conv9_2_mbox_conf_bdc2018_new
I0725 11:38:56.993710  7251 net.cpp:408] conv9_2_mbox_conf_bdc2018_new_perm_bdc2018_new -> conv9_2_mbox_conf_bdc2018_new_perm_bdc2018_new
I0725 11:38:56.993844  7251 net.cpp:150] Setting up conv9_2_mbox_conf_bdc2018_new_perm_bdc2018_new
I0725 11:38:56.993854  7251 net.cpp:157] Top shape: 2 1 1 36 (72)
I0725 11:38:56.993857  7251 net.cpp:165] Memory required for data: 15101063536
I0725 11:38:56.993861  7251 layer_factory.hpp:77] Creating layer conv9_2_mbox_conf_bdc2018_new_flat_bdc2018_new
I0725 11:38:56.993868  7251 net.cpp:100] Creating Layer conv9_2_mbox_conf_bdc2018_new_flat_bdc2018_new
I0725 11:38:56.993872  7251 net.cpp:434] conv9_2_mbox_conf_bdc2018_new_flat_bdc2018_new <- conv9_2_mbox_conf_bdc2018_new_perm_bdc2018_new
I0725 11:38:56.993880  7251 net.cpp:408] conv9_2_mbox_conf_bdc2018_new_flat_bdc2018_new -> conv9_2_mbox_conf_bdc2018_new_flat_bdc2018_new
I0725 11:38:56.993907  7251 net.cpp:150] Setting up conv9_2_mbox_conf_bdc2018_new_flat_bdc2018_new
I0725 11:38:56.993917  7251 net.cpp:157] Top shape: 2 36 (72)
I0725 11:38:56.993921  7251 net.cpp:165] Memory required for data: 15101063824
I0725 11:38:56.993923  7251 layer_factory.hpp:77] Creating layer conv9_2_mbox_priorbox
I0725 11:38:56.993929  7251 net.cpp:100] Creating Layer conv9_2_mbox_priorbox
I0725 11:38:56.993933  7251 net.cpp:434] conv9_2_mbox_priorbox <- conv9_2_conv9_2_relu_0_split_2
I0725 11:38:56.993937  7251 net.cpp:434] conv9_2_mbox_priorbox <- data_data_0_split_6
I0725 11:38:56.993958  7251 net.cpp:408] conv9_2_mbox_priorbox -> conv9_2_mbox_priorbox
I0725 11:38:56.993993  7251 net.cpp:150] Setting up conv9_2_mbox_priorbox
I0725 11:38:56.994001  7251 net.cpp:157] Top shape: 1 2 16 (32)
I0725 11:38:56.994004  7251 net.cpp:165] Memory required for data: 15101063952
I0725 11:38:56.994009  7251 layer_factory.hpp:77] Creating layer mbox_loc
I0725 11:38:56.994016  7251 net.cpp:100] Creating Layer mbox_loc
I0725 11:38:56.994021  7251 net.cpp:434] mbox_loc <- res5c_norm_mbox_loc_bdc2018_flat_bdc2018
I0725 11:38:56.994026  7251 net.cpp:434] mbox_loc <- pool5_mbox_loc_bdc2018_flat_bdc2018
I0725 11:38:56.994031  7251 net.cpp:434] mbox_loc <- conv6_2_mbox_loc_bdc2018_flat_bdc2018
I0725 11:38:56.994035  7251 net.cpp:434] mbox_loc <- conv7_2_mbox_loc_bdc2018_flat_bdc2018
I0725 11:38:56.994040  7251 net.cpp:434] mbox_loc <- conv8_2_mbox_loc_bdc2018_flat_bdc2018
I0725 11:38:56.994042  7251 net.cpp:434] mbox_loc <- conv9_2_mbox_loc_bdc2018_flat_bdc2018
I0725 11:38:56.994050  7251 net.cpp:408] mbox_loc -> mbox_loc
I0725 11:38:56.994079  7251 net.cpp:150] Setting up mbox_loc
I0725 11:38:56.994087  7251 net.cpp:157] Top shape: 2 16488 (32976)
I0725 11:38:56.994089  7251 net.cpp:165] Memory required for data: 15101195856
I0725 11:38:56.994092  7251 layer_factory.hpp:77] Creating layer mbox_conf
I0725 11:38:56.994098  7251 net.cpp:100] Creating Layer mbox_conf
I0725 11:38:56.994102  7251 net.cpp:434] mbox_conf <- res5c_norm_mbox_conf_bdc2018_new_flat_bdc2018_new
I0725 11:38:56.994107  7251 net.cpp:434] mbox_conf <- pool5_mbox_conf_bdc2018_new_flat_bdc2018_new
I0725 11:38:56.994112  7251 net.cpp:434] mbox_conf <- conv6_2_mbox_conf_bdc2018_new_flat_bdc2018_new
I0725 11:38:56.994115  7251 net.cpp:434] mbox_conf <- conv7_2_mbox_conf_bdc2018_new_flat_bdc2018_new
I0725 11:38:56.994118  7251 net.cpp:434] mbox_conf <- conv8_2_mbox_conf_bdc2018_new_flat_bdc2018_new
I0725 11:38:56.994122  7251 net.cpp:434] mbox_conf <- conv9_2_mbox_conf_bdc2018_new_flat_bdc2018_new
I0725 11:38:56.994127  7251 net.cpp:408] mbox_conf -> mbox_conf
I0725 11:38:56.994154  7251 net.cpp:150] Setting up mbox_conf
I0725 11:38:56.994161  7251 net.cpp:157] Top shape: 2 37098 (74196)
I0725 11:38:56.994164  7251 net.cpp:165] Memory required for data: 15101492640
I0725 11:38:56.994168  7251 layer_factory.hpp:77] Creating layer mbox_priorbox
I0725 11:38:56.994172  7251 net.cpp:100] Creating Layer mbox_priorbox
I0725 11:38:56.994176  7251 net.cpp:434] mbox_priorbox <- res5c_norm_mbox_priorbox
I0725 11:38:56.994181  7251 net.cpp:434] mbox_priorbox <- pool5_mbox_priorbox
I0725 11:38:56.994185  7251 net.cpp:434] mbox_priorbox <- conv6_2_mbox_priorbox
I0725 11:38:56.994189  7251 net.cpp:434] mbox_priorbox <- conv7_2_mbox_priorbox
I0725 11:38:56.994192  7251 net.cpp:434] mbox_priorbox <- conv8_2_mbox_priorbox
I0725 11:38:56.994195  7251 net.cpp:434] mbox_priorbox <- conv9_2_mbox_priorbox
I0725 11:38:56.994200  7251 net.cpp:408] mbox_priorbox -> mbox_priorbox
I0725 11:38:56.994227  7251 net.cpp:150] Setting up mbox_priorbox
I0725 11:38:56.994235  7251 net.cpp:157] Top shape: 1 2 16488 (32976)
I0725 11:38:56.994237  7251 net.cpp:165] Memory required for data: 15101624544
I0725 11:38:56.994241  7251 layer_factory.hpp:77] Creating layer mbox_conf_reshape
I0725 11:38:56.994251  7251 net.cpp:100] Creating Layer mbox_conf_reshape
I0725 11:38:56.994254  7251 net.cpp:434] mbox_conf_reshape <- mbox_conf
I0725 11:38:56.994261  7251 net.cpp:408] mbox_conf_reshape -> mbox_conf_reshape
I0725 11:38:56.994307  7251 net.cpp:150] Setting up mbox_conf_reshape
I0725 11:38:56.994314  7251 net.cpp:157] Top shape: 2 4122 9 (74196)
I0725 11:38:56.994318  7251 net.cpp:165] Memory required for data: 15101921328
I0725 11:38:56.994320  7251 layer_factory.hpp:77] Creating layer mbox_conf_softmax
I0725 11:38:56.994330  7251 net.cpp:100] Creating Layer mbox_conf_softmax
I0725 11:38:56.994333  7251 net.cpp:434] mbox_conf_softmax <- mbox_conf_reshape
I0725 11:38:56.994340  7251 net.cpp:408] mbox_conf_softmax -> mbox_conf_softmax
I0725 11:38:56.995012  7251 net.cpp:150] Setting up mbox_conf_softmax
I0725 11:38:56.995028  7251 net.cpp:157] Top shape: 2 4122 9 (74196)
I0725 11:38:56.995031  7251 net.cpp:165] Memory required for data: 15102218112
I0725 11:38:56.995034  7251 layer_factory.hpp:77] Creating layer mbox_conf_flatten
I0725 11:38:56.995041  7251 net.cpp:100] Creating Layer mbox_conf_flatten
I0725 11:38:56.995046  7251 net.cpp:434] mbox_conf_flatten <- mbox_conf_softmax
I0725 11:38:56.995054  7251 net.cpp:408] mbox_conf_flatten -> mbox_conf_flatten
I0725 11:38:56.995088  7251 net.cpp:150] Setting up mbox_conf_flatten
I0725 11:38:56.995097  7251 net.cpp:157] Top shape: 2 37098 (74196)
I0725 11:38:56.995100  7251 net.cpp:165] Memory required for data: 15102514896
I0725 11:38:56.995103  7251 layer_factory.hpp:77] Creating layer detection_out
I0725 11:38:56.995126  7251 net.cpp:100] Creating Layer detection_out
I0725 11:38:56.995131  7251 net.cpp:434] detection_out <- mbox_loc
I0725 11:38:56.995136  7251 net.cpp:434] detection_out <- mbox_conf_flatten
I0725 11:38:56.995141  7251 net.cpp:434] detection_out <- mbox_priorbox
I0725 11:38:56.995147  7251 net.cpp:408] detection_out -> detection_out
W0725 11:38:56.995198  7251 detection_output_layer.cpp:49] Failed to create directory: /home/user/data/bdc2018/results/SSD_ResNet1024x1024/Main
I0725 11:38:56.995754  7251 net.cpp:150] Setting up detection_out
I0725 11:38:56.995767  7251 net.cpp:157] Top shape: 1 1 1 7 (7)
I0725 11:38:56.995771  7251 net.cpp:165] Memory required for data: 15102514924
I0725 11:38:56.995774  7251 layer_factory.hpp:77] Creating layer detection_eval
I0725 11:38:56.995784  7251 net.cpp:100] Creating Layer detection_eval
I0725 11:38:56.995788  7251 net.cpp:434] detection_eval <- detection_out
I0725 11:38:56.995792  7251 net.cpp:434] detection_eval <- label
I0725 11:38:56.995798  7251 net.cpp:408] detection_eval -> detection_eval
I0725 11:38:56.995973  7251 net.cpp:150] Setting up detection_eval
I0725 11:38:56.995983  7251 net.cpp:157] Top shape: 1 1 9 5 (45)
I0725 11:38:56.995986  7251 net.cpp:165] Memory required for data: 15102515104
I0725 11:38:56.995990  7251 net.cpp:228] detection_eval does not need backward computation.
I0725 11:38:56.995995  7251 net.cpp:228] detection_out does not need backward computation.
I0725 11:38:56.995998  7251 net.cpp:228] mbox_conf_flatten does not need backward computation.
I0725 11:38:56.996001  7251 net.cpp:228] mbox_conf_softmax does not need backward computation.
…
