…
      sampler {
        min_scale: 0.3
        max_scale: 1
        min_aspect_ratio: 0.5
        max_aspect_ratio: 2
      }
      sample_constraint {
        min_jaccard_overlap: 0.9
      }
      max_sample: 1
      max_trials: 50
    }
    batch_sampler {
      sampler {
        min_scale: 0.3
        max_scale: 1
        min_aspect_ratio: 0.5
        max_aspect_ratio: 2
      }
      sample_constraint {
        max_jaccard_overlap: 1
      }
      max_sample: 1
      max_trials: 50
    }
    label_map_file: "data/bdc2018/labelmap_bdc.prototxt"
  }
}
layer {
  name: "conv1"
  type: "Convolution"
  bottom: "data"
  top: "conv1"
  param {
    lr_mult: 1
    decay_mult: 1
  }
  convolution_param {
    num_output: 64
    bias_term: false
    pad: 3
    kernel_size: 7
    stride: 2
    weight_filler {
      type: "gaussian"
      std: 0.01
    }
  }
}
layer {
  name: "bn_conv1"
  type: "BatchNorm"
  bottom: "conv1"
  top: "conv1"
  batch_norm_param {
    moving_average_fraction: 0.999
    eps: 0.001
  }
}
layer {
  name: "scale_conv1"
  type: "Scale"
  bottom: "conv1"
  top: "conv1"
  param {
    lr_mult: 1
    decay_mult: 0
  }
  param {
    lr_mult: 1
    decay_mult: 0
  }
  scale_param {
    filler {
      type: "constant"
      value: 1
    }
    bias_term: true
    bias_filler {
      type: "constant"
      value: 0
    }
  }
}
layer {
  name: "conv1_relu"
  type: "ReLU"
  bottom: "conv1"
  top: "conv1"
}
layer {
  name: "pool1"
  type: "Pooling"
  bottom: "conv1"
  top: "pool1"
  pooling_param {
    pool: MAX
    kernel_size: 3
    stride: 2
  }
}
layer {
  name: "res2a_branch1"
  type: "Convolution"
  bottom: "pool1"
  top: "res2a_branch1"
  param {
    lr_mult: 1
    decay_mult: 1
  }
  convolution_param {
    num_output: 256
    bias_term: false
    pad: 0
    kernel_size: 1
    stride: 1
    weight_filler {
      type: "gaussian"
      std: 0.01
    }
  }
}
layer {
  name: "bn2a_branch1"
  type: "BatchNorm"
  bottom: "res2a_branch1"
  top: "res2a_branch1"
  batch_norm_param {
    moving_average_fraction: 0.999
    eps: 0.001
  }
}
layer {
  name: "scale2a_branch1"
  type: "Scale"
  bottom: "res2a_branch1"
  top: "res2a_branch1"
  param {
    lr_mult: 1
    decay_mult: 0
  }
  param {
    lr_mult: 1
    decay_mult: 0
  }
  scale_param {
    filler {
      type: "constant"
      value: 1
    }
    bias_term: true
    bias_filler {
      type: "constant"
      value: 0
    }
  }
}
layer {
  name: "res2a_branch2a"
  type: "Convolution"
  bottom: "pool1"
  top: "res2a_branch2a"
  param {
    lr_mult: 1
    decay_mult: 1
  }
  convolution_param {
    num_output: 64
    bias_term: false
    pad: 0
    kernel_size: 1
    stride: 1
    weight_filler {
      type: "gaussian"
      std: 0.01
    }
  }
}
layer {
  name: "bn2a_branch2a"
  type: "BatchNorm"
  bottom: "res2a_branch2a"
  top: "res2a_branch2a"
  batch_norm_param {
    moving_average_fraction: 0.999
    eps: 0.001
  }
}
layer {
  name: "scale2a_branch2a"
  type: "Scale"
  bottom: "res2a_branch2a"
  top: "res2a_branch2a"
  param {
    lr_mult: 1
    decay_mult: 0
  }
  param {
    lr_mult: 1
    decay_mult: 0
  }
  scale_param {
    filler {
      type: "constant"
      value: 1
    }
    bias_term: true
    bias_filler {
      type: "constant"
      value: 0
    }
  }
}
layer {
  name: "res2a_branch2a_relu"
  type: "ReLU"
  bottom: "res2a_branch2a"
  top: "res2a_branch2a"
}
layer {
  name: "res2a_branch2b"
  type: "Convolution"
  bottom: "res2a_branch2a"
  top: "res2a_branch2b"
  param {
    lr_mult: 1
    decay_mult: 1
  }
  convolution_param {
    num_output: 64
    bias_term: false
    pad: 1
    kernel_size: 3
    stride: 1
    weight_filler {
      type: "gaussian"
      std: 0.01
    }
  }
}
layer {
  name: "bn2a_branch2b"
  type: "BatchNorm"
  bottom: "res2a_branch2b"
  top: "res2a_branch2b"
  batch_norm_param {
    moving_average_fraction: 0.999
    eps: 0.001
  }
}
layer {
  name: "scale2a_branch2b"
  type: "Scale"
  bottom: "res2a_branch2b"
  top: "res2a_branch2b"
  param {
    lr_mult: 1
    decay_mult: 0
  }
  param {
    lr_mult: 1
    decay_mult: 0
  }
  scale_param {
    filler {
      type: "constant"
      value: 1
    }
    bias_term: true
    bias_filler {
      type: "constant"
      value: 0
    }
  }
}
layer {
  name: "res2a_branch2b_relu"
  type: "ReLU"
  bottom: "res2a_branch2b"
  top: "res2a_branch2b"
}
layer {
  name: "res2a_branch2c"
  type: "Convolution"
  bottom: "res2a_branch2b"
  top: "res2a_branch2c"
  param {
    lr_mult: 1
    decay_mult: 1
  }
  convolution_param {
    num_output: 256
    bias_term: false
    pad: 0
    kernel_size: 1
    stride: 1
    weight_filler {
      type: "gaussian"
      std: 0.01
    }
  }
}
layer {
  name: "bn2a_branch2c"
  type: "BatchNorm"
  bottom: "res2a_branch2c"
  top: "res2a_branch2c"
  batch_norm_param {
    moving_average_fraction: 0.999
    eps: 0.001
  }
}
layer {
  name: "scale2a_branch2c"
  type: "Scale"
  bottom: "res2a_branch2c"
  top: "res2a_branch2c"
  param {
    lr_mult: 1
    decay_mult: 0
  }
  param {
    lr_mult: 1
    decay_mult: 0
  }
  scale_param {
    filler {
      type: "constant"
      value: 1
    }
    bias_term: true
    bias_filler {
      type: "constant"
      value: 0
    }
  }
}
layer {
  name: "res2a"
  type: "Eltwise"
  bottom: "res2a_branch1"
  bottom: "res2a_branch2c"
  top: "res2a"
}
layer {
  name: "res2a_relu"
  type: "ReLU"
  bottom: "res2a"
  top: "res2a"
}
layer {
  name: "res2b_branch2a"
  type: "Convolution"
  bottom: "res2a"
  top: "res2b_branch2a"
  param {
    lr_mult: 1
    decay_mult: 1
  }
  convolution_param {
    num_output: 64
    bias_term: false
    pad: 0
    kernel_size: 1
    stride: 1
    weight_filler {
      type: "gaussian"
      std: 0.01
    }
  }
}
layer {
  name: "bn2b_branch2a"
  type: "BatchNorm"
  bottom: "res2b_branch2a"
  top: "res2b_branch2a"
  batch_norm_param {
    moving_average_fraction: 0.999
    eps: 0.001
  }
}
layer {
  name: "scale2b_branch2a"
  type: "Scale"
  bottom: "res2b_branch2a"
  top: "res2b_branch2a"
  param {
    lr_mult: 1
    decay_mult: 0
  }
  param {
    lr_mult: 1
    decay_mult: 0
  }
  scale_param {
    filler {
      type: "constant"
      value: 1
    }
    bias_term: true
    bias_filler {
      type: "constant"
      value: 0
    }
  }
}
layer {
  name: "res2b_branch2a_relu"
  type: "ReLU"
  bottom: "res2b_branch2a"
  top: "res2b_branch2a"
}
layer {
  name: "res2b_branch2b"
  type: "Convolution"
  bottom: "res2b_branch2a"
  top: "res2b_branch2b"
  param {
    lr_mult: 1
    decay_mult: 1
  }
  convolution_param {
    num_output: 64
    bias_term: false
    pad: 1
    kernel_size: 3
    stride: 1
    weight_filler {
      type: "gaussian"
      std: 0.01
    }
  }
}
layer {
  name: "bn2b_branch2b"
  type: "BatchNorm"
  bottom: "res2b_branch2b"
  top: "res2b_branch2b"
  batch_norm_param {
    moving_average_fraction: 0.999
    eps: 0.001
  }
}
layer {
  name: "scale2b_branch2b"
  type: "Scale"
  bottom: "res2b_branch2b"
  top: "res2b_branch2b"
  param {
    lr_mult: 1
    decay_mult: 0
  }
  param {
    lr_mult: 1
    decay_mult: 0
  }
  scale_param {
    filler {
      type: "constant"
      value: 1
    }
    bias_term: true
    bias_filler {
      type: "constant"
      value: 0
    }
  }
}
layer {
  name: "res2b_branch2b_relu"
  type: "ReLU"
  bottom: "res2b_branch2b"
  top: "res2b_branch2b"
}
layer {
  name: "res2b_branch2c"
  type: "Convolution"
  bottom: "res2b_branch2b"
  top: "res2b_branch2c"
  param {
    lr_mult: 1
    decay_mult: 1
  }
  convolution_param {
    num_output: 256
    bias_term: false
    pad: 0
    kernel_size: 1
    stride: 1
    weight_filler {
      type: "gaussian"
      std: 0.01
    }
  }
}
layer {
  name: "bn2b_branch2c"
  type: "BatchNorm"
  bottom: "res2b_branch2c"
  top: "res2b_branch2c"
  batch_norm_param {
    moving_average_fraction: 0.999
    eps: 0.001
  }
}
layer {
  name: "scale2b_branch2c"
  type: "Scale"
  bottom: "res2b_branch2c"
  top: "res2b_branch2c"
  param {
    lr_mult: 1
    decay_mult: 0
  }
  param {
    lr_mult: 1
    decay_mult: 0
  }
  scale_param {
    filler {
      type: "constant"
      value: 1
    }
    bias_term: true
    bias_filler {
      type: "constant"
      value: 0
    }
  }
}
layer {
  name: "res2b"
  type: "Eltwise"
  bottom: "res2a"
  bottom: "res2b_branch2c"
  top: "res2b"
}
layer {
  name: "res2b_relu"
  type: "ReLU"
  bottom: "res2b"
  top: "res2b"
}
layer {
  name: "res2c_branch2a"
  type: "Convolution"
  bottom: "res2b"
  top: "res2c_branch2a"
  param {
    lr_mult: 1
    decay_mult: 1
  }
  convolution_param {
    num_output: 64
    bias_term: false
    pad: 0
    kernel_size: 1
    stride: 1
    weight_filler {
      type: "gaussian"
      std: 0.01
    }
  }
}
layer {
  name: "bn2c_branch2a"
  type: "BatchNorm"
  bottom: "res2c_branch2a"
  top: "res2c_branch2a"
  batch_norm_param {
    moving_average_fraction: 0.999
    eps: 0.001
  }
}
layer {
  name: "scale2c_branch2a"
  type: "Scale"
  bottom: "res2c_branch2a"
  top: "res2c_branch2a"
  param {
    lr_mult: 1
    decay_mult: 0
  }
  param {
    lr_mult: 1
    decay_mult: 0
  }
  scale_param {
    filler {
      type: "constant"
      value: 1
    }
    bias_term: true
    bias_filler {
      type: "constant"
      value: 0
    }
  }
}
layer {
  name: "res2c_branch2a_relu"
  type: "ReLU"
  bottom: "res2c_branch2a"
  top: "res2c_branch2a"
}
layer {
  name: "res2c_branch2b"
  type: "Convolution"
  bottom: "res2c_branch2a"
  top: "res2c_branch2b"
  param {
    lr_mult: 1
    decay_mult: 1
  }
  convolution_param {
    num_output: 64
    bias_term: false
    pad: 1
    kernel_size: 3
    stride: 1
    weight_filler {
      type: "gaussian"
      std: 0.01
    }
  }
}
layer {
  name: "bn2c_branch2b"
  type: "BatchNorm"
  bottom: "res2c_branch2b"
  top: "res2c_branch2b"
  batch_norm_param {
    moving_average_fraction: 0.999
    eps: 0.001
  }
}
layer {
  name: "scale2c_branch2b"
  type: "Scale"
  bottom: "res2c_branch2b"
  top: "res2c_branch2b"
  param {
    lr_mult: 1
    decay_mult: 0
  }
  param {
    lr_mult: 1
    decay_mult: 0
  }
  scale_param {
    filler {
      type: "constant"
      value: 1
    }
    bias_term: true
    bias_filler {
      type: "constant"
      value: 0
    }
  }
}
layer {
  name: "res2c_branch2b_relu"
  type: "ReLU"
  bottom: "res2c_branch2b"
  top: "res2c_branch2b"
}
layer {
  name: "res2c_branch2c"
  type: "Convolution"
  bottom: "res2c_branch2b"
  top: "res2c_branch2c"
  param {
    lr_mult: 1
    decay_mult: 1
  }
  convolution_param {
    num_output: 256
    bias_term: false
    pad: 0
    kernel_size: 1
    stride: 1
    weight_filler {
      type: "gaussian"
      std: 0.01
    }
  }
}
layer {
  name: "bn2c_branch2c"
  type: "BatchNorm"
  bottom: "res2c_branch2c"
  top: "res2c_branch2c"
  batch_norm_param {
    moving_average_fraction: 0.999
    eps: 0.001
  }
}
layer {
  name: "scale2c_branch2c"
  type: "Scale"
  bottom: "res2c_branch2c"
  top: "res2c_branch2c"
  param {
    lr_mult: 1
    decay_mult: 0
  }
  param {
    lr_mult: 1
    decay_mult: 0
  }
  scale_param {
    filler {
      type: "constant"
      value: 1
    }
    bias_term: true
    bias_filler {
      type: "constant"
      value: 0
    }
  }
}
layer {
  name: "res2c"
  type: "Eltwise"
  bottom: "res2b"
  bottom: "res2c_branch2c"
  top: "res2c"
}
layer {
  name: "res2c_relu"
  type: "ReLU"
  bottom: "res2c"
  top: "res2c"
}
layer {
  name: "res3a_branch1"
  type: "Convolution"
  bottom: "res2c"
  top: "res3a_branch1"
  param {
    lr_mult: 1
    decay_mult: 1
  }
  convolution_param {
    num_output: 512
    bias_term: false
    pad: 0
    kernel_size: 1
    stride: 2
    weight_filler {
      type: "gaussian"
      std: 0.01
    }
  }
}
layer {
  name: "bn3a_branch1"
  type: "BatchNorm"
  bottom: "res3a_branch1"
  top: "res3a_branch1"
  batch_norm_param {
    moving_average_fraction: 0.999
    eps: 0.001
  }
}
layer {
  name: "scale3a_branch1"
  type: "Scale"
  bottom: "res3a_branch1"
  top: "res3a_branch1"
  param {
    lr_mult: 1
    decay_mult: 0
  }
  param {
    lr_mult: 1
    decay_mult: 0
  }
  scale_param {
    filler {
      type: "constant"
      value: 1
    }
    bias_term: true
    bias_filler {
      type: "constant"
      value: 0
    }
  }
}
layer {
  name: "res3a_branch2a"
  type: "Convolution"
  bottom: "res2c"
  top: "res3a_branch2a"
  param {
    lr_mult: 1
    decay_mult: 1
  }
  convolution_param {
    num_output: 128
    bias_term: false
    pad: 0
    kernel_size: 1
    stride: 2
    weight_filler {
      type: "gaussian"
      std: 0.01
    }
  }
}
layer {
  name: "bn3a_branch2a"
  type: "BatchNorm"
  bottom: "res3a_branch2a"
  top: "res3a_branch2a"
  batch_norm_param {
    moving_average_fraction: 0.999
    eps: 0.001
  }
}
layer {
  name: "scale3a_branch2a"
  type: "Scale"
  bottom: "res3a_branch2a"
  top: "res3a_branch2a"
  param {
    lr_mult: 1
    decay_mult: 0
  }
  param {
    lr_mult: 1
    decay_mult: 0
  }
  scale_param {
    filler {
      type: "constant"
      value: 1
    }
    bias_term: true
    bias_filler {
      type: "constant"
      value: 0
    }
  }
}
layer {
  name: "res3a_branch2a_relu"
  type: "ReLU"
  bottom: "res3a_branch2a"
  top: "res3a_branch2a"
}
layer {
  name: "res3a_branch2b"
  type: "Convolution"
  bottom: "res3a_branch2a"
  top: "res3a_branch2b"
  param {
    lr_mult: 1
    decay_mult: 1
  }
  convolution_param {
    num_output: 128
    bias_term: false
    pad: 1
    kernel_size: 3
    stride: 1
    weight_filler {
      type: "gaussian"
      std: 0.01
    }
  }
}
layer {
  name: "bn3a_branch2b"
  type: "BatchNorm"
  bottom: "res3a_branch2b"
  top: "res3a_branch2b"
  batch_norm_param {
    moving_average_fraction: 0.999
    eps: 0.001
  }
}
layer {
  name: "scale3a_branch2b"
  type: "Scale"
  bottom: "res3a_branch2b"
  top: "res3a_branch2b"
  param {
    lr_mult: 1
    decay_mult: 0
  }
  param {
    lr_mult: 1
    decay_mult: 0
  }
  scale_param {
    filler {
      type: "constant"
      value: 1
    }
    bias_term: true
    bias_filler {
      type: "constant"
      value: 0
    }
  }
}
layer {
  name: "res3a_branch2b_relu"
  type: "ReLU"
  bottom: "res3a_branch2b"
  top: "res3a_branch2b"
}
layer {
  name: "res3a_branch2c"
  type: "Convolution"
  bottom: "res3a_branch2b"
  top: "res3a_branch2c"
  param {
    lr_mult: 1
    decay_mult: 1
  }
  convolution_param {
    num_output: 512
    bias_term: false
    pad: 0
    kernel_size: 1
    stride: 1
    weight_filler {
      type: "gaussian"
      std: 0.01
    }
  }
}
layer {
  name: "bn3a_branch2c"
  type: "BatchNorm"
  bottom: "res3a_branch2c"
  top: "res3a_branch2c"
  batch_norm_param {
    moving_average_fraction: 0.999
    eps: 0.001
  }
}
layer {
  name: "scale3a_branch2c"
  type: "Scale"
  bottom: "res3a_branch2c"
  top: "res3a_branch2c"
  param {
    lr_mult: 1
    decay_mult: 0
  }
  param {
    lr_mult: 1
    decay_mult: 0
  }
  scale_param {
    filler {
      type: "constant"
      value: 1
    }
    bias_term: true
    bias_filler {
      type: "constant"
      value: 0
    }
  }
}
layer {
  name: "res3a"
  type: "Eltwise"
  bottom: "res3a_branch1"
  bottom: "res3a_branch2c"
  top: "res3a"
}
layer {
  name: "res3a_relu"
  type: "ReLU"
  bottom: "res3a"
  top: "res3a"
}
layer {
  name: "res3b1_branch2a"
  type: "Convolution"
  bottom: "res3a"
  top: "res3b1_branch2a"
  param {
    lr_mult: 1
    decay_mult: 1
  }
  convolution_param {
    num_output: 128
    bias_term: false
    pad: 0
    kernel_size: 1
    stride: 1
    weight_filler {
      type: "gaussian"
      std: 0.01
    }
  }
}
layer {
  name: "bn3b1_branch2a"
  type: "BatchNorm"
  bottom: "res3b1_branch2a"
  top: "res3b1_branch2a"
  batch_norm_param {
    moving_average_fraction: 0.999
    eps: 0.001
  }
}
layer {
  name: "scale3b1_branch2a"
  type: "Scale"
  bottom: "res3b1_branch2a"
  top: "res3b1_branch2a"
  param {
    lr_mult: 1
    decay_mult: 0
  }
  param {
    lr_mult: 1
    decay_mult: 0
  }
  scale_param {
    filler {
      type: "constant"
      value: 1
    }
    bias_term: true
    bias_filler {
      type: "constant"
      value: 0
    }
  }
}
layer {
  name: "res3b1_branch2a_relu"
  type: "ReLU"
  bottom: "res3b1_branch2a"
  top: "res3b1_branch2a"
}
layer {
  name: "res3b1_branch2b"
  type: "Convolution"
  bottom: "res3b1_branch2a"
  top: "res3b1_branch2b"
  param {
    lr_mult: 1
    decay_mult: 1
  }
  convolution_param {
    num_output: 128
    bias_term: false
    pad: 1
    kernel_size: 3
    stride: 1
    weight_filler {
      type: "gaussian"
      std: 0.01
    }
  }
}
layer {
  name: "bn3b1_branch2b"
  type: "BatchNorm"
  bottom: "res3b1_branch2b"
  top: "res3b1_branch2b"
  batch_norm_param {
    moving_average_fraction: 0.999
    eps: 0.001
  }
}
layer {
  name: "scale3b1_branch2b"
  type: "Scale"
  bottom: "res3b1_branch2b"
  top: "res3b1_branch2b"
  param {
    lr_mult: 1
    decay_mult: 0
  }
  param {
    lr_mult: 1
    decay_mult: 0
  }
  scale_param {
    filler {
      type: "constant"
      value: 1
    }
    bias_term: true
    bias_filler {
      type: "constant"
      value: 0
    }
  }
}
layer {
  name: "res3b1_branch2b_relu"
  type: "ReLU"
  bottom: "res3b1_branch2b"
  top: "res3b1_branch2b"
}
layer {
  name: "res3b1_branch2c"
  type: "Convolution"
  bottom: "res3b1_branch2b"
  top: "res3b1_branch2c"
  param {
    lr_mult: 1
    decay_mult: 1
  }
  convolution_param {
    num_output: 512
    bias_term: false
    pad: 0
    kernel_size: 1
    stride: 1
    weight_filler {
      type: "gaussian"
      std: 0.01
    }
  }
}
layer {
  name: "bn3b1_branch2c"
  type: "BatchNorm"
  bottom: "res3b1_branch2c"
  top: "res3b1_branch2c"
  batch_norm_param {
    moving_average_fraction: 0.999
    eps: 0.001
  }
}
layer {
  name: "scale3b1_branch2c"
  type: "Scale"
  bottom: "res3b1_branch2c"
  top: "res3b1_branch2c"
  param {
    lr_mult: 1
    decay_mult: 0
  }
  param {
    lr_mult: 1
    decay_mult: 0
  }
  scale_param {
    filler {
      type: "constant"
      value: 1
    }
    bias_term: true
    bias_filler {
      type: "constant"
      value: 0
    }
  }
}
layer {
  name: "res3b1"
  type: "Eltwise"
  bottom: "res3a"
  bottom: "res3b1_branch2c"
  top: "res3b1"
}
layer {
  name: "res3b1_relu"
  type: "ReLU"
  bottom: "res3b1"
  top: "res3b1"
}
layer {
  name: "res3b2_branch2a"
  type: "Convolution"
  bottom: "res3b1"
  top: "res3b2_branch2a"
  param {
    lr_mult: 1
    decay_mult: 1
  }
  convolution_param {
    num_output: 128
    bias_term: false
    pad: 0
    kernel_size: 1
    stride: 1
    weight_filler {
      type: "gaussian"
      std: 0.01
    }
  }
}
layer {
  name: "bn3b2_branch2a"
  type: "BatchNorm"
  bottom: "res3b2_branch2a"
  top: "res3b2_branch2a"
  batch_norm_param {
    moving_average_fraction: 0.999
    eps: 0.001
  }
}
layer {
  name: "scale3b2_branch2a"
  type: "Scale"
  bottom: "res3b2_branch2a"
  top: "res3b2_branch2a"
  param {
    lr_mult: 1
    decay_mult: 0
  }
  param {
    lr_mult: 1
    decay_mult: 0
  }
  scale_param {
    filler {
      type: "constant"
      value: 1
    }
    bias_term: true
    bias_filler {
      type: "constant"
      value: 0
    }
  }
}
layer {
  name: "res3b2_branch2a_relu"
  type: "ReLU"
  bottom: "res3b2_branch2a"
  top: "res3b2_branch2a"
}
layer {
  name: "res3b2_branch2b"
  type: "Convolution"
  bottom: "res3b2_branch2a"
  top: "res3b2_branch2b"
  param {
    lr_mult: 1
    decay_mult: 1
  }
  convolution_param {
    num_output: 128
    bias_term: false
    pad: 1
    kernel_size: 3
    stride: 1
    weight_filler {
      type: "gaussian"
      std: 0.01
    }
  }
}
layer {
  name: "bn3b2_branch2b"
  type: "BatchNorm"
  bottom: "res3b2_branch2b"
  top: "res3b2_branch2b"
  batch_norm_param {
    moving_average_fraction: 0.999
    eps: 0.001
  }
}
layer {
  name: "scale3b2_branch2b"
  type: "Scale"
  bottom: "res3b2_branch2b"
  top: "res3b2_branch2b"
  param {
    lr_mult: 1
    decay_mult: 0
  }
  param {
    lr_mult: 1
    decay_mult: 0
  }
  scale_param {
    filler {
      type: "constant"
      value: 1
    }
    bias_term: true
    bias_filler {
      type: "constant"
      value: 0
    }
  }
}
layer {
  name: "res3b2_branch2b_relu"
  type: "ReLU"
  bottom: "res3b2_branch2b"
  top: "res3b2_branch2b"
}
layer {
  name: "res3b2_branch2c"
  type: "Convolution"
  bottom: "res3b2_branch2b"
  top: "res3b2_branch2c"
  param {
    lr_mult: 1
    decay_mult: 1
  }
  convolution_param {
    num_output: 512
    bias_term: false
    pad: 0
    kernel_size: 1
    stride: 1
    weight_filler {
      type: "gaussian"
      std: 0.01
    }
  }
}
layer {
  name: "bn3b2_branch2c"
  type: "BatchNorm"
  bottom: "res3b2_branch2c"
  top: "res3b2_branch2c"
  batch_norm_param {
    moving_average_fraction: 0.999
    eps: 0.001
  }
}
layer {
  name: "scale3b2_branch2c"
  type: "Scale"
  bottom: "res3b2_branch2c"
  top: "res3b2_branch2c"
  param {
    lr_mult: 1
    decay_mult: 0
  }
  param {
    lr_mult: 1
    decay_mult: 0
  }
  scale_param {
    filler {
      type: "constant"
      value: 1
    }
    bias_term: true
    bias_filler {
      type: "constant"
      value: 0
    }
  }
}
layer {
  name: "res3b2"
  type: "Eltwise"
  bottom: "res3b1"
  bottom: "res3b2_branch2c"
  top: "res3b2"
}
layer {
  name: "res3b2_relu"
  type: "ReLU"
  bottom: "res3b2"
  top: "res3b2"
}
layer {
  name: "res3b3_branch2a"
  type: "Convolution"
  bottom: "res3b2"
  top: "res3b3_branch2a"
  param {
    lr_mult: 1
    decay_mult: 1
  }
  convolution_param {
    num_output: 128
    bias_term: false
    pad: 0
    kernel_size: 1
    stride: 1
    weight_filler {
      type: "gaussian"
      std: 0.01
    }
  }
}
layer {
  name: "bn3b3_branch2a"
  type: "BatchNorm"
  bottom: "res3b3_branch2a"
  top: "res3b3_branch2a"
  batch_norm_param {
    moving_average_fraction: 0.999
    eps: 0.001
  }
}
layer {
  name: "scale3b3_branch2a"
  type: "Scale"
  bottom: "res3b3_branch2a"
  top: "res3b3_branch2a"
  param {
    lr_mult: 1
    decay_mult: 0
  }
  param {
    lr_mult: 1
    decay_mult: 0
  }
  scale_param {
    filler {
      type: "constant"
      value: 1
    }
    bias_term: true
    bias_filler {
      type: "constant"
      value: 0
    }
  }
}
layer {
  name: "res3b3_branch2a_relu"
  type: "ReLU"
  bottom: "res3b3_branch2a"
  top: "res3b3_branch2a"
}
layer {
  name: "res3b3_branch2b"
  type: "Convolution"
  bottom: "res3b3_branch2a"
  top: "res3b3_branch2b"
  param {
    lr_mult: 1
    decay_mult: 1
  }
  convolution_param {
    num_output: 128
    bias_term: false
    pad: 1
    kernel_size: 3
    stride: 1
    weight_filler {
      type: "gaussian"
      std: 0.01
    }
  }
}
layer {
  name: "bn3b3_branch2b"
  type: "BatchNorm"
  bottom: "res3b3_branch2b"
  top: "res3b3_branch2b"
  batch_norm_param {
    moving_average_fraction: 0.999
    eps: 0.001
  }
}
layer {
  name: "scale3b3_branch2b"
  type: "Scale"
  bottom: "res3b3_branch2b"
  top: "res3b3_branch2b"
  param {
    lr_mult: 1
    decay_mult: 0
  }
  param {
    lr_mult: 1
    decay_mult: 0
  }
  scale_param {
    filler {
      type: "constant"
      value: 1
    }
    bias_term: true
    bias_filler {
      type: "constant"
      value: 0
    }
  }
}
layer {
  name: "res3b3_branch2b_relu"
  type: "ReLU"
  bottom: "res3b3_branch2b"
  top: "res3b3_branch2b"
}
layer {
  name: "res3b3_branch2c"
  type: "Convolution"
  bottom: "res3b3_branch2b"
  top: "res3b3_branch2c"
  param {
    lr_mult: 1
    decay_mult: 1
  }
  convolution_param {
    num_output: 512
    bias_term: false
    pad: 0
    kernel_size: 1
    stride: 1
    weight_filler {
      type: "gaussian"
      std: 0.01
    }
  }
}
layer {
  name: "bn3b3_branch2c"
  type: "BatchNorm"
  bottom: "res3b3_branch2c"
  top: "res3b3_branch2c"
  batch_norm_param {
    moving_average_fraction: 0.999
    eps: 0.001
  }
}
layer {
  name: "scale3b3_branch2c"
  type: "Scale"
  bottom: "res3b3_branch2c"
  top: "res3b3_branch2c"
  param {
    lr_mult: 1
    decay_mult: 0
  }
  param {
    lr_mult: 1
    decay_mult: 0
  }
  scale_param {
    filler {
      type: "constant"
      value: 1
    }
    bias_term: true
    bias_filler {
      type: "constant"
      value: 0
    }
  }
}
layer {
  name: "res3b3"
  type: "Eltwise"
  bottom: "res3b2"
  bottom: "res3b3_branch2c"
  top: "res3b3"
}
layer {
  name: "res3b3_relu"
  type: "ReLU"
  bottom: "res3b3"
  top: "res3b3"
}
layer {
  name: "res4a_branch1"
  type: "Convolution"
  bottom: "res3b3"
  top: "res4a_branch1"
  param {
    lr_mult: 1
    decay_mult: 1
  }
  convolution_param {
    num_output: 1024
    bias_term: false
    pad: 0
    kernel_size: 1
    stride: 2
    weight_filler {
      type: "gaussian"
      std: 0.01
    }
  }
}
layer {
  name: "bn4a_branch1"
  type: "BatchNorm"
  bottom: "res4a_branch1"
  top: "res4a_branch1"
  batch_norm_param {
    moving_average_fraction: 0.999
    eps: 0.001
  }
}
layer {
  name: "scale4a_branch1"
  type: "Scale"
  bottom: "res4a_branch1"
  top: "res4a_branch1"
  param {
    lr_mult: 1
    decay_mult: 0
  }
  param {
    lr_mult: 1
    decay_mult: 0
  }
  scale_param {
    filler {
      type: "constant"
      value: 1
    }
    bias_term: true
    bias_filler {
      type: "constant"
      value: 0
    }
  }
}
layer {
  name: "res4a_branch2a"
  type: "Convolution"
  bottom: "res3b3"
  top: "res4a_branch2a"
  param {
    lr_mult: 1
    decay_mult: 1
  }
  convolution_param {
    num_output: 256
    bias_term: false
    pad: 0
    kernel_size: 1
    stride: 2
    weight_filler {
      type: "gaussian"
      std: 0.01
    }
  }
}
layer {
  name: "bn4a_branch2a"
  type: "BatchNorm"
  bottom: "res4a_branch2a"
  top: "res4a_branch2a"
  batch_norm_param {
    moving_average_fraction: 0.999
    eps: 0.001
  }
}
layer {
  name: "scale4a_branch2a"
  type: "Scale"
  bottom: "res4a_branch2a"
  top: "res4a_branch2a"
  param {
    lr_mult: 1
    decay_mult: 0
  }
  param {
    lr_mult: 1
    decay_mult: 0
  }
  scale_param {
    filler {
      type: "constant"
      value: 1
    }
    bias_term: true
    bias_filler {
      type: "constant"
      value: 0
    }
  }
}
layer {
  name: "res4a_branch2a_relu"
  type: "ReLU"
  bottom: "res4a_branch2a"
  top: "res4a_branch2a"
}
layer {
  name: "res4a_branch2b"
  type: "Convolution"
  bottom: "res4a_branch2a"
  top: "res4a_branch2b"
  param {
    lr_mult: 1
    decay_mult: 1
  }
  convolution_param {
    num_output: 256
    bias_term: false
    pad: 1
    kernel_size: 3
    stride: 1
    weight_filler {
      type: "gaussian"
      std: 0.01
    }
  }
}
layer {
  name: "bn4a_branch2b"
  type: "BatchNorm"
  bottom: "res4a_branch2b"
  top: "res4a_branch2b"
  batch_norm_param {
    moving_average_fraction: 0.999
    eps: 0.001
  }
}
layer {
  name: "scale4a_branch2b"
  type: "Scale"
  bottom: "res4a_branch2b"
  top: "res4a_branch2b"
  param {
    lr_mult: 1
    decay_mult: 0
  }
  param {
    lr_mult: 1
    decay_mult: 0
  }
  scale_param {
    filler {
      type: "constant"
      value: 1
    }
    bias_term: true
    bias_filler {
      type: "constant"
      value: 0
    }
  }
}
layer {
  name: "res4a_branch2b_relu"
  type: "ReLU"
  bottom: "res4a_branch2b"
  top: "res4a_branch2b"
}
layer {
  name: "res4a_branch2c"
  type: "Convolution"
  bottom: "res4a_branch2b"
  top: "res4a_branch2c"
  param {
    lr_mult: 1
    decay_mult: 1
  }
  convolution_param {
    num_output: 1024
    bias_term: false
    pad: 0
    kernel_size: 1
    stride: 1
    weight_filler {
      type: "gaussian"
      std: 0.01
    }
  }
}
layer {
  name: "bn4a_branch2c"
  type: "BatchNorm"
  bottom: "res4a_branch2c"
  top: "res4a_branch2c"
  batch_norm_param {
    moving_average_fraction: 0.999
    eps: 0.001
  }
}
layer {
  name: "scale4a_branch2c"
  type: 
I0725 11:41:27.186360  7428 layer_factory.hpp:77] Creating layer data
I0725 11:41:27.186555  7428 net.cpp:100] Creating Layer data
I0725 11:41:27.186575  7428 net.cpp:408] data -> data
I0725 11:41:27.186620  7428 net.cpp:408] data -> label
I0725 11:41:27.187978  7438 db_lmdb.cpp:35] Opened lmdb examples/bdc2018/bdc2018_train_name_lmdb
I0725 11:41:27.210109  7428 annotated_data_layer.cpp:62] output data size: 2,3,768,768
I0725 11:41:27.236209  7428 net.cpp:150] Setting up data
I0725 11:41:27.236245  7428 net.cpp:157] Top shape: 2 3 768 768 (3538944)
I0725 11:41:27.236253  7428 net.cpp:157] Top shape: 1 1 1 8 (8)
I0725 11:41:27.236255  7428 net.cpp:165] Memory required for data: 14155808
I0725 11:41:27.236270  7428 layer_factory.hpp:77] Creating layer data_data_0_split
I0725 11:41:27.236289  7428 net.cpp:100] Creating Layer data_data_0_split
I0725 11:41:27.236299  7428 net.cpp:434] data_data_0_split <- data
I0725 11:41:27.236321  7428 net.cpp:408] data_data_0_split -> data_data_0_split_0
I0725 11:41:27.236338  7428 net.cpp:408] data_data_0_split -> data_data_0_split_1
I0725 11:41:27.236348  7428 net.cpp:408] data_data_0_split -> data_data_0_split_2
I0725 11:41:27.236356  7428 net.cpp:408] data_data_0_split -> data_data_0_split_3
I0725 11:41:27.236366  7428 net.cpp:408] data_data_0_split -> data_data_0_split_4
I0725 11:41:27.236399  7428 net.cpp:408] data_data_0_split -> data_data_0_split_5
I0725 11:41:27.236407  7428 net.cpp:408] data_data_0_split -> data_data_0_split_6
I0725 11:41:27.236574  7428 net.cpp:150] Setting up data_data_0_split
I0725 11:41:27.236588  7428 net.cpp:157] Top shape: 2 3 768 768 (3538944)
I0725 11:41:27.236593  7428 net.cpp:157] Top shape: 2 3 768 768 (3538944)
I0725 11:41:27.236598  7428 net.cpp:157] Top shape: 2 3 768 768 (3538944)
I0725 11:41:27.236603  7428 net.cpp:157] Top shape: 2 3 768 768 (3538944)
I0725 11:41:27.236608  7428 net.cpp:157] Top shape: 2 3 768 768 (3538944)
I0725 11:41:27.236611  7428 net.cpp:157] Top shape: 2 3 768 768 (3538944)
I0725 11:41:27.236623  7428 net.cpp:157] Top shape: 2 3 768 768 (3538944)
I0725 11:41:27.236629  7428 net.cpp:165] Memory required for data: 113246240
I0725 11:41:27.236634  7428 layer_factory.hpp:77] Creating layer conv1
I0725 11:41:27.236654  7428 net.cpp:100] Creating Layer conv1
I0725 11:41:27.236660  7428 net.cpp:434] conv1 <- data_data_0_split_0
I0725 11:41:27.236670  7428 net.cpp:408] conv1 -> conv1
I0725 11:41:27.387599  7439 blocking_queue.cpp:50] Waiting for data
I0725 11:41:27.508283  7428 net.cpp:150] Setting up conv1
I0725 11:41:27.508334  7428 net.cpp:157] Top shape: 2 64 384 384 (18874368)
I0725 11:41:27.508338  7428 net.cpp:165] Memory required for data: 188743712
I0725 11:41:27.508359  7428 layer_factory.hpp:77] Creating layer bn_conv1
I0725 11:41:27.508371  7428 net.cpp:100] Creating Layer bn_conv1
I0725 11:41:27.508376  7428 net.cpp:434] bn_conv1 <- conv1
I0725 11:41:27.508383  7428 net.cpp:395] bn_conv1 -> conv1 (in-place)
I0725 11:41:27.509688  7428 net.cpp:150] Setting up bn_conv1
I0725 11:41:27.509702  7428 net.cpp:157] Top shape: 2 64 384 384 (18874368)
I0725 11:41:27.509717  7428 net.cpp:165] Memory required for data: 264241184
I0725 11:41:27.509728  7428 layer_factory.hpp:77] Creating layer scale_conv1
I0725 11:41:27.509742  7428 net.cpp:100] Creating Layer scale_conv1
I0725 11:41:27.509745  7428 net.cpp:434] scale_conv1 <- conv1
I0725 11:41:27.509750  7428 net.cpp:395] scale_conv1 -> conv1 (in-place)
I0725 11:41:27.509793  7428 layer_factory.hpp:77] Creating layer scale_conv1
I0725 11:41:27.510067  7428 net.cpp:150] Setting up scale_conv1
I0725 11:41:27.510077  7428 net.cpp:157] Top shape: 2 64 384 384 (18874368)
I0725 11:41:27.510080  7428 net.cpp:165] Memory required for data: 339738656
I0725 11:41:27.510087  7428 layer_factory.hpp:77] Creating layer conv1_relu
I0725 11:41:27.510094  7428 net.cpp:100] Creating Layer conv1_relu
I0725 11:41:27.510108  7428 net.cpp:434] conv1_relu <- conv1
I0725 11:41:27.510113  7428 net.cpp:395] conv1_relu -> conv1 (in-place)
I0725 11:41:27.510284  7428 net.cpp:150] Setting up conv1_relu
I0725 11:41:27.510296  7428 net.cpp:157] Top shape: 2 64 384 384 (18874368)
I0725 11:41:27.510299  7428 net.cpp:165] Memory required for data: 415236128
I0725 11:41:27.510303  7428 layer_factory.hpp:77] Creating layer pool1
I0725 11:41:27.510311  7428 net.cpp:100] Creating Layer pool1
I0725 11:41:27.510314  7428 net.cpp:434] pool1 <- conv1
I0725 11:41:27.510320  7428 net.cpp:408] pool1 -> pool1
I0725 11:41:27.510368  7428 net.cpp:150] Setting up pool1
I0725 11:41:27.510377  7428 net.cpp:157] Top shape: 2 64 192 192 (4718592)
I0725 11:41:27.510380  7428 net.cpp:165] Memory required for data: 434110496
I0725 11:41:27.510383  7428 layer_factory.hpp:77] Creating layer pool1_pool1_0_split
I0725 11:41:27.510390  7428 net.cpp:100] Creating Layer pool1_pool1_0_split
I0725 11:41:27.510393  7428 net.cpp:434] pool1_pool1_0_split <- pool1
I0725 11:41:27.510398  7428 net.cpp:408] pool1_pool1_0_split -> pool1_pool1_0_split_0
I0725 11:41:27.510404  7428 net.cpp:408] pool1_pool1_0_split -> pool1_pool1_0_split_1
I0725 11:41:27.510435  7428 net.cpp:150] Setting up pool1_pool1_0_split
I0725 11:41:27.510442  7428 net.cpp:157] Top shape: 2 64 192 192 (4718592)
I0725 11:41:27.510447  7428 net.cpp:157] Top shape: 2 64 192 192 (4718592)
I0725 11:41:27.510448  7428 net.cpp:165] Memory required for data: 471859232
I0725 11:41:27.510452  7428 layer_factory.hpp:77] Creating layer res2a_branch1
I0725 11:41:27.510485  7428 net.cpp:100] Creating Layer res2a_branch1
I0725 11:41:27.510489  7428 net.cpp:434] res2a_branch1 <- pool1_pool1_0_split_0
I0725 11:41:27.510495  7428 net.cpp:408] res2a_branch1 -> res2a_branch1
I0725 11:41:27.511541  7428 net.cpp:150] Setting up res2a_branch1
I0725 11:41:27.511567  7428 net.cpp:157] Top shape: 2 256 192 192 (18874368)
I0725 11:41:27.511571  7428 net.cpp:165] Memory required for data: 547356704
I0725 11:41:27.511576  7428 layer_factory.hpp:77] Creating layer bn2a_branch1
I0725 11:41:27.511582  7428 net.cpp:100] Creating Layer bn2a_branch1
I0725 11:41:27.511586  7428 net.cpp:434] bn2a_branch1 <- res2a_branch1
I0725 11:41:27.511591  7428 net.cpp:395] bn2a_branch1 -> res2a_branch1 (in-place)
I0725 11:41:27.512804  7428 net.cpp:150] Setting up bn2a_branch1
I0725 11:41:27.512817  7428 net.cpp:157] Top shape: 2 256 192 192 (18874368)
I0725 11:41:27.512831  7428 net.cpp:165] Memory required for data: 622854176
I0725 11:41:27.512842  7428 layer_factory.hpp:77] Creating layer scale2a_branch1
I0725 11:41:27.512850  7428 net.cpp:100] Creating Layer scale2a_branch1
I0725 11:41:27.512853  7428 net.cpp:434] scale2a_branch1 <- res2a_branch1
I0725 11:41:27.512858  7428 net.cpp:395] scale2a_branch1 -> res2a_branch1 (in-place)
I0725 11:41:27.512907  7428 layer_factory.hpp:77] Creating layer scale2a_branch1
I0725 11:41:27.513049  7428 net.cpp:150] Setting up scale2a_branch1
I0725 11:41:27.513058  7428 net.cpp:157] Top shape: 2 256 192 192 (18874368)
I0725 11:41:27.513062  7428 net.cpp:165] Memory required for data: 698351648
I0725 11:41:27.513067  7428 layer_factory.hpp:77] Creating layer res2a_branch2a
I0725 11:41:27.513077  7428 net.cpp:100] Creating Layer res2a_branch2a
I0725 11:41:27.513080  7428 net.cpp:434] res2a_branch2a <- pool1_pool1_0_split_1
I0725 11:41:27.513085  7428 net.cpp:408] res2a_branch2a -> res2a_branch2a
I0725 11:41:27.514955  7428 net.cpp:150] Setting up res2a_branch2a
I0725 11:41:27.514969  7428 net.cpp:157] Top shape: 2 64 192 192 (4718592)
I0725 11:41:27.514983  7428 net.cpp:165] Memory required for data: 717226016
I0725 11:41:27.514988  7428 layer_factory.hpp:77] Creating layer bn2a_branch2a
I0725 11:41:27.514999  7428 net.cpp:100] Creating Layer bn2a_branch2a
I0725 11:41:27.515003  7428 net.cpp:434] bn2a_branch2a <- res2a_branch2a
I0725 11:41:27.515008  7428 net.cpp:395] bn2a_branch2a -> res2a_branch2a (in-place)
I0725 11:41:27.515238  7428 net.cpp:150] Setting up bn2a_branch2a
I0725 11:41:27.515247  7428 net.cpp:157] Top shape: 2 64 192 192 (4718592)
I0725 11:41:27.515250  7428 net.cpp:165] Memory required for data: 736100384
I0725 11:41:27.515257  7428 layer_factory.hpp:77] Creating layer scale2a_branch2a
I0725 11:41:27.515266  7428 net.cpp:100] Creating Layer scale2a_branch2a
I0725 11:41:27.515270  7428 net.cpp:434] scale2a_branch2a <- res2a_branch2a
I0725 11:41:27.515275  7428 net.cpp:395] scale2a_branch2a -> res2a_branch2a (in-place)
I0725 11:41:27.515316  7428 layer_factory.hpp:77] Creating layer scale2a_branch2a
I0725 11:41:27.515463  7428 net.cpp:150] Setting up scale2a_branch2a
I0725 11:41:27.515472  7428 net.cpp:157] Top shape: 2 64 192 192 (4718592)
I0725 11:41:27.515475  7428 net.cpp:165] Memory required for data: 754974752
I0725 11:41:27.515489  7428 layer_factory.hpp:77] Creating layer res2a_branch2a_relu
I0725 11:41:27.515497  7428 net.cpp:100] Creating Layer res2a_branch2a_relu
I0725 11:41:27.515501  7428 net.cpp:434] res2a_branch2a_relu <- res2a_branch2a
I0725 11:41:27.515506  7428 net.cpp:395] res2a_branch2a_relu -> res2a_branch2a (in-place)
I0725 11:41:27.515684  7428 net.cpp:150] Setting up res2a_branch2a_relu
I0725 11:41:27.515696  7428 net.cpp:157] Top shape: 2 64 192 192 (4718592)
I0725 11:41:27.515698  7428 net.cpp:165] Memory required for data: 773849120
I0725 11:41:27.515702  7428 layer_factory.hpp:77] Creating layer res2a_branch2b
I0725 11:41:27.515714  7428 net.cpp:100] Creating Layer res2a_branch2b
I0725 11:41:27.515718  7428 net.cpp:434] res2a_branch2b <- res2a_branch2a
I0725 11:41:27.515725  7428 net.cpp:408] res2a_branch2b -> res2a_branch2b
I0725 11:41:27.517215  7428 net.cpp:150] Setting up res2a_branch2b
I0725 11:41:27.517241  7428 net.cpp:157] Top shape: 2 64 192 192 (4718592)
I0725 11:41:27.517246  7428 net.cpp:165] Memory required for data: 792723488
I0725 11:41:27.517251  7428 layer_factory.hpp:77] Creating layer bn2a_branch2b
I0725 11:41:27.517261  7428 net.cpp:100] Creating Layer bn2a_branch2b
I0725 11:41:27.517266  7428 net.cpp:434] bn2a_branch2b <- res2a_branch2b
I0725 11:41:27.517272  7428 net.cpp:395] bn2a_branch2b -> res2a_branch2b (in-place)
I0725 11:41:27.517496  7428 net.cpp:150] Setting up bn2a_branch2b
I0725 11:41:27.517506  7428 net.cpp:157] Top shape: 2 64 192 192 (4718592)
I0725 11:41:27.517509  7428 net.cpp:165] Memory required for data: 811597856
I0725 11:41:27.517516  7428 layer_factory.hpp:77] Creating layer scale2a_branch2b
I0725 11:41:27.517525  7428 net.cpp:100] Creating Layer scale2a_branch2b
I0725 11:41:27.517529  7428 net.cpp:434] scale2a_branch2b <- res2a_branch2b
I0725 11:41:27.517534  7428 net.cpp:395] scale2a_branch2b -> res2a_branch2b (in-place)
I0725 11:41:27.517576  7428 layer_factory.hpp:77] Creating layer scale2a_branch2b
I0725 11:41:27.517729  7428 net.cpp:150] Setting up scale2a_branch2b
I0725 11:41:27.517737  7428 net.cpp:157] Top shape: 2 64 192 192 (4718592)
I0725 11:41:27.517740  7428 net.cpp:165] Memory required for data: 830472224
I0725 11:41:27.517746  7428 layer_factory.hpp:77] Creating layer res2a_branch2b_relu
I0725 11:41:27.517752  7428 net.cpp:100] Creating Layer res2a_branch2b_relu
I0725 11:41:27.517755  7428 net.cpp:434] res2a_branch2b_relu <- res2a_branch2b
I0725 11:41:27.517762  7428 net.cpp:395] res2a_branch2b_relu -> res2a_branch2b (in-place)
I0725 11:41:27.517942  7428 net.cpp:150] Setting up res2a_branch2b_relu
I0725 11:41:27.517956  7428 net.cpp:157] Top shape: 2 64 192 192 (4718592)
I0725 11:41:27.517958  7428 net.cpp:165] Memory required for data: 849346592
I0725 11:41:27.517961  7428 layer_factory.hpp:77] Creating layer res2a_branch2c
I0725 11:41:27.517971  7428 net.cpp:100] Creating Layer res2a_branch2c
I0725 11:41:27.517976  7428 net.cpp:434] res2a_branch2c <- res2a_branch2b
I0725 11:41:27.517982  7428 net.cpp:408] res2a_branch2c -> res2a_branch2c
I0725 11:41:27.519101  7428 net.cpp:150] Setting up res2a_branch2c
I0725 11:41:27.519129  7428 net.cpp:157] Top shape: 2 256 192 192 (18874368)
I0725 11:41:27.519132  7428 net.cpp:165] Memory required for data: 924844064
I0725 11:41:27.519137  7428 layer_factory.hpp:77] Creating layer bn2a_branch2c
I0725 11:41:27.519143  7428 net.cpp:100] Creating Layer bn2a_branch2c
I0725 11:41:27.519147  7428 net.cpp:434] bn2a_branch2c <- res2a_branch2c
I0725 11:41:27.519153  7428 net.cpp:395] bn2a_branch2c -> res2a_branch2c (in-place)
I0725 11:41:27.519368  7428 net.cpp:150] Setting up bn2a_branch2c
I0725 11:41:27.519377  7428 net.cpp:157] Top shape: 2 256 192 192 (18874368)
I0725 11:41:27.519381  7428 net.cpp:165] Memory required for data: 1000341536
I0725 11:41:27.519387  7428 layer_factory.hpp:77] Creating layer scale2a_branch2c
I0725 11:41:27.519397  7428 net.cpp:100] Creating Layer scale2a_branch2c
I0725 11:41:27.519400  7428 net.cpp:434] scale2a_branch2c <- res2a_branch2c
I0725 11:41:27.519404  7428 net.cpp:395] scale2a_branch2c -> res2a_branch2c (in-place)
I0725 11:41:27.519443  7428 layer_factory.hpp:77] Creating layer scale2a_branch2c
I0725 11:41:27.519587  7428 net.cpp:150] Setting up scale2a_branch2c
I0725 11:41:27.519596  7428 net.cpp:157] Top shape: 2 256 192 192 (18874368)
I0725 11:41:27.519599  7428 net.cpp:165] Memory required for data: 1075839008
I0725 11:41:27.519605  7428 layer_factory.hpp:77] Creating layer res2a
I0725 11:41:27.519611  7428 net.cpp:100] Creating Layer res2a
I0725 11:41:27.519614  7428 net.cpp:434] res2a <- res2a_branch1
I0725 11:41:27.519619  7428 net.cpp:434] res2a <- res2a_branch2c
I0725 11:41:27.519625  7428 net.cpp:408] res2a -> res2a
I0725 11:41:27.519654  7428 net.cpp:150] Setting up res2a
I0725 11:41:27.519661  7428 net.cpp:157] Top shape: 2 256 192 192 (18874368)
I0725 11:41:27.519676  7428 net.cpp:165] Memory required for data: 1151336480
I0725 11:41:27.519680  7428 layer_factory.hpp:77] Creating layer res2a_relu
I0725 11:41:27.519685  7428 net.cpp:100] Creating Layer res2a_relu
I0725 11:41:27.519688  7428 net.cpp:434] res2a_relu <- res2a
I0725 11:41:27.519695  7428 net.cpp:395] res2a_relu -> res2a (in-place)
I0725 11:41:27.519876  7428 net.cpp:150] Setting up res2a_relu
I0725 11:41:27.519889  7428 net.cpp:157] Top shape: 2 256 192 192 (18874368)
I0725 11:41:27.519892  7428 net.cpp:165] Memory required for data: 1226833952
I0725 11:41:27.519896  7428 layer_factory.hpp:77] Creating layer res2a_res2a_relu_0_split
I0725 11:41:27.519902  7428 net.cpp:100] Creating Layer res2a_res2a_relu_0_split
I0725 11:41:27.519906  7428 net.cpp:434] res2a_res2a_relu_0_split <- res2a
I0725 11:41:27.519912  7428 net.cpp:408] res2a_res2a_relu_0_split -> res2a_res2a_relu_0_split_0
I0725 11:41:27.519919  7428 net.cpp:408] res2a_res2a_relu_0_split -> res2a_res2a_relu_0_split_1
I0725 11:41:27.519959  7428 net.cpp:150] Setting up res2a_res2a_relu_0_split
I0725 11:41:27.519969  7428 net.cpp:157] Top shape: 2 256 192 192 (18874368)
I0725 11:41:27.519973  7428 net.cpp:157] Top shape: 2 256 192 192 (18874368)
I0725 11:41:27.519975  7428 net.cpp:165] Memory required for data: 1377828896
I0725 11:41:27.519979  7428 layer_factory.hpp:77] Creating layer res2b_branch2a
I0725 11:41:27.519990  7428 net.cpp:100] Creating Layer res2b_branch2a
I0725 11:41:27.519994  7428 net.cpp:434] res2b_branch2a <- res2a_res2a_relu_0_split_0
I0725 11:41:27.519999  7428 net.cpp:408] res2b_branch2a -> res2b_branch2a
I0725 11:41:27.521284  7428 net.cpp:150] Setting up res2b_branch2a
I0725 11:41:27.521309  7428 net.cpp:157] Top shape: 2 64 192 192 (4718592)
I0725 11:41:27.521312  7428 net.cpp:165] Memory required for data: 1396703264
I0725 11:41:27.521318  7428 layer_factory.hpp:77] Creating layer bn2b_branch2a
I0725 11:41:27.521325  7428 net.cpp:100] Creating Layer bn2b_branch2a
I0725 11:41:27.521329  7428 net.cpp:434] bn2b_branch2a <- res2b_branch2a
I0725 11:41:27.521334  7428 net.cpp:395] bn2b_branch2a -> res2b_branch2a (in-place)
I0725 11:41:27.521569  7428 net.cpp:150] Setting up bn2b_branch2a
I0725 11:41:27.521577  7428 net.cpp:157] Top shape: 2 64 192 192 (4718592)
I0725 11:41:27.521580  7428 net.cpp:165] Memory required for data: 1415577632
I0725 11:41:27.521594  7428 layer_factory.hpp:77] Creating layer scale2b_branch2a
I0725 11:41:27.521602  7428 net.cpp:100] Creating Layer scale2b_branch2a
I0725 11:41:27.521610  7428 net.cpp:434] scale2b_branch2a <- res2b_branch2a
I0725 11:41:27.521615  7428 net.cpp:395] scale2b_branch2a -> res2b_branch2a (in-place)
I0725 11:41:27.521657  7428 layer_factory.hpp:77] Creating layer scale2b_branch2a
I0725 11:41:27.522802  7428 net.cpp:150] Setting up scale2b_branch2a
I0725 11:41:27.522815  7428 net.cpp:157] Top shape: 2 64 192 192 (4718592)
I0725 11:41:27.522830  7428 net.cpp:165] Memory required for data: 1434452000
I0725 11:41:27.522835  7428 layer_factory.hpp:77] Creating layer res2b_branch2a_relu
I0725 11:41:27.522843  7428 net.cpp:100] Creating Layer res2b_branch2a_relu
I0725 11:41:27.522847  7428 net.cpp:434] res2b_branch2a_relu <- res2b_branch2a
I0725 11:41:27.522852  7428 net.cpp:395] res2b_branch2a_relu -> res2b_branch2a (in-place)
I0725 11:41:27.523059  7428 net.cpp:150] Setting up res2b_branch2a_relu
I0725 11:41:27.523072  7428 net.cpp:157] Top shape: 2 64 192 192 (4718592)
I0725 11:41:27.523074  7428 net.cpp:165] Memory required for data: 1453326368
I0725 11:41:27.523077  7428 layer_factory.hpp:77] Creating layer res2b_branch2b
I0725 11:41:27.523087  7428 net.cpp:100] Creating Layer res2b_branch2b
I0725 11:41:27.523092  7428 net.cpp:434] res2b_branch2b <- res2b_branch2a
I0725 11:41:27.523099  7428 net.cpp:408] res2b_branch2b -> res2b_branch2b
I0725 11:41:27.524405  7428 net.cpp:150] Setting up res2b_branch2b
I0725 11:41:27.524430  7428 net.cpp:157] Top shape: 2 64 192 192 (4718592)
I0725 11:41:27.524433  7428 net.cpp:165] Memory required for data: 1472200736
I0725 11:41:27.524439  7428 layer_factory.hpp:77] Creating layer bn2b_branch2b
I0725 11:41:27.524458  7428 net.cpp:100] Creating Layer bn2b_branch2b
I0725 11:41:27.524463  7428 net.cpp:434] bn2b_branch2b <- res2b_branch2b
I0725 11:41:27.524467  7428 net.cpp:395] bn2b_branch2b -> res2b_branch2b (in-place)
I0725 11:41:27.524690  7428 net.cpp:150] Setting up bn2b_branch2b
I0725 11:41:27.524699  7428 net.cpp:157] Top shape: 2 64 192 192 (4718592)
I0725 11:41:27.524703  7428 net.cpp:165] Memory required for data: 1491075104
I0725 11:41:27.524709  7428 layer_factory.hpp:77] Creating layer scale2b_branch2b
I0725 11:41:27.524718  7428 net.cpp:100] Creating Layer scale2b_branch2b
I0725 11:41:27.524722  7428 net.cpp:434] scale2b_branch2b <- res2b_branch2b
I0725 11:41:27.524727  7428 net.cpp:395] scale2b_branch2b -> res2b_branch2b (in-place)
I0725 11:41:27.524770  7428 layer_factory.hpp:77] Creating layer scale2b_branch2b
I0725 11:41:27.524950  7428 net.cpp:150] Setting up scale2b_branch2b
I0725 11:41:27.524960  7428 net.cpp:157] Top shape: 2 64 192 192 (4718592)
I0725 11:41:27.524962  7428 net.cpp:165] Memory required for data: 1509949472
I0725 11:41:27.524968  7428 layer_factory.hpp:77] Creating layer res2b_branch2b_relu
I0725 11:41:27.524981  7428 net.cpp:100] Creating Layer res2b_branch2b_relu
I0725 11:41:27.524986  7428 net.cpp:434] res2b_branch2b_relu <- res2b_branch2b
I0725 11:41:27.524991  7428 net.cpp:395] res2b_branch2b_relu -> res2b_branch2b (in-place)
I0725 11:41:27.525382  7428 net.cpp:150] Setting up res2b_branch2b_relu
I0725 11:41:27.525394  7428 net.cpp:157] Top shape: 2 64 192 192 (4718592)
I0725 11:41:27.525409  7428 net.cpp:165] Memory required for data: 1528823840
I0725 11:41:27.525413  7428 layer_factory.hpp:77] Creating layer res2b_branch2c
I0725 11:41:27.525424  7428 net.cpp:100] Creating Layer res2b_branch2c
I0725 11:41:27.525427  7428 net.cpp:434] res2b_branch2c <- res2b_branch2b
I0725 11:41:27.525434  7428 net.cpp:408] res2b_branch2c -> res2b_branch2c
I0725 11:41:27.526726  7428 net.cpp:150] Setting up res2b_branch2c
I0725 11:41:27.526741  7428 net.cpp:157] Top shape: 2 256 192 192 (18874368)
I0725 11:41:27.526743  7428 net.cpp:165] Memory required for data: 1604321312
I0725 11:41:27.526759  7428 layer_factory.hpp:77] Creating layer bn2b_branch2c
I0725 11:41:27.526767  7428 net.cpp:100] Creating Layer bn2b_branch2c
I0725 11:41:27.526772  7428 net.cpp:434] bn2b_branch2c <- res2b_branch2c
I0725 11:41:27.526775  7428 net.cpp:395] bn2b_branch2c -> res2b_branch2c (in-place)
I0725 11:41:27.527006  7428 net.cpp:150] Setting up bn2b_branch2c
I0725 11:41:27.527019  7428 net.cpp:157] Top shape: 2 256 192 192 (18874368)
I0725 11:41:27.527021  7428 net.cpp:165] Memory required for data: 1679818784
I0725 11:41:27.527029  7428 layer_factory.hpp:77] Creating layer scale2b_branch2c
I0725 11:41:27.527035  7428 net.cpp:100] Creating Layer scale2b_branch2c
I0725 11:41:27.527038  7428 net.cpp:434] scale2b_branch2c <- res2b_branch2c
I0725 11:41:27.527043  7428 net.cpp:395] scale2b_branch2c -> res2b_branch2c (in-place)
I0725 11:41:27.527086  7428 layer_factory.hpp:77] Creating layer scale2b_branch2c
I0725 11:41:27.527235  7428 net.cpp:150] Setting up scale2b_branch2c
I0725 11:41:27.527243  7428 net.cpp:157] Top shape: 2 256 192 192 (18874368)
I0725 11:41:27.527246  7428 net.cpp:165] Memory required for data: 1755316256
I0725 11:41:27.527252  7428 layer_factory.hpp:77] Creating layer res2b
I0725 11:41:27.527259  7428 net.cpp:100] Creating Layer res2b
I0725 11:41:27.527263  7428 net.cpp:434] res2b <- res2a_res2a_relu_0_split_1
I0725 11:41:27.527267  7428 net.cpp:434] res2b <- res2b_branch2c
I0725 11:41:27.527272  7428 net.cpp:408] res2b -> res2b
I0725 11:41:27.527300  7428 net.cpp:150] Setting up res2b
I0725 11:41:27.527307  7428 net.cpp:157] Top shape: 2 256 192 192 (18874368)
I0725 11:41:27.527310  7428 net.cpp:165] Memory required for data: 1830813728
I0725 11:41:27.527313  7428 layer_factory.hpp:77] Creating layer res2b_relu
I0725 11:41:27.527318  7428 net.cpp:100] Creating Layer res2b_relu
I0725 11:41:27.527321  7428 net.cpp:434] res2b_relu <- res2b
I0725 11:41:27.527338  7428 net.cpp:395] res2b_relu -> res2b (in-place)
I0725 11:41:27.527519  7428 net.cpp:150] Setting up res2b_relu
I0725 11:41:27.527530  7428 net.cpp:157] Top shape: 2 256 192 192 (18874368)
I0725 11:41:27.527534  7428 net.cpp:165] Memory required for data: 1906311200
I0725 11:41:27.527536  7428 layer_factory.hpp:77] Creating layer res2b_res2b_relu_0_split
I0725 11:41:27.527542  7428 net.cpp:100] Creating Layer res2b_res2b_relu_0_split
I0725 11:41:27.527546  7428 net.cpp:434] res2b_res2b_relu_0_split <- res2b
I0725 11:41:27.527552  7428 net.cpp:408] res2b_res2b_relu_0_split -> res2b_res2b_relu_0_split_0
I0725 11:41:27.527559  7428 net.cpp:408] res2b_res2b_relu_0_split -> res2b_res2b_relu_0_split_1
I0725 11:41:27.527604  7428 net.cpp:150] Setting up res2b_res2b_relu_0_split
I0725 11:41:27.527611  7428 net.cpp:157] Top shape: 2 256 192 192 (18874368)
I0725 11:41:27.527616  7428 net.cpp:157] Top shape: 2 256 192 192 (18874368)
I0725 11:41:27.527618  7428 net.cpp:165] Memory required for data: 2057306144
I0725 11:41:27.527621  7428 layer_factory.hpp:77] Creating layer res2c_branch2a
I0725 11:41:27.527631  7428 net.cpp:100] Creating Layer res2c_branch2a
I0725 11:41:27.527634  7428 net.cpp:434] res2c_branch2a <- res2b_res2b_relu_0_split_0
I0725 11:41:27.527642  7428 net.cpp:408] res2c_branch2a -> res2c_branch2a
I0725 11:41:27.528740  7428 net.cpp:150] Setting up res2c_branch2a
I0725 11:41:27.528767  7428 net.cpp:157] Top shape: 2 64 192 192 (4718592)
I0725 11:41:27.528770  7428 net.cpp:165] Memory required for data: 2076180512
I0725 11:41:27.528776  7428 layer_factory.hpp:77] Creating layer bn2c_branch2a
I0725 11:41:27.528781  7428 net.cpp:100] Creating Layer bn2c_branch2a
I0725 11:41:27.528786  7428 net.cpp:434] bn2c_branch2a <- res2c_branch2a
I0725 11:41:27.528795  7428 net.cpp:395] bn2c_branch2a -> res2c_branch2a (in-place)
I0725 11:41:27.529031  7428 net.cpp:150] Setting up bn2c_branch2a
I0725 11:41:27.529042  7428 net.cpp:157] Top shape: 2 64 192 192 (4718592)
I0725 11:41:27.529044  7428 net.cpp:165] Memory required for data: 2095054880
I0725 11:41:27.529050  7428 layer_factory.hpp:77] Creating layer scale2c_branch2a
I0725 11:41:27.529057  7428 net.cpp:100] Creating Layer scale2c_branch2a
I0725 11:41:27.529062  7428 net.cpp:434] scale2c_branch2a <- res2c_branch2a
I0725 11:41:27.529065  7428 net.cpp:395] scale2c_branch2a -> res2c_branch2a (in-place)
I0725 11:41:27.529109  7428 layer_factory.hpp:77] Creating layer scale2c_branch2a
I0725 11:41:27.529269  7428 net.cpp:150] Setting up scale2c_branch2a
I0725 11:41:27.529283  7428 net.cpp:157] Top shape: 2 64 192 192 (4718592)
I0725 11:41:27.529285  7428 net.cpp:165] Memory required for data: 2113929248
I0725 11:41:27.529291  7428 layer_factory.hpp:77] Creating layer res2c_branch2a_relu
I0725 11:41:27.529296  7428 net.cpp:100] Creating Layer res2c_branch2a_relu
I0725 11:41:27.529300  7428 net.cpp:434] res2c_branch2a_relu <- res2c_branch2a
I0725 11:41:27.529304  7428 net.cpp:395] res2c_branch2a_relu -> res2c_branch2a (in-place)
I0725 11:41:27.529490  7428 net.cpp:150] Setting up res2c_branch2a_relu
I0725 11:41:27.529501  7428 net.cpp:157] Top shape: 2 64 192 192 (4718592)
I0725 11:41:27.529505  7428 net.cpp:165] Memory required for data: 2132803616
I0725 11:41:27.529507  7428 layer_factory.hpp:77] Creating layer res2c_branch2b
I0725 11:41:27.529517  7428 net.cpp:100] Creating Layer res2c_branch2b
I0725 11:41:27.529521  7428 net.cpp:434] res2c_branch2b <- res2c_branch2a
I0725 11:41:27.529530  7428 net.cpp:408] res2c_branch2b -> res2c_branch2b
I0725 11:41:27.530999  7428 net.cpp:150] Setting up res2c_branch2b
I0725 11:41:27.531014  7428 net.cpp:157] Top shape: 2 64 192 192 (4718592)
I0725 11:41:27.531029  7428 net.cpp:165] Memory required for data: 2151677984
I0725 11:41:27.531034  7428 layer_factory.hpp:77] Creating layer bn2c_branch2b
I0725 11:41:27.531042  7428 net.cpp:100] Creating Layer bn2c_branch2b
I0725 11:41:27.531047  7428 net.cpp:434] bn2c_branch2b <- res2c_branch2b
I0725 11:41:27.531051  7428 net.cpp:395] bn2c_branch2b -> res2c_branch2b (in-place)
I0725 11:41:27.531297  7428 net.cpp:150] Setting up bn2c_branch2b
I0725 11:41:27.531308  7428 net.cpp:157] Top shape: 2 64 192 192 (4718592)
I0725 11:41:27.531311  7428 net.cpp:165] Memory required for data: 2170552352
I0725 11:41:27.531318  7428 layer_factory.hpp:77] Creating layer scale2c_branch2b
I0725 11:41:27.531327  7428 net.cpp:100] Creating Layer scale2c_branch2b
I0725 11:41:27.531332  7428 net.cpp:434] scale2c_branch2b <- res2c_branch2b
I0725 11:41:27.531347  7428 net.cpp:395] scale2c_branch2b -> res2c_branch2b (in-place)
I0725 11:41:27.531388  7428 layer_factory.hpp:77] Creating layer scale2c_branch2b
I0725 11:41:27.532518  7428 net.cpp:150] Setting up scale2c_branch2b
I0725 11:41:27.532532  7428 net.cpp:157] Top shape: 2 64 192 192 (4718592)
I0725 11:41:27.532546  7428 net.cpp:165] Memory required for data: 2189426720
I0725 11:41:27.532552  7428 layer_factory.hpp:77] Creating layer res2c_branch2b_relu
I0725 11:41:27.532558  7428 net.cpp:100] Creating Layer res2c_branch2b_relu
I0725 11:41:27.532563  7428 net.cpp:434] res2c_branch2b_relu <- res2c_branch2b
I0725 11:41:27.532570  7428 net.cpp:395] res2c_branch2b_relu -> res2c_branch2b (in-place)
I0725 11:41:27.532769  7428 net.cpp:150] Setting up res2c_branch2b_relu
I0725 11:41:27.532781  7428 net.cpp:157] Top shape: 2 64 192 192 (4718592)
I0725 11:41:27.532784  7428 net.cpp:165] Memory required for data: 2208301088
I0725 11:41:27.532788  7428 layer_factory.hpp:77] Creating layer res2c_branch2c
I0725 11:41:27.532799  7428 net.cpp:100] Creating Layer res2c_branch2c
I0725 11:41:27.532804  7428 net.cpp:434] res2c_branch2c <- res2c_branch2b
I0725 11:41:27.532811  7428 net.cpp:408] res2c_branch2c -> res2c_branch2c
I0725 11:41:27.533898  7428 net.cpp:150] Setting up res2c_branch2c
I0725 11:41:27.533911  7428 net.cpp:157] Top shape: 2 256 192 192 (18874368)
I0725 11:41:27.533926  7428 net.cpp:165] Memory required for data: 2283798560
I0725 11:41:27.533931  7428 layer_factory.hpp:77] Creating layer bn2c_branch2c
I0725 11:41:27.533939  7428 net.cpp:100] Creating Layer bn2c_branch2c
I0725 11:41:27.533943  7428 net.cpp:434] bn2c_branch2c <- res2c_branch2c
I0725 11:41:27.533948  7428 net.cpp:395] bn2c_branch2c -> res2c_branch2c (in-place)
I0725 11:41:27.534185  7428 net.cpp:150] Setting up bn2c_branch2c
I0725 11:41:27.534196  7428 net.cpp:157] Top shape: 2 256 192 192 (18874368)
I0725 11:41:27.534199  7428 net.cpp:165] Memory required for data: 2359296032
I0725 11:41:27.534206  7428 layer_factory.hpp:77] Creating layer scale2c_branch2c
I0725 11:41:27.534214  7428 net.cpp:100] Creating Layer scale2c_branch2c
I0725 11:41:27.534217  7428 net.cpp:434] scale2c_branch2c <- res2c_branch2c
I0725 11:41:27.534222  7428 net.cpp:395] scale2c_branch2c -> res2c_branch2c (in-place)
I0725 11:41:27.534265  7428 layer_factory.hpp:77] Creating layer scale2c_branch2c
I0725 11:41:27.534413  7428 net.cpp:150] Setting up scale2c_branch2c
I0725 11:41:27.534423  7428 net.cpp:157] Top shape: 2 256 192 192 (18874368)
I0725 11:41:27.534426  7428 net.cpp:165] Memory required for data: 2434793504
I0725 11:41:27.534440  7428 layer_factory.hpp:77] Creating layer res2c
I0725 11:41:27.534448  7428 net.cpp:100] Creating Layer res2c
I0725 11:41:27.534452  7428 net.cpp:434] res2c <- res2b_res2b_relu_0_split_1
I0725 11:41:27.534456  7428 net.cpp:434] res2c <- res2c_branch2c
I0725 11:41:27.534461  7428 net.cpp:408] res2c -> res2c
I0725 11:41:27.534502  7428 net.cpp:150] Setting up res2c
I0725 11:41:27.534508  7428 net.cpp:157] Top shape: 2 256 192 192 (18874368)
I0725 11:41:27.534512  7428 net.cpp:165] Memory required for data: 2510290976
I0725 11:41:27.534514  7428 layer_factory.hpp:77] Creating layer res2c_relu
I0725 11:41:27.534518  7428 net.cpp:100] Creating Layer res2c_relu
I0725 11:41:27.534523  7428 net.cpp:434] res2c_relu <- res2c
I0725 11:41:27.534526  7428 net.cpp:395] res2c_relu -> res2c (in-place)
I0725 11:41:27.534709  7428 net.cpp:150] Setting up res2c_relu
I0725 11:41:27.534721  7428 net.cpp:157] Top shape: 2 256 192 192 (18874368)
I0725 11:41:27.534724  7428 net.cpp:165] Memory required for data: 2585788448
I0725 11:41:27.534739  7428 layer_factory.hpp:77] Creating layer res2c_res2c_relu_0_split
I0725 11:41:27.534745  7428 net.cpp:100] Creating Layer res2c_res2c_relu_0_split
I0725 11:41:27.534749  7428 net.cpp:434] res2c_res2c_relu_0_split <- res2c
I0725 11:41:27.534756  7428 net.cpp:408] res2c_res2c_relu_0_split -> res2c_res2c_relu_0_split_0
I0725 11:41:27.534762  7428 net.cpp:408] res2c_res2c_relu_0_split -> res2c_res2c_relu_0_split_1
I0725 11:41:27.534806  7428 net.cpp:150] Setting up res2c_res2c_relu_0_split
I0725 11:41:27.534812  7428 net.cpp:157] Top shape: 2 256 192 192 (18874368)
I0725 11:41:27.534816  7428 net.cpp:157] Top shape: 2 256 192 192 (18874368)
I0725 11:41:27.534818  7428 net.cpp:165] Memory required for data: 2736783392
I0725 11:41:27.534821  7428 layer_factory.hpp:77] Creating layer res3a_branch1
I0725 11:41:27.534832  7428 net.cpp:100] Creating Layer res3a_branch1
I0725 11:41:27.534837  7428 net.cpp:434] res3a_branch1 <- res2c_res2c_relu_0_split_0
I0725 11:41:27.534842  7428 net.cpp:408] res3a_branch1 -> res3a_branch1
I0725 11:41:27.537981  7428 net.cpp:150] Setting up res3a_branch1
I0725 11:41:27.538007  7428 net.cpp:157] Top shape: 2 512 96 96 (9437184)
I0725 11:41:27.538010  7428 net.cpp:165] Memory required for data: 2774532128
I0725 11:41:27.538015  7428 layer_factory.hpp:77] Creating layer bn3a_branch1
I0725 11:41:27.538023  7428 net.cpp:100] Creating Layer bn3a_branch1
I0725 11:41:27.538028  7428 net.cpp:434] bn3a_branch1 <- res3a_branch1
I0725 11:41:27.538033  7428 net.cpp:395] bn3a_branch1 -> res3a_branch1 (in-place)
I0725 11:41:27.539228  7428 net.cpp:150] Setting up bn3a_branch1
I0725 11:41:27.539242  7428 net.cpp:157] Top shape: 2 512 96 96 (9437184)
I0725 11:41:27.539255  7428 net.cpp:165] Memory required for data: 2812280864
I0725 11:41:27.539263  7428 layer_factory.hpp:77] Creating layer scale3a_branch1
I0725 11:41:27.539270  7428 net.cpp:100] Creating Layer scale3a_branch1
I0725 11:41:27.539274  7428 net.cpp:434] scale3a_branch1 <- res3a_branch1
I0725 11:41:27.539281  7428 net.cpp:395] scale3a_branch1 -> res3a_branch1 (in-place)
I0725 11:41:27.539335  7428 layer_factory.hpp:77] Creating layer scale3a_branch1
I0725 11:41:27.539475  7428 net.cpp:150] Setting up scale3a_branch1
I0725 11:41:27.539484  7428 net.cpp:157] Top shape: 2 512 96 96 (9437184)
I0725 11:41:27.539487  7428 net.cpp:165] Memory required for data: 2850029600
I0725 11:41:27.539494  7428 layer_factory.hpp:77] Creating layer res3a_branch2a
I0725 11:41:27.539502  7428 net.cpp:100] Creating Layer res3a_branch2a
I0725 11:41:27.539506  7428 net.cpp:434] res3a_branch2a <- res2c_res2c_relu_0_split_1
I0725 11:41:27.539515  7428 net.cpp:408] res3a_branch2a -> res3a_branch2a
I0725 11:41:27.540762  7428 net.cpp:150] Setting up res3a_branch2a
I0725 11:41:27.540787  7428 net.cpp:157] Top shape: 2 128 96 96 (2359296)
I0725 11:41:27.540791  7428 net.cpp:165] Memory required for data: 2859466784
I0725 11:41:27.540796  7428 layer_factory.hpp:77] Creating layer bn3a_branch2a
I0725 11:41:27.540805  7428 net.cpp:100] Creating Layer bn3a_branch2a
I0725 11:41:27.540810  7428 net.cpp:434] bn3a_branch2a <- res3a_branch2a
I0725 11:41:27.540814  7428 net.cpp:395] bn3a_branch2a -> res3a_branch2a (in-place)
I0725 11:41:27.541040  7428 net.cpp:150] Setting up bn3a_branch2a
I0725 11:41:27.541049  7428 net.cpp:157] Top shape: 2 128 96 96 (2359296)
I0725 11:41:27.541052  7428 net.cpp:165] Memory required for data: 2868903968
I0725 11:41:27.541059  7428 layer_factory.hpp:77] Creating layer scale3a_branch2a
I0725 11:41:27.541065  7428 net.cpp:100] Creating Layer scale3a_branch2a
I0725 11:41:27.541069  7428 net.cpp:434] scale3a_branch2a <- res3a_branch2a
I0725 11:41:27.541076  7428 net.cpp:395] scale3a_branch2a -> res3a_branch2a (in-place)
I0725 11:41:27.541118  7428 layer_factory.hpp:77] Creating layer scale3a_branch2a
I0725 11:41:27.541247  7428 net.cpp:150] Setting up scale3a_branch2a
I0725 11:41:27.541256  7428 net.cpp:157] Top shape: 2 128 96 96 (2359296)
I0725 11:41:27.541260  7428 net.cpp:165] Memory required for data: 2878341152
I0725 11:41:27.541277  7428 layer_factory.hpp:77] Creating layer res3a_branch2a_relu
I0725 11:41:27.541283  7428 net.cpp:100] Creating Layer res3a_branch2a_relu
I0725 11:41:27.541287  7428 net.cpp:434] res3a_branch2a_relu <- res3a_branch2a
I0725 11:41:27.541291  7428 net.cpp:395] res3a_branch2a_relu -> res3a_branch2a (in-place)
I0725 11:41:27.541486  7428 net.cpp:150] Setting up res3a_branch2a_relu
I0725 11:41:27.541496  7428 net.cpp:157] Top shape: 2 128 96 96 (2359296)
I0725 11:41:27.541499  7428 net.cpp:165] Memory required for data: 2887778336
I0725 11:41:27.541502  7428 layer_factory.hpp:77] Creating layer res3a_branch2b
I0725 11:41:27.541512  7428 net.cpp:100] Creating Layer res3a_branch2b
I0725 11:41:27.541517  7428 net.cpp:434] res3a_branch2b <- res3a_branch2a
I0725 11:41:27.541523  7428 net.cpp:408] res3a_branch2b -> res3a_branch2b
I0725 11:41:27.544029  7428 net.cpp:150] Setting up res3a_branch2b
I0725 11:41:27.544044  7428 net.cpp:157] Top shape: 2 128 96 96 (2359296)
I0725 11:41:27.544059  7428 net.cpp:165] Memory required for data: 2897215520
I0725 11:41:27.544064  7428 layer_factory.hpp:77] Creating layer bn3a_branch2b
I0725 11:41:27.544073  7428 net.cpp:100] Creating Layer bn3a_branch2b
I0725 11:41:27.544077  7428 net.cpp:434] bn3a_branch2b <- res3a_branch2b
I0725 11:41:27.544081  7428 net.cpp:395] bn3a_branch2b -> res3a_branch2b (in-place)
I0725 11:41:27.544301  7428 net.cpp:150] Setting up bn3a_branch2b
I0725 11:41:27.544309  7428 net.cpp:157] Top shape: 2 128 96 96 (2359296)
I0725 11:41:27.544312  7428 net.cpp:165] Memory required for data: 2906652704
I0725 11:41:27.544319  7428 layer_factory.hpp:77] Creating layer scale3a_branch2b
I0725 11:41:27.544327  7428 net.cpp:100] Creating Layer scale3a_branch2b
I0725 11:41:27.544330  7428 net.cpp:434] scale3a_branch2b <- res3a_branch2b
I0725 11:41:27.544337  7428 net.cpp:395] scale3a_branch2b -> res3a_branch2b (in-place)
I0725 11:41:27.544379  7428 layer_factory.hpp:77] Creating layer scale3a_branch2b
I0725 11:41:27.544508  7428 net.cpp:150] Setting up scale3a_branch2b
I0725 11:41:27.544517  7428 net.cpp:157] Top shape: 2 128 96 96 (2359296)
I0725 11:41:27.544520  7428 net.cpp:165] Memory required for data: 2916089888
I0725 11:41:27.544525  7428 layer_factory.hpp:77] Creating layer res3a_branch2b_relu
I0725 11:41:27.544531  7428 net.cpp:100] Creating Layer res3a_branch2b_relu
I0725 11:41:27.544534  7428 net.cpp:434] res3a_branch2b_relu <- res3a_branch2b
I0725 11:41:27.544538  7428 net.cpp:395] res3a_branch2b_relu -> res3a_branch2b (in-place)
I0725 11:41:27.544944  7428 net.cpp:150] Setting up res3a_branch2b_relu
I0725 11:41:27.544957  7428 net.cpp:157] Top shape: 2 128 96 96 (2359296)
I0725 11:41:27.544971  7428 net.cpp:165] Memory required for data: 2925527072
I0725 11:41:27.544975  7428 layer_factory.hpp:77] Creating layer res3a_branch2c
I0725 11:41:27.544996  7428 net.cpp:100] Creating Layer res3a_branch2c
I0725 11:41:27.545001  7428 net.cpp:434] res3a_branch2c <- res3a_branch2b
I0725 11:41:27.545007  7428 net.cpp:408] res3a_branch2c -> res3a_branch2c
I0725 11:41:27.546365  7428 net.cpp:150] Setting up res3a_branch2c
I0725 11:41:27.546378  7428 net.cpp:157] Top shape: 2 512 96 96 (9437184)
I0725 11:41:27.546392  7428 net.cpp:165] Memory required for data: 2963275808
I0725 11:41:27.546398  7428 layer_factory.hpp:77] Creating layer bn3a_branch2c
I0725 11:41:27.546406  7428 net.cpp:100] Creating Layer bn3a_branch2c
I0725 11:41:27.546409  7428 net.cpp:434] bn3a_branch2c <- res3a_branch2c
I0725 11:41:27.546414  7428 net.cpp:395] bn3a_branch2c -> res3a_branch2c (in-place)
I0725 11:41:27.546643  7428 net.cpp:150] Setting up bn3a_branch2c
I0725 11:41:27.546651  7428 net.cpp:157] Top shape: 2 512 96 96 (9437184)
I0725 11:41:27.546654  7428 net.cpp:165] Memory required for data: 3001024544
I0725 11:41:27.546660  7428 layer_factory.hpp:77] Creating layer scale3a_branch2c
I0725 11:41:27.546672  7428 net.cpp:100] Creating Layer scale3a_branch2c
I0725 11:41:27.546675  7428 net.cpp:434] scale3a_branch2c <- res3a_branch2c
I0725 11:41:27.546680  7428 net.cpp:395] scale3a_branch2c -> res3a_branch2c (in-place)
I0725 11:41:27.546735  7428 layer_factory.hpp:77] Creating layer scale3a_branch2c
I0725 11:41:27.546870  7428 net.cpp:150] Setting up scale3a_branch2c
I0725 11:41:27.546880  7428 net.cpp:157] Top shape: 2 512 96 96 (9437184)
I0725 11:41:27.546882  7428 net.cpp:165] Memory required for data: 3038773280
I0725 11:41:27.546888  7428 layer_factory.hpp:77] Creating layer res3a
I0725 11:41:27.546895  7428 net.cpp:100] Creating Layer res3a
I0725 11:41:27.546900  7428 net.cpp:434] res3a <- res3a_branch1
I0725 11:41:27.546903  7428 net.cpp:434] res3a <- res3a_branch2c
I0725 11:41:27.546910  7428 net.cpp:408] res3a -> res3a
I0725 11:41:27.546936  7428 net.cpp:150] Setting up res3a
I0725 11:41:27.546955  7428 net.cpp:157] Top shape: 2 512 96 96 (9437184)
I0725 11:41:27.546958  7428 net.cpp:165] Memory required for data: 3076522016
I0725 11:41:27.546962  7428 layer_factory.hpp:77] Creating layer res3a_relu
I0725 11:41:27.546967  7428 net.cpp:100] Creating Layer res3a_relu
I0725 11:41:27.546969  7428 net.cpp:434] res3a_relu <- res3a
I0725 11:41:27.546977  7428 net.cpp:395] res3a_relu -> res3a (in-place)
I0725 11:41:27.547379  7428 net.cpp:150] Setting up res3a_relu
I0725 11:41:27.547391  7428 net.cpp:157] Top shape: 2 512 96 96 (9437184)
I0725 11:41:27.547406  7428 net.cpp:165] Memory required for data: 3114270752
I0725 11:41:27.547410  7428 layer_factory.hpp:77] Creating layer res3a_res3a_relu_0_split
I0725 11:41:27.547415  7428 net.cpp:100] Creating Layer res3a_res3a_relu_0_split
I0725 11:41:27.547418  7428 net.cpp:434] res3a_res3a_relu_0_split <- res3a
I0725 11:41:27.547426  7428 net.cpp:408] res3a_res3a_relu_0_split -> res3a_res3a_relu_0_split_0
I0725 11:41:27.547432  7428 net.cpp:408] res3a_res3a_relu_0_split -> res3a_res3a_relu_0_split_1
I0725 11:41:27.547488  7428 net.cpp:150] Setting up res3a_res3a_relu_0_split
I0725 11:41:27.547497  7428 net.cpp:157] Top shape: 2 512 96 96 (9437184)
I0725 11:41:27.547500  7428 net.cpp:157] Top shape: 2 512 96 96 (9437184)
I0725 11:41:27.547503  7428 net.cpp:165] Memory required for data: 3189768224
I0725 11:41:27.547507  7428 layer_factory.hpp:77] Creating layer res3b1_branch2a
I0725 11:41:27.547518  7428 net.cpp:100] Creating Layer res3b1_branch2a
I0725 11:41:27.547521  7428 net.cpp:434] res3b1_branch2a <- res3a_res3a_relu_0_split_0
I0725 11:41:27.547528  7428 net.cpp:408] res3b1_branch2a -> res3b1_branch2a
I0725 11:41:27.549074  7428 net.cpp:150] Setting up res3b1_branch2a
I0725 11:41:27.549099  7428 net.cpp:157] Top shape: 2 128 96 96 (2359296)
I0725 11:41:27.549103  7428 net.cpp:165] Memory required for data: 3199205408
I0725 11:41:27.549108  7428 layer_factory.hpp:77] Creating layer bn3b1_branch2a
I0725 11:41:27.549116  7428 net.cpp:100] Creating Layer bn3b1_branch2a
I0725 11:41:27.549120  7428 net.cpp:434] bn3b1_branch2a <- res3b1_branch2a
I0725 11:41:27.549125  7428 net.cpp:395] bn3b1_branch2a -> res3b1_branch2a (in-place)
I0725 11:41:27.549357  7428 net.cpp:150] Setting up bn3b1_branch2a
I0725 11:41:27.549367  7428 net.cpp:157] Top shape: 2 128 96 96 (2359296)
I0725 11:41:27.549371  7428 net.cpp:165] Memory required for data: 3208642592
I0725 11:41:27.549376  7428 layer_factory.hpp:77] Creating layer scale3b1_branch2a
I0725 11:41:27.549383  7428 net.cpp:100] Creating Layer scale3b1_branch2a
I0725 11:41:27.549387  7428 net.cpp:434] scale3b1_branch2a <- res3b1_branch2a
I0725 11:41:27.549392  7428 net.cpp:395] scale3b1_branch2a -> res3b1_branch2a (in-place)
I0725 11:41:27.549437  7428 layer_factory.hpp:77] Creating layer scale3b1_branch2a
I0725 11:41:27.549571  7428 net.cpp:150] Setting up scale3b1_branch2a
I0725 11:41:27.549579  7428 net.cpp:157] Top shape: 2 128 96 96 (2359296)
I0725 11:41:27.549582  7428 net.cpp:165] Memory required for data: 3218079776
I0725 11:41:27.549587  7428 layer_factory.hpp:77] Creating layer res3b1_branch2a_relu
I0725 11:41:27.549593  7428 net.cpp:100] Creating Layer res3b1_branch2a_relu
I0725 11:41:27.549597  7428 net.cpp:434] res3b1_branch2a_relu <- res3b1_branch2a
I0725 11:41:27.549603  7428 net.cpp:395] res3b1_branch2a_relu -> res3b1_branch2a (in-place)
I0725 11:41:27.550002  7428 net.cpp:150] Setting up res3b1_branch2a_relu
I0725 11:41:27.550016  7428 net.cpp:157] Top shape: 2 128 96 96 (2359296)
I0725 11:41:27.550030  7428 net.cpp:165] Memory required for data: 3227516960
I0725 11:41:27.550034  7428 layer_factory.hpp:77] Creating layer res3b1_branch2b
I0725 11:41:27.550047  7428 net.cpp:100] Creating Layer res3b1_branch2b
I0725 11:41:27.550051  7428 net.cpp:434] res3b1_branch2b <- res3b1_branch2a
I0725 11:41:27.550057  7428 net.cpp:408] res3b1_branch2b -> res3b1_branch2b
I0725 11:41:27.552556  7428 net.cpp:150] Setting up res3b1_branch2b
I0725 11:41:27.552584  7428 net.cpp:157] Top shape: 2 128 96 96 (2359296)
I0725 11:41:27.552588  7428 net.cpp:165] Memory required for data: 3236954144
I0725 11:41:27.552593  7428 layer_factory.hpp:77] Creating layer bn3b1_branch2b
I0725 11:41:27.552599  7428 net.cpp:100] Creating Layer bn3b1_branch2b
I0725 11:41:27.552603  7428 net.cpp:434] bn3b1_branch2b <- res3b1_branch2b
I0725 11:41:27.552609  7428 net.cpp:395] bn3b1_branch2b -> res3b1_branch2b (in-place)
I0725 11:41:27.552831  7428 net.cpp:150] Setting up bn3b1_branch2b
I0725 11:41:27.552840  7428 net.cpp:157] Top shape: 2 128 96 96 (2359296)
I0725 11:41:27.552844  7428 net.cpp:165] Memory required for data: 3246391328
I0725 11:41:27.552850  7428 layer_factory.hpp:77] Creating layer scale3b1_branch2b
I0725 11:41:27.552860  7428 net.cpp:100] Creating Layer scale3b1_branch2b
I0725 11:41:27.552863  7428 net.cpp:434] scale3b1_branch2b <- res3b1_branch2b
I0725 11:41:27.552868  7428 net.cpp:395] scale3b1_branch2b -> res3b1_branch2b (in-place)
I0725 11:41:27.552911  7428 layer_factory.hpp:77] Creating layer scale3b1_branch2b
I0725 11:41:27.553041  7428 net.cpp:150] Setting up scale3b1_branch2b
I0725 11:41:27.553050  7428 net.cpp:157] Top shape: 2 128 96 96 (2359296)
I0725 11:41:27.553053  7428 net.cpp:165] Memory required for data: 3255828512
I0725 11:41:27.553058  7428 layer_factory.hpp:77] Creating layer res3b1_branch2b_relu
I0725 11:41:27.553064  7428 net.cpp:100] Creating Layer res3b1_branch2b_relu
I0725 11:41:27.553067  7428 net.cpp:434] res3b1_branch2b_relu <- res3b1_branch2b
I0725 11:41:27.553073  7428 net.cpp:395] res3b1_branch2b_relu -> res3b1_branch2b (in-place)
I0725 11:41:27.553269  7428 net.cpp:150] Setting up res3b1_branch2b_relu
I0725 11:41:27.553280  7428 net.cpp:157] Top shape: 2 128 96 96 (2359296)
I0725 11:41:27.553283  7428 net.cpp:165] Memory required for data: 3265265696
I0725 11:41:27.553287  7428 layer_factory.hpp:77] Creating layer res3b1_branch2c
I0725 11:41:27.553297  7428 net.cpp:100] Creating Layer res3b1_branch2c
I0725 11:41:27.553304  7428 net.cpp:434] res3b1_branch2c <- res3b1_branch2b
I0725 11:41:27.553310  7428 net.cpp:408] res3b1_branch2c -> res3b1_branch2c
I0725 11:41:27.554908  7428 net.cpp:150] Setting up res3b1_branch2c
I0725 11:41:27.554934  7428 net.cpp:157] Top shape: 2 512 96 96 (9437184)
I0725 11:41:27.554937  7428 net.cpp:165] Memory required for data: 3303014432
I0725 11:41:27.554944  7428 layer_factory.hpp:77] Creating layer bn3b1_branch2c
I0725 11:41:27.554949  7428 net.cpp:100] Creating Layer bn3b1_branch2c
I0725 11:41:27.554953  7428 net.cpp:434] bn3b1_branch2c <- res3b1_branch2c
I0725 11:41:27.554960  7428 net.cpp:395] bn3b1_branch2c -> res3b1_branch2c (in-place)
I0725 11:41:27.555186  7428 net.cpp:150] Setting up bn3b1_branch2c
I0725 11:41:27.555194  7428 net.cpp:157] Top shape: 2 512 96 96 (9437184)
I0725 11:41:27.555197  7428 net.cpp:165] Memory required for data: 3340763168
I0725 11:41:27.555204  7428 layer_factory.hpp:77] Creating layer scale3b1_branch2c
I0725 11:41:27.555212  7428 net.cpp:100] Creating Layer scale3b1_branch2c
I0725 11:41:27.555215  7428 net.cpp:434] scale3b1_branch2c <- res3b1_branch2c
I0725 11:41:27.555222  7428 net.cpp:395] scale3b1_branch2c -> res3b1_branch2c (in-place)
I0725 11:41:27.555260  7428 layer_factory.hpp:77] Creating layer scale3b1_branch2c
I0725 11:41:27.555392  7428 net.cpp:150] Setting up scale3b1_branch2c
I0725 11:41:27.555402  7428 net.cpp:157] Top shape: 2 512 96 96 (9437184)
I0725 11:41:27.555415  7428 net.cpp:165] Memory required for data: 3378511904
I0725 11:41:27.555423  7428 layer_factory.hpp:77] Creating layer res3b1
I0725 11:41:27.555430  7428 net.cpp:100] Creating Layer res3b1
I0725 11:41:27.555434  7428 net.cpp:434] res3b1 <- res3a_res3a_relu_0_split_1
I0725 11:41:27.555438  7428 net.cpp:434] res3b1 <- res3b1_branch2c
I0725 11:41:27.555444  7428 net.cpp:408] res3b1 -> res3b1
I0725 11:41:27.555472  7428 net.cpp:150] Setting up res3b1
I0725 11:41:27.555480  7428 net.cpp:157] Top shape: 2 512 96 96 (9437184)
I0725 11:41:27.555483  7428 net.cpp:165] Memory required for data: 3416260640
I0725 11:41:27.555486  7428 layer_factory.hpp:77] Creating layer res3b1_relu
I0725 11:41:27.555491  7428 net.cpp:100] Creating Layer res3b1_relu
I0725 11:41:27.555495  7428 net.cpp:434] res3b1_relu <- res3b1
I0725 11:41:27.555500  7428 net.cpp:395] res3b1_relu -> res3b1 (in-place)
I0725 11:41:27.555691  7428 net.cpp:150] Setting up res3b1_relu
I0725 11:41:27.555704  7428 net.cpp:157] Top shape: 2 512 96 96 (9437184)
I0725 11:41:27.555707  7428 net.cpp:165] Memory required for data: 3454009376
I0725 11:41:27.555711  7428 layer_factory.hpp:77] Creating layer res3b1_res3b1_relu_0_split
I0725 11:41:27.555716  7428 net.cpp:100] Creating Layer res3b1_res3b1_relu_0_split
I0725 11:41:27.555721  7428 net.cpp:434] res3b1_res3b1_relu_0_split <- res3b1
I0725 11:41:27.555727  7428 net.cpp:408] res3b1_res3b1_relu_0_split -> res3b1_res3b1_relu_0_split_0
I0725 11:41:27.555733  7428 net.cpp:408] res3b1_res3b1_relu_0_split -> res3b1_res3b1_relu_0_split_1
I0725 11:41:27.555778  7428 net.cpp:150] Setting up res3b1_res3b1_relu_0_split
I0725 11:41:27.555785  7428 net.cpp:157] Top shape: 2 512 96 96 (9437184)
I0725 11:41:27.555789  7428 net.cpp:157] Top shape: 2 512 96 96 (9437184)
I0725 11:41:27.555791  7428 net.cpp:165] Memory required for data: 3529506848
I0725 11:41:27.555794  7428 layer_factory.hpp:77] Creating layer res3b2_branch2a
I0725 11:41:27.555805  7428 net.cpp:100] Creating Layer res3b2_branch2a
I0725 11:41:27.555809  7428 net.cpp:434] res3b2_branch2a <- res3b1_res3b1_relu_0_split_0
I0725 11:41:27.555815  7428 net.cpp:408] res3b2_branch2a -> res3b2_branch2a
I0725 11:41:27.557365  7428 net.cpp:150] Setting up res3b2_branch2a
I0725 11:41:27.557379  7428 net.cpp:157] Top shape: 2 128 96 96 (2359296)
I0725 11:41:27.557397  7428 net.cpp:165] Memory required for data: 3538944032
I0725 11:41:27.557402  7428 layer_factory.hpp:77] Creating layer bn3b2_branch2a
I0725 11:41:27.557409  7428 net.cpp:100] Creating Layer bn3b2_branch2a
I0725 11:41:27.557412  7428 net.cpp:434] bn3b2_branch2a <- res3b2_branch2a
I0725 11:41:27.557420  7428 net.cpp:395] bn3b2_branch2a -> res3b2_branch2a (in-place)
I0725 11:41:27.557656  7428 net.cpp:150] Setting up bn3b2_branch2a
I0725 11:41:27.557664  7428 net.cpp:157] Top shape: 2 128 96 96 (2359296)
I0725 11:41:27.557667  7428 net.cpp:165] Memory required for data: 3548381216
I0725 11:41:27.557674  7428 layer_factory.hpp:77] Creating layer scale3b2_branch2a
I0725 11:41:27.557680  7428 net.cpp:100] Creating Layer scale3b2_branch2a
I0725 11:41:27.557684  7428 net.cpp:434] scale3b2_branch2a <- res3b2_branch2a
I0725 11:41:27.557689  7428 net.cpp:395] scale3b2_branch2a -> res3b2_branch2a (in-place)
I0725 11:41:27.557734  7428 layer_factory.hpp:77] Creating layer scale3b2_branch2a
I0725 11:41:27.557862  7428 net.cpp:150] Setting up scale3b2_branch2a
I0725 11:41:27.557871  7428 net.cpp:157] Top shape: 2 128 96 96 (2359296)
I0725 11:41:27.557874  7428 net.cpp:165] Memory required for data: 3557818400
I0725 11:41:27.557879  7428 layer_factory.hpp:77] Creating layer res3b2_branch2a_relu
I0725 11:41:27.557884  7428 net.cpp:100] Creating Layer res3b2_branch2a_relu
I0725 11:41:27.557888  7428 net.cpp:434] res3b2_branch2a_relu <- res3b2_branch2a
I0725 11:41:27.557894  7428 net.cpp:395] res3b2_branch2a_relu -> res3b2_branch2a (in-place)
I0725 11:41:27.558081  7428 net.cpp:150] Setting up res3b2_branch2a_relu
I0725 11:41:27.558095  7428 net.cpp:157] Top shape: 2 128 96 96 (2359296)
I0725 11:41:27.558099  7428 net.cpp:165] Memory required for data: 3567255584
I0725 11:41:27.558113  7428 layer_factory.hpp:77] Creating layer res3b2_branch2b
I0725 11:41:27.558125  7428 net.cpp:100] Creating Layer res3b2_branch2b
I0725 11:41:27.558128  7428 net.cpp:434] res3b2_branch2b <- res3b2_branch2a
I0725 11:41:27.558135  7428 net.cpp:408] res3b2_branch2b -> res3b2_branch2b
I0725 11:41:27.561583  7428 net.cpp:150] Setting up res3b2_branch2b
I0725 11:41:27.561611  7428 net.cpp:157] Top shape: 2 128 96 96 (2359296)
I0725 11:41:27.561615  7428 net.cpp:165] Memory required for data: 3576692768
I0725 11:41:27.561620  7428 layer_factory.hpp:77] Creating layer bn3b2_branch2b
I0725 11:41:27.561626  7428 net.cpp:100] Creating Layer bn3b2_branch2b
I0725 11:41:27.561630  7428 net.cpp:434] bn3b2_branch2b <- res3b2_branch2b
I0725 11:41:27.561637  7428 net.cpp:395] bn3b2_branch2b -> res3b2_branch2b (in-place)
I0725 11:41:27.561864  7428 net.cpp:150] Setting up bn3b2_branch2b
I0725 11:41:27.561873  7428 net.cpp:157] Top shape: 2 128 96 96 (2359296)
I0725 11:41:27.561877  7428 net.cpp:165] Memory required for data: 3586129952
I0725 11:41:27.561883  7428 layer_factory.hpp:77] Creating layer scale3b2_branch2b
I0725 11:41:27.561892  7428 net.cpp:100] Creating Layer scale3b2_branch2b
I0725 11:41:27.561897  7428 net.cpp:434] scale3b2_branch2b <- res3b2_branch2b
I0725 11:41:27.561900  7428 net.cpp:395] scale3b2_branch2b -> res3b2_branch2b (in-place)
I0725 11:41:27.561946  7428 layer_factory.hpp:77] Creating layer scale3b2_branch2b
I0725 11:41:27.562077  7428 net.cpp:150] Setting up scale3b2_branch2b
I0725 11:41:27.562085  7428 net.cpp:157] Top shape: 2 128 96 96 (2359296)
I0725 11:41:27.562088  7428 net.cpp:165] Memory required for data: 3595567136
I0725 11:41:27.562094  7428 layer_factory.hpp:77] Creating layer res3b2_branch2b_relu
I0725 11:41:27.562101  7428 net.cpp:100] Creating Layer res3b2_branch2b_relu
I0725 11:41:27.562105  7428 net.cpp:434] res3b2_branch2b_relu <- res3b2_branch2b
I0725 11:41:27.562109  7428 net.cpp:395] res3b2_branch2b_relu -> res3b2_branch2b (in-place)
I0725 11:41:27.562510  7428 net.cpp:150] Setting up res3b2_branch2b_relu
I0725 11:41:27.562536  7428 net.cpp:157] Top shape: 2 128 96 96 (2359296)
I0725 11:41:27.562538  7428 net.cpp:165] Memory required for data: 3605004320
I0725 11:41:27.562542  7428 layer_factory.hpp:77] Creating layer res3b2_branch2c
I0725 11:41:27.562552  7428 net.cpp:100] Creating Layer res3b2_branch2c
I0725 11:41:27.562557  7428 net.cpp:434] res3b2_branch2c <- res3b2_branch2b
I0725 11:41:27.562564  7428 net.cpp:408] res3b2_branch2c -> res3b2_branch2c
I0725 11:41:27.564905  7428 net.cpp:150] Setting up res3b2_branch2c
I0725 11:41:27.564931  7428 net.cpp:157] Top shape: 2 512 96 96 (9437184)
I0725 11:41:27.564935  7428 net.cpp:165] Memory required for data: 3642753056
I0725 11:41:27.564941  7428 layer_factory.hpp:77] Creating layer bn3b2_branch2c
I0725 11:41:27.564949  7428 net.cpp:100] Creating Layer bn3b2_branch2c
I0725 11:41:27.564954  7428 net.cpp:434] bn3b2_branch2c <- res3b2_branch2c
I0725 11:41:27.564959  7428 net.cpp:395] bn3b2_branch2c -> res3b2_branch2c (in-place)
I0725 11:41:27.565183  7428 net.cpp:150] Setting up bn3b2_branch2c
I0725 11:41:27.565196  7428 net.cpp:157] Top shape: 2 512 96 96 (9437184)
I0725 11:41:27.565198  7428 net.cpp:165] Memory required for data: 3680501792
I0725 11:41:27.565205  7428 layer_factory.hpp:77] Creating layer scale3b2_branch2c
I0725 11:41:27.565212  7428 net.cpp:100] Creating Layer scale3b2_branch2c
I0725 11:41:27.565215  7428 net.cpp:434] scale3b2_branch2c <- res3b2_branch2c
I0725 11:41:27.565220  7428 net.cpp:395] scale3b2_branch2c -> res3b2_branch2c (in-place)
I0725 11:41:27.565274  7428 layer_factory.hpp:77] Creating layer scale3b2_branch2c
I0725 11:41:27.565408  7428 net.cpp:150] Setting up scale3b2_branch2c
I0725 11:41:27.565416  7428 net.cpp:157] Top shape: 2 512 96 96 (9437184)
I0725 11:41:27.565419  7428 net.cpp:165] Memory required for data: 3718250528
I0725 11:41:27.565425  7428 layer_factory.hpp:77] Creating layer res3b2
I0725 11:41:27.565430  7428 net.cpp:100] Creating Layer res3b2
I0725 11:41:27.565445  7428 net.cpp:434] res3b2 <- res3b1_res3b1_relu_0_split_1
I0725 11:41:27.565450  7428 net.cpp:434] res3b2 <- res3b2_branch2c
I0725 11:41:27.565459  7428 net.cpp:408] res3b2 -> res3b2
I0725 11:41:27.565490  7428 net.cpp:150] Setting up res3b2
I0725 11:41:27.565497  7428 net.cpp:157] Top shape: 2 512 96 96 (9437184)
I0725 11:41:27.565500  7428 net.cpp:165] Memory required for data: 3755999264
I0725 11:41:27.565503  7428 layer_factory.hpp:77] Creating layer res3b2_relu
I0725 11:41:27.565510  7428 net.cpp:100] Creating Layer res3b2_relu
I0725 11:41:27.565526  7428 net.cpp:434] res3b2_relu <- res3b2
I0725 11:41:27.565529  7428 net.cpp:395] res3b2_relu -> res3b2 (in-place)
I0725 11:41:27.565942  7428 net.cpp:150] Setting up res3b2_relu
I0725 11:41:27.565954  7428 net.cpp:157] Top shape: 2 512 96 96 (9437184)
I0725 11:41:27.565969  7428 net.cpp:165] Memory required for data: 3793748000
I0725 11:41:27.565973  7428 layer_factory.hpp:77] Creating layer res3b2_res3b2_relu_0_split
I0725 11:41:27.565979  7428 net.cpp:100] Creating Layer res3b2_res3b2_relu_0_split
I0725 11:41:27.565982  7428 net.cpp:434] res3b2_res3b2_relu_0_split <- res3b2
I0725 11:41:27.565989  7428 net.cpp:408] res3b2_res3b2_relu_0_split -> res3b2_res3b2_relu_0_split_0
I0725 11:41:27.565996  7428 net.cpp:408] res3b2_res3b2_relu_0_split -> res3b2_res3b2_relu_0_split_1
I0725 11:41:27.566057  7428 net.cpp:150] Setting up res3b2_res3b2_relu_0_split
I0725 11:41:27.566066  7428 net.cpp:157] Top shape: 2 512 96 96 (9437184)
I0725 11:41:27.566069  7428 net.cpp:157] Top shape: 2 512 96 96 (9437184)
I0725 11:41:27.566071  7428 net.cpp:165] Memory required for data: 3869245472
I0725 11:41:27.566074  7428 layer_factory.hpp:77] Creating layer res3b3_branch2a
I0725 11:41:27.566084  7428 net.cpp:100] Creating Layer res3b3_branch2a
I0725 11:41:27.566088  7428 net.cpp:434] res3b3_branch2a <- res3b2_res3b2_relu_0_split_0
I0725 11:41:27.566095  7428 net.cpp:408] res3b3_branch2a -> res3b3_branch2a
I0725 11:41:27.567665  7428 net.cpp:150] Setting up res3b3_branch2a
I0725 11:41:27.567679  7428 net.cpp:157] Top shape: 2 128 96 96 (2359296)
I0725 11:41:27.567693  7428 net.cpp:165] Memory required for data: 3878682656
I0725 11:41:27.567698  7428 layer_factory.hpp:77] Creating layer bn3b3_branch2a
I0725 11:41:27.567705  7428 net.cpp:100] Creating Layer bn3b3_branch2a
I0725 11:41:27.567710  7428 net.cpp:434] bn3b3_branch2a <- res3b3_branch2a
I0725 11:41:27.567716  7428 net.cpp:395] bn3b3_branch2a -> res3b3_branch2a (in-place)
I0725 11:41:27.567956  7428 net.cpp:150] Setting up bn3b3_branch2a
I0725 11:41:27.567965  7428 net.cpp:157] Top shape: 2 128 96 96 (2359296)
I0725 11:41:27.567968  7428 net.cpp:165] Memory required for data: 3888119840
I0725 11:41:27.567986  7428 layer_factory.hpp:77] Creating layer scale3b3_branch2a
I0725 11:41:27.567997  7428 net.cpp:100] Creating Layer scale3b3_branch2a
I0725 11:41:27.568001  7428 net.cpp:434] scale3b3_branch2a <- res3b3_branch2a
I0725 11:41:27.568006  7428 net.cpp:395] scale3b3_branch2a -> res3b3_branch2a (in-place)
I0725 11:41:27.568061  7428 layer_factory.hpp:77] Creating layer scale3b3_branch2a
I0725 11:41:27.568193  7428 net.cpp:150] Setting up scale3b3_branch2a
I0725 11:41:27.568202  7428 net.cpp:157] Top shape: 2 128 96 96 (2359296)
I0725 11:41:27.568205  7428 net.cpp:165] Memory required for data: 3897557024
I0725 11:41:27.568210  7428 layer_factory.hpp:77] Creating layer res3b3_branch2a_relu
I0725 11:41:27.568218  7428 net.cpp:100] Creating Layer res3b3_branch2a_relu
I0725 11:41:27.568222  7428 net.cpp:434] res3b3_branch2a_relu <- res3b3_branch2a
I0725 11:41:27.568226  7428 net.cpp:395] res3b3_branch2a_relu -> res3b3_branch2a (in-place)
I0725 11:41:27.568416  7428 net.cpp:150] Setting up res3b3_branch2a_relu
I0725 11:41:27.568428  7428 net.cpp:157] Top shape: 2 128 96 96 (2359296)
I0725 11:41:27.568430  7428 net.cpp:165] Memory required for data: 3906994208
I0725 11:41:27.568434  7428 layer_factory.hpp:77] Creating layer res3b3_branch2b
I0725 11:41:27.568444  7428 net.cpp:100] Creating Layer res3b3_branch2b
I0725 11:41:27.568459  7428 net.cpp:434] res3b3_branch2b <- res3b3_branch2a
I0725 11:41:27.568470  7428 net.cpp:408] res3b3_branch2b -> res3b3_branch2b
I0725 11:41:27.570978  7428 net.cpp:150] Setting up res3b3_branch2b
I0725 11:41:27.570992  7428 net.cpp:157] Top shape: 2 128 96 96 (2359296)
I0725 11:41:27.571007  7428 net.cpp:165] Memory required for data: 3916431392
I0725 11:41:27.571013  7428 layer_factory.hpp:77] Creating layer bn3b3_branch2b
I0725 11:41:27.571022  7428 net.cpp:100] Creating Layer bn3b3_branch2b
I0725 11:41:27.571025  7428 net.cpp:434] bn3b3_branch2b <- res3b3_branch2b
I0725 11:41:27.571030  7428 net.cpp:395] bn3b3_branch2b -> res3b3_branch2b (in-place)
I0725 11:41:27.571260  7428 net.cpp:150] Setting up bn3b3_branch2b
I0725 11:41:27.571271  7428 net.cpp:157] Top shape: 2 128 96 96 (2359296)
I0725 11:41:27.571274  7428 net.cpp:165] Memory required for data: 3925868576
I0725 11:41:27.571281  7428 layer_factory.hpp:77] Creating layer scale3b3_branch2b
I0725 11:41:27.571290  7428 net.cpp:100] Creating Layer scale3b3_branch2b
I0725 11:41:27.571292  7428 net.cpp:434] scale3b3_branch2b <- res3b3_branch2b
I0725 11:41:27.571297  7428 net.cpp:395] scale3b3_branch2b -> res3b3_branch2b (in-place)
I0725 11:41:27.571343  7428 layer_factory.hpp:77] Creating layer scale3b3_branch2b
I0725 11:41:27.571477  7428 net.cpp:150] Setting up scale3b3_branch2b
I0725 11:41:27.571485  7428 net.cpp:157] Top shape: 2 128 96 96 (2359296)
I0725 11:41:27.571488  7428 net.cpp:165] Memory required for data: 3935305760
I0725 11:41:27.571494  7428 layer_factory.hpp:77] Creating layer res3b3_branch2b_relu
I0725 11:41:27.571501  7428 net.cpp:100] Creating Layer res3b3_branch2b_relu
I0725 11:41:27.571506  7428 net.cpp:434] res3b3_branch2b_relu <- res3b3_branch2b
I0725 11:41:27.571509  7428 net.cpp:395] res3b3_branch2b_relu -> res3b3_branch2b (in-place)
I0725 11:41:27.571703  7428 net.cpp:150] Setting up res3b3_branch2b_relu
I0725 11:41:27.571714  7428 net.cpp:157] Top shape: 2 128 96 96 (2359296)
I0725 11:41:27.571718  7428 net.cpp:165] Memory required for data: 3944742944
I0725 11:41:27.571722  7428 layer_factory.hpp:77] Creating layer res3b3_branch2c
I0725 11:41:27.571732  7428 net.cpp:100] Creating Layer res3b3_branch2c
I0725 11:41:27.571735  7428 net.cpp:434] res3b3_branch2c <- res3b3_branch2b
I0725 11:41:27.571743  7428 net.cpp:408] res3b3_branch2c -> res3b3_branch2c
I0725 11:41:27.573385  7428 net.cpp:150] Setting up res3b3_branch2c
I0725 11:41:27.573410  7428 net.cpp:157] Top shape: 2 512 96 96 (9437184)
I0725 11:41:27.573415  7428 net.cpp:165] Memory required for data: 3982491680
I0725 11:41:27.573420  7428 layer_factory.hpp:77] Creating layer bn3b3_branch2c
I0725 11:41:27.573428  7428 net.cpp:100] Creating Layer bn3b3_branch2c
I0725 11:41:27.573432  7428 net.cpp:434] bn3b3_branch2c <- res3b3_branch2c
I0725 11:41:27.573437  7428 net.cpp:395] bn3b3_branch2c -> res3b3_branch2c (in-place)
I0725 11:41:27.573658  7428 net.cpp:150] Setting up bn3b3_branch2c
I0725 11:41:27.573668  7428 net.cpp:157] Top shape: 2 512 96 96 (9437184)
I0725 11:41:27.573670  7428 net.cpp:165] Memory required for data: 4020240416
I0725 11:41:27.573676  7428 layer_factory.hpp:77] Creating layer scale3b3_branch2c
I0725 11:41:27.573683  7428 net.cpp:100] Creating Layer scale3b3_branch2c
I0725 11:41:27.573688  7428 net.cpp:434] scale3b3_branch2c <- res3b3_branch2c
I0725 11:41:27.573695  7428 net.cpp:395] scale3b3_branch2c -> res3b3_branch2c (in-place)
I0725 11:41:27.573735  7428 layer_factory.hpp:77] Creating layer scale3b3_branch2c
I0725 11:41:27.573873  7428 net.cpp:150] Setting up scale3b3_branch2c
I0725 11:41:27.573881  7428 net.cpp:157] Top shape: 2 512 96 96 (9437184)
I0725 11:41:27.573884  7428 net.cpp:165] Memory required for data: 4057989152
I0725 11:41:27.573890  7428 layer_factory.hpp:77] Creating layer res3b3
I0725 11:41:27.573896  7428 net.cpp:100] Creating Layer res3b3
I0725 11:41:27.573899  7428 net.cpp:434] res3b3 <- res3b2_res3b2_relu_0_split_1
I0725 11:41:27.573904  7428 net.cpp:434] res3b3 <- res3b3_branch2c
I0725 11:41:27.573909  7428 net.cpp:408] res3b3 -> res3b3
I0725 11:41:27.573951  7428 net.cpp:150] Setting up res3b3
I0725 11:41:27.573959  7428 net.cpp:157] Top shape: 2 512 96 96 (9437184)
I0725 11:41:27.573962  7428 net.cpp:165] Memory required for data: 4095737888
I0725 11:41:27.573966  7428 layer_factory.hpp:77] Creating layer res3b3_relu
I0725 11:41:27.573972  7428 net.cpp:100] Creating Layer res3b3_relu
I0725 11:41:27.573976  7428 net.cpp:434] res3b3_relu <- res3b3
I0725 11:41:27.573981  7428 net.cpp:395] res3b3_relu -> res3b3 (in-place)
I0725 11:41:27.574178  7428 net.cpp:150] Setting up res3b3_relu
I0725 11:41:27.574190  7428 net.cpp:157] Top shape: 2 512 96 96 (9437184)
I0725 11:41:27.574193  7428 net.cpp:165] Memory required for data: 4133486624
I0725 11:41:27.574196  7428 layer_factory.hpp:77] Creating layer res3b3_res3b3_relu_0_split
I0725 11:41:27.574203  7428 net.cpp:100] Creating Layer res3b3_res3b3_relu_0_split
I0725 11:41:27.574205  7428 net.cpp:434] res3b3_res3b3_relu_0_split <- res3b3
I0725 11:41:27.574213  7428 net.cpp:408] res3b3_res3b3_relu_0_split -> res3b3_res3b3_relu_0_split_0
I0725 11:41:27.574219  7428 net.cpp:408] res3b3_res3b3_relu_0_split -> res3b3_res3b3_relu_0_split_1
I0725 11:41:27.574266  7428 net.cpp:150] Setting up res3b3_res3b3_relu_0_split
I0725 11:41:27.574275  7428 net.cpp:157] Top shape: 2 512 96 96 (9437184)
I0725 11:41:27.574278  7428 net.cpp:157] Top shape: 2 512 96 96 (9437184)
I0725 11:41:27.574281  7428 net.cpp:165] Memory required for data: 4208984096
I0725 11:41:27.574285  7428 layer_factory.hpp:77] Creating layer res4a_branch1
I0725 11:41:27.574293  7428 net.cpp:100] Creating Layer res4a_branch1
I0725 11:41:27.574297  7428 net.cpp:434] res4a_branch1 <- res3b3_res3b3_relu_0_split_0
I0725 11:41:27.574304  7428 net.cpp:408] res4a_branch1 -> res4a_branch1
I0725 11:41:27.581115  7428 net.cpp:150] Setting up res4a_branch1
I0725 11:41:27.581145  7428 net.cpp:157] Top shape: 2 1024 48 48 (4718592)
I0725 11:41:27.581148  7428 net.cpp:165] Memory required for data: 4227858464
I0725 11:41:27.581154  7428 layer_factory.hpp:77] Creating layer bn4a_branch1
I0725 11:41:27.581161  7428 net.cpp:100] Creating Layer bn4a_branch1
I0725 11:41:27.581164  7428 net.cpp:434] bn4a_branch1 <- res4a_branch1
I0725 11:41:27.581172  7428 net.cpp:395] bn4a_branch1 -> res4a_branch1 (in-place)
I0725 11:41:27.581385  7428 net.cpp:150] Setting up bn4a_branch1
I0725 11:41:27.581394  7428 net.cpp:157] Top shape: 2 1024 48 48 (4718592)
I0725 11:41:27.581398  7428 net.cpp:165] Memory required for data: 4246732832
I0725 11:41:27.581404  7428 layer_factory.hpp:77] Creating layer scale4a_branch1
I0725 11:41:27.581413  7428 net.cpp:100] Creating Layer scale4a_branch1
I0725 11:41:27.581418  7428 net.cpp:434] scale4a_branch1 <- res4a_branch1
I0725 11:41:27.581421  7428 net.cpp:395] scale4a_branch1 -> res4a_branch1 (in-place)
I0725 11:41:27.581465  7428 layer_factory.hpp:77] Creating layer scale4a_branch1
I0725 11:41:27.581588  7428 net.cpp:150] Setting up scale4a_branch1
I0725 11:41:27.581598  7428 net.cpp:157] Top shape: 2 1024 48 48 (4718592)
I0725 11:41:27.581600  7428 net.cpp:165] Memory required for data: 4265607200
I0725 11:41:27.581606  7428 layer_factory.hpp:77] Creating layer res4a_branch2a
I0725 11:41:27.581617  7428 net.cpp:100] Creating Layer res4a_branch2a
I0725 11:41:27.581621  7428 net.cpp:434] res4a_branch2a <- res3b3_res3b3_relu_0_split_1
I0725 11:41:27.581629  7428 net.cpp:408] res4a_branch2a -> res4a_branch2a
I0725 11:41:27.583860  7428 net.cpp:150] Setting up res4a_branch2a
I0725 11:41:27.583875  7428 net.cpp:157] Top shape: 2 256 48 48 (1179648)
I0725 11:41:27.583889  7428 net.cpp:165] Memory required for data: 4270325792
I0725 11:41:27.583895  7428 layer_factory.hpp:77] Creating layer bn4a_branch2a
I0725 11:41:27.583904  7428 net.cpp:100] Creating Layer bn4a_branch2a
I0725 11:41:27.583909  7428 net.cpp:434] bn4a_branch2a <- res4a_branch2a
I0725 11:41:27.583912  7428 net.cpp:395] bn4a_branch2a -> res4a_branch2a (in-place)
I0725 11:41:27.584175  7428 net.cpp:150] Setting up bn4a_branch2a
I0725 11:41:27.584187  7428 net.cpp:157] Top shape: 2 256 48 48 (1179648)
I0725 11:41:27.584201  7428 net.cpp:165] Memory required for data: 4275044384
I0725 11:41:27.584209  7428 layer_factory.hpp:77] Creating layer scale4a_branch2a
I0725 11:41:27.584219  7428 net.cpp:100] Creating Layer scale4a_branch2a
I0725 11:41:27.584223  7428 net.cpp:434] scale4a_branch2a <- res4a_branch2a
I0725 11:41:27.584228  7428 net.cpp:395] scale4a_branch2a -> res4a_branch2a (in-place)
I0725 11:41:27.584278  7428 layer_factory.hpp:77] Creating layer scale4a_branch2a
I0725 11:41:27.584395  7428 net.cpp:150] Setting up scale4a_branch2a
I0725 11:41:27.584403  7428 net.cpp:157] Top shape: 2 256 48 48 (1179648)
I0725 11:41:27.584406  7428 net.cpp:165] Memory required for data: 4279762976
I0725 11:41:27.584412  7428 layer_factory.hpp:77] Creating layer res4a_branch2a_relu
I0725 11:41:27.584419  7428 net.cpp:100] Creating Layer res4a_branch2a_relu
I0725 11:41:27.584422  7428 net.cpp:434] res4a_branch2a_relu <- res4a_branch2a
I0725 11:41:27.584427  7428 net.cpp:395] res4a_branch2a_relu -> res4a_branch2a (in-place)
I0725 11:41:27.584623  7428 net.cpp:150] Setting up res4a_branch2a_relu
I0725 11:41:27.584635  7428 net.cpp:157] Top shape: 2 256 48 48 (1179648)
I0725 11:41:27.584638  7428 net.cpp:165] Memory required for data: 4284481568
I0725 11:41:27.584641  7428 layer_factory.hpp:77] Creating layer res4a_branch2b
I0725 11:41:27.584651  7428 net.cpp:100] Creating Layer res4a_branch2b
I0725 11:41:27.584656  7428 net.cpp:434] res4a_branch2b <- res4a_branch2a
I0725 11:41:27.584662  7428 net.cpp:408] res4a_branch2b -> res4a_branch2b
I0725 11:41:27.592408  7428 net.cpp:150] Setting up res4a_branch2b
I0725 11:41:27.592435  7428 net.cpp:157] Top shape: 2 256 48 48 (1179648)
I0725 11:41:27.592439  7428 net.cpp:165] Memory required for data: 4289200160
I0725 11:41:27.592445  7428 layer_factory.hpp:77] Creating layer bn4a_branch2b
I0725 11:41:27.592453  7428 net.cpp:100] Creating Layer bn4a_branch2b
I0725 11:41:27.592458  7428 net.cpp:434] bn4a_branch2b <- res4a_branch2b
I0725 11:41:27.592463  7428 net.cpp:395] bn4a_branch2b -> res4a_branch2b (in-place)
I0725 11:41:27.592681  7428 net.cpp:150] Setting up bn4a_branch2b
I0725 11:41:27.592691  7428 net.cpp:157] Top shape: 2 256 48 48 (1179648)
I0725 11:41:27.592694  7428 net.cpp:165] Memory required for data: 4293918752
I0725 11:41:27.592700  7428 layer_factory.hpp:77] Creating layer scale4a_branch2b
I0725 11:41:27.592707  7428 net.cpp:100] Creating Layer scale4a_branch2b
I0725 11:41:27.592711  7428 net.cpp:434] scale4a_branch2b <- res4a_branch2b
I0725 11:41:27.592718  7428 net.cpp:395] scale4a_branch2b -> res4a_branch2b (in-place)
I0725 11:41:27.592762  7428 layer_factory.hpp:77] Creating layer scale4a_branch2b
I0725 11:41:27.592885  7428 net.cpp:150] Setting up scale4a_branch2b
I0725 11:41:27.592892  7428 net.cpp:157] Top shape: 2 256 48 48 (1179648)
I0725 11:41:27.592895  7428 net.cpp:165] Memory required for data: 4298637344
I0725 11:41:27.592901  7428 layer_factory.hpp:77] Creating layer res4a_branch2b_relu
I0725 11:41:27.592906  7428 net.cpp:100] Creating Layer res4a_branch2b_relu
I0725 11:41:27.592909  7428 net.cpp:434] res4a_branch2b_relu <- res4a_branch2b
I0725 11:41:27.592914  7428 net.cpp:395] res4a_branch2b_relu -> res4a_branch2b (in-place)
I0725 11:41:27.593117  7428 net.cpp:150] Setting up res4a_branch2b_relu
I0725 11:41:27.593129  7428 net.cpp:157] Top shape: 2 256 48 48 (1179648)
I0725 11:41:27.593132  7428 net.cpp:165] Memory required for data: 4303355936
I0725 11:41:27.593135  7428 layer_factory.hpp:77] Creating layer res4a_branch2c
I0725 11:41:27.593147  7428 net.cpp:100] Creating Layer res4a_branch2c
I0725 11:41:27.593150  7428 net.cpp:434] res4a_branch2c <- res4a_branch2b
I0725 11:41:27.593158  7428 net.cpp:408] res4a_branch2c -> res4a_branch2c
I0725 11:41:27.597465  7428 net.cpp:150] Setting up res4a_branch2c
I0725 11:41:27.597481  7428 net.cpp:157] Top shape: 2 1024 48 48 (4718592)
I0725 11:41:27.597496  7428 net.cpp:165] Memory required for data: 4322230304
I0725 11:41:27.597501  7428 layer_factory.hpp:77] Creating layer bn4a_branch2c
I0725 11:41:27.597520  7428 net.cpp:100] Creating Layer bn4a_branch2c
I0725 11:41:27.597525  7428 net.cpp:434] bn4a_branch2c <- res4a_branch2c
I0725 11:41:27.597530  7428 net.cpp:395] bn4a_branch2c -> res4a_branch2c (in-place)
I0725 11:41:27.597759  7428 net.cpp:150] Setting up bn4a_branch2c
I0725 11:41:27.597769  7428 net.cpp:157] Top shape: 2 1024 48 48 (4718592)
I0725 11:41:27.597771  7428 net.cpp:165] Memory required for data: 4341104672
I0725 11:41:27.597779  7428 layer_factory.hpp:77] Creating layer scale4a_branch2c
I0725 11:41:27.597785  7428 net.cpp:100] Creating Layer scale4a_branch2c
I0725 11:41:27.597789  7428 net.cpp:434] scale4a_branch2c <- res4a_branch2c
I0725 11:41:27.597795  7428 net.cpp:395] scale4a_branch2c -> res4a_branch2c (in-place)
I0725 11:41:27.597839  7428 layer_factory.hpp:77] Creating layer scale4a_branch2c
I0725 11:41:27.597967  7428 net.cpp:150] Setting up scale4a_branch2c
I0725 11:41:27.597976  7428 net.cpp:157] Top shape: 2 1024 48 48 (4718592)
I0725 11:41:27.597980  7428 net.cpp:165] Memory required for data: 4359979040
I0725 11:41:27.597985  7428 layer_factory.hpp:77] Creating layer res4a
I0725 11:41:27.597990  7428 net.cpp:100] Creating Layer res4a
I0725 11:41:27.597993  7428 net.cpp:434] res4a <- res4a_branch1
I0725 11:41:27.597997  7428 net.cpp:434] res4a <- res4a_branch2c
I0725 11:41:27.598002  7428 net.cpp:408] res4a -> res4a
I0725 11:41:27.598029  7428 net.cpp:150] Setting up res4a
I0725 11:41:27.598037  7428 net.cpp:157] Top shape: 2 1024 48 48 (4718592)
I0725 11:41:27.598039  7428 net.cpp:165] Memory required for data: 4378853408
I0725 11:41:27.598042  7428 layer_factory.hpp:77] Creating layer res4a_relu
I0725 11:41:27.598049  7428 net.cpp:100] Creating Layer res4a_relu
I0725 11:41:27.598053  7428 net.cpp:434] res4a_relu <- res4a
I0725 11:41:27.598057  7428 net.cpp:395] res4a_relu -> res4a (in-place)
I0725 11:41:27.598459  7428 net.cpp:150] Setting up res4a_relu
I0725 11:41:27.598472  7428 net.cpp:157] Top shape: 2 1024 48 48 (4718592)
I0725 11:41:27.598475  7428 net.cpp:165] Memory required for data: 4397727776
I0725 11:41:27.598479  7428 layer_factory.hpp:77] Creating layer res4a_res4a_relu_0_split
I0725 11:41:27.598505  7428 net.cpp:100] Creating Layer res4a_res4a_relu_0_split
I0725 11:41:27.598510  7428 net.cpp:434] res4a_res4a_relu_0_split <- res4a
I0725 11:41:27.598515  7428 net.cpp:408] res4a_res4a_relu_0_split -> res4a_res4a_relu_0_split_0
I0725 11:41:27.598521  7428 net.cpp:408] res4a_res4a_relu_0_split -> res4a_res4a_relu_0_split_1
I0725 11:41:27.598568  7428 net.cpp:150] Setting up res4a_res4a_relu_0_split
I0725 11:41:27.598577  7428 net.cpp:157] Top shape: 2 1024 48 48 (4718592)
I0725 11:41:27.598580  7428 net.cpp:157] Top shape: 2 1024 48 48 (4718592)
I0725 11:41:27.598583  7428 net.cpp:165] Memory required for data: 4435476512
I0725 11:41:27.598587  7428 layer_factory.hpp:77] Creating layer res4b1_branch2a
I0725 11:41:27.598594  7428 net.cpp:100] Creating Layer res4b1_branch2a
I0725 11:41:27.598598  7428 net.cpp:434] res4b1_branch2a <- res4a_res4a_relu_0_split_0
I0725 11:41:27.598606  7428 net.cpp:408] res4b1_branch2a -> res4b1_branch2a
I0725 11:41:27.602078  7428 net.cpp:150] Setting up res4b1_branch2a
I0725 11:41:27.602107  7428 net.cpp:157] Top shape: 2 256 48 48 (1179648)
I0725 11:41:27.602110  7428 net.cpp:165] Memory required for data: 4440195104
I0725 11:41:27.602116  7428 layer_factory.hpp:77] Creating layer bn4b1_branch2a
I0725 11:41:27.602123  7428 net.cpp:100] Creating Layer bn4b1_branch2a
I0725 11:41:27.602126  7428 net.cpp:434] bn4b1_branch2a <- res4b1_branch2a
I0725 11:41:27.602131  7428 net.cpp:395] bn4b1_branch2a -> res4b1_branch2a (in-place)
I0725 11:41:27.602351  7428 net.cpp:150] Setting up bn4b1_branch2a
I0725 11:41:27.602360  7428 net.cpp:157] Top shape: 2 256 48 48 (1179648)
I0725 11:41:27.602363  7428 net.cpp:165] Memory required for data: 4444913696
I0725 11:41:27.602370  7428 layer_factory.hpp:77] Creating layer scale4b1_branch2a
I0725 11:41:27.602378  7428 net.cpp:100] Creating Layer scale4b1_branch2a
I0725 11:41:27.602381  7428 net.cpp:434] scale4b1_branch2a <- res4b1_branch2a
I0725 11:41:27.602398  7428 net.cpp:395] scale4b1_branch2a -> res4b1_branch2a (in-place)
I0725 11:41:27.602449  7428 layer_factory.hpp:77] Creating layer scale4b1_branch2a
I0725 11:41:27.602569  7428 net.cpp:150] Setting up scale4b1_branch2a
I0725 11:41:27.602578  7428 net.cpp:157] Top shape: 2 256 48 48 (1179648)
I0725 11:41:27.602581  7428 net.cpp:165] Memory required for data: 4449632288
I0725 11:41:27.602586  7428 layer_factory.hpp:77] Creating layer res4b1_branch2a_relu
I0725 11:41:27.602592  7428 net.cpp:100] Creating Layer res4b1_branch2a_relu
I0725 11:41:27.602596  7428 net.cpp:434] res4b1_branch2a_relu <- res4b1_branch2a
I0725 11:41:27.602602  7428 net.cpp:395] res4b1_branch2a_relu -> res4b1_branch2a (in-place)
I0725 11:41:27.602802  7428 net.cpp:150] Setting up res4b1_branch2a_relu
I0725 11:41:27.602813  7428 net.cpp:157] Top shape: 2 256 48 48 (1179648)
I0725 11:41:27.602816  7428 net.cpp:165] Memory required for data: 4454350880
I0725 11:41:27.602820  7428 layer_factory.hpp:77] Creating layer res4b1_branch2b
I0725 11:41:27.602830  7428 net.cpp:100] Creating Layer res4b1_branch2b
I0725 11:41:27.602834  7428 net.cpp:434] res4b1_branch2b <- res4b1_branch2a
I0725 11:41:27.602840  7428 net.cpp:408] res4b1_branch2b -> res4b1_branch2b
I0725 11:41:27.610415  7428 net.cpp:150] Setting up res4b1_branch2b
I0725 11:41:27.610430  7428 net.cpp:157] Top shape: 2 256 48 48 (1179648)
I0725 11:41:27.610445  7428 net.cpp:165] Memory required for data: 4459069472
I0725 11:41:27.610451  7428 layer_factory.hpp:77] Creating layer bn4b1_branch2b
I0725 11:41:27.610457  7428 net.cpp:100] Creating Layer bn4b1_branch2b
I0725 11:41:27.610461  7428 net.cpp:434] bn4b1_branch2b <- res4b1_branch2b
I0725 11:41:27.610466  7428 net.cpp:395] bn4b1_branch2b -> res4b1_branch2b (in-place)
I0725 11:41:27.610703  7428 net.cpp:150] Setting up bn4b1_branch2b
I0725 11:41:27.610713  7428 net.cpp:157] Top shape: 2 256 48 48 (1179648)
I0725 11:41:27.610715  7428 net.cpp:165] Memory required for data: 4463788064
I0725 11:41:27.610723  7428 layer_factory.hpp:77] Creating layer scale4b1_branch2b
I0725 11:41:27.610731  7428 net.cpp:100] Creating Layer scale4b1_branch2b
I0725 11:41:27.610735  7428 net.cpp:434] scale4b1_branch2b <- res4b1_branch2b
I0725 11:41:27.610741  7428 net.cpp:395] scale4b1_branch2b -> res4b1_branch2b (in-place)
I0725 11:41:27.610787  7428 layer_factory.hpp:77] Creating layer scale4b1_branch2b
I0725 11:41:27.610909  7428 net.cpp:150] Setting up scale4b1_branch2b
I0725 11:41:27.610918  7428 net.cpp:157] Top shape: 2 256 48 48 (1179648)
I0725 11:41:27.610921  7428 net.cpp:165] Memory required for data: 4468506656
I0725 11:41:27.610926  7428 layer_factory.hpp:77] Creating layer res4b1_branch2b_relu
I0725 11:41:27.610932  7428 net.cpp:100] Creating Layer res4b1_branch2b_relu
I0725 11:41:27.610935  7428 net.cpp:434] res4b1_branch2b_relu <- res4b1_branch2b
I0725 11:41:27.610942  7428 net.cpp:395] res4b1_branch2b_relu -> res4b1_branch2b (in-place)
I0725 11:41:27.611142  7428 net.cpp:150] Setting up res4b1_branch2b_relu
I0725 11:41:27.611153  7428 net.cpp:157] Top shape: 2 256 48 48 (1179648)
I0725 11:41:27.611157  7428 net.cpp:165] Memory required for data: 4473225248
I0725 11:41:27.611160  7428 layer_factory.hpp:77] Creating layer res4b1_branch2c
I0725 11:41:27.611171  7428 net.cpp:100] Creating Layer res4b1_branch2c
I0725 11:41:27.611174  7428 net.cpp:434] res4b1_branch2c <- res4b1_branch2b
I0725 11:41:27.611181  7428 net.cpp:408] res4b1_branch2c -> res4b1_branch2c
I0725 11:41:27.615808  7428 net.cpp:150] Setting up res4b1_branch2c
I0725 11:41:27.615835  7428 net.cpp:157] Top shape: 2 1024 48 48 (4718592)
I0725 11:41:27.615839  7428 net.cpp:165] Memory required for data: 4492099616
I0725 11:41:27.615844  7428 layer_factory.hpp:77] Creating layer bn4b1_branch2c
I0725 11:41:27.615850  7428 net.cpp:100] Creating Layer bn4b1_branch2c
I0725 11:41:27.615854  7428 net.cpp:434] bn4b1_branch2c <- res4b1_branch2c
I0725 11:41:27.615862  7428 net.cpp:395] bn4b1_branch2c -> res4b1_branch2c (in-place)
I0725 11:41:27.616111  7428 net.cpp:150] Setting up bn4b1_branch2c
I0725 11:41:27.616123  7428 net.cpp:157] Top shape: 2 1024 48 48 (4718592)
I0725 11:41:27.616127  7428 net.cpp:165] Memory required for data: 4510973984
I0725 11:41:27.616133  7428 layer_factory.hpp:77] Creating layer scale4b1_branch2c
I0725 11:41:27.616140  7428 net.cpp:100] Creating Layer scale4b1_branch2c
I0725 11:41:27.616144  7428 net.cpp:434] scale4b1_branch2c <- res4b1_branch2c
I0725 11:41:27.616152  7428 net.cpp:395] scale4b1_branch2c -> res4b1_branch2c (in-place)
I0725 11:41:27.616194  7428 layer_factory.hpp:77] Creating layer scale4b1_branch2c
I0725 11:41:27.616323  7428 net.cpp:150] Setting up scale4b1_branch2c
I0725 11:41:27.616333  7428 net.cpp:157] Top shape: 2 1024 48 48 (4718592)
I0725 11:41:27.616336  7428 net.cpp:165] Memory required for data: 4529848352
I0725 11:41:27.616343  7428 layer_factory.hpp:77] Creating layer res4b1
I0725 11:41:27.616348  7428 net.cpp:100] Creating Layer res4b1
I0725 11:41:27.616351  7428 net.cpp:434] res4b1 <- res4a_res4a_relu_0_split_1
I0725 11:41:27.616356  7428 net.cpp:434] res4b1 <- res4b1_branch2c
I0725 11:41:27.616360  7428 net.cpp:408] res4b1 -> res4b1
I0725 11:41:27.616390  7428 net.cpp:150] Setting up res4b1
I0725 11:41:27.616397  7428 net.cpp:157] Top shape: 2 1024 48 48 (4718592)
I0725 11:41:27.616400  7428 net.cpp:165] Memory required for data: 4548722720
I0725 11:41:27.616403  7428 layer_factory.hpp:77] Creating layer res4b1_relu
I0725 11:41:27.616408  7428 net.cpp:100] Creating Layer res4b1_relu
I0725 11:41:27.616412  7428 net.cpp:434] res4b1_relu <- res4b1
I0725 11:41:27.616418  7428 net.cpp:395] res4b1_relu -> res4b1 (in-place)
I0725 11:41:27.616626  7428 net.cpp:150] Setting up res4b1_relu
I0725 11:41:27.616637  7428 net.cpp:157] Top shape: 2 1024 48 48 (4718592)
I0725 11:41:27.616641  7428 net.cpp:165] Memory required for data: 4567597088
I0725 11:41:27.616643  7428 layer_factory.hpp:77] Creating layer res4b1_res4b1_relu_0_split
I0725 11:41:27.616649  7428 net.cpp:100] Creating Layer res4b1_res4b1_relu_0_split
I0725 11:41:27.616653  7428 net.cpp:434] res4b1_res4b1_relu_0_split <- res4b1
I0725 11:41:27.616660  7428 net.cpp:408] res4b1_res4b1_relu_0_split -> res4b1_res4b1_relu_0_split_0
I0725 11:41:27.616667  7428 net.cpp:408] res4b1_res4b1_relu_0_split -> res4b1_res4b1_relu_0_split_1
I0725 11:41:27.616717  7428 net.cpp:150] Setting up res4b1_res4b1_relu_0_split
I0725 11:41:27.616724  7428 net.cpp:157] Top shape: 2 1024 48 48 (4718592)
I0725 11:41:27.616729  7428 net.cpp:157] Top shape: 2 1024 48 48 (4718592)
I0725 11:41:27.616731  7428 net.cpp:165] Memory required for data: 4605345824
I0725 11:41:27.616734  7428 layer_factory.hpp:77] Creating layer res4b2_branch2a
I0725 11:41:27.616744  7428 net.cpp:100] Creating Layer res4b2_branch2a
I0725 11:41:27.616749  7428 net.cpp:434] res4b2_branch2a <- res4b1_res4b1_relu_0_split_0
I0725 11:41:27.616755  7428 net.cpp:408] res4b2_branch2a -> res4b2_branch2a
I0725 11:41:27.620240  7428 net.cpp:150] Setting up res4b2_branch2a
I0725 11:41:27.620266  7428 net.cpp:157] Top shape: 2 256 48 48 (1179648)
I0725 11:41:27.620272  7428 net.cpp:165] Memory required for data: 4610064416
I0725 11:41:27.620278  7428 layer_factory.hpp:77] Creating layer bn4b2_branch2a
I0725 11:41:27.620285  7428 net.cpp:100] Creating Layer bn4b2_branch2a
I0725 11:41:27.620288  7428 net.cpp:434] bn4b2_branch2a <- res4b2_branch2a
I0725 11:41:27.620296  7428 net.cpp:395] bn4b2_branch2a -> res4b2_branch2a (in-place)
I0725 11:41:27.620517  7428 net.cpp:150] Setting up bn4b2_branch2a
I0725 11:41:27.620527  7428 net.cpp:157] Top shape: 2 256 48 48 (1179648)
I0725 11:41:27.620530  7428 net.cpp:165] Memory required for data: 4614783008
I0725 11:41:27.620537  7428 layer_factory.hpp:77] Creating layer scale4b2_branch2a
I0725 11:41:27.620543  7428 net.cpp:100] Creating Layer scale4b2_branch2a
I0725 11:41:27.620548  7428 net.cpp:434] scale4b2_branch2a <- res4b2_branch2a
I0725 11:41:27.620551  7428 net.cpp:395] scale4b2_branch2a -> res4b2_branch2a (in-place)
I0725 11:41:27.620597  7428 layer_factory.hpp:77] Creating layer scale4b2_branch2a
I0725 11:41:27.620733  7428 net.cpp:150] Setting up scale4b2_branch2a
I0725 11:41:27.620743  7428 net.cpp:157] Top shape: 2 256 48 48 (1179648)
I0725 11:41:27.620745  7428 net.cpp:165] Memory required for data: 4619501600
I0725 11:41:27.620751  7428 layer_factory.hpp:77] Creating layer res4b2_branch2a_relu
I0725 11:41:27.620756  7428 net.cpp:100] Creating Layer res4b2_branch2a_relu
I0725 11:41:27.620760  7428 net.cpp:434] res4b2_branch2a_relu <- res4b2_branch2a
I0725 11:41:27.620767  7428 net.cpp:395] res4b2_branch2a_relu -> res4b2_branch2a (in-place)
I0725 11:41:27.620971  7428 net.cpp:150] Setting up res4b2_branch2a_relu
I0725 11:41:27.620982  7428 net.cpp:157] Top shape: 2 256 48 48 (1179648)
I0725 11:41:27.620986  7428 net.cpp:165] Memory required for data: 4624220192
I0725 11:41:27.620990  7428 layer_factory.hpp:77] Creating layer res4b2_branch2b
I0725 11:41:27.620999  7428 net.cpp:100] Creating Layer res4b2_branch2b
I0725 11:41:27.621003  7428 net.cpp:434] res4b2_branch2b <- res4b2_branch2a
I0725 11:41:27.621012  7428 net.cpp:408] res4b2_branch2b -> res4b2_branch2b
I0725 11:41:27.628789  7428 net.cpp:150] Setting up res4b2_branch2b
I0725 11:41:27.628818  7428 net.cpp:157] Top shape: 2 256 48 48 (1179648)
I0725 11:41:27.628821  7428 net.cpp:165] Memory required for data: 4628938784
I0725 11:41:27.628828  7428 layer_factory.hpp:77] Creating layer bn4b2_branch2b
I0725 11:41:27.628834  7428 net.cpp:100] Creating Layer bn4b2_branch2b
I0725 11:41:27.628837  7428 net.cpp:434] bn4b2_branch2b <- res4b2_branch2b
I0725 11:41:27.628844  7428 net.cpp:395] bn4b2_branch2b -> res4b2_branch2b (in-place)
I0725 11:41:27.629068  7428 net.cpp:150] Setting up bn4b2_branch2b
I0725 11:41:27.629077  7428 net.cpp:157] Top shape: 2 256 48 48 (1179648)
I0725 11:41:27.629081  7428 net.cpp:165] Memory required for data: 4633657376
I0725 11:41:27.629087  7428 layer_factory.hpp:77] Creating layer scale4b2_branch2b
I0725 11:41:27.629096  7428 net.cpp:100] Creating Layer scale4b2_branch2b
I0725 11:41:27.629101  7428 net.cpp:434] scale4b2_branch2b <- res4b2_branch2b
I0725 11:41:27.629106  7428 net.cpp:395] scale4b2_branch2b -> res4b2_branch2b (in-place)
I0725 11:41:27.629153  7428 layer_factory.hpp:77] Creating layer scale4b2_branch2b
I0725 11:41:27.629276  7428 net.cpp:150] Setting up scale4b2_branch2b
I0725 11:41:27.629285  7428 net.cpp:157] Top shape: 2 256 48 48 (1179648)
I0725 11:41:27.629288  7428 net.cpp:165] Memory required for data: 4638375968
I0725 11:41:27.629293  7428 layer_factory.hpp:77] Creating layer res4b2_branch2b_relu
I0725 11:41:27.629299  7428 net.cpp:100] Creating Layer res4b2_branch2b_relu
I0725 11:41:27.629302  7428 net.cpp:434] res4b2_branch2b_relu <- res4b2_branch2b
I0725 11:41:27.629309  7428 net.cpp:395] res4b2_branch2b_relu -> res4b2_branch2b (in-place)
I0725 11:41:27.629510  7428 net.cpp:150] Setting up res4b2_branch2b_relu
I0725 11:41:27.629521  7428 net.cpp:157] Top shape: 2 256 48 48 (1179648)
I0725 11:41:27.629524  7428 net.cpp:165] Memory required for data: 4643094560
I0725 11:41:27.629528  7428 layer_factory.hpp:77] Creating layer res4b2_branch2c
I0725 11:41:27.629539  7428 net.cpp:100] Creating Layer res4b2_branch2c
I0725 11:41:27.629542  7428 net.cpp:434] res4b2_branch2c <- res4b2_branch2b
I0725 11:41:27.629549  7428 net.cpp:408] res4b2_branch2c -> res4b2_branch2c
I0725 11:41:27.633978  7428 net.cpp:150] Setting up res4b2_branch2c
I0725 11:41:27.634007  7428 net.cpp:157] Top shape: 2 1024 48 48 (4718592)
I0725 11:41:27.634011  7428 net.cpp:165] Memory required for data: 4661968928
I0725 11:41:27.634017  7428 layer_factory.hpp:77] Creating layer bn4b2_branch2c
I0725 11:41:27.634023  7428 net.cpp:100] Creating Layer bn4b2_branch2c
I0725 11:41:27.634028  7428 net.cpp:434] bn4b2_branch2c <- res4b2_branch2c
I0725 11:41:27.634034  7428 net.cpp:395] bn4b2_branch2c -> res4b2_branch2c (in-place)
I0725 11:41:27.634258  7428 net.cpp:150] Setting up bn4b2_branch2c
I0725 11:41:27.634268  7428 net.cpp:157] Top shape: 2 1024 48 48 (4718592)
I0725 11:41:27.634270  7428 net.cpp:165] Memory required for data: 4680843296
I0725 11:41:27.634289  7428 layer_factory.hpp:77] Creating layer scale4b2_branch2c
I0725 11:41:27.634301  7428 net.cpp:100] Creating Layer scale4b2_branch2c
I0725 11:41:27.634305  7428 net.cpp:434] scale4b2_branch2c <- res4b2_branch2c
I0725 11:41:27.634310  7428 net.cpp:395] scale4b2_branch2c -> res4b2_branch2c (in-place)
I0725 11:41:27.634357  7428 layer_factory.hpp:77] Creating layer scale4b2_branch2c
I0725 11:41:27.634491  7428 net.cpp:150] Setting up scale4b2_branch2c
I0725 11:41:27.634500  7428 net.cpp:157] Top shape: 2 1024 48 48 (4718592)
I0725 11:41:27.634503  7428 net.cpp:165] Memory required for data: 4699717664
I0725 11:41:27.634510  7428 layer_factory.hpp:77] Creating layer res4b2
I0725 11:41:27.634516  7428 net.cpp:100] Creating Layer res4b2
I0725 11:41:27.634521  7428 net.cpp:434] res4b2 <- res4b1_res4b1_relu_0_split_1
I0725 11:41:27.634524  7428 net.cpp:434] res4b2 <- res4b2_branch2c
I0725 11:41:27.634529  7428 net.cpp:408] res4b2 -> res4b2
I0725 11:41:27.634558  7428 net.cpp:150] Setting up res4b2
I0725 11:41:27.634565  7428 net.cpp:157] Top shape: 2 1024 48 48 (4718592)
I0725 11:41:27.634568  7428 net.cpp:165] Memory required for data: 4718592032
I0725 11:41:27.634572  7428 layer_factory.hpp:77] Creating layer res4b2_relu
I0725 11:41:27.634577  7428 net.cpp:100] Creating Layer res4b2_relu
I0725 11:41:27.634580  7428 net.cpp:434] res4b2_relu <- res4b2
I0725 11:41:27.634587  7428 net.cpp:395] res4b2_relu -> res4b2 (in-place)
I0725 11:41:27.634994  7428 net.cpp:150] Setting up res4b2_relu
I0725 11:41:27.635007  7428 net.cpp:157] Top shape: 2 1024 48 48 (4718592)
I0725 11:41:27.635010  7428 net.cpp:165] Memory required for data: 4737466400
I0725 11:41:27.635015  7428 layer_factory.hpp:77] Creating layer res4b2_res4b2_relu_0_split
I0725 11:41:27.635020  7428 net.cpp:100] Creating Layer res4b2_res4b2_relu_0_split
I0725 11:41:27.635025  7428 net.cpp:434] res4b2_res4b2_relu_0_split <- res4b2
I0725 11:41:27.635031  7428 net.cpp:408] res4b2_res4b2_relu_0_split -> res4b2_res4b2_relu_0_split_0
I0725 11:41:27.635040  7428 net.cpp:408] res4b2_res4b2_relu_0_split -> res4b2_res4b2_relu_0_split_1
I0725 11:41:27.635093  7428 net.cpp:150] Setting up res4b2_res4b2_relu_0_split
I0725 11:41:27.635102  7428 net.cpp:157] Top shape: 2 1024 48 48 (4718592)
I0725 11:41:27.635105  7428 net.cpp:157] Top shape: 2 1024 48 48 (4718592)
I0725 11:41:27.635108  7428 net.cpp:165] Memory required for data: 4775215136
I0725 11:41:27.635112  7428 layer_factory.hpp:77] Creating layer res4b3_branch2a
I0725 11:41:27.635121  7428 net.cpp:100] Creating Layer res4b3_branch2a
I0725 11:41:27.635125  7428 net.cpp:434] res4b3_branch2a <- res4b2_res4b2_relu_0_split_0
I0725 11:41:27.635131  7428 net.cpp:408] res4b3_branch2a -> res4b3_branch2a
I0725 11:41:27.638598  7428 net.cpp:150] Setting up res4b3_branch2a
I0725 11:41:27.638625  7428 net.cpp:157] Top shape: 2 256 48 48 (1179648)
I0725 11:41:27.638629  7428 net.cpp:165] Memory required for data: 4779933728
I0725 11:41:27.638634  7428 layer_factory.hpp:77] Creating layer bn4b3_branch2a
I0725 11:41:27.638643  7428 net.cpp:100] Creating Layer bn4b3_branch2a
I0725 11:41:27.638648  7428 net.cpp:434] bn4b3_branch2a <- res4b3_branch2a
I0725 11:41:27.638653  7428 net.cpp:395] bn4b3_branch2a -> res4b3_branch2a (in-place)
I0725 11:41:27.638876  7428 net.cpp:150] Setting up bn4b3_branch2a
I0725 11:41:27.638887  7428 net.cpp:157] Top shape: 2 256 48 48 (1179648)
I0725 11:41:27.638891  7428 net.cpp:165] Memory required for data: 4784652320
I0725 11:41:27.638897  7428 layer_factory.hpp:77] Creating layer scale4b3_branch2a
I0725 11:41:27.638905  7428 net.cpp:100] Creating Layer scale4b3_branch2a
I0725 11:41:27.638908  7428 net.cpp:434] scale4b3_branch2a <- res4b3_branch2a
I0725 11:41:27.638912  7428 net.cpp:395] scale4b3_branch2a -> res4b3_branch2a (in-place)
I0725 11:41:27.638962  7428 layer_factory.hpp:77] Creating layer scale4b3_branch2a
I0725 11:41:27.639089  7428 net.cpp:150] Setting up scale4b3_branch2a
I0725 11:41:27.639097  7428 net.cpp:157] Top shape: 2 256 48 48 (1179648)
I0725 11:41:27.639113  7428 net.cpp:165] Memory required for data: 4789370912
I0725 11:41:27.639120  7428 layer_factory.hpp:77] Creating layer res4b3_branch2a_relu
I0725 11:41:27.639125  7428 net.cpp:100] Creating Layer res4b3_branch2a_relu
I0725 11:41:27.639129  7428 net.cpp:434] res4b3_branch2a_relu <- res4b3_branch2a
I0725 11:41:27.639137  7428 net.cpp:395] res4b3_branch2a_relu -> res4b3_branch2a (in-place)
I0725 11:41:27.639339  7428 net.cpp:150] Setting up res4b3_branch2a_relu
I0725 11:41:27.639353  7428 net.cpp:157] Top shape: 2 256 48 48 (1179648)
I0725 11:41:27.639356  7428 net.cpp:165] Memory required for data: 4794089504
I0725 11:41:27.639360  7428 layer_factory.hpp:77] Creating layer res4b3_branch2b
I0725 11:41:27.639370  7428 net.cpp:100] Creating Layer res4b3_branch2b
I0725 11:41:27.639374  7428 net.cpp:434] res4b3_branch2b <- res4b3_branch2a
I0725 11:41:27.639380  7428 net.cpp:408] res4b3_branch2b -> res4b3_branch2b
I0725 11:41:27.646948  7428 net.cpp:150] Setting up res4b3_branch2b
I0725 11:41:27.646963  7428 net.cpp:157] Top shape: 2 256 48 48 (1179648)
I0725 11:41:27.646977  7428 net.cpp:165] Memory required for data: 4798808096
I0725 11:41:27.646983  7428 layer_factory.hpp:77] Creating layer bn4b3_branch2b
I0725 11:41:27.646991  7428 net.cpp:100] Creating Layer bn4b3_branch2b
I0725 11:41:27.646996  7428 net.cpp:434] bn4b3_branch2b <- res4b3_branch2b
I0725 11:41:27.647002  7428 net.cpp:395] bn4b3_branch2b -> res4b3_branch2b (in-place)
I0725 11:41:27.647241  7428 net.cpp:150] Setting up bn4b3_branch2b
I0725 11:41:27.647251  7428 net.cpp:157] Top shape: 2 256 48 48 (1179648)
I0725 11:41:27.647254  7428 net.cpp:165] Memory required for data: 4803526688
I0725 11:41:27.647261  7428 layer_factory.hpp:77] Creating layer scale4b3_branch2b
I0725 11:41:27.647270  7428 net.cpp:100] Creating Layer scale4b3_branch2b
I0725 11:41:27.647274  7428 net.cpp:434] scale4b3_branch2b <- res4b3_branch2b
I0725 11:41:27.647279  7428 net.cpp:395] scale4b3_branch2b -> res4b3_branch2b (in-place)
I0725 11:41:27.647326  7428 layer_factory.hpp:77] Creating layer scale4b3_branch2b
I0725 11:41:27.647456  7428 net.cpp:150] Setting up scale4b3_branch2b
I0725 11:41:27.647464  7428 net.cpp:157] Top shape: 2 256 48 48 (1179648)
I0725 11:41:27.647467  7428 net.cpp:165] Memory required for data: 4808245280
I0725 11:41:27.647473  7428 layer_factory.hpp:77] Creating layer res4b3_branch2b_relu
I0725 11:41:27.647478  7428 net.cpp:100] Creating Layer res4b3_branch2b_relu
I0725 11:41:27.647481  7428 net.cpp:434] res4b3_branch2b_relu <- res4b3_branch2b
I0725 11:41:27.647488  7428 net.cpp:395] res4b3_branch2b_relu -> res4b3_branch2b (in-place)
I0725 11:41:27.647698  7428 net.cpp:150] Setting up res4b3_branch2b_relu
I0725 11:41:27.647711  7428 net.cpp:157] Top shape: 2 256 48 48 (1179648)
I0725 11:41:27.647713  7428 net.cpp:165] Memory required for data: 4812963872
I0725 11:41:27.647716  7428 layer_factory.hpp:77] Creating layer res4b3_branch2c
I0725 11:41:27.647728  7428 net.cpp:100] Creating Layer res4b3_branch2c
I0725 11:41:27.647732  7428 net.cpp:434] res4b3_branch2c <- res4b3_branch2b
I0725 11:41:27.647738  7428 net.cpp:408] res4b3_branch2c -> res4b3_branch2c
I0725 11:41:27.652118  7428 net.cpp:150] Setting up res4b3_branch2c
I0725 11:41:27.652146  7428 net.cpp:157] Top shape: 2 1024 48 48 (4718592)
I0725 11:41:27.652150  7428 net.cpp:165] Memory required for data: 4831838240
I0725 11:41:27.652155  7428 layer_factory.hpp:77] Creating layer bn4b3_branch2c
I0725 11:41:27.652161  7428 net.cpp:100] Creating Layer bn4b3_branch2c
I0725 11:41:27.652165  7428 net.cpp:434] bn4b3_branch2c <- res4b3_branch2c
I0725 11:41:27.652173  7428 net.cpp:395] bn4b3_branch2c -> res4b3_branch2c (in-place)
I0725 11:41:27.652412  7428 net.cpp:150] Setting up bn4b3_branch2c
I0725 11:41:27.652422  7428 net.cpp:157] Top shape: 2 1024 48 48 (4718592)
I0725 11:41:27.652426  7428 net.cpp:165] Memory required for data: 4850712608
I0725 11:41:27.652431  7428 layer_factory.hpp:77] Creating layer scale4b3_branch2c
I0725 11:41:27.652441  7428 net.cpp:100] Creating Layer scale4b3_branch2c
I0725 11:41:27.652459  7428 net.cpp:434] scale4b3_branch2c <- res4b3_branch2c
I0725 11:41:27.652465  7428 net.cpp:395] scale4b3_branch2c -> res4b3_branch2c (in-place)
I0725 11:41:27.652515  7428 layer_factory.hpp:77] Creating layer scale4b3_branch2c
I0725 11:41:27.652647  7428 net.cpp:150] Setting up scale4b3_branch2c
I0725 11:41:27.652657  7428 net.cpp:157] Top shape: 2 1024 48 48 (4718592)
I0725 11:41:27.652659  7428 net.cpp:165] Memory required for data: 4869586976
I0725 11:41:27.652665  7428 layer_factory.hpp:77] Creating layer res4b3
I0725 11:41:27.652670  7428 net.cpp:100] Creating Layer res4b3
I0725 11:41:27.652674  7428 net.cpp:434] res4b3 <- res4b2_res4b2_relu_0_split_1
I0725 11:41:27.652679  7428 net.cpp:434] res4b3 <- res4b3_branch2c
I0725 11:41:27.652685  7428 net.cpp:408] res4b3 -> res4b3
I0725 11:41:27.652715  7428 net.cpp:150] Setting up res4b3
I0725 11:41:27.652722  7428 net.cpp:157] Top shape: 2 1024 48 48 (4718592)
I0725 11:41:27.652725  7428 net.cpp:165] Memory required for data: 4888461344
I0725 11:41:27.652729  7428 layer_factory.hpp:77] Creating layer res4b3_relu
I0725 11:41:27.652734  7428 net.cpp:100] Creating Layer res4b3_relu
I0725 11:41:27.652736  7428 net.cpp:434] res4b3_relu <- res4b3
I0725 11:41:27.652742  7428 net.cpp:395] res4b3_relu -> res4b3 (in-place)
I0725 11:41:27.652950  7428 net.cpp:150] Setting up res4b3_relu
I0725 11:41:27.652961  7428 net.cpp:157] Top shape: 2 1024 48 48 (4718592)
I0725 11:41:27.652964  7428 net.cpp:165] Memory required for data: 4907335712
I0725 11:41:27.652968  7428 layer_factory.hpp:77] Creating layer res4b3_res4b3_relu_0_split
I0725 11:41:27.652976  7428 net.cpp:100] Creating Layer res4b3_res4b3_relu_0_split
I0725 11:41:27.652979  7428 net.cpp:434] res4b3_res4b3_relu_0_split <- res4b3
I0725 11:41:27.652987  7428 net.cpp:408] res4b3_res4b3_relu_0_split -> res4b3_res4b3_relu_0_split_0
I0725 11:41:27.652994  7428 net.cpp:408] res4b3_res4b3_relu_0_split -> res4b3_res4b3_relu_0_split_1
I0725 11:41:27.653046  7428 net.cpp:150] Setting up res4b3_res4b3_relu_0_split
I0725 11:41:27.653054  7428 net.cpp:157] Top shape: 2 1024 48 48 (4718592)
I0725 11:41:27.653059  7428 net.cpp:157] Top shape: 2 1024 48 48 (4718592)
I0725 11:41:27.653061  7428 net.cpp:165] Memory required for data: 4945084448
I0725 11:41:27.653064  7428 layer_factory.hpp:77] Creating layer res4b4_branch2a
I0725 11:41:27.653074  7428 net.cpp:100] Creating Layer res4b4_branch2a
I0725 11:41:27.653079  7428 net.cpp:434] res4b4_branch2a <- res4b3_res4b3_relu_0_split_0
I0725 11:41:27.653084  7428 net.cpp:408] res4b4_branch2a -> res4b4_branch2a
I0725 11:41:27.656482  7428 net.cpp:150] Setting up res4b4_branch2a
I0725 11:41:27.656497  7428 net.cpp:157] Top shape: 2 256 48 48 (1179648)
I0725 11:41:27.656512  7428 net.cpp:165] Memory required for data: 4949803040
I0725 11:41:27.656517  7428 layer_factory.hpp:77] Creating layer bn4b4_branch2a
I0725 11:41:27.656525  7428 net.cpp:100] Creating Layer bn4b4_branch2a
I0725 11:41:27.656530  7428 net.cpp:434] bn4b4_branch2a <- res4b4_branch2a
I0725 11:41:27.656535  7428 net.cpp:395] bn4b4_branch2a -> res4b4_branch2a (in-place)
I0725 11:41:27.656778  7428 net.cpp:150] Setting up bn4b4_branch2a
I0725 11:41:27.656788  7428 net.cpp:157] Top shape: 2 256 48 48 (1179648)
I0725 11:41:27.656791  7428 net.cpp:165] Memory required for data: 4954521632
I0725 11:41:27.656798  7428 layer_factory.hpp:77] Creating layer scale4b4_branch2a
I0725 11:41:27.656805  7428 net.cpp:100] Creating Layer scale4b4_branch2a
I0725 11:41:27.656808  7428 net.cpp:434] scale4b4_branch2a <- res4b4_branch2a
I0725 11:41:27.656816  7428 net.cpp:395] scale4b4_branch2a -> res4b4_branch2a (in-place)
I0725 11:41:27.656865  7428 layer_factory.hpp:77] Creating layer scale4b4_branch2a
I0725 11:41:27.656992  7428 net.cpp:150] Setting up scale4b4_branch2a
I0725 11:41:27.657001  7428 net.cpp:157] Top shape: 2 256 48 48 (1179648)
I0725 11:41:27.657004  7428 net.cpp:165] Memory required for data: 4959240224
I0725 11:41:27.657009  7428 layer_factory.hpp:77] Creating layer res4b4_branch2a_relu
I0725 11:41:27.657014  7428 net.cpp:100] Creating Layer res4b4_branch2a_relu
I0725 11:41:27.657029  7428 net.cpp:434] res4b4_branch2a_relu <- res4b4_branch2a
I0725 11:41:27.657034  7428 net.cpp:395] res4b4_branch2a_relu -> res4b4_branch2a (in-place)
I0725 11:41:27.657241  7428 net.cpp:150] Setting up res4b4_branch2a_relu
I0725 11:41:27.657253  7428 net.cpp:157] Top shape: 2 256 48 48 (1179648)
I0725 11:41:27.657256  7428 net.cpp:165] Memory required for data: 4963958816
I0725 11:41:27.657259  7428 layer_factory.hpp:77] Creating layer res4b4_branch2b
I0725 11:41:27.657271  7428 net.cpp:100] Creating Layer res4b4_branch2b
I0725 11:41:27.657275  7428 net.cpp:434] res4b4_branch2b <- res4b4_branch2a
I0725 11:41:27.657280  7428 net.cpp:408] res4b4_branch2b -> res4b4_branch2b
I0725 11:41:27.664857  7428 net.cpp:150] Setting up res4b4_branch2b
I0725 11:41:27.664871  7428 net.cpp:157] Top shape: 2 256 48 48 (1179648)
I0725 11:41:27.664886  7428 net.cpp:165] Memory required for data: 4968677408
I0725 11:41:27.664892  7428 layer_factory.hpp:77] Creating layer bn4b4_branch2b
I0725 11:41:27.664901  7428 net.cpp:100] Creating Layer bn4b4_branch2b
I0725 11:41:27.664904  7428 net.cpp:434] bn4b4_branch2b <- res4b4_branch2b
I0725 11:41:27.664909  7428 net.cpp:395] bn4b4_branch2b -> res4b4_branch2b (in-place)
I0725 11:41:27.665158  7428 net.cpp:150] Setting up bn4b4_branch2b
I0725 11:41:27.665166  7428 net.cpp:157] Top shape: 2 256 48 48 (1179648)
I0725 11:41:27.665169  7428 net.cpp:165] Memory required for data: 4973396000
I0725 11:41:27.665176  7428 layer_factory.hpp:77] Creating layer scale4b4_branch2b
I0725 11:41:27.665184  7428 net.cpp:100] Creating Layer scale4b4_branch2b
I0725 11:41:27.665187  7428 net.cpp:434] scale4b4_branch2b <- res4b4_branch2b
I0725 11:41:27.665192  7428 net.cpp:395] scale4b4_branch2b -> res4b4_branch2b (in-place)
I0725 11:41:27.665243  7428 layer_factory.hpp:77] Creating layer scale4b4_branch2b
I0725 11:41:27.665372  7428 net.cpp:150] Setting up scale4b4_branch2b
I0725 11:41:27.665381  7428 net.cpp:157] Top shape: 2 256 48 48 (1179648)
I0725 11:41:27.665385  7428 net.cpp:165] Memory required for data: 4978114592
I0725 11:41:27.665390  7428 layer_factory.hpp:77] Creating layer res4b4_branch2b_relu
I0725 11:41:27.665395  7428 net.cpp:100] Creating Layer res4b4_branch2b_relu
I0725 11:41:27.665398  7428 net.cpp:434] res4b4_branch2b_relu <- res4b4_branch2b
I0725 11:41:27.665405  7428 net.cpp:395] res4b4_branch2b_relu -> res4b4_branch2b (in-place)
I0725 11:41:27.665611  7428 net.cpp:150] Setting up res4b4_branch2b_relu
I0725 11:41:27.665626  7428 net.cpp:157] Top shape: 2 256 48 48 (1179648)
I0725 11:41:27.665628  7428 net.cpp:165] Memory required for data: 4982833184
I0725 11:41:27.665632  7428 layer_factory.hpp:77] Creating layer res4b4_branch2c
I0725 11:41:27.665642  7428 net.cpp:100] Creating Layer res4b4_branch2c
I0725 11:41:27.665647  7428 net.cpp:434] res4b4_branch2c <- res4b4_branch2b
I0725 11:41:27.665652  7428 net.cpp:408] res4b4_branch2c -> res4b4_branch2c
I0725 11:41:27.670125  7428 net.cpp:150] Setting up res4b4_branch2c
I0725 11:41:27.670153  7428 net.cpp:157] Top shape: 2 1024 48 48 (4718592)
I0725 11:41:27.670157  7428 net.cpp:165] Memory required for data: 5001707552
I0725 11:41:27.670162  7428 layer_factory.hpp:77] Creating layer bn4b4_branch2c
I0725 11:41:27.670169  7428 net.cpp:100] Creating Layer bn4b4_branch2c
I0725 11:41:27.670173  7428 net.cpp:434] bn4b4_branch2c <- res4b4_branch2c
I0725 11:41:27.670181  7428 net.cpp:395] bn4b4_branch2c -> res4b4_branch2c (in-place)
I0725 11:41:27.670418  7428 net.cpp:150] Setting up bn4b4_branch2c
I0725 11:41:27.670428  7428 net.cpp:157] Top shape: 2 1024 48 48 (4718592)
I0725 11:41:27.670430  7428 net.cpp:165] Memory required for data: 5020581920
I0725 11:41:27.670437  7428 layer_factory.hpp:77] Creating layer scale4b4_branch2c
I0725 11:41:27.670444  7428 net.cpp:100] Creating Layer scale4b4_branch2c
I0725 11:41:27.670449  7428 net.cpp:434] scale4b4_branch2c <- res4b4_branch2c
I0725 11:41:27.670454  7428 net.cpp:395] scale4b4_branch2c -> res4b4_branch2c (in-place)
I0725 11:41:27.670500  7428 layer_factory.hpp:77] Creating layer scale4b4_branch2c
I0725 11:41:27.670650  7428 net.cpp:150] Setting up scale4b4_branch2c
I0725 11:41:27.670661  7428 net.cpp:157] Top shape: 2 1024 48 48 (4718592)
I0725 11:41:27.670665  7428 net.cpp:165] Memory required for data: 5039456288
I0725 11:41:27.670670  7428 layer_factory.hpp:77] Creating layer res4b4
I0725 11:41:27.670675  7428 net.cpp:100] Creating Layer res4b4
I0725 11:41:27.670680  7428 net.cpp:434] res4b4 <- res4b3_res4b3_relu_0_split_1
I0725 11:41:27.670683  7428 net.cpp:434] res4b4 <- res4b4_branch2c
I0725 11:41:27.670691  7428 net.cpp:408] res4b4 -> res4b4
I0725 11:41:27.670718  7428 net.cpp:150] Setting up res4b4
I0725 11:41:27.670725  7428 net.cpp:157] Top shape: 2 1024 48 48 (4718592)
I0725 11:41:27.670728  7428 net.cpp:165] Memory required for data: 5058330656
I0725 11:41:27.670732  7428 layer_factory.hpp:77] Creating layer res4b4_relu
I0725 11:41:27.670738  7428 net.cpp:100] Creating Layer res4b4_relu
I0725 11:41:27.670742  7428 net.cpp:434] res4b4_relu <- res4b4
I0725 11:41:27.670747  7428 net.cpp:395] res4b4_relu -> res4b4 (in-place)
I0725 11:41:27.671159  7428 net.cpp:150] Setting up res4b4_relu
I0725 11:41:27.671174  7428 net.cpp:157] Top shape: 2 1024 48 48 (4718592)
I0725 11:41:27.671177  7428 net.cpp:165] Memory required for data: 5077205024
I0725 11:41:27.671180  7428 layer_factory.hpp:77] Creating layer res4b4_res4b4_relu_0_split
I0725 11:41:27.671188  7428 net.cpp:100] Creating Layer res4b4_res4b4_relu_0_split
I0725 11:41:27.671192  7428 net.cpp:434] res4b4_res4b4_relu_0_split <- res4b4
I0725 11:41:27.671200  7428 net.cpp:408] res4b4_res4b4_relu_0_split -> res4b4_res4b4_relu_0_split_0
I0725 11:41:27.671207  7428 net.cpp:408] res4b4_res4b4_relu_0_split -> res4b4_res4b4_relu_0_split_1
I0725 11:41:27.671259  7428 net.cpp:150] Setting up res4b4_res4b4_relu_0_split
I0725 11:41:27.671268  7428 net.cpp:157] Top shape: 2 1024 48 48 (4718592)
I0725 11:41:27.671273  7428 net.cpp:157] Top shape: 2 1024 48 48 (4718592)
I0725 11:41:27.671275  7428 net.cpp:165] Memory required for data: 5114953760
I0725 11:41:27.671278  7428 layer_factory.hpp:77] Creating layer res4b5_branch2a
I0725 11:41:27.671288  7428 net.cpp:100] Creating Layer res4b5_branch2a
I0725 11:41:27.671293  7428 net.cpp:434] res4b5_branch2a <- res4b4_res4b4_relu_0_split_0
I0725 11:41:27.671298  7428 net.cpp:408] res4b5_branch2a -> res4b5_branch2a
I0725 11:41:27.674823  7428 net.cpp:150] Setting up res4b5_branch2a
I0725 11:41:27.674849  7428 net.cpp:157] Top shape: 2 256 48 48 (1179648)
I0725 11:41:27.674852  7428 net.cpp:165] Memory required for data: 5119672352
I0725 11:41:27.674859  7428 layer_factory.hpp:77] Creating layer bn4b5_branch2a
I0725 11:41:27.674865  7428 net.cpp:100] Creating Layer bn4b5_branch2a
I0725 11:41:27.674870  7428 net.cpp:434] bn4b5_branch2a <- res4b5_branch2a
I0725 11:41:27.674876  7428 net.cpp:395] bn4b5_branch2a -> res4b5_branch2a (in-place)
I0725 11:41:27.675117  7428 net.cpp:150] Setting up bn4b5_branch2a
I0725 11:41:27.675127  7428 net.cpp:157] Top shape: 2 256 48 48 (1179648)
I0725 11:41:27.675129  7428 net.cpp:165] Memory required for data: 5124390944
I0725 11:41:27.675137  7428 layer_factory.hpp:77] Creating layer scale4b5_branch2a
I0725 11:41:27.675143  7428 net.cpp:100] Creating Layer scale4b5_branch2a
I0725 11:41:27.675148  7428 net.cpp:434] scale4b5_branch2a <- res4b5_branch2a
I0725 11:41:27.675154  7428 net.cpp:395] scale4b5_branch2a -> res4b5_branch2a (in-place)
I0725 11:41:27.675204  7428 layer_factory.hpp:77] Creating layer scale4b5_branch2a
I0725 11:41:27.675333  7428 net.cpp:150] Setting up scale4b5_branch2a
I0725 11:41:27.675343  7428 net.cpp:157] Top shape: 2 256 48 48 (1179648)
I0725 11:41:27.675345  7428 net.cpp:165] Memory required for data: 5129109536
I0725 11:41:27.675351  7428 layer_factory.hpp:77] Creating layer res4b5_branch2a_relu
I0725 11:41:27.675356  7428 net.cpp:100] Creating Layer res4b5_branch2a_relu
I0725 11:41:27.675360  7428 net.cpp:434] res4b5_branch2a_relu <- res4b5_branch2a
I0725 11:41:27.675364  7428 net.cpp:395] res4b5_branch2a_relu -> res4b5_branch2a (in-place)
I0725 11:41:27.675585  7428 net.cpp:150] Setting up res4b5_branch2a_relu
I0725 11:41:27.675596  7428 net.cpp:157] Top shape: 2 256 48 48 (1179648)
I0725 11:41:27.675599  7428 net.cpp:165] Memory required for data: 5133828128
I0725 11:41:27.675603  7428 layer_factory.hpp:77] Creating layer res4b5_branch2b
I0725 11:41:27.675613  7428 net.cpp:100] Creating Layer res4b5_branch2b
I0725 11:41:27.675617  7428 net.cpp:434] res4b5_branch2b <- res4b5_branch2a
I0725 11:41:27.675626  7428 net.cpp:408] res4b5_branch2b -> res4b5_branch2b
I0725 11:41:27.683420  7428 net.cpp:150] Setting up res4b5_branch2b
I0725 11:41:27.683435  7428 net.cpp:157] Top shape: 2 256 48 48 (1179648)
I0725 11:41:27.683450  7428 net.cpp:165] Memory required for data: 5138546720
I0725 11:41:27.683456  7428 layer_factory.hpp:77] Creating layer bn4b5_branch2b
I0725 11:41:27.683465  7428 net.cpp:100] Creating Layer bn4b5_branch2b
I0725 11:41:27.683470  7428 net.cpp:434] bn4b5_branch2b <- res4b5_branch2b
I0725 11:41:27.683475  7428 net.cpp:395] bn4b5_branch2b -> res4b5_branch2b (in-place)
I0725 11:41:27.683712  7428 net.cpp:150] Setting up bn4b5_branch2b
I0725 11:41:27.683722  7428 net.cpp:157] Top shape: 2 256 48 48 (1179648)
I0725 11:41:27.683725  7428 net.cpp:165] Memory required for data: 5143265312
I0725 11:41:27.683732  7428 layer_factory.hpp:77] Creating layer scale4b5_branch2b
I0725 11:41:27.683739  7428 net.cpp:100] Creating Layer scale4b5_branch2b
I0725 11:41:27.683743  7428 net.cpp:434] scale4b5_branch2b <- res4b5_branch2b
I0725 11:41:27.683748  7428 net.cpp:395] scale4b5_branch2b -> res4b5_branch2b (in-place)
I0725 11:41:27.683799  7428 layer_factory.hpp:77] Creating layer scale4b5_branch2b
I0725 11:41:27.683930  7428 net.cpp:150] Setting up scale4b5_branch2b
I0725 11:41:27.683938  7428 net.cpp:157] Top shape: 2 256 48 48 (1179648)
I0725 11:41:27.683941  7428 net.cpp:165] Memory required for data: 5147983904
I0725 11:41:27.683948  7428 layer_factory.hpp:77] Creating layer res4b5_branch2b_relu
I0725 11:41:27.683953  7428 net.cpp:100] Creating Layer res4b5_branch2b_relu
I0725 11:41:27.683956  7428 net.cpp:434] res4b5_branch2b_relu <- res4b5_branch2b
I0725 11:41:27.683962  7428 net.cpp:395] res4b5_branch2b_relu -> res4b5_branch2b (in-place)
I0725 11:41:27.684202  7428 net.cpp:150] Setting up res4b5_branch2b_relu
I0725 11:41:27.684218  7428 net.cpp:157] Top shape: 2 256 48 48 (1179648)
I0725 11:41:27.684221  7428 net.cpp:165] Memory required for data: 5152702496
I0725 11:41:27.684226  7428 layer_factory.hpp:77] Creating layer res4b5_branch2c
I0725 11:41:27.684233  7428 net.cpp:100] Creating Layer res4b5_branch2c
I0725 11:41:27.684237  7428 net.cpp:434] res4b5_branch2c <- res4b5_branch2b
I0725 11:41:27.684245  7428 net.cpp:408] res4b5_branch2c -> res4b5_branch2c
I0725 11:41:27.688776  7428 net.cpp:150] Setting up res4b5_branch2c
I0725 11:41:27.688791  7428 net.cpp:157] Top shape: 2 1024 48 48 (4718592)
I0725 11:41:27.688805  7428 net.cpp:165] Memory required for data: 5171576864
I0725 11:41:27.688812  7428 layer_factory.hpp:77] Creating layer bn4b5_branch2c
I0725 11:41:27.688820  7428 net.cpp:100] Creating Layer bn4b5_branch2c
I0725 11:41:27.688824  7428 net.cpp:434] bn4b5_branch2c <- res4b5_branch2c
I0725 11:41:27.688829  7428 net.cpp:395] bn4b5_branch2c -> res4b5_branch2c (in-place)
I0725 11:41:27.689072  7428 net.cpp:150] Setting up bn4b5_branch2c
I0725 11:41:27.689081  7428 net.cpp:157] Top shape: 2 1024 48 48 (4718592)
I0725 11:41:27.689085  7428 net.cpp:165] Memory required for data: 5190451232
I0725 11:41:27.689091  7428 layer_factory.hpp:77] Creating layer scale4b5_branch2c
I0725 11:41:27.689097  7428 net.cpp:100] Creating Layer scale4b5_branch2c
I0725 11:41:27.689102  7428 net.cpp:434] scale4b5_branch2c <- res4b5_branch2c
I0725 11:41:27.689107  7428 net.cpp:395] scale4b5_branch2c -> res4b5_branch2c (in-place)
I0725 11:41:27.689157  7428 layer_factory.hpp:77] Creating layer scale4b5_branch2c
I0725 11:41:27.689297  7428 net.cpp:150] Setting up scale4b5_branch2c
I0725 11:41:27.689306  7428 net.cpp:157] Top shape: 2 1024 48 48 (4718592)
I0725 11:41:27.689321  7428 net.cpp:165] Memory required for data: 5209325600
I0725 11:41:27.689357  7428 layer_factory.hpp:77] Creating layer res4b5
I0725 11:41:27.689364  7428 net.cpp:100] Creating Layer res4b5
I0725 11:41:27.689368  7428 net.cpp:434] res4b5 <- res4b4_res4b4_relu_0_split_1
I0725 11:41:27.689373  7428 net.cpp:434] res4b5 <- res4b5_branch2c
I0725 11:41:27.689378  7428 net.cpp:408] res4b5 -> res4b5
I0725 11:41:27.689409  7428 net.cpp:150] Setting up res4b5
I0725 11:41:27.689417  7428 net.cpp:157] Top shape: 2 1024 48 48 (4718592)
I0725 11:41:27.689420  7428 net.cpp:165] Memory required for data: 5228199968
I0725 11:41:27.689424  7428 layer_factory.hpp:77] Creating layer res4b5_relu
I0725 11:41:27.689427  7428 net.cpp:100] Creating Layer res4b5_relu
I0725 11:41:27.689431  7428 net.cpp:434] res4b5_relu <- res4b5
I0725 11:41:27.689435  7428 net.cpp:395] res4b5_relu -> res4b5 (in-place)
I0725 11:41:27.689649  7428 net.cpp:150] Setting up res4b5_relu
I0725 11:41:27.689663  7428 net.cpp:157] Top shape: 2 1024 48 48 (4718592)
I0725 11:41:27.689666  7428 net.cpp:165] Memory required for data: 5247074336
I0725 11:41:27.689671  7428 layer_factory.hpp:77] Creating layer res4b5_res4b5_relu_0_split
I0725 11:41:27.689676  7428 net.cpp:100] Creating Layer res4b5_res4b5_relu_0_split
I0725 11:41:27.689679  7428 net.cpp:434] res4b5_res4b5_relu_0_split <- res4b5
I0725 11:41:27.689684  7428 net.cpp:408] res4b5_res4b5_relu_0_split -> res4b5_res4b5_relu_0_split_0
I0725 11:41:27.689692  7428 net.cpp:408] res4b5_res4b5_relu_0_split -> res4b5_res4b5_relu_0_split_1
I0725 11:41:27.689746  7428 net.cpp:150] Setting up res4b5_res4b5_relu_0_split
I0725 11:41:27.689754  7428 net.cpp:157] Top shape: 2 1024 48 48 (4718592)
I0725 11:41:27.689757  7428 net.cpp:157] Top shape: 2 1024 48 48 (4718592)
I0725 11:41:27.689760  7428 net.cpp:165] Memory required for data: 5284823072
I0725 11:41:27.689764  7428 layer_factory.hpp:77] Creating layer res4b6_branch2a
I0725 11:41:27.689775  7428 net.cpp:100] Creating Layer res4b6_branch2a
I0725 11:41:27.689779  7428 net.cpp:434] res4b6_branch2a <- res4b5_res4b5_relu_0_split_0
I0725 11:41:27.689785  7428 net.cpp:408] res4b6_branch2a -> res4b6_branch2a
I0725 11:41:27.693527  7428 net.cpp:150] Setting up res4b6_branch2a
I0725 11:41:27.693542  7428 net.cpp:157] Top shape: 2 256 48 48 (1179648)
I0725 11:41:27.693557  7428 net.cpp:165] Memory required for data: 5289541664
I0725 11:41:27.693563  7428 layer_factory.hpp:77] Creating layer bn4b6_branch2a
I0725 11:41:27.693574  7428 net.cpp:100] Creating Layer bn4b6_branch2a
I0725 11:41:27.693579  7428 net.cpp:434] bn4b6_branch2a <- res4b6_branch2a
I0725 11:41:27.693584  7428 net.cpp:395] bn4b6_branch2a -> res4b6_branch2a (in-place)
I0725 11:41:27.693827  7428 net.cpp:150] Setting up bn4b6_branch2a
I0725 11:41:27.693837  7428 net.cpp:157] Top shape: 2 256 48 48 (1179648)
I0725 11:41:27.693840  7428 net.cpp:165] Memory required for data: 5294260256
I0725 11:41:27.693847  7428 layer_factory.hpp:77] Creating layer scale4b6_branch2a
I0725 11:41:27.693853  7428 net.cpp:100] Creating Layer scale4b6_branch2a
I0725 11:41:27.693857  7428 net.cpp:434] scale4b6_branch2a <- res4b6_branch2a
I0725 11:41:27.693864  7428 net.cpp:395] scale4b6_branch2a -> res4b6_branch2a (in-place)
I0725 11:41:27.693914  7428 layer_factory.hpp:77] Creating layer scale4b6_branch2a
I0725 11:41:27.694047  7428 net.cpp:150] Setting up scale4b6_branch2a
I0725 11:41:27.694056  7428 net.cpp:157] Top shape: 2 256 48 48 (1179648)
I0725 11:41:27.694058  7428 net.cpp:165] Memory required for data: 5298978848
I0725 11:41:27.694064  7428 layer_factory.hpp:77] Creating layer res4b6_branch2a_relu
I0725 11:41:27.694069  7428 net.cpp:100] Creating Layer res4b6_branch2a_relu
I0725 11:41:27.694072  7428 net.cpp:434] res4b6_branch2a_relu <- res4b6_branch2a
I0725 11:41:27.694077  7428 net.cpp:395] res4b6_branch2a_relu -> res4b6_branch2a (in-place)
I0725 11:41:27.694280  7428 net.cpp:150] Setting up res4b6_branch2a_relu
I0725 11:41:27.694293  7428 net.cpp:157] Top shape: 2 256 48 48 (1179648)
I0725 11:41:27.694308  7428 net.cpp:165] Memory required for data: 5303697440
I0725 11:41:27.694311  7428 layer_factory.hpp:77] Creating layer res4b6_branch2b
I0725 11:41:27.694324  7428 net.cpp:100] Creating Layer res4b6_branch2b
I0725 11:41:27.694329  7428 net.cpp:434] res4b6_branch2b <- res4b6_branch2a
I0725 11:41:27.694334  7428 net.cpp:408] res4b6_branch2b -> res4b6_branch2b
I0725 11:41:27.702204  7428 net.cpp:150] Setting up res4b6_branch2b
I0725 11:41:27.702231  7428 net.cpp:157] Top shape: 2 256 48 48 (1179648)
I0725 11:41:27.702235  7428 net.cpp:165] Memory required for data: 5308416032
I0725 11:41:27.702241  7428 layer_factory.hpp:77] Creating layer bn4b6_branch2b
I0725 11:41:27.702250  7428 net.cpp:100] Creating Layer bn4b6_branch2b
I0725 11:41:27.702253  7428 net.cpp:434] bn4b6_branch2b <- res4b6_branch2b
I0725 11:41:27.702258  7428 net.cpp:395] bn4b6_branch2b -> res4b6_branch2b (in-place)
I0725 11:41:27.702504  7428 net.cpp:150] Setting up bn4b6_branch2b
I0725 11:41:27.702514  7428 net.cpp:157] Top shape: 2 256 48 48 (1179648)
I0725 11:41:27.702517  7428 net.cpp:165] Memory required for data: 5313134624
I0725 11:41:27.702523  7428 layer_factory.hpp:77] Creating layer scale4b6_branch2b
I0725 11:41:27.702530  7428 net.cpp:100] Creating Layer scale4b6_branch2b
I0725 11:41:27.702534  7428 net.cpp:434] scale4b6_branch2b <- res4b6_branch2b
I0725 11:41:27.702539  7428 net.cpp:395] scale4b6_branch2b -> res4b6_branch2b (in-place)
I0725 11:41:27.702594  7428 layer_factory.hpp:77] Creating layer scale4b6_branch2b
I0725 11:41:27.702733  7428 net.cpp:150] Setting up scale4b6_branch2b
I0725 11:41:27.702741  7428 net.cpp:157] Top shape: 2 256 48 48 (1179648)
I0725 11:41:27.702744  7428 net.cpp:165] Memory required for data: 5317853216
I0725 11:41:27.702750  7428 layer_factory.hpp:77] Creating layer res4b6_branch2b_relu
I0725 11:41:27.702756  7428 net.cpp:100] Creating Layer res4b6_branch2b_relu
I0725 11:41:27.702759  7428 net.cpp:434] res4b6_branch2b_relu <- res4b6_branch2b
I0725 11:41:27.702766  7428 net.cpp:395] res4b6_branch2b_relu -> res4b6_branch2b (in-place)
I0725 11:41:27.702972  7428 net.cpp:150] Setting up res4b6_branch2b_relu
I0725 11:41:27.702986  7428 net.cpp:157] Top shape: 2 256 48 48 (1179648)
I0725 11:41:27.702988  7428 net.cpp:165] Memory required for data: 5322571808
I0725 11:41:27.702992  7428 layer_factory.hpp:77] Creating layer res4b6_branch2c
I0725 11:41:27.703002  7428 net.cpp:100] Creating Layer res4b6_branch2c
I0725 11:41:27.703006  7428 net.cpp:434] res4b6_branch2c <- res4b6_branch2b
I0725 11:41:27.703011  7428 net.cpp:408] res4b6_branch2c -> res4b6_branch2c
I0725 11:41:27.707455  7428 net.cpp:150] Setting up res4b6_branch2c
I0725 11:41:27.707484  7428 net.cpp:157] Top shape: 2 1024 48 48 (4718592)
I0725 11:41:27.707489  7428 net.cpp:165] Memory required for data: 5341446176
I0725 11:41:27.707494  7428 layer_factory.hpp:77] Creating layer bn4b6_branch2c
I0725 11:41:27.707500  7428 net.cpp:100] Creating Layer bn4b6_branch2c
I0725 11:41:27.707504  7428 net.cpp:434] bn4b6_branch2c <- res4b6_branch2c
I0725 11:41:27.707511  7428 net.cpp:395] bn4b6_branch2c -> res4b6_branch2c (in-place)
I0725 11:41:27.707759  7428 net.cpp:150] Setting up bn4b6_branch2c
I0725 11:41:27.707768  7428 net.cpp:157] Top shape: 2 1024 48 48 (4718592)
I0725 11:41:27.707772  7428 net.cpp:165] Memory required for data: 5360320544
I0725 11:41:27.707777  7428 layer_factory.hpp:77] Creating layer scale4b6_branch2c
I0725 11:41:27.707784  7428 net.cpp:100] Creating Layer scale4b6_branch2c
I0725 11:41:27.707788  7428 net.cpp:434] scale4b6_branch2c <- res4b6_branch2c
I0725 11:41:27.707793  7428 net.cpp:395] scale4b6_branch2c -> res4b6_branch2c (in-place)
I0725 11:41:27.707841  7428 layer_factory.hpp:77] Creating layer scale4b6_branch2c
I0725 11:41:27.707984  7428 net.cpp:150] Setting up scale4b6_branch2c
I0725 11:41:27.707993  7428 net.cpp:157] Top shape: 2 1024 48 48 (4718592)
I0725 11:41:27.707996  7428 net.cpp:165] Memory required for data: 5379194912
I0725 11:41:27.708001  7428 layer_factory.hpp:77] Creating layer res4b6
I0725 11:41:27.708007  7428 net.cpp:100] Creating Layer res4b6
I0725 11:41:27.708029  7428 net.cpp:434] res4b6 <- res4b5_res4b5_relu_0_split_1
I0725 11:41:27.708035  7428 net.cpp:434] res4b6 <- res4b6_branch2c
I0725 11:41:27.708042  7428 net.cpp:408] res4b6 -> res4b6
I0725 11:41:27.708075  7428 net.cpp:150] Setting up res4b6
I0725 11:41:27.708082  7428 net.cpp:157] Top shape: 2 1024 48 48 (4718592)
I0725 11:41:27.708086  7428 net.cpp:165] Memory required for data: 5398069280
I0725 11:41:27.708088  7428 layer_factory.hpp:77] Creating layer res4b6_relu
I0725 11:41:27.708096  7428 net.cpp:100] Creating Layer res4b6_relu
I0725 11:41:27.708099  7428 net.cpp:434] res4b6_relu <- res4b6
I0725 11:41:27.708103  7428 net.cpp:395] res4b6_relu -> res4b6 (in-place)
I0725 11:41:27.708530  7428 net.cpp:150] Setting up res4b6_relu
I0725 11:41:27.708544  7428 net.cpp:157] Top shape: 2 1024 48 48 (4718592)
I0725 11:41:27.708559  7428 net.cpp:165] Memory required for data: 5416943648
I0725 11:41:27.708561  7428 layer_factory.hpp:77] Creating layer res4b6_res4b6_relu_0_split
I0725 11:41:27.708570  7428 net.cpp:100] Creating Layer res4b6_res4b6_relu_0_split
I0725 11:41:27.708575  7428 net.cpp:434] res4b6_res4b6_relu_0_split <- res4b6
I0725 11:41:27.708581  7428 net.cpp:408] res4b6_res4b6_relu_0_split -> res4b6_res4b6_relu_0_split_0
I0725 11:41:27.708588  7428 net.cpp:408] res4b6_res4b6_relu_0_split -> res4b6_res4b6_relu_0_split_1
I0725 11:41:27.708642  7428 net.cpp:150] Setting up res4b6_res4b6_relu_0_split
I0725 11:41:27.708652  7428 net.cpp:157] Top shape: 2 1024 48 48 (4718592)
I0725 11:41:27.708657  7428 net.cpp:157] Top shape: 2 1024 48 48 (4718592)
I0725 11:41:27.708659  7428 net.cpp:165] Memory required for data: 5454692384
I0725 11:41:27.708662  7428 layer_factory.hpp:77] Creating layer res4b7_branch2a
I0725 11:41:27.708673  7428 net.cpp:100] Creating Layer res4b7_branch2a
I0725 11:41:27.708676  7428 net.cpp:434] res4b7_branch2a <- res4b6_res4b6_relu_0_split_0
I0725 11:41:27.708683  7428 net.cpp:408] res4b7_branch2a -> res4b7_branch2a
I0725 11:41:27.712144  7428 net.cpp:150] Setting up res4b7_branch2a
I0725 11:41:27.712169  7428 net.cpp:157] Top shape: 2 256 48 48 (1179648)
…
I0725 11:41:29.109671  7428 net.cpp:395] res5c_relu -> res5c (in-place)
I0725 11:41:29.109952  7428 net.cpp:150] Setting up res5c_relu
I0725 11:41:29.109975  7428 net.cpp:157] Top shape: 2 2048 24 24 (2359296)
I0725 11:41:29.109989  7428 net.cpp:165] Memory required for data: 8436842528
I0725 11:41:29.109993  7428 layer_factory.hpp:77] Creating layer res5c_res5c_relu_0_split
I0725 11:41:29.110002  7428 net.cpp:100] Creating Layer res5c_res5c_relu_0_split
I0725 11:41:29.110005  7428 net.cpp:434] res5c_res5c_relu_0_split <- res5c
I0725 11:41:29.110013  7428 net.cpp:408] res5c_res5c_relu_0_split -> res5c_res5c_relu_0_split_0
I0725 11:41:29.110019  7428 net.cpp:408] res5c_res5c_relu_0_split -> res5c_res5c_relu_0_split_1
I0725 11:41:29.110088  7428 net.cpp:150] Setting up res5c_res5c_relu_0_split
I0725 11:41:29.110098  7428 net.cpp:157] Top shape: 2 2048 24 24 (2359296)
I0725 11:41:29.110102  7428 net.cpp:157] Top shape: 2 2048 24 24 (2359296)
I0725 11:41:29.110105  7428 net.cpp:165] Memory required for data: 8455716896
I0725 11:41:29.110108  7428 layer_factory.hpp:77] Creating layer pool5
I0725 11:41:29.110116  7428 net.cpp:100] Creating Layer pool5
I0725 11:41:29.110121  7428 net.cpp:434] pool5 <- res5c_res5c_relu_0_split_0
I0725 11:41:29.110126  7428 net.cpp:408] pool5 -> pool5
I0725 11:41:29.110448  7428 net.cpp:150] Setting up pool5
I0725 11:41:29.110460  7428 net.cpp:157] Top shape: 2 2048 1 1 (4096)
I0725 11:41:29.110476  7428 net.cpp:165] Memory required for data: 8455733280
I0725 11:41:29.110478  7428 layer_factory.hpp:77] Creating layer pool5_pool5_0_split
I0725 11:41:29.110486  7428 net.cpp:100] Creating Layer pool5_pool5_0_split
I0725 11:41:29.110491  7428 net.cpp:434] pool5_pool5_0_split <- pool5
I0725 11:41:29.110497  7428 net.cpp:408] pool5_pool5_0_split -> pool5_pool5_0_split_0
I0725 11:41:29.110504  7428 net.cpp:408] pool5_pool5_0_split -> pool5_pool5_0_split_1
I0725 11:41:29.110510  7428 net.cpp:408] pool5_pool5_0_split -> pool5_pool5_0_split_2
I0725 11:41:29.110515  7428 net.cpp:408] pool5_pool5_0_split -> pool5_pool5_0_split_3
I0725 11:41:29.110617  7428 net.cpp:150] Setting up pool5_pool5_0_split
I0725 11:41:29.110627  7428 net.cpp:157] Top shape: 2 2048 1 1 (4096)
I0725 11:41:29.110631  7428 net.cpp:157] Top shape: 2 2048 1 1 (4096)
I0725 11:41:29.110635  7428 net.cpp:157] Top shape: 2 2048 1 1 (4096)
I0725 11:41:29.110638  7428 net.cpp:157] Top shape: 2 2048 1 1 (4096)
I0725 11:41:29.110641  7428 net.cpp:165] Memory required for data: 8455798816
I0725 11:41:29.110644  7428 layer_factory.hpp:77] Creating layer conv6_1
I0725 11:41:29.110654  7428 net.cpp:100] Creating Layer conv6_1
I0725 11:41:29.110659  7428 net.cpp:434] conv6_1 <- pool5_pool5_0_split_0
I0725 11:41:29.110666  7428 net.cpp:408] conv6_1 -> conv6_1
I0725 11:41:29.115813  7428 net.cpp:150] Setting up conv6_1
I0725 11:41:29.115828  7428 net.cpp:157] Top shape: 2 256 1 1 (512)
I0725 11:41:29.115842  7428 net.cpp:165] Memory required for data: 8455800864
I0725 11:41:29.115849  7428 layer_factory.hpp:77] Creating layer conv6_1_relu
I0725 11:41:29.115855  7428 net.cpp:100] Creating Layer conv6_1_relu
I0725 11:41:29.115859  7428 net.cpp:434] conv6_1_relu <- conv6_1
I0725 11:41:29.115866  7428 net.cpp:395] conv6_1_relu -> conv6_1 (in-place)
I0725 11:41:29.116160  7428 net.cpp:150] Setting up conv6_1_relu
I0725 11:41:29.116173  7428 net.cpp:157] Top shape: 2 256 1 1 (512)
I0725 11:41:29.116175  7428 net.cpp:165] Memory required for data: 8455802912
I0725 11:41:29.116178  7428 layer_factory.hpp:77] Creating layer conv6_2
I0725 11:41:29.116191  7428 net.cpp:100] Creating Layer conv6_2
I0725 11:41:29.116206  7428 net.cpp:434] conv6_2 <- conv6_1
I0725 11:41:29.116214  7428 net.cpp:408] conv6_2 -> conv6_2
I0725 11:41:29.125661  7428 net.cpp:150] Setting up conv6_2
I0725 11:41:29.125677  7428 net.cpp:157] Top shape: 2 512 1 1 (1024)
I0725 11:41:29.125692  7428 net.cpp:165] Memory required for data: 8455807008
I0725 11:41:29.125699  7428 layer_factory.hpp:77] Creating layer conv6_2_relu
I0725 11:41:29.125705  7428 net.cpp:100] Creating Layer conv6_2_relu
I0725 11:41:29.125710  7428 net.cpp:434] conv6_2_relu <- conv6_2
I0725 11:41:29.125716  7428 net.cpp:395] conv6_2_relu -> conv6_2 (in-place)
I0725 11:41:29.126258  7428 net.cpp:150] Setting up conv6_2_relu
I0725 11:41:29.126283  7428 net.cpp:157] Top shape: 2 512 1 1 (1024)
I0725 11:41:29.126286  7428 net.cpp:165] Memory required for data: 8455811104
I0725 11:41:29.126291  7428 layer_factory.hpp:77] Creating layer conv6_2_conv6_2_relu_0_split
I0725 11:41:29.126307  7428 net.cpp:100] Creating Layer conv6_2_conv6_2_relu_0_split
I0725 11:41:29.126310  7428 net.cpp:434] conv6_2_conv6_2_relu_0_split <- conv6_2
I0725 11:41:29.126317  7428 net.cpp:408] conv6_2_conv6_2_relu_0_split -> conv6_2_conv6_2_relu_0_split_0
I0725 11:41:29.126325  7428 net.cpp:408] conv6_2_conv6_2_relu_0_split -> conv6_2_conv6_2_relu_0_split_1
I0725 11:41:29.126344  7428 net.cpp:408] conv6_2_conv6_2_relu_0_split -> conv6_2_conv6_2_relu_0_split_2
I0725 11:41:29.126350  7428 net.cpp:408] conv6_2_conv6_2_relu_0_split -> conv6_2_conv6_2_relu_0_split_3
I0725 11:41:29.126466  7428 net.cpp:150] Setting up conv6_2_conv6_2_relu_0_split
I0725 11:41:29.126476  7428 net.cpp:157] Top shape: 2 512 1 1 (1024)
I0725 11:41:29.126479  7428 net.cpp:157] Top shape: 2 512 1 1 (1024)
I0725 11:41:29.126483  7428 net.cpp:157] Top shape: 2 512 1 1 (1024)
I0725 11:41:29.126487  7428 net.cpp:157] Top shape: 2 512 1 1 (1024)
I0725 11:41:29.126489  7428 net.cpp:165] Memory required for data: 8455827488
I0725 11:41:29.126492  7428 layer_factory.hpp:77] Creating layer conv7_1
I0725 11:41:29.126503  7428 net.cpp:100] Creating Layer conv7_1
I0725 11:41:29.126507  7428 net.cpp:434] conv7_1 <- conv6_2_conv6_2_relu_0_split_0
I0725 11:41:29.126515  7428 net.cpp:408] conv7_1 -> conv7_1
I0725 11:41:29.128216  7428 net.cpp:150] Setting up conv7_1
I0725 11:41:29.128229  7428 net.cpp:157] Top shape: 2 128 1 1 (256)
I0725 11:41:29.128244  7428 net.cpp:165] Memory required for data: 8455828512
I0725 11:41:29.128254  7428 layer_factory.hpp:77] Creating layer conv7_1_relu
I0725 11:41:29.128262  7428 net.cpp:100] Creating Layer conv7_1_relu
I0725 11:41:29.128267  7428 net.cpp:434] conv7_1_relu <- conv7_1
I0725 11:41:29.128271  7428 net.cpp:395] conv7_1_relu -> conv7_1 (in-place)
I0725 11:41:29.128796  7428 net.cpp:150] Setting up conv7_1_relu
I0725 11:41:29.128820  7428 net.cpp:157] Top shape: 2 128 1 1 (256)
I0725 11:41:29.128823  7428 net.cpp:165] Memory required for data: 8455829536
I0725 11:41:29.128826  7428 layer_factory.hpp:77] Creating layer conv7_2
I0725 11:41:29.128850  7428 net.cpp:100] Creating Layer conv7_2
I0725 11:41:29.128854  7428 net.cpp:434] conv7_2 <- conv7_1
I0725 11:41:29.128861  7428 net.cpp:408] conv7_2 -> conv7_2
I0725 11:41:29.132831  7428 net.cpp:150] Setting up conv7_2
I0725 11:41:29.132846  7428 net.cpp:157] Top shape: 2 256 1 1 (512)
I0725 11:41:29.132861  7428 net.cpp:165] Memory required for data: 8455831584
I0725 11:41:29.132869  7428 layer_factory.hpp:77] Creating layer conv7_2_relu
I0725 11:41:29.132874  7428 net.cpp:100] Creating Layer conv7_2_relu
I0725 11:41:29.132879  7428 net.cpp:434] conv7_2_relu <- conv7_2
I0725 11:41:29.132885  7428 net.cpp:395] conv7_2_relu -> conv7_2 (in-place)
I0725 11:41:29.133178  7428 net.cpp:150] Setting up conv7_2_relu
I0725 11:41:29.133190  7428 net.cpp:157] Top shape: 2 256 1 1 (512)
I0725 11:41:29.133193  7428 net.cpp:165] Memory required for data: 8455833632
I0725 11:41:29.133196  7428 layer_factory.hpp:77] Creating layer conv7_2_conv7_2_relu_0_split
I0725 11:41:29.133204  7428 net.cpp:100] Creating Layer conv7_2_conv7_2_relu_0_split
I0725 11:41:29.133208  7428 net.cpp:434] conv7_2_conv7_2_relu_0_split <- conv7_2
I0725 11:41:29.133226  7428 net.cpp:408] conv7_2_conv7_2_relu_0_split -> conv7_2_conv7_2_relu_0_split_0
I0725 11:41:29.133235  7428 net.cpp:408] conv7_2_conv7_2_relu_0_split -> conv7_2_conv7_2_relu_0_split_1
I0725 11:41:29.133241  7428 net.cpp:408] conv7_2_conv7_2_relu_0_split -> conv7_2_conv7_2_relu_0_split_2
I0725 11:41:29.133246  7428 net.cpp:408] conv7_2_conv7_2_relu_0_split -> conv7_2_conv7_2_relu_0_split_3
I0725 11:41:29.133369  7428 net.cpp:150] Setting up conv7_2_conv7_2_relu_0_split
I0725 11:41:29.133378  7428 net.cpp:157] Top shape: 2 256 1 1 (512)
I0725 11:41:29.133381  7428 net.cpp:157] Top shape: 2 256 1 1 (512)
I0725 11:41:29.133385  7428 net.cpp:157] Top shape: 2 256 1 1 (512)
I0725 11:41:29.133388  7428 net.cpp:157] Top shape: 2 256 1 1 (512)
I0725 11:41:29.133391  7428 net.cpp:165] Memory required for data: 8455841824
I0725 11:41:29.133394  7428 layer_factory.hpp:77] Creating layer conv8_1
I0725 11:41:29.133406  7428 net.cpp:100] Creating Layer conv8_1
I0725 11:41:29.133410  7428 net.cpp:434] conv8_1 <- conv7_2_conv7_2_relu_0_split_0
I0725 11:41:29.133419  7428 net.cpp:408] conv8_1 -> conv8_1
I0725 11:41:29.136149  7428 net.cpp:150] Setting up conv8_1
I0725 11:41:29.136165  7428 net.cpp:157] Top shape: 2 128 1 1 (256)
I0725 11:41:29.136168  7428 net.cpp:165] Memory required for data: 8455842848
I0725 11:41:29.136175  7428 layer_factory.hpp:77] Creating layer conv8_1_relu
I0725 11:41:29.136181  7428 net.cpp:100] Creating Layer conv8_1_relu
I0725 11:41:29.136185  7428 net.cpp:434] conv8_1_relu <- conv8_1
I0725 11:41:29.136193  7428 net.cpp:395] conv8_1_relu -> conv8_1 (in-place)
I0725 11:41:29.136469  7428 net.cpp:150] Setting up conv8_1_relu
I0725 11:41:29.136482  7428 net.cpp:157] Top shape: 2 128 1 1 (256)
I0725 11:41:29.136484  7428 net.cpp:165] Memory required for data: 8455843872
I0725 11:41:29.136487  7428 layer_factory.hpp:77] Creating layer conv8_2
I0725 11:41:29.136499  7428 net.cpp:100] Creating Layer conv8_2
I0725 11:41:29.136505  7428 net.cpp:434] conv8_2 <- conv8_1
I0725 11:41:29.136513  7428 net.cpp:408] conv8_2 -> conv8_2
I0725 11:41:29.138084  7428 net.cpp:150] Setting up conv8_2
I0725 11:41:29.138098  7428 net.cpp:157] Top shape: 2 256 1 1 (512)
I0725 11:41:29.138113  7428 net.cpp:165] Memory required for data: 8455845920
I0725 11:41:29.138119  7428 layer_factory.hpp:77] Creating layer conv8_2_relu
I0725 11:41:29.138125  7428 net.cpp:100] Creating Layer conv8_2_relu
I0725 11:41:29.138129  7428 net.cpp:434] conv8_2_relu <- conv8_2
I0725 11:41:29.138139  7428 net.cpp:395] conv8_2_relu -> conv8_2 (in-place)
I0725 11:41:29.138430  7428 net.cpp:150] Setting up conv8_2_relu
I0725 11:41:29.138442  7428 net.cpp:157] Top shape: 2 256 1 1 (512)
I0725 11:41:29.138444  7428 net.cpp:165] Memory required for data: 8455847968
I0725 11:41:29.138447  7428 layer_factory.hpp:77] Creating layer conv8_2_conv8_2_relu_0_split
I0725 11:41:29.138454  7428 net.cpp:100] Creating Layer conv8_2_conv8_2_relu_0_split
I0725 11:41:29.138458  7428 net.cpp:434] conv8_2_conv8_2_relu_0_split <- conv8_2
I0725 11:41:29.138465  7428 net.cpp:408] conv8_2_conv8_2_relu_0_split -> conv8_2_conv8_2_relu_0_split_0
I0725 11:41:29.138473  7428 net.cpp:408] conv8_2_conv8_2_relu_0_split -> conv8_2_conv8_2_relu_0_split_1
I0725 11:41:29.138478  7428 net.cpp:408] conv8_2_conv8_2_relu_0_split -> conv8_2_conv8_2_relu_0_split_2
I0725 11:41:29.138486  7428 net.cpp:408] conv8_2_conv8_2_relu_0_split -> conv8_2_conv8_2_relu_0_split_3
I0725 11:41:29.138558  7428 net.cpp:150] Setting up conv8_2_conv8_2_relu_0_split
I0725 11:41:29.138566  7428 net.cpp:157] Top shape: 2 256 1 1 (512)
I0725 11:41:29.138569  7428 net.cpp:157] Top shape: 2 256 1 1 (512)
I0725 11:41:29.138572  7428 net.cpp:157] Top shape: 2 256 1 1 (512)
I0725 11:41:29.138576  7428 net.cpp:157] Top shape: 2 256 1 1 (512)
I0725 11:41:29.138578  7428 net.cpp:165] Memory required for data: 8455856160
I0725 11:41:29.138581  7428 layer_factory.hpp:77] Creating layer conv9_1
I0725 11:41:29.138592  7428 net.cpp:100] Creating Layer conv9_1
I0725 11:41:29.138612  7428 net.cpp:434] conv9_1 <- conv8_2_conv8_2_relu_0_split_0
I0725 11:41:29.138618  7428 net.cpp:408] conv9_1 -> conv9_1
I0725 11:41:29.140214  7428 net.cpp:150] Setting up conv9_1
I0725 11:41:29.140229  7428 net.cpp:157] Top shape: 2 128 1 1 (256)
I0725 11:41:29.140233  7428 net.cpp:165] Memory required for data: 8455857184
I0725 11:41:29.140239  7428 layer_factory.hpp:77] Creating layer conv9_1_relu
I0725 11:41:29.140247  7428 net.cpp:100] Creating Layer conv9_1_relu
I0725 11:41:29.140251  7428 net.cpp:434] conv9_1_relu <- conv9_1
I0725 11:41:29.140256  7428 net.cpp:395] conv9_1_relu -> conv9_1 (in-place)
I0725 11:41:29.140533  7428 net.cpp:150] Setting up conv9_1_relu
I0725 11:41:29.140545  7428 net.cpp:157] Top shape: 2 128 1 1 (256)
I0725 11:41:29.140548  7428 net.cpp:165] Memory required for data: 8455858208
I0725 11:41:29.140552  7428 layer_factory.hpp:77] Creating layer conv9_2
I0725 11:41:29.140563  7428 net.cpp:100] Creating Layer conv9_2
I0725 11:41:29.140566  7428 net.cpp:434] conv9_2 <- conv9_1
I0725 11:41:29.140573  7428 net.cpp:408] conv9_2 -> conv9_2
I0725 11:41:29.142179  7428 net.cpp:150] Setting up conv9_2
I0725 11:41:29.142194  7428 net.cpp:157] Top shape: 2 256 1 1 (512)
I0725 11:41:29.142208  7428 net.cpp:165] Memory required for data: 8455860256
I0725 11:41:29.142215  7428 layer_factory.hpp:77] Creating layer conv9_2_relu
I0725 11:41:29.142222  7428 net.cpp:100] Creating Layer conv9_2_relu
I0725 11:41:29.142227  7428 net.cpp:434] conv9_2_relu <- conv9_2
I0725 11:41:29.142232  7428 net.cpp:395] conv9_2_relu -> conv9_2 (in-place)
I0725 11:41:29.142769  7428 net.cpp:150] Setting up conv9_2_relu
I0725 11:41:29.142782  7428 net.cpp:157] Top shape: 2 256 1 1 (512)
I0725 11:41:29.142797  7428 net.cpp:165] Memory required for data: 8455862304
I0725 11:41:29.142801  7428 layer_factory.hpp:77] Creating layer conv9_2_conv9_2_relu_0_split
I0725 11:41:29.142820  7428 net.cpp:100] Creating Layer conv9_2_conv9_2_relu_0_split
I0725 11:41:29.142825  7428 net.cpp:434] conv9_2_conv9_2_relu_0_split <- conv9_2
I0725 11:41:29.142830  7428 net.cpp:408] conv9_2_conv9_2_relu_0_split -> conv9_2_conv9_2_relu_0_split_0
I0725 11:41:29.142838  7428 net.cpp:408] conv9_2_conv9_2_relu_0_split -> conv9_2_conv9_2_relu_0_split_1
I0725 11:41:29.142856  7428 net.cpp:408] conv9_2_conv9_2_relu_0_split -> conv9_2_conv9_2_relu_0_split_2
I0725 11:41:29.142925  7428 net.cpp:150] Setting up conv9_2_conv9_2_relu_0_split
I0725 11:41:29.142932  7428 net.cpp:157] Top shape: 2 256 1 1 (512)
I0725 11:41:29.142936  7428 net.cpp:157] Top shape: 2 256 1 1 (512)
I0725 11:41:29.142940  7428 net.cpp:157] Top shape: 2 256 1 1 (512)
I0725 11:41:29.142942  7428 net.cpp:165] Memory required for data: 8455868448
I0725 11:41:29.142946  7428 layer_factory.hpp:77] Creating layer res5c_norm
I0725 11:41:29.142954  7428 net.cpp:100] Creating Layer res5c_norm
I0725 11:41:29.142958  7428 net.cpp:434] res5c_norm <- res5c_res5c_relu_0_split_1
I0725 11:41:29.142963  7428 net.cpp:408] res5c_norm -> res5c_norm
I0725 11:41:29.144181  7428 net.cpp:150] Setting up res5c_norm
I0725 11:41:29.144207  7428 net.cpp:157] Top shape: 2 2048 24 24 (2359296)
I0725 11:41:29.144210  7428 net.cpp:165] Memory required for data: 8465305632
I0725 11:41:29.144215  7428 layer_factory.hpp:77] Creating layer res5c_norm_res5c_norm_0_split
I0725 11:41:29.144223  7428 net.cpp:100] Creating Layer res5c_norm_res5c_norm_0_split
I0725 11:41:29.144228  7428 net.cpp:434] res5c_norm_res5c_norm_0_split <- res5c_norm
I0725 11:41:29.144233  7428 net.cpp:408] res5c_norm_res5c_norm_0_split -> res5c_norm_res5c_norm_0_split_0
I0725 11:41:29.144242  7428 net.cpp:408] res5c_norm_res5c_norm_0_split -> res5c_norm_res5c_norm_0_split_1
I0725 11:41:29.144248  7428 net.cpp:408] res5c_norm_res5c_norm_0_split -> res5c_norm_res5c_norm_0_split_2
I0725 11:41:29.144297  7428 net.cpp:150] Setting up res5c_norm_res5c_norm_0_split
I0725 11:41:29.144305  7428 net.cpp:157] Top shape: 2 2048 24 24 (2359296)
I0725 11:41:29.144309  7428 net.cpp:157] Top shape: 2 2048 24 24 (2359296)
I0725 11:41:29.144312  7428 net.cpp:157] Top shape: 2 2048 24 24 (2359296)
I0725 11:41:29.144327  7428 net.cpp:165] Memory required for data: 8493617184
I0725 11:41:29.144331  7428 layer_factory.hpp:77] Creating layer res5c_norm_mbox_loc_bdc2018
I0725 11:41:29.144343  7428 net.cpp:100] Creating Layer res5c_norm_mbox_loc_bdc2018
I0725 11:41:29.144351  7428 net.cpp:434] res5c_norm_mbox_loc_bdc2018 <- res5c_norm_res5c_norm_0_split_0
I0725 11:41:29.144358  7428 net.cpp:408] res5c_norm_mbox_loc_bdc2018 -> res5c_norm_mbox_loc_bdc2018
I0725 11:41:29.148524  7428 net.cpp:150] Setting up res5c_norm_mbox_loc_bdc2018
I0725 11:41:29.148552  7428 net.cpp:157] Top shape: 2 16 24 24 (18432)
I0725 11:41:29.148556  7428 net.cpp:165] Memory required for data: 8493690912
I0725 11:41:29.148563  7428 layer_factory.hpp:77] Creating layer res5c_norm_mbox_loc_bdc2018_perm_bdc2018
I0725 11:41:29.148571  7428 net.cpp:100] Creating Layer res5c_norm_mbox_loc_bdc2018_perm_bdc2018
I0725 11:41:29.148576  7428 net.cpp:434] res5c_norm_mbox_loc_bdc2018_perm_bdc2018 <- res5c_norm_mbox_loc_bdc2018
I0725 11:41:29.148583  7428 net.cpp:408] res5c_norm_mbox_loc_bdc2018_perm_bdc2018 -> res5c_norm_mbox_loc_bdc2018_perm_bdc2018
I0725 11:41:29.148701  7428 net.cpp:150] Setting up res5c_norm_mbox_loc_bdc2018_perm_bdc2018
I0725 11:41:29.148710  7428 net.cpp:157] Top shape: 2 24 24 16 (18432)
I0725 11:41:29.148713  7428 net.cpp:165] Memory required for data: 8493764640
I0725 11:41:29.148716  7428 layer_factory.hpp:77] Creating layer res5c_norm_mbox_loc_bdc2018_flat_bdc2018
I0725 11:41:29.148725  7428 net.cpp:100] Creating Layer res5c_norm_mbox_loc_bdc2018_flat_bdc2018
I0725 11:41:29.148728  7428 net.cpp:434] res5c_norm_mbox_loc_bdc2018_flat_bdc2018 <- res5c_norm_mbox_loc_bdc2018_perm_bdc2018
I0725 11:41:29.148735  7428 net.cpp:408] res5c_norm_mbox_loc_bdc2018_flat_bdc2018 -> res5c_norm_mbox_loc_bdc2018_flat_bdc2018
I0725 11:41:29.148761  7428 net.cpp:150] Setting up res5c_norm_mbox_loc_bdc2018_flat_bdc2018
I0725 11:41:29.148768  7428 net.cpp:157] Top shape: 2 9216 (18432)
I0725 11:41:29.148772  7428 net.cpp:165] Memory required for data: 8493838368
I0725 11:41:29.148774  7428 layer_factory.hpp:77] Creating layer res5c_norm_mbox_conf_bdc2018_new
I0725 11:41:29.148784  7428 net.cpp:100] Creating Layer res5c_norm_mbox_conf_bdc2018_new
I0725 11:41:29.148788  7428 net.cpp:434] res5c_norm_mbox_conf_bdc2018_new <- res5c_norm_res5c_norm_0_split_1
I0725 11:41:29.148797  7428 net.cpp:408] res5c_norm_mbox_conf_bdc2018_new -> res5c_norm_mbox_conf_bdc2018_new
I0725 11:41:29.155048  7428 net.cpp:150] Setting up res5c_norm_mbox_conf_bdc2018_new
I0725 11:41:29.155076  7428 net.cpp:157] Top shape: 2 36 24 24 (41472)
I0725 11:41:29.155078  7428 net.cpp:165] Memory required for data: 8494004256
I0725 11:41:29.155086  7428 layer_factory.hpp:77] Creating layer res5c_norm_mbox_conf_bdc2018_new_perm_bdc2018_new
I0725 11:41:29.155094  7428 net.cpp:100] Creating Layer res5c_norm_mbox_conf_bdc2018_new_perm_bdc2018_new
I0725 11:41:29.155099  7428 net.cpp:434] res5c_norm_mbox_conf_bdc2018_new_perm_bdc2018_new <- res5c_norm_mbox_conf_bdc2018_new
I0725 11:41:29.155105  7428 net.cpp:408] res5c_norm_mbox_conf_bdc2018_new_perm_bdc2018_new -> res5c_norm_mbox_conf_bdc2018_new_perm_bdc2018_new
I0725 11:41:29.155221  7428 net.cpp:150] Setting up res5c_norm_mbox_conf_bdc2018_new_perm_bdc2018_new
I0725 11:41:29.155230  7428 net.cpp:157] Top shape: 2 24 24 36 (41472)
I0725 11:41:29.155233  7428 net.cpp:165] Memory required for data: 8494170144
I0725 11:41:29.155236  7428 layer_factory.hpp:77] Creating layer res5c_norm_mbox_conf_bdc2018_new_flat_bdc2018_new
I0725 11:41:29.155244  7428 net.cpp:100] Creating Layer res5c_norm_mbox_conf_bdc2018_new_flat_bdc2018_new
I0725 11:41:29.155248  7428 net.cpp:434] res5c_norm_mbox_conf_bdc2018_new_flat_bdc2018_new <- res5c_norm_mbox_conf_bdc2018_new_perm_bdc2018_new
I0725 11:41:29.155253  7428 net.cpp:408] res5c_norm_mbox_conf_bdc2018_new_flat_bdc2018_new -> res5c_norm_mbox_conf_bdc2018_new_flat_bdc2018_new
I0725 11:41:29.155280  7428 net.cpp:150] Setting up res5c_norm_mbox_conf_bdc2018_new_flat_bdc2018_new
I0725 11:41:29.155298  7428 net.cpp:157] Top shape: 2 20736 (41472)
I0725 11:41:29.155303  7428 net.cpp:165] Memory required for data: 8494336032
I0725 11:41:29.155305  7428 layer_factory.hpp:77] Creating layer res5c_norm_mbox_priorbox
I0725 11:41:29.155403  7428 net.cpp:100] Creating Layer res5c_norm_mbox_priorbox
I0725 11:41:29.155411  7428 net.cpp:434] res5c_norm_mbox_priorbox <- res5c_norm_res5c_norm_0_split_2
I0725 11:41:29.155416  7428 net.cpp:434] res5c_norm_mbox_priorbox <- data_data_0_split_1
I0725 11:41:29.155421  7428 net.cpp:408] res5c_norm_mbox_priorbox -> res5c_norm_mbox_priorbox
I0725 11:41:29.155454  7428 net.cpp:150] Setting up res5c_norm_mbox_priorbox
I0725 11:41:29.155462  7428 net.cpp:157] Top shape: 1 2 9216 (18432)
I0725 11:41:29.155465  7428 net.cpp:165] Memory required for data: 8494409760
I0725 11:41:29.155469  7428 layer_factory.hpp:77] Creating layer pool5_mbox_loc_bdc2018
I0725 11:41:29.155478  7428 net.cpp:100] Creating Layer pool5_mbox_loc_bdc2018
I0725 11:41:29.155483  7428 net.cpp:434] pool5_mbox_loc_bdc2018 <- pool5_pool5_0_split_1
I0725 11:41:29.155488  7428 net.cpp:408] pool5_mbox_loc_bdc2018 -> pool5_mbox_loc_bdc2018
I0725 11:41:29.160724  7428 net.cpp:150] Setting up pool5_mbox_loc_bdc2018
I0725 11:41:29.160740  7428 net.cpp:157] Top shape: 2 24 1 1 (48)
I0725 11:41:29.160743  7428 net.cpp:165] Memory required for data: 8494409952
I0725 11:41:29.160750  7428 layer_factory.hpp:77] Creating layer pool5_mbox_loc_bdc2018_perm_bdc2018
I0725 11:41:29.160758  7428 net.cpp:100] Creating Layer pool5_mbox_loc_bdc2018_perm_bdc2018
I0725 11:41:29.160763  7428 net.cpp:434] pool5_mbox_loc_bdc2018_perm_bdc2018 <- pool5_mbox_loc_bdc2018
I0725 11:41:29.160768  7428 net.cpp:408] pool5_mbox_loc_bdc2018_perm_bdc2018 -> pool5_mbox_loc_bdc2018_perm_bdc2018
I0725 11:41:29.160876  7428 net.cpp:150] Setting up pool5_mbox_loc_bdc2018_perm_bdc2018
I0725 11:41:29.160883  7428 net.cpp:157] Top shape: 2 1 1 24 (48)
I0725 11:41:29.160887  7428 net.cpp:165] Memory required for data: 8494410144
I0725 11:41:29.160889  7428 layer_factory.hpp:77] Creating layer pool5_mbox_loc_bdc2018_flat_bdc2018
I0725 11:41:29.160895  7428 net.cpp:100] Creating Layer pool5_mbox_loc_bdc2018_flat_bdc2018
I0725 11:41:29.160898  7428 net.cpp:434] pool5_mbox_loc_bdc2018_flat_bdc2018 <- pool5_mbox_loc_bdc2018_perm_bdc2018
I0725 11:41:29.160903  7428 net.cpp:408] pool5_mbox_loc_bdc2018_flat_bdc2018 -> pool5_mbox_loc_bdc2018_flat_bdc2018
I0725 11:41:29.160969  7428 net.cpp:150] Setting up pool5_mbox_loc_bdc2018_flat_bdc2018
I0725 11:41:29.160977  7428 net.cpp:157] Top shape: 2 24 (48)
I0725 11:41:29.160980  7428 net.cpp:165] Memory required for data: 8494410336
I0725 11:41:29.160984  7428 layer_factory.hpp:77] Creating layer pool5_mbox_conf_bdc2018_new
I0725 11:41:29.160991  7428 net.cpp:100] Creating Layer pool5_mbox_conf_bdc2018_new
I0725 11:41:29.160995  7428 net.cpp:434] pool5_mbox_conf_bdc2018_new <- pool5_pool5_0_split_2
I0725 11:41:29.161001  7428 net.cpp:408] pool5_mbox_conf_bdc2018_new -> pool5_mbox_conf_bdc2018_new
I0725 11:41:29.169325  7428 net.cpp:150] Setting up pool5_mbox_conf_bdc2018_new
I0725 11:41:29.169351  7428 net.cpp:157] Top shape: 2 54 1 1 (108)
I0725 11:41:29.169355  7428 net.cpp:165] Memory required for data: 8494410768
I0725 11:41:29.169364  7428 layer_factory.hpp:77] Creating layer pool5_mbox_conf_bdc2018_new_perm_bdc2018_new
I0725 11:41:29.169373  7428 net.cpp:100] Creating Layer pool5_mbox_conf_bdc2018_new_perm_bdc2018_new
I0725 11:41:29.169378  7428 net.cpp:434] pool5_mbox_conf_bdc2018_new_perm_bdc2018_new <- pool5_mbox_conf_bdc2018_new
I0725 11:41:29.169384  7428 net.cpp:408] pool5_mbox_conf_bdc2018_new_perm_bdc2018_new -> pool5_mbox_conf_bdc2018_new_perm_bdc2018_new
I0725 11:41:29.169498  7428 net.cpp:150] Setting up pool5_mbox_conf_bdc2018_new_perm_bdc2018_new
I0725 11:41:29.169507  7428 net.cpp:157] Top shape: 2 1 1 54 (108)
I0725 11:41:29.169509  7428 net.cpp:165] Memory required for data: 8494411200
I0725 11:41:29.169512  7428 layer_factory.hpp:77] Creating layer pool5_mbox_conf_bdc2018_new_flat_bdc2018_new
I0725 11:41:29.169531  7428 net.cpp:100] Creating Layer pool5_mbox_conf_bdc2018_new_flat_bdc2018_new
I0725 11:41:29.169536  7428 net.cpp:434] pool5_mbox_conf_bdc2018_new_flat_bdc2018_new <- pool5_mbox_conf_bdc2018_new_perm_bdc2018_new
I0725 11:41:29.169541  7428 net.cpp:408] pool5_mbox_conf_bdc2018_new_flat_bdc2018_new -> pool5_mbox_conf_bdc2018_new_flat_bdc2018_new
I0725 11:41:29.169570  7428 net.cpp:150] Setting up pool5_mbox_conf_bdc2018_new_flat_bdc2018_new
I0725 11:41:29.169577  7428 net.cpp:157] Top shape: 2 54 (108)
I0725 11:41:29.169580  7428 net.cpp:165] Memory required for data: 8494411632
I0725 11:41:29.169584  7428 layer_factory.hpp:77] Creating layer pool5_mbox_priorbox
I0725 11:41:29.169591  7428 net.cpp:100] Creating Layer pool5_mbox_priorbox
I0725 11:41:29.169595  7428 net.cpp:434] pool5_mbox_priorbox <- pool5_pool5_0_split_3
I0725 11:41:29.169600  7428 net.cpp:434] pool5_mbox_priorbox <- data_data_0_split_2
I0725 11:41:29.169605  7428 net.cpp:408] pool5_mbox_priorbox -> pool5_mbox_priorbox
I0725 11:41:29.169636  7428 net.cpp:150] Setting up pool5_mbox_priorbox
I0725 11:41:29.169642  7428 net.cpp:157] Top shape: 1 2 24 (48)
I0725 11:41:29.169644  7428 net.cpp:165] Memory required for data: 8494411824
I0725 11:41:29.169647  7428 layer_factory.hpp:77] Creating layer conv6_2_mbox_loc_bdc2018
I0725 11:41:29.169661  7428 net.cpp:100] Creating Layer conv6_2_mbox_loc_bdc2018
I0725 11:41:29.169664  7428 net.cpp:434] conv6_2_mbox_loc_bdc2018 <- conv6_2_conv6_2_relu_0_split_1
I0725 11:41:29.169670  7428 net.cpp:408] conv6_2_mbox_loc_bdc2018 -> conv6_2_mbox_loc_bdc2018
I0725 11:41:29.171891  7428 net.cpp:150] Setting up conv6_2_mbox_loc_bdc2018
I0725 11:41:29.171906  7428 net.cpp:157] Top shape: 2 24 1 1 (48)
I0725 11:41:29.171921  7428 net.cpp:165] Memory required for data: 8494412016
I0725 11:41:29.171927  7428 layer_factory.hpp:77] Creating layer conv6_2_mbox_loc_bdc2018_perm_bdc2018
I0725 11:41:29.171934  7428 net.cpp:100] Creating Layer conv6_2_mbox_loc_bdc2018_perm_bdc2018
I0725 11:41:29.171938  7428 net.cpp:434] conv6_2_mbox_loc_bdc2018_perm_bdc2018 <- conv6_2_mbox_loc_bdc2018
I0725 11:41:29.171947  7428 net.cpp:408] conv6_2_mbox_loc_bdc2018_perm_bdc2018 -> conv6_2_mbox_loc_bdc2018_perm_bdc2018
I0725 11:41:29.172076  7428 net.cpp:150] Setting up conv6_2_mbox_loc_bdc2018_perm_bdc2018
I0725 11:41:29.172086  7428 net.cpp:157] Top shape: 2 1 1 24 (48)
I0725 11:41:29.172089  7428 net.cpp:165] Memory required for data: 8494412208
I0725 11:41:29.172092  7428 layer_factory.hpp:77] Creating layer conv6_2_mbox_loc_bdc2018_flat_bdc2018
I0725 11:41:29.172098  7428 net.cpp:100] Creating Layer conv6_2_mbox_loc_bdc2018_flat_bdc2018
I0725 11:41:29.172101  7428 net.cpp:434] conv6_2_mbox_loc_bdc2018_flat_bdc2018 <- conv6_2_mbox_loc_bdc2018_perm_bdc2018
I0725 11:41:29.172108  7428 net.cpp:408] conv6_2_mbox_loc_bdc2018_flat_bdc2018 -> conv6_2_mbox_loc_bdc2018_flat_bdc2018
I0725 11:41:29.172137  7428 net.cpp:150] Setting up conv6_2_mbox_loc_bdc2018_flat_bdc2018
I0725 11:41:29.172143  7428 net.cpp:157] Top shape: 2 24 (48)
I0725 11:41:29.172147  7428 net.cpp:165] Memory required for data: 8494412400
I0725 11:41:29.172149  7428 layer_factory.hpp:77] Creating layer conv6_2_mbox_conf_bdc2018_new
I0725 11:41:29.172161  7428 net.cpp:100] Creating Layer conv6_2_mbox_conf_bdc2018_new
I0725 11:41:29.172168  7428 net.cpp:434] conv6_2_mbox_conf_bdc2018_new <- conv6_2_conv6_2_relu_0_split_2
I0725 11:41:29.172176  7428 net.cpp:408] conv6_2_mbox_conf_bdc2018_new -> conv6_2_mbox_conf_bdc2018_new
I0725 11:41:29.175192  7428 net.cpp:150] Setting up conv6_2_mbox_conf_bdc2018_new
I0725 11:41:29.175207  7428 net.cpp:157] Top shape: 2 54 1 1 (108)
I0725 11:41:29.175210  7428 net.cpp:165] Memory required for data: 8494412832
I0725 11:41:29.175217  7428 layer_factory.hpp:77] Creating layer conv6_2_mbox_conf_bdc2018_new_perm_bdc2018_new
I0725 11:41:29.175226  7428 net.cpp:100] Creating Layer conv6_2_mbox_conf_bdc2018_new_perm_bdc2018_new
I0725 11:41:29.175231  7428 net.cpp:434] conv6_2_mbox_conf_bdc2018_new_perm_bdc2018_new <- conv6_2_mbox_conf_bdc2018_new
I0725 11:41:29.175251  7428 net.cpp:408] conv6_2_mbox_conf_bdc2018_new_perm_bdc2018_new -> conv6_2_mbox_conf_bdc2018_new_perm_bdc2018_new
I0725 11:41:29.175369  7428 net.cpp:150] Setting up conv6_2_mbox_conf_bdc2018_new_perm_bdc2018_new
I0725 11:41:29.175379  7428 net.cpp:157] Top shape: 2 1 1 54 (108)
I0725 11:41:29.175381  7428 net.cpp:165] Memory required for data: 8494413264
I0725 11:41:29.175384  7428 layer_factory.hpp:77] Creating layer conv6_2_mbox_conf_bdc2018_new_flat_bdc2018_new
I0725 11:41:29.175391  7428 net.cpp:100] Creating Layer conv6_2_mbox_conf_bdc2018_new_flat_bdc2018_new
I0725 11:41:29.175395  7428 net.cpp:434] conv6_2_mbox_conf_bdc2018_new_flat_bdc2018_new <- conv6_2_mbox_conf_bdc2018_new_perm_bdc2018_new
I0725 11:41:29.175400  7428 net.cpp:408] conv6_2_mbox_conf_bdc2018_new_flat_bdc2018_new -> conv6_2_mbox_conf_bdc2018_new_flat_bdc2018_new
I0725 11:41:29.175428  7428 net.cpp:150] Setting up conv6_2_mbox_conf_bdc2018_new_flat_bdc2018_new
I0725 11:41:29.175434  7428 net.cpp:157] Top shape: 2 54 (108)
I0725 11:41:29.175437  7428 net.cpp:165] Memory required for data: 8494413696
I0725 11:41:29.175441  7428 layer_factory.hpp:77] Creating layer conv6_2_mbox_priorbox
I0725 11:41:29.175448  7428 net.cpp:100] Creating Layer conv6_2_mbox_priorbox
I0725 11:41:29.175452  7428 net.cpp:434] conv6_2_mbox_priorbox <- conv6_2_conv6_2_relu_0_split_3
I0725 11:41:29.175458  7428 net.cpp:434] conv6_2_mbox_priorbox <- data_data_0_split_3
I0725 11:41:29.175463  7428 net.cpp:408] conv6_2_mbox_priorbox -> conv6_2_mbox_priorbox
I0725 11:41:29.175493  7428 net.cpp:150] Setting up conv6_2_mbox_priorbox
I0725 11:41:29.175500  7428 net.cpp:157] Top shape: 1 2 24 (48)
I0725 11:41:29.175503  7428 net.cpp:165] Memory required for data: 8494413888
I0725 11:41:29.175508  7428 layer_factory.hpp:77] Creating layer conv7_2_mbox_loc_bdc2018
I0725 11:41:29.175518  7428 net.cpp:100] Creating Layer conv7_2_mbox_loc_bdc2018
I0725 11:41:29.175524  7428 net.cpp:434] conv7_2_mbox_loc_bdc2018 <- conv7_2_conv7_2_relu_0_split_1
I0725 11:41:29.175532  7428 net.cpp:408] conv7_2_mbox_loc_bdc2018 -> conv7_2_mbox_loc_bdc2018
I0725 11:41:29.177506  7428 net.cpp:150] Setting up conv7_2_mbox_loc_bdc2018
I0725 11:41:29.177522  7428 net.cpp:157] Top shape: 2 24 1 1 (48)
I0725 11:41:29.177525  7428 net.cpp:165] Memory required for data: 8494414080
I0725 11:41:29.177532  7428 layer_factory.hpp:77] Creating layer conv7_2_mbox_loc_bdc2018_perm_bdc2018
I0725 11:41:29.177541  7428 net.cpp:100] Creating Layer conv7_2_mbox_loc_bdc2018_perm_bdc2018
I0725 11:41:29.177546  7428 net.cpp:434] conv7_2_mbox_loc_bdc2018_perm_bdc2018 <- conv7_2_mbox_loc_bdc2018
I0725 11:41:29.177553  7428 net.cpp:408] conv7_2_mbox_loc_bdc2018_perm_bdc2018 -> conv7_2_mbox_loc_bdc2018_perm_bdc2018
I0725 11:41:29.177670  7428 net.cpp:150] Setting up conv7_2_mbox_loc_bdc2018_perm_bdc2018
I0725 11:41:29.177677  7428 net.cpp:157] Top shape: 2 1 1 24 (48)
I0725 11:41:29.177680  7428 net.cpp:165] Memory required for data: 8494414272
I0725 11:41:29.177683  7428 layer_factory.hpp:77] Creating layer conv7_2_mbox_loc_bdc2018_flat_bdc2018
I0725 11:41:29.177690  7428 net.cpp:100] Creating Layer conv7_2_mbox_loc_bdc2018_flat_bdc2018
I0725 11:41:29.177693  7428 net.cpp:434] conv7_2_mbox_loc_bdc2018_flat_bdc2018 <- conv7_2_mbox_loc_bdc2018_perm_bdc2018
I0725 11:41:29.177701  7428 net.cpp:408] conv7_2_mbox_loc_bdc2018_flat_bdc2018 -> conv7_2_mbox_loc_bdc2018_flat_bdc2018
I0725 11:41:29.177728  7428 net.cpp:150] Setting up conv7_2_mbox_loc_bdc2018_flat_bdc2018
I0725 11:41:29.177736  7428 net.cpp:157] Top shape: 2 24 (48)
I0725 11:41:29.177737  7428 net.cpp:165] Memory required for data: 8494414464
I0725 11:41:29.177742  7428 layer_factory.hpp:77] Creating layer conv7_2_mbox_conf_bdc2018_new
I0725 11:41:29.177752  7428 net.cpp:100] Creating Layer conv7_2_mbox_conf_bdc2018_new
I0725 11:41:29.177757  7428 net.cpp:434] conv7_2_mbox_conf_bdc2018_new <- conv7_2_conv7_2_relu_0_split_2
I0725 11:41:29.177764  7428 net.cpp:408] conv7_2_mbox_conf_bdc2018_new -> conv7_2_mbox_conf_bdc2018_new
I0725 11:41:29.180090  7428 net.cpp:150] Setting up conv7_2_mbox_conf_bdc2018_new
I0725 11:41:29.180105  7428 net.cpp:157] Top shape: 2 54 1 1 (108)
I0725 11:41:29.180109  7428 net.cpp:165] Memory required for data: 8494414896
I0725 11:41:29.180115  7428 layer_factory.hpp:77] Creating layer conv7_2_mbox_conf_bdc2018_new_perm_bdc2018_new
I0725 11:41:29.180124  7428 net.cpp:100] Creating Layer conv7_2_mbox_conf_bdc2018_new_perm_bdc2018_new
I0725 11:41:29.180130  7428 net.cpp:434] conv7_2_mbox_conf_bdc2018_new_perm_bdc2018_new <- conv7_2_mbox_conf_bdc2018_new
I0725 11:41:29.180135  7428 net.cpp:408] conv7_2_mbox_conf_bdc2018_new_perm_bdc2018_new -> conv7_2_mbox_conf_bdc2018_new_perm_bdc2018_new
I0725 11:41:29.180250  7428 net.cpp:150] Setting up conv7_2_mbox_conf_bdc2018_new_perm_bdc2018_new
I0725 11:41:29.180259  7428 net.cpp:157] Top shape: 2 1 1 54 (108)
I0725 11:41:29.180263  7428 net.cpp:165] Memory required for data: 8494415328
I0725 11:41:29.180265  7428 layer_factory.hpp:77] Creating layer conv7_2_mbox_conf_bdc2018_new_flat_bdc2018_new
I0725 11:41:29.180274  7428 net.cpp:100] Creating Layer conv7_2_mbox_conf_bdc2018_new_flat_bdc2018_new
I0725 11:41:29.180277  7428 net.cpp:434] conv7_2_mbox_conf_bdc2018_new_flat_bdc2018_new <- conv7_2_mbox_conf_bdc2018_new_perm_bdc2018_new
I0725 11:41:29.180282  7428 net.cpp:408] conv7_2_mbox_conf_bdc2018_new_flat_bdc2018_new -> conv7_2_mbox_conf_bdc2018_new_flat_bdc2018_new
I0725 11:41:29.180308  7428 net.cpp:150] Setting up conv7_2_mbox_conf_bdc2018_new_flat_bdc2018_new
I0725 11:41:29.180315  7428 net.cpp:157] Top shape: 2 54 (108)
I0725 11:41:29.180317  7428 net.cpp:165] Memory required for data: 8494415760
I0725 11:41:29.180322  7428 layer_factory.hpp:77] Creating layer conv7_2_mbox_priorbox
I0725 11:41:29.180330  7428 net.cpp:100] Creating Layer conv7_2_mbox_priorbox
I0725 11:41:29.180335  7428 net.cpp:434] conv7_2_mbox_priorbox <- conv7_2_conv7_2_relu_0_split_3
I0725 11:41:29.180339  7428 net.cpp:434] conv7_2_mbox_priorbox <- data_data_0_split_4
I0725 11:41:29.180346  7428 net.cpp:408] conv7_2_mbox_priorbox -> conv7_2_mbox_priorbox
I0725 11:41:29.180372  7428 net.cpp:150] Setting up conv7_2_mbox_priorbox
I0725 11:41:29.180379  7428 net.cpp:157] Top shape: 1 2 24 (48)
I0725 11:41:29.180382  7428 net.cpp:165] Memory required for data: 8494415952
I0725 11:41:29.180384  7428 layer_factory.hpp:77] Creating layer conv8_2_mbox_loc_bdc2018
I0725 11:41:29.180397  7428 net.cpp:100] Creating Layer conv8_2_mbox_loc_bdc2018
I0725 11:41:29.180403  7428 net.cpp:434] conv8_2_mbox_loc_bdc2018 <- conv8_2_conv8_2_relu_0_split_1
I0725 11:41:29.180409  7428 net.cpp:408] conv8_2_mbox_loc_bdc2018 -> conv8_2_mbox_loc_bdc2018
I0725 11:41:29.182260  7428 net.cpp:150] Setting up conv8_2_mbox_loc_bdc2018
I0725 11:41:29.182274  7428 net.cpp:157] Top shape: 2 16 1 1 (32)
I0725 11:41:29.182289  7428 net.cpp:165] Memory required for data: 8494416080
I0725 11:41:29.182297  7428 layer_factory.hpp:77] Creating layer conv8_2_mbox_loc_bdc2018_perm_bdc2018
I0725 11:41:29.182304  7428 net.cpp:100] Creating Layer conv8_2_mbox_loc_bdc2018_perm_bdc2018
I0725 11:41:29.182308  7428 net.cpp:434] conv8_2_mbox_loc_bdc2018_perm_bdc2018 <- conv8_2_mbox_loc_bdc2018
I0725 11:41:29.182315  7428 net.cpp:408] conv8_2_mbox_loc_bdc2018_perm_bdc2018 -> conv8_2_mbox_loc_bdc2018_perm_bdc2018
I0725 11:41:29.182433  7428 net.cpp:150] Setting up conv8_2_mbox_loc_bdc2018_perm_bdc2018
I0725 11:41:29.182441  7428 net.cpp:157] Top shape: 2 1 1 16 (32)
I0725 11:41:29.182445  7428 net.cpp:165] Memory required for data: 8494416208
I0725 11:41:29.182447  7428 layer_factory.hpp:77] Creating layer conv8_2_mbox_loc_bdc2018_flat_bdc2018
I0725 11:41:29.182453  7428 net.cpp:100] Creating Layer conv8_2_mbox_loc_bdc2018_flat_bdc2018
I0725 11:41:29.182458  7428 net.cpp:434] conv8_2_mbox_loc_bdc2018_flat_bdc2018 <- conv8_2_mbox_loc_bdc2018_perm_bdc2018
I0725 11:41:29.182463  7428 net.cpp:408] conv8_2_mbox_loc_bdc2018_flat_bdc2018 -> conv8_2_mbox_loc_bdc2018_flat_bdc2018
I0725 11:41:29.182490  7428 net.cpp:150] Setting up conv8_2_mbox_loc_bdc2018_flat_bdc2018
I0725 11:41:29.182508  7428 net.cpp:157] Top shape: 2 16 (32)
I0725 11:41:29.182512  7428 net.cpp:165] Memory required for data: 8494416336
I0725 11:41:29.182514  7428 layer_factory.hpp:77] Creating layer conv8_2_mbox_conf_bdc2018_new
I0725 11:41:29.182525  7428 net.cpp:100] Creating Layer conv8_2_mbox_conf_bdc2018_new
I0725 11:41:29.182530  7428 net.cpp:434] conv8_2_mbox_conf_bdc2018_new <- conv8_2_conv8_2_relu_0_split_2
I0725 11:41:29.182538  7428 net.cpp:408] conv8_2_mbox_conf_bdc2018_new -> conv8_2_mbox_conf_bdc2018_new
I0725 11:41:29.184612  7428 net.cpp:150] Setting up conv8_2_mbox_conf_bdc2018_new
I0725 11:41:29.184626  7428 net.cpp:157] Top shape: 2 36 1 1 (72)
I0725 11:41:29.184641  7428 net.cpp:165] Memory required for data: 8494416624
I0725 11:41:29.184649  7428 layer_factory.hpp:77] Creating layer conv8_2_mbox_conf_bdc2018_new_perm_bdc2018_new
I0725 11:41:29.184659  7428 net.cpp:100] Creating Layer conv8_2_mbox_conf_bdc2018_new_perm_bdc2018_new
I0725 11:41:29.184664  7428 net.cpp:434] conv8_2_mbox_conf_bdc2018_new_perm_bdc2018_new <- conv8_2_mbox_conf_bdc2018_new
I0725 11:41:29.184670  7428 net.cpp:408] conv8_2_mbox_conf_bdc2018_new_perm_bdc2018_new -> conv8_2_mbox_conf_bdc2018_new_perm_bdc2018_new
I0725 11:41:29.184784  7428 net.cpp:150] Setting up conv8_2_mbox_conf_bdc2018_new_perm_bdc2018_new
I0725 11:41:29.184794  7428 net.cpp:157] Top shape: 2 1 1 36 (72)
I0725 11:41:29.184798  7428 net.cpp:165] Memory required for data: 8494416912
I0725 11:41:29.184800  7428 layer_factory.hpp:77] Creating layer conv8_2_mbox_conf_bdc2018_new_flat_bdc2018_new
I0725 11:41:29.184806  7428 net.cpp:100] Creating Layer conv8_2_mbox_conf_bdc2018_new_flat_bdc2018_new
I0725 11:41:29.184810  7428 net.cpp:434] conv8_2_mbox_conf_bdc2018_new_flat_bdc2018_new <- conv8_2_mbox_conf_bdc2018_new_perm_bdc2018_new
I0725 11:41:29.184818  7428 net.cpp:408] conv8_2_mbox_conf_bdc2018_new_flat_bdc2018_new -> conv8_2_mbox_conf_bdc2018_new_flat_bdc2018_new
I0725 11:41:29.184844  7428 net.cpp:150] Setting up conv8_2_mbox_conf_bdc2018_new_flat_bdc2018_new
I0725 11:41:29.184852  7428 net.cpp:157] Top shape: 2 36 (72)
I0725 11:41:29.184854  7428 net.cpp:165] Memory required for data: 8494417200
I0725 11:41:29.184857  7428 layer_factory.hpp:77] Creating layer conv8_2_mbox_priorbox
I0725 11:41:29.184864  7428 net.cpp:100] Creating Layer conv8_2_mbox_priorbox
I0725 11:41:29.184867  7428 net.cpp:434] conv8_2_mbox_priorbox <- conv8_2_conv8_2_relu_0_split_3
I0725 11:41:29.184872  7428 net.cpp:434] conv8_2_mbox_priorbox <- data_data_0_split_5
I0725 11:41:29.184880  7428 net.cpp:408] conv8_2_mbox_priorbox -> conv8_2_mbox_priorbox
I0725 11:41:29.184908  7428 net.cpp:150] Setting up conv8_2_mbox_priorbox
I0725 11:41:29.184916  7428 net.cpp:157] Top shape: 1 2 16 (32)
I0725 11:41:29.184918  7428 net.cpp:165] Memory required for data: 8494417328
I0725 11:41:29.184921  7428 layer_factory.hpp:77] Creating layer conv9_2_mbox_loc_bdc2018
I0725 11:41:29.184931  7428 net.cpp:100] Creating Layer conv9_2_mbox_loc_bdc2018
I0725 11:41:29.184936  7428 net.cpp:434] conv9_2_mbox_loc_bdc2018 <- conv9_2_conv9_2_relu_0_split_0
I0725 11:41:29.184942  7428 net.cpp:408] conv9_2_mbox_loc_bdc2018 -> conv9_2_mbox_loc_bdc2018
I0725 11:41:29.186539  7428 net.cpp:150] Setting up conv9_2_mbox_loc_bdc2018
I0725 11:41:29.186554  7428 net.cpp:157] Top shape: 2 16 1 1 (32)
I0725 11:41:29.186558  7428 net.cpp:165] Memory required for data: 8494417456
I0725 11:41:29.186564  7428 layer_factory.hpp:77] Creating layer conv9_2_mbox_loc_bdc2018_perm_bdc2018
I0725 11:41:29.186573  7428 net.cpp:100] Creating Layer conv9_2_mbox_loc_bdc2018_perm_bdc2018
I0725 11:41:29.186578  7428 net.cpp:434] conv9_2_mbox_loc_bdc2018_perm_bdc2018 <- conv9_2_mbox_loc_bdc2018
I0725 11:41:29.186583  7428 net.cpp:408] conv9_2_mbox_loc_bdc2018_perm_bdc2018 -> conv9_2_mbox_loc_bdc2018_perm_bdc2018
I0725 11:41:29.186698  7428 net.cpp:150] Setting up conv9_2_mbox_loc_bdc2018_perm_bdc2018
I0725 11:41:29.186707  7428 net.cpp:157] Top shape: 2 1 1 16 (32)
I0725 11:41:29.186709  7428 net.cpp:165] Memory required for data: 8494417584
I0725 11:41:29.186724  7428 layer_factory.hpp:77] Creating layer conv9_2_mbox_loc_bdc2018_flat_bdc2018
I0725 11:41:29.186733  7428 net.cpp:100] Creating Layer conv9_2_mbox_loc_bdc2018_flat_bdc2018
I0725 11:41:29.186738  7428 net.cpp:434] conv9_2_mbox_loc_bdc2018_flat_bdc2018 <- conv9_2_mbox_loc_bdc2018_perm_bdc2018
I0725 11:41:29.186743  7428 net.cpp:408] conv9_2_mbox_loc_bdc2018_flat_bdc2018 -> conv9_2_mbox_loc_bdc2018_flat_bdc2018
I0725 11:41:29.186771  7428 net.cpp:150] Setting up conv9_2_mbox_loc_bdc2018_flat_bdc2018
I0725 11:41:29.186779  7428 net.cpp:157] Top shape: 2 16 (32)
I0725 11:41:29.186781  7428 net.cpp:165] Memory required for data: 8494417712
I0725 11:41:29.186784  7428 layer_factory.hpp:77] Creating layer conv9_2_mbox_conf_bdc2018_new
I0725 11:41:29.186796  7428 net.cpp:100] Creating Layer conv9_2_mbox_conf_bdc2018_new
I0725 11:41:29.186800  7428 net.cpp:434] conv9_2_mbox_conf_bdc2018_new <- conv9_2_conv9_2_relu_0_split_1
I0725 11:41:29.186808  7428 net.cpp:408] conv9_2_mbox_conf_bdc2018_new -> conv9_2_mbox_conf_bdc2018_new
I0725 11:41:29.188859  7428 net.cpp:150] Setting up conv9_2_mbox_conf_bdc2018_new
I0725 11:41:29.188874  7428 net.cpp:157] Top shape: 2 36 1 1 (72)
I0725 11:41:29.188877  7428 net.cpp:165] Memory required for data: 8494418000
I0725 11:41:29.188884  7428 layer_factory.hpp:77] Creating layer conv9_2_mbox_conf_bdc2018_new_perm_bdc2018_new
I0725 11:41:29.188894  7428 net.cpp:100] Creating Layer conv9_2_mbox_conf_bdc2018_new_perm_bdc2018_new
I0725 11:41:29.188899  7428 net.cpp:434] conv9_2_mbox_conf_bdc2018_new_perm_bdc2018_new <- conv9_2_mbox_conf_bdc2018_new
I0725 11:41:29.188905  7428 net.cpp:408] conv9_2_mbox_conf_bdc2018_new_perm_bdc2018_new -> conv9_2_mbox_conf_bdc2018_new_perm_bdc2018_new
I0725 11:41:29.189033  7428 net.cpp:150] Setting up conv9_2_mbox_conf_bdc2018_new_perm_bdc2018_new
I0725 11:41:29.189041  7428 net.cpp:157] Top shape: 2 1 1 36 (72)
I0725 11:41:29.189044  7428 net.cpp:165] Memory required for data: 8494418288
I0725 11:41:29.189047  7428 layer_factory.hpp:77] Creating layer conv9_2_mbox_conf_bdc2018_new_flat_bdc2018_new
I0725 11:41:29.189052  7428 net.cpp:100] Creating Layer conv9_2_mbox_conf_bdc2018_new_flat_bdc2018_new
I0725 11:41:29.189056  7428 net.cpp:434] conv9_2_mbox_conf_bdc2018_new_flat_bdc2018_new <- conv9_2_mbox_conf_bdc2018_new_perm_bdc2018_new
I0725 11:41:29.189064  7428 net.cpp:408] conv9_2_mbox_conf_bdc2018_new_flat_bdc2018_new -> conv9_2_mbox_conf_bdc2018_new_flat_bdc2018_new
I0725 11:41:29.189091  7428 net.cpp:150] Setting up conv9_2_mbox_conf_bdc2018_new_flat_bdc2018_new
I0725 11:41:29.189098  7428 net.cpp:157] Top shape: 2 36 (72)
I0725 11:41:29.189100  7428 net.cpp:165] Memory required for data: 8494418576
I0725 11:41:29.189103  7428 layer_factory.hpp:77] Creating layer conv9_2_mbox_priorbox
I0725 11:41:29.189112  7428 net.cpp:100] Creating Layer conv9_2_mbox_priorbox
I0725 11:41:29.189116  7428 net.cpp:434] conv9_2_mbox_priorbox <- conv9_2_conv9_2_relu_0_split_2
I0725 11:41:29.189121  7428 net.cpp:434] conv9_2_mbox_priorbox <- data_data_0_split_6
I0725 11:41:29.189127  7428 net.cpp:408] conv9_2_mbox_priorbox -> conv9_2_mbox_priorbox
I0725 11:41:29.189157  7428 net.cpp:150] Setting up conv9_2_mbox_priorbox
I0725 11:41:29.189163  7428 net.cpp:157] Top shape: 1 2 16 (32)
I0725 11:41:29.189167  7428 net.cpp:165] Memory required for data: 8494418704
I0725 11:41:29.189169  7428 layer_factory.hpp:77] Creating layer mbox_loc
I0725 11:41:29.189175  7428 net.cpp:100] Creating Layer mbox_loc
I0725 11:41:29.189179  7428 net.cpp:434] mbox_loc <- res5c_norm_mbox_loc_bdc2018_flat_bdc2018
I0725 11:41:29.189184  7428 net.cpp:434] mbox_loc <- pool5_mbox_loc_bdc2018_flat_bdc2018
I0725 11:41:29.189188  7428 net.cpp:434] mbox_loc <- conv6_2_mbox_loc_bdc2018_flat_bdc2018
I0725 11:41:29.189193  7428 net.cpp:434] mbox_loc <- conv7_2_mbox_loc_bdc2018_flat_bdc2018
I0725 11:41:29.189196  7428 net.cpp:434] mbox_loc <- conv8_2_mbox_loc_bdc2018_flat_bdc2018
I0725 11:41:29.189200  7428 net.cpp:434] mbox_loc <- conv9_2_mbox_loc_bdc2018_flat_bdc2018
I0725 11:41:29.189208  7428 net.cpp:408] mbox_loc -> mbox_loc
I0725 11:41:29.189249  7428 net.cpp:150] Setting up mbox_loc
I0725 11:41:29.189256  7428 net.cpp:157] Top shape: 2 9320 (18640)
I0725 11:41:29.189260  7428 net.cpp:165] Memory required for data: 8494493264
I0725 11:41:29.189262  7428 layer_factory.hpp:77] Creating layer mbox_conf
I0725 11:41:29.189267  7428 net.cpp:100] Creating Layer mbox_conf
I0725 11:41:29.189271  7428 net.cpp:434] mbox_conf <- res5c_norm_mbox_conf_bdc2018_new_flat_bdc2018_new
I0725 11:41:29.189276  7428 net.cpp:434] mbox_conf <- pool5_mbox_conf_bdc2018_new_flat_bdc2018_new
I0725 11:41:29.189280  7428 net.cpp:434] mbox_conf <- conv6_2_mbox_conf_bdc2018_new_flat_bdc2018_new
I0725 11:41:29.189285  7428 net.cpp:434] mbox_conf <- conv7_2_mbox_conf_bdc2018_new_flat_bdc2018_new
I0725 11:41:29.189288  7428 net.cpp:434] mbox_conf <- conv8_2_mbox_conf_bdc2018_new_flat_bdc2018_new
I0725 11:41:29.189291  7428 net.cpp:434] mbox_conf <- conv9_2_mbox_conf_bdc2018_new_flat_bdc2018_new
I0725 11:41:29.189298  7428 net.cpp:408] mbox_conf -> mbox_conf
I0725 11:41:29.189323  7428 net.cpp:150] Setting up mbox_conf
I0725 11:41:29.189329  7428 net.cpp:157] Top shape: 2 20970 (41940)
I0725 11:41:29.189332  7428 net.cpp:165] Memory required for data: 8494661024
I0725 11:41:29.189337  7428 layer_factory.hpp:77] Creating layer mbox_priorbox
I0725 11:41:29.189343  7428 net.cpp:100] Creating Layer mbox_priorbox
I0725 11:41:29.189347  7428 net.cpp:434] mbox_priorbox <- res5c_norm_mbox_priorbox
I0725 11:41:29.189352  7428 net.cpp:434] mbox_priorbox <- pool5_mbox_priorbox
I0725 11:41:29.189355  7428 net.cpp:434] mbox_priorbox <- conv6_2_mbox_priorbox
I0725 11:41:29.189359  7428 net.cpp:434] mbox_priorbox <- conv7_2_mbox_priorbox
I0725 11:41:29.189363  7428 net.cpp:434] mbox_priorbox <- conv8_2_mbox_priorbox
I0725 11:41:29.189366  7428 net.cpp:434] mbox_priorbox <- conv9_2_mbox_priorbox
I0725 11:41:29.189370  7428 net.cpp:408] mbox_priorbox -> mbox_priorbox
I0725 11:41:29.189395  7428 net.cpp:150] Setting up mbox_priorbox
I0725 11:41:29.189402  7428 net.cpp:157] Top shape: 1 2 9320 (18640)
I0725 11:41:29.189405  7428 net.cpp:165] Memory required for data: 8494735584
I0725 11:41:29.189409  7428 layer_factory.hpp:77] Creating layer mbox_conf_reshape
I0725 11:41:29.189416  7428 net.cpp:100] Creating Layer mbox_conf_reshape
I0725 11:41:29.189419  7428 net.cpp:434] mbox_conf_reshape <- mbox_conf
I0725 11:41:29.189426  7428 net.cpp:408] mbox_conf_reshape -> mbox_conf_reshape
I0725 11:41:29.189471  7428 net.cpp:150] Setting up mbox_conf_reshape
I0725 11:41:29.189478  7428 net.cpp:157] Top shape: 2 2330 9 (41940)
I0725 11:41:29.189481  7428 net.cpp:165] Memory required for data: 8494903344
I0725 11:41:29.189484  7428 layer_factory.hpp:77] Creating layer mbox_conf_softmax
I0725 11:41:29.189492  7428 net.cpp:100] Creating Layer mbox_conf_softmax
I0725 11:41:29.189496  7428 net.cpp:434] mbox_conf_softmax <- mbox_conf_reshape
I0725 11:41:29.189503  7428 net.cpp:408] mbox_conf_softmax -> mbox_conf_softmax
I0725 11:41:29.190125  7428 net.cpp:150] Setting up mbox_conf_softmax
I0725 11:41:29.190140  7428 net.cpp:157] Top shape: 2 2330 9 (41940)
I0725 11:41:29.190143  7428 net.cpp:165] Memory required for data: 8495071104
I0725 11:41:29.190148  7428 layer_factory.hpp:77] Creating layer mbox_conf_flatten
I0725 11:41:29.190156  7428 net.cpp:100] Creating Layer mbox_conf_flatten
I0725 11:41:29.190160  7428 net.cpp:434] mbox_conf_flatten <- mbox_conf_softmax
I0725 11:41:29.190166  7428 net.cpp:408] mbox_conf_flatten -> mbox_conf_flatten
I0725 11:41:29.190196  7428 net.cpp:150] Setting up mbox_conf_flatten
I0725 11:41:29.190203  7428 net.cpp:157] Top shape: 2 20970 (41940)
I0725 11:41:29.190207  7428 net.cpp:165] Memory required for data: 8495238864
I0725 11:41:29.190209  7428 layer_factory.hpp:77] Creating layer detection_out
I0725 11:41:29.190230  7428 net.cpp:100] Creating Layer detection_out
I0725 11:41:29.190237  7428 net.cpp:434] detection_out <- mbox_loc
I0725 11:41:29.190241  7428 net.cpp:434] detection_out <- mbox_conf_flatten
I0725 11:41:29.190245  7428 net.cpp:434] detection_out <- mbox_priorbox
I0725 11:41:29.190263  7428 net.cpp:408] detection_out -> detection_out
W0725 11:41:29.190310  7428 detection_output_layer.cpp:49] Failed to create directory: /home/user/data/bdc2018/results/SSD_ResNet768x768/Main
I0725 11:41:29.190825  7428 net.cpp:150] Setting up detection_out
I0725 11:41:29.190838  7428 net.cpp:157] Top shape: 1 1 1 7 (7)
I0725 11:41:29.190841  7428 net.cpp:165] Memory required for data: 8495238892
I0725 11:41:29.190845  7428 layer_factory.hpp:77] Creating layer detection_eval
I0725 11:41:29.190852  7428 net.cpp:100] Creating Layer detection_eval
I0725 11:41:29.190857  7428 net.cpp:434] detection_eval <- detection_out
I0725 11:41:29.190861  7428 net.cpp:434] detection_eval <- label
I0725 11:41:29.190867  7428 net.cpp:408] detection_eval -> detection_eval
I0725 11:41:29.191041  7428 net.cpp:150] Setting up detection_eval
I0725 11:41:29.191051  7428 net.cpp:157] Top shape: 1 1 9 5 (45)
I0725 11:41:29.191053  7428 net.cpp:165] Memory required for data: 8495239072
I0725 11:41:29.191057  7428 net.cpp:228] detection_eval does not need backward computation.
I0725 11:41:29.191061  7428 net.cpp:228] detection_out does not need backward computation.
I0725 11:41:29.191066  7428 net.cpp:228] mbox_conf_flatten does not need backward computation.
I0725 11:41:29.191069  7428 net.cpp:228] mbox_conf_softmax does not need backward computation.
…
